data/models/heart_attack/heart_attack_50x10.pth (torch, 102485 bytes, 21 tensors)

net.0.weight f4 [50, 13]
-0.09152455 -0.24919498 -0.030385206 0.19817622 0.12215955 0.10330585 -0.13943195 0.13962026
0.07378379 -0.15365219 -0.18217225 0.28904703 -0.04376395 0.10702107 -0.19014804 0.24293151
0.28606537 -0.23556152 0.061714992 -0.2734906 0.047132924 0.110417195 -0.04511631 0.10662521
-0.41037884 -0.084128 0.036859907 0.26851758 0.0070025492 0.22606763 0.19238064 0.15843274
-0.113442145 0.19908968 -0.16037107 0.10600066 -0.10953933 0.08599971 -0.22024164 -0.11197143
0.228747 -0.19573487 -0.07325179 -0.20077635 -0.3384822 0.24660961 0.11351963 0.24224874
0.12937704 -0.23382415 -0.20174088 0.09164859 0.08283657 0.093698665 0.023886636 -0.26420325
-0.29924238 -0.19902244 0.24818528 0.20711242 0.21468556 0.37211484 0.09156273 0.12651645
0.03581678 -0.29653946 0.2612584 -0.13839659 -0.23434606 0.23614965 -0.042890977 0.12100218
-0.15101282 -0.15991667 0.04600184 0.25302267 0.2607657 -0.28485525 -0.075285204 -0.06254657
-0.052229397 0.19684128 0.1269109 0.20253853 -0.14309812 -0.013134947 0.11459543 0.29539213
-0.21001057 0.37620902 -0.28469414 -0.15236057 0.19151306 -0.037117627 0.1964981 0.3071732
0.04952359 -0.26124683 -0.22354211 0.19921932 -0.11536762 -0.15465182 0.16633497 -0.26829153
0.11060006 0.22621572 -0.41579652 0.25242913 -0.14370948 0.028845083 -0.31074694 -0.12926267
-0.053654987 0.07178882 -0.09547915 0.37938598 -0.21466334 0.23024017 -0.19925019 -0.2701465
0.09622878 -0.22620861 -0.19946761 0.24648577 0.10104098 0.079366446 0.22199571 -0.20355023
0.25107425 -0.050746728 -0.08224632 0.0 -1.6873798e-09 -0.2538139 -0.27660447 4.315596e-21
-7.3408444e-26 -0.25063378 -1.8168342e-17 0.10829579 -3.3068673e-11 0.25301263 0.053515192 0.17914216
-0.1759231 -0.100041576 -0.2286048 -0.06447663 -0.041014235 0.40594217 0.031799693 0.27969393
-0.18556865 0.061891362 -0.11583427 -0.0831991 0.02224742 0.017131066 -0.32134697 0.1971833
-0.25152642 -0.20694806 -0.28307304 0.060529616 0.27804974 0.08864576 0.076188035 -0.026961306
0.20312947 0.19575903 0.28166616 -0.24643892 -0.2771726 0.134228 -0.25067484 -0.095267415
0.27253246 0.09062431 -0.1997747 -0.21396169 -0.1305338 -0.20134194 0.022888774 -0.1866523
-0.24620654 0.0795224 0.34326363 0.0031777637 -0.42058057 0.14508542 -0.014836944 0.31708255
-0.17018494 0.30801532 0.22364706 0.1901274 0.019964663 0.08433558 0.09161893 0.13735051
0.26097566 -0.34758148 0.27127275 0.04766493 0.034864325 -0.0064960155 0.04165064 0.07699282
0.27605316 0.24552663 -0.13492504 -0.051485177 -0.028325658 0.022562388 -0.17560461 -0.08300219
-0.12113355 0.14236633 -0.12080441 -0.016269881 -0.15668169 0.12806468 0.130286 0.23500037
-0.2538046 0.25055245 -0.028729344 0.17963183 -0.3194182 -0.16798961 -0.27128366 0.115579695
-0.009567452 -0.29800126 -0.07589876 -0.13921708 0.0 -0.033812303 -0.26815984 0.1531767
-0.08996086 -0.18372025 -0.0875474 0.1905945 0.0074566826 0.1653877 -0.21161242 0.16151556
0.14451885 0.22599958 -0.24297702 -0.022994447 -0.21039115 0.124344856 0.22369617 0.042330127
00000000: 3971 bbbd f82c 7fbe 65ea f8bc b5ee 4a3e
00000010: c92e fa3d 0492 d33d 40c7 0ebe 9df8 0e3e
00000020: f51b 973d 0057 1dbe 5d8b 3abe f9fd 933e
00000030: d441 33bd dd2d db3d 2bb6 42be 0ac3 783e
00000040: 2977 923e 0a37 71be dcc8 7c3d f606 8cbe
00000050: 740e 413d 6922 e23d e1cb 38bd 515e da3d
00000060: 2d1d d2be 4d4b acbd 6afa 163d 237b 893e
00000070: a475 e53b 467e 673e 6eff 443e 313c 223e
00000080: 5b54 e8bd 2ade 4b3e 5038 24be e016 d93d
00000090: 2856 e0bd 9e20 b03d 0687 61be 4751 e5bd
000000a0: a73c 6a3e b96e 48be 0905 96bd 5198 4dbe
000000b0: 8a4d adbe 3b87 7c3e fb7c e83d 0e10 783e
000000c0: 6a7b 043e 996f 6fbe 2995 4ebe 42b2 bb3d
000000d0: 38a6 a93d 16e5 bf3d e8ad c33c a645 87be
000000e0: 4c36 99be 8acc 4bbe 4824 7e3e 4715 543e
000000f0: 88d6 5b3e d685 be3e 3e85 bb3d 878d 013e
00000100: 9eb4 123d 05d4 97be a9c3 853e d6b7 0dbe
00000110: 6af8 6fbe 37d1 713e 73ae 2fbd fecf f73d
00000120: 1ba3 1abe 32c1 23be 6d6c 3c3d 308c 813e
00000130: 1583 853e 8cd8 91be 212f 9abd 6b18 80bd
00000140: 7eee 55bd c390 493e eef4 013e 4366 4f3e
00000150: 5088 12be f633 57bc 02b1 ea3d a33d 973e
00000160: 030d 57be 789e c03e 6ec3 91be 6904 1cbe
00000170: 001c 443e a708 18bd cc36 493e ce45 9d3e
00000180: 3fd9 4a3d 25c2 85be 39e8 64be 2600 4c3e
00000190: dc45 ecbd 0c5d 1ebe b753 2a3e 825d 89be
000001a0: 4982 e23d 18a5 673e 48e3 d4be 643e 813e
000001b0: 9428 13be 864c ec3c 391a 9fbe 6f5d 04be
000001c0: 55c5 5bbd 0406 933d 938a c3bd e13e c23e
000001d0: b5d0 5bbe 14c4 6b3e 3e08 4cbe a450 8abe
000001e0: 9813 c53d 3ba3 67be 3d41 4cbe c466 7c3e
000001f0: 93ee ce3d e08a a23d d852 633e 796f 50be
00000200: ce8c 803e cddb 4fbd c270 a8bd 0000 0000
00000210: 66e9 e7b0 e5f3 81be 1a9f 8dbe e209 a31d
00000220: 21c0 b595 1253 80be c992 a7a3 2fca dd3d
00000230: 0470 11ae df8a 813e bf32 5b3d 0b71 373e
00000240: 2f25 34be 99e2 ccbd 6017 6abe 530c 84bd
00000250: 8bfe 27bd a7d7 cf3e 6540 023d 0b34 8f3e
00000260: b505 3ebe cc81 7d3d 853a edbd 4a64 aabd
00000270: 3940 b63c 7356 8c3c 9787 a4be 6bea 493e
00000280: 12c8 80be 31ea 53be f3ee 90be e7ed 773d
00000290: 895c 8e3e e98b b53d 7908 9c3d f5dd dcbc
000002a0: 2c01 503e 0e75 483e 8c36 903e 7c5a 7cbe
000002b0: 91e9 8dbe 1173 093e 7458 80be 901b c3bd
000002c0: 6089 8b3e 3d99 b93d bd91 4cbe c618 5bbe
000002d0: a7aa 05be 952c 4ebe 3d81 bb3c c821 3fbe
000002e0: 911d 7cbe a4dc a23d 40c0 af3e 0742 503b
000002f0: 5656 d7be 4691 143e a716 73bc a558 a23e
00000300: f644 2ebe 2fb4 9d3e bc03 653e c2b0 423e
00000310: ef8c a33c 22b8 ac3d b5a2 bb3d 9da5 0c3e
00000320: 9a9e 853e 33f6 b1be 43e4 8a3e 4d3c 433d
00000330: e5cd 0e3d 87dc d4bb dd99 2a3d 69ae 9d3d
00000340: d756 8d3e 556b 7b3e ca29 0abe 1fe2 52bd
00000350: 360b e8bc c2d4 b83c b2d1 33be 0dfd a9bd
00000360: de14 f8bd 7bc8 113e 4d68 f7bd 6a48 85bc
00000370: 2a71 20be 6323 033e b169 053e f0a3 703e
00000380: adf2 81be 6948 803e cd59 ebbc 68f1 373e
00000390: c88a a3be 7805 2cbe b1e5 8abe 0cb5 ec3d
000003a0: cdc0 1cbc 9f93 98be cf70 9bbd ec8e 0ebe
000003b0: 0000 0000 c57e 0abd 3f4c 89be 5ada 1c3e
000003c0: 663d b8bd 2921 3cbe 0d4c b3bd 342b 433e
000003d0: 3057 f43b 655b 293e edb0 58be 5664 253e
000003e0: c0fc 133e 6f6c 673e f8ce 78be da5e bcbc
000003f0: c770 57be 84a8 fe3d 9c10 653e 5b62 2d3d

net.0.bias f4 [50]
-0.039470237 0.017671319 0.014756942 0.03506473 -0.038871277 0.008131263 0.025922485 0.01311308
0.043989383 0.022707922 -0.0071147378 0.09119832 -0.00065806403 0.021802612 0.040156275 -0.029193511
0.009033609 0.029453663 -0.014481402 0.0022016393 0.015743706 0.06958691 0.02414445 0.01360333
-0.017097358 0.0029369455 0.029103065 0.020090507 0.012068363 0.06098094 -0.03507005 0.0
0.015890129 -0.029499559 0.021468962 -0.06264404 0.025087506 0.0074167717 0.0024562553 -0.05233318
-0.017383477 -0.01821741 0.049134135 -0.006846931 0.073371805 0.03152435 -0.010044601 0.0011138723
0.016573709 -0.0056355176
00000000: 8bab 21bd 71c3 903c 1ac7 713c 09a0 0f3d
00000010: 7d37 1fbd fd38 053c 645b d43c 3ed8 563c
00000020: 362e 343d f705 ba3c bf22 e9bb 2fc6 ba3d
00000030: ee81 2cba 649b b23c e87a 243d 3b27 efbc
00000040: b401 143c cf48 f13c 6743 6dbc 6149 103b
00000050: f2f8 803c 9583 8e3d 95ca c53c 80e0 5e3c
00000060: c20f 8cbc c579 403b 8d69 ee3c d994 a43c
00000070: 62ba 453c 26c7 793d 9da5 0fbd 0000 0000
00000080: 042c 823c 0fa9 f1bc addf af3c 854b 80bd
00000090: 5084 cd3c 6408 f33b 20f9 203b 515b 56bd
000000a0: cb67 8ebc ae3c 95bc e040 493d 385c e0bb
000000b0: f543 963d ad1f 013d 1c92 24bc 5aff 913a
000000c0: 96c5 873c 26aa b8bb

net.2.weight f4 [50, 50]
-0.13230243 0.29439026 0.22568569 0.22275276 -0.13730857 -0.12744856 0.08861161 -0.12462928
0.005470448 0.20949994 0.104469836 0.13332087 0.14499283 -0.10661085 -0.18639521 0.0883458
-0.1509852 -0.238701 -0.012187937 0.16729854 0.32460576 0.22475821 -0.07838107 -0.10625539
-0.26541677 -0.119855255 -0.030433763 0.13269773 0.1474782 -0.021824839 0.09339522 -3.4534855e-19
0.10691019 0.1727503 0.12905547 0.22771017 0.2747349 -0.14753768 0.17973664 -0.08515934
0.04153711 0.08647849 0.085101664 0.25032768 0.16699614 0.04747356 -0.36930954 -0.28802958
-0.071456805 -0.17895916 -0.14159548 -0.17238627 0.035761844 -0.18432125 0.045989152 0.27514344
0.050367177 0.07851604 -0.17035475 -0.14454891 -9.813274e-17 0.09466853 -0.08938058 0.119213596
-0.12962395 -0.22299588 0.049267095 -0.007723725 6.1263785e-27 -0.24022388 -0.050356403 -0.18464825
-0.20000185 -0.122161314 -0.035460778 -0.16377603 -0.2083647 0.14262359 0.005321322 -0.05691434
0.14789632 3.0695634e-11 0.09294093 -0.17372322 -0.09250234 -0.09009889 -0.2941518 -0.21563403
0.1511482 0.2000862 0.24928148 0.16614395 -0.07719531 0.17873871 -0.00076036766 0.20145528
0.028671248 0.13925967 -9.60713e-05 0.15371105 0.13446762 0.16607653 -0.29113838 0.17160875
-0.052292164 -0.14379466 0.09142342 0.150671 0.11848848 0.14118718 -9.526276e-14 0.1854381
-0.04013926 0.16836873 -0.06261111 -0.07776518 0.0675363 -0.031205764 7.28165e-27 -0.16282555
0.057868775 0.013409205 0.058235716 -0.36687982 0.14573652 -0.041887857 0.18421037 0.086738475
-0.0027393233 -0.20765568 -0.23863384 0.0 -0.12306374 0.15121828 -0.031081531 0.091123335
0.1030342 0.17866695 0.014962328 -0.2120738 -0.17088418 -0.15593006 -0.046310645 0.11160434
-0.02562256 0.13789712 -0.12804316 -0.17617425 0.15487047 0.0019558582 0.11643267 -0.21019411
0.21545993 0.09920527 -0.07077318 -0.17877796 0.12163276 -0.032506295 0.0991598 -0.07802792
0.0 -0.17328763 -0.2967389 -0.1779117 0.079828724 -0.08396012 -0.031067932 0.06316481
-0.00017580845 0.19387384 0.13763337 0.14026782 -0.17468543 -0.048410058 -0.21200928 -0.08486386
-0.06867426 0.00029334318 0.08731012 0.20795965 0.11635303 0.0 0.07144966 0.245388
-0.22470117 -0.13142054 0.28964314 -0.22391063 -0.26871836 0.019010851 -0.049758602 -0.019326786
-0.00058490597 0.10500916 0.01514916 -0.14435598 -0.27936903 0.23436159 0.009844964 -0.039764572
0.2336034 -0.049089607 -0.15505117 0.05035537 0.21192135 0.16346747 -0.21452837 -0.0042396453
-0.21343903 0.08354081 0.0 0.021703772 -0.0021685339 -0.13218974 0.2531437 -0.28219762
-0.19780087 -0.075368695 0.0 0.018362768 -0.101409756 0.020371199 -0.10490747 -0.2381817
-0.1455882 0.10026055 -0.17657317 -0.08129018 0.022376938 0.30683538 0.19743204 0.0
-0.24170153 -0.16457489 0.059359435 -0.12713622 0.11534508 0.18479182 -0.026141493 -0.21151343
-0.2709524 0.06943785 -0.057753813 -0.0931779 0.16254717 0.16284251 0.2498328 0.11651288
0.29950234 -0.26171246 0.12689807 0.046082225 0.04315431 -0.017023992 -0.091649376 0.0038213737
00000000: 4a7a 07be 52ba 963e 261a 673e 4d19 643e
00000010: 9e9a 0cbe e081 02be 017a b53d a33d ffbd
00000020: 7241 b33b 2787 563e 48f4 d53d 4485 083e
00000030: 0079 143e ca56 dabd 63de 3ebe a5ee b43d
00000040: dd9b 1abe 096e 74be eaaf 47bc 4f50 2b3e
00000050: ba32 a63e 0427 663e 4186 a0bd 6d9c d9bd
00000060: b5e4 87be ac76 f5bd 3a50 f9bc eae1 073e
00000070: 8604 173e 01ca b2bc fe45 bf3d 99db cba0
00000080: bbf3 da3d 74e5 303e 1e27 043e db2c 693e
00000090: 0eaa 8c3e 1e14 17be e20c 383e 0568 aebd
000000a0: d122 2a3d a21b b13d c849 ae3d f32a 803e
000000b0: 0901 2b3e a373 423d 2416 bdbe 9d78 93be
000000c0: f257 92bd 1241 37be 68fe 10be 0786 30be
000000d0: 037b 123d b6be 3cbe 1f5f 3c3d 9adf 8c3e
000000e0: d04d 4e3d 05cd a03d 7a71 2ebe a104 14be
000000f0: 5847 e2a4 93e1 c13d 2a0d b7bd 4226 f43d
00000100: 24bc 04be 0859 64be 4bcc 493d 4d17 fdbb
00000110: dcb0 f213 40fd 75be 8442 4ebd 6e14 3dbe
00000120: 49cd 4cbe b62f fabd 523f 11bd e7b4 27be
00000130: 8e5d 55be eb0b 123e 7c5e ae3b 031f 69bd
00000140: 2272 173e 3600 072e d057 be3d 80e4 31be
00000150: de71 bdbd c485 b8bd 119b 96be 2bcf 5cbe
00000160: 98c6 1a3e 66e3 4c3e a543 7f3e a421 2a3e
00000170: 9318 9ebd 4807 373e 6953 47ba 4b4a 4e3e
00000180: f7df ea3c 169a 0e3e e379 c9b8 6e66 1d3e
00000190: e1b1 093e f70f 2a3e 1710 95be 34ba 2f3e
000001a0: 4f30 56bd e83e 13be 343c bb3d 8049 1a3e
000001b0: 17aa f23d 5f93 103e 3e83 d6a9 7ce3 3d3e
000001c0: 1169 24bd da68 2c3e 413a 80bd 5a43 9fbd
000001d0: 7950 8a3d 3ba3 ffbc 5a3a 1014 bebb 26be
000001e0: cf07 6d3d 48b2 5b3c 9388 6e3d acd7 bbbe
000001f0: f43b 153e 9a92 2bbd a5a1 3c3e f1a3 b13d
00000200: 3886 33bb b1a3 54be 6e5c 74be 0000 0000
00000210: d808 fcbd f7d8 1a3e b29e febc df9e ba3d
00000220: 9803 d33d 78f4 363e 8d24 753c e029 59be
00000230: 43fc 2ebe 21ac 1fbe 3bb0 3dbd d190 e43d
00000240: 67e6 d1bc e734 0d3e bf1d 03be 0667 34be
00000250: 5d96 1e3e db2d 003b 4074 ee3d 203d 57be
00000260: 87a1 5c3e 222c cb3d 87f1 90bd 9211 37be
00000270: 991a f93d 5225 05bd 4b14 cb3d 1acd 9fbd
00000280: 0000 0000 5072 31be 29ee 97be 7c2e 36be
00000290: 3e7d a33d 49f3 abbd 2d82 febc 8d5c 813d
000002a0: 3959 38b9 dd86 463e c3ef 0c3e 5ea2 0f3e
000002b0: bde0 32be a049 46bd f618 59be 1acd adbd
000002c0: 17a5 8cbd dbcb 9939 a6cf b23d 60f3 543e
000002d0: 7f4a ee3d 0000 0000 3354 923d fe46 7b3e
000002e0: 1018 66be 1b93 06be 1b4c 943e d448 65be
000002f0: 7495 89be a5bc 9b3c adcf 4bbd 3553 9ebc
00000300: 6054 19ba 0b0f d73d 2f34 783c 0ed2 13be
00000310: 7509 8fbe 7cfc 6f3e c64c 213c 2de0 22bd
00000320: bb35 6f3e 2f12 49bd bcc5 1ebe 6f41 4e3d
00000330: e901 593e 0464 273e 53ad 5bbe b9ec 8abb
00000340: c38f 5abe 7217 ab3d 0000 0000 1ccc b13c
00000350: f61d 0ebb bf5c 07be 0d9c 813e 357c 90be
00000360: 508c 4abe e75a 9abd 0000 0000 846d 963c
00000370: ebaf cfbd 80e1 a63c bad9 d6bd e7e5 73be
00000380: 1315 15be 6755 cd3d 99cf 34be 777b a6bd
00000390: d74f b73c 8719 9d3e a02b 4a3e 0000 0000
000003a0: 9b80 77be 5286 28be e122 733d ff2f 02be
000003b0: 0b3a ec3d 113a 3d3e af26 d6bc fa96 58be
000003c0: 46ba 8abe 6e35 8e3d 438f 6cbd 0ed4 bebd
000003d0: c472 263e 30c0 263e 2bd4 7f3e 4e9e ee3d
000003e0: 5f58 993e 2dff 85be 91f1 013e b7c0 3c3d
000003f0: 93c2 303d e675 8bbc abb2 bbbd 0370 7a3b

net.2.bias f4 [50]
-0.0015624808 0.011571815 0.0027985387 0.0031162568 -0.0022014515 0.006434409 -0.024609415 -0.0012919027
0.00944214 0.004327275 0.015040998 0.013266279 -0.037339523 -0.019638589 -0.00029259405 0.01784114
-0.029064974 -0.020843407 -0.00600062 -0.00082515605 0.020023739 0.008322549 -4.4434157e-05 -0.006819077
-0.0055072415 0.0288685 -0.016098183 -0.009977971 -1.41741475e-05 0.02166059 0.0025663364 0.0120373545
0.016239777 0.005157849 0.0011910532 0.014425141 0.017223945 0.044836026 -0.008371625 -0.004527067
-0.0029251783 0.04488301 0.026228365 0.028557034 0.04341337 -0.011067219 -0.0107014235 0.0
-0.030483134 0.015762802
00000000: 28cc ccba b697 3d3c b067 373b 1d3a 4c3b
00000010: 3a46 10bb bcd7 d23b af99 c9bc 1055 a9ba
00000020: 35b3 1a3c d0cb 8d3b 856e 763c cf5a 593c
00000030: 54f1 18bd 1be1 a0bc 4f67 99b9 9527 923c
00000040: ab19 eebc cbbf aabc d9a0 c4bb 494f 58ba
00000050: d308 a43c 4d5b 083c d05e 3ab8 9072 dfbb
00000060: 1776 b4bb a27d ec3c 56e0 83bc a57a 23bc
00000070: 80cd 6db7 8d71 b13c fb2f 283b 5338 453c
00000080: 4809 853c 2c03 a93b 1d1d 9c3a 6d57 6c3c
00000090: 3b19 8d3c fba5 373d 2429 09bc ca57 94bb
000000a0: 59b4 3fbb 3fd7 373d dedc d63c 71f0 e93c
000000b0: 38d2 313d 4853 35bc 0655 2fbc 0000 0000
000000c0: c4b7 f9bc fe20 813c

net.4.weight f4 [50, 50]
0.24616764 -0.045608494 0.062377937 -0.074586995 0.06525569 -0.087654546 -0.012444044 -0.092224784
-0.048221584 -0.13503794 0.23677999 -0.020849062 0.0031102358 -0.16647346 -7.1179716e-12 -0.14064443
-0.11006175 0.11349347 0.0805003 0.089054435 -0.1545216 0.12437049 1.1028053e-12 -0.023329247
-0.11899493 0.27744797 -0.1531464 -0.003656799 0.0 -0.17598215 -0.26359856 -0.025963183
-0.079272985 0.12277043 0.054168638 0.05233565 0.2069724 0.20879798 -0.052485943 -0.29150364
0.105313584 -0.1220403 0.18633679 0.049151447 0.30795187 -0.14958818 0.07773309 0.0
0.04823956 0.25303888 -0.1371858 0.24538083 -0.16423869 0.0054065515 0.14405307 0.0
-0.18297547 0.0016792612 -0.2524533 -0.01537348 -0.1875808 0.13877447 0.023256825 -0.105700865
-0.0031985953 0.1073824 0.004747651 0.15910001 -0.21608643 -0.021490972 -0.030734517 -0.07406658
0.0 0.1027531 0.18263128 -0.03801196 -0.082485616 0.009707179 0.0 -0.1755515
0.15555517 -0.17792636 0.12631689 -0.25698742 0.14616045 0.0022733954 0.10826256 0.089847855
-0.1422409 0.09500461 0.019824697 -0.1281044 1.9532915e-13 -0.15932469 -0.18619776 -0.23470485
0.16691804 -3.9938837e-21 0.17739663 -0.015333184 0.0440907 0.10438677 -0.10392109 0.11125731
0.25365147 0.14480312 0.23640972 -0.031226248 -0.28540215 -0.03993229 0.19071895 0.24907112
0.0069864164 -0.0032469823 -0.11241117 -0.073364 -0.11929498 0.14152092 -0.079539314 -0.12392938
-0.0873415 0.07620618 -1.908712e-11 -0.00047701297 0.024448663 0.24570297 -0.15940014 0.015232577
-4.5204146e-25 -0.01661065 0.040155858 0.04709903 -0.04423083 -0.21863934 -0.095605284 0.28595245
-0.016387133 -0.118735135 -0.11097227 -0.12619981 0.20681639 0.22576286 -0.0962849 0.102972925
0.06723527 -0.10329419 0.22042276 0.0 0.106501676 -0.010834218 -0.1624408 0.034543063
-0.01235131 0.024788486 -0.022520795 -0.035389826 -0.12091557 -0.17598277 -0.22702123 -0.11136607
0.06018169 -0.0006589279 0.03985332 0.006007625 -1.9338802e-15 -0.27207425 -0.043558896 0.13646932
-0.20018472 0.17652857 0.03720924 -0.008049521 -1.5249797e-21 -0.20313188 -0.14454253 0.19016586
-0.27727407 0.17325169 0.0 0.22970976 -0.12316052 -0.025738299 0.19105531 -0.32143477
-0.029047256 -0.124439105 0.24739079 0.022929793 0.22525866 -0.093002915 0.22219762 0.23717597
-0.1287563 -0.040909037 0.16088142 -0.17551701 0.1273549 0.0 0.13984825 0.09861564
0.09356371 -0.121926546 0.17595638 -0.00031973407 -0.20125197 -0.25442457 -0.0809074 -0.29511273
0.06295592 0.04049254 -0.26739594 0.008378473 -0.0039124596 -0.03631521 7.240079e-30 -0.18145481
0.04338979 0.016756749 -0.05728689 0.27977255 0.08384128 0.283018 7.231546e-30 0.05018477
-0.09029864 -0.013363732 -0.053163346 8.49125e-08 0.0 0.0072853803 0.26191455 -0.08924806
-0.30602565 -0.16105033 0.07934312 -0.12348169 -0.2445363 -0.06277633 0.02672034 -0.04321307
-0.07550826 0.28903502 -0.21571167 0.017747827 -0.071680196 -0.18647534 -0.15517588 0.0
0.13335429 -0.17104186 0.21347502 0.12788633 -0.16693917 -0.035612583 0.12391068 -0.05458599
00000000: 5f13 7c3e f9cf 3abd 0280 7f3d 11c1 98bd
00000010: c6a4 853d 3a84 b3bd 1be2 4bbc 59e0 bcbd
00000020: ff83 45bd 6347 0abe 7476 723e a7cb aabc
00000030: 19d5 4b3b 0578 2abe fd70 faac 1805 10be
00000040: 0e68 e1bd 446f e83d 57dd a43d 2c62 b63d
00000050: e93a 1ebe f5b5 fe3d c034 9b2b fa1c bfbc
00000060: 9db3 f3bd a90d 8e3e 69d2 1cbe e8a6 6fbb
00000070: 0000 0000 aa34 34be 64f6 86be beb0 d4bc
00000080: e059 a2bd 106f fb3d efdf 5d3d e85d 563d
00000090: 93f0 533e 23cf 553e 80fb 56bd f73f 95be
000000a0: a6ae d73d 44f0 f9bd 12cf 3e3e 0753 493d
000000b0: deab 9d3e a52d 19be 8732 9f3d 0000 0000
000000c0: d896 453d 508e 813e 6f7a 0cbe 1d45 7b3e
000000d0: 302e 28be 7129 b13b a682 133e 0000 0000
000000e0: ec5d 3bbe a81a dc3a 8f41 81be 0ce1 7bbc
000000f0: 2e15 40be e51a 0e3e 1985 be3c b279 d8bd
00000100: 869f 51bb 4eeb db3d 2f92 9b3b 1deb 223e
00000110: c345 5dbe d60d b0bc f4c6 fbbc 38b0 97bd
00000120: 0000 0000 3870 d23d b203 3b3e 6eb2 1bbd
00000130: 38ee a8bd dc0a 1f3c 0000 0000 c6c3 33be
00000140: db49 1f3e 5432 36be 3759 013e db93 83be
00000150: 16ab 153e 3ffd 143b c3b8 dd3d 2702 b83d
00000160: 99a7 11be c791 c23d 6767 a23c cd2d 03be
00000170: cbeb 5b2a 0326 23be a0aa 3ebe 7856 70be
00000180: 90ec 2a3e 79e2 969d 76a7 353e 0938 7bbc
00000190: 7398 343d bbc8 d53d 95d4 d4bd dfda e33d
000001a0: 9bde 813e 4547 143e 6415 723e 30ce ffbc
000001b0: 3b20 92be 0a90 23bd d44b 433e 800c 7f3e
000001c0: 4fee e43b 53cb 54bb d437 e6bd dd3f 96bd
000001d0: ed50 f4bd dcea 103e 82e5 a2bd b0ce fdbd
000001e0: 1ae0 b2bd fc11 9c3d 60e4 a7ad 9917 fab9
000001f0: 9048 c83c 8f99 7b3e ca39 23be 0f92 793c
00000200: 6ae6 0b97 0f13 88bc 787a 243d eaea 403d
00000210: 632b 35bd fee2 5fbe b4cc c3bd 5c68 923e
00000220: 4f3e 86bc 682b f3bd 6e45 e3bd 863a 01be
00000230: adc7 533e 612e 673e 0531 c5bd 78e3 d23d
00000240: a5b2 893d e78b d3bd 81b6 613e 0000 0000
00000250: 8d1d da3d 0182 31bc e256 26be 077d 0d3d
00000260: 265d 4abc 3911 cb3c 887d b8bc ecf4 10bd
00000270: 95a2 f7bd d434 34be 4178 68be e513 e4bd
00000280: 1381 763d e7bb 2cba 3c3d 233d 9cdb c43b
00000290: cb59 0ba7 514d 8bbe d06a 32bd 9dbe 0b3e
000002a0: 39fd 4cbe e8c3 343e b768 183d 23e2 03bc
000002b0: cb72 e69c ce01 50be f502 14be d7ba 423e
000002c0: def6 8dbe e468 313e 0000 0000 0939 6b3e
000002d0: 953b fcbd 20d9 d2bc 01a4 433e 1993 a4be
000002e0: 83f4 edbc eed9 febd 0354 7d3e 43d7 bb3c
000002f0: 35aa 663e 5078 bebd c687 633e 42de 723e
00000300: b1d8 03be 3c90 27bd 19be 243e bbba 33be
00000310: 5369 023e 0000 0000 6134 0f3e fff6 c93d
00000320: 559e bf3d a0b4 f9bd e92d 343e fba1 a7b9
00000330: ff14 4ebe f043 82be c7b2 a5bd 0419 97be
00000340: 09ef 803d 81db 253d 1fe8 88be dd45 093c
00000350: 1734 80bb 42bf 14bd a4d8 120f 4acf 39be
00000360: 7eb9 313d 7345 893c a8a5 6abd 593e 8f3e
00000370: fab4 ab3d bce7 903e 55ac 120f 8c8e 4d3d
00000380: 7eee b8bd 8ef3 5abc cfc1 59bd 2459 b633
00000390: 0000 0000 33ba ee3b aa19 863e b0c7 b6bd
000003a0: 65af 9cbe 61ea 24be a57e a23d f8e3 fcbd
000003b0: b967 7abe e090 80bd 9de4 da3c 3000 31bd
000003c0: 13a4 9abd 66fc 933e 85e3 5cbe e463 913c
000003d0: 11cd 92bd 64f3 3ebe 6de6 1ebe 0000 0000
000003e0: 078e 083e 9925 2fbe 3299 5a3e a2f4 023e
000003f0: 1af2 2abe 80de 11bd e2c4 fd3d 8f95 5fbd

net.4.bias f4 [50]
0.040402774 -0.03970818 0.009390057 0.029042337 0.032975346 -0.0025357883 0.014994726 0.005540119
-0.01579955 0.048886564 -0.011369503 -0.0144831715 -0.020010712 -0.029465958 -0.0371826 -0.010439354
-0.012769622 -0.009936294 -0.016591955 -0.0391408 0.016220039 0.022453919 -0.004099843 0.018295504
-0.00796976 -0.010709759 -0.009993616 0.044274922 -0.0066364156 -0.01622146 0.016413935 0.014485161
-0.018549584 -0.03018624 -0.029884793 0.011133389 0.028125456 -0.005577606 0.035529956 0.010656811
-0.011900519 -0.01603172 0.024485016 0.00032685886 0.04139538 0.014336568 -0.010646749 -0.016058067
0.008311904 -0.00332566
00000000: 617d 253d 0ba5 22bd c1d8 193c 32ea ed3c
00000010: 2811 073d 782f 26bb 70ac 753c e389 b53b
00000020: 0f6e 81bc 473d 483d 2747 3abc d34a 6dbc
00000030: 81ed a3bc 9862 f1bc c84c 18bd d309 2bbc
00000040: ad37 51bc d6cb 22bc daeb 87bc 1a52 20bd
00000050: e3df 843c 48f1 b73c fa57 86bb 74e0 953c
00000060: 9993 02bc fc77 2fbc 43bc 23bc 9f59 353d
00000070: 4a76 d9bb dee2 84bc 8476 863c 2b53 6d3c
00000080: 4cf5 97bc 2249 f7bc f4d0 f4bc d168 363c
00000090: 5b67 e63c 5ac4 b6bb dc87 113d e899 2e3c
000000a0: 65fa 42bc f454 83bc cd94 c83c 415e ab39
000000b0: 348e 293d ede3 6a3c b46f 2ebc 358c 83bc
000000c0: a72e 083c 51f3 59bb

net.6.weight f4 [50, 50]
0.019965444 -0.02270699 -0.1079381 0.19797072 -0.31059998 0.2186721 0.0074172164 -0.19203761
0.056664962 -0.27576956 -0.016698245 0.014406909 -0.18060431 0.19057423 -0.013997591 0.009898264
-0.0043062926 0.12204491 -9.820993e-08 0.08051403 0.13577962 -0.029048547 -0.06360876 0.18638507
0.0116838915 0.23588546 -0.06795263 -0.09083439 -0.15462264 0.05475921 -0.0653374 0.016941868
0.223429 0.22104214 0.3293746 0.06576751 -0.25101385 0.03636348 -0.021387849 0.19843817
-0.1289281 0.17752701 -0.17606646 0.21462727 -0.072627015 0.1415112 0.1759716 -0.076166
-0.15783566 -0.09825633 0.06314928 -0.19229983 -0.014144076 -0.047220692 -0.07616482 0.12962702
0.035810683 0.07982138 -0.020384744 0.0459501 0.010877482 -0.00260632 -0.15163061 0.22049811
0.21877228 -0.0015588964 0.019528186 0.1253172 -2.2492366e-11 0.12367576 0.014879641 -0.17844433
0.08121681 -0.16860647 0.008983432 -0.19806273 0.043627653 0.072921805 0.2531576 -0.092421256
-0.00675001 -0.24794939 -0.1789541 -0.049220882 -0.10473676 0.26928067 -0.03458055 0.20036219
-0.024331277 0.17265658 0.045677878 -0.20614977 0.26656875 -0.14882612 -0.013817584 -0.20199762
-0.15152475 -0.20492378 0.19014852 -0.17416444 0.10729538 -0.20292214 0.1907572 0.041025866
0.32848948 0.11822856 0.070946746 0.11305101 0.1076495 0.34059104 0.020667862 -0.015301548
0.077711016 -0.31481442 0.12378208 0.0077710766 0.014312834 0.18093054 0.00013491539 0.11327968
-0.30373028 -0.13206396 0.124163285 -0.13496469 0.10559832 -0.20928173 0.35701275 0.039636817
0.25621197 0.017875029 -0.19314544 -0.03813175 0.04021218 -0.035095938 -0.3137801 0.15793537
0.26653385 -0.12717414 0.1262037 0.07062805 0.016459512 -0.12470673 0.13727556 0.09902204
0.024454987 0.107516855 -0.04104709 -0.08726552 -0.1569834 -0.20451714 -0.17669149 0.015200388
-0.13806225 -0.007367735 -0.04542935 -0.21649174 0.19305313 -0.25664058 0.029145788 -0.20157194
-0.026924822 0.01426101 0.12168958 0.28670585 -0.087377615 0.00854075 -0.014499304 -0.11144522
-5.892537e-06 0.2319946 0.10523171 0.05244041 0.069251366 0.20786037 -0.06156792 -0.1382862
-0.08068297 0.068073615 0.19184448 0.10613529 0.24692492 -0.21419829 -0.15583707 -0.058296505
0.18108323 0.08016442 0.008392486 -0.08010817 0.23677692 0.14945722 -0.06136413 0.03855186
-0.24364406 -0.11204499 -0.1327693 0.05653818 0.11838634 0.031132573 0.22263716 0.18018283
-0.19449641 -0.030353434 -0.248902 -0.09562811 -0.056585375 0.06516518 -0.20193319 -0.2909083
0.006474236 0.12523128 -0.0014945767 1.3257873e-29 -0.11315954 0.15051052 -0.09918833 -0.00029656332
-0.011469191 0.24542668 0.0 0.08324132 0.07967899 -0.08316624 -0.19982775 0.118997216
-0.025583146 0.20411693 -0.18812409 -0.21850114 0.12145694 -0.090827756 0.20060144 0.13276903
-0.24558719 -0.14134039 0.0053302664 0.24871978 -0.35473323 0.11384908 -0.0039809155 -0.07733217
-0.092330486 -0.098399535 0.23628876 -0.14410469 0.073828645 0.31789458 -0.05102956 0.083388954
-0.038585097 -0.18836753 -0.27832824 -0.22050872 0.11725993 0.08449371 -0.019362247 0.276965
00000000: 928e a33c 0204 babc a70e ddbd d6b8 4a3e
00000010: f606 9fbe 94eb 5f3e 1f0c f33b 82a5 44be
00000020: 8519 683d ab31 8dbe c2ca 88bc f50a 6c3c
00000030: 56f0 38be e425 433e 2756 65bc 542c 223c
00000040: cd1b 8dbb aff2 f93d 7be7 d2b3 8ae4 a43d
00000050: d009 0b3e 38f7 edbc 4f45 82bd badb 3e3e
00000060: cb6d 3f3c f58b 713e c02a 8bbd 6107 babd
00000070: 6655 1ebe 324b 603d 9dcf 85bd acc9 8a3c
00000080: 92ca 643e df58 623e caa3 a83e 1eb1 863d
00000090: e384 80be dff1 143d 9235 afbc 6033 4b3e
000000a0: ba05 04be a4c9 353e c44a 34be 40c7 5b3e
000000b0: 79bd 94bd 50e8 103e e631 343e ebfc 9bbd
000000c0: ac9f 21be 9d3a c9bd 6954 813d 3fea 44be
000000d0: 8ebc 67bc 7c6a 41bd 4dfc 9bbd f2bc 043e
000000e0: 39ae 123d 6479 a33d e8fd a6bc 2c36 3c3d
000000f0: 7737 323c cbce 2abb 0e45 1bbe 42ca 613e
00000100: d705 603e e253 ccba 93f9 9f3c 2753 003e
00000110: 4ed8 c5ad b849 fd3d bdc9 733c 1cba 36be
00000120: 0055 a63d 2da7 2cbe 3f2f 133c f5d0 4abe
00000130: e9b2 323d 0758 953d df9d 813e 5b47 bdbd
00000140: 302f ddbb 72e6 7dbe be3f 37be d69b 49bd
00000150: 3a80 d6bd 28df 893e 56a4 0dbd bf2b 4d3e
00000160: 6352 c7bc e3cc 303e ba18 3b3d ed18 53be
00000170: b37b 883e e065 18be 2663 62bc 77d8 4ebe
00000180: 4e29 1bbe 8ad7 51be 4bb6 423e 2a58 32be
00000190: aebd db3d d2ca 4fbe db55 433e bd0a 283d
000001a0: c62f a83e d121 f23d 874c 913d 4a87 e73d
000001b0: 5777 dc3d f361 ae3e a64f a93c 58b3 7abc
000001c0: f426 9f3d 5b2f a1be 7681 fd3d 84a4 fe3b
000001d0: 6080 6a3c db45 393e 1378 0d39 2dff e73d
000001e0: 8982 9bbe c63b 07be 5249 fe3d 2f34 0abe
000001f0: ef43 d83d f34d 56be 60ca b63e 375a 223d
00000200: 372e 833e a76e 923c ebc7 45be 0a30 1cbd
00000210: 87b5 243d c2c0 0fbd c9a7 a0be cfb9 213e
00000220: 2077 883e f039 02be 8b3b 013e 70a5 903d
00000230: 19d6 863c 3e66 ffbd f791 0c3e 11cc ca3d
00000240: d355 c83c cc31 dc3d fe20 28bd 44b8 b2bd
00000250: 42c0 20be f16c 51be 9dee 34be 0c0b 793c
00000260: 3160 0dbe 0a6d f1bb 2014 3abd 03b0 5dbe
00000270: b8af 453e 6566 83be 26c3 ee3c e068 4ebe
00000280: 7291 dcbc 03a7 693c 6338 f93d 1ccb 923e
00000290: 09f3 b2bd 80ee 0b3c 7d8e 6dbc 643d e4bd
000002a0: 82b8 c5b6 fe8f 6d3e b983 d73d c1cb 563d
000002b0: a9d3 8d3d 59d9 543e a52e 7cbd e69a 0dbe
000002c0: 1d3d a5bd 2e6a 8b3d e172 443e 755d d93d
000002d0: e3d9 7c3e cc56 5bbe c193 1fbe 51c8 6ebd
000002e0: e26d 393e 3e2d a43d a380 093c c10f a4bd
000002f0: a675 723e 500b 193e f458 7bbd 8ee8 1d3d
00000300: d47d 79be d877 e5bd adf4 07be 9494 673d
00000310: 8a74 f23d bd09 ff3c fffa 633e d981 383e
00000320: 112a 47be c4a7 f8bc 2ae0 7ebe acd8 c3bd
00000330: 11c6 67bd 5275 853d 93c7 4ebe eff1 94be
00000340: d425 d43b a13c 003e ace5 c3ba 6873 860f
00000350: 30c0 e7bd 6e1f 1a3e 4023 cbbd 0e7c 9bb9
00000360: 46e9 3bbc 2251 7b3e 0000 0000 6d7a aa3d
00000370: bd2e a33d 1053 aabd a59f 4cbe d0b4 f33d
00000380: bf93 d1bc 0704 513e 9aa3 40be c3be 5fbe
00000390: 6bbe f83d e703 babd 776a 4d3e 9bf4 073e
000003a0: 357b 7bbe 89bb 10be 84a9 ae3b 66b0 7e3e
000003b0: 989f b5be b529 e93d 5772 82bb 5460 9ebd
000003c0: c417 bdbd b285 c9bd aef5 713e 2e90 13be
000003d0: 7933 973d 14c3 a23e 5f04 51bd d4c7 aa3d
000003e0: 680b 1ebd 6be3 40be 0a81 8ebe 0acd 61be
000003f0: f925 f03d 0a0b ad3d 939d 9ebc 5bce 8d3e

net.6.bias f4 [50]
0.006410105 0.034785718 -0.0119785145 0.008654236 0.023016747 -0.022990676 -0.0074795564 -0.018316397
0.023567427 0.0019093192 -2.6261461e-05 -0.012729025 -0.033540398 0.0052029574 0.019102354 -0.019658022
0.004704229 -0.0060182856 -0.014579584 0.011258109 -0.0023640145 0.0008099262 -0.049127422 0.016496267
0.028325543 0.015465261 0.029828373 -0.008066222 -0.0049776183 0.008352461 0.030122941 0.023453552
0.017848978 0.015873723 -0.016809862 -0.0007084484 -0.0068356 -0.010755294 -0.042285983 0.011165587
-0.021060549 0.016287154 0.007767295 -0.0062057977 -0.03734842 0.0072539663 -0.025857344 0.049679108
0.011500171 -4.1684057e-28
00000000: dc0b d23b 787b 0e3d 8841 44bc 7fca 0d3c
00000010: 9e8d bc3c f156 bcbc 1117 f5bb 450c 96bc
00000020: 7a10 c13c 1f42 fa3a 0f4c dcb7 678d 50bc
00000030: a861 09bd 927d aa3b 8a7c 9c3c dc09 a1bc
00000040: ef25 9a3b 0a35 c5bb 35df 6ebc ee73 383c
00000050: 95ed 1abb 3a51 543a d639 49bd 2e23 873c
00000060: f80a e83c 0262 7d3c a25a f43c 3028 04bc
00000070: 4a1b a3bb c3d8 083c 63c4 f63c aa21 c03c
00000080: 0538 923c 9c09 823c d6b4 89bc 2bb7 39ba
00000090: 2bfd dfbb f936 30bc 1134 2dbd deef 363c
000000a0: 2c87 acbc a36c 853c cb84 fe3b 015a cbbb
000000b0: a8fa 18bd aeb2 ed3b c8d2 d3bc 527c 4b3d
000000c0: 376b 3c3c 201a 0492

net.8.weight f4 [50, 50]
0.0659996 -0.15622705 0.12408874 0.040493626 -0.14108205 0.22041067 0.14120282 -0.0241209
-0.045663375 0.12658565 -9.802096e-30 -0.006396783 -0.03803159 -0.14124048 -0.13933729 -0.111849345
-0.0058602225 0.05283032 -0.02329935 0.14666705 0.013252814 -0.021212475 -0.010026127 -0.2299493
0.23538652 -0.094286785 -0.05596687 0.26459372 -0.08521226 -0.28892207 0.14427547 -0.036877878
0.16998203 0.048494063 0.04707446 -0.23668768 0.15849313 0.02246934 0.1701099 -0.24609232
-0.0019999347 0.018761808 -0.03589412 0.012413542 -0.14406836 0.22910225 0.17417109 -0.205848
-0.25339425 5.7779264e-13 0.14612465 0.09414546 0.17147331 -0.15880433 -0.28246406 0.17257142
0.024596995 -0.010461846 0.1085279 -0.15972275 3.5539566e-12 -0.11264099 -0.063724466 0.075659536
0.20706111 -0.22732867 -0.13944447 0.12925908 -0.09229861 0.065684624 0.19415084 -0.0742413
-0.010266586 0.2319446 -0.26832446 0.102188945 0.25850135 -0.0385197 -0.38876367 0.13727611
0.23460318 -0.018536909 -0.04219809 0.21515349 0.12684803 -0.048491035 0.19775724 -0.007910072
0.15100975 0.24823724 0.03097559 -0.12690154 0.17008653 0.03843917 0.28199095 -0.10018264
-0.07141708 -0.18226358 0.29317975 1.4066077e-29 -0.13139491 0.107241675 0.018072497 -0.0028535533
0.23103379 -0.09841037 0.025237989 -0.003077749 -0.10395463 0.10011178 0.0 -0.03015687
0.034908142 0.0066431826 0.14698316 -0.048050683 -0.14364642 -0.14599058 0.0069105146 0.113930866
-4.1299447e-17 0.04318091 4.0451525e-24 -0.008181422 -0.057353724 -0.08364418 0.000978467 0.0049010995
0.05016737 -0.017614981 0.062163655 -0.085845634 -0.059522253 0.09320607 -0.06648188 -0.1780227
-0.1847733 -0.025166983 0.063388474 0.10194709 0.0 -0.072907545 -0.023189541 0.02779584
0.010369791 -0.050185077 0.011206213 -0.054557603 -0.101925366 2.7234227e-14 -0.040005606 0.17140521
-0.11708241 0.03634883 -0.22779897 -0.12946424 -0.042014174 -2.2302209e-11 -0.17265289 -0.06832763
1.144486e-28 0.1420988 -0.049382564 0.11651514 0.07252858 0.10718614 -0.081541285 -0.105485514
-0.0780285 8.2428754e-14 -0.03141335 -0.18218283 -0.12952147 -0.011633453 0.18203907 -0.12862211
-0.0012051163 0.002434646 9.166087e-13 -0.01844799 -0.09854356 0.012808577 -0.014437808 0.12507398
0.19255203 -0.19795094 -0.1296728 0.0 0.005946429 0.048543666 0.0 -0.17902634
0.034638826 0.0 -0.033494905 0.010591987 -0.01787522 -0.0041048764 -0.19247706 0.0
-0.17587297 0.12102201 -0.24335471 -0.21885486 -0.09753706 0.20788924 0.122088544 0.009772046
-0.027288344 -0.18770139 -2.573983e-16 0.08487115 -0.0023849437 -0.21783705 0.12545033 -0.12594824
-0.123815045 -0.2651367 -0.029696982 0.02915382 -0.17867978 0.17837872 0.022593236 -0.21855009
-0.006688762 -0.061866123 -0.15007661 0.2717202 0.37564108 0.2177658 -0.0038041386 -0.06601627
0.21523522 0.21714126 -0.21243785 -0.22551891 -0.06482124 0.020737642 -0.058432862 0.171925
-0.014612379 0.17782785 0.079132065 0.023398856 -0.07629769 0.09747735 0.16064358 0.15752704
0.012935624 1.1948329e-28 -0.005185037 -0.057920758 0.2323946 -0.25562608 0.032177076 0.09326737
00000000: cc2a 873d fcf9 1fbe 3d22 fe3d a5dc 253d
00000010: d077 10be 56b3 613e 7997 103e 3299 c5bc
00000020: 8509 3bbd ab9f 013e 64cf 468f 1b9c d1bb
00000030: 03c7 1bbd 58a1 10be 6fae 0ebe 4511 e5bd
00000040: 1c07 c0bb 9b64 583d 47de bebc e32f 163e
00000050: 5522 593c c9c5 adbc a044 24bc d477 6bbe
00000060: 2a09 713e 6e19 c1bd 843d 65bd d478 873e
00000070: c483 aebd 98ed 93be f3bc 133e 420d 17bd
00000080: c50f 2e3e b6a1 463d 26d1 403d 415e 72be
00000090: 064c 223e 9f11 b83c 4a31 2e3e a0ff 7bbe
000000a0: 5611 03bb 5db2 993c b605 13bd 2b62 4b3c
000000b0: a886 13be c899 6a3e e859 323e d1c9 52be
000000c0: e4bc 81be 59a2 222b b3a1 153e 56cf c03d
000000d0: b396 2f3e 9a9d 22be 219f 90be 90b6 303e
000000e0: a37f c93c 2a68 2bbc e043 de3d 5c8e 23be
000000f0: 6416 7a2c 52b0 e6bd f981 82bd 63f3 9a3d
00000100: d407 543e d9c8 68be 88ca 0ebe 7e5c 043e
00000110: 0e07 bdbd a985 863d 7acf 463e d30b 98bd
00000120: 2f35 28bc e382 6d3e d361 89be 7048 d13d
00000130: 4a5a 843e d5c6 1dbd 080c c7be 1c92 0c3e
00000140: d13b 703e b7da 97bc e8d7 2cbd 3251 5c3e
00000150: 73e4 013e 899e 46bd e080 4a3e 3f99 01bc
00000160: 4da2 1a3e e731 7e3e 85c0 fd3c 7af2 01be
00000170: 2a2b 2e3e 6472 1d3d 1e61 903e 8e2c cdbd
00000180: 1e43 92bd 4ea3 3abe a81b 963e a0a5 8e0f
00000190: 638c 06be 86a1 db3d c60c 943c ae02 3bbb
000001a0: 1f94 6c3e 608b c9bd e6bf ce3c 0fb4 49bb
000001b0: 2ae6 d4bd 6807 cd3d 0000 0000 8a0b f7bc
000001c0: d7fb 0e3d 0eaf d93b c182 163e cbd0 44bd
000001d0: 0c18 13be 8e7e 15be 9971 e23b 9654 e93d
000001e0: c875 3ea4 77de 303d 407d 9c18 5f0b 06bc
000001f0: bdeb 6abd a44d abbd e83f 803a 6799 a03b
00000200: 4d7c 4d3d 4b4d 90bc 519f 7e3d d6cf afbd
00000210: 9bcd 73bd d3e2 be3d a727 88bd 954b 36be
00000220: 3635 3dbe fd2a cebc d1d1 813d a3c9 d03d
00000230: 0000 0000 8d50 95bd fef7 bdbc 1ab4 e33c
00000240: 0ee6 293c de8e 4dbd 449a 373c cb77 5fbd
00000250: 3fbe d0bd da4d f528 ebdc 23bd d984 2f3e
00000260: e7c8 efbd 83e2 143d 2244 69be 4692 04be
00000270: 0e17 2cbd 1c2c c4ad ebcb 30be 5bef 8bbd
00000280: b214 1111 5982 113e 5f45 4abd 7d9f ee3d
00000290: dd89 943d 6884 db3d 1eff a6bd ca08 d8bd
000002a0: 68cd 9fbd f19c b929 49ab 00bd 238e 3abe
000002b0: 47a1 04be 3d9a 3ebc 7368 3a3e 84b5 03be
000002c0: fef4 9dba 958e 1f3b 4f00 812b 3d20 97bc
000002d0: 35d1 c9bd 11db 513c 8e8c 6cbc 6513 003e
000002e0: 5c2c 453e a7b3 4abe f2c8 04be 0000 0000
000002f0: 43da c23b b9d5 463d 0000 0000 ae52 37be
00000300: 71e1 0d3d 0000 0000 f431 09bd 038a 2d3c
00000310: 0e6f 92bc 3382 86bb b518 45be 0000 0000
00000320: 0b18 34be 63da f73d fa31 79be 7d1b 60be
00000330: 83c1 c7bd ebe0 543e 8f09 fa3d ee1a 203c
00000340: ce8b dfbc cb34 40be 4961 94a5 edd0 ad3d
00000350: b74c 1cbb ad10 5fbe 0d76 003e 93f8 00be
00000360: be92 fdbd ffbf 87be 1647 f3bc fed3 ee3c
00000370: d5f7 36be e9a8 363e 7315 b93c 98cb 5fbe
00000380: 672d dbbb 5567 7dbd afad 19be e91e 8b3e
00000390: 0754 c03e fffd 5e3e db4e 79bb 8a33 87bd
000003a0: 9f66 5c3e 475a 5e3e 4f89 59be 6eee 66be
000003b0: 00c1 84bd fde1 a93c 4c57 6fbd 1b0d 303e
000003c0: c268 6fbc 8118 363e fe0f a23d f5ae bf3c
000003d0: f741 9cbd 34a2 c73d c07f 243e c54e 213e
000003e0: f1ef 533c 8b76 1711 3ee7 a9bb 513e 6dbd
000003f0: daf8 6d3e 6ce1 82be 1ccc 033d f602 bf3d

net.8.bias f4 [50]
-0.005503849 0.020113776 -0.00678685 -0.016690394 0.0096070105 0.0060764356 -0.0047743698 -0.013138402
-0.021095766 -0.016550276 0.0013385852 0.03360112 -0.039412756 -0.033989657 -0.01748423 0.00533051
0.019826002 0.0071747107 -0.01921987 0.020958325 -0.027290612 0.0109986 0.021472782 -0.043759204
0.008580826 -0.012988242 0.013202781 0.008169991 0.013824094 0.014888255 -0.011944565 -0.024883639
-0.015383645 0.01170835 -0.03940112 -0.0026479494 -0.021163719 0.005339588 -1.1018173e-08 0.013737632
-0.004457271 0.015002705 0.020059498 0.0 -0.0277376 0.0011652964 0.023743846 0.026188003
-0.010953829 -0.030105801
00000000: a259 b4bb a5c5 a43c 3964 debb 4bba 88bc
00000010: b966 1d3c d61c c73b 5172 9cbb 7442 57bc
00000020: 07d1 acbc 7294 87bc 7773 af3a 54a1 093d
00000030: 456f 21bd bd38 0bbd 173b 8fbc 8fab ae3b
00000040: 246a a23c d619 eb3b fd72 9dbc cbb0 ab3c
00000050: 9090 dfbc 7933 343c b0e7 af3c da3c 33bd
00000060: 9896 0c3c a3cc 54bc 7a50 583c 6ddb 053c
00000070: 747e 623c deed 733c 23b3 43bc c6d8 cbbc
00000080: af0b 7cbc 61d4 3f3c 1263 21bd 3889 2dbb
00000090: 895f adbc b6f7 ae3b 704a 3db2 ce13 613c
000000a0: 4d0e 92bb e8cd 753c d153 a43c 0000 0000
000000b0: f739 e3bc dcbc 983a 7482 c23c 3988 d63c
000000c0: b077 33bc 71a0 f6bc

net.10.weight f4 [50, 50]
-0.02558716 0.26235765 -0.031713903 -0.18262726 0.034996614 0.14934923 -0.045162395 -0.0032406915
0.023574805 0.012461779 0.075625494 0.02450825 -0.09804277 -0.15543807 -0.085699655 0.10495585
0.0724268 -0.25850487 0.1549582 0.16215716 -0.08357427 -0.1443452 0.199849 -0.17700894
0.019205226 -0.011089254 -0.12701255 -0.059844818 0.068565406 0.0023486998 -1.0975688e-09 -0.0014903871
0.016551811 0.18636304 -0.050851353 0.18459272 0.017767454 -0.030870052 -3.9657927e-24 -0.00684607
-0.046010505 0.24057236 -0.17543787 -6.533611e-17 0.0053116777 -0.09659118 -0.0036470005 0.046711747
0.0023572154 0.08493144 0.25213993 -0.21521555 0.22027464 0.014987402 -0.0676356 0.08582248
-0.1951021 -5.1009823e-26 -0.011058641 0.0 0.22071642 -0.091981575 -0.0066453 -0.021014877
0.23427212 0.09498532 -0.16974631 -0.18766873 -0.017019536 0.081075326 -0.1485846 0.10954014
-0.10504933 0.2924508 0.24298035 -1.6470022e-16 0.025575133 0.23729864 0.0042166477 -0.1594799
0.0 0.018725226 0.0 0.12062258 -0.0696048 -0.001668334 -0.008100301 0.23022063
0.0 -0.029045742 0.14419812 0.03248547 0.07813363 -1.6662576e-20 -0.005705746 -0.1026803
-0.20645018 -0.087638244 0.0 -0.15215497 -0.007841888 -0.021819366 0.15392755 0.046807487
0.14345184 -0.09964389 0.1610917 0.0014976778 0.17345147 -0.03237334 -0.19814686 0.113120675
0.014259745 0.11952224 0.048870265 0.08261755 -0.058486067 0.03460248 0.10432197 -0.26907262
0.11473182 -0.07312201 -0.11670012 0.05368882 0.13552843 0.0015296558 0.2231254 0.27052656
-0.20695767 -0.08932195 -6.2149948e-27 0.021969149 -0.08069647 0.019659832 -0.102790736 0.025899261
-0.009234024 -0.21801928 1.5742667e-20 -0.040883694 0.28394848 0.24037772 0.16694775 -5.4963194e-27
-0.0076853246 0.14819722 -0.25305787 -0.15239014 -0.0019102828 -0.15801391 0.025909388 -0.16985601
0.014048707 0.0039557563 -0.19440338 -0.049197555 -0.17579176 7.103004e-27 8.7411616e-05 0.0
-0.2662351 0.08604299 0.045689747 0.0959125 0.058344234 0.0400221 -0.28529224 0.020928789
-0.010504841 0.07627148 0.06409435 0.17615786 0.04124459 0.013172724 -0.22091664 -7.71499e-12
0.13072531 -0.019181134 -0.13379121 0.20329458 0.0 -1.2031749e-24 1.2075748e-06 0.049248915
-0.006639416 -0.068131804 0.0 -0.17320736 0.0 -0.25253043 0.035486713 -0.20387
0.058434825 0.0 0.022461439 -0.09665399 0.076281 0.07616672 0.0 0.021284526
-2.115848e-12 0.0 1.0538395e-26 7.935025e-16 0.0 -2.404562e-11 0.0 0.0
0.0 0.0 0.0 5.8114117e-17 0.0 -6.7736024e-30 -5.92044e-29 0.0
-5.5199954e-24 2.629441e-19 0.0 -6.632335e-15 0.0 0.0 0.0 1.25871356e-23
0.0 0.0 0.0 0.0 0.0 0.0 0.0 0.0
0.0 -2.61984e-11 0.0 9.793538e-13 1.6500713e-28 0.0 -1.9998429e-20 0.0
-6.714687e-14 -1.6228545e-11 4.2893875e-29 0.0 -9.249179e-12 0.0 0.0 0.0
-5.3778353e-28 5.166485e-23 0.20175426 0.12779681 -0.11625952 -0.06612291 0.06387824 -0.04386747
00000000: 2a9c d1bc be53 863e 70e6 01bd a402 3bbe
00000010: 9c58 0f3d 01ef 183e 34fc 38bd c861 54bb
00000020: f31f c13c 7d2c 4c3c 8ae1 9a3d 87c5 c83c
00000030: a6ca c8bd 282b 1fbe 4d83 afbd 18f3 d63d
00000040: 8154 943d c05a 84be 5dad 1e3e 870c 263e
00000050: fd28 abbd 3acf 13be 37a5 4c3e d541 35be
00000060: 4754 9d3c b4af 35bc 940f 02be d71f 75bd
00000070: 056c 8c3d a5ec 193b 45d9 96b0 1859 c3ba
00000080: aa97 873c f4d5 3e3e 8249 50bd e005 3d3e
00000090: 0d8d 913c 31e3 fcbc 4f6b 9998 ff54 e0bb
000000a0: 8375 3cbd 9a58 763e fca5 33be a2a7 96a4
000000b0: 950d ae3b 99d1 c5bd 8402 6fbb d154 3f3d
000000c0: 837b 1a3b 89f0 ad3d 7c18 813e 7761 5cbe
000000d0: ad8f 613e b88d 753c 8984 8abd b2c3 af3d
000000e0: d8c8 47be a296 7c95 4d2f 35bc 0000 0000
000000f0: 7c03 623e d660 bcbd d1c0 d9bb 6427 acbc
00000100: 08e5 6f3e aa87 c23d fad1 2dbe 3b2c 40be
00000110: 8e6c 8bbc d20a a63d 9026 18be 9556 e03d
00000120: 1a24 d7bd 1cbc 953e d7cf 783e ede2 3da5
00000130: f182 d13c 6afe 723e ce2b 8a3b b34e 23be
00000140: 0000 0000 a565 993c 0000 0000 f908 f73d
00000150: f68c 8ebd 00ac daba 20b7 04bc f5be 6b3e
00000160: 0000 0000 56f1 edbc aca8 133e 7c0f 053d
00000170: 8604 a03d a35f 9d9e 44f7 babb 0d4a d2bd
00000180: ad67 53be ae7b b3bd 0000 0000 83ce 1bbe
00000190: 437b 00bc 87be b2bc 2f9f 1d3e 35b9 3f3d
000001a0: 0ae5 123e 1912 ccbd 39f5 243e ba4d c43a
000001b0: 439d 313e e899 04bd 03e7 4abe d0ab e73d
000001c0: b5a1 693c 13c8 f43d 302c 483d 6433 a93d
000001d0: 168f 6fbd 54bb 0d3d c2a6 d53d e3c3 89be
000001e0: 84f8 ea3d fec0 95bd 7900 efbd cfe8 5b3d
000001f0: f7c7 0a3e bb7e c83a fc7a 643e 7582 8a3e
00000200: b6ec 53be 6dee b6bd 8933 f693 a5f8 b33c
00000210: 3144 a5bd a80d a13c f383 d2bd b02a d43c
00000220: 4e4a 17bc 7240 5fbe 6faf 941e a975 27bd
00000230: b261 913e 9425 763e 5af4 2a3e 4dbb d993
00000240: 2dd5 fbbb 03c1 173e cd90 81be 290c 1cbe
00000250: 7462 faba 66ce 21be ed3f d43c bcee 2dbe
00000260: 8c2c 663c 4a9f 813b ae11 47be 6083 49bd
00000270: c102 34be 82b0 0c14 c150 b738 0000 0000
00000280: f84f 88be 4f37 b03d 2c25 3b3d c66d c43d
00000290: 5dfa 6e3d 37ee 233d d311 92be da72 ab3c
000002a0: 7f1c 2cbc 3934 9c3d e643 833d ba62 343e
000002b0: 16f0 283d 69d2 573c f937 62be 3ab9 07ad
000002c0: dbdc 053e c121 9dbc 9000 09be 742c 503e
000002d0: 0000 0000 ab2e ba97 f413 a235 3bb9 493d
000002e0: 758f d9bb b088 8bbd 0000 0000 455d 31be
000002f0: 0000 0000 ab4b 81be 845a 113d 4cc3 50be
00000300: 5b59 6f3d 0000 0000 0d01 b83c 87f2 c5bd
00000310: 3739 9c3d 4cfd 9b3d 0000 0000 e35c ae3c
00000320: bbe3 14ac 0000 0000 03bc 5014 26b6 6426
00000330: 0000 0000 ec81 d3ad 0000 0000 0000 0000
00000340: 0000 0000 0000 0000 0000 0000 8500 8624
00000350: 0000 0000 8e62 098f da19 9690 0000 0000
00000360: 638b d598 fd36 9b20 0000 0000 7ef4 eea7
00000370: 0000 0000 0000 0000 0000 0000 7a78 7319
00000380: 0000 0000 0000 0000 0000 0000 0000 0000
00000390: 0000 0000 0000 0000 0000 0000 0000 0000
000003a0: 0000 0000 8d71 e6ad 0000 0000 f0d4 892b
000003b0: e02b 5111 0000 0000 3ce1 bc9e 0000 0000
000003c0: 8933 97a9 6fbf 8ead 6f7f 5910 0000 0000
000003d0: 99b6 22ad 0000 0000 0000 0000 0000 0000
000003e0: 2f6e 2a92 fdd5 791a ab98 4e3e 2bdd 023e
000003f0: 7919 eebd 736b 87bd 98d2 823d 60ae 33bd

net.10.bias f4 [50]
0.026854454 0.038419817 -0.0024918623 0.02330832 0.0 -0.040542167 -0.012703801 0.008104455
0.026257198 0.029839898 0.0064795534 0.0025108561 -0.030349221 -0.024843235 -0.02586668 -0.0113787195
-0.01869385 0.01639243 0.025057083 -0.023891572 -0.034150552 0.037134957 -0.015129055 0.0040139975
-0.014506317 0.01914842 -0.011583963 -0.022514114 -0.022458846 -0.011096027 -0.014331334 0.033138536
-0.032425772 -0.0041383 -0.019942624 -0.033725847 0.030379962 -0.011416924 0.030705469 -0.03844229
0.022256136 -0.001746849 0.015216347 0.024733476 0.0016626115 -0.020648498 -0.032928642 0.009902633
-0.012526602 0.008510064
00000000: dffd db3c 195e 1d3d 834e 23bb 17f1 be3c
00000010: 0000 0000 8b0f 26bd 9a23 50bc 8cc8 043c
00000020: 5619 d73c cd72 f43c 6f52 d43b 2d8d 243b
00000030: ee9e f8bc 0a84 cbbc 5ce6 d3bc cf6d 3abc
00000040: d823 99bc 6b49 863c 8344 cd3c 42b8 c3bc
00000050: 73e1 0bbd d31a 183d dbdf 77bc da87 833b
00000060: e7ab 6dbc 26dd 9c3c aaca 3dbc 856f b8bc
00000070: 9dfb b7bc 1ccc 35bc f9cd 6abc 46bc 073d
00000080: e3d0 04bd 949a 87bb b75e a3bc 1d24 0abd
00000090: 66df f83c 0d0e 3bbc 098a fb3c aa75 1dbd
000000a0: 8052 b63c 87f6 e4ba fc4d 793c dc9d ca3c
000000b0: fceb d93a 0a27 a9bc 2fe0 06bd a73e 223c
000000c0: 603c 4dbc cc6d 0b3c
