data/models/heart_attack/heart_attack_50x1.pth (torch, 5889 bytes, 4 tensors)

net.0.weight f4 [50, 13]
0	0x3e5cdd56	0.21568808
1	0xbeb80fb0	-0.3594947
2	0x3e7d6996	0.24747309
3	0x3d569ea4	0.052397385
4	0x3e3be7ae	0.18350098
5	0x3c4ca61e	0.012490777
6	0x3c54a52c	0.012978833
7	0x3d593a17	0.053033914
8	0xbe8c5012	-0.2740484
9	0x3cdebf4d	0.027190829
10	0xbefbba0e	-0.49165386
11	0xbe83755c	-0.25675476
12	0xbe43888f	-0.19095062
13	0xbd80e388	-0.06293398
14	0x3ceca7b4	0.02888856
15	0x3d539ab8	0.051661223
16	0xbdef842d	-0.116951324
17	0xbd5a644f	-0.053318318
18	0x3b889dbe	0.004169195
19	0x3e7ae084	0.24499708
20	0xbe2d2cde	-0.16911647
21	0x3e983102	0.2972489
22	0x3eb2b7ec	0.34905946
23	0xbe345be3	-0.17613177
24	0xbd3732b8	-0.044726104
25	0x3eab8695	0.33501115
26	0xbd27d4e7	-0.040974524
27	0x3e9d71e7	0.30750963
28	0xbea3c7f3	-0.31988487
29	0x3e4a57d0	0.1976006
30	0x3d6de5a5	0.058080334
31	0xbe011817	-0.12606846
32	0x3df44ddd	0.11928914
33	0xbc0582e4	-0.008148883
34	0xbd04232e	-0.032260112
35	0xbb809c7b	-0.003924904
36	0xbda32297	-0.07965582
37	0x3e67ceb6	0.22637448
38	0x3e80304d	0.2503685
39	0x3cf2b4cd	0.029627228
40	0xbe66473f	-0.22488116
41	0xbe174ff5	-0.14776595
42	0x3e902322	0.28151804
43	0x3be96790	0.0071229413
44	0x3eb908ad	0.36139432
45	0x3def7b9f	0.11693501
46	0x3b986612	0.0046508396
47	0x3ee82b52	0.4534555
48	0x3e820aa3	0.2539874
49	0xbe9c4734	-0.30523074
50	0x3e9c9fb3	0.3059059
51	0xbb9304f8	-0.0044866763
52	0x3dbe7b2d	0.09300838
53	0x3e8a8f5a	0.27062494
54	0x3e093d34	0.13402253
55	0x3e411f08	0.18859494
56	0xbe0f59e7	-0.13999139
57	0x3dd8fa57	0.105946235
58	0x3e048352	0.1294072
59	0x3cffd8e5	0.031231353
60	0x3dfefb03	0.124502204
61	0x3e7e6159	0.24841823
62	0x3ddd97ba	0.10819955
63	0x3ea4cd6d	0.32187977
64	0x3dd71b72	0.10503282
65	0xbc12f99d	-0.008970645
66	0xbba55eff	-0.005046725
67	0xb721f578	-9.6535005e-06
68	0x3a5881a4	0.0008259064
69	0x3ad4fae7	0.0016249091
70	0x3c631386	0.013859635
71	0xbc246b23	-0.010035309
72	0xbad9e327	-0.0016623483
73	0xbc1da025	-0.009620701
74	0xbb1c3e5c	-0.002384088
75	0xbb2ce5c3	-0.0026382066
76	0x39259865	0.00015792398
77	0xbbe92cf7	-0.007115956
78	0xbcfacca8	-0.030615166
79	0xbe099fba	-0.13439837
80	0xbc991b8f	-0.018689899
81	0x3d3cb974	0.0460753
82	0x3df80718	0.12110728
83	0x3e820a2d	0.25398389
84	0xbcc66f9d	-0.024223143
85	0x3da5c20c	0.08093652
86	0x3e79ead8	0.24405992
87	0xbe892085	-0.26782623
88	0x3ec06a12	0.37580925
89	0xbe86c49a	-0.2632187
90	0xbe39af09	-0.18133177
91	0xbe8091de	-0.25111288
92	0x3b155f47	0.0022792385
93	0x3d0f3122	0.034958966
94	0x3ce374e4	0.027765699
95	0x3e2a1f3a	0.16613474
96	0x3ea61b58	0.32442737
97	0xbd468ffb	-0.048477154
98	0x3edaa3ae	0.42703003
99	0xbd9a2bd1	-0.075278886
100	0xbe1b18fd	-0.15146251
101	0x3d3f8be2	0.046764262
102	0xbe14c709	-0.14529051
103	0x3df1dfea	0.11810286
104	0x3e09a3f3	0.13441448
105	0xbe80d47d	-0.25162116
106	0x3c707b9d	0.014677909
107	0xbd9a3600	-0.07529831
108	0x3e78a17e	0.24280354
109	0x3c884c6e	0.016638007
110	0xbc4d27f4	-0.012521733
111	0x3e052bf1	0.13005044
112	0x3e8e9281	0.2784615
113	0xbe87f5df	-0.26554772
114	0x3db9c02e	0.090698585
115	0xbf29102d	-0.6604031
116	0xbe326fa7	-0.17425404
117	0xbe33388e	-0.17502043
118	0xbdef47f7	-0.11683648
119	0x3eb87da7	0.36033365
120	0xbe4b71b8	-0.19867599
121	0x3d3f5052	0.04670746
122	0xbc9fd500	-0.019510746
123	0x3e0a4622	0.13503316
124	0x3eb6ad96	0.3567931
125	0x3e4195d4	0.18904811
126	0xbe3ddb58	-0.18540704
127	0x3eba30be	0.36365312
128	0x3e0ec3ae	0.13941833
129	0xbd1b0527	-0.03784671
130	0xbe76d3c8	-0.24104226
131	0x3e33b264	0.1754852
132	0x3db0e685	0.08637718
133	0xbe3add27	-0.18248425
134	0xbea0f7fe	-0.31439203
135	0x3e642024	0.22277886
136	0x3e46d323	0.1941648
137	0x3e62b8c8	0.22140801
138	0x3e319c15	0.17344697
139	0xbeb486a5	-0.35258976
140	0x3eb1a629	0.34697083
141	0x3db4e185	0.08832077
142	0xbe433f53	-0.19067125
143	0x3e38f1f3	0.18061046
144	0xbdf259bd	-0.118335225
145	0x3e2142e4	0.15748173
146	0x3dec4a4f	0.11537611
147	0xbe1815fd	-0.14852138
148	0x3d62ad63	0.055341136
149	0x3d1dd08c	0.038528964
150	0x3d919e4f	0.07110273
151	0x3e628cc8	0.22124016
152	0x3d8d4b1a	0.0689909
153	0x3e05b9d6	0.13059172
154	0x3e482fe4	0.19549519
155	0x3dd85c20	0.105644464
156	0x3e1dd93d	0.15414901
157	0x3e1ad153	0.15118913
158	0xbe7c64fc	-0.24647897
159	0x3dbff99d	0.09373782
160	0x3e64561a	0.2229847
161	0x3e909a8e	0.28242916
162	0xbd44bbdc	-0.04803072
163	0x3ccecfee	0.025245633
164	0x3dbb223a	0.091373876
165	0x3e823cd9	0.25437048
166	0xbd1eed51	-0.03880054
167	0x3e9bb3b8	0.30410552
168	0xbebabb25	-0.36470905
169	0xbdd2087f	-0.10255527
170	0x3e7c14f7	0.24617372
171	0x3c8ccec4	0.017188437
172	0x3e28886d	0.16458292
173	0x3c784c4b	0.015154908
174	0x3ddaff84	0.10693267
175	0x3dcc7b40	0.099844456
176	0xbecd9afe	-0.40157312
177	0xbd931766	-0.07182197
178	0x3de7fe2e	0.11327778
179	0xbe02bc29	-0.1276709
180	0x3ea70c8e	0.32626766
181	0x3e96a18e	0.2942013
182	0xbc9daa8f	-0.019246368
183	0x3d8c0ecf	0.06838762
184	0x3de894b4	0.11356488
185	0xbd66fe79	-0.056395028
186	0xbe3b2475	-0.18275626
187	0x3c3dca3d	0.011583862
188	0xbd293bf1	-0.04131693
189	0x3ed1549f	0.40884873
190	0xbd2cf1f9	-0.04222295
191	0xbe3b3f87	-0.18285953
192	0x3e6132d2	0.21992043
193	0xbe8ebc76	-0.2787816
194	0xbe979ef0	-0.29613447
195	0x3e9c5178	0.30530906
196	0xbd2a696a	-0.041604437
197	0xbea9e02c	-0.33178842
198	0x3db7bf9b	0.08972093
199	0xbd57461f	-0.052557107
200	0xbe785d8f	-0.2425444
201	0xbe22c6df	-0.15896176
202	0x3cf05466	0.02933712
203	0x3e5df153	0.21674089
204	0x3ed253ef	0.4107966
205	0xbd4306be	-0.04761385
206	0x3dc0e888	0.09419352
207	0x3e980588	0.2969172
208	0xa9bd3850	-8.403055e-14
209	0xaa194240	-1.3612115e-13
210	0xa6f1b0a6	-1.6770615e-15
211	0x2932db0a	3.9713926e-14
212	0x27f31062	6.746381e-15
213	0xaa3d57d4	-1.6817044e-13
214	0xa9d4c854	-9.4494426e-14
215	0xaa0337d4	-1.1654507e-13
216	0xa9808672	-5.7076644e-14
217	0xa9ce6193	-9.165164e-14
218	0x27177da6	2.1023574e-15
219	0x9e91447b	-1.5380795e-20
220	0xae32ac22	-4.06254e-11
221	0xbe9233bf	-0.28555104
222	0xbdece1af	-0.11566483
223	0xbdaf74b0	-0.08567178
224	0x3e4cc32f	0.19996332
225	0xbd0390e5	-0.032120604
226	0x3cfe5eb9	0.031051027
227	0x3e30c5bf	0.17262934
228	0x3e1cadfe	0.15300748
229	0xbd587996	-0.05285033
230	0x3d15249f	0.036411878
231	0x3df843b1	0.12122286
232	0x3ce5c340	0.028047204
233	0x3de7d2e7	0.11319523
234	0x3e2b9df7	0.16759478
235	0xbecb2c83	-0.39682397
236	0x3dfcf643	0.12351658
237	0xbd3ad455	-0.04561265
238	0x3d56ec40	0.0524714
239	0x3eaf796a	0.3427232
240	0x3eb6e3ab	0.35720572
241	0x3e6e89b5	0.23294719
242	0xbe09cb24	-0.13456398
243	0xbebf7e42	-0.37401015
244	0x3eb463f8	0.3523252
245	0xbc74070c	-0.014894258
246	0xbdaebfd6	-0.085326836
247	0x3e238317	0.15967976
248	0xbe5e492e	-0.21707603
249	0x3eb7d1b4	0.35902178
250	0xbdf37345	-0.1188722
251	0xbe81e918	-0.2537315
252	0x3dbbb1e1	0.09164787
253	0x3d58d018	0.05293283
254	0x3ecd5323	0.4010249
255	0x3d903a0e	0.07042323

net.0.bias f4 [50]
0	0x3ec57b98	0.38570857
1	0xbd0241b6	-0.031800948
2	0x3df28449	0.11841638
3	0xbd70330a	-0.058642425
4	0xbccb04cc	-0.02478256
5	0xbc65bef6	-0.014022579
6	0x3e0d4e5c	0.13799423
7	0x3ea693e2	0.325347
8	0x3ebe8736	0.37212533
9	0x3d7c49fe	0.061594002
10	0x3bcdbec4	0.0062788446
11	0x3d05b9f1	0.03264803
12	0xbe4e3ca3	-0.20140319
13	0x3e1979f2	0.14987925
14	0x3eca25e4	0.39482033
15	0x3e2daf16	0.16961321
16	0xaa3ee02a	-1.6953163e-13
17	0xbe9ea951	-0.30988553
18	0x3e84316c	0.25818956
19	0x3eab6af6	0.33480042
20	0xbd962114	-0.07330528
21	0x3ea17b12	0.31539208
22	0xbe002fb7	-0.12518202
23	0xbe2b8520	-0.16750002
24	0x3e20aa4c	0.15689963
25	0x3eb0f5ae	0.3456244
26	0xbd48eee6	-0.049055956
27	0x3dcf19a9	0.10112316
28	0xbe410519	-0.18849601
29	0xbdb75074	-0.08950892
30	0x3e97218b	0.2951778
31	0xbbbf1449	-0.0058312756
32	0xbd7f7936	-0.062371455
33	0x3dad1f7a	0.08453269
34	0xbe11bf46	-0.14233121
35	0x3dbeb2c1	0.09311438
36	0x3c367d25	0.011138235
37	0x3d5f77ca	0.0545576
38	0x3e95789d	0.29193583
39	0x3e1a37e7	0.15060388
40	0xbb2d87c6	-0.0026478632
41	0xbc63e433	-0.013909387
42	0x3dd79470	0.10526359
43	0x3e8c9d81	0.27463916
44	0x3dfbfa32	0.1230358
45	0xbe206951	-0.15665175
46	0x3d85275a	0.06501646
47	0xbe0f1335	-0.1397217
48	0x3eb7091f	0.35749146
49	0xbe64de07	-0.22350322

net.2.weight f4 [2, 50]
0	0xbf444a1f	-0.766756
1	0x3d928494	0.071541935
2	0x3e682502	0.22670367
3	0x3ef36855	0.47540537
4	0x3db11926	0.08647375
5	0xbc8c6b57	-0.017141027
6	0xbe24ac07	-0.16081248
7	0xbe12d4cb	-0.14338987
8	0xbecff4d4	-0.40616477
9	0xbeaadb0a	-0.3337024
10	0xbe4fa21d	-0.20276685
11	0x3cc36b6e	0.023854937
12	0x3f329479	0.697578
13	0x3e652f01	0.22381212
14	0xbeafcf3c	-0.34337795
15	0xb9aac986	-0.00032575073
16	0x27862c2a	3.7240354e-15
17	0x3dc935ad	0.09824691
18	0xbe488501	-0.19581987
19	0xbec99710	-0.39373064
20	0xbf129077	-0.57251686
21	0xbdbacae7	-0.09120732
22	0x3e7c1d0b	0.24620454
23	0x3dbf504e	0.09341489
24	0x3db825cc	0.08991584
25	0xbe3c1bcb	-0.18369977
26	0xbd3ab094	-0.045578554
27	0x3e5bc2d6	0.21461043
28	0x3dd32836	0.10310404
29	0xbe92ff46	-0.28710383
30	0xbe39463c	-0.18093199
31	0x3e514288	0.20435536
32	0x3f054680	0.520607
33	0xbe1aeee1	-0.15130188
34	0xbde77d85	-0.11303238
35	0xbea4bf4d	-0.321772
36	0x3e57a882	0.21060374
37	0xbe6b864d	-0.2300045
38	0xbe734fae	-0.23760864
39	0x3df80fa0	0.12112355
40	0x3dc6a491	0.09699357
41	0x3efb3673	0.4906498
42	0x3d612ae7	0.054972555
43	0x3c4c66fb	0.012475724
44	0x3ed29e7c	0.4113654
45	0x3e9845c1	0.29740718
46	0xbe675088	-0.22589314
47	0x3ec1f0b4	0.37878954
48	0xbf1f5dde	-0.62252605
49	0xbd24c99d	-0.040231336
50	0x3f41fc1a	0.757753
51	0xbe06445d	-0.13112016
52	0xbd14b0e1	-0.036301497
53	0xbec0cc4a	-0.3765586
54	0xbe14b565	-0.14522322
55	0xbc5ca28d	-0.0134664895
56	0x3e86f7cc	0.2636093
57	0x3c5125c8	0.012765355
58	0x3e94a19e	0.29029554
59	0x3e8eb117	0.27869484
60	0x3e89b99a	0.26899415
61	0x3c687ca4	0.014189873
62	0xbf295ff1	-0.6616202
63	0xbe4656c8	-0.19369042
64	0x3e437d30	0.19090724
65	0xbe3604ef	-0.1777532
66	0xa7cb678d	-5.645609e-15
67	0xbda59905	-0.08085827
68	0x3e8a21da	0.26978952
69	0x3e7996ec	0.24373978
70	0x3ea11f16	0.3146903
71	0x3e57bb93	0.21067648
72	0xbe6b3df8	-0.22972858
73	0xbe95eda0	-0.29282856
74	0x3ce7e28e	0.028306272
75	0x3e439243	0.19098763
76	0x3d727527	0.059193756
77	0xbe439f00	-0.19103622
78	0xbe9db9b9	-0.30805758
79	0x3e9ac2c1	0.3022671
80	0x3e0bea29	0.13663544
81	0xbe8ed4c4	-0.27896702
82	0xbef28129	-0.47364166
83	0x3d2b61f5	0.041841466
84	0x3da5cff9	0.08096308
85	0x3e8827b8	0.26592803
86	0xbea511a7	-0.3224003
87	0x3dc69bc0	0.09697676
88	0x3e838778	0.25689292
89	0xbe804ffb	-0.2506102
90	0xbd185003	-0.03718568
91	0xbf2652c6	-0.6497005
92	0xbd8c6dcb	-0.06856879
93	0x3dd1bbc2	0.1024089
94	0xbeeded4f	-0.46470115
95	0xbea8089b	-0.32819065
96	0x3eba58e9	0.36395958
97	0xbeb08a39	-0.34480456
98	0x3eef03fa	0.4668272
99	0x3d05b64b	0.03264455

net.2.bias f4 [2]
0	0xbdad8b64	-0.08473852
1	0xbb523fcc	-0.0032081483
