data/models/heart_attack/heart_attack_50x4.pth (torch, 37925 bytes, 9 tensors)

net.0.weight f4 [50, 13]
000000 0c bb 49 3d e1 68 90 be 1c 37 9f 3e 0e 56 67 3e
       0.049250647 -0.28205016 0.31096733 0.22591421
000010 5b 7e 89 3e 0e 7e 51 3e d9 15 85 3e 65 36 c1 3d
       0.26854214 0.20458242 0.2599323 0.09434203
000020 c8 3d 16 bd 08 7c 92 bd 8e 87 a0 be de 78 fe be
       -0.036680013 -0.07152563 -0.3135342 -0.4970159
000030 a0 d4 07 be 61 b1 9a be b0 8a f4 bd c6 de 71 3e
       -0.13264704 -0.30213454 -0.11940515 0.23620138
000040 fe 01 04 3d 62 7c cd be 25 b9 91 3e 72 33 b3 be
       0.032228462 -0.4013396 0.28461567 -0.35000187
000050 b1 38 f6 3d 65 a3 48 3e dd 8d d5 3d a4 96 4e 3e
       0.12022532 0.1959358 0.10427449 0.20174652
000060 9b 3d d7 be 5e 48 23 3e 66 e3 65 be cd 6d c5 3c
       -0.4203919 0.15945575 -0.22450027 0.024100209
000070 52 14 a2 3d da 14 7c be 0b 72 4e 3e 62 be f7 bd
       0.07914032 -0.24617329 0.20160691 -0.120968595
000080 55 cc 83 3e 93 68 f7 bd e3 4d e8 bd 20 c1 24 be
       0.2574183 -0.12080493 -0.11342981 -0.16089296
000090 b6 f2 7a 3e 58 7c 83 3d 08 43 09 3e fc 22 00 be
       0.2450665 0.06420201 0.13404477 -0.12513345
0000a0 6e 01 99 be 9c 0b 24 3e e2 70 64 3e 58 14 53 be
       -0.29883903 0.16020054 0.22308686 -0.2061323
0000b0 86 9d 99 3e 9b 1f 9f 3e c0 13 e7 bd cc 5c 28 be
       0.30002993 0.310788 -0.11283064 -0.16441649
0000c0 67 4a 58 3e 8c 81 30 3d 45 3f a3 be 63 41 21 3d
       0.21122132 0.043092296 -0.31884208 0.039369
0000d0 96 d7 97 3e 3c 4c f6 3b 7c 97 80 3d b7 d6 44 3b
       0.29656667 0.007516412 0.06278893 0.0030035207
0000e0 2f 02 3a 3d 6c 49 63 be 15 32 aa bd e1 e3 f7 3d
       0.04541224 -0.22195977 -0.08310334 0.12104011
0000f0 27 94 71 3e 4c 81 32 be 1b 43 2b 3e 2b 0a a5 bd
       0.23591672 -0.17432135 0.16724817 -0.0805858
000100 0e f8 1b 3e b1 13 c8 bd b9 0a 63 be e8 9d 1f 3d
       0.15231344 -0.09769381 -0.22172059 0.03896895
000110 e6 a2 36 bd f4 51 04 3d 58 15 13 bd 8f 19 82 3e
       -0.044588946 0.03230472 -0.035909027 0.25410125
000120 50 86 13 bd 9b 51 92 be 71 d8 9d bb 4e 82 04 be
       -0.036016762 -0.28577885 -0.0048170616 -0.12940332
000130 a6 40 0c be 4e 86 1d be ce 10 16 3e e4 67 04 3e
       -0.13696536 -0.15383264 0.14654848 0.12930256
000140 4f a9 4a be f3 27 23 be 18 e7 e3 bd 8e c3 d7 bd
       -0.19791149 -0.15933208 -0.11128062 -0.10535346
000150 86 51 4f be 2a 35 71 bd 05 a1 6a be c7 10 9b 3e
       -0.20245942 -0.05888859 -0.22912987 0.30286238
000160 14 37 2b bc cb 77 b2 3d 7c a4 4b 3d 5d 85 ec 3d
       -0.010450143 0.08714255 0.04971741 0.115488745
000170 42 82 29 3e 64 de 03 be a0 fc 32 be 0e da 15 be
       0.16553596 -0.12877804 -0.17479181 -0.14633963
000180 ee 4d d0 bd 29 74 dd 3d dc 68 1a 3d 3b c5 4b be
       -0.10171114 0.108131714 0.037697658 -0.19899456
000190 4d 38 31 be 21 89 7a 3e b9 83 5e be 84 67 9f bd
       -0.17306633 0.24466373 -0.21729936 -0.07783416
0001a0 df 65 d5 bd ca f4 58 3e 97 4d ab bc 0d 3a 75 be
       -0.10419821 0.2118713 -0.020911021 -0.23947926
0001b0 52 bd 5b 3d 6e 1d a0 3d f3 c7 00 bd 85 84 a4 bd
       0.053647347 0.07818113 -0.031440686 -0.080330886
0001c0 5a 80 3d 3e 5a 3b 23 be 4c aa 69 3e 6b b3 90 be
       0.18505993 -0.1594061 0.2281887 -0.28261885
0001d0 7b e7 7f 3c 70 42 80 be 05 a2 20 3e ee da 2b be
       0.015619154 -0.25050688 0.15686806 -0.16782734
0001e0 b0 41 68 3e df 1a 65 3c 3f 46 13 3e b4 52 21 3c
       0.22681308 0.013983457 0.14382266 0.009846378
0001f0 6c a6 08 3d 36 fe 37 be 2c 5b b7 be 9c 31 f8 3d
       0.033361837 -0.17968068 -0.35811746 0.12118837
000200 a7 d7 3d be 03 31 37 3e 5c ec a4 bd d9 a2 36 bd
       -0.18539296 0.1788979 -0.080528945 -0.044588897
000210 81 48 0b bf 0d 3f ae bd b3 91 87 bd e6 76 39 be
       -0.5440751 -0.0850812 -0.06619587 -0.18111762
000220 25 b1 f5 be fc c2 71 3c be 9a d7 bd c9 70 0c be
       -0.47986713 0.014755961 -0.105275616 -0.13714899
000230 ef f1 3d 3e ec aa d0 3e cc d2 fa bd 0e 42 0b bd
       0.18549322 0.40755403 -0.122472376 -0.03399854
000240 71 0b 44 3e 15 6f fa 3d 1a 44 57 3e 61 00 a0 3e
       0.1914499 0.122282185 0.21022072 0.3125029
000250 80 44 ff bd d5 dd d9 3c a5 34 11 3e ce 14 c9 3d
       -0.12464237 0.026595036 0.14180239 0.09818421
000260 a8 22 46 bd 2c 3f 82 be 5a d0 49 be eb 47 a6 3e
       -0.048372895 -0.2543882 -0.19708386 0.32476744
000270 e0 0e 8a be cb 7f 9f 3d 2e 5e 2c 3e 39 48 2d 3e
       -0.26964474 0.077880464 0.16832802 0.16922082
000280 58 28 6e 3e 40 08 44 3e 08 02 91 3e 6d 55 9a be
       0.23257577 0.19143772 0.28321862 -0.301433
000290 48 73 79 3e 18 99 58 be fd fa c5 3c 71 a1 6d be
       0.24360383 -0.2115215 0.024167532 -0.23206116
0002a0 c3 ac 88 3e f2 0c 25 3e 5b 70 65 3b f1 40 d4 3c
       0.26694307 0.1611822 0.0035009596 0.025909873
0002b0 25 e0 7c 3d 81 5e dd bd 1b 34 60 3e 48 4f 89 bb
       0.0617372 -0.10809041 0.21894877 -0.0041903593
0002c0 62 90 9c 3e e2 8a 4a be cb 0b 0b 3e 68 f9 88 3e
       0.30578905 -0.19779542 0.13578717 0.26752782
0002d0 5b 9b 76 be 10 c8 2a be 2d f8 a3 3c 35 97 88 be
       -0.24082701 -0.1667788 0.0200158 -0.26677862
0002e0 59 60 53 3c de a9 ae 3d 21 98 f0 bd bc a6 39 3e
       0.012901389 0.08528493 -0.11747766 0.1813001
0002f0 e8 9f cd bd 13 bb b0 3e 04 94 57 be b1 8c cc bd
       -0.10040265 0.34517726 -0.21052557 -0.09987772
000300 85 7a 60 be 66 68 84 3e ba 3a ca 3d d0 57 88 bb
       -0.21921737 0.258609 0.098744825 -0.0041608587
000310 18 d2 30 3e 0a f2 c4 3d c6 fe 38 bd 2d 1f 17 3e
       0.17267644 0.09616478 -0.045164846 0.14757986
000320 1d 96 3d bd 82 5a 0a be c2 0c 92 bd fe a6 d5 bd
       -0.046285737 -0.13511088 -0.071313396 -0.10432242
000330 b9 ba 4c 3e 90 82 95 be be 48 47 be 65 69 a1 3e
       0.19993104 -0.29201174 -0.19461343 0.31525722
000340 46 da 73 be f9 31 a5 3d 13 29 c5 be cb ff 8a bd
       -0.23813733 0.08066172 -0.385079 -0.0678707
000350 53 ea 99 be 12 5e 9a bd 21 a3 5b 3e 4e 4e d9 bd
       -0.30061588 -0.07537474 0.21448947 -0.106106386
000360 25 a1 6b 3e 67 be 56 bd a3 c9 59 bc 01 31 84 3d
       0.2301069 -0.052427676 -0.013292703 0.06454659
000370 4c 4e bb 3e e9 f8 5d bc 63 9a ee bd f1 e2 40 be
       0.36583173 -0.013548114 -0.11650541 -0.18836571
000380 24 71 bb 3e d2 60 43 3e ea 7f 15 3e e3 4b 6f be
       0.36609757 0.19079903 0.14599577 -0.23368792
000390 35 a3 30 be ce cc 2a 3e a2 dc 8d be fc 33 12 3e
       -0.17249759 0.1667969 -0.27707392 0.14277643
0003a0 d8 26 35 3e e4 10 9d 3e df 88 86 a8 ec 2d cf a6
       0.17690599 0.3067695 -1.4936347e-14 -1.4375958e-15
0003b0 46 7c fb a8 44 fe d0 28 7e d0 19 a8 6b cd 18 1c
       -2.7920493e-14 2.3202909e-14 -8.538416e-15 5.055808e-22
0003c0 b9 1c f8 a5 bc a5 52 a9 21 1e 0c ae bc 74 20 aa
       -4.3040605e-16 -4.677312e-14 -3.1859074e-11 -1.4251355e-13
0003d0 4f 3d 3e a9 98 28 d3 a8 de f5 e3 a9 7a 50 2e 3e
       -4.224165e-14 -2.344331e-14 -1.0123476e-13 0.17022887
0003e0 2a 97 3d 3d 42 b3 6a bc d6 50 81 3e 5f 32 6c 3e
       0.04628674 -0.014324965 0.25256985 0.2306609
0003f0 b0 38 9a bd dd 92 51 3e 2f dd 53 be af b1 7c 3e
       -0.075303435 0.2046618 -0.20689844 0.24677156

net.0.bias f4 [50]
000000 dd c5 52 bd 5e 67 01 bd 89 6d 8d 3e 50 19 92 3d
       -0.05145823 -0.03159272 0.2762263 0.07133734
000010 ba c6 f4 3c ad 7c 9e 3e ae 4f 8b bd f1 51 88 3e
       0.029879916 0.30954495 -0.06802307 0.26625016
000020 5c a3 4f bd a0 17 b1 3d 63 6c 7e 3e 66 08 38 be
       -0.0506929 0.08647084 0.24846034 -0.17971954
000030 89 82 05 be 45 0f 25 be 7c 26 0a be 27 f6 5e 3e
       -0.13038076 -0.16119106 -0.13491243 0.21773587
000040 af 8b 3c 3c 5c 42 10 be 20 b2 df 25 fc 76 45 3c
       0.011507913 -0.14087814 3.8805036e-16 0.012052294
000050 2e f2 fd bd 5f d9 3f 3e 23 1b f6 3b c5 dc 60 3e
       -0.12399708 0.18735264 0.007510559 0.21959217
000060 91 e2 14 bd 15 0e 11 be 0c 73 dc 3d ed d0 02 be
       -0.036348883 -0.14165528 0.10764131 -0.12775011
000070 68 44 0a 3e 6e bb a3 bd 9b 1c 27 3e a6 7f 9b 3d
       0.13502657 -0.07994734 0.16319506 0.075927064
000080 50 15 c5 3c cb fc 27 3e 56 74 a2 3d e1 e0 23 be
       0.024058014 0.16405027 0.079323456 -0.16003753
000090 aa 99 b9 3d 52 c5 0a 3e c8 cc 96 3e be 3a a6 3c
       0.09062512 0.13551834 0.2945311 0.020291682
0000a0 cf 17 c9 bc cc 85 51 bd cc 53 05 be 51 ab 37 3e
       -0.024547486 -0.05115299 -0.13020247 0.17936446
0000b0 a4 9b 52 3e 4e e0 30 ad de b1 3c 3e 6a 6a 75 be
       0.20567185 -1.0054247e-11 0.18427226 -0.23966375
0000c0 e9 b4 12 3e f3 de 4f bc
       0.14326824 -0.012687433

net.2.weight f4 [50, 50]
000000 da 72 b4 3e 1a d8 bf 3e b8 fa 8b bd 25 1b cb 3d
       0.35243875 0.3746956 -0.0683493 0.09917287
000010 b6 ce 1d 3e c0 49 90 3e 82 e0 e2 be a5 56 4e bd
       0.15410885 0.28181267 -0.4431191 -0.0503756
000020 10 ba 02 3e 6c 09 6c bd 2c a7 9e be 58 80 a5 bc
       0.1276629 -0.057626173 -0.30986917 -0.0202028
000030 66 9c d9 bd 71 9e 1b bc b3 ed f8 be b2 ab 8b 3d
       -0.10625534 -0.009498225 -0.4861885 0.06819858
000040 b4 fb dc bd 51 41 aa 3d d1 b3 ef 26 4b 7e 15 3e
       -0.10790196 0.08313239 1.6632696e-15 0.14598958
000050 b4 20 fb bd 08 b6 ba 3d 6a 9c cd 3d a3 96 17 3c
       -0.12262097 0.09116751 0.10039599 0.009252223
000060 99 e1 c6 3c f5 17 5f bd 5e e7 df bb cd e4 8d bd
       0.024277495 -0.054466207 -0.006833001 -0.06928406
000070 ae ce 8f be 02 99 2f bd 1e 0f fd bb ac 45 a8 3e
       -0.28087372 -0.04287053 -0.0077227494 0.32865655
000080 e5 d3 9c 3c 48 d3 12 3d 0a 46 68 3e 99 40 33 3e
       0.019144008 0.035846025 0.22682968 0.17505111
000090 37 33 5d be 1b ef f3 3d 5c 17 bf 3d 07 f1 2d be
       -0.21601568 0.1191084 0.09330627 -0.16986476
0000a0 f6 5a a1 3e ef 82 43 bc d3 84 91 bc fc 3c ef 3d
       0.3151471 -0.0119330725 -0.01776353 0.11681554
0000b0 2e f2 49 bd 1a c6 37 04 3c 93 ae 3d 0c 16 9f 3c
       -0.049303226 2.160251e-36 0.085241765 0.019419692
0000c0 44 84 3a 3d 6f db 3a bd 63 20 68 be 44 47 38 be
       0.045536295 -0.045619424 -0.22668605 -0.17995936
0000d0 15 2a e7 bd e0 22 f0 bd 04 6b 15 bd 17 c1 3a be
       -0.112873234 -0.11725402 -0.03647901 -0.1823772
0000e0 9e 5f cb 3e 91 17 36 bd 45 93 3c bd 04 69 4f 3d
       0.39721388 -0.04445607 -0.046038885 0.05063726
0000f0 16 0d d7 3e 48 05 7e 3d f5 ee 6a bc ee e4 b4 3d
       0.4200217 0.062016755 -0.014339198 0.088327274
000100 76 70 e1 3e 20 23 10 bd 32 ca 10 3d f6 f7 8d 3c
       0.44031113 -0.035189748 0.03534908 0.017330151
000110 1c 48 23 a6 bb cd e3 3d 85 1a 2d bd ec f9 97 3d
       -5.664971e-16 0.11123224 -0.04226162 0.07420716
000120 3c 46 40 bd 8a d7 ec bd 04 3d 12 3e 7d 80 09 bd
       -0.04694198 -0.11564548 0.14281088 -0.0335698
000130 ef 3c b2 bd d1 7c 54 3e 0b ec 22 3e 2e 5d e9 3d
       -0.087030284 0.20750739 0.15910356 0.11394726
000140 61 96 76 3d 83 c4 80 be 87 44 9e bd b4 65 11 3e
       0.060202006 -0.25149927 -0.07727914 0.14198953
000150 58 9a 0e 3c d2 f6 99 bd d3 25 84 3e f7 60 59 3d
       0.008703791 -0.0751778 0.25810108 0.05307099
000160 63 dd 95 bd fc 81 76 3e 52 c2 99 be f1 0b ae 3d
       -0.07317617 0.24073023 -0.30031067 0.084983714
000170 c3 d9 a8 3d f1 56 fe bc 55 37 58 bd 16 96 a1 0c
       0.0824466 -0.031047316 -0.052787144 2.4896307e-31
000180 f7 33 39 3d d7 94 12 3e 9d fd d0 bd 13 bf 0f 3e
       0.045215573 0.1431459 -0.10204623 0.14037733
000190 fe 60 46 3b fd 86 c5 3b b1 13 9d bc ab 4f 40 3b
       0.0030270214 0.0060280547 -0.019174429 0.002934436
0001a0 1e 21 a6 bc 87 26 b2 38 75 5a 12 b9 fd 44 87 bc
       -0.020279463 8.494878e-05 -0.00013957343 -0.016512388
0001b0 3a c4 8c bb 08 c8 76 bc 2e 31 9c bb bb bf be bc
       -0.004295853 -0.01506234 -0.004766605 -0.023284784
0001c0 ac 95 7f bc 5c ef 71 bc b2 28 81 ba fa 37 b6 bc
       -0.015599649 -0.01476654 -0.0009854047 -0.022243489
0001d0 41 ab 9c bc 59 9e 44 bc cc 4b ce 05 f1 f5 cb bc
       -0.019124629 -0.012000644 1.939999e-35 -0.024897547
0001e0 7e d7 8d bc 72 a6 7f bc 75 39 1a 3b b0 03 8a bc
       -0.017314669 -0.0156036485 0.0023532782 -0.016847461
0001f0 20 10 98 bc f7 ba 8c bc 42 23 a8 bc c4 53 44 ba
       -0.018562376 -0.017178996 -0.020524625 -0.00074892887
000200 93 c3 0d bc d7 f0 b0 bc d2 ec 6a bc 1a 53 57 39
       -0.008652586 -0.021599216 -0.014338689 0.00020534956
000210 c3 c2 04 bc ac 87 87 bc ab ae 59 3b 07 b1 43 39
       -0.008103075 -0.016544186 0.0033215682 0.00018662597
000220 ef aa 82 28 87 3c 66 bc a5 27 de bb af c7 aa 39
       1.450703e-14 -0.014052517 -0.0067796283 0.00032573703
000230 e3 6b 30 39 ec 11 f6 bb 69 55 79 bc 86 69 98 bc
       0.00016824859 -0.0075094607 -0.015218117 -0.018605005
000240 a6 48 b0 bc 74 0d 22 80 d3 d3 40 bc b2 f6 b8 bb
       -0.021519016 -3.127233e-39 -0.011769253 -0.0056446427
000250 37 61 70 bc 97 af f1 bb 25 1e 67 be 8d f4 b8 bd
       -0.014671615 -0.0073756683 -0.22570093 -0.09031019
000260 a3 50 cc 3d 16 74 b2 bc e5 40 21 bd d9 d4 37 be
       0.09976318 -0.02178387 -0.03936853 -0.17952289
000270 13 29 c3 3e 3a 76 e5 3c 7c 35 21 3d 93 99 d1 bc
       0.38117275 0.028010476 0.039357647 -0.025585925
000280 63 30 6a 3e d0 d2 12 bc 17 22 f5 bb c3 58 93 bd
       0.2287002 -0.008961394 -0.0074808705 -0.07194664
000290 09 d3 dc 3e 13 15 76 bd ac d2 5d 3c 3f 2b 13 3e
       0.43129757 -0.06007869 0.013538998 0.14371966
0002a0 f1 18 5b a5 af 25 85 bd 1d 6b 51 3e 42 66 32 3d
       -1.9003673e-16 -0.06501328 0.20451017 0.043554552
0002b0 0a e7 08 3d 00 37 b8 bd 42 c6 f0 3d a0 1c bb bd
       0.03342346 -0.089948654 0.11756565 -0.09136319
0002c0 39 d4 bc 3d b3 f5 56 3e aa 9c ac 3e 65 f8 ba bd
       0.09220166 0.20992164 0.33713275 -0.09129409
0002d0 f8 ae 20 3d b9 cb 65 be 0e 57 06 3e 2e 06 d3 bc
       0.039229363 -0.22440995 0.13119146 -0.025759783
0002e0 14 bd 2b be 40 32 7b be f2 e4 83 3e 5d b3 8f 3d
       -0.16771346 -0.24530888 0.2576061 0.07016633
0002f0 cd 77 ea 3c dc 1b 4c 3e 95 db 8f be 41 7c 82 bd
       0.028621579 0.19932503 -0.28097215 -0.06371356
000300 cc bd a7 3c 65 16 1a 3e c5 f6 1d 3e 32 48 66 81
       0.020476244 0.15047605 0.15426166 -4.2296126e-38
000310 44 15 20 3d 78 4f 44 3e 25 eb fb 3d 8c e5 f2 3d
       0.03908278 0.1917094 0.1230071 0.11860189
000320 d1 8a df 3d 8c 72 87 be 49 43 de bc d1 78 a7 3e
       0.10915149 -0.2645458 -0.027131693 0.32709363
000330 12 63 de bc e5 62 02 bc c7 59 60 3c 0d b6 42 be
       -0.02714685 -0.007958149 0.01369328 -0.1901476
000340 ab 94 c2 be 0d 91 fd be 06 67 8a be e6 f6 17 3c
       -0.3800405 -0.49524727 -0.27031726 0.009275174
000350 01 1b d1 3d 31 fb 82 be 55 71 42 3c 4e ad e0 3c
       0.10210229 -0.2558227 0.011867841 0.027426388
000360 22 2e c5 3b d5 fe f0 bd b8 c5 c7 09 5d be 7b 3d
       0.0060174624 -0.11767355 4.809344e-33 0.06146084
000370 19 df 29 3d 97 f5 61 be d8 df ec be b4 ac e7 3d
       0.041472528 -0.22066341 -0.4626453 0.113122374
000380 f5 3b 93 bd 7e be 2c 3e ec 12 fe 3d 35 35 2d 3e
       -0.0718917 0.16869542 0.12405953 0.16914828
000390 5e c1 3d 3e 96 62 80 3d 7c 80 30 3d d4 94 a9 bd
       0.18530795 0.06268804 0.043091282 -0.0828034
0003a0 5d f7 c3 be ce f6 af bc dc 04 a2 be 72 ff 0b 3a
       -0.3827466 -0.02147999 -0.31644332 0.00053404935
0003b0 d5 f2 16 3e a2 35 f3 bd cd f1 fe 3d 64 46 c8 3e
       0.1474107 -0.11875464 0.124484636 0.39116204
0003c0 34 d4 5c 3d 32 4c 24 3d 86 08 78 3d ed b7 c2 3d
       0.05391331 0.040111728 0.060555004 0.09507737
0003d0 22 e8 86 bd d8 0e ed 80 e8 c8 d7 3d f0 eb 8e 3d
       -0.065872446 -2.1770338e-38 0.10536367 0.06978595
0003e0 c8 cc da bd 5e f0 3a 3d 31 3e 77 be b5 54 28 be
       -0.1068359 0.04563939 -0.24144818 -0.16438563
0003f0 a3 1e f9 3d dd 4f 05 be 5f 9e 29 bc a5 c4 88 bd
       0.121640466 -0.13018747 -0.0103527 -0.06678132

net.2.bias f4 [50]
000000 08 94 30 bd 50 51 48 bd a6 05 88 bc 00 3b f8 bd
       -0.043109924 -0.04890567 -0.016604256 -0.12120628
000010 3d 76 d0 3d 1f 58 7e 3d e3 3f 2b bd bb da 89 bd
       0.10178802 0.062095758 -0.041808974 -0.06731173
000020 30 4a a7 3b 3d fb db 3c 0e 2d 0c 3e 4c 25 17 bd
       0.0051052794 0.026853198 0.13689062 -0.036900803
000030 81 41 33 3c 5b 72 23 3c 47 5a 04 bd a3 54 ca 3d
       0.01094091 0.009975995 -0.032312658 0.098794244
000040 cc b7 43 3d 93 52 00 be 12 23 f9 3d ed 3f a0 3d
       0.047782704 -0.125315 0.12164892 0.07824693
000050 d5 5c 41 3e d2 fa dd 3d e7 8e 63 3d 26 ef a1 b3
       0.18883069 0.10838856 0.055556204 -7.5406476e-08
000060 3d 6d 59 bd ff 5e c7 bc be 1c 5b bc 5c 7b 89 bd
       -0.053082693 -0.02433729 -0.013373552 -0.06712982
000070 96 d3 53 3e 71 46 07 bd 98 5c b5 bc b8 81 86 bc
       0.20686182 -0.033026163 -0.022138879 -0.016419277
000080 ee fd 67 bb ef 47 b9 bd e6 f0 0e b5 69 07 15 3d
       -0.0035399157 -0.09046923 -5.3249676e-07 0.03638402
000090 b0 63 d1 3d 99 d0 83 3c 37 0b 03 3e 3f a7 16 3c
       0.10224092 0.016090678 0.12797247 0.009195148
0000a0 51 7c c3 bc 63 e8 80 3c ae 16 01 bd 52 ad 98 bd
       -0.02386299 0.01573581 -0.03151577 -0.07454933
0000b0 52 9b f3 bc 9e 89 b7 bd 5e ca 32 bd c7 7a 2c 3e
       -0.029737148 -0.08961795 -0.043650024 0.16843711
0000c0 88 8e 83 ba 51 02 1c 3d
       -0.0010036984 0.038088147

net.4.weight f4 [50, 50]
000000 3d b9 df 3d ec 8a 1f be ac 79 3b 3c 3b 42 8c bc
       0.10924003 -0.15580338 0.011442583 -0.017121425
000010 0e 68 ba be b3 b9 da bd 7a 27 35 be b0 50 4f ba
       -0.36407512 -0.106799506 -0.1769084 -0.0007908447
000020 d3 d9 f5 3d 0a de fa bd 90 57 c2 3d ae 4f 63 bc
       0.12004437 -0.12249382 0.094893575 -0.013873978
000030 97 e6 3b be 52 f3 c2 3d 05 f8 b3 20 79 3a 4f 3e
       -0.18349682 0.09519066 3.0487905e-19 0.2023715
000040 83 ee 9c bd 4d 21 30 be b6 47 66 3c de ee 3f be
       -0.0766268 -0.17200203 0.014055183 -0.18743464
000050 2e fd 8f 3d 77 41 7e bd aa 6e 8c 3c 8d 87 60 94
       0.07030712 -0.06207415 0.017142612 -1.1335843e-26
000060 ac 86 83 3e 4d bd 49 3d 43 ca 05 bb 8b fc 1f 3e
       0.25688684 0.049252797 -0.0020414747 0.15623681
000070 19 16 82 3d cb 7c a9 3e 0d 5e 98 bd 5e b8 e3 38
       0.06351871 0.33103022 -0.07439814 0.000108585446
000080 42 ad 09 3e db 51 b3 bd f4 d6 61 84 a1 a3 21 3e
       0.13444999 -0.08755847 -2.6547325e-36 0.15785076
000090 20 9b ff 3e 5a ac 9d bd 91 c8 46 3e ec ee aa bd
       0.49923038 -0.07698889 0.19412448 -0.08346352
0000a0 fb f6 e1 3e 0d f9 d4 39 68 17 f8 bd 3b 32 2e be
       0.44133744 0.00040621348 -0.121138394 -0.17011349
0000b0 45 cc a5 3d cb 21 86 bd ad 4f e9 bd 9f 5c f9 3c
       0.08095602 -0.06549414 -0.1139215 0.030439673
0000c0 5a bc 92 3d 3b 5f 29 38 ae 45 26 be f3 40 4e 3e
       0.071648315 4.038143e-05 -0.16237518 0.20141964
0000d0 d6 f5 a8 3c c4 71 25 3e 63 92 a3 3e db cc 37 3e
       0.020625036 0.1615668 0.31947622 0.1794924
0000e0 dd 06 ed 3d b1 41 bb 3d f9 2c 01 be 3f 85 57 3d
       0.11573575 0.09143389 -0.12614812 0.052617308
0000f0 c3 d1 1e 3e 84 4f b1 3d 23 c5 a8 3e d1 89 4e 3c
       0.15509705 0.086577445 0.32962903 0.0126061
000100 4b 3d 28 37 b5 1f 4f 3c 4c 64 1a bc 64 34 3b 3e
       1.0027851e-05 0.012641837 -0.009423327 0.18281704
000110 20 f8 01 be a7 71 aa 3d 0e 52 ee 3d 6a 3f 22 3e
       -0.12692308 0.08322459 0.116367444 0.15844503
000120 0d 47 57 bb 80 5e 84 1a f6 98 62 be 2e 7b 3f 3d
       -0.0032848746 5.4746593e-23 -0.22128662 0.046748333
000130 d4 b8 0a 3c 95 43 bf bd c2 62 0e be ae 84 43 be
       0.008466918 -0.09339062 -0.1390486 -0.19093582
000140 f6 d0 d6 bc ab 05 d0 3c eb 2e 11 3e 86 65 be 3d
       -0.026222687 0.025393328 0.14178054 0.09296708
000150 72 1a c4 8a 58 61 f2 bd dc 55 db be eb ee 9a 3d
       -1.8884061e-32 -0.11834973 -0.42838943 0.07565101
000160 5f 0d 29 be e3 6e 0d bd 20 96 a0 be a1 01 c7 b9
       -0.16509007 -0.034529578 -0.31364536 -0.0003795745
000170 b2 71 1b 3e 55 b8 46 bc 1a d4 44 3c c5 d1 b5 3d
       0.1518009 -0.012128909 0.01201346 0.08877901
000180 0e ba a1 3d e8 fe 1a be 97 b8 45 3e 6c 8b 06 3c
       0.07896815 -0.15136302 0.19308697 0.008211952
000190 ec 79 17 be 28 aa 03 3e 1a 06 92 3c 75 27 ad bc
       -0.14792603 0.12857878 0.017825175 -0.021136979
0001a0 66 0e b4 3e 43 0c 41 3c ba 37 27 3e 16 f0 4e 3c
       0.35167235 0.011782709 0.16329852 0.012630483
0001b0 d5 41 c8 3c a4 37 dc bc 3d 95 d7 bb 69 40 38 3d
       0.024445454 -0.026882 -0.00657907 0.0449833
0001c0 f7 a8 98 3e 71 c4 a7 bd 66 64 3a 37 ae bb a7 3d
       0.2981641 -0.08191765 1.110984e-05 0.08190094
0001d0 f1 07 bf bd d1 74 69 3e 6b 02 a9 3d e9 89 78 3e
       -0.093276866 0.22798468 0.08252414 0.24271359
0001e0 cd 48 ff 3d 4a d3 0a 3c f0 a8 d5 3a ed ac 88 94
       0.124650575 0.008473227 0.0016300958 -1.3800698e-26
0001f0 0c 63 68 be 77 56 41 3e b1 d2 95 3b 04 ac 10 be
       -0.22694033 0.1888064 0.0045722355 -0.14128119
000200 f9 01 69 bc 8f 9f 5c be 41 10 55 3e c2 dd 65 3a
       -0.014221662 -0.21545242 0.20806982 0.0008768701
000210 fc 17 e6 3c c7 ea 12 3e 44 f1 91 86 5b cd 25 be
       0.028087609 0.14347373 -5.4897446e-35 -0.16191618
000220 26 08 84 be 50 2f 03 bd 2e 3d 3a be 0f 3a 39 3d
       -0.25787467 -0.032027543 -0.181874 0.045221385
000230 70 6b d2 be 87 62 b9 b8 f0 56 47 3e 04 fe 08 3e
       -0.41097593 -8.8398396e-05 0.19466758 0.1337815
000240 ef 83 22 be a7 bf a7 3c e9 73 1e bb f7 99 08 be
       -0.15870641 0.02047713 -0.0024177975 -0.13339983
000250 88 3e 57 3e b4 a2 16 3b 36 92 68 bc 7e 3b 82 3c
       0.21019948 0.0022985162 -0.014195016 0.015897509
000260 e0 78 ae 3c ad e7 83 bd ac 4c ca 3e 4a 7b 45 3e
       0.021297872 -0.06440673 0.3951162 0.19285312
000270 47 af d9 3d 48 83 b9 bc fd 1b fc bd 88 45 c5 3d
       0.106291346 -0.022645608 -0.12310026 0.09632403
000280 3b ac 45 3e b0 3c 39 3d f3 d8 9c 3e 2d 8c 0b bd
       0.19303982 0.04522389 0.3063427 -0.03406923
000290 2e 1f 45 37 6e cb 2c bd c2 ca e3 3d 2c 3d 88 3e
       1.1749375e-05 -0.042186193 0.11122657 0.2660917
0002a0 93 ca 00 bd 34 a6 82 3e e7 bd c3 bd 2f c3 6d 3e
       -0.03144319 0.25517428 -0.095577054 0.23218988
0002b0 f7 b5 a4 3d ba a1 f1 97 0f 5a 68 be 40 0f 1e 3e
       0.080425195 -1.56150855e-24 -0.22690605 0.15435505
0002c0 3c 70 fc 3b 52 2e 39 be 86 1e 09 be b7 26 42 be
       0.007703809 -0.18084076 -0.1339055 -0.18960081
0002d0 68 ee 7d 3d 08 e0 fc 3b 49 65 f0 3d 72 1d fd 3d
       0.06199494 0.0077171363 0.117380686 0.12359132
0002e0 c8 93 b8 89 c0 e9 a2 3d 87 16 cc be 94 b3 20 3e
       -4.443536e-33 0.079547405 -0.39860937 0.15693504
0002f0 a6 66 16 be a3 13 61 3e 1e f6 7b be 73 44 b2 b9
       -0.14687595 0.21980147 -0.24605605 -0.00034001804
000300 ca d8 21 3e c8 a7 29 3e 7f f3 43 bd e2 4a 34 3e
       0.15805355 0.1656791 -0.047839638 0.1760669
000310 54 38 3b 3e 90 a6 11 be 0a f3 4f 3d eb 62 41 3c
       0.18283206 -0.14223695 0.05076889 0.011803369
000320 c5 56 6d bc 1b ad b5 bb c0 09 da 80 83 bf 78 bc
       -0.0144860195 -0.0055443174 -2.0023636e-38 -0.015182379
000330 75 c2 85 b9 38 2f d1 bc 3c 19 69 bc 06 a8 a0 bc
       -0.0002551262 -0.025535211 -0.014227208 -0.01961137
000340 7d 71 43 bc 36 bc 8e bc 1f 94 b2 bc 1b af 8b bc
       -0.011928913 -0.01742373 -0.021799145 -0.01705127
000350 4f 7a 0d b5 64 0a 6b bc 2d 0f 68 80 5f 47 93 bc
       -5.2704576e-07 -0.014345739 -9.556336e-39 -0.017978368
000360 f4 16 c8 bc 1b 98 84 bc e3 11 73 bc c8 86 bf bb
       -0.024425007 -0.01618581 -0.0148358075 -0.0058449246
000370 9e 6c b9 bc 26 54 80 bc 6a aa 9d bc 40 a6 5c 80
       -0.0226348 -0.015665125 -0.019246299 -8.508505e-39
000380 32 40 f5 b9 a3 6a 87 bc 4f ea 8b 0b 4b 61 63 bc
       -0.0004677787 -0.01653034 5.38934e-32 -0.013878177
000390 aa d5 87 bc 23 46 b3 33 41 fb 7f bc 92 e9 72 07
       -0.016581375 8.348095e-08 -0.015623868 1.8274697e-34
0003a0 7c 0b a7 bc 21 0d f0 bb d1 33 8d 01 32 f8 86 bc
       -0.020391218 -0.007325784 5.186957e-38 -0.01647577
0003b0 7d d5 cc 36 63 1f b0 bc c3 1f dc bb e8 81 bb bb
       6.104527e-06 -0.021499341 -0.0067176535 -0.005722273
0003c0 50 a7 5d 37 26 6d a2 92 14 ea 9c bc 16 4a 46 bc
       1.3211582e-05 -1.02505445e-27 -0.019154586 -0.012102624
0003d0 bd fa 91 bc 1d 3f ad bc f7 8f 7f bc e7 80 85 bc
       -0.017819757 -0.021148259 -0.015598289 -0.016296817
0003e0 e1 43 8a bc ee 84 0d 81 33 ae 6f bd e5 a5 53 3e
       -0.01687807 -2.5992982e-38 -0.05851574 0.20668752
0003f0 85 00 a8 3c 8e b5 9b 3c ee 3a e7 3e bd fd 30 3e
       0.02050806 0.01900747 0.45162147 0.17284293

net.4.bias f4 [50]
000000 36 6f 6b 3d fa 09 02 3b 7f 88 af 3d fb 08 f6 bd
       0.057479106 0.0019842372 0.085709564 -0.12013432
000010 60 55 c1 bc 4f fe 3c 3d df 4d d1 3c 36 c7 a1 b7
       -0.02360028 0.046140965 0.025549827 -1.928546e-05
000020 06 8e 98 b9 dc d8 61 3d 36 03 ca bd e7 a7 92 af
       -0.00029097515 0.055138454 -0.09863894 -2.6676547e-10
000030 9a be 39 bc a7 ca 8b a1 fd 8c 04 3e ad 05 25 bd
       -0.011336947 -9.472648e-19 0.12944408 -0.040288616
000040 3c eb cd 3d cb f0 23 3e ec ca 36 3e c3 99 2f 3e
       0.10054633 0.16009824 0.17850846 0.17148499
000050 7c bf 37 bc 9b ed 93 3d 57 de de ba 6d 83 b0 3d
       -0.011215087 0.07223054 -0.0017003518 0.086188175
000060 63 e4 84 bd b3 a1 e3 bd e1 6e da bc 7d c3 ae 3d
       -0.06488874 -0.11114826 -0.0266642 0.0853338
000070 70 df c8 3d 6a b5 25 3c c8 af 08 ba 08 8e 83 3d
       0.09808242 0.010114053 -0.0005214182 0.06423575
000080 27 61 17 bc f4 ec 3e 3b f9 c5 c1 a8 22 43 ba bd
       -0.0092394715 0.0029132934 -2.1513161e-14 -0.09094836
000090 41 ea c8 bd 23 62 94 b1 68 5f 56 3e 72 05 b7 3d
       -0.098103054 -4.3185238e-09 0.20934832 0.089365855
0000a0 5f f1 b4 3c 04 e4 4d 3c 11 8e c2 3d d8 f6 5b 3d
       0.022087751 0.01256657 0.09499753 0.053702205
0000b0 53 b8 f1 3c 3f 56 34 bb 64 42 f1 3c 17 f2 80 3d
       0.029506838 -0.0027517227 0.029450603 0.06296175
0000c0 cf af 1c 3d fc a2 03 ba
       0.0382536 -0.000502154

net.6.weight f4 [50, 50]
000000 92 62 28 be fe cf 0e 3e e4 ef cd 3d 9a f7 2e 3e
       -0.16443852 0.1394653 0.10055521 0.1708664
000010 a3 ce 75 3c 29 9b 12 3e 50 ba fd bd 83 f2 77 0b
       0.015002879 0.14317001 -0.12389052 4.7752915e-32
000020 ec f7 d8 33 22 7c 82 3d ae bf bd 3d 17 df 43 82
       1.01033805e-07 0.06371333 0.092650756 -1.4390361e-37
000030 4f 2b 5e bb 98 5c 10 9f 59 c8 3e 3e 82 10 a2 3b
       -0.0033900326 -3.0569778e-20 0.18631114 0.0049458155
000040 42 c7 65 bd a2 54 dd bd 39 e0 c2 bc eb 36 58 be
       -0.05609823 -0.10807158 -0.023788558 -0.211147
000050 02 06 cb 3c 35 81 08 be 44 47 3d b5 25 76 d8 bd
       0.024783138 -0.13330539 -7.051169e-07 -0.10569409
000060 f1 ce 05 3e 28 fc 7b 3e 6f 7d 8e bc 6a ae 37 bd
       0.13067223 0.24607909 -0.017393796 -0.04484407
000070 a4 f9 72 3e 6e 48 97 3d 6d a0 3f 16 ee 42 62 bc
       0.23728043 0.07386862 1.5479479e-25 -0.013809903
000080 71 74 37 bb e8 2e 18 b9 67 dd a6 9f d9 9f 87 3d
       -0.0027992988 -0.00014513324 -7.0670014e-20 0.066222854
000090 7c 3d f6 3d d2 f0 58 9d 6d dc 56 3d 41 f7 5b bd
       0.12023446 -2.8711863e-21 0.05245631 -0.053702597
0000a0 74 a8 7e bb 43 27 15 3e 6a db 2f 3e e6 63 92 3d
       -0.003885773 0.14565758 0.17173544 0.0714796
0000b0 b0 bb 5f bd a6 49 3b 32 40 ff 23 3e 87 c1 0c bc
       -0.054622352 1.0901578e-08 0.16015339 -0.008591062
0000c0 ce 17 33 bd d5 a6 a0 01 37 d3 ac 3e 4e 19 a5 bd
       -0.043723874 5.901411e-38 0.33754894 -0.08061467
0000d0 16 6a 48 be f1 03 1d be 59 ec 88 bc c9 27 bc bc
       -0.19571719 -0.15333535 -0.016714262 -0.02296819
0000e0 09 f5 5c 3e 9b 9e 1d 93 41 4f ee b7 1c 72 ad 3d
       0.21577848 -1.9894384e-27 -2.8408716e-05 0.0846903
0000f0 a4 c7 30 bd 0a 32 b9 83 a4 15 c4 3b 47 9e 9e 9f
       -0.043159142 -1.0884811e-36 0.005984025 -6.717745e-20
000100 14 82 76 3b 2a 6d 7d 3a f5 07 1c 3e a4 8c 76 3e
       0.0037614154 0.0009667451 0.1523741 0.24077088
000110 05 2c 08 3d d1 0c 36 3e 36 2f 3c 3e 4c 25 1d 3e
       0.033245105 0.17778327 0.18377385 0.15346259
000120 2e 43 a1 38 aa ff c4 3d ed 60 9b bd 94 e2 1e 3d
       7.6895914e-05 0.096190766 -0.075868465 0.0387903
000130 1f cc a3 3c 8f c4 3c 3e 9b ce 13 be 07 73 62 3c
       0.019994793 0.18434356 -0.14434282 0.01382137
000140 1d 9f 28 12 88 55 90 bd 9d b7 c3 3b f2 1b b5 ba
       5.3207575e-28 -0.07047564 0.005972816 -0.0013817532
000150 8b 8a 2b 9f 93 88 ea bd 7c ed 03 39 75 59 7a 1d
       -3.632526e-20 -0.11451831 0.00012581603 3.3133473e-21
000160 8b 9e 41 bd 67 69 62 3e ea 36 2d bd cc fd d8 bc
       -0.04727034 0.2211052 -0.0422887 -0.026488207
000170 7a 5c cb bd 91 7d e5 ba 5e 50 33 3e c2 a2 da 37
       -0.09929748 -0.0017508735 0.17511126 2.6063415e-05
000180 55 0f f1 bb b8 6b 40 3d 4b e1 ec 3b 96 6a 41 15
       -0.007356564 0.04697773 0.0072290055 3.906012e-26
000190 6e 84 21 3e 43 24 2b be fe 0f 18 be e2 d1 8e bd
       0.15773174 -0.16713051 -0.1484985 -0.06973626
0001a0 46 90 83 bc 97 0b 45 bd be 63 0f 3e c0 da 4c 8d
       -0.016060006 -0.048106756 0.14002892 -6.3125664e-31
0001b0 b2 73 17 b7 41 47 d6 3d 97 6e f3 bd 29 c3 c2 83
       -9.027239e-06 0.10462809 -0.11886328 -1.1447102e-36
0001c0 5d c1 8b 3b 06 5e a1 9f 7c b5 de 3d 60 1a 83 bb
       0.004264994 -6.83417e-20 0.10874459 -0.004000947
0001d0 15 dc 07 3e b0 50 21 3e 31 da 7f 3d 02 29 0e 3e
       0.13267548 0.15753436 0.062463943 0.1388283
0001e0 ef 93 ea 3d 9c eb a2 3e bc 34 a5 37 89 4f 11 3e
       0.11453997 0.3182038 1.969409e-05 0.14190497
0001f0 ba 7f 45 bd f2 84 92 bd 9f db 6a 3c eb c6 05 3e
       -0.048217513 -0.071542636 0.014334588 0.13064162
000200 3f 88 26 bd 85 a6 90 3c a5 3d 7e a0 ef 50 0e bc
       -0.04065728 0.017657528 -2.1535033e-19 -0.008686288
000210 b3 f5 b5 3b 22 62 e8 32 30 0c 73 9c 53 ee ab bd
       0.0055529713 2.705298e-08 -8.041771e-22 -0.08395066
000220 87 68 de bd 36 85 a4 1e b7 95 1d 3e e6 5f 1e 3e
       -0.10859781 1.741927e-20 0.15389143 0.1546627
000230 48 84 18 38 36 08 87 bd b6 99 b4 bc 63 de cb bb
       3.636282e-05 -0.06593363 -0.022045951 -0.006221579
000240 4a 59 0a 3e 7c 49 30 37 7f 4a 01 be d2 20 86 bd
       0.13510624 1.0507527e-05 -0.12626074 -0.06549229
000250 ff f4 77 3d 48 63 1d 0c 9d e2 46 be 35 0f c9 3d
       0.06053638 1.2124716e-31 -0.19422384 0.09817354
000260 e1 67 52 3e 2e e3 55 3e 05 02 ae 3c fb 08 67 3e
       0.20547439 0.20887443 0.021241197 0.2256202
000270 28 5e c2 bc 0d d4 72 13 36 08 9a 38 31 4d 9b 3d
       -0.023726538 3.0649243e-27 7.344822e-05 0.075830825
000280 45 de d0 3d 95 f9 48 82 a3 c5 b0 ba e5 e1 35 1f
       0.101986445 -1.4765306e-37 -0.0013486635 3.8515096e-20
000290 5f 7c 49 3e 7b 85 58 bc cf 22 db bd d7 22 90 bd
       0.1967635 -0.013215418 -0.106999986 -0.07037895
0002a0 f3 8b cd bd 87 19 82 3c 68 39 1c be 2c 0c 67 be
       -0.10036459 0.015881313 -0.15256274 -0.22563237
0002b0 3f ee 0e b9 9d 3d ca bd 22 39 84 3d 27 3c 15 3e
       -0.00013630929 -0.09875033 0.0645621 0.14573728
0002c0 c9 9c 9f bc c0 d0 ac bd 74 b7 47 3e 34 cb b5 3a
       -0.01948394 -0.084382534 0.19503576 0.0013869763
0002d0 37 e3 22 ab 33 7c 8a bd 6b 54 b8 bb 0e 6a 94 39
       -5.7869286e-13 -0.0676197 -0.005625298 0.00028307777
0002e0 4a 2c 66 1f b1 ad f2 3d 3e 72 3c 3e 00 fd c1 9e
       4.874103e-20 0.11849535 0.18402955 -2.0539308e-20
0002f0 4f f9 43 3d 7b 10 b4 3d 69 03 c6 bc 84 2b 33 3e
       0.04784518 0.08792206 -0.024171548 0.17497069
000300 14 bc 74 3e 6e 92 75 3e 6b 2d 4f be 8e a4 e3 b7
       0.23899871 0.2398164 -0.2023217 -2.7137135e-05
000310 f8 ee 7e 3e 73 2c 67 3e ec 93 3f bc 78 32 51 06
       0.24895847 0.2257555 -0.011692982 3.934561e-35
000320 5f e1 f5 a3 80 51 19 b3 09 d7 80 26 ed ba 04 b5
       -2.6658402e-17 -3.5697212e-08 8.94007e-16 -4.9445845e-07
000330 1e 18 62 05 06 a5 d8 b2 8a 78 a7 b5 70 b5 d9 82
       1.06308986e-35 -2.5220753e-08 -1.2477551e-06 -3.1989424e-37
000340 67 45 3c 8c 02 5e 9c b8 73 eb 7f ae 78 c6 5c 84
       -1.4503878e-31 -7.45617e-05 -5.8189408e-11 -2.5952008e-36
000350 2c 8b 3a 1f 60 8e ab 80 d0 e5 9e b6 50 60 b8 0a
       3.9502152e-20 -1.5754944e-38 -4.7355206e-06 1.7754784e-32
000360 09 87 1b b7 72 46 1c b4 bf 29 3f b8 d8 c7 9b b6
       -9.27016e-06 -1.455426e-07 -4.5576828e-05 -4.642625e-06
000370 6e 31 21 b3 8d ff 83 a5 6f bf 1a 00 ae 3b 93 b6
       -3.753069e-08 -2.2898045e-16 2.456396e-39 -4.387889e-06
000380 6a 10 20 b4 88 bc 3e b4 cb 79 f9 92 bd 53 2f b8
       -1.4907133e-07 -1.7763716e-07 -1.57441335e-27 -4.180124e-05
000390 7e 83 db b1 b8 ea a1 b9 ac 7d 82 0b 84 37 f9 82
       -6.388688e-09 -0.00030883192 5.026327e-32 -3.6619126e-37
0003a0 32 49 ab 85 86 9c 21 8a 26 aa f4 8d 8e 52 3c b5
       -1.610765e-35 -7.781307e-33 -1.5078623e-30 -7.015559e-07
0003b0 e1 63 12 b2 6a 29 fa 1a e7 d1 e8 b9 0a 7c db b8
       -8.521028e-09 1.03464485e-22 -0.00044406878 -0.00010465838
0003c0 96 82 ac 81 71 96 07 b6 fb 20 12 b7 d2 49 6f b1
       -6.3370203e-38 -2.0204136e-06 -8.709957e-06 -3.482104e-09
0003d0 81 2f cf b6 45 79 ee 07 6f 4f b7 b5 ca 3b 49 b2
       -6.174611e-06 3.5881536e-34 -1.3657681e-06 -1.1713334e-08
0003e0 6b 85 52 b8 ba 67 d9 83 4f 03 8b 3e a8 d8 5e 3d
       -5.0192157e-05 -1.2777928e-36 0.27150962 0.05440584
0003f0 9e d2 aa bd f9 2c 2b bd 25 cc 81 bc 3e 21 8a bd
       -0.08340953 -0.041790936 -0.015844414 -0.06744622

net.6.bias f4 [50]
000000 96 bd 23 3d c2 ee 16 3e 61 b6 b5 3c 36 93 5e bc
       0.039975725 0.14739516 0.022181692 -0.0135849025
000010 92 a5 b0 b9 56 4b bc 3d d9 a7 96 3d 1f e5 6d 3d
       -0.00033692695 0.09194057 0.07356233 0.058079835
000020 d6 d3 c1 bd f7 e9 c1 3d 86 b6 12 3e 3a 08 03 3e
       -0.094642326 0.094684534 0.1432744 0.12796107
000030 7b 3a 68 3c 92 20 4a 3d de 3f 0f 3d ec a1 47 b6
       0.014174099 0.049347468 0.034973018 -2.9747562e-06
000040 06 0f 1f bc 09 35 c4 3d 40 df 30 3e 41 df 0d 3e
       -0.009708172 0.09580428 0.17272663 0.13854696
000050 78 ef 07 3d 7b 6d 47 3d ee bf b4 b0 10 d4 00 3c
       0.03318736 0.048688393 -1.3151273e-09 0.00786306
000060 b8 17 95 b0 38 e6 8c bd 3e d1 3b 3d d4 d9 99 3d
       -1.0847918e-09 -0.06879848 0.045853846 0.075122505
000070 9c a5 52 bd 0c f8 87 3c 2e 7c 0b 3e d1 86 ad bc
       -0.05142747 0.01659777 0.1362159 -0.02118245
000080 08 c5 70 bb d2 c9 c7 3d 7e 72 3c 3e d7 c6 02 3e
       -0.0036738534 0.09755291 0.1840305 0.12771164
000090 16 e0 be 3c 30 e7 b6 3d e9 b7 b6 3d dd 47 a0 3c
       0.023300212 0.08930814 0.08921797 0.019565517
0000a0 a6 72 cd 3a 8f fe e5 3d da 96 8f 3d 19 d8 cc 3d
       0.0015674427 0.11230194 0.070111945 0.10002155
0000b0 6d e9 20 3d 9d 41 64 3d 84 54 a3 b1 f7 86 76 3c
       0.039285112 0.055726636 -4.7535327e-09 0.015046827
0000c0 3d a1 49 bb 67 67 96 3d
       -0.0030766272 0.07343941

net.8.weight f4 [1, 50]
000000 94 d8 2c be 4a c8 83 3e 7c 9c 67 3e e6 c9 8b be
       -0.16879493 0.25738746 0.22618288 -0.27302474
000010 7b 83 90 3c c8 6a 6a 3e 49 64 1c be 14 31 4e 3e
       0.01764082 0.22892296 -0.15272631 0.2013591
000020 74 b7 d8 bd 76 91 20 be 39 6c 2d 3e 6f eb 1d be
       -0.10581866 -0.15680489 0.16935815 -0.15421842
000030 c2 aa 33 3e 77 08 89 3e a1 9c 4c 3e 68 10 ff bb
       0.17545608 0.2676427 0.19981624 -0.007783938
000040 71 30 07 38 22 a9 81 be 40 28 85 3e 17 0d 79 3e
       3.2231623e-05 -0.2532435 0.2600727 0.243214
000050 63 1c 29 3e 1d c1 34 3e 3a 02 de ba 3d b8 21 be
       0.16514735 0.17651792 -0.001693792 -0.15792938
000060 90 be 8c bb cd 3d 31 be 31 69 2a 3e 33 33 28 be
       -0.0042951778 -0.17308731 0.1664169 -0.16425781
000070 df 91 4a be 4e b4 2f 3b 89 44 68 3e 34 e4 2b be
       -0.19782208 0.002681035 0.22682394 -0.16786271
000080 e1 ad b0 bb 96 eb 7b 3e 79 85 9a 3e 03 c5 82 be
       -0.0053918217 0.24601588 0.30179957 -0.25540933
000090 27 dc d3 3c f7 b9 40 be 69 38 36 be 18 39 34 be
       0.025861813 -0.1882094 -0.17794956 -0.17599905
0000a0 66 a9 3b be 57 ae 6c 3e c4 90 7e 3e d8 56 7f be
       -0.18326339 0.2311338 0.24859911 -0.24935472
0000b0 2f d2 3e 3e cb a5 8a 3e 57 ab 3a 00 b7 7b 00 be
       0.18634866 0.27079615 5.387924e-39 -0.12547193
0000c0 ac 0b 28 0f f6 1b 1e 3e
       8.2852874e-30 0.15440354
