data/models/heart_attack/heart_attack_50x2.pth (torch, 16397 bytes, 5 tensors)

net.0.weight f4 [50, 13]
00000000: a2ff a23d 61fd 25bf ee34 503f 770b 3dbe
00000010: 0313 243d f91e df3d 8151 c8bc ad29 1c3e
00000020: 81f3 66bf 673e f6be e1ca 033f 8e62 bbbe
00000030: d6c4 52be dcac 4581 d5a6 1797 bcbf e028
00000040: 9066 c980 7842 7e00 561d d58d 5ff3 9880
00000050: 8960 89ae f39b b624 467e ba0a 4cc4 6ea9
00000060: 758a 8c89 0ded 0701 8c65 1abd f19f f2bd
00000070: bd63 e53d 6f74 36be a1a4 e9bd 3e6c 543d
00000080: 44cf 513e 1751 703e 1e03 303d 0aac 623e
00000090: 9aad 92bc 5f38 cc3d 7a64 80be 6b53 90bc
000000a0: b961 3fb5 47ad 4db9 1faf 5abb db1b cbbc
000000b0: fa9c ceac d468 faac 2d7e 7fbc b57b 172c
000000c0: d057 98b9 652e 2736 d2a6 b7b6 9342 bab9
000000d0: ecd8 80ba 6401 01bf 4dde 453f 6cdc 443e
000000e0: 20ab 78be 550a 913e 18de d23d 590f 163e
000000f0: 5708 c0be eb2c dfbe a507 adbd 4cc9 32be
00000100: 2d05 c9be f1ea 4abd 6884 563f be45 e9be
00000110: 3a43 4abe 182c 563e 0e69 b63e 2c77 22be
00000120: b2ba 02be 51c6 843e 07e1 1b3f e4be efbd
00000130: 3875 893e df58 3b3d f25f 1d0f 92a3 4384
00000140: 9998 c3a9 7f52 c329 d048 a4ab 8d24 6400
00000150: f2e1 0900 2b04 8e1b 5a83 8b88 aa97 3e80
00000160: 7477 1100 24aa 872b 5ac3 4a2e fbbb d9ba
00000170: 382e 1282 617b 64bc a878 4ebe 4d48 30bd
00000180: ae8b 2b1e 2ac0 4f3b 4c85 113e a4ae c427
00000190: 00ff 1db9 28fe 9dbc d8d8 680c 4b30 6e3c
000001a0: 0d87 853e 7cd8 213f 33b6 f1be 9fb8 ddbd
000001b0: 2bd5 6d3c 7cf2 ef3d 011a 9cbe a7e7 243e
000001c0: 86d4 1b3f 6e04 333f bd3c eabe 933a 003f
000001d0: 1633 fe3e 7bfb 383c d8a5 11bc 79d1 8d3c
000001e0: 5077 c7bb 881a 4dbc 1e80 1c3a b613 333b
000001f0: 03a8 a9bb 7440 3ebc a963 65bc 5216 653b
00000200: 5999 63bc 1991 84bb 457f 153e f437 383a
00000210: e34b 5e3a 6394 88bd eb55 c1bc d21c bd05
00000220: 4eb1 7e37 383a acbb 886c 80b7 a08f 8cbc
00000230: c968 853a f882 51bb 0c59 ec3c fb4c aebc
00000240: f250 009d 506e b3b4 fff8 a5bc 2a27 a6bc
00000250: 221b 441d 1df1 b0b2 de30 b4bc 7678 f01c
00000260: 42d4 e733 9a65 7eb9 0a11 e99c 880a 6ab9
00000270: 0392 19bd c836 67be b27a 073e 268c 0abe
00000280: ce82 8dbd a54a 593d b32f 3dbc 13d4 353e
00000290: 195e cebd 1d83 033e 9661 993d 29f0 95bd
000002a0: e629 e7bc 7181 ad3c eece 9e3e 3bcf 7ebe
000002b0: 74e7 533e bece 723d 809d 0abe 9d0d 95be
000002c0: ad99 83bd f6c8 f63e 42dd 3a3e 11cd f7be
000002d0: e3c7 1f3f 34d1 1e3e 8714 583e 1b6a c1be
000002e0: 2716 e73e 1648 803e 53f7 0cbd a542 53bb
000002f0: 5211 993d a3dc d1bd 446f 24bf 532d 71be
00000300: 5dba 9b3e 0b6a b5be c5d6 cfbe e208 92bd
00000310: 75e8 38bf fb5b ca3e 77c6 f43c 608a 773e
00000320: a0d4 17bd 19a1 ca3d d09c 2e3e 46fa dfbe
00000330: 1f2c fcbe f681 8a3e 22bb c4be f9c2 87be
00000340: 2f58 4abe 5387 e93e d0b0 25bf ee0c 333e
00000350: ead8 b33d 3727 163e 943c babd 7fc8 1abe
00000360: 06ff 183f a9a5 ba3e 4f80 16bd 2c4b 1e3f
00000370: 747d 1d3d aebc b33d eb2f 8b3e eff1 03bf
00000380: 661c 833e 8237 bfbd 3e63 e53d 63dd 7f3d
00000390: 8cc8 203e d34b 323f 507e 1c3f 9d43 0fbe
000003a0: a306 d73e 6957 213d fe24 13be c136 12bd
000003b0: 9a31 4e3e 82bb 073d 5274 57be da81 873e
000003c0: 16e8 813e 49b4 9e3e a93d d3be ce82 a2be
000003d0: f62d c43e 7dab d1bd de2b 993d 7d40 0b25
000003e0: 38cd 23ad 3c08 0709 2846 0a8e 53b3 83ab
000003f0: 1b67 2aa9 7cf6 2c02 2a39 7988 7f16 5881
0.07958914 -0.6483975 0.81330764 -0.18461405 0.040057193 0.108945794 -0.024452927 0.15250273
-0.9021531 -0.48094484 0.51481444 -0.3659863 -0.205829 -3.6307206e-38 -4.9001303e-25 2.4952147e-14
-1.8495727e-38 1.1595117e-38 -1.3134201e-30 -1.40463e-38 -6.247187e-11 7.9194106e-17 1.7958647e-32 -5.3016876e-14
-3.383398e-33 2.496566e-38 -0.0376945 -0.11846913 0.11200664 -0.17817853 -0.114083536 0.05186104
0.20489222 0.23468433 0.042971723 0.2213594 -0.017905045 0.099716894 -0.25076658 -0.017617902
-7.129525e-07 -0.00019614874 -0.003336854 -0.024793556 -5.8723e-12 -7.1170656e-12 -0.0155940475 2.1527062e-12
-0.00029057125 2.4911944e-06 -5.4732454e-06 -0.00035526286 -0.0009830273 -0.50392747 0.7729233 0.1922471
-0.24284029 0.28328195 0.10296267 0.14654292 -0.37506363 -0.43588957 -0.08448724 -0.17459601
-0.3926176 -0.049540464 0.83795786 -0.45561022 -0.19752207 0.20915258 0.35627025 -0.15865773
-0.12766531 0.25932553 0.6089024 -0.11706331 0.26847243 0.04573905 7.759176e-30 -2.2997248e-36
-8.686211e-14 8.6740504e-14 -1.167311e-12 9.196662e-39 9.07573e-40 2.3494623e-22 -8.396639e-34 -5.748208e-39
1.604055e-39 9.63955e-13 4.610299e-11 -0.0016611809 -1.073965e-37 -0.013945431 -0.20163214 -0.0430377
9.08155e-21 0.0031700232 0.14211005 5.4590274e-15 -0.00015067682 -0.01928623 1.7937884e-31 0.014537881
0.26079598 0.63220954 -0.4720932 -0.10826229 0.014516155 0.11716172 -0.3048859 0.16103993
0.6087116 0.69928634 -0.45749465 0.5008938 0.4964835 0.011290426 -0.008889638 0.017311798
-0.006087221 -0.012518533 0.00059700187 0.002732498 -0.0051774993 -0.0116120465 -0.014000812 0.003495593
-0.013891541 -0.0040456173 0.1459933 0.00070273806 0.0008479936 -0.066689275 -0.02360054 1.7784061e-35
1.5180862e-05 -0.0052559637 -1.5309328e-05 -0.01715833 0.0010178323 -0.0031968933 0.028851055 -0.021276942
-1.6982507e-21 -3.342161e-07 -0.020260332 -0.020282347 2.5954411e-21 -2.0598742e-08 -0.021995958 1.5913006e-21
1.0795385e-07 -0.00024261177 -1.5423051e-21 -0.00022319902 -0.037492763 -0.22579491 0.13230398 -0.13530025
-0.06909715 0.053049702 -0.011547017 0.17756681 -0.100765415 0.12842984 0.07489316 -0.073211975
-0.02821822 0.021179887 0.3101725 -0.2488374 0.20693761 0.059279196 -0.13536644 -0.2911195
-0.06425796 0.48200196 0.18248466 -0.4839864 0.6241438 0.15509492 0.2110158 -0.37776265
0.45134088 0.25054997 -0.034415554 -0.0032235768 0.07474007 -0.10247161 -0.6423228 -0.23552446
0.3041562 -0.35432467 -0.40593544 -0.071306005 -0.722297 0.395233 0.029879792 0.2417388
-0.03706801 0.09894008 0.17052007 -0.4374563 -0.49252412 0.27052277 -0.3842402 -0.2651594
-0.19760202 0.45611057 -0.6472292 0.17485401 0.087816074 0.14663397 -0.090935856 -0.15115546
0.59764135 0.36454514 -0.03674346 0.61833453 0.03844972 0.08776222 0.27184996 -0.51541036
0.25607604 -0.09336759 0.112005696 0.06246699 0.15701503 0.6964695 0.6113024 -0.13990636
0.4199725 0.03939 -0.1436958 -0.03569675 0.20136109 0.033137806 -0.21040466 0.26466256
0.2537238 0.30996922 -0.4125798 -0.3174042 0.38316315 -0.10237787 0.0747907 1.2078178e-16
-9.311045e-12 1.6253906e-33 -1.7043592e-30 -9.357882e-13 -3.7837013e-14 1.2707302e-37 -7.499791e-34 -3.9689074e-38

net.0.bias f4 [50]
00000000: 567b 7bbe db8b 8599 94e9 86be 65f4 2ab6
00000010: 0062 09be 625d 653e bc29 1a00 66b5 ab3b
00000020: 5756 843e fbe2 5cbb 873d f4b9 1839 42b7
00000030: 3481 cb3b 7200 473e d7b9 1c3e 253e 6c3e
00000040: ee27 8cbd 22d7 7dbe 5428 57bd 8e66 d803
00000050: 482a aebd fc64 4180 0828 a629 b04d 843d
00000060: d858 cabc efdd 67b3 34d2 003e 94fc dfb8
00000070: 66ce db3d 7ab1 2a3d 6ec1 4bbc 636a d8bc
00000080: 6127 90bd 16b8 01be aee1 45bc f31b 733d
00000090: 2a46 d21c 1ca3 c7b6 4d4e 5b15 23fc 9bbe
000000a0: 8ba5 11b5 b676 98be ee30 5c3e d148 cb3d
000000b0: b2f6 abbb d5bd 4fbd ae49 ce80 380b a8ae
000000c0: e1a1 b481 b28b 8a3d
-0.24558768 -1.3808365e-23 -0.2635008 -2.547423e-06 -0.1341629 0.22398904 2.402694e-39 0.0052401302
0.25847122 -0.0033704627 -0.00046585148 -1.1576594e-05 0.0062104706 0.19433764 0.15305267 0.23070581
-0.068435535 -0.24789098 -0.052528694 1.2718884e-36 -0.08504158 -6.005534e-39 7.378825e-14 0.0646013
-0.024700567 -5.3985726e-08 0.12580186 -0.00010680515 0.10732727 0.04167316 -0.012436254 -0.026417917
-0.07038761 -0.1266788 -0.012077732 0.059352826 1.3914771e-21 -5.9496506e-06 4.4288466e-26 -0.30465803
-5.4257606e-07 -0.2977807 0.2150304 0.09925998 -0.005247914 -0.050718147 -1.8944544e-38 -7.641748e-11
-6.635384e-38 0.06764926

net.2.weight f4 [50, 50]
00000000: 03bc 2abd fa22 1580 dcaa c9bc 8b86 b93b
00000010: 1640 60bd 14b9 8e3d 596d c702 8d36 a0b7
00000020: 6a00 063c ca5e 363c 8aab 00bb d84d 09bc
00000030: 5693 6abd cebc 36bd 33f4 d5bd 5f5a fbbd
00000040: ddf7 bf3d 484e f7bc 3ef5 833c b9a2 8308
00000050: 6f2b 79bd 1b5c 1602 ef50 9709 b2d9 39bd
00000060: b274 8b3d 38d7 463c b590 76bd b339 2ebc
00000070: d2b5 773d 8ed0 04be 212e 073d 7f63 12be
00000080: 1191 e03d b112 69bd d942 223e 22ba ab3d
00000090: aff4 1bb8 7f5f b93a f1bc 1008 0e38 943d
000000a0: bb9a b73b 2f7e c139 792d e33d 20fa c1bd
000000b0: 9368 533c d28c d73d 8426 0080 9dde ab0b
000000c0: 49e6 4903 057c c1bd c862 f53d 7988 848c
000000d0: 5d17 c3bd 7640 3dbc 64fd e53d 9469 07bd
000000e0: bc79 ce01 f0c4 5d3b 195a 22be 9aab 4ebc
000000f0: d708 b13b 6bdf 8a3c dfd2 cd3d 2021 043d
00000100: 1301 db3d 07dc 89bc 4277 37be 86ab 06bd
00000110: 4bde 283d 62ef 070a 00e5 b13d 8e5b 2d8c
00000120: 5a1e 3682 9f6b 263e fa67 733c a331 9abc
00000130: be44 cc3c dd58 5b3c f58d f23d 79ba f53c
00000140: 4f87 e73d 6378 5f3d 37ad d0bd fad4 36bc
00000150: 4e7c 813c fb94 11be d722 cb3b ef93 ff3b
00000160: 76e7 5100 db04 df3d a333 75bc 2c71 863d
00000170: cb9d ce3d 4e24 01be 7540 5dbc 4da6 b63d
00000180: 04f9 1b00 61da da81 8c61 c201 254d 83bd
00000190: 70ad fa3d 9860 2d0a e522 c63d 8fb8 500d
000001a0: 5b38 12be db74 e7bc a82f 3681 0e9b 8736
000001b0: 4322 113e 86b8 c43a ef49 2638 7eb1 711d
000001c0: d68c 0a3e 37fd 6a3d bc16 5c3d 0032 83bd
000001d0: 4a86 65be 3cdd 553d da1b 06be af57 5684
000001e0: 3208 453c e03b dc85 88f9 778b 1b5c 0602
000001f0: 6d9a 09be c9c4 1bbc ad3f b4bc d82e 8002
00000200: b283 fd81 0378 d7bc 619a a539 9810 1bbd
00000210: 10fb 30bd de2e a63d 3da3 b2bc 0358 9f3d
00000220: 35b2 4e96 be41 b839 14ab 2200 603a 0bbe
00000230: 0a13 cbaa 2986 75bc 7242 97bd cb21 633b
00000240: 1876 0eac 016a 0b3d 5492 b780 fc8f e28a
00000250: 8ede 9f06 b3f5 7abc 5d12 3b3e 8458 5501
00000260: 3fd5 623d 13d7 3cbc f2c2 e63c b409 83bb
00000270: c7d0 9580 8b1b 3c3a 7e42 c4bd 5eac 45bc
00000280: cb6a 5139 527c 8c3c 19c2 48bb ca9e d3bd
00000290: e5b0 1cbd f04c a8ba 0cb0 a63d 4cd0 443d
000002a0: 9986 dbbd d0ff bb8c f257 8b3d 5664 8102
000002b0: c218 0107 f6a6 b33c d006 ce3d ad67 9e3b
000002c0: d59f a23d f44c 693c 746f 87bc b01b f23d
000002d0: e1b9 f73d 6360 2ebc b9ae 43be 5b55 babd
000002e0: dddf 89bc 0f62 3a3d ff1f c93b 92b1 eb3b
000002f0: 27e5 8780 8c4f 9a3d 4a71 74bc 4a66 6cbd
00000300: 5194 b73d 1f3e 29be 2a56 3dbc fb8e 843d
00000310: b34b 5a81 5825 a080 1ecf 8b80 2379 1e3e
00000320: 2d7b 9dbc deb2 3680 d721 ca3d 1f85 5e00
00000330: 18af 3a3d e379 febc ab15 1680 1f08 e5b8
00000340: 542d e7bc f43a 0700 3083 6f82 1a48 1c02
00000350: b039 703d 906d 1abd 4972 d5bb d29c 9b3d
00000360: 9ffe ecbd 616d e1ba 6c67 a03c d476 6f81
00000370: e6b8 c63d b03a c603 60ea 7f00 033f c6bd
00000380: a403 e03c 9c18 8780 2c47 dbba 1db5 2507
00000390: ed22 59bd 9e76 9a04 d67b 2bbd 9dd9 823d
000003a0: 0db7 1300 2a16 88bc 0f94 c93d 9d34 ecbd
000003b0: 5e4c 2a01 7ebf 2e0d a587 070c d5ac a6b8
000003c0: b59b d680 2501 b3bd ed94 a7bd 1de1 1f3d
000003d0: 188c 520c fc1b d53d 733a f401 b37e b800
000003e0: 2ae1 9082 6465 9f3d 29c6 12be ded2 7f00
000003f0: 9936 ad3d 90b5 9c2f ccd2 313d 0e7f b73b
-0.04168321 -1.941093e-39 -0.024617605 0.0056617907 -0.054748617 0.069688946 2.9303184e-37 -1.9098889e-05
0.00817881 0.011130998 -0.0019633495 -0.008380376 -0.057269417 -0.044613652 -0.10446968 -0.12273096
0.09373448 -0.030188695 0.016108152 7.922532e-34 -0.060832437 1.1046693e-37 3.6428037e-33 -0.045373626
0.06809367 0.012136273 -0.060196597 -0.010633874 0.06047613 -0.12970182 0.033002976 -0.14295767
0.10965169 -0.05690259 0.15845813 0.083851114 -3.718276e-05 0.001414284 4.3555523e-34 0.07237254
0.005603162 0.00036905843 0.110926576 -0.09471536 0.01290335 0.10524906 -1.3817e-41 6.6201755e-32
5.9332946e-37 -0.09447483 0.11981732 -2.0419957e-31 -0.095259406 -0.011551013 0.11229971 -0.03305967
7.584713e-38 0.0033839308 -0.15854682 -0.012614155 0.005402665 0.016952237 0.10049986 0.032258153
0.10693564 -0.01682855 -0.17916587 -0.03287842 0.04122762 6.5450365e-33 0.086862564 -1.3354986e-31
-1.3379959e-37 0.16251992 0.014856333 -0.018822497 0.024935123 0.013387886 0.118434824 0.029996144
0.11305105 0.05455817 -0.10189288 -0.011159176 0.015806343 -0.14216988 0.0061992216 0.0077996175
7.521708e-39 0.10889598 -0.014965924 0.065645546 0.1008869 -0.12611505 -0.013504137 0.08918438
2.568888e-39 -8.039391e-38 7.140432e-38 -0.064111985 0.12240112 8.347814e-33 0.09674624 6.4317103e-31
-0.1427931 -0.028253963 -3.3462312e-38 4.0413643e-06 0.14173226 0.0015008606 3.964634e-05 3.1987846e-21
0.13530287 0.05737039 0.05373262 -0.06406021 -0.22414508 0.05221294 -0.13096562 -2.5195841e-36
0.01202588 -2.0710695e-35 -4.7758196e-32 9.871198e-38 -0.13437815 -0.009507366 -0.02200302 1.8834797e-37
-9.3126496e-38 -0.026302343 0.00031586274 -0.037857622 -0.04320818 0.08114408 -0.021806354 0.07780459
-1.669678e-25 0.00035144197 3.183778e-39 -0.13596487 -3.6073255e-13 -0.0149856 -0.0738572 0.0034657593
-2.0244969e-12 0.03403664 -1.6858388e-38 -2.181717e-32 6.013617e-35 -0.015317368 0.18268724 3.9185428e-38
0.05537915 -0.011525887 0.028169129 -0.0039989594 -1.3758384e-38 0.0007175735 -0.09582995 -0.012065021
0.00019971577 0.017149124 -0.003063327 -0.10333021 -0.038254637 -0.0012840312 0.08139047 0.04805021
-0.10719032 -2.8965874e-31 0.068038836 1.9012436e-37 9.712157e-35 0.0219302 0.10059893 0.0048341365
0.07940642 0.014239538 -0.016532637 0.11821687 0.120960005 -0.010643098 -0.1910962 -0.090983115
-0.01683038 0.045503672 0.0061378474 0.007192799 -1.2479996e-38 0.075347036 -0.014919588 -0.057714738
0.08963836 -0.16527604 -0.011556188 0.06472584 -4.0094588e-38 -1.4707076e-38 -1.2839434e-38 0.15475897
-0.019223774 -5.023282e-39 0.09869736 8.680291e-39 0.04557714 -0.03106398 -2.028154e-39 -0.000109210836
-0.028219856 6.63997e-40 -1.7596596e-37 1.1481762e-37 0.058648765 -0.037702143 -0.006513868 0.075982705
-0.115720026 -0.0017198735 0.019580565 -4.3982622e-38 0.09703235 1.1650868e-36 1.1747186e-38 -0.09679987
0.027345486 -1.240662e-38 -0.0016729585 1.2466445e-34 -0.053011823 3.631416e-36 -0.041866146 0.06389163
1.81054e-39 -0.016612131 0.09842693 -0.11533473 3.127886e-38 5.384839e-31 1.0440841e-31 -7.947689e-05
-1.9708653e-38 -0.08740453 -0.08182702 0.039033044 1.621997e-31 0.10405728 8.9715315e-38 1.6943182e-38
-2.1288136e-37 0.077830106 -0.14333405 1.1738753e-38 0.08457679 2.8505243e-10 0.043413922 0.005599863

net.2.bias f4 [50]
00000000: 07a0 213d 08ba b33c f2ed e0bd 3f96 24bd
00000010: b7cb 963d eb95 a73d da13 8895 b6d5 2e3d
00000020: 4298 83b7 4fe7 0e19 6f57 a5bd 311b 3dbc
00000030: af2b bf3d d741 bfbd f01a 83bb 6dc1 9e3d
00000040: 3396 553d 5c19 9f3d bc79 1997 4e08 ac09
00000050: 4deb f0bd 83d8 643d da97 cb0c b4cc 1ebb
00000060: 554d b20c ef0a 30bd b901 e1bd 699a 8bbd
00000070: 283e 96bd ef2f d13d b27f 33b0 b365 d0b8
00000080: 22fd cdba a31e c13d 9528 4ebb 2ae4 a2bc
00000090: 1f56 393d 7a78 3cbc d1f4 22bd 48ea c81a
000000a0: ed1f 1692 42a8 69bb 5fe7 301b 1ffd 1bba
000000b0: a93a 0b3d 2785 11be e2f0 e03c d3c6 563d
000000c0: 6406 b0a5 16f1 cf3d
0.039459255 0.021939293 -0.109828845 -0.04018235 0.07363074 0.081828915 -5.496128e-26 0.04268428
-1.5687318e-05 7.38794e-24 -0.08073317 -0.0115421275 0.09334504 -0.0933873 -0.004001014 0.07751737
0.052145194 0.07768509 -4.9590617e-25 4.1415303e-33 -0.1176363 0.055870544 3.1368495e-31 -0.00242309
2.7471785e-31 -0.042979177 -0.10986657 -0.06816561 -0.07336074 0.10214221 -6.5301287e-10 -9.937156e-05
-0.0015715698 0.094296716 -0.0031457294 -0.019884188 0.045248147 -0.011503333 -0.039784256 8.309656e-23
-4.7371006e-28 -0.0035653268 1.4633139e-22 -0.0005950499 0.03399149 -0.1421095 0.027458612 0.052435707
-3.0535464e-16 0.10153405

net.4.weight f4 [1, 50]
00000000: 09aa f7bc 09f2 0d3e e691 1a3d bc8f 083e
00000010: dd69 49bd 1a5e 1cbc cc0b 9996 8055 663d
00000020: a706 3c3c d121 80bc 9964 453d 08e8 bebb
00000030: 20d4 e8bd 72a6 9d3c f70c 803c fd93 c73d
00000040: 5632 903d 6f7d afbc 51df 7abc 66ef 4d3a
00000050: 3b64 aabd beda ffbd e8f7 84bc fbb4 46bb
00000060: abcd 520c 26ab 0abd b8a0 9abd 5c5c edbd
00000070: 52de 43bd 9fd3 c6bd 9a21 a0bc 1d16 a6b6
00000080: 9c31 023d 6b35 81bd b96f 59b9 c116 073e
00000090: a8d0 3b3c 464c 18bd 8b87 30bc 9e0d df37
000000a0: 5dd9 93bc 3206 8c3c 4968 9bb8 8e9b fbbc
000000b0: 55ad 66bd 36c8 ae3d 9503 11bb 9a20 54bd
000000c0: 60fa 83b9 1b12 ebbc
-0.030232446 0.1386186 0.037736796 0.1333608 -0.049173225 -0.00954392 -2.4725928e-25 0.056233883
0.011476195 -0.015641125 0.04819164 -0.005826 -0.11368585 0.019244406 0.015631182 0.097450234
0.07040851 -0.021422116 -0.015312032 0.00078558025 -0.08319899 -0.12492894 -0.016231492 -0.0030320275
1.6239702e-31 -0.033854626 -0.07550186 -0.11589882 -0.047819443 -0.09708332 -0.019547272 -4.94976e-06
0.031785592 -0.06309017 -0.00020736353 0.13192274 0.011463322 -0.037182115 -0.010774503 2.6590013e-05
-0.018047983 0.017092798 -7.4104006e-05 -0.030713823 -0.056317646 0.08534281 -0.002212738 -0.051788904
-0.0002517281 -0.028695157
