data/models/heart_attack/heart_attack_200x6.pth (torch, 821397 bytes, 13 tensors)

net.0.weight f4 [200, 13]
00000000: 2131 963d 8e10 77bd 06aa 59be 7cbb 8736
00000010: f2a8 61bd 0a6b 8dbd e6b5 0fbd 8d5e 1bbc
00000020: a91e f6bd d22d 3bbe cb3c 233e 7b80 6fbe
00000030: 2fe2 d1bc 585c 0f3e 4eb5 6abd f0a1 813d
00000040: ecf7 5abc 1003 60be c95b 1dbe 81a5 80bc
00000050: b5fd 2e3d 98d7 273e 7068 be3c deae 3d3d
00000060: ab35 8dbe 87bd aabd f914 723b b249 88bd
00000070: b74f a9bd 96eb 4e3a 8b47 fcbc 8042 cf3d
00000080: 3628 00be e759 003e 126b ee3c ba60 233e
00000090: 9ed7 aa3d 3c6b 9d3d 5458 f9bc 27ee aa3d
000000a0: 8f58 073e a422 16be af1b 22be 8ff0 ad3c
000000b0: 2a50 1c3e 9611 b53d 764d c8bd 520b 33be
000000c0: 9d4d 6a3d 0ad2 30bc a57f 27bc 80ea 9ebd
000000d0: 2ef9 d0bd cf80 3e3c 153d 1bbe 5bff b63d
000000e0: bd5f 013d a3a5 563c 4d41 d53b eb07 c3bd
000000f0: 705a 693d 879f a83d a1f9 b13c 9b8d 453e
00000100: 2311 063e cc1c f0bc 4115 99bd 216d 81bd
00000110: 0335 e93c 864f 973c b457 1d3d 03d1 bfbc
00000120: 64d3 c3bd 1872 6f3c 6eab 973d 5fd5 bcbd
00000130: 843e 83ba 2b16 d63d d18f 22be a402 153d
00000140: 29c5 8abe bad2 ee3d 3bb1 b9bd 219e 12be
00000150: 1fa6 04be 7c4e 1abb 55a5 243d e1a9 2d3d
00000160: 52d8 043e 0836 523e d78a edbc c400 e33d
00000170: a7fe 55bd b319 d5bd eb3b fa3d 7b28 bf3d
00000180: dc08 13be 7e11 5e3d 8bfe b7bd ef5d 33be
00000190: cfd3 563d f946 01be 3f8a f83d 5f3c 083c
000001a0: 2143 b43d f076 18be 3ccb 21bd ac44 bcbd
000001b0: f3d4 0f3e 96a6 2ebe 4c66 c33d 78fd 2bbe
000001c0: ee8f 2ebe b65e b53d 5612 dc3d 5669 b73d
000001d0: 689b b73a 8e7b d0bc ff08 b9bc bfcc bebc
000001e0: d4fb d1bc 25a3 d6bc 72fc e4ba 3989 bfbc
000001f0: 1fd3 cabc 5608 0b3c 1211 a7bc 6975 c7bc
00000200: d8a9 8a3c 8cda c3bc 97dd f2bd dbb6 823d
00000210: a040 99bd d52f 1f3e 5205 afbd 04ff a23d
00000220: 248d cd3c d36d 113d e929 12be 105a 6f3e
00000230: c579 993d ede5 133e 4d39 953d 0753 fcbd
00000240: 3a27 9b3d 4dcd c8bd 8a10 c8bd a343 6bbd
00000250: 47a4 163e 4dd2 203e e970 5cbe 9540 293e
00000260: 153c 0bbe 5973 f83d 07fa 2abd 6f80 85bd
00000270: 0198 9f3d 80b2 cebc a03f bc3c 5f29 9f3c
00000280: 0966 27be 5f3d 3ebe 8725 45be dc35 173e
00000290: 255f 7c3d ca8b ccbd c2c2 abbd 2636 adbe
000002a0: febb 223d 4398 073e 0585 bfbd 5909 d33d
000002b0: f5e3 4abd 5717 48be 5182 763d d962 39be
000002c0: 8346 6f3c 10c0 b53d 89c8 9b3d cf31 063e
000002d0: 8643 b1be e287 f0bc 2742 993d 4a02 4c39
000002e0: 430f 22be ec1d 3fbd 92c8 cd3d 3fe7 14bd
000002f0: fc91 68be 7f8b 04be b20a 383d a297 acbe
00000300: 5e8c fc3d 7a6b 75be c9cf a03d 0bcf c1bd
00000310: 398f e03d f03e f03d 0958 803d 23b1 333e
00000320: cbb3 d53d 5606 a43d 596f 0dbe 555d 7cbd
00000330: d3fc d83d 49ec ffbd b5c2 963c 5334 52bd
00000340: b0e1 46bd 3b2c 11bd 172e 96bc e085 1fbd
00000350: 1634 f83d 4303 233e eb91 d73d c99d d83d
00000360: 8488 ac3d f174 69be daa2 e93d ce1d abbd
00000370: e0b2 223d 5472 4fbe 8acc f3bd 3c63 81bd
00000380: a4cb 223e 2c70 0dbe 70af 8cbd f1ec a3bd
00000390: fab0 543e 3a2a 0a3e e607 7c3d d52e 263e
000003a0: 7ef5 ba3d 81a4 a23c e99a e5bd b79e c43d
000003b0: a297 0f3d 32c2 843d c09d be3d 9d66 8abd
000003c0: 057d ddbd f69e 043e 303c 843d 095b d73b
000003d0: 1a54 aebd 498c ff3d 6725 17be c3cf 4e3c
000003e0: 1b7c efbd c0b1 123e b2d6 923d 903b c4ba
000003f0: 51c8 ddbd 99fe 343c b7c7 c33d 22d0 1bbd
0.07333589 -0.060318522 -0.21256265 4.0451396e-06 -0.05509276 -0.06905182 -0.03508558 -0.009482992
-0.12017567 -0.18279198 0.1594116 -0.23388855 -0.025620548 0.1400007 -0.057301812 0.06329715
-0.013364773 -0.21876168 -0.15367045 -0.015703918 0.042722423 0.16390836 0.023243159 0.046309344
-0.27580008 -0.08336931 0.003693877 -0.06654681 -0.082671575 0.00078933814 -0.030795833 0.10120106
-0.1251534 0.12534295 0.02910379 0.15954867 0.08341907 0.07686469 -0.030437626 0.08346205
0.13217376 -0.14661652 -0.15830873 0.021232871 0.15264955 0.08841245 -0.097803995 -0.17484787
0.057202924 -0.010792265 -0.010223304 -0.07759571 -0.10203777 0.01162739 -0.1516002 0.08935424
0.031585444 0.013101014 0.0065080286 -0.095229946 0.056971014 0.082335524 0.021725478 0.192923
0.13092475 -0.029310606 -0.07474757 -0.06319643 0.02846766 0.018470537 0.03841372 -0.023415094
-0.09561804 0.014614604 0.074057445 -0.09220385 -0.0010013138 0.10453447 -0.15875174 0.03637947
-0.27103546 0.11661287 -0.09067007 -0.14318134 -0.12953995 -0.0023545315 0.040196735 0.042398337
0.12973145 0.20528424 -0.028996868 0.110841304 -0.05224481 -0.10405292 0.1221846 0.09333893
-0.14358848 0.0542159 -0.08984097 -0.17516302 0.05244809 -0.1262473 0.12135743 0.008315175
0.08801866 -0.14889121 -0.03950046 -0.091927856 0.14046077 -0.17055735 0.09540996 -0.1679591
-0.17047092 0.08855955 0.10745685 0.08955638 0.0014008107 -0.02544954 -0.022587297 -0.02329099
-0.025632776 -0.02620084 -0.0017470254 -0.023380863 -0.024758874 0.008485874 -0.020393882 -0.024347978
0.016926691 -0.023907922 -0.11858671 0.06382533 -0.07483029 0.1554559 -0.08545937 0.079587966
0.025091715 0.035505127 -0.142738 0.233742 0.07493929 0.14443178 0.0728632 -0.12320524
0.07575841 -0.09804783 -0.097687796 -0.05743755 0.14711104 0.15705223 -0.21527447 0.16528542
-0.13597138 0.12131376 -0.04174235 -0.065186374 0.07792664 -0.0252316 0.022979558 0.019428907
-0.16347517 -0.18578099 -0.19252597 0.1476664 0.061614174 -0.099876 -0.083867565 -0.33830374
0.039730065 0.13241677 -0.09351543 0.10304517 -0.049533803 -0.19540153 0.060182873 -0.18104114
0.014604214 0.08874524 0.076066084 0.13104938 -0.3462183 -0.029361669 0.07483321 0.00019455809
-0.15826134 -0.046659395 0.100480214 -0.036353346 -0.22711939 -0.12943839 0.044932075 -0.33709437
0.123314604 -0.2396678 0.07852132 -0.094633184 0.109648176 0.117307544 0.062667914 0.17548041
0.104346834 0.08009021 -0.13812007 -0.061612446 0.105950974 -0.1249624 0.01840339 -0.05131943
-0.048555076 -0.035442572 -0.018332524 -0.038946033 0.121193096 0.15919213 0.105258785 0.1057697
0.08424476 -0.22798516 0.114080146 -0.08355294 0.03972137 -0.20258456 -0.11904247 -0.063177556
0.15897995 -0.13812321 -0.068693995 -0.08004177 0.20770636 0.1349267 0.06153097 0.16228803
0.09128855 0.019853832 -0.112111874 0.09600585 0.035056718 0.06482352 0.09307432 -0.06757853
-0.10814861 0.12951264 0.06456792 0.0065721315 -0.08512135 0.12477929 -0.14760362 0.012622776
-0.11693593 0.14325619 0.07169856 -0.0014971364 -0.10829223 0.011047029 0.09559577 -0.038040288

net.0.bias f4 [200]
00000000: 9f38 abbb 571e d33c 8e10 3ebd e0cc 153d
00000010: c7b4 05bc d2bd a4ba 6e8c 26bb ebfe ed3c
00000020: d8a9 ab3c 4723 c5bc 2685 1ebd 3fe6 42bc
00000030: 619a 173c 1ebb 343c e53b 7a3c 9298 0bbd
00000040: 8fa6 b4bc 217f 3ebc 5849 0fbc 5665 0fbd
00000050: ddda 08bc 6141 f0ba d9d1 e1bc 7ad8 bc3c
00000060: e6d7 8d3c c391 a73b 031c 8dba f344 a4bb
00000070: 2487 3bbb e859 803c 42d4 9ebc f84a 76bc
00000080: 7327 b5ba 4898 8c3b dcd0 bbbb 48a5 3ebc
00000090: 847e dbbc 8f2b de3c 425c 893a 2538 8cbc
000000a0: 0e90 cabb 31bb 033c 3c18 62bd 8345 183d
000000b0: 4ad5 503c 31c5 ea3c d02f 063b 11ef 693b
000000c0: a0a8 e83c 8ccc e03c 5d5e 953c 4539 943c
000000d0: 98b7 86bd ae96 bcbc e3d3 8b3c b39f 293d
000000e0: e326 a6bb 3675 f0ba cc19 6b3c 0ad6 e83b
000000f0: ec96 2ebc 06b5 25bc d16a 0d3b 05f8 073c
00000100: bda1 183d dd5f 7dbb 7811 1c3c 3e22 933c
00000110: 7bcb 953c c4b9 3c3c 96b3 30bc 5816 15bc
00000120: 5277 883c e9db 333b c22b 513c bb97 083d
00000130: dac5 2e3b 27c0 ffbc 60f3 a0ba 59e4 083b
00000140: 3b7c 2c3b a7db 0dbb dcd6 93bb 31e3 853c
00000150: b1c9 0dbc b577 ab3c 29df c33c 3529 51bd
00000160: 4c44 4dbc e072 87bb 58eb f03b a55e 3c3d
00000170: 8801 1e3c 97c9 713c ccae 203d 4d44 fd3b
00000180: ecd0 3dbc c981 cebc 3cbd ae3c 38a3 a4bc
00000190: 9e4f 3a3c 0b4e 183c 6623 9a3c 699a c9bc
000001a0: 36b6 8d3c e2e0 503c e9e3 823c 654b 57bd
000001b0: 3e11 0abd 9d41 803c aa35 bf3b 5f7e 283c
000001c0: ad67 8bbc d82b 41bd 136e d4bc eebe 19bc
000001d0: 9039 053b ea9a e63a 188d 9a3c 7535 c23a
000001e0: 75b8 46bd 7d79 f13c 735a 6a3c d10b 253c
000001f0: dd0a 2c3c cf86 7fbb 178e a7bb c201 493d
00000200: 3b2b 09bd 9201 063c 9966 5a3c 897b 0d3c
00000210: 6d14 07bc 6b68 373d e06e 15bd 7337 bebc
00000220: eb5d 883c 6450 a93c bbd5 293b 7496 5bbd
00000230: 5651 9c3c d99d 4d37 6ee2 afba c437 f33a
00000240: 0a13 1a3c 81ac b63b 6b37 043c 8a0a 34bc
00000250: ab11 71b3 e609 b03c 520c b6bc 7af2 e43b
00000260: 3fb4 523c e01b 7e3c 7a5f e23c 0a6d 47bc
00000270: fe2e 863c a12f 783c f7da f13c bfec e53b
00000280: 26bf ae3b 7094 153c 481d 53bc 2c2b 293b
00000290: bd0f 853c 2082 13bc 0e0d 0a3c ee31 963c
000002a0: df35 003c 8cf6 d2bc 1eb0 1b3d 4cf2 0f3d
000002b0: 5c69 af3c f329 87bc 95eb 05bd 590f 383c
000002c0: cd8c 9a3c 98bf 07bd 426f 083d d699 00bd
000002d0: d8ad 563b 3fca bebc 4c76 6b3c 6876 86ba
000002e0: 6d03 24bc 2754 4fbc 1fdf 9b3c b343 1fbd
000002f0: 496d 963c 9559 313d 0da8 123b 60fe 1eb9
00000300: 0ec4 963c 9c22 c83b d9a5 9a3c 9147 b33c
00000310: ba2e 063d e5c6 f2bc f86e db3b 8605 6dbb
-0.0052252556 0.025771303 -0.046402507 0.036572337 -0.008160776 -0.0012568778 -0.0025413292 0.029052218
0.020955011 -0.024064673 -0.0387012 -0.011895715 0.009253115 0.01103094 0.015273069 -0.03408105
-0.022052078 -0.01162699 -0.008745514 -0.03500875 -0.008352962 -0.0018330031 -0.027565883 0.023052443
0.017314862 0.0051138117 -0.0010765794 -0.005013102 -0.0028614486 0.01566787 -0.019388322 -0.015032522
-0.0013820961 0.0042906143 -0.005731685 -0.011636086 -0.026793726 0.02712038 0.0010479765 -0.017116616
-0.0061817234 0.008040235 -0.055198893 0.037175667 0.012746165 0.028658481 0.0020475276 0.0035695473
0.02840072 0.027441286 0.018233472 0.018093714 -0.065779865 -0.023021068 0.017068809 0.041412067
-0.0050705536 -0.0018345478 0.014349412 0.0071055936 -0.0106561 -0.01011396 0.002157856 0.008298879
0.03726362 -0.0038661875 0.009525649 0.017960664 0.018285504 0.011518899 -0.010785004 -0.009099565
0.016658459 0.002744431 0.01276678 0.033347826 0.0026668222 -0.031219555 -0.0012279563 0.002088806
0.0026319164 -0.0021645816 -0.004511697 0.016343685 -0.008654044 0.020931104 0.023910122 -0.05106469
-0.01252849 -0.004133567 0.007352274 0.045988698 0.00964392 0.014757535 0.0392292 0.0077290894
-0.011585455 -0.02520837 0.021330468 -0.02009736 0.011371521 0.009295951 0.018815707 -0.024609761
0.017298799 0.012748929 0.015977817 -0.052562136 -0.03370785 0.015656287 0.0058352547 0.0102840355
-0.01701721 -0.047160953 -0.025931394 -0.0093839 0.00203285 0.0017593775 0.018866107 0.0014816957
-0.048515756 0.029476875 0.014303791 0.010073618 0.010500637 -0.0038990264 -0.005113374 0.049073942
-0.033488493 0.008179085 0.013330125 0.00863541 -0.008244616 0.044777315 -0.03648269 -0.0232198
0.016646346 0.020668216 0.0025914747 -0.05361028 0.019081753 1.2255704e-05 -0.0013418922 0.0018556048
0.009403953 0.0055747633 0.008069853 -0.010988841 -5.6128254e-08 0.021489095 -0.022222672 0.0069869133
0.012860357 0.015509576 0.027633417 -0.012171993 0.01637983 0.015148074 0.029523356 0.0070167477
0.0053328453 0.009129629 -0.012885399 0.0025813086 0.016242856 -0.009003192 0.008425964 0.018334355
0.007825344 -0.025752328 0.038009755 0.03514318 0.021412544 -0.016499495 -0.03269537 0.011234128
0.018865967 -0.033141702 0.03330923 -0.03139671 0.0032757428 -0.023289798 0.014371466 -0.0010258676
-0.010010582 -0.012654341 0.01902729 -0.038882922 0.018362658 0.043298323 0.0022377998 -0.00015162816
0.018404033 0.0061076414 0.01887791 0.021884711 0.032759406 -0.029635856 0.006696578 -0.0036166622

net.2.weight f4 [200, 200]
00000000: a1c5 443c 91a0 e83d 0845 ba3d 0911 0f3d
00000010: d4f5 983d b1f8 cebd 6683 12be 459d b1bd
00000020: 3491 de3d b9fa d3bc 62cc e13b 5e16 67bd
00000030: 5f72 d23d bd4e 893d 7642 183c f28d 9e3d
00000040: 6c70 493d dde6 f53d 8be3 95bd a5f2 6d3d
00000050: 26bc bfbd 0b7a 9b3d 6b74 27bb 0b9c 3f3e
00000060: 0419 443d a5a3 723b 71f1 f1bc 7ce4 b23d
00000070: c8ee 4e3d 6df9 533d c82b aa3c c776 cabc
00000080: a68a b6bd 8bb9 953c 2636 053e ce89 b6bd
00000090: c9ea 243d 8c04 f3bd de2d 26be fd84 ed3d
000000a0: 1120 c8bd 96f0 083c 5cda a73d 74ab d8bd
000000b0: 54fc ca3d ed8c 063e 38ce 64bd 9f2b 1a3d
000000c0: 7dbd 9c3b d940 083e 8cff 1dbe e17d c9bd
000000d0: 527c b53d bd57 7fbd 6b29 45bd 0be7 37be
000000e0: 2968 01be b1cf 793c 66fc a9bd 0c96 1b3e
000000f0: 28d8 51be 16d0 5539 3e6e eb3c f8a8 b1bd
00000100: 25e6 3d3e bb3f c5bc ab5c 4a3e 0971 233d
00000110: ad7d e9bc 0175 333c 2375 0a3d b7f6 e13d
00000120: e441 84bd 5e85 24bd a0bd 9f3d 3f0c e23c
00000130: 0043 49be abec 4f3c 7846 bf3d d31c 42be
00000140: 570c 7abd cf20 09be bb11 933c cc0f 19bb
00000150: 66d3 ebbd 6f5a f33c 4274 e13c fe77 a23d
00000160: 3abf dabd 263d 02be e59f d43c d1d2 ed3d
00000170: 429e a0bd 356a bf3c 0381 5ebc b320 2dbd
00000180: 4dfc 45be 3d7f 97bd 84be 3d3c 52fb 243d
00000190: a1c2 98bd ce7e 4d3e 2afb b5bc a6a4 8e3c
000001a0: 19f1 31bd 4b6c 0ebe 5f06 80bd 67ba 633c
000001b0: 49e4 89bd 9e99 df3d 5d66 d7bc c3d0 7b3d
000001c0: 0650 ee3c 38c4 a63d 02dd 793d 656d 953c
000001d0: 2492 e3bc 2270 fd3d c169 4f3d 1f5b 93bd
000001e0: 830e 903d 8a94 1fbc 570b 6ebe dbd3 693d
000001f0: 4c54 173e 6c31 d8bd 3fee f2bd 6998 4f3d
00000200: b303 e8bd ccaf 99bc 86a2 073e 065e 153e
00000210: 3dac 09bb 5f9d 283d 9c7d e93d 49fe a7bd
00000220: 96fe c03d da20 19bd 946e 35bd 9c41 bd3b
00000230: 240e a73c b249 1ebe 4334 a13d 282a d7bd
00000240: f10c 123d 99ab 0c3d 336f babc 4545 c5bd
00000250: dfbb 4330 c66a 933d fd5a ab3d 9125 ee3d
00000260: b7d9 963b c1b6 30be 5981 7cbd 0a71 f73c
00000270: bd33 8c3d 5565 1d3e 722e 413d 0d0d d2bd
00000280: 583b 3abd 67a3 073c e635 853c 76d6 093d
00000290: 6162 a53d 9299 213d 3349 87bb 7141 eabd
000002a0: d9c8 813e 39aa 13bd ec0d 643d d37f d03d
000002b0: 84ca 07bc 076b b13c 9e02 373d e480 033e
000002c0: 64b0 25be d77f c93d 666b 9b3d daae 583d
000002d0: 9200 89bd ee03 a5bc c12f 0c3e 2a56 a2bd
000002e0: 4224 f9bc 62dd 573a 1537 443d 0c8c 833d
000002f0: 572f e5bd db81 803c d695 87bd 5ba4 da22
00000300: 31ce 913c 9822 a43d 504b 763c a1a2 04be
00000310: 05ce 05be e1db 3cbd 70b7 613d 472f a53d
00000320: cdb7 95bc eaeb 00be dc94 623c 1c21 a13d
00000330: aaeb f63d 4e1f b43d dada 3b3c 6fec 64bd
00000340: b901 48be 45b4 a33c 2cf0 9d3d f019 3bbd
00000350: d2a6 f2bc 2590 093c 7aa4 733d 2b94 863d
00000360: acf6 b6bd 2734 adbd a6b6 a93c 3c7f cb3d
00000370: f646 f43d 9bc3 793d 1617 1a3c f701 a0bc
00000380: 13cd eebd fadb 203d 981e 08bd e7ff b23d
00000390: f68e f3bc 3861 30bd 17ea 6834 f2ce 7e3d
000003a0: 5aa2 c4bc 75ac c8bd eac7 c8bd 6fcc ee3d
000003b0: d32d d1bd e326 633d edfe 6ebc 08b3 bfbd
000003c0: 36c2 c3bd e4e4 19be 665b 92bd d9a8 dabc
000003d0: 5abc 953d 07e5 f63b d8e3 4d3d f6f4 24be
000003e0: 281a 69bd f777 1bbe 3cd6 af3d 955e d0bd
000003f0: 2729 e23d 5ed5 94bd 8bb8 053d 1f80 983d
0.012010009 0.113587506 0.09095198 0.034928355 0.07468763 -0.10106028 -0.14307937 -0.08672575
0.10867539 -0.02587639 0.0068908194 -0.056417815 0.10275721 0.06704471 0.009293189 0.07741918
0.04917948 0.12006924 -0.07318791 0.058092732 -0.09362058 0.07591637 -0.0025551568 0.1871187
0.04787542 0.003702381 -0.029534074 0.08734986 0.05052069 0.051751543 0.02077283 -0.02471484
-0.08913164 0.01827695 0.13008937 -0.08913003 0.04026297 -0.118661016 -0.16228434 0.11597631
-0.09771741 0.008358141 0.081959456 -0.10579577 0.09911409 0.13139696 -0.055860728 0.037639257
0.004783331 0.13305987 -0.15429515 -0.098384626 0.08861603 -0.062339533 -0.048135202 -0.1795923
-0.1263739 0.015247271 -0.08300094 0.15193957 -0.20492613 0.00020390781 0.028739091 -0.08674806
0.18544824 -0.02407824 0.19761913 0.03990272 -0.02850231 0.010953189 0.033803117 0.11033385
-0.0645788 -0.04016625 0.0779984 0.02759373 -0.19654465 0.012690703 0.09339613 -0.18956308
-0.061046924 -0.13391422 0.01795279 -0.0023355363 -0.115149304 0.029706208 0.027521256 0.07933043
-0.10681005 -0.12718639 0.02595515 0.11612476 -0.07842685 0.023366073 -0.0135805635 -0.042267513
-0.19334526 -0.07397316 0.011581067 0.04027874 -0.074589975 0.20067903 -0.02221449 0.017412495
-0.04344282 -0.13908498 -0.06251215 0.013899422 -0.06732995 0.10917972 -0.026293928 0.061478388
0.029090893 0.081428945 0.061001785 0.01824064 -0.027779646 0.12374903 0.050637964 -0.07195114
0.07034018 -0.009740004 -0.23246513 0.057086807 0.1477825 -0.105563015 -0.11861848 0.05068246
-0.113288306 -0.018760584 0.13245592 0.14586648 -0.0021007203 0.041165706 0.11400911 -0.08202798
0.094235584 -0.037384845 -0.04429491 0.0057756435 0.020392485 -0.154578 0.07871296 -0.105060875
0.035656873 0.034343336 -0.022758102 -0.09632353 7.120757e-10 0.071981 0.08366964 0.11628259
0.0046035904 -0.17257215 -0.061646793 0.030205268 0.06845806 0.15370686 0.047163434 -0.102563955
-0.04546675 0.008278704 0.016261052 0.03365179 0.08075405 0.039453097 -0.004128599 -0.11438263
0.25348547 -0.03605101 0.05567734 0.101806305 -0.00828803 0.02165748 0.04468023 0.12842137
-0.16180569 0.09838837 0.07588844 0.052901126 -0.06689562 -0.020143475 0.13690092 -0.07926591
-0.030412797 0.0008234588 0.047904093 0.06423196 -0.1119067 0.01568692 -0.06620376 5.9263037e-18
0.017798515 0.08014411 0.015032604 -0.12952663 -0.13066871 -0.04610813 0.05510658 0.08065658
-0.01827612 -0.12589994 0.013829436 0.07867643 0.12056668 0.087950334 0.0114657525 -0.055889543
-0.19531907 0.01998342 0.07711825 -0.045679033 -0.029620562 0.008396183 0.05948303 0.065712295
-0.08933768 -0.08457213 0.020716976 0.099363774 0.11927597 0.06097756 0.009404918 -0.019532187
-0.116602086 0.039272286 -0.0332323 0.08740216 -0.029731255 -0.043061465 2.1691845e-07 0.062209077
-0.024003197 -0.097985186 -0.098037556 0.11660086 -0.102138184 0.055457007 -0.014587146 -0.093603194
-0.09558527 -0.15028721 -0.07146339 -0.026691841 0.07311316 0.0075346264 0.050266117 -0.1610907
-0.05690971 -0.15182482 0.08585784 -0.1017429 0.110430054 -0.07267259 0.032646697 0.07446312

net.2.bias f4 [200]
00000000: 80d4 063c 4aee 023b c03c b2bb 581f 1a3c
00000010: 04f8 a73b 9593 b9ba 8832 85bc eaac 0a3a
00000020: d015 d5bb 780b 92bb bfa4 983c a5ce 1bbc
00000030: f119 1abc 0a3b 113b ffcc c93b 159b e1bb
00000040: ac87 613b 1388 873b 6345 2ebb 869c 053c
00000050: b51f 0d3b 3840 b4bc 3b1d a33c fb81 a53c
00000060: de8a 71bc 4d6a 80bc 476b a7bc 2b44 b9bb
00000070: 7341 2f3c c0f1 9a3b 85a1 1e3a ea6e 4ebb
00000080: 2b9f ff39 b022 14bc 58c4 37bc 752d 84bb
00000090: 710e f13c bda9 25a7 bd82 98bb 3d7e 6c3c
000000a0: 723c 22bd 7795 08bc 9446 f3aa c044 5ebb
000000b0: 3768 fc3b 016c a93c 3a9f 43bc 9d30 993c
000000c0: 4068 8bba b932 1bbc 3d32 9bbc 1f23 07bc
000000d0: 32e2 35bc ad6f ad3c 2fcd a1bc ddcb 203b
000000e0: cda1 65bb 45a0 2f3c f2e9 60bc 4cb1 38bc
000000f0: e9ae 1d3c f913 023c 2f43 77bb ff6e 9d3a
00000100: 2aec 1cbc 1b7f 94bb ad81 9e3c c5b1 88bc
00000110: 6edb bc3c a108 223c 859c b53b 75a0 08bd
00000120: 5bda 85bc 9c71 2ebc adbf b33b 527e e539
00000130: 3a65 bc39 1ad7 b6bc 27ad 3f3c 09be a2bc
00000140: 322b 9dbb 773d 15bd ef1e a03b 3f62 0ebc
00000150: 52c1 83bb 036e e1bb e9a1 55bb 08cc bd3b
00000160: 164f bc3c 257e 7b3b 1d0e 443c 204e 47bc
00000170: 773f 55bc d773 88bc 54a8 b0bc aff4 953b
00000180: 263f 1e3b a212 c7bc fdfb 573c cf0b 633b
00000190: 2007 0db3 8daf f63c cfb6 123b e977 4a3b
000001a0: 67a7 3f3c 451d 06bc 0368 80bc 8e4a b0bb
000001b0: 8f39 3fbc 9106 f5bb fd9d 14bc 6908 0e3c
000001c0: 716a e3bb 9b96 a33c cd81 1bbb f9a4 8bbc
000001d0: 3282 c2bb f785 e1bb d343 753b eb5c 84bc
000001e0: f76d 14bc 7b5e 1c3c 7d96 98bc e056 31bc
000001f0: 88e7 64bc ec7a 213c c44b 6a3c 8b8e 253c
00000200: 3b62 87bb 1582 b03b f783 9dbb 7d6e c4ba
00000210: b171 51bc e64b 943c b582 bfbb f97d 053c
00000220: a3be d63b 272d 34bc 931b f7bb 1fa9 46bc
00000230: 881a 133b 3fe5 1dbc 9611 713c ceaa 32bb
00000240: 6349 1dbc e638 f0ba cabe 1fba 00e8 d2bc
00000250: 41c4 0fbc 67a3 ffbb c364 ad3b 13ff 08bc
00000260: 003e 153a 9c90 15bb 9643 553a 2752 21bc
00000270: 8dee 763c 8256 823b d725 92bc 0a7d e53b
00000280: d944 b8ba da3a 083b db09 803c 21ec d8bb
00000290: 1afa c4bb 1874 22bd 96cb 99ba 68c1 973a
000002a0: 0912 aa3c 408e 643c 8cf1 ecbb ff21 a0bb
000002b0: a998 4f3c 471c 243c 541e f1bc a72e 0bbc
000002c0: 98a5 a9bc 7412 85bc c98b 2f3c 7341 9f3b
000002d0: c3e7 feb3 4cf2 463c 3e22 10bc 6223 da3b
000002e0: afcc 82bc fac0 703c 4c0f 45bc 76cd 42bc
000002f0: 6a32 013c 1423 71bc ead4 fbbb f0d9 f93b
00000300: 6ec0 b2ba f805 8dbc 492a a0bb 40b5 2dbc
00000310: 8021 4dbc dbe6 0d3c b9a7 17bc 73e8 3b3c
0.008229375 0.0019978457 -0.005439371 0.009406887 0.0051260013 -0.0014158363 -0.016259447 0.00052900484
-0.0065028444 -0.0044569336 0.018633245 -0.009509717 -0.009405599 0.0022160434 0.0061584706 -0.0068849423
0.0034413142 0.0041360944 -0.002659165 0.008154994 0.0021533791 -0.022003278 0.0199114 0.020203581
-0.014742581 -0.015675688 -0.020436896 -0.005653878 0.010696757 0.004728526 0.000605129 -0.0031499215
0.0004875598 -0.009041473 -0.011216246 -0.004033739 0.029425832 -2.2990365e-15 -0.004654257 0.014434394
-0.039608426 -0.008336416 -4.3214445e-13 -0.003391549 0.007702853 0.020681383 -0.011939818 0.018699938
-0.0010635927 -0.009472542 -0.018944854 -0.00824812 -0.011101292 0.021171415 -0.01975116 0.0024535574
-0.0035039068 0.010719364 -0.013727652 -0.01127274 0.009624221 0.007939332 -0.0037729254 0.0012011229
-0.00957779 -0.0045317537 0.019348944 -0.01668633 0.023053851 0.009889753 0.00554234 -0.03335615
-0.016339472 -0.010647204 0.005485496 0.000437724 0.00035933574 -0.022319365 0.011698998 -0.019866006
-0.004796409 -0.03643557 0.0048865 -0.008690416 -0.0040208483 -0.0068795695 -0.0032597727 0.0057921447
0.02298693 0.0038374749 0.0119662555 -0.012164623 -0.0130156195 -0.0166568 -0.02156464 0.0045762877
0.0024146526 -0.024300877 0.013182637 0.003464449 -3.28356e-08 0.030113006 0.0022386794 0.0030894226
0.011697627 -0.008185689 -0.015674597 -0.0053799814 -0.011671438 -0.0074775894 -0.0090708705 0.008668997
-0.006940179 0.019969275 -0.002372849 -0.017046439 -0.0059359306 -0.006882425 0.003742446 -0.016157588
-0.009059421 0.00954401 -0.018626446 -0.010823935 -0.013971217 0.009855967 0.0143002905 0.010104786
-0.004131583 0.0053866007 -0.004806991 -0.0014986541 -0.012783454 0.018102597 -0.005844439 0.00814771
0.0065534874 -0.010997093 -0.007541129 -0.012125283 0.0022446234 -0.009637176 0.0147136655 -0.0027262452
-0.009600016 -0.0018327504 -0.00060937984 -0.025745392 -0.008774818 -0.0078014615 0.0052915527 -0.008361596
0.00056931376 -0.002282179 0.0008135376 -0.009846247 0.015071523 0.0039775977 -0.017840309 0.007003431
-0.0014058604 0.0020787031 0.0156297 -0.0066199456 -0.0060112597 -0.039661497 -0.0011733647 0.0011578025
0.020760553 0.013949931 -0.007230943 -0.004886865 0.012670674 0.0100165075 -0.029433407 -0.0084950095
-0.020708844 -0.01624415 0.01071448 0.004860097 -1.1869954e-07 0.012142729 -0.0087972265 0.00665705
-0.015966741 0.014694447 -0.012027573 -0.011889806 0.007885555 -0.014717836 -0.0076852934 0.007624857
-0.0013637671 -0.01721476 -0.0048878533 -0.010602295 -0.012520194 0.008660997 -0.009256297 0.011468994

net.4.weight f4 [200, 200]
00000000: 21f7 e9bc e0ad 1e3d 7bbe 1fbd dce1 7a3d
00000010: d504 f43d ceda 61bd 2452 1ebd b9dd f53d
00000020: bbc9 bcbd 4a2e 313c cb23 66bd 9785 e83d
00000030: 7c3c 073e c197 a73d 2ba5 0a3d 7aac b7bd
00000040: 606c ee3d 874f dc3d 8a04 8b3c 3fe9 c1bc
00000050: a0cf e2bc 8e66 a33c 949d c33d dd05 773d
00000060: e931 41bd cc44 823d 7ec6 ebbb dbff 1bbd
00000070: c433 c23d 0f75 da3d 4365 0bbe 983f a23d
00000080: 1635 7fbd a704 8f3d 47fd 363d 83a2 4f0a
00000090: b7b4 d13d 51c0 370c 1d53 be3d 55bd 693d
000000a0: 6952 923d 072e 98bd b299 68a0 abe4 6ebc
000000b0: a391 993d 067d bebd fa0f fb3b 1c3e ffbc
000000c0: b2ec 6dbd 3acd b9bd 9090 7bbc 787f bebc
000000d0: 51ff bf3a 760d 083e 112e 7d3d 2083 b93d
000000e0: 3af7 a3bb 1e56 67bd d6b5 a73d bb1f 9e3c
000000f0: d885 3c3d 899a 9dbd 395a 16bd bed1 1b3d
00000100: 39e0 fabd 9de2 eb3d b1d6 48bd 3ede 873d
00000110: 2095 da3d 56f4 07be dc89 af3b 4682 a83d
00000120: 21e2 57bc 541d 1abe 9726 bc3d d1a0 8bbd
00000130: 513c ffbb 8b9c a53c 5f79 223d baac 05be
00000140: ad90 873c 1653 e0bd 441a adbd fbf7 653c
00000150: 58d0 adbc a1d3 193b 647e d9bd 125c 90bd
00000160: 542b 053e 035d c0bd b937 8dbd 0709 15bd
00000170: a966 4a3c 7d05 833d d17b ba3d d8df 643d
00000180: c069 3b3d 1a25 033d 2895 97bd 8ed0 06be
00000190: 15df 1b83 11f2 c3bc 328a 00bd 951d b53c
000001a0: ba67 913d f36a f6b9 8756 b53c f78b 03bd
000001b0: 6c30 a23c d334 283d 0915 2c3d ac7b b43d
000001c0: 4531 63bb 3814 323d c206 1386 6ee8 6c3d
000001d0: e78c 71bd 18e5 c139 e052 95bd 0f4a 75bd
000001e0: 57e0 ccbd 05c3 193e 689a 26bd 12cd bf3c
000001f0: 4b43 68bd 6067 b3bd 4353 a03d f085 9ebd
00000200: b7d7 cf39 34b2 2cbc 601b 2d3d 0543 293d
00000210: 3c36 c63d c9fd 6fbd 6a1f e8bc d973 f73d
00000220: e757 173e 11ae 63bd b40d 9abb 1807 9ebd
00000230: 3854 ad3d 70c5 b43d 91d9 d83c 7da1 55bd
00000240: a338 183d ad6b 01be e927 b93b 9fb6 06bd
00000250: 47eb 4d3c ba34 d6b9 f9d0 d2bd 4d93 903d
00000260: 569c 073d bc69 e2bd e2ea 1b3d 098b e13d
00000270: cd3d 433d 7252 c8bd 09cd a0bd 866c ca3d
00000280: 7e4c 0f3c 0158 bfbd 8a67 21be c84c a1bc
00000290: b1ca 2dbd e514 c43d 8156 f33c 31e6 3d3d
000002a0: f379 453d fd6a 2e3c e9e7 86bb c9b6 3abd
000002b0: df28 8cbd fcc0 2e3d dd6e 79bc 0507 f43d
000002c0: a4a7 dfbd 5514 b8bd 56c7 01be b108 b73d
000002d0: 2337 8b02 ca39 133e 2d2f ccbd 63b4 7f3d
000002e0: ed77 03be 1216 14bc 014c 7bbd da8c b63c
000002f0: 2423 9fbd c72a 093c 3eb5 39b1 ad42 c2bd
00000300: 8cc8 f73d aecd 683d 3aa8 27bd 93d7 99bd
00000310: ee37 b63d e1b0 3b3d eee0 df07 c6d5 d2bd
00000320: 19d1 06bd d943 0bbd 066d 21bd d6fd 5b3d
00000330: 985e 693d 80d5 fa3c d103 b0bb 45c2 883d
00000340: 5d54 b6bd 7398 8a3d cfcf 5b3d b980 95bd
00000350: 65a5 5abd 7336 acbc 5685 b53b 4e12 f33c
00000360: cb7e bf3d 6030 15bd e6a0 adbd d3ef 143d
00000370: de4c 05bc bc06 c5bd bed5 8ebd 8323 06be
00000380: 80d7 e0bd fc8e e63c e581 b43d ef2d ae3c
00000390: 60df 2ebc 4609 e0bd 80a9 353c 861a 943d
000003a0: 5296 38bc a59b 513d 7b79 96bc 9a52 798c
000003b0: d5fe 7abd 1de0 0504 ac40 bebd 642a 8ebc
000003c0: f3ae 323d 4f66 88bd 1f44 4d21 021b f23c
000003d0: 493a d33d 1935 a4bd ae57 47bd f05b 94bd
000003e0: 2b09 40bc 555a d33d 5db4 073d 2044 b73d
000003f0: d7b2 9d3c 5d0c e1bd ba6f 5c3d c9fd 59bd
-0.028560223 0.03874004 -0.039000016 0.061250553 0.11914984 -0.05514031 -0.038652554 0.12005181
-0.092181645 0.010814259 -0.05618648 0.11353605 0.13206667 0.08183242 0.033848923 -0.08968444
0.11641765 0.10757356 0.016969938 -0.02367079 -0.027686894 0.019946363 0.0955154 0.060308326
-0.04716674 0.06360778 -0.007195293 -0.0380858 0.0948253 0.106668584 -0.13612847 0.07922286
-0.062306486 0.06983309 0.044675138 9.9972525e-33 0.10239547 1.415568e-31 0.09293196 0.057065327
0.07144625 -0.07430654 -1.9702018e-19 -0.014580886 0.07498481 -0.0930119 0.0076618167 -0.031157546
-0.05808706 -0.09072347 -0.015354291 -0.023254141 0.0014648234 0.13286385 0.06181151 0.09058213
-0.005003837 -0.056478612 0.08188979 0.01930224 0.04602608 -0.07695491 -0.036707137 0.038041823
-0.12249798 0.115178324 -0.04903287 0.06634186 0.106729746 -0.132768 0.0053570103 0.08227973
-0.013176472 -0.1505025 0.09187048 -0.06817783 -0.0077891727 0.020216247 0.03966653 -0.13054171
0.016548479 -0.109533474 -0.084522754 0.014036174 -0.02121751 0.0023472088 -0.1061981 -0.07048811
0.1300481 -0.093927406 -0.06895394 -0.036385562 0.012353578 0.06397531 0.09105647 0.055877537
0.045755148 0.032017805 -0.07401496 -0.13165495 -4.580649e-37 -0.023919137 -0.031381793 0.022108832
0.070998624 -0.0004700046 0.022135986 -0.032115903 0.01979848 0.041066002 0.04201225 0.08812651
-0.0034666818 0.043476313 -2.7652592e-35 0.05783885 -0.058972266 0.00036982517 -0.07291198 -0.05988508
-0.10003727 0.150158 -0.040674597 0.023413215 -0.0567048 -0.087599516 0.07828381 -0.0774039
0.00039642837 -0.010540534 0.042262435 0.04132368 0.09678313 -0.058591638 -0.028335292 0.12082643
0.14779626 -0.055585925 -0.0047013406 -0.07716197 0.08463329 0.08826721 0.026470931 -0.05215596
0.037163388 -0.12638731 0.0056505096 -0.032889005 0.0125683015 -0.00040856545 -0.102937646 0.070593454
0.033108078 -0.110553235 0.0380658 0.11012847 0.04766636 -0.0978135 -0.07851607 0.098839805
0.0087462645 -0.09342957 -0.15762153 -0.019689932 -0.04242963 0.09574298 0.029704334 0.046362106
0.048212003 0.010645625 -0.0041170013 -0.045584474 -0.06843733 0.042664513 -0.015224186 0.11915401
-0.10920647 -0.08988253 -0.12673697 0.08937205 2.0455861e-37 0.14377514 -0.099699356 0.06242789
-0.12838717 -0.009038465 -0.06135178 0.02228396 -0.077703744 0.008372015 -2.7024067e-09 -0.09485374
0.12098798 0.056836776 -0.040931918 -0.07511821 0.088973865 0.04582298 3.3685513e-34 -0.1029468
-0.032914255 -0.03400025 -0.039410613 0.053708874 0.056974977 0.030619383 -0.0053715487 0.06677679
-0.0890281 0.06767359 0.05366498 -0.072999425 -0.05338039 -0.021022057 0.0055395765 0.029671814
0.09350356 -0.036423087 -0.084779546 0.036361527 -0.008136002 -0.09620425 -0.06974362 -0.13099484
-0.10978603 0.028144352 0.08813838 0.021262137 -0.010673374 -0.10939269 0.011087775 0.072316214
-0.011266308 0.051173825 -0.018368473 -1.9207119e-31 -0.061278183 1.5736983e-36 -0.09289679 -0.017354198
0.043623876 -0.06660139 6.954686e-19 0.029553894 0.103138514 -0.0801794 -0.048667602 -0.07244098
-0.011720936 0.10319964 0.033130992 0.08948541 0.019250317 -0.10988686 0.05381749 -0.053220544

net.4.bias f4 [200]
00000000: db57 093c 620f 55bc 3021 7cbc 0b2a 45bc
00000010: 795b 68bb da40 473c 38b7 13bd e2e7 8b3c
00000020: 63f7 c3bb ada5 02bc dd6c be3c 3e7c 03bd
00000030: ed7c 603c ecb8 85bb 2999 d73b b201 2e3c
00000040: 036a debb a31e 6a3c 7614 123b cd0c 08bc
00000050: f550 463c e950 22bc 7ad1 a7bc fb80 0c3d
00000060: 4af1 043d 83a2 ad3c fa5b a03c 6733 debc
00000070: 8fa5 b93c 092e 4d3c 3f0e aebc a46d 0d3c
00000080: 7ab4 bf3c 7bd1 ba3a 5059 aabc f9a6 193d
00000090: 04e9 64bb 3b74 73bc 4e02 943b e461 043c
000000a0: 3f97 a83c 5c79 5339 d623 773c 546c 5abb
000000b0: b3eb 8e3b 1155 a03c edbb 2e3c 1910 b23c
000000c0: cf68 003d d28c 67bb c463 f93b c1f6 303c
000000d0: 0ab2 93bb d11b 083c 16ca 7a3b b827 883b
000000e0: 1a00 3bbc 9146 18bd 5878 bdbc c9be 94bc
000000f0: 5278 ae3c f73c 813c ba8d 13bc 2ccf 80b9
00000100: ad3f dcbc ae2a 853c 1308 28bc 7c80 2abd
00000110: d016 21bc 5454 6fbc d91d e3ba ec87 cf3b
00000120: 1493 ef3c 9745 7a3c 4e12 bc3c c335 993c
00000130: 2f69 cdbc a230 12bc 4ca1 d5ba 18a5 8f3b
00000140: ee75 efbb 9ddb 853b 39d6 57bb 87ad 593c
00000150: f899 44bc f2f8 083d fbc0 6e3c 6750 b8bc
00000160: 314d 153d d8bf 393c d0a7 8d3c e35a 09bc
00000170: 054c 223c 782f dbbb f996 033c 1baa be3b
00000180: d274 a03b 51d2 c6bc c793 a1bc bcbc 093d
00000190: 079d 313e 89b6 3db8 173f 06bc 14eb e73c
000001a0: a931 bebc 78af e7bc b5ec 3e3c 194c 423c
000001b0: 7ff8 093c f450 ac3c 26b0 91ba 471f 0cbc
000001c0: f088 983c 6cdc a03c e847 3bbc 6f85 aebb
000001d0: 6041 a93a dc64 863c 5faa 033a 9cf3 73bd
000001e0: 8ef7 ae3c 94ac c3bc ff2d 963c 21af 82bc
000001f0: 162b 6abb 1bfd 06bc 15ce a23c 0440 ae38
00000200: c66c bd3c d0b8 11bb f524 a4bc 7705 53bb
00000210: cb62 b4bb 7de4 8bbc 3e17 0d3c e48d 4fba
00000220: 3446 21bb 72ad 833c b522 223b c2de bf3c
00000230: 15b4 e3bb a273 31bc 4871 fdbc 9ca2 0bbc
00000240: 7c8a 553a f299 c0b8 f802 0bbb 125b 5bbc
00000250: 6c68 b53c 89dd 953b dd84 d03c 20d7 afb6
00000260: d63c babc b41f 083c c03b abbc e4c7 d63c
00000270: d372 8dbb 1cde 373c 7da9 61bc 4f07 8bbc
00000280: ae09 773b 45f3 b5ba 8fbb d9bb 0f4d 07bc
00000290: 53c8 dc3b f68d 47b9 4abf 253b 7e3b 38bd
000002a0: bff0 c5bc 2d63 0bbc 5efd 6cbb f3d7 113c
000002b0: 3057 0a3b 07c1 ddbc 3ed3 1abb 3c69 79bc
000002c0: f876 49bc 52db d73c 7e8a c0bc d7c0 873c
000002d0: 8369 b43a 463a fabc 0c00 da38 3ca2 053c
000002e0: a367 92bb 8548 28bc 27fe 0b3d b806 6b3c
000002f0: 2561 003c a4eb 663b 3c6f 003d 3b4f 9b3b
00000300: 711c 4c3b 2b1a 1f3b 8820 4dbb bde5 f8bb
00000310: f88f 04bc c8d4 353c 3ea8 bc3a f610 653c
0.008382763 -0.013004156 -0.015388772 -0.01203395 -0.0035454913 0.012161458 -0.036063403 0.017078344
-0.0059804185 -0.0079740705 0.02324527 -0.03210091 0.01370166 -0.0040808823 0.0065795374 0.010620521
-0.00678754 0.014289531 0.0022290028 -0.008303833 0.012104263 -0.009906986 -0.020485628 0.034302693
0.032456674 0.021195656 0.019575108 -0.02712412 0.022661952 0.012523183 -0.021247027 0.008632097
0.023401488 0.0014253104 -0.02079454 0.037512753 -0.0034928927 -0.0148592545 0.0045168763 0.00807998
0.020579932 0.00020167738 0.015084228 -0.0033328729 0.0043615936 0.019571813 0.010664922 0.021736192
0.031349953 -0.0035331738 0.00761077 0.010801018 -0.004507308 0.008307413 0.0038267425 0.0041551255
-0.011413598 -0.037176672 -0.023128673 -0.01815738 0.021297608 0.01577614 -0.009005958 -0.00024568418
-0.026885832 0.016255703 -0.010255831 -0.04162644 -0.009832099 -0.014607508 -0.0017327621 0.006333342
0.029244937 0.015275381 0.022957947 0.018702393 -0.02507457 -0.008922728 -0.001629868 0.0043836944
-0.0073077595 0.004085018 -0.0032934083 0.013286001 -0.0119996 0.033440538 0.014572377 -0.022499276
0.03645057 0.011337243 0.017291933 -0.0083834855 0.00990582 -0.0066890083 0.0080316 0.005818618
0.0048967386 -0.024270209 -0.019723786 0.033627257 0.17345057 -4.523111e-05 -0.008193753 0.028310336
-0.02321704 -0.028281912 0.011653115 0.011858963 0.0084210625 0.021034695 -0.0011115118 -0.008552379
0.018619984 0.019636355 -0.011430718 -0.005325965 0.001291316 0.016405515 0.00050226407 -0.059558496
0.021358278 -0.023886003 0.01833248 -0.015952649 -0.0035731248 -0.008239056 0.019873658 8.3088904e-05
0.023123156 -0.00222354 -0.020037154 -0.0032199302 -0.005504941 -0.017076725 0.008611498 -0.00079175667
-0.0024608495 0.016073916 0.0024739925 0.023421649 -0.0069489577 -0.010830792 -0.030937806 -0.008522656
0.0008145941 -9.183948e-05 -0.0021211486 -0.013388412 0.022144519 0.004573528 0.02545398 -5.2404503e-06
-0.022734087 0.00830834 -0.020902514 0.026218362 -0.0043166666 0.011222389 -0.013773319 -0.016971258
0.0037694979 -0.0013881704 -0.006644673 -0.008258118 0.0067377477 -0.00019031003 0.002529102 -0.04497861
-0.024162648 -0.008507532 -0.003616176 0.008901584 0.0021109097 -0.027069582 -0.0023624445 -0.015222844
-0.012296431 0.026349697 -0.023503538 0.016571445 0.0013764355 -0.030545365 0.00010395059 0.0081563555
-0.004467921 -0.010271196 0.034177925 0.014344864 0.007835661 0.0035235668 0.03135608 0.0047396696
0.0031144882 0.0024277072 -0.0031299908 -0.0075957463 -0.008090965 0.011098094 0.0014393402 0.013981095

net.6.weight f4 [200, 200]
00000000: 63eb 3fbd b800 b1bd b87d f33b 8e47 15bd
00000010: e0e4 f792 73b4 423d 93a1 39bd cf3c aabd
00000020: e535 99bd 38e3 7c2c 148c 05be da68 e63c
00000030: bf4d bb3d a7ca be3d 7eb7 6cbd 3adb ea3c
00000040: 9144 0ebd 322d 15bd 32ea acbd 407d 02bd
00000050: 1b39 be3d 0726 ebbc 5ce6 06bd f0a9 8e3d
00000060: 36ba 10bd a3c0 8abd 8dac febd 62bb 353c
00000070: a691 573d 9ddc 4fbd cdf4 a2bc 3577 003d
00000080: 8b64 94bd ba67 f03c ffad 53bd 858c 65bc
00000090: 539d cc3c 7f7f 7e3d f7b5 b03d 5fe9 a73d
000000a0: 1414 9b3c 0b60 b0bd 7f02 a3bb abf2 1c3d
000000b0: 8392 863d 1f7a de3d 9d30 e7bd 5652 05bc
000000c0: 4d03 573c 4a08 063c ad13 a6bb ce2d aa3c
000000d0: cc5d 1eba 9336 c7bc 7a61 743c 51c0 8c3c
000000e0: 6630 1abe 0bba f2bb 2bf9 e93c 051c 1031
000000f0: c93e d73c d057 9ebd 761f 39bd cd64 283e
00000100: f06e e8bd a0e8 9ebc edeb b83b 3a2d fd3d
00000110: ed30 453b 2076 0a37 8689 2bbe 6c82 0d3d
00000120: 1207 8d3d f478 5f3d 9e3a 183d 367c 44bd
00000130: 6415 f3bd c352 7b3d 425f 3f3d 6069 d9bd
00000140: ffce 14bd d3b3 893d d94b fb3c e0fb 9a3c
00000150: badb d53c 350d a2bc 8923 983d 595b 023e
00000160: 1d24 88bd fa1d 2c3c e617 dbbd 798d 45bd
00000170: a4e7 a83b db59 83bd d1e9 5cbd f68f 023d
00000180: 4739 80bd ac0a 893d a216 9fbc 8378 8ebc
00000190: d18c 0e3e 7358 d7bd 7530 4dbd f9d7 01bd
000001a0: abdb 063b 61ff 2abd 8fc7 b43d 16a4 a83d
000001b0: ac10 bd3d 542e 8f3d 0300 823d 47af 133d
000001c0: c1e5 b63b 4b8c 12bd b968 543d a544 1c3c
000001d0: 515f 573d e023 69bd 880f 2cbd 8cae f7bb
000001e0: 40e3 dd3d 05d9 a9bd 730e 88bd 54c0 a33c
000001f0: d370 603c b6c0 6a83 bdf6 163d 20b5 0e3e
00000200: 2f0f a2bd bd4a 2d3d bee8 e9ba aef0 fdbd
00000210: aa95 0bbe 69df 40bd 2c4f b23d 195b 8c3d
00000220: 7a63 803d 08f3 993d 1dc7 dcba 8b20 903d
00000230: f538 8f3d d8ce e53d 775c 95bb b127 e3bd
00000240: 33b6 a83a 8972 883d ac7f da3d cd86 9cba
00000250: 636a 173d 1c48 ad3d 80ff 353e ca3e 27be
00000260: 631c 103d 6fb8 363d e42b 16bb a4b2 c53a
00000270: 183a 09bd 0d2b 0a3d d786 9e3d 5eaa d4bd
00000280: 794d 2dbd 0fd8 a63c db45 54bd 53e7 07bd
00000290: b311 debc e884 92bb 7804 ee3c eede 86bc
000002a0: 916c 8ebd b238 24bd a7eb c2bd 7e22 853d
000002b0: 5931 93bd a655 02be dd5d 143e 91a4 9b3d
000002c0: 4936 2c3d c8f5 a9bd 9c53 4ebd 9f71 22be
000002d0: 96c6 cabc 7989 043d 0e26 6cbd a6f2 c4bd
000002e0: 519b 65bd 8b5e edbc 9ee7 4cbc 5dce a33d
000002f0: 9510 e5bc ecb2 bbbc 3e46 4cbd 4100 d0bd
00000300: 15f6 89bd b968 a5bd f39c e0bc e060 cd3d
00000310: 5422 293d c4ce d6bc 6d31 6cbb 23e0 c13c
00000320: 49c4 2fbc 98f5 93bb a711 86bd 0e5b b8bb
00000330: 4283 5f03 19ae 8439 4857 8d3d 2367 08bd
00000340: 1015 cb3c 2053 3e03 05d9 2837 8447 070c
00000350: 26f4 98bd f832 f3bb 958a 9abc fa1f 2a3d
00000360: 745f bf06 c2e1 cd25 14a7 64bd 53fd 34bd
00000370: 84fe 44bc 90f9 adbb a7c9 90bd 53c0 008e
00000380: 25a7 36bc 7509 b73c 297d 9b3c 4a5a c935
00000390: 6b62 57bd 2362 2f3d 15fb 79bd 6ec4 84bd
000003a0: 1eab 3802 44cd 518d 8ce5 418b b967 1883
000003b0: db2d 04bd eb50 5d3b 12b5 203d 1559 0c39
000003c0: 85f4 9abb 538d 95bd 9ae5 3f36 128a cd3a
000003d0: ef20 1ebc 5827 9c83 f8b8 ee3c 1f5f 103a
000003e0: 2df1 07bc 88ea 038f cf0e 14bd 2bfc 62bb
000003f0: c4d3 c0bc 1dba 6483 3d17 b7bc b165 0eb7
-0.04685534 -0.08642715 0.0074307583 -0.036445193 -1.5644314e-27 0.04753537 -0.045320105 -0.083123796
-0.07480983 3.5937486e-12 -0.13041717 0.028126169 0.09145688 0.093159966 -0.05779218 0.028668988
-0.03473336 -0.036420055 -0.08443107 -0.03185773 0.09288236 -0.028704656 -0.03293453 0.06966007
-0.035333835 -0.06775024 -0.12435255 0.011092039 0.052629136 -0.050747503 -0.01989212 0.031363685
-0.072457395 0.029346336 -0.051679607 -0.014010553 0.024977362 0.06213331 0.08628457 0.08198809
0.018930472 -0.08612069 -0.004974663 0.038317364 0.06570914 0.108631365 -0.11288569 -0.008137306
0.013123346 0.008180687 -0.0050682635 0.020773795 -0.00060411985 -0.024318015 0.014915818 0.017181547
-0.15057525 -0.007407432 0.028561195 2.0970685e-09 0.026275055 -0.07731593 -0.04519602 0.16444702
-0.11349285 -0.019398034 0.005643359 0.12362142 0.0030088976 8.252944e-06 -0.1675168 0.034548208
0.06886114 0.05455871 0.037165277 -0.04797002 -0.11869314 0.061358225 0.046721704 -0.10615802
-0.03633022 0.06723752 0.030675815 0.018918931 0.02610575 -0.019781688 0.07428653 0.12730159
-0.06647513 0.010505194 -0.10697918 -0.048230622 0.005154567 -0.06413623 -0.053933922 0.031875573
-0.06260925 0.066914886 -0.019419972 -0.017391449 0.13920905 -0.10514917 -0.05009504 -0.03170011
0.002057771 -0.041747455 0.08827125 0.08234422 0.092316955 0.06991258 0.063476585 0.03605583
0.005581588 -0.035778325 0.051857684 0.0095378505 0.052581135 -0.05691898 -0.042007 -0.0075586494
0.1083436 -0.08293346 -0.06643381 0.01998917 0.013698774 -6.898764e-37 0.0368564 0.13936281
-0.07913052 0.042307604 -0.0017845852 -0.12399422 -0.13631311 -0.04708806 0.08706507 0.06853313
0.06268974 0.07517058 -0.0016844008 0.07037457 0.069932856 0.11221093 -0.004558142 -0.11091555
0.0012871682 0.06662471 0.10668883 -0.0011942029 0.036966693 0.084610194 0.17773247 -0.16332546
0.03518332 0.044609483 -0.0022914344 0.0015083146 -0.03350267 0.033732463 0.077405624 -0.103840575
-0.04231021 0.020366697 -0.051824432 -0.033179592 -0.027108049 -0.00447141 0.029054865 -0.016463723
-0.06954301 -0.04009313 -0.09517603 0.065007195 -0.07187147 -0.12727985 0.14488931 0.07599748
0.042043958 -0.08298832 -0.050372705 -0.15863656 -0.024752896 0.032357667 -0.05765348 -0.09616594
-0.056056324 -0.028975746 -0.012506394 0.07998345 -0.027962008 -0.022912465 -0.049871676 -0.101562984
-0.067363895 -0.08076615 -0.02741859 0.10028243 0.041292503 -0.02622164 -0.0036040202 0.023666447
-0.01072795 -0.004515361 -0.06546336 -0.005626089 6.5684487e-37 0.00025306715 0.06901413 -0.033301484
0.024790317 5.5931404e-37 1.0064109e-05 1.0421543e-31 -0.074684426 -0.0074218474 -0.01886491 0.0415344
7.198647e-35 3.571481e-16 -0.0558234 -0.0441869 -0.012023572 -0.005309291 -0.07069712 -1.5869819e-30
-0.011148249 0.022343377 0.01898058 1.5001945e-06 -0.052584093 0.0428182 -0.061030466 -0.064827785
1.3567293e-37 -6.4650177e-31 -3.734314e-32 -4.4787853e-37 -0.032270294 0.0033770155 0.039235182 0.00013384626
-0.004728856 -0.07302346 2.8594864e-06 0.0015681407 -0.009651407 -9.177889e-37 0.029140934 0.0005507338
-0.008297247 -6.503968e-30 -0.036146935 -0.0034635167 -0.023538478 -6.7216826e-37 -0.022349948 -8.487536e-06

net.6.bias f4 [200]
00000000: f60c 67bc 7f80 4dbc 73b4 e8ba fd7e 573b
00000010: a3cb 3dbb 9006 c6bc 1b3b d0bc 2792 c13d
00000020: 5e42 203c ca5d b23c ef1c 933c fc06 c13c
00000030: 758d 02bc db4d 9d3c 2de8 c63b 5b41 b13c
00000040: bea5 963b 2875 9d3c 39d4 5f3c b717 23bc
00000050: 7e67 c93c 8e19 843c 0a0d 36bc 05b4 87bc
00000060: b487 0d3c 9ba0 d23b 35b3 fb3c 768b 0cbb
00000070: 3334 e9bc 1d73 073c 44a7 563c ad79 d23b
00000080: e7bc 083d efb4 b3bc 2e70 0b3b 17e7 35bc
00000090: ec55 383c 7e1b 09bd 5819 bc3c 20a5 debb
000000a0: ff01 92bc a928 0d3c 0341 c43c ebc3 e13c
000000b0: 565a 833b 8c12 b93c 1024 423c db56 84bb
000000c0: a763 08bd 7f25 473c 79cd b6bb d9be e6ba
000000d0: a00b 77b8 cddf a439 43b0 03bc c76f 843b
000000e0: 1439 7e3c 518a a13c 3c65 86bc b911 483c
000000f0: bf28 aeba 53fb d6bb 37d4 a3bc abac 553c
00000100: d8ac 2c3d 3b9a 1d3b 2de0 b73c 9cd9 0ebc
00000110: 798a e0bc ddec 7f3c 73f6 15bc d1f8 1cbc
00000120: 61b8 d03c 3322 45bc e194 faba ca6a 593c
00000130: d298 163c 8762 d93c fddf 343c a20b 67bc
00000140: e3e6 49bc 3137 9bbc c361 6f3c 5983 8d3b
00000150: 763d 093d 28f0 963c d5ae aa3c 0127 903c
00000160: 8dae d3bb 97dd 48bb afc6 d7bc d1c0 533c
00000170: 8ef1 05bc 6bf6 fd3b a845 903c e68d bcbb
00000180: 7ea4 533c 04b5 283d 61d2 d4bb 52a1 83bc
00000190: e451 c23c 9bdc 8dbc fa06 d7bc 2506 03bc
000001a0: b87a d43a 7593 333c 3512 383b f382 bebc
000001b0: 4cdb 853c 696e 763c dd54 113d a1ba 06bc
000001c0: f98b ae3c d18c 25bc ec8d 393b 1c09 55bc
000001d0: 3ac9 d8bc b074 943c ecb2 88bc ea17 7f3c
000001e0: 4eb3 e43c 6246 f8bb 73a4 353c f67b 463c
000001f0: b3f2 afbc 8580 d73c 5e60 a53c 6f7a 943c
00000200: 03e0 9b3c b103 3f3c cbbb 023d 79b1 febb
00000210: b477 213c a119 60bc 04ce dbbc 84b5 f63c
00000220: f5c6 8e3c c42a 2d3a f5db cf3c 55bc 3f3a
00000230: 1939 923c af33 803b 85df 743c f8f3 fe3b
00000240: e265 6ebb b394 663b 7c5b 2b3c eb5b ccbb
00000250: 4943 af3b ff83 733c a812 e1ba 2ba7 01bc
00000260: 9982 b03b 5fe2 163c f952 ab3c 87d2 b0bc
00000270: 4dc0 a2bc df73 ffbc c4ab a23b 3aa4 b3bb
00000280: 96f9 04bc c56d 013c 1c10 3cbc f5d8 21b9
00000290: c6b2 40bc ec55 a73c 6f14 94bb 5b4a 823c
000002a0: ec43 983c f3aa a6bc 72e2 123c e8df 693c
000002b0: 1fcb b13b 20c4 31bc b1c4 1f3c c349 9f3c
000002c0: 5af2 89b9 93a5 983c 6eff 21bc 47fd f1bc
000002d0: 50d0 a63c 898c 50bc 9ebc dc3c 6eb5 0c3c
000002e0: b269 81bc 8ad0 bb39 71b4 883c 757d b6ba
000002f0: 784b 253b 8249 bbbc 168e 7e3b 3844 2abb
00000300: 19fe 95bc 9dd8 eb3b d4ac a3bb 3001 ebbc
00000310: bdde eb3c 2a50 bf3c 6c95 d03b 68e5 02bc
-0.014102211 -0.012542843 -0.0017753973 0.0032882087 -0.0028960488 -0.024173051 -0.025418809 0.094517045
0.009781448 0.021773238 0.017958133 0.0235629 -0.007968296 0.019202163 0.006070158 0.02163761
0.0045973947 0.019220904 0.013661438 -0.0099543845 0.024585482 0.016125467 -0.011111507 -0.016565332
0.008638311 0.006427837 0.030725101 -0.002144543 -0.028467273 0.008267191 0.013101403 0.0064231963
0.033383276 -0.021936862 0.002127658 -0.011102459 0.011250954 -0.033473484 0.022961304 -0.006794587
-0.017823217 0.008615651 0.023956781 0.027559241 0.0040085716 0.022591852 0.011849418 -0.0040386743
-0.03329816 0.012154936 -0.0055786935 -0.0017604484 -5.8900216e-05 0.00031447262 -0.00803763 0.004041645
0.015516538 0.019719275 -0.016405694 0.012211257 -0.001328729 -0.006560722 -0.019998653 0.0130416555
0.042157024 0.0024048227 0.022445763 -0.008718874 -0.027409779 0.015620437 -0.009152996 -0.009580807
0.025478544 -0.0120320795 -0.0019117856 0.013270089 0.009191709 0.02653624 0.011039731 -0.014101895
-0.012323114 -0.018947216 0.014610711 0.0043186364 0.03350588 0.018425062 0.02083532 0.017596724
-0.006460017 -0.0030649656 -0.026339857 0.012924389 -0.008175267 0.0077503226 0.01761134 -0.0057542203
0.012917636 0.041188255 -0.0064948057 -0.016068134 0.02372069 -0.017317107 -0.026248444 -0.00799707
0.001621089 0.010960449 0.0028087024 -0.0232558 0.01633992 0.015040972 0.035481323 -0.008223207
0.021306979 -0.010104374 0.0028313352 -0.01300266 -0.02646314 0.018122047 -0.01668688 0.015569666
0.02791753 -0.0075767497 0.011086571 0.0121145155 -0.021478033 0.0263064 0.020187553 0.018124787
0.019027716 0.011658595 0.031917375 -0.0077726212 0.0098552 -0.013677985 -0.026831634 0.03011585
0.017428854 0.0006605799 0.025373438 0.00073141354 0.017849492 0.003912411 0.014945869 0.007780548
-0.0036376645 0.0035183846 0.010458823 -0.0062365434 0.005348597 0.014863013 -0.0017171698 -0.007913391
0.005386662 0.0092092445 0.020913588 -0.021584762 -0.019867087 -0.031183181 0.0049643237 -0.005482224
-0.008116147 0.007899706 -0.01147845 -0.0001543498 -0.011761373 0.020426713 -0.0045190374 0.015904596
0.018587075 -0.020345187 0.008965122 0.014274575 0.0054258252 -0.0108499825 0.009751485 0.019444352
-0.00026311242 0.01863364 -0.009887559 -0.029539717 0.020363003 -0.012728819 0.026945408 0.008588178
-0.01579747 0.00035822793 0.016687604 -0.0013922887 0.0025221985 -0.0228622 0.0038842014 -0.0025980603
-0.01830964 0.007197453 -0.004994968 -0.02868709 0.028792733 0.023353655 0.0063654687 -0.007989265
