data/models/heart_attack/heart_attack_50x5.pth (torch, 48691 bytes, 11 tensors)

net.0.weight f4 [50, 13]
00000000: 506e 37be 28ac 123e e553 863e c0a4 193e
00000010: d59c 3c3e 5555 ffbd 97b3 7b3e a35d 4fbe
00000020: 856f b23e ace4 cfbe 049d 33bc 222a 6cbe
00000030: a2e5 cebd 99e4 65bb 6040 9bbb 73da 0198
00000040: 1ef3 f1b9 16f9 0cbb a05f e13b a5b0 daae
00000050: af72 94b9 2441 9bbb d303 8bb9 4eda 8fb0
00000060: ee3d 5086 a455 9bbb aaaa 933e ff92 4abd
00000070: b943 9c3e 5fd6 19be 9474 823e 8959 f0bc
00000080: 9e5e 0bbe 956c 7d3e 58a5 343e 232b c1be
00000090: 1809 a3bd f807 d33c 4e4c 37be 70c7 663e
000000a0: 9038 993e 8c87 10be e807 b1bc 50a4 4b3e
000000b0: cfe7 b7bd 8cc3 bbbd 78a8 81be 50ed 02bd
000000c0: b0cb 863e 2739 0a3e 3dd0 e43b 9c2f 02be
000000d0: a7bf acbe 7084 9d3d 2864 96be b9fe 10be
000000e0: 401c 963e d0d1 62bd 6189 b43e 1072 443d
000000f0: 400a d0be 3094 ed3d 20ad 93b9 4fee cb3e
00000100: 840c 43bd 798d 78be 2a25 7abe 652a a3be
00000110: 3081 ec3d 75de 94be 453b 7a3e 0c9e 8d3e
00000120: 165d 1a3e 8575 853e 34c7 af3e 0925 e5bd
00000130: 10b5 a9be b4b4 7bbe 65b0 3c3e 8fa1 003e
00000140: 9f0a 8dbe cff3 52be b35a 8fbe bc3f 6ebd
00000150: 6b14 83be 8e37 09bd 89d9 12be fdf7 213e
00000160: 7bb6 2dbe 529f 423e 059d 313e cc2c bb3d
00000170: e699 173e e435 f83c 276c 823e 94fb 7a3d
00000180: 4c36 9c3e ab33 8b3e 2481 c6bd 0190 48be
00000190: 6d46 b5bc 712b e9be 216d 7cbe dd78 1dbe
000001a0: 7999 a43e d18e 973e c68b b4be 451d ddbd
000001b0: a959 2ebe 9f62 8e3e 7e46 4f3e 90a1 563e
000001c0: d902 d8bd 8315 56bd 9f21 8ebc 2c92 4d3e
000001d0: f224 debc 7ea8 4cbd b5f9 c2be 838d f83d
000001e0: afc7 163e 3270 38be 1a7d efbd 2f18 1e3d
000001f0: 9cfa 53be a114 273e 6c25 8b3d c491 a23e
00000200: 5798 8c3e 6373 55be c3f2 82be 0be3 023e
00000210: 0f57 34be 8862 cf3c cbb0 cf3e 06be 363d
00000220: 88e1 aa3e 661a 78bd f372 a33d 5d5f 78bd
00000230: 64bb bfbd 71bf 89be 4db9 983d 0846 8dbc
00000240: 27f8 953e ea67 8e3e 7705 cfbe ae8f 2e3c
00000250: 3b60 233c 5907 7b3e 222d 053e 8a97 06be
00000260: 9cda a4be 0223 07be 6b8b 993e 7f73 1abd
00000270: 7869 bfbd a824 0b3e bfa1 183e af31 c2bd
00000280: f281 903d e7cd 4cbe 193c ac3c 570f 393e
00000290: 5c70 92be 270f 4b3d 3d29 3b3e ccdf 87be
000002a0: ccee e23d 61f3 50bd e7ac 20be 6880 9b3e
000002b0: f9cc b8bc 3c87 6f3e 6a99 213e 4c74 06be
000002c0: 27a1 06be e5a3 613e 821c 453e 9fba 02be
000002d0: 0628 c03e 3499 503e 4e83 05be 7983 6fbd
000002e0: 1cf2 15be f927 583e c18b e93d 828a a83d
000002f0: 7b74 1dbe 63f9 423d d351 043d 21a7 773e
00000300: 259d 0cbe 2c75 923e 82b3 63be 4c24 f1bc
00000310: bf7b 8a3e 852d 95be 9a33 85be b2d4 f53d
00000320: f6fa 1ebe c990 3bbe 3c49 4a3e 177d 833e
00000330: 0ec7 b4bd 660b 223d c788 c63c dad0 993d
00000340: 7da2 373e a89c 7dbd 3563 1a3e 1a46 f5bd
00000350: ee0e a5bc 091d c93d 18e2 903e 4628 8abe
00000360: 3d80 2fbd 904d 22bd cba3 a13e 674e 1cbd
00000370: c9ff a1bd c969 efbc a8cf a6bd 5859 82bd
00000380: 7a77 12bd 3fea 0fbc cd92 743d 0a34 643e
00000390: 0d42 ba3e 2623 9d3d 276b 74be a5c7 4b3e
000003a0: 8681 243d 1741 71be 33fc 7b82 7c01 1a83
000003b0: fe1f 54b1 3293 b50d df94 9290 481b ae2c
000003c0: 0ea5 aa87 cff9 b4b2 20f2 d0b1 508c e88e
000003d0: 34d5 91a9 7b53 0eab b032 6903 932b 7cbe
000003e0: 14bd 1b3e 1bb0 b93c e0e6 073e 2993 f7bd
000003f0: 21f6 a1be 1fb1 52bd 64ca 123e 7b3f 593e
-0.17913175 0.14323485 0.2623588 0.15004253 0.18419202 -0.12467448 0.24580227 -0.20250563
0.34850708 -0.4060415 -0.010962728 -0.23062947 -0.10102393 -0.0035078882 -0.0047378987 -1.6783148e-24
-0.00046148238 -0.0021510771 0.0068778545 -9.9448706e-11 -0.00028314206 -0.00473799 -0.00026514995 -1.0466665e-09
-3.916595e-35 -0.004740434 0.28841144 -0.049456593 0.30520418 -0.15023182 0.25479567 -0.029339569
-0.13610312 0.24748452 0.17641199 -0.37728223 -0.07960719 0.025760636 -0.17900202 0.22537017
0.29925966 -0.14114207 -0.021610215 0.19886899 -0.08979761 -0.09168157 -0.25323844 -0.0319646
0.26327276 0.13498364 0.0069828318 -0.12713474 -0.3373997 0.07691276 -0.29373288 -0.14159669
0.29318428 -0.055375874 0.35261062 0.04796034 -0.4063282 0.1160053 -0.00028167013 0.39830253
-0.047619358 -0.24272718 -0.2442824 -0.31868282 0.11548078 -0.2907597 0.24436672 0.27659643
0.15074572 0.26066223 0.34331667 -0.111887045 -0.33145952 -0.24580652 0.18426664 0.1256163
-0.27547166 -0.20600818 -0.27998886 -0.05816625 -0.25601515 -0.033500247 -0.14340796 0.15817256
-0.16964142 0.19006088 0.17345054 0.09139404 0.14804801 0.030299135 0.2547314 0.06127508
0.30510175 0.27187857 -0.096926 -0.19586183 -0.022128308 -0.45540956 -0.24651004 -0.15378137
0.3214834 0.29601148 -0.3526289 -0.10796598 -0.1702639 0.27809617 0.20241734 0.20960069
-0.10547418 -0.05226661 -0.017350016 0.20075291 -0.027117226 -0.049965374 -0.38081136 0.12136366
0.14724611 -0.18011549 -0.11693783 0.038597282 -0.20701069 0.16316463 0.06794247 0.31751835
0.27459976 -0.20844798 -0.25575837 0.12781923 -0.17611335 0.025315538 0.4056457 0.044614814
0.33375192 -0.06057205 0.07980909 -0.06063782 -0.09361914 -0.2690387 0.07457218 -0.017245308
0.29290888 0.27813655 -0.40433857 0.010654373 0.009971674 0.24514522 0.13005498 -0.13143745
-0.32198036 -0.13196948 0.2998918 -0.037707802 -0.093462884 0.13588202 0.14905451 -0.09482133
0.07056035 -0.2000042 0.02102475 0.18072258 -0.28601348 0.049574997 0.1827745 -0.2653793
0.11080703 -0.051013354 -0.15690957 0.30371404 -0.022558676 0.23391432 0.15781179 -0.13130301
-0.13147412 0.22035177 0.19249156 -0.12766503 0.37530535 0.20370942 -0.1303837 -0.05847499
-0.14643139 0.21108998 0.11403609 0.08229543 -0.15376465 0.047601115 0.032304596 0.24184848
-0.13731821 0.2860502 -0.22236446 -0.029436253 0.27047536 -0.2913629 -0.2601593 0.12003459
-0.15525422 -0.1831695 0.19754499 0.25681373 -0.08827029 0.03956165 0.024235142 0.075105384
0.17933078 -0.061916977 0.15076907 -0.119762614 -0.02014872 0.09819991 0.28297496 -0.2698385
-0.042846907 -0.03962475 0.31570277 -0.038160708 -0.07910115 -0.029225247 -0.08145076 -0.06364697
-0.035758473 -0.008783876 0.059710313 0.22285476 0.36378518 0.0767272 -0.23869 0.19900377
0.040162586 -0.23559986 -1.8512945e-37 -4.5258236e-37 -3.0868246e-09 1.1190422e-30 -5.781622e-29 4.9484063e-12
-2.5675768e-34 -2.1068358e-08 -6.081123e-09 -5.732753e-30 -6.4762784e-14 -5.0564387e-13 6.8530732e-37 -0.24625997
0.15208846 0.022666981 0.13271666 -0.120886154 -0.31633094 -0.051438447 0.14335018 0.21215622

net.0.bias f4 [50]
00000000: 0501 19bd 2a40 9bbb 9da1 123d 5ef5 233d
00000010: 7e5c 38ba af43 2e3c 4deb ce3c f7f2 023c
00000020: 4c5c 9c3c 8f26 353d 98dd 8c3c 20bf 34ba
00000030: 763f 4f3d d430 223d a360 a9bc 6945 96bc
00000040: 6b1d 663d 9a58 b53d 4269 eb82 4b50 383d
00000050: d3d3 233b e4f6 953d d7eb 9b3c 05d6 d1bc
00000060: 7305 49bc 56cf 813c ca6a b9bc e87a ffbc
00000070: f45f d6bc a4e4 2a3d ba8a 13bd 3e1f 5a3d
00000080: fe4f 433b 37f7 c8bc 5c47 853d c396 8d3d
00000090: d2d5 ec3c 90d8 1b3d 8a2a 623c f442 a8bb
000000a0: 9c4d ca3c d270 363d 9bf8 3e3b 99f6 a4bc
000000b0: d907 9ebc ef47 a03d a764 54bc 1142 b4bb
000000c0: d13e 8b3d 5917 9abb
-0.037354488 -0.0047378736 0.035798658 0.040028922 -0.00070328254 0.010636254 0.025258685 0.007992498
0.01908698 0.044226225 0.017195508 -0.0006894935 0.05059763 0.039597347 -0.020675963 -0.018343644
0.0561804 0.0885479 -3.4590562e-37 0.04499845 0.0024998083 0.07322481 0.019033356 -0.025614748
-0.012269366 0.015845936 -0.022633929 -0.031186536 -0.0261688 0.041721955 -0.03602097 0.05325245
0.0029802318 -0.024531944 0.06507751 0.06913521 0.028910551 0.038048327 0.013804087 -0.0051349346
0.02469521 0.044541188 0.002913988 -0.020137118 -0.019290851 0.0782622 -0.0129634505 -0.00550104
0.06799091 -0.0047024903

net.2.weight f4 [50, 50]
00000000: 3073 292b 11ea eea8 157b d9b8 d4c4 ef33
00000010: 7577 209b c0ab 4cba 3bf0 fba7 1e7e d3ac
00000020: 0827 84ba 0819 8d23 c885 a606 ed67 1522
00000030: d6dd 9210 1fb9 d83b 208b 16b1 9b1c bdb7
00000040: 1f95 1387 9e98 82b8 a2d8 0003 217e 29a5
00000050: 20e1 7281 a91a 5dab aaee 5e9b 37dd 83ad
00000060: 64f5 83b9 e9d6 0495 ae77 08bc 2572 5239
00000070: 96e4 f61a 36b0 e21b f666 a228 ec2b cfb7
00000080: 3a4a 60bb 62fa 82ba e049 42b4 721c 6d9a
00000090: f585 33b9 a020 6bba 5ec0 efa1 e673 dcb9
000000a0: e87f 1703 3043 05bb d4b7 440d c388 2883
000000b0: 8d78 d8bb b398 a7ba f1f4 05a9 4de4 2183
000000c0: 62a8 4d1d 7ced 98b1 a4ca 03be c14a 241d
000000d0: b404 ebbd 827b c0be b754 d4bc c9f3 e63d
000000e0: 4381 a2be 4cd3 cbbe d311 a8be 8b90 b53d
000000f0: d1fe 5f3e 9e7e 8fbe 7ad1 7dbd 4784 72bd
00000100: e29d 6dbe f2da b43c 1acc 2cbd 9567 863e
00000110: a733 b897 3d0a 0ebe a49e 603d a348 5d3e
00000120: f7a3 3f3d 114c 043e e618 143c 29df 33bd
00000130: b346 193e 447b 423e a5ae 9a3d 74b3 4fbe
00000140: be4a d33d 6f6d 82be f024 8abe 0d54 bf3d
00000150: e59d 893d cb7e fa3d 3724 c43d 0e02 babd
00000160: d527 89be 4542 91be e88b 85be 9efd 7abc
00000170: 58d4 d33d ef0c e63d 14af b93d 4e8b ab3c
00000180: 7646 e43d d557 243e f3bb 28be 83b5 13be
00000190: 5df4 28be becb 242b 6676 82be 09c0 293d
000001a0: 0d25 5cbe 79f2 a63e b7fd 9e3e 6454 19be
000001b0: 64f6 81bd aa17 5dbe eeb2 25bd c329 f7bc
000001c0: 565d 2fbe 0d2a 10bd b4d8 473d 4383 c93d
000001d0: 3c86 7cbd 3ec4 dcba ea86 aa82 85e8 42be
000001e0: 6429 2bbe 5296 9cbd bfd4 ba3e 12f6 c43d
000001f0: e348 ae3e eb33 70be c778 693e 145f 963e
00000200: b0f0 55be 0f5d 4ebe 2fdb c13c 2ba1 8cbd
00000210: f14d 693e 8ec0 30bc c3ca 243d c493 8e3d
00000220: aaeb 853e dce7 823d 8696 e8bd 1a1f 89bd
00000230: f262 743e 5953 693e 263a 303e da42 92bd
00000240: f8be b23d e919 533d fcde 20be ffb8 6bbe
00000250: dfa7 e7bd ff20 613e 4275 04be b185 87a4
00000260: 7f5e f53d 500a 5ebe fef2 edbd bf1c 883d
00000270: db5c 0c3e 417e 5cbe 1658 05be 6323 623e
00000280: d761 c43d 0eff fbbc 8860 91be 5f94 753e
00000290: 519c 85be ceee 7fbc 5cde 0bbe 5ad0 043e
000002a0: f259 5327 217f e8bd d516 b2bd 2ab4 84bc
000002b0: 08d9 69be df2a 8bbe 1fa1 92be 026d 85bd
000002c0: 6130 04be de33 5abe 9318 87b7 0222 373d
000002d0: d22e efbc 036d f3bd d72c 483d d52b 31be
000002e0: c809 da3d d5ca 0fbe 330a 373e 6a7d 453e
000002f0: 53a5 63be 652a 043d a1c9 89be a460 cabd
00000300: 2d46 3fbd 72fb bfbe 716e 443e 7010 b83d
00000310: 0d9a 91bd 96f8 7f3e af40 23be 3ec2 0dbe
00000320: 93ca fc3d 9c67 4e8b bd4a b6bd 1ad5 98be
00000330: 9e07 b4be 5860 fe3d 0da0 243d 829e 783e
00000340: 19e4 92be 5abd 62be 8f73 7e3d f83f 653e
00000350: 97eb 0c3e 2ea4 d1bd 41f1 8a3e 90e5 e4bd
00000360: 9676 0c3e ab1b 89bd 3e37 e282 9b79 113e
00000370: 5acb 243d 1ec4 3a3d 1e1f b33e d945 3cbd
00000380: dfa2 c33e 075b 853d ae42 553e bdec 623e
00000390: f407 2e3e fafb 22bd e4ef 48be 7253 c0bd
000003a0: 9d46 173e 9449 423d 7d19 f8bd bff5 77bd
000003b0: cb48 11be 9e61 303e a9f1 d53d b7e9 153e
000003c0: 8cbf 84be 6e43 193e fa8c c63d c4ed 983e
000003d0: 41be 39be 68bf 563e 5008 9f3d fb8e 733e
000003e0: 2d70 ad3c 9f42 06be e281 04ae 685d 1aae
000003f0: 1588 e7ae 01d9 82aa 757c f204 848d 2b81
6.0200716e-13 -2.6524818e-14 -0.00010370292 1.11651076e-07 -1.3273488e-22 -0.0007807575 -6.9926953e-15 -6.0109825e-12
-0.0010082433 1.5297852e-17 6.2638834e-35 2.0248283e-18 5.792864e-29 0.006613865 -2.1906956e-09 -2.2543876e-05
-1.1102874e-34 -6.22731e-05 3.78645e-37 -1.4701148e-16 -4.46099e-38 -7.855197e-13 -1.8440526e-22 -1.4991215e-11
-0.00025169097 -2.6826722e-26 -0.008329315 0.00020069683 1.02112516e-22 3.7502437e-22 1.8030265e-14 -2.4696776e-05
-0.003422393 -0.0009992833 -1.8094534e-07 -4.903343e-23 -0.00017120673 -0.00089694 -1.6246189e-18 -0.0004204802
4.452174e-37 -0.0020334236 6.061844e-31 -4.9527757e-37 -0.0066061676 -0.0012786597 -2.9744385e-14 -4.7575724e-37
2.7218576e-21 -4.450781e-09 -0.1287027 2.1743866e-21 -0.114755064 -0.3759423 -0.025919301 0.11276967
-0.31739244 -0.39809644 -0.328261 0.0886546 0.21874548 -0.2802629 -0.06196735 -0.05920818
-0.23204759 0.022077058 -0.042186834 0.26250902 -1.190376e-24 -0.13871093 0.05483879 0.2160974
0.04678723 0.12919642 0.009039139 -0.043913994 0.14968376 0.18992335 0.07552842 -0.202833
0.1031699 -0.25474116 -0.26981306 0.09342203 0.06719569 0.12231215 0.0957722 -0.09082423
-0.26788202 -0.28370872 -0.26083302 -0.015319256 0.10343236 0.11232936 0.090665966 0.02094045
0.11146252 0.1604913 -0.16477947 -0.1442471 -0.16499467 5.8547253e-13 -0.25480956 0.041442905
-0.21498509 0.32606867 0.31052944 -0.14973599 -0.063458234 -0.21591058 -0.040453844 -0.03017128
-0.17125449 -0.035196353 0.04879065 0.09839489 -0.061651453 -0.0016843153 -2.5056692e-37 -0.19034012
-0.16715008 -0.07645859 0.36490437 0.09617247 0.34039983 -0.23457305 0.22799979 0.29369414
-0.20892596 -0.20152687 0.023664085 -0.06866678 0.22783639 -0.010788096 0.04023243 0.06961778
0.2615636 0.0639188 -0.11356835 -0.06695385 0.2386587 0.22785701 0.17209682 -0.07141657
0.08727831 0.05153838 -0.15710062 -0.23019789 -0.11311316 0.21985243 -0.12935355 -5.87734e-17
0.11980914 -0.21683621 -0.11618613 0.06646108 0.13707297 -0.21532537 -0.13021883 0.22083811
0.09588974 -0.030761268 -0.2839396 0.2398238 -0.26095822 -0.0156209 -0.13659042 0.12970105
2.9330892e-15 -0.11352373 -0.08695761 -0.01619919 -0.22836697 -0.27181146 -0.2863855 -0.06514932
-0.1290908 -0.21308848 -1.6104697e-05 0.044710167 -0.02919713 -0.11886027 0.048870888 -0.17301877
0.10646397 -0.14042218 0.17874984 0.19286123 -0.22231035 0.032266993 -0.26911643 -0.09881714
-0.046697784 -0.37496525 0.19182755 0.0898751 -0.07109461 0.24997172 -0.15942644 -0.13843629
0.123433255 -3.9752104e-32 -0.08900974 -0.29850084 -0.3516206 0.1242072 0.0401917 0.24279216
-0.2868965 -0.22142544 0.062121924 0.22387683 0.13761745 -0.10236393 0.27137187 -0.11176598
0.13717112 -0.0669473 -3.3239423e-37 0.14206545 0.040232994 0.04559719 0.34984678 -0.04596505
0.38210198 0.06511503 0.20826218 0.22160621 0.16995221 -0.039791085 -0.19622761 -0.09390916
0.1477303 0.04743345 -0.121142365 -0.060537096 -0.14187925 0.17224738 0.10446484 0.14639936
-0.2592739 0.14967129 0.09694858 0.298689 -0.18138982 0.20971453 0.07765257 0.23785011
0.021171654 -0.13111351 -3.0128684e-11 -3.5098507e-11 -1.0528837e-10 -2.3243216e-13 5.7008222e-36 -3.1509272e-38

net.2.bias f4 [50]
00000000: 6ea3 8dbb 5c66 3abd 7384 003c 945b abbc
00000010: 08e8 c4bc d669 2db4 3837 1d3d 9100 9e3b
00000020: 391d e63c f2f7 453d 52dd d8bb 8f51 ef3c
00000030: 1f22 20bc 0730 8abb 298d 823c a6ed 413c
00000040: 561b 883c 9612 373c 9ad3 8f3c d9cb 6fbc
00000050: ab66 633d e007 0e3b e5ed b63b 8f62 793d
00000060: 761f 8c3c 53b8 0a3c bc66 d4bc 58b0 cabc
00000070: fac0 0eba 12eb d73c 4269 eb82 3f0e 783d
00000080: 4269 eb82 c003 803d 0706 c63c fd90 c2bc
00000090: 7643 e33c b229 bcbb ac95 cc3c 11af c03c
000000a0: 29ec ad3c de2c e0bc b5db 55bc 94f4 2b3d
000000b0: a732 b73c 20fd 38bc 26cc 26bc 1395 e33c
000000c0: 9231 aa3c b2ad 263c
-0.004322461 -0.045507774 0.007844078 -0.020917691 -0.024036422 -1.6150383e-07 0.03838274 0.004821845
0.028090106 0.048332162 -0.0066181803 0.029213695 -0.00977376 -0.004217151 0.015936451 0.011836445
0.016614597 0.011173865 0.017556954 -0.014636003 0.055517834 0.0021672174 0.0055825585 0.06088501
0.017104845 0.008466798 -0.025927894 -0.02474229 -0.0005445626 0.026357207 -3.4590562e-37 0.06056046
-3.4590562e-37 0.06250715 0.024172796 -0.023750776 0.027742129 -0.005742275 0.024973713 0.023520978
0.021230774 -0.027365144 -0.0130528705 0.041981295 0.02236302 -0.011290818 -0.010180509 0.027781045
0.02077559 0.010173248

net.4.weight f4 [50, 50]
00000000: ade7 2736 6fd6 d63d 6fa4 a13c 54a7 61be
00000010: 179f 10be 33c5 249b 77c7 44be 2c08 ab3d
00000020: 4e7c 013d 1fa9 f33d 933e ab3c 045d 9b3e
00000030: 9a89 ebbd 899b 53be 76b8 543e 51ca f5bc
00000040: fe8c 5dbe 4989 c4bd 8a0e 663e 1f63 bcbd
00000050: 3da6 37be 7b25 4e3e 182f 29be ef2e 19be
00000060: 08fe f7bd e5a2 d2bd 91f2 723d fe4f a83e
00000070: d184 873e febe cf3c 2fd0 3a8b 9a39 dcbd
00000080: 4231 b128 e366 d8be 6504 283e 31f2 8b3d
00000090: e04f 043e fc37 553d 9bf6 fcbc 2bc9 b13e
000000a0: d452 8c3e f710 24be 8a69 813d 3b2d 0b3e
000000b0: 1dc2 24be 4add ad3d cb13 4c3c af96 5dbd
000000c0: baa4 3ebe 1215 df3e ff07 8a2c 3f82 183d
000000d0: e79a 403e 8238 d2bd f484 173e e3bc 549c
000000e0: 8c71 313e e671 ac3d 1b35 3f3e 88a5 033d
000000f0: f585 8b3c 8dc8 793e f414 ca3d 80bd 293d
00000100: 57cb 883e 5d69 4abe dd00 093e f1cd 093e
00000110: ac9a 053e 7ffd cbbd 5722 2d3e f489 aa3d
00000120: 1af0 72be 2c29 9abd 1adb 08be a245 653e
00000130: 37cf 73be 23a6 803e b693 a73e e20a 593d
00000140: bedd bd82 a73d 323e c015 818c 08a6 49bd
00000150: e4e9 5abd f2e4 803e 42b5 3d3d 2e6b 443e
00000160: d9bd af3a 2796 ea3d 0a71 73bd 14ae f83d
00000170: 1503 62bd 6b9e 623e 8433 903d ab6c 2a3d
00000180: 17e7 3ebe 97f8 8ebe a0e2 67bd 4fe7 253c
00000190: f844 c881 239e 133d a146 62bd cf94 acbd
000001a0: 82b7 b3bd 8289 1699 5a17 053e 31ff 78be
000001b0: 0550 523e c432 6dbc 5b3e 923b 722f 8abd
000001c0: d4e8 ffbd 0036 193e 865b 573d 1fbd 783e
000001d0: 626f 763e c5e7 6fbd 9373 273e 6e3e 36be
000001e0: 8478 b33c 1858 513e bc01 8b3d 1687 e33e
000001f0: 34ff 923e 5780 10bd 1a4a 413e 86b7 01be
00000200: 5ec1 1abd 37a7 fabd 0489 d11d 4ac4 943d
00000210: b1cc 3293 7c8d 383d fec6 48be 8269 4bbe
00000220: fc93 343e 2b40 5dbe eef6 663d a0b5 f0bc
00000230: 5299 1f3e 538d a23e 1253 b3be 2df1 753c
00000240: 5149 623e 5b2e 13bd 6ebf 38be 2767 e33d
00000250: 993b 703e 0b9f c2be 1c07 83b1 d93d c03e
00000260: 4d07 843e 445d 3cbd 7482 2ebd 05ac c6ad
00000270: e6ad 1f3e 77e8 723e b29d 18bd d437 af3d
00000280: c5b4 ebbc 3e45 3cbe ac15 aa3d ade6 9b3e
00000290: 75dc d23e f651 42bd 9bbf 313d faea 873d
000002a0: 2987 99bd dbaa dabc f3ee b53c 6ae9 0cbe
000002b0: b0c9 213e d803 863e 0b29 07be 4ee7 953d
000002c0: 6318 04be 02c9 b93d a8b7 5b3d 8941 d53d
000002d0: cc00 0d29 4c59 65be b8d2 fe83 b9e8 d3bd
000002e0: 9217 c0bc 928d fdbc d0e1 7f3e 1eff 1c3e
000002f0: 1a9b bd3d d631 443d 0707 f1bd 1881 2c3e
00000300: 4be6 aa3e 1b77 153d 07f6 7b3e 873f 473f
00000310: 5b81 d63d 1da6 363e 802f 723e 74f6 bb3e
00000320: 9bb8 9932 e824 6e3d 2498 bdbc 0fb0 873d
00000330: 30e5 9e3e fa1a 9516 7216 c1bd be10 173e
00000340: c776 2ebe 9d12 8a3d 1198 8d3c c5d4 eab8
00000350: 0ec0 1d3c 00fd 9abc 67f4 383e 268a 653e
00000360: 1cbc 9cbe 21f3 0dbe 1e16 c1bd 954a 3b3e
00000370: 53ec d83d 8881 363e 604e 17bc d29b 00be
00000380: 2692 02be 342d dd3d c4e8 27bc 4859 6cbd
00000390: 72e1 443e cb77 5fbe ebce fa1e 1eee 5dbe
000003a0: f627 0b84 a4b4 b3bd 97d9 833e 2434 d63e
000003b0: ecaf e9bd 6467 433e 8838 76bd c881 843e
000003c0: d265 53be 999b 9ebd ef7a b93e fc25 45bd
000003d0: 2915 613e 79f5 903c 5a12 98bd aedd b53d
000003e0: 7ff5 e03d 5e60 a93e d1a4 1033 0571 a73e
000003f0: 1041 88bd c8a1 cabd 61a5 5e3b e044 b01b
2.5019792e-06 0.10490119 0.019731728 -0.22036487 -0.14123188 -1.362948e-22 -0.19216715 0.08351168
0.031612687 0.11897492 0.020903861 0.30344403 -0.11500855 -0.206648 0.20773491 -0.030003699
-0.21635816 -0.095964976 0.22466484 -0.09198593 -0.17934509 0.20131485 -0.16521871 -0.1495931
-0.121089995 -0.10284976 0.05931336 0.3287353 0.26468518 0.025359627 -3.5978917e-32 -0.10753174
1.967231e-14 -0.42265996 0.16407926 0.06833304 0.12921095 0.052055344 -0.03087931 0.3472379
0.27406943 -0.16022097 0.06318958 0.13591473 -0.16089673 0.08489473 0.012455891 -0.05409878
-0.18617526 0.43570763 3.9230836e-12 0.037233587 0.1880909 -0.10264684 0.14796811 -7.0389046e-22
0.17328471 0.08420162 0.18672602 0.032140285 0.01703165 0.2439291 0.09867278 0.041440487
0.26717636 -0.19766755 0.13379236 0.13457467 0.13047284 -0.0996046 0.16907631 0.08327094
-0.23724404 -0.07527384 -0.1336483 0.22389844 -0.23809515 0.25126752 0.32729882 0.052988894
-2.7898328e-37 0.17406331 -1.9888687e-31 -0.049230605 -0.05344571 0.2517467 0.04631544 0.19181511
0.001340802 0.114544205 -0.059433974 0.12142578 -0.05517872 0.22130744 0.07041076 0.04160754
-0.18642841 -0.27924034 -0.05661261 0.010125949 -7.356736e-38 0.036039483 -0.05524314 -0.084268205
-0.08775236 -7.782588e-24 0.12997189 -0.24316098 0.20538338 -0.0144774355 0.0044629998 -0.06747331
-0.1249558 0.14962006 0.052577518 0.24290894 0.24065927 -0.058570642 0.16352682 -0.17797253
0.021908052 0.20443761 0.0678744 0.44439 0.2871033 -0.035278644 0.18875924 -0.12667665
-0.037782066 -0.12238925 5.546351e-21 0.07264002 -2.256768e-27 0.045056805 -0.1960716 -0.19864467
0.17634577 -0.2160651 0.056387834 -0.02938348 0.15585831 0.31748447 -0.35024315 0.015011114
0.2209828 -0.03593288 -0.18041775 0.11103659 0.23460235 -0.38011965 -3.81341e-09 0.37547186
0.2578682 -0.045987383 -0.04260488 -2.2586386e-11 0.1559368 0.23721491 -0.037259765 0.0855557
-0.028772721 -0.18385789 0.08304915 0.3044943 0.4118382 -0.047441445 0.04339562 0.06636615
-0.07496483 -0.026692798 0.022208666 -0.13760915 0.15799594 0.26174808 -0.1319925 0.073195085
-0.12899928 0.09071542 0.053641945 0.104128905 3.130898e-14 -0.22397345 -1.4977157e-36 -0.10347123
-0.02344874 -0.030951295 0.24988484 0.15331694 0.09258099 0.04789909 -0.117689185 0.1684612
0.33378825 0.03649054 0.2460557 0.7783131 0.10473891 0.17836805 0.23650932 0.36711466
1.7895493e-08 0.058140665 -0.023143835 0.066253774 0.3103423 2.4089273e-25 -0.09428109 0.1475248
-0.17037497 0.067418315 0.017284425 -0.00011197621 0.009628309 -0.018919468 0.18061982 0.2241598
-0.30612266 -0.13862278 -0.09428047 0.1829017 0.1059195 0.1782285 -0.009234995 -0.1255944
-0.12751064 0.107996374 -0.010248367 -0.057702333 0.19226626 -0.21823041 2.6555359e-20 -0.21672866
-1.635772e-36 -0.08774689 0.25751945 0.41836655 -0.114105076 0.19082409 -0.060112506 0.25880265
-0.2064431 -0.07744522 0.36226603 -0.048131928 0.21980728 0.017695175 -0.07425375 0.08880173
0.10984325 0.33081335 3.3677512e-08 0.32703415 -0.06653035 -0.098941386 0.0033973085 2.9161267e-22

net.4.bias f4 [50]
00000000: 90c5 803c 85e5 dd3b 93f8 5d3d 9c83 2d3d
00000010: df54 603c 764e 85bc f1db 483a 6a57 c63b
00000020: 40fd 9f3c eda4 c33c 04cf 863d c763 d53b
00000030: 0b60 1dbd 0fa0 1fbd 5637 5a3d 24e7 923d
00000040: cc26 fb3c ced3 d23c f60e c4bb e76a 683d
00000050: 7b2a ae3c 2f4e c8bc 5b16 5e3d b8a3 3dbd
00000060: ba49 6f3d a978 3f3d f03c 663c 0dd9 2d3b
00000070: c53f 453d efd9 2b3d 9b15 b73c 33b4 113d
00000080: e49d 10bd 08c2 0f3d cb9a ff3b cd82 56bc
00000090: 2df2 6bbc a6bc 6fbc 1f27 813d e0e9 4b3d
000000a0: ab88 b33c 50be 00bd 9c33 823d b708 ad3c
000000b0: 3bd5 803c 959f 6e3c e5ba 3cbc acaf 353c
000000c0: 664a 163d 815e aebc
0.015719205 0.0067717456 0.054192137 0.04236184 0.01369211 -0.016272765 0.00076621684 0.006052901
0.019529939 0.023882354 0.06582454 0.0065121385 -0.03842167 -0.038971003 0.05327543 0.07172993
0.030658148 0.025735762 -0.005983229 0.056742575 0.02126049 -0.024451343 0.05422054 -0.046298712
0.05841992 0.04674593 0.014052615 0.0026527077 0.04815652 0.041955885 0.02234917 0.035572242
-0.035306826 0.035097152 0.007800435 -0.013092709 -0.014401001 -0.01463238 0.0630629 0.049783587
0.021915754 -0.031431496 0.063575 0.02112232 0.015726676 0.0145644145 -0.0115191685 0.011089247
0.036692046 -0.021285297

net.6.weight f4 [50, 50]
00000000: 3da4 c6bd cf8b 5b3e 220b 073e 213a c5bd
00000010: ba30 9b3e 5974 c63d d3da 41be 082e ab3d
00000020: 0248 393d 1dad d8bc 98af 92be 28a5 0bbe
00000030: efa3 7dbe 7c67 66bd 284a 70be de49 a1be
00000040: cf11 b03d b0ad 0dbe f46e 05be edc7 e93d
00000050: 6e4a 72be d392 03bd 7ad1 ffbd b4b5 4e3d
00000060: 5403 3dbe 1748 0bbc c777 7b3e d074 0f3d
00000070: cbef d3bd a87d e0be 37fd 593e 450d 8c3d
00000080: 41c6 b83e e85a 2c3e 3974 42be 3eae 9a3e
00000090: f83f bc3d 5e5e 123c 7b15 efbb 6177 34be
000000a0: d937 993e 46fd 7a3e 1eea b13c 5bf6 0e3e
000000b0: 9c80 273c 87b7 4abd 8027 cc3c 89d8 75be
000000c0: dca1 ba3d 8dae 05be 60f6 5dbc f6ab 97ba
000000d0: 1802 703e 8862 8fbd fb67 27be 39c0 d6bc
000000e0: 64d9 01be 5cc1 cebc e7d3 9c3d 8315 663d
000000f0: 2b3e e83d e356 e53d a5f9 45be 4be4 06bc
00000100: d675 94bc 6bd2 283e 1de1 b9bd c235 233c
00000110: 370e 28bd 6838 903d 5f5b 823e e329 7d3d
00000120: dbe9 723e 6506 193e c1b6 453e 3e96 3fbd
00000130: a5d9 94be 55c1 71be c2c4 963e 51af 873e
00000140: 9830 06be dedc 623c a3a3 96bd 7ab0 433e
00000150: 863f 28be 23dc da3a 5b7d 5d3d 86d2 87b9
00000160: 96b9 e7bd cbc2 7e3d dcb8 3cbe 68f2 bf3d
00000170: 7502 963d 379d 2a3e e8f6 87bc 586a d63e
00000180: c2bf 54be 44b5 223e 7d40 8b3e c4e7 813e
00000190: 35fa b00f b239 4e83 a26f 9902 0f84 89ac
000001a0: 7db2 3013 1cd5 fb13 63d2 43ad ca0e cd82
000001b0: 66c8 b482 002e 501c efea b504 ca72 372d
000001c0: df98 5702 aef1 0e82 b632 5c83 b73b 2f08
000001d0: 4303 0009 c1d9 01a2 836a 0aaa 21c0 7ead
000001e0: 4aa5 c99e 8cc8 de11 c5b5 f7a8 d62b 5708
000001f0: 76b7 0d9f 10f7 4203 48b1 31ad a14f 3f17
00000200: 1bbc 0498 6e90 2089 a2c7 bb03 0ee5 0903
00000210: 166a 5a0f d0a7 3f91 5cb7 dc89 5660 f382
00000220: 245f 5c01 7759 6d92 56ac ed26 b816 7696
00000230: 4761 9282 755d dea0 118e 0c1f e727 1083
00000240: 0850 229d 4067 b715 28c0 c701 50b1 e4ac
00000250: 2303 998a ad32 362b 5931 2fbe 0f6b 5abd
00000260: 26bd 49be e209 3c3e 1ae9 e0bd 41a2 42bd
00000270: c14a 98bd 30a7 8ebd 485e a0bd 5ce9 5b3e
00000280: 8f3f 42bd 6e98 1ebe ba03 01be 011d 3f3e
00000290: 217a 873e 30c4 a33d 80d8 883e 734d 4ebd
000002a0: ed52 043d 78ae fe3d 6645 193e 8974 413e
000002b0: 1643 8d3d eff2 fb3b 4b8f 5f3e 5217 48be
000002c0: 314b 72be 7fb3 4fbe ae6a 0b3e a40a 7fbd
000002d0: 733b 583e 1a57 0cbe 30dd 8b3d 868c 5f3d
000002e0: e6a5 c83d 2ce0 22bd de03 36bd b22e b2be
000002f0: 0bc1 073e c0f2 513e 981c 35be b148 be3d
00000300: 5bc9 a93e 1df3 3fbe 71db 0d3e af6e bd3d
00000310: 5ff2 7cbe 311a 40be 1aa4 2abd 2a50 35be
00000320: 53d5 903e 0ddd 68bc 16fc babd 049f 6c3e
00000330: 4955 0e3e 8dff ebbd 8db9 06be b28c f63d
00000340: 03f6 953e 7ac1 c93d 2ff2 fabc da78 933d
00000350: a2f8 2ebe 0def 00be dad8 de3d 0372 9cbe
00000360: 77a5 0f3e 4ac4 443d b171 3d3e a241 48be
00000370: c42e 9abd 407f 11be 4b83 443e 18b7 05be
00000380: a081 19be 1c14 acba 2583 273e f523 943e
00000390: da61 82be 93fe 98be 129a 93bd 1e18 183e
000003a0: 9040 253d fe5e 13be e252 c1bd e54c 003f
000003b0: 39b6 983d a613 193d cbc0 633e 6166 8c3e
000003c0: e6d2 62bd 0548 1ebe 2139 023e be6b f2bd
000003d0: 1087 7c3e 8be7 2dbd e08e 4dbd 8132 c4bd
000003e0: d241 3ebe 354f 14be 2bf3 86be f005 1e3d
000003f0: 17bd efba 3027 433e 6071 59bd aa55 90be
-0.09699295 0.21440051 0.1318784 -0.09630228 0.30310613 0.0969016 -0.18931131 0.08358389
0.045234688 -0.026449734 -0.28649592 -0.13637221 -0.24769567 -0.056251034 -0.23465788 -0.3150167
0.08597147 -0.13835788 -0.13030607 0.11415086 -0.23661205 -0.032122444 -0.12491126 0.050466254
-0.18458301 -0.008501074 0.2455741 0.03502351 -0.10348471 -0.43845868 0.21288 0.068384685
0.36088756 0.16831553 -0.18989648 0.3021106 0.091918886 0.008933632 -0.007296262 -0.17623664
0.2992542 0.24510679 0.021718081 0.13961165 0.010223534 -0.04949143 0.024921179 -0.24008383
0.091129035 -0.13054867 -0.01354751 -0.0011571634 0.23438299 -0.07001215 -0.16348259 -0.026214706
-0.12680584 -0.025238685 0.07657605 0.05617286 0.113399826 0.11198213 -0.19333513 -0.00823314
-0.018122595 0.16486518 -0.0907614 0.009961547 -0.04102918 0.07042009 0.25460336 0.061807524
0.23722021 0.14943846 0.19307996 -0.04677414 -0.290723 -0.23608907 0.2944699 0.26500943
-0.13104475 0.013846604 -0.0735543 0.19110289 -0.16430482 0.0016697686 0.054074626 -0.0002590606
-0.113146946 0.062197488 -0.18429893 0.09372407 0.073246874 0.16661535 -0.016597226 0.4187801
-0.20776275 0.1588946 0.27197638 0.25372136 1.7451316e-29 -6.060419e-37 2.2545404e-37 -3.9084356e-12
2.2302325e-27 6.357145e-27 -1.1131182e-11 -3.0130531e-37 -2.6563646e-37 6.888088e-22 4.2768648e-36 1.0427834e-11
1.5839577e-37 -1.0501871e-37 -6.4710403e-37 5.273234e-34 1.5408973e-33 -1.7598038e-18 -1.2293816e-13 -1.448089e-11
-2.1350065e-20 3.514902e-28 -2.7501339e-14 6.475074e-34 -3.0009667e-20 5.729509e-37 -1.01006495e-11 6.1815934e-25
-1.715557e-24 -1.932721e-33 1.1036706e-36 4.0523623e-37 1.0768661e-29 -1.5118955e-28 -5.3135504e-33 -3.5760935e-37
4.0475878e-38 -7.489429e-28 1.649189e-15 -1.987889e-25 -2.1508606e-37 -3.7670108e-19 2.9763668e-20 -4.2363602e-37
-2.1481897e-21 7.407601e-26 7.3376786e-38 -6.4998354e-12 -1.4734544e-32 6.4729716e-13 -0.17108668 -0.053324755
-0.1970106 0.18363145 -0.109819606 -0.04751802 -0.07436133 -0.06965482 -0.07830483 0.21475738
-0.047423895 -0.15487835 -0.12599078 0.18663408 0.26460364 0.07996404 0.26727676 -0.05036683
0.032305647 0.12435621 0.1496788 0.18892111 0.06897561 0.007688872 0.21832006 -0.19540146
-0.23661496 -0.20283316 0.13614914 -0.062266007 0.21116428 -0.13705102 0.068292975 0.054577373
0.097972676 -0.03976457 -0.04443728 -0.3480125 0.13257234 0.20502758 -0.17686689 0.092912085
0.33161435 -0.18745084 0.13853242 0.09249627 -0.24701832 -0.18759991 -0.041660406 -0.17706361
0.28287753 -0.014212859 -0.09130113 0.23107535 0.13899721 -0.11523352 -0.1315672 0.12038554
0.29289255 0.09851356 -0.03063306 0.07200785 -0.17087033 -0.1259119 0.10881205 -0.30555734
0.14027964 0.04803876 0.18500401 -0.19556287 -0.07528451 -0.14208698 0.1919071 -0.13058126
-0.14990854 -0.0013128552 0.16358621 0.28933683 -0.2546528 -0.29881725 -0.07207121 0.1485295
0.040344775 -0.14391705 -0.09439637 0.5011733 0.07456631 0.037372254 0.22241513 0.2742186
-0.05537691 -0.15457161 0.12717105 -0.118369564 0.24660897 -0.042457145 -0.050185084 -0.09579945
-0.18579796 -0.1448334 -0.26357397 0.03857988 -0.0018290606 0.19057918 -0.05308664 -0.28190356

net.6.bias f4 [50]
00000000: 97b0 dfbb 9ee6 c53c 4269 eb82 8422 d53c
00000010: d4e9 323d 9792 073d b31e 543d 1f08 9cbc
00000020: bdd5 963d 5b8f e83a 4269 eb82 359f 3a3d
00000030: c29f 153d 26e0 063d c7c5 5c3d a3f2 37bc
00000040: 58f9 873b 1db1 203c 6a11 2e3d 2469 143d
00000050: cf22 863c 8c8c 303d f5a6 5a3d f040 533d
00000060: 0c24 cd3d 00c8 2e3d e1e1 32bb 0d44 a93c
00000070: b727 903c 1806 543a cf3f a2bb 6b24 4d3d
00000080: 7f07 cdbb 2bbb 64bc 15ed 4b3d 40b6 283c
00000090: d218 843b b40a 0a16 4269 eb82 3632 513b
000000a0: 1786 80bc 4269 eb82 0595 183d ebc9 92bc
000000b0: 42a3 d23c ccc0 bc3c 0648 533d d75a 773d
000000c0: 6c93 0ebc 11f2 0f3d
-0.006826471 0.024157818 -3.4590562e-37 0.026017435 0.043680027 0.033098783 0.05178709 -0.019046841
0.07364986 0.0017742919 -3.4590562e-37 0.045561988 0.03652931 0.03292861 0.053899553 -0.011227283
0.004149597 0.009807852 0.042497076 0.036233082 0.01637402 0.043102786 0.05338188 0.0515756
0.10016641 0.042671204 -0.002729528 0.020662332 0.017597063 0.0008088066 -0.0049514542 0.05008356
-0.006256997 -0.01396064 0.049786646 0.010297358 0.004031279 1.1150929e-25 -3.4590562e-37 0.0031920797
-0.015688939 -3.4590562e-37 0.03725149 -0.017918548 0.025712613 0.023041151 0.05158236 0.060389366
-0.00870214 0.035142962

net.8.weight f4 [50, 50]
00000000: 499f 2c3d 775c 10be c492 ef96 a4b6 9ebd
00000010: 91f3 4d3d b946 42be a92e 683d ca4d 32be
00000020: 4dcd edbc ac9a 5723 701f 8f2b 9f4e db3d
00000030: 32c9 a13c 671d 63be f4f1 cb3c c04b 33be
00000040: d6da e4ab 7b69 933b 3278 c7bd fa8d 053e
00000050: 3dd3 c3bd 1f7e 973d 061a 84bc ac83 d6ba
00000060: 3e7c 19be f0c6 c33d 3f4b 513e abc5 8d2d
00000070: c8f1 3b3d 4853 f33d 6e42 be36 fb62 353e
00000080: bdc4 ef9a ec8b b2bb ff9c 683c 3dc4 24b6
00000090: 702c 8ebd 6918 5008 8b01 dd9a b540 d5bd
000000a0: bec8 12be 1af5 6c24 a13b 3fb9 a7cb 7a08
000000b0: 63a2 5cbd c36c 95bd bd56 17bd 3856 b43d
000000c0: 4424 1c3e d3cf 393d 88ce 103e 5e05 2cbe
000000d0: 2e6c 0bad 678c 39bd e9ec 04be ff9d 3dbe
000000e0: c326 77bd 3c56 563e 30dc 8a3e acc1 7b3d
000000f0: a042 1486 0bf7 13bd 306d 013e 1e3d ec3d
00000100: 42d8 153c b4b0 543d b8d6 8fbd 7adb 98bc
00000110: 88e0 70be f3ca 503d 46ed 0d3d 55b1 8abe
00000120: bc0a 8abe e006 7e3e 3b58 8c3c a3eb b23d
00000130: 0134 b13a 7fd8 bf3e 166e b23e cb7c 5a3e
00000140: 5cfb 17be d379 a8bb 719f 388a d4bf 833e
00000150: 78b3 16be bbfc 903e edc9 9d3e dbee 5091
00000160: d8e1 9782 6247 32bd d054 96bc b436 9ea7
00000170: 7fa9 223e 796c 1183 cdfe d5bd d901 693d
00000180: beed 3abe 9e88 b43d da7a b13d 471c b0bb
00000190: 8193 5dbe 64e2 b5bd f9db 3592 a010 ccbd
000001a0: 8f34 3dbe 387d a33d fedc 443d 4103 163e
000001b0: 557c d0bd f77c 5c02 9775 2203 e211 cabd
000001c0: 102c 34bc 6c64 1fbd f4e1 9e3d 4224 a0bd
000001d0: cf2c 1b03 4046 11be 37a6 df3d af55 d5bd
000001e0: e1b4 34be 7c63 a13d df41 10ba 8c9a 50bd
000001f0: 7163 5bbe c277 71be 7e96 3d3e dded eebc
00000200: 5845 10be e782 a93d 0d5d 7cbb 62c6 e33d
00000210: fac5 f42c 9143 d73c 2bcc 1d3e b2a4 fc3a
00000220: 066b 343e f5a5 6d98 0717 20ac 8421 d2bd
00000230: 74f4 3fbe 119d 1884 7a9e f70b 7369 46b6
00000240: 8d3c d7bd 15a1 cd0e 4458 123e 23af 143e
00000250: f9f9 f33d 10d2 37be 2b17 478a 904f a007
00000260: 84af 2580 5ee0 1803 71a9 8e27 af0f 9882
00000270: 1c2a 04a1 f4a4 2ea1 9097 2a03 857b f482
00000280: bc4f 2881 cf2a 83aa dc9c cca2 d83c f41b
00000290: 8002 f484 8132 b9ac bb16 1602 774c 350a
000002a0: 90a9 638c df04 8727 3692 66ac 9622 d215
000002b0: bf35 f086 319a 37ae aede bf83 f03c 7f27
000002c0: c1a9 0f02 965a c301 6e0f 598b e481 9682
000002d0: 06a3 4288 b028 0b83 cb46 021f b099 2583
000002e0: c14d f78b 76b9 0112 4544 6c02 5cfa 8c84
000002f0: 6153 33ac fa0b a52c a220 c186 e776 3383
00000300: bf53 ae2a b48a 322b b782 2524 4293 3203
00000310: 56d6 8490 64bc 1f03 e0f1 9d28 4484 b302
00000320: 2a48 df86 8ac5 61ad e882 bb8a daf8 db02
00000330: ab17 331d 8332 b703 0e69 3f95 967f 6104
00000340: 53b4 fb1e dde3 9907 feb9 3c2a 57fe a5a7
00000350: 259d 4703 856a 2283 003d c619 32a2 7e26
00000360: 46ba 9582 fbb2 17a0 059a 0f83 48bd 3082
00000370: 0616 ce01 9a12 258e 40ed 2583 ace8 9110
00000380: 1b51 2d98 ac0b 0aa4 1eae 6588 41de 8a9b
00000390: e9d6 a0ac bd7b 0d28 e2d0 8c18 b5cd 3592
000003a0: f0b6 c082 9d1f 5a8c 75ee aa9d 3c12 c981
000003b0: 911f ea9e c3e5 0883 f699 6803 633a 94ab
000003c0: 22a4 e41a e6b3 3b14 a388 bd2a 7af9 23a6
000003d0: c4e1 148f c6be 8282 1872 7eac c1af 2e08
000003e0: 7877 6c03 41f3 4983 c9ef 45be f4a2 123b
000003f0: 3f56 2883 661d 473e e04b 61be 165b eebd
0.042144094 -0.14097773 -3.8705155e-25 -0.0774968 0.05028111 -0.18972291 0.056685124 -0.17412487
-0.02902856 1.1687926e-17 1.0169487e-12 0.10708355 0.019749258 -0.22179185 0.024895646 -0.17509365
-1.6261114e-12 0.0044986582 -0.09739722 0.13042441 -0.09561775 0.073971026 -0.01612569 -0.0016366146
-0.14988801 0.09559429 0.2043886 1.6117626e-11 0.045884877 0.11881119 5.6701747e-06 0.1771354
-9.916593e-23 -0.005448809 0.014197587 -2.455213e-06 -0.069420695 6.2621417e-34 -9.140595e-23 -0.104127325
-0.1433439 5.138195e-17 -0.00018237393 7.547103e-34 -0.0538658 -0.07296135 -0.036947954 0.088055074
0.15248209 0.045364212 0.14141285 -0.16798922 -7.925256e-12 -0.045299914 -0.12980999 -0.18517302
-0.0603397 0.20931333 0.27121115 0.061463997 -2.7884655e-35 -0.03612427 0.12639308 0.11535095
0.009145798 0.05192633 -0.07023376 -0.018659342 -0.23523152 0.050974797 0.03465011 -0.2708842
-0.26961315 0.2480731 0.017131915 0.087363504 0.0013519527 0.3746986 0.34849614 0.21336667
-0.1484198 -0.0051414757 -8.889265e-33 0.2573229 -0.147169 0.28317818 0.3081812 -1.648191e-28
-2.2317084e-37 -0.043525107 -0.018350989 -4.391312e-15 0.1588497 -4.273619e-37 -0.1044899 0.056886528
-0.18254754 0.0881512 0.0866601 -0.0053744647 -0.216383 -0.08881071 -5.7384667e-28 -0.099641085
-0.18477081 0.07982868 0.048062317 0.14649679 -0.101799645 1.619891e-37 4.7742508e-37 -0.09866692
-0.010996833 -0.03891413 0.07757941 -0.07819416 4.5601844e-37 -0.14186954 0.10920375 -0.104167335
-0.17647125 0.07880303 -0.00055029796 -0.050928637 -0.21424653 -0.2358084 0.1851444 -0.029166156
-0.14088953 0.08276921 -0.003850761 0.11121823 6.956877e-12 0.026277335 0.15409915 0.0019275157
0.17618951 -3.0715319e-24 -2.275015e-12 -0.10260299 -0.18745595 -1.7939635e-36 9.537939e-32 -2.9565679e-06
-0.10509596 5.0691518e-30 0.14291483 0.14519934 0.11912913 -0.17951226 -9.585859e-33 2.4120887e-34
-3.460877e-39 4.4926346e-37 3.9596626e-15 -2.2343395e-37 -4.477907e-19 -5.9171807e-19 5.0132495e-37 -3.5923474e-37
-3.0913933e-38 -2.329998e-13 -5.5460392e-18 4.0405733e-22 -5.736642e-36 -5.2636233e-12 1.1026783e-37 8.7292144e-33
-1.753847e-31 3.747531e-15 -3.276613e-12 8.487289e-26 -9.035694e-35 -4.1746332e-11 -1.1277096e-36 3.5421393e-15
1.0554698e-37 7.176167e-38 -4.1804288e-32 -2.2115073e-37 -5.8571385e-34 -4.0895136e-37 2.758713e-20 -4.8665567e-37
-9.525793e-32 4.093382e-28 1.7358134e-37 -3.314376e-36 -2.5483715e-12 4.6909117e-12 -7.264648e-35 -5.2739865e-37
3.096672e-13 6.3430793e-13 3.588939e-17 5.2478542e-37 -5.2395057e-29 4.6942162e-37 1.7535398e-14 2.6377603e-37
-8.398931e-35 -1.2833632e-11 -1.8056686e-32 3.2321992e-37 2.3702689e-21 1.076737e-36 -3.8655016e-26 2.6507207e-36
2.6650239e-20 2.3154807e-34 1.6762283e-13 -4.6072456e-15 5.8661237e-37 -4.77298e-37 2.0497358e-23 8.834377e-16
-2.2000498e-37 -1.2849417e-19 -4.220073e-37 -1.2984759e-37 7.570405e-38 -2.0346777e-30 -4.876149e-37 5.7550903e-29
-2.2400674e-24 -2.9933866e-17 -6.9116855e-34 -2.2973813e-22 -4.5713333e-12 7.853904e-15 3.640007e-24 -5.7367083e-28
-2.8316865e-37 -1.6803622e-31 -4.5245184e-21 -7.3861904e-38 -2.478877e-20 -4.023056e-37 6.835541e-37 -1.0532238e-12
9.456376e-23 9.476566e-27 3.3667955e-13 -5.689009e-16 -7.340444e-30 -1.9211282e-37 -3.6158906e-12 5.256782e-34
6.949131e-37 -5.9347833e-37 -0.19329752 0.002237496 -4.946977e-37 0.19444808 -0.220016 -0.11638467

net.8.bias f4 [50]
00000000: 96fe b5bb dea5 2d3d ca39 92bb 21af ee03
00000010: 4269 eb82 f607 c1bb 0999 ac3c fef9 3e3d
00000020: 69ff 833c 6ca1 f73c c50b 363c a8d3 ba3c
00000030: ad46 163d bc61 293d 6381 883c fcc5 3b3d
00000040: f543 b23c ed74 163c 5853 873b 99ec 913b
00000050: ed31 e93c 17f7 513d 4fef a03d 7eee 93bb
00000060: c760 bc3c eb28 033d 1ae2 ad3d b358 a0bb
00000070: b4bd a63d 30be 163d 9640 1d3d 52e6 4d3d
00000080: abc4 3f3d 0591 b43c 74bc 403d 2596 0a3c
00000090: d602 30bc a765 7b3c a0ce 193b 35d5 003d
000000a0: 83e7 213d 66ef 0b3d ea5e 0b3d 6e62 1a3d
000000b0: bc9a 1abc 5a4d 20bc 9215 a6bb 8862 a23d
000000c0: 6cd6 e63c 4261 b9bc
-0.0055540306 0.04239451 -0.0044624554 1.402859e-36 -3.4590562e-37 -0.0058908416 0.021069067 0.04662513
0.016113 0.03022834 0.0111112045 0.022806004 0.036688495 0.041352972 0.016663259 0.04584311
0.02176092 0.009183151 0.0041298084 0.0044532535 0.02846619 0.051261034 0.078581445 -0.0045145145
0.022995366 0.032021444 0.08490391 -0.0048933863 0.08141652 0.03680247 0.038391672 0.05026848
0.046818417 0.022041807 0.047054723 0.008458649 -0.010742864 0.01534406 0.0023469105 0.03145333
0.039527427 0.034163855 0.034026064 0.037691526 -0.009436306 -0.009784067 -0.0050684894 0.079289496
0.028178416 -0.022629384

net.10.weight f4 [1, 50]
00000000: b2fb fabb 346f 63be 4e6a 6cbe f69e 02a8
00000010: 58ac 09ab 9065 aa3e 379e e23d eeb0 7e3e
00000020: b3f9 203e 159a ad3e 99b0 abbe 53c1 00bf
00000030: d5bd 733e 4673 dc3e 8d55 bc3e bd16 ed3e
00000040: 85ba bdbe c630 44be 25d6 28be bfd6 9abe
00000050: 07e3 7abe 1052 993e 850c 8b3e 0244 92bd
00000060: ffff eebe 3416 b9be f483 a23e a14d d9bd
00000070: 7bcb 653e 94b4 d2be 1b1e 41be c962 c83e
00000080: 3700 ca3e 2d7d bf3e 8b8c b43e ec25 503d
00000090: af04 d3bc 89ba 59be a219 b9bd 28e5 d7be
000000a0: 9b43 aa3e 59a1 8e3e 8268 d93e f796 8b3e
000000b0: c696 5e3e 3142 a6bd 9d95 f2bd f987 c93e
000000c0: ceb5 883e 70fb 41bb
-0.007659399 -0.2221039 -0.23087427 -7.250919e-15 -4.891135e-13 0.3328061 0.11065333 0.24872181
0.15720253 0.33906618 -0.3353317 -0.5029499 0.23802884 0.43056697 0.3678402 0.4630641
-0.37056366 -0.1915923 -0.1648794 -0.30241963 -0.24500667 0.2994542 0.2715799 -0.07141878
-0.46679685 -0.36149752 0.31741297 -0.1061051 0.22440903 -0.41153395 -0.1885914 0.39137867
0.3945329 0.3740019 0.35263476 0.050817415 -0.02575907 -0.21262564 -0.09038092 -0.4216702
0.33254704 0.27857473 0.42462546 0.27263615 0.21737203 -0.08118094 -0.11844943 0.3936155
0.26701206 -0.0029599331
