data/models/heart_attack/heart_attack_200x3.pth (torch, 337319 bytes, 7 tensors)

net.0.weight f4 [200, 13]
000000 53 7f 15 be 58 2b ef 3d 67 42 33 be 30 25 4d 3e
       -0.14599352 0.11678189 -0.17505799 0.20033717
000010 06 22 f8 bd 9b 84 25 3e cd e8 2c be 73 35 9b 3d
       -0.121158645 0.16163866 -0.16885681 0.07578554
000020 76 24 f9 3d 13 e0 16 3e 09 8a 07 3e 11 5c d7 3d
       0.121651575 0.14733915 0.1323625 0.10515607
000030 21 81 24 bd d7 85 39 3e 2e 53 b5 3c 6e a9 44 3b
       -0.04016221 0.18117462 0.02213439 0.0030008215
000040 bf 17 29 be b1 eb 20 be 8b d2 05 3d 5e e3 a2 bd
       -0.16512965 -0.15714909 0.032671493 -0.07953523
000050 4b 53 01 be a6 9f 63 3d 53 de e8 bd a9 90 0f bc
       -0.1262943 0.055572174 -0.1137053 -0.008762517
000060 a8 70 a3 3c b5 18 e4 3c 6b 00 30 be 1d 3a e0 3c
       0.01995118 0.027843812 -0.1718766 0.02737146
000070 1a 1a a8 3d 3a 7a 54 be 37 66 91 bd aa 85 e5 3d
       0.082081035 -0.2074975 -0.07099574 0.11207135
000080 b4 e8 ab bd 86 ea 18 3e 3d 1a ed 3d a9 6d bb bd
       -0.08393994 0.14933214 0.1157727 -0.091517754
000090 c8 cf 9c 3d e5 a1 0e 3e fc cf 7b 3c e4 0e 82 3a
       0.07656819 0.13928945 0.015369412 0.0009922651
0000a0 19 64 de 3d 47 9c 5d 3d 89 72 f2 bd f9 2c 74 be
       0.10858936 0.054104116 -0.11838252 -0.2384528
0000b0 c4 24 13 be 0d 5d 55 bd 94 78 7c be 17 d2 2a 3e
       -0.14369494 -0.052090693 -0.24655372 0.16681705
0000c0 1e ff 04 3d 45 6c 0a 3e 3a af 91 bd 45 67 b7 bd
       0.03246986 0.13517864 -0.071135 -0.08955244
0000d0 c3 41 24 be 4c 3d 7e 3d 1c 0e 0d be 3e bf 4e 3e
       -0.16040711 0.062070176 -0.13774914 0.2019014
0000e0 e6 b4 36 be 1b 7f 34 3d bf 77 8e 3d 6c 69 f8 3d
       -0.17842445 0.04406653 0.069564335 0.121294826
0000f0 43 bf b1 bd 75 11 80 bd 2e a6 9f 3d 8a 9d 89 bd
       -0.086790584 -0.0625333 0.07795368 -0.06719501
000100 22 fb 25 be 17 a6 e7 3d bc e7 00 3e 06 15 d9 bd
       -0.16209081 0.11310976 0.125884 -0.10599713
000110 c2 34 c2 3d 20 09 3d 3c 1e 58 ae 3d de f2 1a be
       0.09482719 0.01153782 0.08512901 -0.15131709
000120 70 c5 68 3d c9 f5 c1 3d b5 01 0d 3e 30 cc 5c bd
       0.056828916 0.09470708 0.13770182 -0.053905666
000130 45 f1 0f be bf 1b 34 bd f7 59 ad bd c9 05 00 bd
       -0.14056881 -0.043971773 -0.08464425 -0.031255517
000140 be 12 fd bd de f1 df bd de b4 a1 3d 3c 11 de bd
       -0.123570904 -0.109348044 0.07895826 -0.10843131
000150 bf db 34 3d 20 17 e1 3d bd 96 da bd 17 bb 43 be
       0.04415488 0.10990739 -0.10673282 -0.19114338
000160 b6 f0 85 3d af 4e 92 3d 91 97 e3 3d 2e 97 3e bd
       0.065400526 0.07143914 0.111128934 -0.046530895
000170 89 c1 70 bd 60 4c c9 bd 8d c3 47 3e c8 8b 7e 3e
       -0.05877832 -0.098290205 0.1950819 0.2485801
000180 74 c8 8a 3c c1 8a 8f 3d 38 ad cc 3d 45 e1 2e be
       0.016941287 0.07008887 0.09993976 -0.17078121
000190 03 7b ba 3d c9 3c 7b be 5c e7 11 be 52 64 02 bd
       0.09105494 -0.24534906 -0.14248413 -0.031833954
0001a0 2e 85 16 bd 51 bd 32 be 05 d9 3d bd e7 f0 50 3d
       -0.036748104 -0.17455031 -0.046349544 0.051010992
0001b0 91 bd 0f 3c 24 7e 07 3e fa bb 62 be 7f de 88 bd
       0.0087732235 0.13231713 -0.2214202 -0.06683063
0001c0 80 54 7a 3c f4 fa 1c be 09 9a ac 3b 23 d0 a7 be
       0.015278935 -0.15330106 0.005267386 -0.32775983
0001d0 79 a9 28 3e d5 2c f4 bd 34 28 a9 bd e4 b0 f8 3c
       0.16470899 -0.119226135 -0.08259621 0.030357786
0001e0 6d 52 a6 3d a2 87 2e be 85 8b 05 3d b9 ba c3 3d
       0.0812119 -0.17043927 0.03260376 0.09557099
0001f0 12 2d 67 bd 14 6b 46 bd 26 ad 98 bd 47 66 4d bd
       -0.056439467 -0.04844196 -0.074549004 -0.050146367
000200 07 a4 ee bd d4 92 7e 3d 35 c8 7e 3d 7a d9 74 be
       -0.116523795 0.062151745 0.06220265 -0.23911086
000210 6a 01 66 bd 15 27 29 bb 69 eb e6 3d 63 ec a2 3d
       -0.056153692 -0.0025810648 0.1127537 0.079552434
000220 d7 eb c7 3d 89 c9 3a be c8 d4 9d 3d 5d 9a 42 bd
       0.0976178 -0.18240942 0.077066004 -0.047510494
000230 4f e6 08 be b1 6c 23 3e 12 ea ac 3d b4 13 bb 3d
       -0.13369106 0.15959431 0.08443083 0.091346174
000240 7b f9 41 be 69 6a 79 3d bd 2d a4 3d c4 6c 2f 3e
       -0.18942825 0.060892496 0.080165364 0.17131335
000250 cb d4 23 bc 40 7f d0 3d 76 11 17 3d 25 42 a5 bd
       -0.009999464 0.10180521 0.036881886 -0.08069257
000260 03 ac 15 3d 03 46 1a be 80 c0 d4 bd 05 e6 63 bd
       0.036540996 -0.1506577 -0.10388279 -0.055639286
000270 e3 4a 02 3e 50 3e 63 bd 55 ff cb 3d e2 8d 1e bc
       0.1272388 -0.055479348 0.0996081 -0.009677382
000280 61 69 04 3e b2 5f b1 3a 53 da 6f be 76 fe 74 3d
       0.12930824 0.0013532548 -0.23423128 0.059812985
000290 87 5d 05 bd 35 79 6a bc bb 15 d0 3d bc 70 e8 3d
       -0.032559898 -0.014311125 0.10160395 0.113496274
0002a0 45 07 d7 bc 6e 24 25 3e 52 7a b5 3d ef d3 20 bd
       -0.026248584 0.16127178 0.088612214 -0.039264616
0002b0 1f 52 06 3d f2 30 26 be 1f 1a f2 bd e5 4e 19 bd
       0.03279316 -0.16229609 -0.118213885 -0.037428755
0002c0 18 2f 07 3e 33 23 8e bd ba de 59 3e c5 32 f5 bd
       0.13201559 -0.069403075 0.2127637 -0.11972574
0002d0 19 db c1 be a3 89 0c be e1 29 0d be f6 d2 4f bd
       -0.3786247 -0.13724379 -0.13785507 -0.050738297
0002e0 1e c6 2e 17 98 7c 0f be e0 d0 fb 3d 4e 3e 4b 1d
       5.647249e-25 -0.14012372 0.12295699 2.6899037e-21
0002f0 43 59 c5 3d dd 46 02 bd 47 f1 32 9a 93 4e e8 3d
       0.09636166 -0.03180586 -3.700444e-23 0.11343112
000300 69 eb 5b 83 55 73 d5 bc fa 6f 00 be 50 f7 23 3e
       -6.4628553e-37 -0.026055971 -0.12542716 0.16012311
000310 8d 12 35 3d 31 b3 2b be 09 e0 96 3d 8b a1 ce 3d
       0.044207145 -0.16767575 0.0736695 0.100894056
000320 97 5e 28 3e 73 67 84 be 4a df 82 3d 92 6c 17 be
       0.16442333 -0.25860175 0.06390245 -0.1478751
000330 35 0c f0 bd e1 24 e0 bd 56 d4 8e 3d 9b 54 80 3d
       -0.11721078 -0.10944534 0.069740936 0.06266137
000340 e2 1b 1a 3e e7 a0 09 be 1a 06 a3 bc 43 c9 29 3e
       0.15049699 -0.13440286 -0.01990037 0.16580682
000350 d8 12 e9 3a e2 16 5f 3d c4 9d 9f 3d 6c 93 83 bd
       0.0017782105 0.054465182 0.07793763 -0.06424603
000360 7f 30 00 bc 70 e3 83 3e d0 3f 17 be 94 4e 2e 3e
       -0.007824062 0.2575946 -0.14770436 0.17022163
000370 62 1c 3a 3e 85 50 68 bc dc 52 84 ba 16 b2 f3 bc
       0.1817489 -0.014179354 -0.0010095495 -0.029748004
000380 d1 73 fc bc f8 b6 c0 bc 88 b3 8b bb fc b4 e4 3a
       -0.030816944 -0.023524746 -0.004263345 0.0017448957
000390 ce 13 ae bc 7a 25 e8 3c 29 76 11 bd 7d 0f 81 bc
       -0.021249678 0.028338183 -0.035513077 -0.015754456
0003a0 35 77 77 bb 6c ff 22 bc bd 54 6c be 9b 3a f3 bd
       -0.0037760262 -0.009948593 -0.230792 -0.118764125
0003b0 03 f0 04 be 8e 98 85 3d 2a 7a e6 3d 63 49 82 bd
       -0.12982182 0.06523238 0.1125377 -0.06361654
0003c0 9c 02 1f 3e 95 75 e7 3d 4f 9d 1b bc 2d f8 16 3e
       0.15528339 0.11301724 -0.0094979545 0.14743109
0003d0 dc 5c de 3d bd 41 9a bc 7e b9 03 3e 80 39 06 bd
       0.10857555 -0.018830175 0.12863728 -0.03276968
0003e0 74 c2 d3 3a 3e 3e ea bd 23 32 fe 3b ca 78 28 3d
       0.0016155974 -0.11437653 0.0077574416 0.04113082
0003f0 71 2a 75 3d a7 a5 98 3d e7 ba 17 be f8 9d ed bd
       0.05985493 0.07453471 -0.14817391 -0.11602396

net.0.bias f4 [200]
000000 8f fc a1 bb cc 1a c6 bb 04 72 91 3c fb e3 19 3d
       -0.0049434374 -0.006045675 0.017754562 0.037570935
000010 29 69 fd 3c 2b ca ad bc 56 64 d6 bc 50 82 26 3d
       0.030933933 -0.021214565 -0.02617089 0.04065162
000020 a1 b7 05 3d ae b3 27 bb 74 db a4 bb 02 cc 64 3d
       0.032645825 -0.0025589275 -0.0050310437 0.05585862
000030 30 bd 09 bd 3c 9e 86 3d 97 5e d2 3a 12 d2 94 3b
       -0.03362769 0.065731496 0.0016049918 0.004541644
000040 2b 42 53 3c cb 53 3d bc a0 c0 c4 bc ad 92 38 3c
       0.012894194 -0.011555622 -0.024017632 0.011265439
000050 db 6f 44 bd e8 ed 21 b9 85 28 0c bd 8d b4 a0 bb
       -0.047958236 -0.00015442783 -0.03421833 -0.004904336
000060 c1 15 6b bc 94 ff 71 3b 5c da 19 bb 74 cf b5 bc
       -0.014348448 0.0036926018 -0.00234761 -0.022193648
000070 50 22 a1 bb bf 71 36 bc f5 e9 3a 3c c1 9c d5 bc
       -0.0049174204 -0.011135518 0.011408319 -0.026075723
000080 6f ff 41 3c 9b 3c 9d bb 60 67 20 3d dc 84 b4 3b
       0.011840685 -0.0047984845 0.039161086 0.005509002
000090 9a c6 2d bc db ea f2 3b 0b 70 d7 3c 21 f4 8e 3b
       -0.010606432 0.007413251 0.026298543 0.0043625985
0000a0 5a 13 c4 3c cb eb 22 3b 94 77 9c ba de 2c 33 bc
       0.023935009 0.0024859782 -0.0011937493 -0.01093599
0000b0 15 9e 35 3d 52 c2 95 bc 64 20 32 bd 4e e0 44 3c
       0.044340212 -0.018281136 -0.04348792 0.012016369
0000c0 72 2f a1 3c be 07 64 bb d6 4c da 39 64 b1 2f bc
       0.019675944 -0.0034794654 0.00041637447 -0.010723446
0000d0 f4 d7 2a 3c da d4 6a 3b 7e b4 77 bb 74 5f 41 3d
       0.010427464 0.0035832436 -0.003779679 0.04721017
0000e0 3f af 09 bc e8 84 b7 3c 2d 9d 43 bc 22 80 b1 bc
       -0.008403598 0.022402242 -0.011939329 -0.021667544
0000f0 cd 8e 4a bc 27 65 00 3d 07 c3 3d bd 8c 2a 32 3c
       -0.012363148 0.031346466 -0.04632857 0.010874402
000100 68 02 0c bc ac f9 85 3b 3c 49 4e 3c 1a 49 aa 3b
       -0.008545496 0.004088601 0.012590703 0.0051967027
000110 1f 60 62 3b 19 eb 9e 3b fc 5b 84 3c 4d 6e d5 3c
       0.0034542156 0.004849803 0.016157143 0.026053572
000120 ed 04 5b bc 34 37 01 3a 70 40 2b 3d 89 46 fb bc
       -0.013367874 0.00049291854 0.0418095 -0.030673282
000130 31 be 25 3d 5c ff 06 3d 85 c1 09 bc 68 b8 91 3b
       0.040464584 0.032958373 -0.008407955 0.0044470318
000140 ca 42 00 3d 5c f9 a6 3c 26 c8 0e 3d e6 da 34 3c
       0.031313695 0.020382576 0.034858845 0.011038518
000150 73 5e d9 3c cb 23 f2 bc 76 ce d3 bc 0c a4 20 3c
       0.026534295 -0.029558083 -0.025855284 0.009804737
000160 59 13 25 39 76 3b 3e 3c 9d 2e 2f bc 9a ca 64 3c
       0.00015742834 0.011610856 -0.010692266 0.01396432
000170 b6 86 c5 3b 56 72 97 3c 12 39 d7 bc 47 e6 40 ba
       0.0060280217 0.018487137 -0.02627233 -0.0007358533
000180 ca 9c 1e 3c 4d dc 10 bc 20 d9 91 3a 25 2c b0 3b
       0.009680936 -0.008841586 0.001112733 0.005376356
000190 8e b2 3b 3c a2 8e 75 3c e6 19 f5 b9 c7 34 05 3d
       0.011456145 0.01498762 -0.00046749337 0.032521036
0001a0 52 2f f2 3a f4 7a 05 3d 05 7f 14 3c af 4a 5a 3c
       0.0018477237 0.03258796 0.009063487 0.01332347
0001b0 18 a2 8a 3c 9e 99 8f bb 4c 54 cc bc e1 8d 58 bc
       0.016922995 -0.0043823263 -0.02494254 -0.01321742
0001c0 75 57 58 bc fd 29 ca 3c 01 9a d8 3c fe 50 d2 bc
       -0.013204445 0.024678225 0.026440622 -0.025673386
0001d0 7b 2e 23 3d 94 d2 24 3d bf fb 17 3c 43 e3 38 3c
       0.03983925 0.040239885 0.00927633 0.011284652
0001e0 fe 21 f0 bb 80 eb c1 3b e8 0e 3c 3a 4d b8 6a 3b
       -0.007328271 0.0059179664 0.0007173852 0.0035815418
0001f0 de 6b b0 bc e8 73 0d 3d e0 10 b8 bc c3 7b e3 bb
       -0.02153581 0.034534365 -0.022468984 -0.006942244
000200 49 66 0e 3d b0 06 17 bc 59 87 31 3b a8 ea 05 bd
       0.034765515 -0.009217903 0.002708873 -0.03269449
000210 0b 32 22 bb ca 60 68 3d 7b 28 73 3c f4 3a a3 bc
       -0.0024749066 0.05673293 0.014841194 -0.019925572
000220 1c d7 2c 3c 11 c0 c0 3c d6 0b f4 3b 80 1d 80 3c
       0.010549333 0.023529084 0.0074477 0.015639067
000230 57 6b 4a 3d d7 b7 a6 3c 9f a7 d6 3c b5 eb a1 bc
       0.049418774 0.020351334 0.026202975 -0.019765714
000240 81 4a e5 3c 8f a7 a8 3c 6d 3f 4b 3c 6e 35 50 bb
       0.027989628 0.02058771 0.012405259 -0.0031770128
000250 48 71 43 bd 6a 74 97 3a 4f 0e 9e 3c 79 80 b5 3c
       -0.047715455 0.001155508 0.019293932 0.022155987
000260 7e 0a 31 3c f8 1b 5a bd 21 59 7d 3c 88 4d d4 bc
       0.010805724 -0.05324933 0.0154631445 -0.025915876
000270 a1 94 a9 bc df 95 b1 bc 5d 54 9c bc de 5e 53 3a
       -0.020700755 -0.02167791 -0.019083196 0.00080631475
000280 ed ac 3b 3c 46 a1 f4 3c 6a 06 85 bb a8 ac 53 bb
       0.011454803 0.029862057 -0.0040596025 -0.0032298956
000290 5a e8 6e 3c 67 e4 fc bb 41 7e 2e bb 09 51 c2 bb
       0.014581764 -0.0077176574 -0.0026625546 -0.0059300703
0002a0 f6 b2 14 ba 67 56 df 3c 6b d9 48 3c d3 29 d4 bc
       -0.0005672419 0.02726288 0.012258868 -0.02589885
0002b0 50 8a 02 3d 0a 69 45 3d 4f 2e 00 bc 31 ee 99 bc
       0.031870186 0.048195876 -0.007823541 -0.018790336
0002c0 08 f0 47 bc da aa f5 bb 90 0d f9 3b 51 e5 b1 3c
       -0.012203224 -0.0074971737 0.0076004937 0.021715792
0002d0 2a 00 2e bd 7b ab 91 bc 4d f6 b6 3b 6e 97 8b bb
       -0.042480625 -0.017781964 0.0055835606 -0.004259995
0002e0 0d 0d 78 3c 6c ad de bb 4c 99 99 bc 53 8a e6 3b
       0.01513983 -0.006795576 -0.018749855 0.0070355325
0002f0 2d c4 44 3c be d6 db bc 03 a1 0a 3c 7e c7 c6 3b
       0.012009663 -0.026835795 0.00846124 0.006066262
000300 47 eb 3c bb 32 9c a1 3c 9b f2 3f bc d4 ad ea bb
       -0.002882676 0.0197278 -0.0117155565 -0.007161835
000310 d5 c7 b7 bc 50 c0 ec 3c 9c 18 be bc 0f 3d 4e ba
       -0.022434155 0.028900295 -0.023205094 -0.0007867375

net.2.weight f4 [200, 200]
000000 bf 1b 00 3e f4 8e 9f bd 02 93 9e bd 19 85 af bd
       0.12510584 -0.07790938 -0.07742883 -0.08570308
000010 03 95 59 3d 16 0d c0 bc 43 38 ee bd ba 05 bf 3b
       0.053120624 -0.02344374 -0.11631825 0.00582954
000020 a7 89 0e be 90 81 30 bd 0f 72 8b bc 10 25 57 bd
       -0.13919698 -0.04309231 -0.01702216 -0.05252558
000030 31 0c 9c 3d 74 26 31 be f7 a1 d5 3c 3c bd 08 3d
       0.07619513 -0.17299825 0.026078207 0.033383593
000040 a2 b0 8c 3d 28 bf 49 3b 2d f5 d9 3d e6 6a 7f 3e
       0.068696275 0.0030784104 0.10642467 0.24943122
000050 3e 82 05 3e c8 60 ad 3d 4f 47 65 3d b5 80 c2 3d
       0.13037965 0.08465725 0.05597621 0.09497205
000060 2f 1b fb 3c b9 19 e4 bd 29 22 f4 bd 03 62 34 3c
       0.03065261 -0.11137719 -0.11920578 0.011009696
000070 60 61 59 bc 7c e4 2a 3c 6e b8 7f be 5c ce 97 bd
       -0.013267845 0.0104304515 -0.24972698 -0.07412407
000080 e0 82 47 bc c4 0a 17 bb da 98 3f be 6e 9a d7 bd
       -0.012177199 -0.0023047188 -0.18710652 -0.10527502
000090 f7 ca b4 3d 6b b6 ae bd 9c c8 8a 3c f6 c7 bc 3d
       0.08827775 -0.08530887 0.016941361 0.09217827
0000a0 ff 7e 0f 3e b4 38 04 3e 2d 67 2e bd ed dd c4 3d
       0.14013289 0.12912256 -0.042578865 0.096126415
0000b0 14 db a6 bd cf 58 76 bd 3b 66 44 bd 5f 78 b6 bd
       -0.081472546 -0.06014329 -0.047949057 -0.08909678
0000c0 46 6b e6 3c 93 70 f7 bc f9 48 96 3d 3b 8d b7 3b
       0.028127324 -0.030205047 0.07338137 0.005601553
0000d0 6a c8 1f be 25 cf 85 3d b0 9b 60 3d 97 ce 39 3e
       -0.15603796 0.0653365 0.054835975 0.18145214
0000e0 71 69 45 3d 7b 70 8c bd 7c cb a7 bd bf d3 a5 3d
       0.04819626 -0.068573914 -0.081931084 0.08097028
0000f0 c9 67 fb bd 84 5c a4 b9 0b 70 a3 3d 96 8f 28 3e
       -0.12275655 -0.00031349447 0.07980355 0.16461024
000100 5f 35 73 bc 8d ba dd 3c 5a 27 6a 3d 77 b2 28 3d
       -0.014844268 0.027066493 0.057166435 0.041185822
000110 e0 c1 05 bd 83 49 37 bd cd 27 a8 3b 94 89 a3 3d
       -0.032655597 -0.04474784 0.0051316977 0.07985225
000120 63 86 b6 3d 54 5c c9 3d 42 d2 30 be e3 40 95 3d
       0.08912351 0.09832063 -0.17267707 0.07287767
000130 bc 57 ae bc 86 be d3 bc fe cb a2 3c 13 6c 8b bd
       -0.02128207 -0.025847685 0.019872662 -0.06807723
000140 8d 32 21 be bc 46 f0 bd a9 8b 5d bd 8f b5 bc 3d
       -0.1574194 -0.117322415 -0.05408827 0.09214317
000150 69 e4 35 3d f8 17 8f bd 3d 81 91 3c 59 ba 01 3e
       0.044407282 -0.069869936 0.01776182 0.12668742
000160 49 91 69 bd 9a 0e 03 3c 1e ca 1a 3b 98 bc 3a 3e
       -0.05702332 0.007999087 0.0023619006 0.18236005
000170 1d d0 0b be 0d 07 69 3c da 7f 31 3d 33 e6 02 3e
       -0.13653608 0.014222872 0.04333482 0.12783127
000180 0e fb eb b8 38 e9 5a 3d 95 33 af 3b c5 32 8a 3d
       -0.00011252436 0.05344507 0.005346725 0.06747965
000190 6b 11 a7 3d fe ca ab 3d a7 76 31 3d 5e 03 ed bc
       0.08157619 0.08388327 0.043326046 -0.02893227
0001a0 e9 96 04 be d3 4f e2 3b 23 17 e0 3c 1e 62 98 bd
       -0.12948193 0.0069064884 0.027354782 -0.07440589
0001b0 47 a5 9c bc e5 5b 95 bd 7c a5 f6 3d 6a e0 82 3d
       -0.01912178 -0.07292918 0.120432824 0.0639046
0001c0 21 31 8f 3d bc f4 bc 3c 1c 7f ee bd 49 4f c5 3b
       0.069917925 0.023065917 -0.11645338 0.0060214144
0001d0 00 35 5f 3d c6 33 55 bd 8d ad e1 3c 1e 41 37 3e
       0.054493904 -0.052051328 0.027548576 0.17895934
0001e0 4e 4e 17 bd 61 5a 5b bd 4d c4 30 bd e8 2c 4e bd
       -0.03693991 -0.05355299 -0.043155957 -0.050335795
0001f0 5b 73 e1 3d d4 a2 47 3e 77 96 97 bc 4d bf db bd
       0.110083304 0.19495708 -0.018504364 -0.10729847
000200 13 7e be bd a1 6a 49 3d 44 2e 5b 3d 55 cb 5a bd
       -0.093013905 0.049173955 0.05351092 -0.05341657
000210 28 01 1e 3d 3f 6e df bb 88 65 87 3d 69 30 83 3d
       0.03857532 -0.0068185623 0.066111624 0.06405718
000220 ff 33 c5 bd 1b 61 2f 3c 35 85 90 3d 21 c7 3a 3e
       -0.09629058 0.010704304 0.07056657 0.18240024
000230 67 65 a1 bc 4d e2 2b 3d 4d 99 c5 3d 33 cb 71 3e
       -0.019701673 0.041963864 0.096483804 0.2361267
000240 74 a9 b6 bc 51 44 7e bd 65 d9 e2 bd bd 84 fa 3b
       -0.022297598 -0.06207687 -0.11076621 0.007645218
000250 05 6c 07 be fb 9b 40 bc 86 cb aa bd e2 48 00 be
       -0.132248 -0.011755939 -0.083396 -0.12527803
000260 07 9e ee 3c b2 70 27 ba f1 f0 91 bc f8 08 df 3d
       0.029128088 -0.00063873373 -0.017815085 0.108903825
000270 dc 59 0a bd 0c 9a be bc 15 10 69 3e 90 fb 07 3e
       -0.033777103 -0.023266815 0.22760041 0.13279557
000280 99 f8 22 3d 28 74 cb 3b 0a d8 86 3c e9 22 a3 3d
       0.039787862 0.0062089153 0.016460437 0.07965643
000290 31 84 88 bd 27 4a 42 3d c3 ce a3 3a 1b 79 60 bc
       -0.066658385 0.047434 0.0012497533 -0.013700749
0002a0 95 73 20 be 3b 24 18 bc eb c6 1b be 49 3d bb 3d
       -0.15669091 -0.009285982 -0.152126 0.091425486
0002b0 ca ef ee 3c 48 04 20 be d0 02 c5 3a 79 1e d0 3d
       0.029167075 -0.15626633 0.0015030745 0.10162062
0002c0 3c 20 84 3d 5b 8b 22 3d 05 5b 9c bd 1a df dd bd
       0.06451461 0.03968368 -0.07634548 -0.10833569
0002d0 f7 2b 97 3d 5b 66 8d 3b 31 0c 10 be eb cc 18 3c
       0.073814325 0.0043151802 -0.1406715 0.0093262
0002e0 4b 32 e5 bd e0 ab 0b 3e f5 54 b4 3c f6 c6 fb 3d
       -0.11191233 0.13639784 0.022013167 0.12293808
0002f0 ef 9f 1d 3d 3c 10 84 bd 23 a4 4b bc a5 37 bf 3d
       0.038482603 -0.06448409 -0.01242927 0.09336785
000300 86 3c 23 be b9 8b f3 3b 88 25 37 bb 27 81 06 bd
       -0.15941057 0.0074324277 -0.0027945954 -0.032838013
000310 4d 0a 1c 3d 77 29 bb 3b ff 96 fc 3c e9 17 c1 3c
       0.03809576 0.00571173 0.03083372 0.023570972
000320 3a 1c 58 bc 67 52 76 3e ed bb cd 3c 50 93 1e 3e
       -0.0131903235 0.24054871 0.025114024 0.15485883
000330 90 31 65 bc c2 5e a2 bd 2c 25 55 bd 1b df 13 3e
       -0.013988867 -0.0792823 -0.052037403 0.14440577
000340 67 95 96 bd 98 ca 01 3d c8 a8 b7 bd c3 47 e0 3d
       -0.07352715 0.03168735 -0.08967739 0.109511875
000350 ba 89 49 bd 52 ea b2 3d 73 db d5 3c 8d 24 9b 3d
       -0.049203612 0.08736099 0.026105618 0.07575331
000360 cf 11 e0 bd ee 38 b4 bc a0 1d c6 3d 87 ff ae bd
       -0.10940897 -0.021999802 0.09673619 -0.08544832
000370 95 7d 5a bd bc 0a 19 3e 4f c6 ba 3d 7d 69 a7 bd
       -0.05334242 0.14945501 0.091198556 -0.08174417
000380 f4 1a 52 3d 58 10 12 3c 7f cf 05 3e 23 fa 7e bc
       0.051295236 0.0089150295 0.13067435 -0.015562567
000390 be 98 26 3b 7d 5a 92 3d 32 91 1c 3e ec 65 5c bd
       0.0025420631 0.071461655 0.15289763 -0.053808138
0003a0 9d 70 41 3d 4f 97 a4 bd b6 fb 04 3e dc 21 50 3e
       0.047226537 -0.08036672 0.12986645 0.20325416
0003b0 47 3c 75 bd 83 1b bc 3c 07 c7 d9 bd 00 1d ce bd
       -0.059871938 0.022962337 -0.106336646 -0.10064125
0003c0 bf 0f 53 be 6e e4 5e 3d 94 7e d9 bd bf e9 b8 bd
       -0.20611475 0.054417066 -0.10619846 -0.090289585
0003d0 d0 0b 86 3b 1f 3c 74 3d c3 22 1f bb 0f a7 95 3e
       0.0040907636 0.05962765 -0.0024282194 0.29229018
0003e0 e0 a8 6a 3d f3 6a e7 3d 22 3e 2f bb e0 74 be 3c
       0.057289958 0.11299696 -0.0026739915 0.02324909
0003f0 3f 9f ef 3c 26 fc 02 be 67 dd 43 3d ed f6 d8 bd
       0.02925074 -0.127915 0.047818568 -0.10593972

net.2.bias f4 [200]
000000 0f 59 41 3a 62 e5 c0 3c d4 df 18 bb 8b 1d 1b bc
       0.00073756365 0.023546878 -0.0023326771 -0.009467493
000010 83 9f 4d 3c 7e ea c5 bc 47 05 d7 3c b7 b4 5e 3b
       0.012550238 -0.024159666 0.026247634 0.0033982226
000020 76 a8 8d 3c 1e a8 a4 ba aa e3 0c 3c 0f 41 a2 3a
       0.017292242 -0.001256231 0.008599201 0.0012379008
000030 e4 1d 37 3c 6a ce 64 39 10 8a 53 3d bd 06 87 3c
       0.01117656 0.0002182067 0.05164534 0.016482705
000040 20 55 ea ba a2 5a a2 bc 25 38 a8 3b c4 91 99 3c
       -0.0017878152 -0.019818608 0.005133646 0.018746264
000050 40 fd a4 3c bf ca 83 3c 07 35 91 bb 6b 79 5c bb
       0.02014029 0.016087888 -0.00443137 -0.0033641707
000060 1c 5e b4 3c 4b 40 a0 3c cb d0 f5 3a 62 0b 92 3c
       0.022017531 0.019561907 0.0018754242 0.017827693
000070 71 a1 dd 3c 21 29 d8 3a 26 b2 61 3c c1 b1 5c bc
       0.02705452 0.001649175 0.013775384 -0.013470114
000080 76 23 bd 3b 71 31 8a 3c 16 a4 01 bc 51 85 04 3d
       0.0057720495 0.016869279 -0.007912656 0.032353703
000090 3f 45 c4 bb e8 c5 46 3b 2c 2a 86 b9 1c 9e 24 3c
       -0.0059897 0.0030330364 -0.00025589892 0.010047462
0000a0 4d 9e 15 3c fc c9 dd 3c 64 0a cf 3b e9 ad c2 3b
       0.00913198 0.027073853 0.0063183773 0.005941142
0000b0 11 07 c7 3c 4b 8b 64 3c d8 ac d9 3c aa cc 14 3c
       0.024295362 0.013949226 0.026571676 0.009081999
0000c0 50 35 85 3b 6a 56 01 bb 42 1a c2 3c f9 de 13 3c
       0.0040651932 -0.0019735345 0.023694161 0.009025329
0000d0 39 17 f9 bb 0a db cb 3c 2f 8b 2a 3c af 30 5b 3c
       -0.0076016453 0.02488472 0.0104091605 0.013378306
0000e0 c4 1b 33 3d a2 f4 07 ba c0 6d 00 3d 6b a3 ca 3c
       0.04372765 -0.00051862944 0.031354666 0.024736127
0000f0 5c 6a c8 3c db fb 8b 3c 27 8e b9 3c f8 37 e9 3b
       0.024464779 0.017087867 0.022650791 0.0071172677
000100 56 00 6d bc 0e 4b 0d 3d 09 29 e4 3c b0 99 1d 3c
       -0.014465412 0.034495406 0.027851598 0.0096191615
000110 cd 5a 99 3c 5e bf ab 3c fa f8 26 3c fb ba c8 3c
       0.018720055 0.020965274 0.010191197 0.024503222
000120 1c ac 44 3c de ab d5 3c 62 66 9f 3b 1d e6 14 bc
       0.012003925 0.02608293 0.0048645 -0.009088066
000130 6c 4e 74 bb 02 b6 e3 3c 54 e2 c7 3b 60 42 93 3c
       -0.0037278188 0.027796749 0.0060999785 0.017975986
000140 d6 90 78 3b 2e 35 39 3b 22 eb 6e bb ae e7 fa bb
       0.0037928126 0.0028260457 -0.0036456068 -0.007657013
000150 81 9c 2b bc 76 5c d1 3c f6 79 c0 bb 30 b3 9e 3c
       -0.010474325 0.025556784 -0.005873914 0.019372553
000160 43 6f 88 3c 7b 47 ed 3c 24 3f 1b bc 37 85 c7 bb
       0.016654616 0.028964749 -0.009475503 -0.0060888785
000170 dc 0a 7f 3a cb fd 00 3d 04 b7 b6 3b ae be 6d 3c
       0.0009729096 0.031492036 0.0055760164 0.014510794
000180 60 fd 72 b9 d8 86 12 3d d2 3f 2c 3b 4c 52 0d 3c
       -0.00023173308 0.03577313 0.0026283157 0.008625578
000190 46 ab 1d 3c a9 c4 a7 3c fa 14 6e 3c db e0 81 bb
       0.009623354 0.020479517 0.014531368 -0.0039635724
0001a0 11 42 ef 3b 3d 03 db 3c 74 b9 00 3d bf a2 d4 3c
       0.007301577 0.026734943 0.031426862 0.02595651
0001b0 02 94 d7 3c 00 d6 5d 3c 89 e1 2d 3c 9a 2c 19 3d
       0.026315693 0.013539791 0.010612854 0.03739605
0001c0 23 d9 8e 3c ae 39 15 3d db f6 83 3c 26 16 77 3c
       0.017437523 0.03643196 0.01610892 0.015080964
0001d0 14 73 98 3c 7c 2f cc 3c e0 cd 33 3c 26 dd 20 3c
       0.018609561 0.024924986 0.010974377 0.009818351
0001e0 d6 9b 86 b5 ab 66 ae 3c 91 59 71 39 7b f8 da bb
       -1.0029132e-06 0.02128919 0.00023016917 -0.006682453
0001f0 33 ae 3c 3c 5e 4f ef 3a 98 67 9c 3c 24 69 d7 3c
       0.011516142 0.0018257906 0.019092366 0.026295252
000200 3c 7c 9d 3c 2b 18 81 3b ad 07 90 bb d9 88 8c 3c
       0.019224279 0.0039396486 -0.0043954463 0.017155098
000210 74 0f dc 3b 64 77 bd bb d6 34 b7 3c ee 9c e6 3c
       0.0067157093 -0.0057820547 0.022364061 0.028151002
000220 b4 b9 81 3c 37 2f c8 3c 17 b8 c6 3c b9 77 b6 3c
       0.01583562 0.024436576 0.024257703 0.022273885
000230 45 c6 f1 3b 8e 21 85 bc 4c c9 a7 3c 65 f1 31 3d
       0.007378372 -0.016251352 0.020481728 0.043443102
000240 07 b0 28 3c a8 98 76 3c 3f f7 31 3c 70 03 05 bc
       0.010295874 0.0150510445 0.010862171 -0.008118495
000250 d9 bb ed 3c 54 8d ab 3b 2d f2 08 3c 79 34 f9 36
       0.029020237 0.0052353535 0.00835852 7.426887e-06
000260 7e ce 11 bc ab 81 e9 3c 8c 44 00 3c 03 80 96 ba
       -0.008899329 0.028504213 0.007828843 -0.0011482242
000270 04 6b 5d 3c 00 dc df 3c c7 3a a3 3c 47 ed 45 3c
       0.013514284 0.027326584 0.019925488 0.012080497
000280 d3 b3 1c bc ac e4 9f 3c 94 c1 8a bb 7c a4 e5 ba
       -0.009564358 0.019518219 -0.004234502 -0.0017520334
000290 e3 55 a1 3b 0a 97 aa 3c 12 a9 8f 3c 27 46 f6 3c
       0.0049235686 0.020823974 0.017536674 0.030062748
0002a0 60 45 b8 3c 3a 03 28 3c 19 47 81 3c 27 37 b1 3b
       0.022494018 0.0102546755 0.015780972 0.005408186
0002b0 0f a9 87 3c 41 f2 88 3c 3a 4e 13 bb 62 49 25 3c
       0.016560106 0.016717078 -0.0022477047 0.010088297
0002c0 9d 85 85 3b 3b 5b 39 b9 15 fe 24 bc 72 39 41 3c
       0.004074766 -0.00017676961 -0.0100703435 0.011793481
0002d0 1c 46 bb 3c 6a 9c 0a bc 6a 06 51 3a b2 2d 30 3b
       0.02286058 -0.008460144 0.0007973673 0.0026882705
0002e0 e9 63 65 3c 85 d7 b6 3c c3 bc c2 3c de fe a1 3c
       0.014000871 0.022319565 0.02377165 0.01977485
0002f0 36 9f bc 3b 13 83 05 3c 05 0c 24 3b f3 65 58 3c
       0.005756284 0.008148926 0.0025031578 0.0132079
000300 25 f9 ba 3c aa f7 c5 3c 8b 7a d6 bb 0b 6e 50 3c
       0.02282388 0.024165947 -0.00654537 0.012721549
000310 e8 59 0e 3c 84 66 93 3c 3e cd d3 3c 3b b2 16 bc
       0.0086884275 0.01799322 0.025854703 -0.009197767

net.4.weight f4 [200, 200]
000000 6c 11 ee bd 74 cf 88 3c 1c a0 15 bd 26 b3 d8 3b
       -0.11624417 0.016700484 -0.036529645 0.006613153
000010 61 ae b1 bd a5 a6 07 3d 8e 63 40 bc 21 d6 89 3d
       -0.08675838 0.03311791 -0.011742486 0.06730295
000020 16 bb 1f 3e b0 5c 67 3d 3a 4a 80 3d d1 f2 1f bd
       0.15598711 0.056484878 0.062641576 -0.039049927
000030 51 21 0a bd 07 1e 00 3c c5 cd 1e 3e fd a4 30 3c
       -0.03372318 0.007819659 0.15508182 0.010781524
000040 e2 a2 4a 3d 74 0b ec 3c 34 49 76 bd 1a 9f e4 bc
       0.049471743 0.028814055 -0.060128406 -0.027907897
000050 57 6f 50 3d ad 3d f0 3d 39 ba 02 3d c5 5a 79 3c
       0.050887432 0.11730514 0.031915877 0.015219395
000060 e0 90 57 bd b9 ef 13 bd 77 8e 3a 3a df f9 0a 3e
       -0.052628398 -0.03611729 0.0007116566 0.13571881
000070 4b 85 af 3d 1d 1c d9 bc 7c 45 88 3d d9 48 3a 3d
       0.085703455 -0.026502663 0.06653878 0.04547963
000080 df 57 91 3d a2 47 1d 3e 74 e0 2d bd 36 97 be 3d
       0.07096838 0.15359357 -0.042450383 0.09306185
000090 a2 48 82 3d b0 99 a0 3d c0 a3 34 80 de 8f 99 bb
       0.0636151 0.078418136 -4.834188e-39 -0.0046863398
0000a0 c5 54 8a 3d 3e 08 82 bc ef 61 bb 3d 42 d1 66 be
       0.0675445 -0.01587307 0.09149539 -0.22540763
0000b0 f1 b4 a3 bc ee 2f 91 bd 02 d3 dd 3d 98 35 07 3e
       -0.01998374 -0.0708922 0.10831262 0.13204038
0000c0 2d eb 0e be 1c b2 51 bd 09 76 2e be cc db 35 bd
       -0.139569 -0.05119525 -0.17037214 -0.044399068
0000d0 5e ff 60 bd aa e1 e0 3b 83 f3 14 be fd 22 e0 3d
       -0.054931037 0.0068628388 -0.14546017 0.109441735
0000e0 a6 fa bb 3c 37 c1 b1 3c 43 80 f6 bc 55 d7 5b bd
       0.022946667 0.021698577 -0.030090457 -0.053672154
0000f0 b6 4f 58 3c 82 da 0e be 08 54 f3 3c f8 76 08 bd
       0.013202598 -0.13950542 0.029703155 -0.033316582
000100 74 4f 17 3e 95 62 11 3e 33 65 4c bc be 01 de 3d
       0.14776403 0.14197762 -0.0124753 0.10840176
000110 e5 cc dc 3c db c3 19 3e cf dd 3d 3c 33 72 6a 3c
       0.02695317 0.15016119 0.011588528 0.014309454
000120 98 59 01 be cf 3d 65 3d 0c 49 1f be a4 cc 3e 3b
       -0.12631834 0.05596715 -0.15555209 0.0029113675
000130 f2 f7 d8 3d 00 5f 0b 3d 2f 8a 0b be 20 5f 06 3e
       0.10594167 0.034026146 -0.13626932 0.13122225
000140 2c 68 02 3b a4 8c ab bd bf 9b 20 bd 20 1b 4f 3d
       0.0019898517 -0.083764344 -0.03921103 0.050562978
000150 65 32 88 3c 4a a5 f6 3d 5a 55 8d 02 62 03 fc bd
       0.016625592 0.12043245 2.0767077e-37 -0.12305333
000160 e0 d8 32 bd e1 bd 07 3d 0d 7d ba bc 69 92 25 bd
       -0.04366386 0.033140067 -0.022764707 -0.04042283
000170 91 28 18 3c 52 0a 66 3b ff e4 88 3d c8 00 ca bc
       0.009287016 0.0035101366 0.066843025 -0.024658576
000180 3c 0d 8b 3d 21 32 fe bd 57 23 88 3d 62 dd aa 3c
       0.06789634 -0.12411905 0.066473655 0.020857517
000190 64 ae 1f 3d 9e ac 79 ba ce 71 bb 3d bd 64 38 bc
       0.03898467 -0.0009524318 0.09152566 -0.011254487
0001a0 c9 f2 1b bd 9b 00 24 3d ff e0 05 3e 3d 1f a0 bd
       -0.038073335 0.04003964 0.1307411 -0.07818458
0001b0 13 64 8b 3d d3 4e cf 3d f1 5e ec bc c7 b2 ee 3d
       0.06806197 0.101224564 -0.028853865 0.11655193
0001c0 db 6b e0 3d c1 a5 36 3c af d4 8e 3d e2 41 a6 3d
       0.10958072 0.011147917 0.0697416 0.08118035
0001d0 42 9e 72 3d 12 b3 64 3c f7 ae af 3d c9 58 03 3d
       0.059232958 0.013958709 0.08578294 0.032067094
0001e0 5c 1d ac 8c 51 92 cc 3d b7 6c fe 3c 8c ce 4e be
       -2.6518466e-31 0.09988845 0.031057699 -0.20195979
0001f0 e6 0a 00 be f9 4d 22 3c 7c 2a 19 bc 56 35 e7 3d
       -0.12504157 0.009906285 -0.009348508 0.1128947
000200 72 28 c3 3c c9 55 d9 bd 6c cf 2f 3d d5 e8 d1 bc
       0.023822997 -0.10612065 0.042922422 -0.025623718
000210 45 96 c7 3d b5 e9 8a bd 2c b1 23 3e 40 64 1a 3e
       0.097454585 -0.06782857 0.15985554 0.15077305
000220 e1 4c 93 3c a8 a8 5b 3d 43 cc 0b 3d c6 2e f4 bc
       0.017980995 0.05362764 0.034130346 -0.02980746
000230 3b c7 47 bd de e8 56 3e a0 58 3d 3d 6e c4 5e bd
       -0.048773985 0.2098727 0.046227098 -0.05438655
000240 84 26 af 3b ec 11 08 3d 2e f3 32 bc ac f2 b0 ba
       0.0053451676 0.033220217 -0.010922236 -0.0013500056
000250 cd 4d c9 3d 07 3e 8a bd 73 5b b0 3d 32 1e 9d bc
       0.098292924 -0.06750112 0.086111926 -0.019179437
000260 84 af 2a bd 21 75 41 bd f0 3e 8d bd d7 2c c3 bd
       -0.04167129 -0.047230843 -0.0689677 -0.09530037
000270 0d 8b 25 3d 0f dc f4 3c df f5 a4 bd a2 f9 da bd
       0.040415812 0.029890088 -0.08054709 -0.10692145
000280 56 a6 13 bd f4 d5 08 be d6 7d 3e bd b2 8a 1f 0d
       -0.036047302 -0.13362867 -0.046506725 4.9162606e-31
000290 59 29 bf bd cb c5 27 3e 83 2d ec bc d0 5f 6e 3d
       -0.09334058 0.16384046 -0.028830295 0.058196843
0002a0 30 5c cf bd 90 1f cd bd a2 eb 05 3c 76 32 8f bd
       -0.10125005 -0.10015786 0.008173855 -0.069920465
0002b0 ab 7f 8a bc db 5f 1a 3d 50 2f 64 3d e9 04 b6 bd
       -0.01690658 0.03768907 0.055709183 -0.08887655
0002c0 a4 ce ad 3b 1c 82 55 bc cf 1c ac 3c c6 e5 dd bd
       0.0053041745 -0.013031509 0.02100983 -0.108348414
0002d0 e0 c9 c5 3b cf 9a c9 bd f9 84 1d 3c b6 b8 32 bd
       0.0060360283 -0.098439805 0.009614223 -0.043633185
0002e0 ab 7b 0a 3e 59 7a 0e be a0 31 0a 3e 79 6e 9c bd
       0.13523738 -0.1391386 0.13495493 -0.076382585
0002f0 ee 38 11 3d 20 cb 83 3e b1 13 95 bc 07 7f 0b 3e
       0.035454683 0.2574091 -0.018197866 0.13622676
000300 20 ba f8 3d bb 43 95 3c 8e be 27 be a8 ae 82 bd
       0.121448755 0.018220773 -0.16381285 -0.06380969
000310 33 38 e7 bc a5 e7 1c bd e3 ad 3c be 3c a5 6c bd
       -0.02822504 -0.03830685 -0.18425708 -0.057774767
000320 8d 2f a0 3d f7 0c 64 bd 86 c1 d3 bd 59 a3 71 bc
       0.078215696 -0.055676427 -0.10339646 -0.014748418
000330 06 23 d1 3d af 52 48 3d f0 bc 6b 3d 70 05 07 3e
       0.10211758 0.04890698 0.05755323 0.13185668
000340 dc cf c8 38 27 a5 84 3d 84 69 37 bd 17 b2 e0 bd
       9.57546e-05 0.06476813 -0.044778362 -0.10971468
000350 ff 37 1f 3e f4 c4 15 b9 15 22 84 3d 59 dc e9 3c
       0.15548705 -0.00014283118 0.06451813 0.028547453
000360 7f 88 9e bd eb 03 a8 3d 8b 97 8e bd 0b 9d c0 3d
       -0.07740878 0.08203872 -0.06962498 0.094049536
000370 ef de 4b 3d 17 7e ac 3d b2 b1 fb bd dc 2f 5f 3e
       0.049773153 0.08422487 -0.12289752 0.217956
000380 b6 cc 0d bd 53 75 92 3d 85 5b 32 3b 5c b2 8d 3d
       -0.034619056 0.07151284 0.0027215194 0.06918785
000390 a9 c2 18 3e 7b 2d da bd 64 34 17 3e 21 d5 d8 3b
       0.14918007 -0.10653206 0.14766079 0.006617204
0003a0 cf 6c 1a be b4 7b dd 3d 76 21 72 bd c9 91 17 3d
       -0.1508057 0.1081461 -0.059113942 0.037004266
0003b0 e0 c4 46 bd 42 27 8a bd 7d 61 c9 86 a8 a7 9a 3d
       -0.0485276 -0.06745769 -7.575104e-35 0.07551509
0003c0 1f 88 e9 bd 9b 02 9e bd a4 3e 98 3e f4 79 57 be
       -0.11402916 -0.07715341 0.2973529 -0.21042615
0003d0 38 1f c4 3d 64 28 93 3d 31 5e a3 3d e1 9c 05 3b
       0.09576267 0.07185438 0.0797695 0.0020387697
0003e0 e6 a2 a1 3c b1 7f 0a bd 44 4a 58 bc 8d 06 84 3d
       0.019730996 -0.033813182 -0.0132013 0.06446562
0003f0 54 3e e8 3c c4 17 b5 bd 36 8b 68 bd 9f 23 d4 3d
       0.028350033 -0.088424236 -0.056773387 0.10358357

net.4.bias f4 [200]
000000 03 3e 12 3d 3a 12 ff 3c 39 16 1e bc d8 b1 b0 3a
       0.03570367 0.03113662 -0.009648853 0.0013480736
000010 53 ad 17 bb 90 b8 30 3d ce a9 0a 3d 6a 74 99 3c
       -0.002314408 0.043144763 0.033853345 0.018732268
000020 6e 78 00 3d 6a ba 14 3d c7 a6 55 3c 89 6d bd 3c
       0.03136485 0.03631059 0.013040251 0.02312352
000030 6c 60 cb 3a ef 54 07 3d ad 4c e5 3c 76 1b 3b 3a
       0.0015516407 0.033039983 0.027990663 0.0007137576
000040 33 87 3f 3d 4d 65 d3 b8 a3 c4 c2 3c 16 e2 af 3c
       0.046759795 -0.00010080133 0.023775404 0.02147011
000050 f5 33 c5 3c 4c 34 c3 3c c0 c7 b0 bb f0 ff 93 3c
       0.024072627 0.023828648 -0.005394906 0.018066376
000060 07 2f d8 b9 e4 0a e6 3c 8d 11 bf 3c 85 75 fb 3c
       -0.0004123377 0.028081365 0.023323799 0.030695686
000070 eb 86 fa 3c ee d1 a7 b9 a7 3f 3f 3c 30 cf c4 3c
       0.030581912 -0.00032009132 0.011672891 0.024024576
000080 bf 22 b2 3c e0 32 eb 3c a5 3d ff 3c 96 17 1d 3c
       0.021745084 0.028710783 0.031157324 0.009588143
000090 a2 84 00 3d 6b 62 1f 3d 7a 73 7e bc d6 e7 d1 3c
       0.03137649 0.038912218 -0.015530461 0.025623243
0000a0 84 95 22 3d ae d6 fd 3c 4a 62 4e 3c e9 52 0b 3d
       0.03969337 0.030986156 0.012596676 0.034014616
0000b0 d4 57 29 3d 67 18 9f 3c 2a eb d4 3c 0b 60 bd 3c
       0.041343525 0.019420816 0.025991041 0.023117086
0000c0 20 54 b4 3c c2 6b 46 3c 31 71 22 3d 5b 41 26 3d
       0.02201277 0.012110652 0.03965873 0.04058967
0000d0 36 82 6a 3c b1 cb 97 3c f9 2a 81 3b 8b 1f 9a 3c
       0.014313271 0.018529745 0.0039418903 0.018813869
0000e0 5e b4 06 3d 8f 6e d8 3c 82 7d d7 3c de cf 27 3c
       0.032886855 0.026419906 0.026304964 0.0102424305
0000f0 bc e1 88 3c 66 8b 77 3c 64 56 4d 3d 4b 00 f7 3c
       0.016709201 0.015108919 0.050131217 0.030151507
000100 5d fc d1 3c 01 83 bd 3c 7f 6f 04 3d 97 4c 57 bb
       0.025633032 0.023133757 0.032332893 -0.0032852048
000110 f1 4e c8 3c 30 81 a7 3c 96 ae b9 3c 20 f9 cd 3c
       0.024451705 0.020447344 0.022666257 0.025143206
000120 af a2 a6 3c d9 cf 6d b9 97 11 5a 3c b1 f7 82 3c
       0.020341245 -0.0002267951 0.013309858 0.01598725
000130 29 57 b3 3c 07 97 fe 3c f7 f0 17 3d 58 00 a4 3c
       0.021892147 0.031077875 0.037095036 0.020019695
000140 af f6 7f 3c 7b 6d 7e ba 59 52 03 3d e0 75 8f 3c
       0.015622779 -0.0009705645 0.032060955 0.017512262
000150 f7 af d9 3c 8c 33 4e bb 2e d8 ed 3c bd 1d ab 3c
       0.026573164 -0.003146383 0.029033747 0.020888204
000160 da bb 04 3d b0 21 5a 3c 17 dc 0d 3a 3c d6 06 3d
       0.03240571 0.013313696 0.0005411519 0.032919154
000170 38 a1 0a 3d cb f2 ec 3c 65 df a1 3c 2c c4 dc ae
       0.033845156 0.028924366 0.019759843 -1.0039289e-10
000180 12 33 10 3d eb 00 c4 3c 8d f8 97 3c ef 97 a8 3c
       0.035204954 0.023926219 0.018551135 0.02058026
000190 ea 22 97 ba 06 6b 95 3c 5d 4a ca bb 03 96 db 3b
       -0.0011530791 0.01823951 -0.0061734156 0.0067012324
0001a0 17 0b e6 3c de 1d 02 3d 38 7f 03 3d e4 4c bc 3c
       0.02808146 0.031766765 0.032103747 0.022985883
0001b0 0d 0d 1e 3d 0f 76 df 3c 89 0a 03 3d 7b 6e 02 3d
       0.038586665 0.027277974 0.03199247 0.031843644
0001c0 72 33 ee 3c 4a 3b ab 3c 75 53 c9 3b 8f e9 90 ba
       0.029077265 0.020902295 0.006143982 -0.0011055934
0001d0 a5 a4 33 bb 89 5a 46 3c b7 ed a7 3c d3 b8 e9 3c
       -0.0027411368 0.012106546 0.020499093 0.028530514
0001e0 df 66 3d 3c f2 bc 74 3c 5f f4 18 3d cd 85 c4 3c
       0.011560171 0.014937626 0.037342425 0.023989582
0001f0 4f 15 2a bc b3 36 b2 3c a0 f1 9c 3c 1c 2a a1 3c
       -0.010381057 0.021754598 0.019158185 0.0196734
000200 4d 7e 86 3c c0 b5 e0 3c ed fa 07 3d 1a 03 38 3d
       0.016417647 0.027430415 0.033198286 0.044924833
000210 1a 17 c2 3c d7 94 cd 3c 3a 3c 0e 3d 0b 1a db ba
       0.023692656 0.025095386 0.034725405 -0.0016716135
000220 64 5b b5 3c 69 c0 d4 3c 17 94 bc 3c d9 10 89 3c
       0.022138305 0.025970655 0.023019833 0.016731666
000230 cd d3 71 3a 46 72 04 3c e6 8f fe 3c 6a 22 27 3d
       0.0009224981 0.008083886 0.031074475 0.040804304
000240 f7 51 a4 3b 83 c4 bf 3c 2b 3c 90 3c 04 c9 e6 3c
       0.005014654 0.023409134 0.017606815 0.028172024
000250 3a 03 2a 3d a8 dd 23 3d 36 e1 c7 b9 d7 b7 e3 bb
       0.041506983 0.04000631 -0.00038124033 -0.0069494057
000260 70 a4 08 bc f1 c1 1a 3c d2 9b fa 3c 01 81 37 3c
       -0.008339986 0.009445653 0.030591879 0.0112001905
000270 5b 44 17 3d e3 23 48 3c d5 9c d6 3b 69 10 dd 3c
       0.036930423 0.012215587 0.0065494576 0.026985364
000280 07 4e 87 3c 32 90 53 bb a5 fa 36 bc 6d 98 b1 3c
       0.016516699 -0.0032281992 -0.011168157 0.021679128
000290 a0 c5 9e ba 6c ef b7 3c 07 20 03 3d b0 8b 16 3d
       -0.001211334 0.022453032 0.032012966 0.03675431
0002a0 56 20 0d bc 50 ed ef 3c ef 5d a7 3c 0d 8a 13 3d
       -0.0086136665 0.029287964 0.020430533 0.036020327
0002b0 c8 93 f7 3c e0 81 d6 3c 8e a5 cc bb c0 14 4e 3c
       0.030221835 0.026184976 -0.0062453216 0.012578189
0002c0 1f 4a 07 3d a8 b4 0b 3d 20 10 19 3d f4 1b d9 3c
       0.03302967 0.034107834 0.037368894 0.026502587
0002d0 fe 63 fe 3c 90 ca ac 3c 4b f7 c4 3c 57 64 d6 3c
       0.03105354 0.021092683 0.0240437 0.026170893
0002e0 60 34 bd 3c ee 73 a0 3c 91 6c 56 3c 49 1a 06 3d
       0.023096263 0.01958653 0.013087408 0.03273991
0002f0 66 f4 96 3c 0d 1e a4 3c a1 09 0e 3d 3c b0 b6 3c
       0.018427085 0.02003386 0.03467715 0.022300832
000300 38 c6 bf 3c 20 b7 0f 3d c3 bb d5 3b 0d e1 f6 3c
       0.023409948 0.03508675 0.006522627 0.03013661
000310 fa 8a 9c b1 99 f8 ad 3c cc ff 21 3d 5d 8b 9e 3c
       -4.5559974e-09 0.021236705 0.039550588 0.019353563

net.6.weight f4 [1, 200]
000000 e7 54 1a 3e 29 08 6c 3e 08 b5 41 bc 9b d2 1c 3e
       0.1507145 0.23049988 -0.011822946 0.15314715
000010 d6 3f 8f 3c 93 50 43 3e 05 c4 03 be ac 4b 36 be
       0.017486494 0.19073705 -0.12867744 -0.17802304
000020 af 10 87 3e 25 e1 2c 3e f3 33 af bd be 00 21 3e
       0.26379916 0.16882761 -0.085548304 0.1572294
000030 f6 01 14 3e 2d a7 8c be 77 3f f4 3d ce 22 82 bd
       0.14453873 -0.27471295 0.119261675 -0.06354295
000040 4e de 3a 3e dc 6e fe 37 3f 83 76 3e 12 a0 2f be
       0.18248865 3.0330782e-05 0.24073504 -0.17150906
000050 98 8c 19 be 04 6d 27 be 3b 82 7b bb 1e f5 0a be
       -0.14995039 -0.1635018 -0.0038377184 -0.13570067
000060 42 2e c2 bd bc 32 07 3e d0 26 25 3e fa 3e 92 3e
       -0.09481479 0.13202947 0.16128087 0.28563672
000070 66 36 31 3e da d8 63 3d da 84 79 be ee cb 63 be
       0.17305908 0.055626728 -0.24367085 -0.22245762
000080 2f 7c 28 be 2a e6 df bd ab d8 a0 3e f1 0d 5b 3e
       -0.16453622 -0.10932572 0.31415305 0.21392037
000090 52 94 3d be e0 66 05 3e 6f 95 9a bc 9d c7 7d be
       -0.18513611 0.13027525 -0.018870084 -0.24783178
0000a0 a4 89 9f 3e ff aa 44 3e f7 36 1b be 3a 47 89 be
       0.311597 0.19205855 -0.15157686 -0.26812154
0000b0 69 04 83 3e 06 b2 5c be 28 92 67 3e 17 26 06 be
       0.25589302 -0.21552286 0.22614348 -0.13100468
0000c0 d7 aa 2b be 6c 63 08 be 85 35 0a 3e a1 9f 09 3e
       -0.16764389 -0.13319176 0.13496979 0.134398
0000d0 f6 c8 17 be 05 29 67 be fb d7 8e bd 41 f7 6b be
       -0.14822754 -0.22574241 -0.06974789 -0.23043539
0000e0 8b ef 63 3e f3 0c 8a 3e 54 5f 46 3e 34 8d 1e be
       0.22259347 0.26963004 0.19372302 -0.15483552
0000f0 e0 61 92 be 89 47 85 be 8e aa 29 3e a3 2b 36 3e
       -0.28590298 -0.2603114 0.16568968 0.17790084
000100 41 0d 6b be eb bb 94 3d 9b 85 49 3e 22 41 29 bd
       -0.22954275 0.07262405 0.19679873 -0.04132188
000110 28 a4 4d 3e cf 05 c4 3d 93 7a 3d be 04 ab 57 be
       0.20082152 0.095714204 -0.1850379 -0.21061331
000120 a5 4a 1a be d3 aa a1 13 bf 7a 0e be 8c 42 7d be
       -0.15067537 4.081056e-27 -0.13914011 -0.24732417
000130 af fe 25 be cf 1b 82 be 7c 6f 8d 3e 7e b4 73 be
       -0.16210435 -0.2541184 0.27624118 -0.23799321
000140 c7 7e 7c be 21 06 b7 3d 65 97 92 3e 68 cc 6a be
       -0.24657737 0.08936716 0.2863113 -0.22929537
000150 10 08 12 be 50 c2 cd 3c b6 bc 18 be 1b 85 76 be
       -0.14260888 0.02511707 -0.14915738 -0.24074213
000160 0f 4a 5e 3e 95 21 7c be e8 92 d0 bd d4 d5 04 3e
       0.21707939 -0.24622186 -0.1018427 0.12972194
000170 24 1b 63 3e c8 6c 94 3e 69 d7 30 be 1a cb b7 b0
       0.22178322 0.28989244 -0.17269672 -1.3372727e-09
000180 89 61 06 3e 0b 68 5a 3e c9 7d 02 be 62 36 da 3d
       0.13123144 0.21328752 -0.12743296 0.10654904
000190 34 5a 35 3d 14 88 87 be 22 35 37 3c 36 a4 69 be
       0.044275478 -0.26471007 0.011182101 -0.22816548
0001a0 f0 87 25 be 7e 2c 8a be c5 0a 33 3e 8c 97 46 be
       -0.16165137 -0.2698707 0.17484577 -0.19393748
0001b0 47 87 af 3e 09 ba 61 3e e7 94 3e 3e 98 16 0f 3e
       0.34282896 0.22043623 0.18611489 0.13973463
0001c0 91 3a 82 3e e4 e3 0c be 63 ef e3 3d 27 04 81 b5
       0.25435308 -0.13758808 0.11129644 -9.612457e-07
0001d0 32 b1 cd bd b6 49 31 3e 00 55 57 be e9 27 79 3e
       -0.10043563 0.17313275 -0.21028519 0.24331631
0001e0 c3 11 46 be 02 80 02 be ae a1 0b 3e 6b 53 40 3e
       -0.19342713 -0.12744144 0.13635895 0.18781821
0001f0 b7 1a 85 bc f1 2f 83 be 67 6a 5d be c7 ba de 3d
       -0.01624809 -0.25622514 -0.2162262 0.10875469
000200 8a 17 42 be d8 cf 82 be 63 98 82 3e d5 48 a7 3e
       -0.18954292 -0.25549197 0.25506887 0.32672754
000210 f3 b8 8b be cb f0 5f be 6a 9d 84 3e 0c a8 bf bd
       -0.27289543 -0.21869199 0.25901347 -0.09358224
000220 ba 6a 10 3e f3 d9 14 be f9 99 88 be dd f6 72 be
       0.14103213 -0.14536266 -0.26679972 -0.23726983
000230 f9 33 65 bd 1b 53 53 be d9 eb 57 3e 29 cf 41 3e
       -0.055957768 -0.20637171 0.21086062 0.18926682
000240 6f 37 bf bd 31 43 eb bd e3 b6 7d be fd 2a 84 3e
       -0.09336745 -0.11487425 -0.24776797 0.25814047
000250 8e f7 6d 3e 81 e9 64 3e b0 9b 83 3d 5b 49 f5 3d
       0.23238966 0.223547 0.064261794 0.11976882
000260 20 92 6f 3d f7 65 52 be aa a9 72 3e e3 e2 3f be
       0.058488965 -0.20546709 0.23697534 -0.18738894
000270 62 25 41 3e a4 02 e5 bd d7 29 49 bd c7 38 3f be
       0.18861917 -0.11182144 -0.049112167 -0.18674003
000280 fd a0 e5 bd c1 d1 bb 37 a9 9a 6f 3c b9 aa da 3d
       -0.11212347 2.2389811e-05 0.014624276 0.10677094
000290 ee 7d 3a 3e 4b e7 0f 3e 3d b1 06 3e f4 19 3b 3e
       0.18212101 0.14053075 0.13153549 0.18271619
0002a0 e5 e6 4e bb b8 dc 0e be ea 4b 3e be 55 12 6f 3e
       -0.003157073 -0.13951385 -0.18583646 0.23346837
0002b0 72 54 76 3e 48 a6 2b be 11 3c ea bd 1f c2 43 3e
       0.24055651 -0.1676265 -0.11437238 0.1911702
0002c0 27 d0 3e 3e 40 b9 53 3e 94 1f ca 3d 09 04 3a 3e
       0.18634091 0.20676136 0.09869304 0.18165602
0002d0 45 e2 5c 3e 3e 2a d5 bd e3 d8 65 3e aa 8f d8 bd
       0.2157069 -0.10408448 0.22446017 -0.10574277
0002e0 69 21 16 be 0f 88 66 be 95 31 f2 bd 97 b7 7c 3e
       -0.14661182 -0.2251284 -0.11825863 0.24679409
0002f0 c1 6c 80 3d 91 94 71 be 3d 43 2c 3e 3a 16 83 be
       0.06270743 -0.2359183 0.16822524 -0.25602895
000300 38 43 82 be ac 62 5a 3e 32 15 29 be af ff 89 be
       -0.2544191 0.21326703 -0.16511992 -0.26952884
000310 42 7a 68 0f a0 1e a4 be 32 a5 56 3e 6e 03 6c be
       1.1462029e-29 -0.32054615 0.20961455 -0.23048183
