data/models/heart_attack/heart_attack_50x2.pth (torch, 16397 bytes, 5 tensors)

net.0.weight f4 [50, 13]
00000000: 4f19 be3e 74c7 043d bbab 4fbe a4d3 00be
00000010: be6a 623e 5f89 203b 5865 53be 0c4b 66be
00000020: f7a5 d6bc 5a1d 903e dff9 f9bd 4cc9 293e
00000030: cbdf 9f3e 8fab de3c 7ae5 adbe cc4b bd3e
00000040: 0203 97be 19fc 11be 2624 35bd 7628 c0be
00000050: ee05 e63c be91 993e 8a50 3fbd 509f 6a3e
00000060: 4ffc e3bd 243a 1ebd 3225 99bd 2cdc 7b3e
00000070: 975b e33d adad 4a3e 76db 6b3c 2021 37bc
00000080: 75a6 1ebe fac6 69bd 35be 20be 1d29 623e
00000090: 035b cb3b cc9f d33d 5e63 583e 89cb 1fbe
000000a0: a1dc dabd 2e84 05be c669 72bd c220 3fbd
000000b0: 6c20 313d 0383 c53e b505 753e 9ab9 7a3e
000000c0: c973 333e 9670 c0bd ff7d 5c3e 07d5 9c3b
000000d0: 4adb 6c3e fd2e 033e 6161 5e3d 9900 703c
000000e0: 6d65 96bc 0e0c ae3d 0aff 763e 7ee1 643d
000000f0: 096d ac3e d780 123c 2a62 fdbd 82e6 bb3e
00000100: 0889 2cbe bebf 123e c37f 5cbd c5bd bb3e
00000110: 3d05 2d3c 2997 853e c205 7d3e efda 493e
00000120: 9c98 cb3e d44e 453d bc29 27be ad0e ebbd
00000130: c326 42be 411b ad3d 14aa 67be f6f3 453e
00000140: c068 023e 63b9 be3d 8211 6d3e 9adb 623e
00000150: 650a 6f3e 9e91 c33e 16d4 79bd 2dc0 a3be
00000160: 947a ac3e 870f 113e d181 38be 74ec c53e
00000170: daf6 903e 774f cdbc f3bf 5c3e 0f21 413e
00000180: a63d 1bbe ede9 5cbe 021c 4ebe af41 eebd
00000190: 58ba a93e 17c9 3cbd 7f6d 143e 6de6 1a3e
000001a0: c7f8 adbe b5a7 87be 42ca 263e 03d9 63be
000001b0: 9a94 b7bd 99d4 7a3e b1e2 29be a159 283e
000001c0: 890e 853d 6147 e93b 9b25 713e fc43 8dbe
000001d0: 59c2 c73d f036 9d3e 4b3c 923c ff55 c13e
000001e0: 831a a53d 04b6 dd3d d0ec dabc 9cb1 313e
000001f0: b02a 963e 9f09 b3ba c551 8b3e ff4e 77bd
00000200: d517 81be cc13 ad3e 0460 633e c9af f0bd
00000210: 678a 833e 836d f1bc 6b5b 373e 0451 193e
00000220: 1d86 303e 25ab 8d3e 6378 ddbc 9bf3 9abe
00000230: ec11 e73d 2036 2abd 5aa1 60be 58a0 0ebe
00000240: db9a 34bc c1a1 f3bd a309 863e b53f 8c3e
00000250: 6564 7bbd 1fc7 9ebc 485d 60bd 0bd5 6e3e
00000260: 2f50 d63d 8f45 333d 387c fdbd 640b 423e
00000270: 2c77 9dbe 0ddd 143e 98da 9dbe ad9d 46be
00000280: eb13 8c3d c917 15be b86c b13e 51e3 373b
00000290: f8bf 0abe 3fc7 97bd b9e1 783e 75ae 883d
000002a0: 7c2c 12be 7c78 05bd ab0f ecbd 914d 9ebe
000002b0: d20a c8bb ba17 733d 0f71 9a3d c8e9 993e
000002c0: 7da9 8abd 013b 863e 0af5 b93d 0851 94bd
000002d0: 9925 91bd b068 8e3e 8735 623e a610 df3d
000002e0: da6c 99bc 376a 653e 0d52 5b3e a0a9 d53d
000002f0: b284 6cbe d042 893c 1777 913d 824c c0bd
00000300: 52c4 673c fa64 9b3e 2051 2bbe 10f0 c4bd
00000310: 4602 d33d 3446 b93c 45f0 1bbd 2870 f03c
00000320: b07b 29bd a392 7cbc 642d 9ebd b4c1 2d3c
00000330: e65c 433d c187 acbd be29 7e3d 559b 95bc
00000340: 8386 60be a852 523e b676 56bf bb0d 25be
00000350: 8f1a 06bd 2dbc d9be ad51 28be 8e95 e33d
00000360: 8bf1 c8bb 92ee 82be 61f3 9a3e 4be9 8a3e
00000370: cead 2d3e 8e0b dabd a3ee 933e 1615 c0bd
00000380: 195e 803e 450c ff3d 72c9 06be 819e c23d
00000390: f5e8 06be 3bd0 633e 3af8 c43e f978 56be
000003a0: 7424 1c3e ced6 003d ceac 1dbd 93b8 aa3e
000003b0: c321 2e3e 6cbb a13e 1a5d 9b3d ab07 c9be
000003c0: df33 0e3e 2c7b 59be 3456 91be 2b76 af3e
000003d0: b9a7 d33a 65ad 3f3d 09d7 f53d 6af6 afbe
000003e0: 2b62 fcbd 9b17 fbbd a60e 873e a2eb 8bbe
000003f0: 7571 c0bd c030 de3e fe04 253e b904 363e
0.37128684 0.032416776 -0.20280354 -0.12580734 0.22111031 0.0024495942 -0.20644128 -0.22489566
-0.026202185 0.28147393 -0.12205862 0.16580695 0.31225428 0.027181415 -0.3396414 0.3697189
-0.29494482 -0.14256324 -0.044223927 -0.3753087 0.028079 0.29994005 -0.046707667 0.22912335
-0.111321084 -0.038629666 -0.074777976 0.24595708 0.11101454 0.19792815 0.014395585 -0.011177331
-0.15493186 -0.057074524 -0.15697558 0.22085996 0.006205918 0.10333213 0.21131656 -0.15604986
-0.10686613 -0.13038704 -0.059182905 -0.0466621 0.04324381 0.38576517 0.23927958 0.24484864
0.17524637 -0.09396474 0.21532439 0.004786137 0.23130527 0.12810893 0.054292087 0.01464858
-0.01835891 0.08498393 0.24120727 0.05587911 0.33676937 0.008941851 -0.12372239 0.366993
-0.16849148 0.14330956 -0.05383278 0.3666822 0.010560331 0.2609189 0.24709228 0.19712423
0.3976487 0.04817088 -0.16324514 -0.114774086 -0.18960099 0.08452464 -0.22623473 0.19331345
0.12735271 0.093127035 0.2315121 0.22154084 0.23343809 0.38197035 -0.060993277 -0.31982556
0.3368727 0.1416608 -0.18018271 0.38656962 0.28313333 -0.025062306 0.21557598 0.18860267
-0.15160236 -0.2157361 -0.20127872 -0.11633622 0.33149981 -0.04609021 0.14494894 0.15126963
-0.33978865 -0.26495138 0.16288093 -0.22250752 -0.089638904 0.24495162 -0.16590382 0.1644044
0.06496913 0.0071191047 0.23549502 -0.2759093 0.09753866 0.30705976 0.017851016 0.37760922
0.08061697 0.10825732 -0.02672425 0.17352909 0.29329443 -0.0013659484 0.27210823 -0.06037807
-0.25213495 0.33804166 0.22204596 -0.11752278 0.2569153 -0.029471165 0.17905967 0.14972311
0.1723866 0.27669635 -0.027034944 -0.3026398 0.11282715 -0.041555524 -0.2193655 -0.13928354
-0.011023249 -0.118960865 0.26179227 0.27392355 -0.06137504 -0.019382058 -0.05477646 0.23323457
0.104645126 0.043767508 -0.123772085 0.18949658 -0.30754983 0.14537449 -0.30830836 -0.19396086
0.068397366 -0.14559855 0.34653258 0.0028059075 -0.13549793 -0.0741105 0.24304856 0.066739
-0.14274782 -0.032585606 -0.11526426 -0.30918553 -0.0061048055 0.0593488 0.075410955 0.30061173
-0.067706086 0.2621689 0.090799406 -0.07242018 -0.07087249 0.27814245 0.22090732 0.10891847
-0.018728662 0.22403799 0.21418019 0.10432744 -0.23097494 0.016755491 0.07102793 -0.09389593
0.0141459275 0.30350477 -0.16730165 -0.09616101 0.10303168 0.022616483 -0.038070936 0.029350355
-0.041377723 -0.01541582 -0.07723501 0.010605264 0.047696017 -0.084243305 0.062051527 -0.018262545
-0.21926312 0.20539343 -0.8377489 -0.16118519 -0.032740172 -0.4252638 -0.16437407 0.1111251
-0.00613231 -0.2557264 0.30263808 0.27131113 0.16960832 -0.10646735 0.28893003 -0.09379022
0.2507179 0.12453512 -0.13162783 0.095028885 -0.13174804 0.22247402 0.38470632 -0.20944585
0.15248281 0.031454854 -0.038494878 0.33343944 0.17005067 0.31588304 0.07586117 -0.39263663
0.13886975 -0.21238393 -0.2838608 0.34269843 0.0016148008 0.04679622 0.12003905 -0.34367687
-0.123234116 -0.12260362 0.26378363 -0.2732821 -0.0939664 0.43396568 0.16115186 0.17775239

net.0.bias f4 [50]
00000000: bdbd 353e 1fe9 d5bd 2d84 a63a 7c17 8abe
00000010: 1c95 503e ebac 1fbe 8087 5fbd a806 0ebd
00000020: e109 583e 75b2 a23e bd06 6c3d 2c71 793e
00000030: 6876 9b3e ca76 99be e451 9f3c 3711 10be
00000040: 214b 96be 3d1a 35bd fae6 5dbe e666 8ebe
00000050: f098 0bbe 0fee 663e 7b64 fb3b 84fd 5d04
00000060: 5100 003d d0f6 503e a9b4 aa3d 459d 0a3d
00000070: cb34 523e 0b2d 523e 32f9 5e3e f327 b33e
00000080: ce36 d23e 810a 823e 2f81 493e 80ce 0cbd
00000090: 5efd debd 07ee 77be c9b5 fcbd 18ec a9bd
000000a0: feeb 1e3d 0a29 f5bb b511 753d 7d54 52be
000000b0: edf1 5fbe 2445 2baa 450e 9a3e 3458 f93d
000000c0: e52f 923d cc9b a6bd
0.1774816 -0.10444855 0.0012704186 -0.26971042 0.2036938 -0.15593307 -0.054572582 -0.034674317
0.21097519 0.31776777 0.057623614 0.24359578 0.30363774 -0.2997344 0.019448228 -0.14069067
-0.29354194 -0.044214476 -0.21670142 -0.2781288 -0.1363256 0.2255175 0.0076718903 2.6094834e-36
0.0312503 0.20406651 0.083352394 0.03384139 0.20527951 0.20524995 0.21774748 0.34991416
0.41057438 0.2539864 0.19678186 -0.03437662 -0.1088817 -0.24211894 -0.1233936 -0.082969844
0.03879928 -0.007481699 0.05983134 -0.20540042 -0.21869631 -1.5211839e-13 0.30089012 0.121750265
0.071380414 -0.08135185

net.2.weight f4 [50, 50]
00000000: 06d2 193a af1b c0ab 5853 67b6 8c64 5c01
00000010: db35 99bb 0291 a83a 8d5b aabb 8ebc 888e
00000020: ab48 f23c 05fd 253d d493 903b 69b9 57bd
00000030: ec14 1bb7 bd99 e102 7e12 83bc 1aa4 8582
00000040: f372 f506 9472 722f 3e42 db0e 4819 e62b
00000050: fbc2 3034 8196 2f3c 1613 0cbc 0464 9a00
00000060: ea4b 2703 8bab f8b9 cf9e 9934 ea6e a5bb
00000070: a700 a1bc 2030 34bc 9767 27b9 716d e13b
00000080: 0b6e 1dbd a7a9 39ba dc38 3a3c d2f5 ffab
00000090: 312a 523c 1199 bdb2 251e b801 27fa 0dbc
000000a0: f0cb 46b9 e1ab 8dbb 157e 948c efbf 0280
000000b0: 9fd0 8b3b affc 4f05 c93b 45b8 dffd 808c
000000c0: 00a3 52bc 58c3 b5ac 77a5 83b9 5831 c79a
000000d0: 2168 1aba 88d3 509a 65df 2fba ece5 6db8
000000e0: 961b 84b8 3c7d 1dba b0d3 b3b2 b6ba b3bb
000000f0: d7ff 3cb6 2ec0 8dba 420a 16b3 02b3 88aa
00000100: 4e17 d8b8 ea4c 0796 cc14 fd17 5aeb 4eb9
00000110: adb6 20b8 68ac 6b1e 2bfe abb8 ca1c 3cbb
00000120: 0263 52ba 0270 d681 5afd 7b1d b15d 50af
00000130: 2f7c f420 eb16 edb0 8f40 16b8 31c2 a4b9
00000140: 6c75 6bb2 0df7 fdad 44c7 8dbb e433 47a1
00000150: fcc2 52b5 1e72 0b9b b5b7 11b1 135e afab
00000160: a1ca 351a 0b68 70b8 f8cb 24b3 eaa1 b5b4
00000170: f1ba b3b8 22a7 db1a e6f4 8fb8 b71d 0385
00000180: 6acf afb9 a289 b725 6582 b5b7 c687 3ab5
00000190: ee9b e13c 14a8 11b8 3bb3 bbbb 7d94 2a3c
000001a0: ec62 2c3d 88cd b4bc a577 c43c 71ba 14bd
000001b0: c987 14bd 244c 99bb 7933 c9bb bf7e ccbd
000001c0: 345b a03c f6c8 5b3d 5ca3 debc 12ab 7015
000001d0: c7c1 3e3c e8c8 12bc 8285 a63c 16c2 fb3c
000001e0: 6289 18bc 601e 99bc 2b6f d6bd 31cf 7908
000001f0: 5bd6 6d3d 5fad d5bc 17ef 64b8 d0c0 3ebd
00000200: dcae e6bc 43d2 24bd c344 703b 11e0 e6bb
00000210: 80de 253d 3f37 c6bc d68a 4abd 6838 9515
00000220: 1427 0dbd 686f 9d3a a456 733c 8030 593d
00000230: 0866 903a fa22 9dbc 5f7c 5c3b 3554 603c
00000240: a627 37bd 6081 8d00 a86f 76bc 4bda caba
00000250: 597e cfbd 25fb 54bc 9aab 3dbe 1377 f13e
00000260: 55d4 bd3d 3864 05bf 841c 3fbb 3d5f 0d3e
00000270: 79c3 433d 9adf 6bbe 0854 943e d266 303e
00000280: 3deb 083e d966 023e 7a15 973e 471c 03be
00000290: 1965 943d 137c 1e3c 55a9 c0be 3d2d 20be
000002a0: 3976 45be 5a9a c6be 94c1 12be d0a0 613d
000002b0: d253 2a3e 20ed 4500 de5f ccbe 7480 b7bd
000002c0: 2763 223f 372b 65be 3e3a 5a3d 1161 a93d
000002d0: 4a12 aa3e b849 5e3e 10e6 a23d b4b5 803e
000002e0: 5929 513e 10bb 46be e250 dc3d d312 8a3e
000002f0: 845a cebe 1b5a bebd 7b96 173e 0ead 2b3e
00000300: 5fba 3f3d bdc0 07bf 9018 0c3d 28ab 95a8
00000310: 98a5 423e c0b0 b1be 0a30 e53b 4f1a f63d
00000320: bb40 623c a3ad 073f e8e4 d53b 7652 19bf
00000330: 5fe2 8f3d 3dcb afbc e717 ea3c 8a18 87bd
00000340: cb90 593d bb25 843c 101c d03c 2d70 593d
00000350: fd3e 253e 6c96 5fbd dfa2 673d 8930 2a3a
00000360: f07a e4be bc2a 383d 22c2 39be 8eec 04bf
00000370: 9666 96bc 28a2 b5bb afb3 743c 8633 2f0a
00000380: 70b4 b6be 0c65 d9bd ff52 2a3f 837f 78bd
00000390: 4c1b 6ebd f044 cd3d 8a76 a83e 3de7 323e
000003a0: dd7c 833d 70a2 b63e 4ca5 123d 0744 63be
000003b0: a176 c3bb 8081 dc3e 06a0 dcbe 2a69 3b3d
000003c0: 6de8 2bbc f57c 66bd 233c c2bb 219b 05bf
000003d0: f459 393b 6a86 f627 c200 413c 4d10 a4be
000003e0: 52d9 353d d68d 023e 4c9f a5bd de43 fd3e
000003f0: 0340 053a f1fc 0bbf 6b68 e0bc dfd7 103e
0.0005867783 -1.3650104e-12 -3.4470195e-06 4.0479757e-38 -0.0046756095 0.0012860599 -0.005198902 -3.370816e-30
0.029575666 0.0405245 0.0044121537 -0.052667055 -9.243591e-06 3.314902e-37 -0.016000029 -1.9636783e-37
9.232766e-35 2.2050478e-10 5.4051457e-30 1.63495e-12 1.6462211e-07 0.010717035 -0.008549472 1.4178545e-38
4.9164034e-37 -0.00047430056 2.861402e-07 -0.0050486224 -0.019653631 -0.010997802 -0.00015964951 0.0068795015
-0.038435023 -0.000708247 0.011366095 -1.8187069e-12 0.012827442 -2.2072102e-08 6.763418e-38 -0.008665598
-0.00018958724 -0.004323468 -2.2878893e-31 -2.52524e-40 0.004266813 9.779504e-36 -4.702414e-05 -1.9874316e-31
-0.012856245 -5.166017e-12 -0.00025109548 -8.238419e-23 -0.000589015 -4.3184265e-23 -0.00067090086 -5.6719335e-05
-6.299389e-05 -0.0006007736 -2.0934607e-08 -0.005484904 -2.8163101e-06 -0.001081472 -3.4933926e-08 -2.4282665e-13
-0.000103040235 -1.0929483e-25 1.6354992e-24 -0.00019733366 -3.8317103e-05 1.2476449e-20 -8.201258e-05 -0.0028703683
-0.00080256176 -7.877191e-38 3.3350553e-21 -1.8950776e-10 4.1417386e-19 -1.7250533e-09 -3.582291e-05 -0.000314252
-1.3705499e-08 -2.8872483e-11 -0.004326733 -6.74925e-19 -7.8514836e-07 -1.1534684e-22 -2.1204702e-09 -1.2460609e-12
3.7593605e-23 -5.7317357e-05 -3.8369734e-08 -3.3831685e-07 -8.570206e-05 9.0846295e-23 -6.864387e-05 -6.165048e-36
-0.00033533137 3.1838703e-16 -2.1637601e-05 -6.9487976e-07 0.027540173 -3.472723e-05 -0.005728153 0.010411379
0.042086527 -0.022070661 0.023982832 -0.036310617 -0.036262307 -0.004678266 -0.006140169 -0.099851124
0.019574739 0.05365845 -0.027177505 4.8602565e-26 0.01164288 -0.008959033 0.020327333 0.030732196
-0.009310098 -0.018691242 -0.10470422 7.5174264e-34 0.058065753 -0.026083646 -5.4582106e-05 -0.0465706
-0.028159551 -0.040239584 0.003666208 -0.0070457538 0.040495396 -0.024196265 -0.04944881 6.0269614e-26
-0.034461096 0.0012011351 0.0148522 0.05302477 0.0011016736 -0.019181717 0.0033643467 0.0136919515
-0.044715546 1.2995216e-38 -0.015041269 -0.0015476433 -0.10131521 -0.012999331 -0.18522492 0.4716116
0.09269015 -0.52106047 -0.0029161284 0.13805862 0.04779384 -0.23034516 0.2897036 0.17226723
0.13370986 0.12734546 0.29508573 -0.12803756 0.07245845 0.009673136 -0.3762919 -0.15642257
-0.1928338 -0.38789636 -0.14331657 0.055085003 0.16633537 6.421714e-39 -0.3991689 -0.08960047
0.63432544 -0.22379766 0.0532782 0.08270467 0.33217078 0.21707809 0.07954037 0.25138628
0.20425929 -0.19407296 0.10757615 0.26967487 -0.40303433 -0.0929453 0.14803497 0.16765234
0.046808597 -0.5302847 0.034203112 -1.661655e-14 0.19008482 -0.34705162 0.006994252 0.12016737
0.013809378 0.52999324 0.006527532 -0.5989145 0.07025599 -0.021459216 0.02857585 -0.06596477
0.0531166 0.016131273 0.025404006 0.053085495 0.1613731 -0.054586813 0.05655181 0.00064922177
-0.44625044 0.04496263 -0.18140462 -0.51923454 -0.018359464 -0.005543012 0.014935418 8.435634e-33
-0.35684538 -0.10614976 0.6653289 -0.06066848 -0.0581315 0.100229144 0.32902938 0.17471023
0.064203 0.35670805 0.03580217 -0.22193919 -0.0059650694 0.4306755 -0.43090838 0.04575459
-0.010492426 -0.056271512 -0.005927579 -0.5218983 0.0028282376 6.842445e-15 0.011779966 -0.32043687
0.044396706 0.12749419 -0.08087024 0.4946584 0.0005083086 -0.5468283 -0.02739354 0.14144848

net.2.bias f4 [50]
00000000: 124f f8bb ee4d 38bb 495f 3d3c b265 203e
00000010: d211 823d 2c8b d03d 738e 9a3d fcd1 d2bd
00000020: 9c8a 723d 55dc 313d aaa9 e3bd f0b1 8b3d
00000030: 6c7c 703d 4b19 a4ba 97c3 3d3e 3dd7 b03c
00000040: 8eea a43d 9497 fa3d 1041 6c3d 2384 25ba
00000050: 4c10 b83d 23cc 22b9 7ed2 acbd ffb1 cd3d
00000060: 8f2f 7aa1 cf58 1e3d 86be 6dbd cb90 9fbb
00000070: ac81 6bbb 4537 063e 254c 74bd b4ba adbd
00000080: b9b6 223e 6df2 db3d 0fd8 d7ad fc78 33bd
00000090: b400 8ebd 7aeb 503e 84f1 a8bd a37d f73d
000000a0: 4710 763d 0f8a 393c 4f3c f3b4 0a17 603d
000000b0: 17eb 853d 89c1 3bbd 12fa a1bd 5da7 98bd
000000c0: 7b24 8a3d 3e0e 393e
-0.0075777853 -0.0028122622 0.011558362 0.15663794 0.06351055 0.10182795 0.07546701 -0.102939576
0.05921422 0.043423016 -0.11116345 0.06821048 0.058712408 -0.0012519745 0.18531643 0.021587009
0.0805255 0.122359425 0.057679236 -0.00063139404 0.089874834 -0.00015525571 -0.08438586 0.10043716
-8.476624e-19 0.038658913 -0.058043025 -0.0048695556 -0.0035935445 0.13107021 -0.05964293 -0.084828764
0.15890016 0.107395984 -2.453862e-11 -0.04381655 -0.06933728 0.20402327 -0.082491904 0.1208451
0.060074117 0.01132442 -4.5306157e-07 0.05470947 0.065389805 -0.045838866 -0.07909025 -0.07453797
0.06745239 0.18071839

net.4.weight f4 [1, 50]
00000000: d8a5 00bd 16f0 8dbc 2524 a8bd 5a82 483e
00000010: 0e09 913e fbbd 793e a00b b73e 771b e53c
00000020: eef1 ba3e 3e1b 953e 9376 1bbf dd90 d33e
00000030: 976e 60be c8ff 2a18 7a63 9a3e a6fe b63e
00000040: 4938 803e 1d34 4fbe edfa 933e b01d 5c3b
00000050: 1925 d13e 06eb a415 18fd bebe eb1a 69be
00000060: dc43 fd1f 2c8d 96be c027 81be 7473 dabe
00000070: c26a 2c90 1f46 57be 1ad5 96be fe13 98be
00000080: 1b2e a43e 7fd5 b63e d799 832e 1d72 853e
00000090: b247 9bbe 7476 8a3e 6358 83be 280f b03e
000000a0: f9b4 b43e 081d abbe 8264 93bb 159b 63be
000000b0: 1fec 2fbe 8015 8fbe 60db 55be 82ce e8be
000000c0: d830 8cbe e4ba 9e3e
-0.03140816 -0.017326396 -0.08210019 0.19580975 0.2832722 0.24388878 0.35751057 0.027967198
0.36512703 0.29122347 -0.60727805 0.4132146 -0.21917187 2.2101122e-24 0.3015402 0.35741156
0.25042942 -0.20234723 0.2890238 0.003358703 0.40848616 6.6609874e-26 -0.3730247 -0.22764175
1.0726193e-19 -0.2940458 -0.2522564 -0.4266621 -3.4003262e-29 -0.21022843 -0.2945946 -0.29702753
0.32066426 0.3570976 5.984518e-11 0.26063624 -0.30328137 0.27043498 -0.2565337 0.34386563
0.3529432 -0.33420587 -0.0044980654 -0.22227128 -0.17179917 -0.2794609 -0.20884466 -0.45470053
-0.27381015 0.3100196
