data/models/heart_attack/heart_attack_200x6.pth (torch, 821810 bytes, 14 tensors)

net.0.weight f4 [200, 13]
0.115893535 0.7489422 -0.90761554 -0.087683804 0.070230156 -0.06881607 -0.1563953 0.1406935
0.74027157 0.6367593 -0.42102936 0.7420385 0.4570933 4.7210917e-05 -2.2803652e-06 -2.1642074e-05
-0.00037064086 -0.0007968212 -1.8778984e-06 -2.7162193e-07 0.0005062422 2.4871788e-06 -1.3039069e-06 -1.9329533e-05
4.7380245e-06 -6.862449e-06 -1.1350321e-38 7.0804825e-19 -1.4956617e-35 -5.67163e-11 -6.077908e-39 -1.00441684e-25
-4.260126e-29 3.737751e-38 1.2705121e-37 -6.961828e-38 -4.0598785e-17 1.035576e-11 -2.5953168e-31 -0.0026074937
-1.1589611e-10 1.904144e-24 0.045994714 -0.12500344 8.219819e-15 1.0720769e-17 0.029521747 -5.856587e-11
-4.8404723e-07 -1.4797228e-11 -2.6797568e-26 -1.8673242e-07 0.1737551 0.4378835 -0.46100485 0.07685065
-0.112514175 -0.08773008 -0.13747644 0.11266173 0.6563991 0.4097556 -0.26521084 0.3734003
0.120621584 1.2695773e-23 2.5451855e-35 -5.0465597e-11 3.5679525e-25 -3.4427617e-11 -2.875161e-38 1.9078848e-32
1.2124311e-27 7.0963084e-17 6.820296e-37 7.315186e-36 5.27789e-40 -2.6502203e-35 -0.2776677 -0.31735674
0.046597082 -0.2627178 0.26644155 -0.25797173 -0.023748148 -0.20490846 -0.30122408 -0.07734249
0.08242369 -0.13340397 -0.13467777 0.03154235 -0.5698778 0.76166296 0.01698123 -0.055613853
-0.0025891722 0.060927685 0.15916516 -0.8788269 -0.74430496 0.14840698 -0.8252609 -0.36849418
-0.17910333 0.2899002 -0.56371665 0.15837769 0.10482836 -0.0479881 -0.18326826 -0.24745226
0.21732864 0.22634839 -0.23695867 0.16066124 0.3622788 0.18798433 0.68475676 -0.7878628
0.17100634 -0.049511526 -0.08377706 -0.24658671 -0.0778052 0.9176316 0.79646397 -0.39744973
0.62577593 0.4749877 -3.8334664e-09 1.0270367e-17 -6.5310922e-18 -7.487276e-16 -4.4784185e-09 5.557643e-14
3.81724e-19 6.5907427e-16 2.552233e-17 4.714201e-15 6.774753e-18 3.834887e-17 -3.4087066e-14 -5.7404677e-06
2.0801309e-32 2.8851277e-31 -0.00030340484 -0.0010331565 2.4867477e-18 -1.2595412e-36 -0.0001593475 -3.2076919e-24
-9.7947345e-21 5.0448194e-29 1.4439074e-35 -1.131852e-19 -7.4912e-39 -1.0182477e-37 -6.2376135e-30 -5.2278154e-32
-1.2056948e-15 3.1824045e-33 1.8149268e-23 -2.0077075e-35 9.96473e-35 1.9824012e-38 -5.3790644e-35 6.349575e-39
4.9077714e-17 -0.0040590405 -1.12104596e-17 -4.167755e-12 -0.009206536 -0.013831579 -2.673181e-13 -9.532878e-11
-0.011028413 -9.706033e-21 3.5195864e-22 2.7054158e-16 -1.2762854e-11 -3.9241407e-14 0.05652668 -0.776682
0.7780177 -0.097814284 -0.04602818 0.19201702 0.1808326 0.2612234 -0.50347775 -0.5501501
0.1706739 -0.6088851 -0.47688016 0.20166817 0.82533807 -0.69359404 -0.16980934 0.1359954
0.07669366 -0.22639677 -0.13737212 0.6044237 0.50393915 -0.06500812 0.6021394 0.32912385
-0.01920503 -0.049832683 -0.0049110088 -0.019304607 -0.018001651 0.0012954734 -0.016851248 -0.01769209
-0.031242494 -0.0058586206 -0.013137087 -0.0011715572 -0.047067884 0.18225493 0.5240443 -0.6448719
-0.17927013 0.2147243 -0.094700195 -0.13854742 -0.025919095 0.4545147 0.5125829 -0.14790663
0.34070978 0.17945816 0.24029331 0.36923248 -0.47749534 0.27752548 -0.15843767 -0.024261432
-0.03506308 -0.15564322 0.45831358 0.59082955 -0.1477972 0.4906254 0.15899618 0.1018016
-0.23056185 0.3447671 0.20958431 -0.23222016 0.28244394 0.17202169 0.069653615 -0.077023394
00000000: 9759 ed3d adba 3f3f 7e59 68bf 9193 b3bd
00000010: d4d4 8f3d 71ef 8cbd 1726 20be f511 103e
00000020: 7082 3d3f a802 233f 2991 d7be 3cf6 3d3f
00000030: 2208 ea3e 5604 4638 6008 19b6 008c b5b7
00000040: 9352 c2b9 c4e1 50ba 190c fcb5 6fd3 91b4
00000050: 57b5 043a 68e9 2636 e601 afb5 db25 a2b7
00000060: 52fb 9e36 fd43 e6b6 1498 7b80 9dfa 5021
00000070: c90b 9f85 e070 79ae bc2e 4280 7bae f895
00000080: 9903 5890 a580 4b01 e3ee 2c02 dc84 bd81
00000090: 963a 3ba4 322e 362d 1972 a88c 7ce2 2abb
000000a0: b6db feae 7553 1318 f464 3c3d e700 00be
000000b0: 3913 1428 66c3 4523 97d7 f13c a7c9 80ae
000000c0: 79ef 01b5 6528 82ad f4b1 0495 9e80 48b4
000000d0: dbec 313e 4432 e03e d408 ecbe e063 9d3d
000000e0: d56d e6bd d4ab b3bd a0c6 0cbe 31bb e63d
000000f0: c509 283f 7ccb d13e b7c9 87be 532e bf3e
00000100: 7308 f73d 6c92 7519 4553 0706 36f3 5dae
00000110: 77d8 dc16 0d6a 17ae e589 1c81 4720 c60a
00000120: 0c1e c012 36a1 a324 2815 6803 a993 1b05
00000130: 43bf 0500 eee8 0c86 762a 8ebe 957c a2be
00000140: 95dc 3e3d f382 86be 076b 883e df14 84be
00000150: 7a8b c2bc 86d3 51be 0b3a 9abe bd65 9ebd
00000160: c0cd a83d 0d9b 08be f8e8 09be 8d32 013d
00000170: 83e3 11bf 58fc 423f 381c 8b3c 5acb 63bd
00000180: 1aaf 29bb 4f8f 793d 31fc 223e cdfa 60bf
00000190: c58a 3ebf 00f8 173e 4c44 53bf 45ab bcbe
000001a0: dd66 37be cd6d 943e bc4f 10bf c32d 223e
000001b0: 40b0 d63d 2c8f 44bd adaa 3bbe 2064 7dbe
000001c0: 668b 5e3e dfc7 673e 4ba5 72be 6184 243e
000001d0: 9b7c b93e f77e 403e 384c 2f3f 60b1 49bf
000001e0: 491c 2f3e 99cc 4abd 4f93 abbd 3a81 7cbe
000001f0: 5558 9fbd e8e9 6a3f 10e5 4b3f 887e cbbe
00000200: da32 203f 9631 f33e 87b7 83b1 7074 3d23
00000210: 6cf4 f0a2 58ce 57a6 96e0 99b1 434b 7a29
00000220: 8054 e120 19f7 3d26 e666 eb23 d4d8 a927
00000230: bcf1 f922 5bda 3024 b683 19a9 3e9e c0b6
00000240: 5d03 d80a 6841 bb0c 4f12 9fb9 fb6a 87ba
00000250: 567d 3722 c24c d683 8516 27b9 e22e 7898
00000260: 6e04 399e 80cd 7f10 e68a 9905 21a0 05a0
00000270: 6b92 5180 c198 0a82 1507 fd8e cbb8 878b
00000280: 49c2 ada6 2131 8409 6987 af19 ff7e d585
00000290: 3874 0407 48dd d700 0400 8f86 0824 4500
000002a0: bd54 6224 b301 85bb e6cb 4ea3 cda3 92ac
000002b0: 03d7 16bc d99d 62bc 997c 96aa 55a1 d1ae
000002c0: 84b0 34bc 7f57 379e f6be d41b e4f4 9b25
000002d0: c986 60ad 43ba 30a9 8588 673d a2d4 46bf
000002e0: 2b2c 473f db52 c8bd 0b88 3cbd 1ca0 443e
000002f0: 2e2c 393e 13bf 853e ebe3 00bf a3d6 0cbf
00000300: 24c5 2e3e e5df 1bbf a329 f4be 1a82 4e3e
00000310: 5b49 533f 618f 31bf 80e2 2dbe 6142 0b3e
00000320: 9111 9d3d 8ed4 67be 47ab 0cbe 83bb 1a3f
00000330: 2802 013f fa22 85bd cf25 1a3f ec82 a83e
00000340: de53 9dbc 5b1d 4cbd 87ec a0bb b224 9ebc
00000350: 3378 93bc e0cc a93a a10b 8abc 00ef 90bc
00000360: 42f0 ffbc acf9 bfbb f03c 57bc f08e 99ba
00000370: 41ca 40bd 09a1 3a3e c427 063f 5316 25bf
00000380: 9792 37be b0e0 5b3e 2df2 c1bd 60df 0dbe
00000390: 4854 d4bc 27b6 e83e a238 033f d674 17be
000003a0: 8371 ae3e e1c3 373e 730f 763e 0a0c bd3e
000003b0: 457a f4be d217 8e3e 7c3d 22be e9bf c6bc
000003c0: 4e9e 0fbd f060 1fbe 14a8 ea3e 9b40 173f
000003d0: 2658 17be 4133 fb3e e5cf 223e 5b7d d03d
000003e0: 6818 6cbe 5085 b03e 459d 563e 1fcb 6dbe
000003f0: 7e9c 903e 7426 303e 8ea6 8e3d 71be 9dbd

net.0.bias f4 [200]
-0.11194492 -2.6866446e-06 -4.97126e-40 5.4360445e-18 0.048688993 4.305824e-22 0.02201049 -0.05830206
0.04418176 0.18009403 -5.717271e-18 -1.531329e-27 -4.85488e-39 5.0598425e-20 -0.0854632 -0.10547038
-0.017125415 0.07135531 0.03523249 0.006770388 -9.600419e-10 0.029108588 -0.014850737 -0.004382675
-0.001555327 0.19243227 -0.0011954095 0.066248074 -0.11009797 -5.5187998e-06 -1.8274242e-34 -0.0081714345
-2.8270536e-15 -0.12623787 -2.152348e-15 0.052806634 -0.009898602 6.8239165e-27 -0.0019341076 0.07487262
0.12262875 -0.0707363 5.2334155e-05 -0.028314363 -0.078783266 8.959097e-17 0.0008310669 0.0052288547
-1.0728165e-14 0.056253374 -0.026558027 1.2290139e-35 0.022258783 -9.802535e-30 -0.20499511 -1.2671241e-19
-0.14704478 0.066510394 -0.14758782 -0.0842882 -0.103258274 -0.07009396 0.0062531913 -0.00921542
-0.049090043 1.8896704e-20 -2.5508288e-07 0.048483618 2.3894627e-17 -0.07236683 -0.13854133 -0.06207357
-0.0015108738 2.7058023e-15 -1.0296785e-37 -0.07541904 2.7022655e-18 -1.2207981e-05 -3.8350498e-14 0.01902059
0.00996372 0.011090815 0.027583987 -3.655897e-05 0.029556334 3.465532e-39 -4.2479464e-11 0.112182826
-1.0754369e-07 7.91624e-37 0.005318588 -1.3581245e-38 -0.08164416 -0.05536865 -0.07732642 -0.15003455
-0.07303821 0.05938096 0.041885115 -0.10885668 -3.190861e-36 -0.038546663 0.008175804 0.10906531
-2.8950795e-38 0.07625442 1.4577934e-38 0.037617367 1.3943387e-29 -0.065114126 -0.17854439 1.4056186e-19
-0.1058077 -0.028831946 -0.02660337 -0.08414596 0.020801323 2.1712422e-18 -0.05268522 0.100309245
-0.1548596 -2.0705307e-11 0.060333967 -9.0134714e-13 0.07144649 -1.3117206e-05 -0.053060584 -0.062457748
0.0003886102 -0.04987539 0.023509534 0.03974217 0.10039083 -0.11543411 -0.10237844 -4.6155643e-34
-0.080745704 -0.15135849 0.083658144 3.6442016e-25 0.006340782 -0.028058482 -0.10796018 -0.050786357
0.0044729714 -8.130385e-15 0.0047195703 0.056293584 0.060426448 0.0778169 0.027547901 0.032863308
-0.017931677 0.00067675393 -0.013984471 0.016981814 -0.12479002 3.718799e-33 -0.016776307 -1.8557881e-19
-0.16696674 -0.08882101 1.070874e-24 1.5840159e-07 -1.0066212e-13 0.032231133 -7.8932544e-07 0.0066155177
-0.028301742 -0.10912357 -0.07056591 -6.095033e-08 0.03882747 0.0829406 -0.09214782 -0.116643056
-0.10755818 0.07120683 1.4169849e-37 -0.018891605 2.0745905e-07 1.2533443e-35 5.7373923e-12 1.5758651e-29
0.0023444074 -0.19261646 1.8059138e-36 -5.0083534e-05 -0.010748101 0.043862894 -0.16289642 -0.18143927
0.06540418 7.428785e-13 -0.06731196 -0.007272268 -1.9323957e-07 -0.14883183 0.042018805 -0.050945945
00000000: 6143 e5bd 344c 34b6 c969 0580 fd8d c822
00000010: 1c6e 473d b322 021c 584f b43c 24ce 6ebd
00000020: eff7 343d 926a 383e 19ee d2a2 16a6 f292
00000030: 6edd 3480 bef1 6e1f 5507 afbd db00 d8bd
00000040: 994a 8cbc bc22 923d f24f 103d 22da dd3b
00000050: 79f2 83b0 2275 ee3c 8150 73bc 8b9c 8fbb
00000060: 1ddc cbba f70c 453e 49af 9cba 12ad 873d
00000070: 0b7b e1bd 212e b9b6 06e8 7287 7be1 05bc
00000080: efb5 4ba7 8044 01be d017 1ba7 c54b 583d
00000090: bf2d 22bc 5e29 0714 e281 fdba d156 993d
000000a0: c824 fb3d 31de 90bd 5f81 5b38 86f3 e7bc
000000b0: 1f59 a1bd 2d95 ce24 f5db 593a d056 ab3b
000000c0: ee42 41a8 f069 663d 3890 d9bc f1b0 8205
000000d0: 0d58 b63c acd1 468f 3dea 51be 7a98 15a0
000000e0: e892 16be 9a36 883d 4321 17be 4b9f acbd
000000f0: 1379 d3bd 6c8d 8fbd 92e7 cc3b 46fc 16bc
00000100: a412 49bd 6d79 b21e 53f2 88b4 c296 463d
00000110: 9863 dc23 1035 94bd c7dd 0dbe db40 7ebd
00000120: 8308 c6ba 3ef9 4227 0f27 0c82 4c75 9abd
00000130: 5a64 4722 e1d0 4cb7 1db7 2ca9 12d1 9b3c
00000140: df3e 233c 40b6 353c d0f7 e13c e556 19b8
00000150: 2020 f23c 7ebc 2500 a0d3 3aae 1cc0 e53d
00000160: c5f2 e6b3 17b0 8603 8d47 ae3b fce2 9380
00000170: 0e35 a7bd 3dca 62bd 505d 9ebd a8a2 19be
00000180: 0f95 95bd 7339 733d ba8f 2b3d 40f0 debd
00000190: 66b9 8784 1be3 1dbd cff3 053c a25d df3d
000001a0: 859f 1d81 472b 9c3d 59bd 9e00 ab14 1a3d
000001b0: 1a67 8d0f 8e5a 85bd 57d4 36be 37f2 2520
000001c0: b5b1 d8bd f930 ecbc 50ef d9bc b854 acbd
000001d0: 8967 aa3c 9b35 2022 75cc 57bd ef6e cd3d
000001e0: 8493 1ebe 3520 b6ad c020 773d e8b4 7dab
000001f0: 8a52 923d f911 5cb7 0e56 59bd b2d3 7fbd
00000200: 61be cb39 234a 4cbd 1197 c03c b0c8 223d
00000210: b599 cd3d b868 ecbd caab d1bd e160 1988
00000220: 015e a5bd b8fd 1abe f654 ab3d ae90 e116
00000230: 56c6 cf3b e7da e5bc 3a1a ddbd 5b05 50bd
00000240: 0192 923b c876 12a8 a0a6 9a3b 1a94 663d
00000250: b981 773d 785e 9f3d 23ac e13c ad9b 063d
00000260: 74e5 92bc 3068 313a 1f1f 65bc 721d 8b3c
00000270: e991 ffbd 0e79 9a09 776e 89bc c117 5ba0
00000280: 54f9 2abe cae7 b5bd b1b5 a517 1915 2a34
00000290: c3ab e2a9 cb04 043d 08e2 53b5 fcc6 d83b
000002a0: 0ed9 e7bc 2e7c dfbd dc84 90bd cce3 82b3
000002b0: 8e09 1f3d c3dc a93d ffb7 bcbd 8ee2 eebd
000002c0: 7747 dcbd e3d4 913d b8de 4002 91c2 9abc
000002d0: e9c1 5e34 4747 8505 d6dd c92c cccf 9f0f
000002e0: a1a4 193b 403d 45be 52a1 1904 c910 52b8
000002f0: ce18 30bc 94a9 333d 52ce 26be 37cb 39be
00000300: a0f2 853d 0a1a 512b dada 89bd 354c eebb
00000310: 4a7d 4fb4 5f67 18be e91b 2c3d b2ac 50bd

net.2.weight f4 [200, 200]
-0.0043555684 5.7754656e-38 -1.0972722e-38 -6.9045603e-37 -8.8595144e-08 8.747359e-39 1.0414471e-38 9.459052e-05
-6.949738e-39 -2.904635e-39 -8.138453e-39 1.567787e-39 3.718107e-39 7.291386e-39 3.771971e-09 1.3459271e-38
7.247538e-38 8.571346e-06 4.3360894e-38 -1.125777e-37 1.792401e-39 -5.632551e-06 -0.0010682516 2.2688244e-38
-2.1136477e-38 2.09383e-40 -1.6973519e-38 8.782372e-22 4.5524717e-29 7.277443e-39 -3.356505e-38 -6.9380277e-38
9.88334e-40 -1.00285824e-07 -3.8646878e-38 -2.39682e-39 0.0039310753 -7.720824e-39 -4.804964e-39 1.7160803e-37
0.0014269155 0.000662647 8.81481e-40 6.361845e-39 0.0033245385 9.73113e-39 -9.229124e-39 0.00028798688
2.569352e-39 4.2364568e-38 -2.8968585e-05 -1.1077447e-38 -3.195082e-06 4.074141e-39 -2.0063022e-05 -3.1988197e-38
-3.208705e-37 1.849361e-39 3.105382e-39 -0.000108999986 0.0059084524 3.1336705e-38 -0.00020372633 1.7040242e-07
1.5402485e-37 -1.240355e-38 -1.3154608e-38 8.5214015e-05 8.937947e-39 3.1268577e-18 -0.0019471479 5.769451e-39
6.517993e-05 -8.420845e-39 -1.8131825e-38 -1.2866004e-05 8.646401e-39 -1.989155e-38 6.084382e-39 -9.153638e-06
-0.00031899236 -4.3602186e-06 -0.00016057164 2.1967826e-37 7.956822e-07 6.955477e-39 2.388129e-38 -7.3994335e-09
9.318772e-39 -8.11851e-39 0.0007063661 -9.264137e-39 0.0016874762 -3.3238145e-21 4.4803622e-13 -2.3782364e-38
-0.00021869806 0.0014466197 -0.0004813882 -1.5426522e-07 5.9435e-41 -0.0044040657 -0.0014843325 2.8717235e-38
-2.2422924e-38 3.1506276e-38 1.2850079e-38 5.1125526e-09 4.4753221e-38 8.8424115e-11 1.3934599e-28 -1.4361605e-38
-3.629791e-05 0.00096098974 -1.1496033e-05 -3.876883e-05 3.8196818e-10 -2.022128e-37 -7.321578e-21 0.00013446971
0.002105934 -1.1786845e-38 -1.5324224e-15 3.4099844e-38 4.0654896e-25 -1.780411e-39 -0.0037836821 0.0009078412
9.967685e-09 -0.006635904 0.00058424036 -1.3386798e-09 -1.995936e-15 -0.0034497713 0.00048110794 -4.1555478e-38
-0.00012103361 -0.0014350521 0.00012270692 -6.045174e-39 -4.4535267e-10 -0.003374805 1.1541631e-22 -1.5170527e-05
0.00013472792 -1.4361443e-37 -3.041709e-39 2.7135417e-19 1.1610367e-37 -6.656509e-06 -3.9854178e-05 -7.432774e-39
2.1172779e-38 0.00019935041 -0.0024862716 0.0002770425 -3.332134e-06 8.056013e-39 -1.3447082e-37 2.6775826e-38
-0.00014522056 -1.2644815e-11 -1.4757344e-37 1.261516e-39 1.1272409e-38 -2.4191176e-38 -3.3765108e-38 -0.00018773068
-0.0003377961 2.4733874e-38 -1.083688e-38 -2.6527942e-38 7.7147e-31 5.8881e-06 -3.248474e-06 -4.9077258e-05
-0.0011294266 -2.3472077e-38 2.593809e-39 -1.5796821e-37 1.4534028e-38 1.706375e-39 1.089795e-39 -5.6549747e-38
-2.695453e-06 5.3448495e-09 2.8331693e-38 -3.4694995e-38 1.3942438e-38 -1.06928816e-13 -1.0750152e-37 -0.0049518277
8.978088e-09 1.6768113e-38 -9.424288e-39 1.902192e-38 1.0781518e-38 0.00014171838 -0.002025187 -2.8086372e-08
-0.0009073812 8.760734e-39 5.3920586e-38 -1.1287936e-38 1.5886506e-35 1.2465347e-37 -7.899296e-39 -9.609108e-10
-1.2488938e-12 -2.0378873e-27 3.321781e-38 -1.3254334e-38 8.5781416e-38 -1.04017e-40 -5.661161e-11 7.5380855e-38
2.251767e-38 -0.0002490306 6.214898e-31 -3.043517e-39 -7.939023e-39 -0.00053188525 -0.00025656595 -2.7589992e-38
1.7045742e-38 -4.376817e-30 4.4384543e-38 -3.7821614e-05 9.640976e-38 -6.233121e-39 1.90272e-39 2.09022e-39
1.1704945e-38 -8.832371e-05 7.331201e-38 -3.4231266e-38 -0.0010206852 -1.0813788e-38 4.1865103e-38 -7.410881e-07
-0.00011542487 3.601772e-20 -1.4492655e-37 -1.4134717e-38 -0.0017451635 3.980496e-39 -1.433556e-39 -0.00029384217
-1.1273481e-38 -1.3034618e-05 -1.9826153e-07 -1.6300824e-37 -2.6942575e-05 -1.576001e-39 -2.4785273e-05 -2.6372729e-38
00000000: 28b9 8ebb 1f39 9d01 7c7b 7780 34f3 6a83
00000010: b241 beb3 1440 5f00 4f67 7100 e65e c638
00000020: 0bad 4b80 f1a0 1f80 b29e 5880 5a12 1100
00000030: 927c 2800 6b65 4f00 9c9a 8131 f98e 9200
00000040: f84b c501 a7cd 0f37 4414 6c01 9a3b 1982
00000050: 7c84 1300 3fff bcb6 9304 8cba 980d f700
00000060: e627 e680 ad47 0200 44d3 b880 28b7 841c
00000070: 76d6 6610 8d3e 4f00 dabe 3681 ffde bc81
00000080: 13c3 0a00 b75c d7b3 e369 5281 5c19 1a80
00000090: 40d0 803b 8412 5480 4952 3480 ac94 6902
000000a0: 5707 bb3a 7db5 2d3a 3699 0900 3c46 4500
000000b0: 80e0 593b 6ef6 6900 0b7f 6480 f2fc 9639
000000c0: 4ffa 1b00 97a7 6601 9001 f3b7 6a9f 7880
000000d0: 176b 56b6 0c5d 2c00 034d a8b7 0a29 2e81
000000e0: 875f da82 4423 1400 8bd0 2100 ec96 e4b8
000000f0: b19b c13b fe9c 2a01 5f9f 55b9 dcf7 3634
00000100: d4a5 5102 0d10 8780 b23d 8f80 edb4 b238
00000110: 5c53 6100 acb8 6622 7137 ffba e2d2 3e00
00000120: 35b1 8838 e4b1 5b80 2770 c580 11db 57b7
00000130: a626 5e00 8c99 d880 c840 4200 9392 19b7
00000140: 6e3e a7b9 fe4d 92b6 1f5f 28b9 5a81 9502
00000150: dd96 5535 0abd 4b00 a905 0201 1b3e feb1
00000160: f278 6500 1a67 5880 6d2b 393a a5e0 6480
00000170: 4e2e dd3a ec23 7b9d d338 fc2a c77b 0181
00000180: 5052 65b9 819c bd3a d562 fcb9 1aa4 25b4
00000190: aea5 0000 fb4f 90bb ef8d c2ba fc59 1c01
000001a0: fd29 f480 5789 2b01 cbec 8b00 7daa af31
000001b0: e3a8 7301 5a72 c22e 5ca4 3011 5062 9c80
000001c0: 963e 18b8 eeea 7b3a 16df 40b7 b79b 22b8
000001d0: 3efd d12f 709e 8982 fb4c 0a9e 7000 0d39
000001e0: b603 0a3b ee58 8080 68d8 dca6 3fa8 3901
000001f0: 41a4 fb16 1063 1380 a7f7 77bb 31fc 6d3a
00000200: 583e 2b32 ff71 d9bb b527 193a 9cfc b7b0
00000210: 85d2 0fa7 8f15 62bb 373d fc39 e23f 6281
00000220: 6dd3 fdb8 5c18 bcba e3aa 0039 7cd3 4180
00000230: d1d5 f4af d52b 5dbb 9e87 0b1b eb84 7eb7
00000240: c045 0d39 537a 4382 0c1f 2180 e22d a020
00000250: 3908 1e02 fa5a dfb6 1929 27b8 8def 5080
00000260: 188d e600 b808 5139 b7f0 22bb 0440 9139
00000270: a09d 5fb6 e3b8 5700 3e08 3782 0ec8 1101
00000280: 5946 18b9 2f73 5ead d7dd 4882 98bc 0d00
00000290: e4be 7a00 94b5 0381 b1d5 3781 92d9 44b9
000002a0: 3a1a b1b9 fda9 0601 d000 7680 8e6e 1081
000002b0: 385b 7a0d 6592 c536 5c00 5ab6 4ed8 4db8
000002c0: 4509 94ba 9a96 ff80 7c3e 1c00 e303 5782
000002d0: f542 9e00 ae94 1200 e8dd 0b00 6cf1 9981
000002e0: 88e3 34b6 cba5 b731 9e40 1a01 c4e5 3c81
000002f0: d8d1 9700 44c8 f0a9 d052 1282 f142 a2bb
00000300: 0c3e 1a32 ad96 b600 159f 6680 6021 cf00
00000310: 7c66 7500 3d9a 1439 00b9 04bb 9642 f1b2
00000320: 52dd 6dba 5d65 5f00 2ac9 9201 2cea 7a80
00000330: 2fef a805 65ab 2902 0604 5680 0b11 84b0
00000340: 24c4 afab 4475 2193 dfda 3401 b153 9080
00000350: ec84 e901 f521 0180 02fb 78ae ca34 cd01
00000360: 1a32 f500 5290 82b9 5aaf 490d 1624 2180
00000370: c472 5680 376e 0bba b383 86b9 d636 1681
00000380: 989c b900 778b b18e 06a7 7101 a6a2 1eb8
00000390: e639 0302 68df 4380 02b8 1400 afc2 1600
000003a0: a074 7f00 6e3a b9b8 0493 c701 6c5f 3a81
000003b0: 83c8 85ba 71c0 7580 70ef 6301 30ef 46b5
000003c0: 4110 f2b8 c016 2a1f 8843 4582 d7e9 9980
000003d0: f8bd e4ba 0158 2b00 2c9c 0f80 d40e 9ab9
000003e0: e1c1 7a80 42af 5ab7 b7e1 54b4 15e0 5d82
000003f0: bd02 e2b7 4029 1180 f8e9 cfb7 3896 0f81

net.2.bias f4 [200]
7.400063e-37 8.252257e-37 -0.03247469 0.00042703925 -0.00063571497 -0.041643627 -6.299618e-38 -1.5703561e-07
-1.5385404e-35 -2.8066042e-37 -0.03515338 -0.014982577 -1.328175e-13 -0.010643224 2.6877681e-36 -0.03804972
-0.039178185 -1.3681548e-38 -7.083357e-36 -1.0137957e-37 1.3811446e-36 0.046989087 -0.004818488 8.5807955e-29
0.011335025 -0.00039114468 -2.9905762e-17 -0.00038856396 -8.332759e-05 1.2647099e-06 -2.1399174e-34 -0.015577325
-1.3533534e-37 -1.6058417e-33 7.909104e-05 -1.7145347e-05 -0.04085049 1.8572049e-06 -0.0029128517 0.0011785547
-0.014467224 2.0319228e-34 0.0057315887 9.617905e-30 0.029520003 -0.0078307735 0.04200677 -0.04558002
-5.5106415e-14 1.4393054e-34 1.8858437e-12 -4.0814128e-22 0.026788827 -1.5961996e-09 1.6507827e-33 1.4177258e-33
0.0004491049 0.015528008 1.3228308e-36 9.502707e-38 -1.2783265e-06 -0.0003230349 -4.2263954e-31 2.3719707e-05
-0.0010700165 -3.1417995e-37 -0.0015080295 -9.725749e-08 -0.03901655 -0.040842872 0.00028439032 6.6092316e-37
1.1303546e-05 -0.02151373 -2.3261545e-31 -0.002691611 7.969346e-37 -8.513683e-07 0.00047304152 -0.0046338206
-3.4262703e-29 5.172633e-37 -2.0927869e-12 0.04818551 -0.020661896 0.00018325837 -1.5258012e-08 -0.011450304
-0.02997215 -0.00019154465 -5.0952206e-08 5.0410864e-07 7.512277e-14 -9.366896e-06 -0.0008406934 -0.00076082186
-0.01407132 -0.0042739804 -0.0010641762 -1.37752365e-36 -0.048476957 -0.0028406673 -0.002090506 5.243692e-34
6.8911223e-09 -0.027388582 -0.00040654792 2.0749243e-24 3.5492175e-35 0.006205311 -7.47283e-39 0.00028282352
-1.137669e-38 -0.027131267 1.2535477e-05 5.3921e-37 -0.028076267 -2.459398e-07 -0.0059799007 -6.4725805e-33
-0.071827665 -1.3813532e-06 -0.00055975304 -2.0841921e-06 -3.0715525e-34 0.05033499 -6.314015e-08 -1.0028023e-34
-9.131851e-05 -0.00032066126 0.0011314909 -0.027981946 -0.03190423 -3.2261533e-09 5.9747493e-38 -4.5144464e-30
3.418867e-25 -5.7086363e-05 -8.3358655e-35 -2.6561149e-05 6.0207856e-35 0.0005058462 -0.035208836 -0.0007944302
-0.020674549 0.033437878 -0.0045184745 -0.020355988 0.01466621 -6.2555215e-37 -2.560154e-39 1.2715203e-30
-7.665606e-36 6.528805e-06 -8.1801636e-35 0.032416146 -9.983781e-26 -0.0001866932 -0.024005864 -7.0633614e-19
0.00038176213 -5.3027443e-38 0.004586294 -0.037250556 -0.004742815 -1.865731e-06 -0.007999841 -1.7311666e-16
0.000526596 2.8299413e-38 0.0011690021 4.7194828e-08 -0.023801073 -0.0006496302 -6.995495e-33 -2.5850359e-06
-7.6372345e-15 -0.00036241813 -3.500896e-09 2.3986303e-30 0.0011035285 -0.0071350713 5.3753095e-36 -0.00490674
-5.083325e-09 -6.7768415e-06 -5.695262e-07 -3.2522214e-11 -0.002763935 -1.8568524e-18 -0.013034539 0.026744936
5.3332446e-05 9.514509e-25 -0.019061778 -1.3859579e-05 5.680736e-38 -3.2832133e-32 -4.0409748e-35 0.012157959
00000000: a4cf 7b03 a667 8c03 2e04 05bd 3de4 df39
00000010: 1ca6 26ba 8292 2abd ee7d ab81 9f9d 28b4
00000020: 0e9b a385 f101 bf82 fefc 0fbd 7c79 75bc
00000030: 0a8a 15aa eb60 2ebc 68a6 6404 06da 1bbd
00000040: 4e79 20bd 97fa 9480 77a5 1685 a0fd 0982
00000050: 55fd ea03 a177 403d 68e4 9dbb 8c8c d910
00000060: 8ab6 393c 8d12 cdb9 7eea 09a4 2cb8 cbb9
00000070: 29c0 aeb8 1abf a935 cf38 8e87 0938 7fbc
00000080: 7c35 3882 7a68 0589 aedd a538 5ad3 8fb7
00000090: d852 27bd 1345 f935 8be5 3ebb bc79 9a3a
000000a0: ef07 6dbc 600b 8707 0dd0 bb3b 0513 430f
000000b0: efd3 f13c a54c 00bc 4a0f 2c3d 1db2 3abd
000000c0: 5f2d 78a9 0651 3f07 57b4 042c ceb4 f69b
000000d0: 3e74 db3c 4861 dbb0 4424 0909 638f eb08
000000e0: d775 eb39 3069 7e3c 6811 e103 1a58 0102
000000f0: f792 abb5 035d a9b9 8527 098d aff9 c637
00000100: cc3f 8cba ded1 d582 13a9 c5ba dfdb d0b3
00000110: d1cf 1fbd db4a 27bd 391a 9539 87e6 6003
00000120: 5ca4 3d37 903d b0bc dff9 968c bd65 30bb
00000130: 6697 8703 9689 64b5 8f02 f839 4ed7 97bb
00000140: 88bb 2d90 fd03 3003 4c44 13ac 2b5e 453d
00000150: 2343 a9bc 0b29 4039 b910 83b2 0e9a 3bbc
00000160: 2888 f5bc 60d9 48b9 8bd6 5ab3 1552 0735
00000170: 5429 a929 8326 1db7 fb61 5cba e471 47ba
00000180: 658b 66bc bf0c 8cbb d47b 8bba 9e5f ea83
00000190: c68f 46bd 7d2a 3abb df00 09bb 6640 2e08
000001a0: f4c6 ec31 055e e0bc f025 d5b9 1c8a 2018
000001b0: 72b5 3c06 ec55 cb3b 365f 5180 ee47 9439
000001c0: 95e1 7b80 6442 debc 774f 5237 d17b 3703
000001d0: 3300 e6bc b509 84b4 0bf3 c3bb 246e 068a
000001e0: 621a 93bd ef66 b9b5 64bc 12ba 26de 0bb6
000001f0: c223 cc87 102c 4e3d aa97 87b3 984b 0587
00000200: 4082 bfb8 6d1e a8b9 894e 943a 653a e5bc
00000210: 03ae 02bd 17b3 5db1 eda5 a201 b120 b78e
00000220: 1c9e d316 0470 6fb8 f69a dd86 a2cf deb7
00000230: 580f a006 c49a 043a 2437 10bd 4f41 50ba
00000240: ac5d a9bc 28f6 083d b60f 94bb 9ac1 a6bc
00000250: 8b4a 703c 47dd 5483 abe0 1b80 e350 ce0d
00000260: 8707 2385 0212 db36 4f77 d986 cbc6 043d
00000270: bb2f f795 13c3 43b9 f2a7 c4bc 4079 50a1
00000280: 3f27 c839 bc5a 9081 9f48 963b 0a94 18bd
00000290: 9e69 9bbb 076a fab5 c411 03bc 0597 47a5
000002a0: 420b 0a3a a013 1a01 3439 993a 43b3 4a33
000002b0: 78fa c2bc f24b 2aba 6e4a 118a 947a 2db6
000002c0: 8794 09a8 f002 beb9 6a94 70b1 9a99 420e
000002d0: 46a4 903a 51cd e9bb f0a3 e404 b8c8 a0bb
000002e0: 66a9 aeb1 a064 e3b6 8be1 18b5 c208 0fae
000002f0: 2223 35bb f302 09a2 d28e 55bc 3218 db3c
00000300: 47b1 5f38 da3a 9317 7227 9cbc 7086 68b7
00000310: f4a4 9a01 6479 2a8b e6da 5686 2d32 473c

net.4.weight f4 [200, 200]
1.0051869e-34 -2.028765e-39 -1.8481486e-17 -0.009075599 -0.021325631 0.013660987 -1.7371464e-38 2.8533263e-05
1.2725825e-38 2.6900787e-07 0.019745925 0.029318465 -3.0368702e-20 6.5402464e-36 -8.825338e-39 -0.007907139
-0.016384017 8.36104e-39 2.63398e-39 3.229797e-39 7.864992e-39 -0.017953292 -0.02699969 3.0293534e-38
0.06276665 0.01936327 -3.4531328e-29 0.0069786324 -0.014702576 -0.017781474 0.0010809756 -0.040500354
-1.0836137e-38 -1.2046059e-35 0.0033502178 -0.01025035 0.037732806 -0.012710563 0.01421212 -0.011265348
-0.050487574 -0.0003585599 -0.040094897 3.874607e-39 0.04796363 -0.03219483 -0.0030504558 0.02283787
5.988149e-39 7.328951e-39 0.0076297275 -0.001464044 0.05259887 -5.3541407e-05 4.940741e-38 1.3475723e-37
-0.016295182 0.031040126 -4.481654e-39 -2.3026235e-37 -1.6773288e-38 -0.023057431 1.1106068e-37 -0.032324042
0.018347183 2.1570683e-38 -1.0297535e-31 2.7145322e-37 0.046524417 0.038409274 0.013463631 1.5060932e-25
0.05516044 0.04740927 0.0008307328 0.04100608 6.000275e-07 0.025875654 -0.0011760229 -0.005176704
2.3458287e-34 -1.715726e-38 -4.31964e-39 -0.02484427 -0.013597017 0.004474388 0.00604623 0.05322525
0.06042089 0.046759333 0.014126972 1.1956202e-38 5.913885e-15 -0.017470516 -0.023516301 -1.8287563e-38
0.020847464 0.028467637 0.011505037 -1.4491787e-38 -0.057009526 0.011294704 -0.010174547 2.8726594e-35
0.05041346 -0.019986983 0.012391538 -6.1405207e-38 -4.794178e-39 -0.00037958033 -8.14681e-39 -0.043741144
1.5147e-40 0.014293133 -0.011748573 6.272009e-38 0.037286546 0.002403369 0.015028178 0.00049270724
-0.054526392 0.01814252 6.0048214e-06 -0.00074429816 7.2201046e-38 -0.07575453 -0.0062931892 2.827631e-39
2.0944534e-38 0.031547368 -0.02097994 -0.035507515 -0.041897066 6.083898e-38 -5.278598e-38 6.8312045e-38
-8.41201e-40 -0.04295064 6.00007e-40 0.05900846 2.4293616e-38 0.03578705 -0.06772426 -0.005462435
-0.0039675026 -0.00850979 0.046833735 0.013173546 -0.0074175494 -2.30327e-39 1.2025044e-38 1.9541177e-30
9.28216e-39 0.001459093 -0.0013739549 -0.05283133 1.0508574e-38 0.04380536 -0.05209276 3.25012e-40
-0.010183356 2.506284e-39 -0.0095131565 -0.03084572 -0.030711524 0.0013911071 -0.036130127 5.7792234e-38
0.0021446678 2.878473e-39 0.039239474 -5.388193e-27 0.021811815 0.0084924735 9.71931e-40 1.5378582e-28
-0.031954996 -0.011283477 -0.011806951 -4.505648e-39 -0.019442316 0.081593215 -3.7228386e-38 0.025896814
-2.209922e-39 -4.60109e-38 -0.023879541 -1.9330913e-12 -0.007627907 6.076753e-39 0.047463916 -0.0599959
-0.022540411 3.818258e-38 -0.031486057 0.0029667316 1.4386098e-37 4.570625e-39 2.1864035e-38 -0.058313616
-6.4704116e-38 2.697563e-39 -8.123514e-08 0.026556036 0.034189694 -0.025840268 -7.585603e-39 4.0534066e-38
-0.0009037574 9.056482e-37 -0.062170774 -0.040673245 -1.7041657e-38 2.7470172e-37 -2.0474888e-38 -0.042735174
-0.0009766098 -9.620795e-39 8.2053385e-38 1.9408387e-37 -6.052479e-39 -0.025875395 0.0031980588 4.3055624e-38
-0.042928495 0.016472118 9.289622e-39 -0.0030981458 -0.0051232697 0.01854863 -2.419027e-37 -0.037558608
2.545763e-39 1.0077764e-38 0.012636826 -0.0002591977 -0.021923702 -0.010242057 0.034719132 0.047399137
-0.05150393 8.425601e-06 -0.010693862 -3.2638407e-05 0.010971467 0.013638784 -0.026103593 -0.036626067
-5.816619e-39 7.327716e-38 -0.0037939544 -9.391968e-39 -0.035128314 0.024525285 1.8985523e-38 -4.43701e-39
00000000: bd9c 0507 5f17 1680 2d76 aaa3 d2b1 14bc
00000010: 17b3 aebc 55d2 5f3c 9328 bd80 b75a ef37
00000020: 6c92 8a00 296c 9034 35c2 a13c 472d f03c
00000030: 8269 0f9f 7d18 0b05 7419 6080 f28c 01bc
00000040: c637 86bc 2e0b 5b00 77ae 1c00 5c2b 2300
00000050: 66a4 5500 c812 93bc 742e ddbc 06ef 2401
00000060: cd8b 803d b89f 9e3c 3a18 2f90 03ad e43b
00000070: 13e3 70bc 74aa 91bc 86af 8d3a b3e3 25bd
00000080: befe 7580 7e18 8085 548f 5b3b 16f1 27bc
00000090: b78d 1a3d f73f 50bc f4d9 683c 4b92 38bc
000000a0: 0fcc 4ebd 18fd bbb9 8c3a 24bd d430 2a00
000000b0: 8375 443d bade 03bd 28ea 47bb 7c16 bb3c
000000c0: 8634 4100 22ce 4f00 cb02 fa3b 2ae5 bfba
000000d0: ea71 573d a691 60b8 f07f 8601 0b6c 3702
000000e0: 797d 85bc dd47 fe3c 07cd 3080 5cb5 9c82
000000f0: 1aa5 b680 f0e2 bcbc 002b 1702 3766 04bd
00000100: d54c 963c 4ae2 ea00 6eab 058c d2bd b802
00000110: 6390 3e3d 0b53 1d3d 9096 5c3c 0072 3a16
00000120: eaef 613d 3930 423d 89c5 593a fef5 273d
00000130: 9311 2135 2ef9 d33c c824 9aba 57a1 a9bb
00000140: 35e8 9b07 76d3 ba80 6609 2f80 3686 cbbc
00000150: 06c6 5ebc e39d 923b 741f c63b b802 5a3d
00000160: e57b 773d b786 3f3d d174 673c 0731 8200
00000170: f611 d527 541e 8fbc 42a5 c0bc 4922 c780
00000180: 4dc8 aa3c f634 e93c 9f7f 3c3c 35cd 9d80
00000190: d282 69bd 6c0d 393c 25b3 26bc 9dbc 1806
000001a0: 587e 4e3d bebb a3bc e105 4b3c 2f29 a781
000001b0: 3834 3480 6902 c7b9 feb5 5880 ea29 33bd
000001c0: 3da6 0100 bf2d 6a3c 167d 40bc 86bd aa01
000001d0: c7b9 183d d781 1d3b bf38 763c 0629 013a
000001e0: 1157 5fbd 9f9f 943c 067d c936 011d 43ba
000001f0: c98c c401 3125 9bbd 1937 cebb 49ca 1e00
00000200: d710 e400 d037 013d 20de abbc 5470 11bd
00000210: 429c 2bbd 959e a501 76b2 8f81 8cf6 b901
00000220: ed28 0980 03ed 2fbd 9388 0600 dbb2 713d
00000230: 5c44 0401 7195 123d 04b3 8abd 3afe b2bb
00000240: d301 82bb a56c 0bbc bbd4 3f3d dbd5 573c
00000250: ea0e f3bb 9414 1980 eef0 8200 7089 1e0e
00000260: e312 6500 093f bf3a 4716 b4ba aa65 58bd
00000270: a16d 7200 406d 333d 385f 55bd 008a 0300
00000280: 17d8 26bc 804a 1b00 12dd 1bbc 2ab0 fcbc
00000290: bc96 fbbc cf55 b63a 2ffd 13bd 4f53 9d01
000002a0: 8e8d 0c3b 0358 1f00 92b9 203d c572 d593
000002b0: b1ae b23c 0424 0b3c 5995 0a00 5af2 4211
000002c0: 3ee3 02bd 55de 38bc f171 41bc ea0f 3180
000002d0: 7e45 9fbc 581a a73d ccb0 4a81 8e25 d43c
000002e0: 5d10 1880 d681 7a81 079f c3bc 7a07 08ac
000002f0: 86f3 f9bb 842b 4200 8669 423d 43be 75bd
00000300: aba6 b8bc c0e2 4f01 86f7 00bd 7f6d 423b
00000310: 3cd0 4302 0bc5 3100 0914 ee00 42da 6ebd
00000320: 3024 b081 b55f 1d00 7e73 aeb3 0b8c d93c
00000330: 7e0a 0c3d f8ae d3bc 9399 5280 3eb0 5c01
00000340: 22ea 6cba 8b16 9a03 c8a6 7ebd fd98 26bd
00000350: 3591 b980 caf3 ba02 a8f3 de80 140b 2fbd
00000360: 9601 80ba ddc2 6880 dd5e df01 2e16 8402
00000370: d9e7 4180 a3f8 d3bc 8696 513b c86a 6a01
00000380: cad5 2fbd 89f0 863c b027 6500 430a 4bbb
00000390: 1ae1 a7bb 4cf3 973c 65a1 a482 0ed7 19bd
000003a0: 8db8 1b00 b5bc 6d00 b10a 4f3c ede4 87b9
000003b0: 5699 b3bc 4dce 27bc a635 0e3d 9925 423d
000003c0: c9f5 52bd ae5b 0d37 4f35 2fbc 39e5 08b8
000003d0: abc1 333c 3575 5f3c 34d7 d5bc 3705 16bd
000003e0: 5e56 3f80 ba7a c701 fea3 78bb fc44 6680
000003f0: b5e2 0fbd 40e9 c83c eabb ce00 9450 3080

net.4.bias f4 [200]
-0.015129942 -0.012146722 -3.6892917e-28 -0.025082435 -0.025764037 -0.037010904 -0.04297653 -0.0019021367
0.06063412 -0.0098220995 -0.04865916 -0.017112693 -0.035340637 -0.0037640347 -0.0114471335 -0.0035075885
-0.00034264938 4.4224682e-26 -0.028645702 -0.024145406 -0.021736568 -0.00013700497 -0.0066375006 -0.017767845
-0.002128825 -0.011685744 0.0035422891 1.7208402e-17 0.016413266 0.034862526 -0.0500737 -7.511302e-19
-0.022997282 -0.0031773448 -0.031137535 0.0003192647 0.01071964 -0.027992275 -0.014529807 -0.00023183711
-0.022590628 -1.8712783e-05 -0.028117739 -0.03902502 5.5791365e-21 -0.011969949 -0.053903278 -0.006300439
-0.018553196 0.015599031 0.0068272296 -6.598808e-17 0.003994325 -0.03656667 -0.008907795 -0.031556237
-0.04637928 -0.032901265 -0.00015098747 -0.02550191 -3.1378593e-09 -1.1963229e-18 -0.0017530828 -0.009875471
-0.020279342 0.04794893 -0.0020064674 0.01750302 -0.02334282 0.0047311555 -0.043418884 -0.011249479
-0.010794249 0.023880873 -0.003205703 -1.2194283e-11 -0.045934826 -0.000112926195 -0.044915672 -0.014004168
-0.029923957 -4.5369527e-33 -0.020159286 -3.4214839e-37 -0.0047834446 -0.04274835 -0.00040355363 -0.038611673
-0.038585033 1.2156716e-31 -0.0730586 -9.690801e-24 -0.030830514 1.4239582e-08 -0.014653789 -1.3922886e-07
-0.030509595 -0.027171412 -0.010347493 -0.019070491 -0.025209228 -0.060955595 -0.00017321525 0.005375208
-0.03319288 -0.03762453 -0.0019372494 -0.03713398 1.2568853e-05 -0.019423421 -0.022245655 -0.038851634
-0.025684832 -0.041989055 -0.0112987375 -0.039961547 0.04947627 -0.02854693 -0.01679546 -4.3270446e-10
-0.0019004318 -0.021255888 -0.025431028 -4.3344394e-07 -0.0061023175 -0.02608611 -0.01742221 -0.037962917
-0.00020949235 -0.047104515 -3.7918862e-06 0.00014293606 -0.01761279 -0.01718169 -0.027146788 0.005896256
-0.0031695936 -0.0024398568 -0.05324693 -0.00013275316 0.038809985 -0.010051706 -0.037636187 -0.00024208579
-1.08098575e-07 -0.0032425087 2.7589916e-05 0.0025519046 -0.038113188 -0.030599304 -0.0007504163 -4.79024e-05
-0.0010328928 -0.00443599 -0.05654517 -0.02944752 -0.0180034 -0.0007710029 -0.00018572781 -0.02905637
-0.014151392 -0.036864966 0.036988284 -8.034803e-29 -0.011424276 -0.0041029793 -0.033830736 -0.07295843
-0.01826251 -0.0036873505 -0.0001106015 -3.0797702e-19 -6.555957e-36 -0.011036924 -0.011011059 -0.031817958
-2.9828243e-05 -0.009653824 0.00732213 -0.03242087 0.05561791 -0.02402645 -0.03884389 -0.0183224
-0.01118058 -0.01911713 -0.012263724 -0.07055792 -0.010255724 0.008041611 2.1031624e-11 -0.00018902606
-0.005527704 -3.58075e-36 -0.013371796 -0.011812505 3.325797e-37 -0.028632531 -0.03591402 -0.027773961
00000000: 94e3 77bc 0b03 47bc 2ed6 e991 ae79 cdbc
00000010: 1a0f d3bc bf98 17bd 2808 30bd 1e51 f9ba
00000020: 7c5b 783d dfec 20bc d44e 47bd eb2f 8cbc
00000030: 58c1 10bd 06ae 76bb c28c 3bbc 92df 65bb
00000040: 9fa5 b3b9 72fd 5a15 64aa eabc 96cc c5bc
00000050: e310 b2bc fea8 0fb9 647f d9bb df8d 91bc
00000060: c283 0bbb 9075 3fbc c025 683b 31b8 9e23
00000070: 1d75 863c 02cc 0e3d 141a 4dbd cbb1 5da1
00000080: cc64 bcbc 003b 50bb 2514 ffbc fc62 a739
00000090: 6ea1 2f3c 0e50 e5bc 6d0e 6ebc 4d19 73b9
000000a0: fb0f b9bc 65f9 9cb7 2c57 e6bc b3d8 1fbd
000000b0: 19c6 d21d 9b1d 44bc afc9 5cbd ea73 cebb
000000c0: dffc 97bc 1493 7f3c f4b6 df3b 7d28 98a4
000000d0: d4e2 823b efc6 15bd 00f2 11bc 1d41 01bd
000000e0: 33f8 3dbd 7ac3 06bd 6452 1eb9 62e9 d0bc
000000f0: cea1 57b1 cd8b b0a1 b3c7 e5ba bacc 21bc
00000100: dd20 a6bc 1966 443d f07e 03bb 7e62 8f3c
00000110: 7139 bfbc cf07 9b3b 00d8 31bd bc4f 38bc
00000120: 5dda 30bc d2a1 c33c c616 52bb 2b86 56ad
00000130: 2826 3cbd cad2 ecb8 7ff9 37bd bd71 65bc
00000140: 1623 f5bc 2875 bc89 1625 a5bc a8da e882
00000150: 71be 9cbb e518 2fbd 0d94 d3b9 4627 1ebd
00000160: 570b 1ebd 9ecd 1d0c bf9f 95bd 8672 3b99
00000170: 4690 fcbc 58a2 7432 7216 70bc f07e 15b4
00000180: 42ef f9bc 9596 debc 8888 29bc b839 9cbc
00000190: 9583 cebc 93ac 79bd 1da1 35b9 8322 b03b
000001a0: 42f5 07bd 2e1c 1abd 4eeb fdba cd19 18bd
000001b0: d0de 5237 de1d 9fbc 853c b6bc e422 1fbd
000001c0: ff68 d2bc b7fc 2bbd 571e 39bc b8ae 23bd
000001d0: a1a7 4a3d 40db e9bc a296 89bc bde1 edaf
000001e0: e917 f9ba d420 aebc bb54 d0bc 15b4 e8b4
000001f0: f3f5 c7bb 8ab2 d5bc 06b9 8ebc 017f 1bbd
00000200: 2dab 5bb9 aaf0 40bd 1c78 7eb6 1be1 1539
00000210: b348 90bc 9ec0 8cbc f162 debc 6135 c13b
00000220: f5b8 4fbb 01e6 1fbb 7419 5abd a833 0bb9
00000230: 38f7 1e3d e9af 24bc 6728 1abd 69d8 7db9
00000240: d223 e8b3 4580 54bb e570 e737 db3d 273b
00000250: 931c 1cbd 64ab fabc 96b7 44ba cfea 48b8
00000260: 2262 87ba c85b 91bb e89b 67bd ed3b f1bc
00000270: de7b 93bc 211d 4aba eebf 42b9 a007 eebc
00000280: 3ddb 67bc b8ff 16bd 0781 173d dab4 cb90
00000290: e32c 3bbc 4972 86bb 1992 0abd 3b6b 95bd
000002a0: 429b 95bc 7aa7 71bb baf2 e7b8 2ccc b5a0
000002b0: 066e 0b85 37d4 34bc bb67 34bc 8c53 02bd
000002c0: aa37 fab7 132b 1ebc 7aee ef3b bfcb 04bd
000002d0: 9bcf 633d 1ed3 c4bc c51a 1fbd dc18 96bc
000002e0: c02e 37bc 879b 9cbc c9ed 48bc ac80 90bd
000002f0: a007 28bc f6c0 033c 02ff b82d 4c35 46b9
00000300: be21 b5bb ea4e 9884 6115 5bbc 3d89 41bc
00000310: 8e57 e202 c58e eabc 941a 13bd 3886 e3bc

net.6.weight f4 [200, 200]
0.04725885 -0.023100292 -3.808589e-38 0.0029038761 -0.0070032612 0.027411023 -0.0052270894 -0.012740754
-0.057832416 -0.018917825 -0.0007253519 -0.026143288 -0.049373765 -0.031131659 0.012646485 0.03382168
0.010843107 6.795003e-39 -0.039331097 -0.025948603 0.016168391 1.7480188e-38 -4.3404093e-38 -2.310486e-09
-0.041459337 2.673818e-39 -0.028129093 1.364052e-38 -0.0013169063 -0.0003595909 0.0019750108 -9.027309e-22
-0.07200152 0.04554756 -0.044610333 0.0013965389 -9.257808e-05 -0.0033717535 -0.00010311407 4.315072e-39
-0.048681725 7.240498e-39 -0.0642839 6.3390624e-05 3.9478773e-10 -0.04607993 -0.0073356037 -0.0006367333
0.02552338 0.022783509 0.014523155 1.0393948e-38 0.023068301 -0.0052407137 -0.002683087 0.0005105473
0.0137116695 -0.009843149 -0.031972438 -0.010374503 -5.902203e-39 1.7246938e-37 -4.8318397e-38 -0.04247961
-0.043068405 0.008296514 -0.012330371 0.0072515216 -0.007358724 0.023834962 0.01315405 -0.0003835662
0.0024823882 -0.0034916468 0.006009537 -1.3349794e-38 0.0059829704 -5.646409e-39 -0.060801923 -0.0026858903
-0.0024484051 5.02648e-39 -0.009529476 4.98425e-38 0.0048773736 0.032419533 2.44961e-39 -0.0079295775
0.037024796 4.867765e-39 -0.020124657 9.727589e-38 -0.061194967 -9.100072e-05 -0.014159689 9.244649e-39
-0.03119074 -5.9533445e-08 0.00012362044 -0.0020213565 0.04321934 0.024740942 -2.1862038e-38 -0.038515497
0.05251015 0.013092898 -9.47357e-26 0.0101678865 4.39828e-40 3.1951312e-38 9.064142e-05 -0.00797535
0.007849098 -0.0034343528 -0.057572186 -0.042593267 -0.062248267 -0.0035719709 -0.04694688 -2.4537992e-38
0.022712786 0.02818981 0.024563761 1.2590068e-38 0.02808026 0.008291478 -0.006439175 0.021370273
-5.69716e-39 -0.021273024 -6.542305e-06 0.023348795 0.0007400512 0.008184142 0.005216535 0.05146954
2.6622263e-38 0.030367136 -0.010113878 -5.2564303e-38 0.010002741 0.029596785 -0.030526277 -0.05774436
1.298362e-37 0.00074468215 -0.039187666 0.007406465 0.054061938 0.034116726 -5.954566e-39 -5.474128e-39
0.041602924 1.5826356e-20 -0.003474208 0.04018541 5.1643774e-08 -0.0026933355 -5.935156e-39 0.020627908
0.006918241 -0.07356551 -0.044288732 -1.1326519e-38 0.020865371 0.010287658 -0.015749563 -0.009796061
0.034085676 0.047710266 3.185636e-39 1.7948778e-38 -2.5977232e-38 -0.017047906 -0.009802782 -0.002313533
5.339216e-39 -4.4213875e-06 0.05420577 -4.4589547e-38 -0.0014102141 -0.018242368 0.043087877 0.00075864577
-0.051110826 -0.0017230597 -0.00988608 -0.045490567 0.009430396 0.022048542 4.5228405e-38 0.013100987
-3.887418e-05 1.1147181e-38 -0.058117166 0.031683713 -5.949555e-38 -0.02377636 -0.009998499 -0.0005050645
-0.024541838 -0.030766187 1.2569738e-29 -0.05453059 -0.022506816 0.10117679 0.00282359 1.8695699e-06
0.04069629 0.016878325 0.0075369608 0.010128043 -0.0371631 0.056399878 0.013176114 0.013376628
0.000113653405 3.588913e-32 -0.013508065 0.018321635 -0.0068784337 -1.0836429e-12 0.0003266478 -0.05539844
0.065316215 -1.4382523e-14 -0.051141247 2.7757406e-18 -0.011339007 -0.0499327 -0.048484586 9.585794e-09
0.030308696 0.046475276 0.016797747 0.0054511772 -0.05004904 -0.00373895 0.003450942 -0.0014915972
0.029847208 1.7601907e-24 -0.028647857 0.021948725 -2.0085216e-38 0.030078402 -0.016281001 -0.0019745752
-0.009662465 0.050029512 -0.008285817 3.7988677e-20 0.0006903844 0.025612963 0.025627745 0.009472951
00000000: 7f92 413d d33c bdbc fc5b 4f81 f54e 3e3b
00000010: 9d7b e5bb 158d e03c 0148 abbb 98be 50bc
00000020: afe1 6cbd 8ef9 9abc 8b25 3eba 732a d6bc
00000030: 253c 4abd d207 ffbc 3433 4f3c 9a88 0a3d
00000040: 49a7 313c b4fd 4900 a519 21bd 2a92 d4bc
00000050: 9373 843c a757 be00 7a50 6c81 80c6 1eb1
00000060: 44d1 29bd 841d 1d00 fc6e e6bc 3888 9400
00000070: 0b9c acba 7987 bcb9 2f6f 013b b66a 889c
00000080: 8875 93bd 1490 3a3d 53b9 36bd 120c b73a
00000090: 7a26 c2b8 a3f8 5cbb f23e d8b8 aafc 2e00
000000a0: 7d66 47bd 90d7 4e00 47a7 83bd 95f0 8438
000000b0: 6f09 d92f 4fbe 3cbd 815f f0bb 73ea 26ba
000000c0: 6816 d13c 7ba4 ba3c 87f2 6d3c 192e 7100
000000d0: bcf9 bc3c 4bba abbb bbd6 2fbb 40d6 053a
000000e0: e9a6 603c 2945 21bc 88f5 02bd d2f9 29bc
000000f0: f144 4080 cfc0 6a02 0289 8381 19ff 2dbd
00000100: 7f68 30bd 1aee 073c 5305 4abc 2c9e ed3b
00000110: 7321 f1bb 8a41 c33c 1684 573c 6219 c9b9
00000120: 90af 223b 1dd4 64bb a6eb c43b cb5d 9180
00000130: cb0c c43b e47b 3d80 700b 79bd c305 30bb
00000140: 6c75 20bb c8bb 3600 8521 1cbc 27af 8701
00000150: 60d2 9f3b 58ca 043d 84ac 1a00 0feb 01bc
00000160: 50a7 173d 5901 3500 77dc a4bc b367 0402
00000170: 93a7 7abd a4d7 beb8 0afe 67bc 52aa 6400
00000180: b983 ffbc b7b1 7fb3 1ca0 0139 bc78 04bb
00000190: c306 313d 84ad ca3c 780e ee80 6dc2 1dbd
000001a0: e214 573d 9883 563c e28d ea95 3597 263c
000001b0: 10ca 0400 a1f5 2d01 be16 be38 0bab 02bc
000001c0: 8199 003c e112 61bb d0d0 6bbd 4776 2ebd
000001d0: 0af8 7ebd ba17 6abb 5f4b 40bd f898 0581
000001e0: 2a10 ba3c 51ee e63c f139 c93c fd17 8900
000001f0: 9308 e63c fbd8 073c b7ff d2bb b610 af3c
00000200: 5d09 3e80 c444 aebc f985 dbb6 f945 bf3c
00000210: ffff 413a c816 063c 78ef aa3b b9d1 523d
00000220: 05f2 1001 80c4 f83c aeb4 25bc f917 8f81
00000230: 89e2 233c f574 f23c 3e12 fabc 5a85 6cbd
00000240: 50b9 3002 c636 433a 3f83 20bd eeb1 f23b
00000250: 0d70 5d3d fbbd 0b3d e8d6 4080 a49b 3b80
00000260: d467 2a3d c879 951e 8aaf 63bb 7599 243d
00000270: eece 5d33 ac82 30bb cda0 4080 dcfb a83c
00000280: 69b2 e23b 84a9 96bd 1a68 35bd ba55 7b80
00000290: dbed aa3c 918d 283c 3a05 81bc a87f 20bc
000002a0: 6c9d 0b3d d76b 433d 42b0 2200 e471 c300
000002b0: fa6e 0d81 0da8 8bbc d99b 20bc a59e 17bb
000002c0: 9023 3a00 6e5b 94b6 df06 5e3d c2c4 7281
000002d0: efd6 b8ba 0571 95bc ea7c 303d dbdf 463a
000002e0: 9659 51bd 4ad8 e1ba 3af9 21bc 5154 3abd
000002f0: f381 1a3c 259f b43c 323f 7601 86a5 563c
00000300: d50c 23b8 ce61 7900 440c 6ebd c8c6 013d
00000310: 59f6 a181 a4c6 c2bc bfd0 23bc 4e66 04ba
00000320: f70b c9bc 5f09 fcbc d0f1 7e0f 785b 5fbd
00000330: 3760 b8bc c735 cf3d fb0b 393b efed fa35
00000340: 27b1 263d 6a44 8a3c 9cf8 f63b 17f0 253c
00000350: 5638 18bd 8f03 673d a1e0 573c a529 5b3c
00000360: 3559 ee38 d658 3a0b ee50 5dbc 4117 963c
00000370: 7c64 e1bb 5a82 98ab ed41 ab39 7ae9 62bd
00000380: 82c4 853d d78b 81a8 7c79 51bd 42d0 4c22
00000390: 3ec7 39bc 3b86 4cbd c697 46bd c5ae 2432
000003a0: f149 f83c dc5c 3e3d 6e9b 893c ca9f b23b
000003b0: 3900 4dbd 2c09 75bb 3329 623b b281 c3ba
000003c0: 2282 f43c 2b30 0818 e9ae eabc d0cd b33c
000003d0: 69b5 da80 fb66 f63c bc5f 85bc e067 01bb
000003e0: 514f 1ebc bfeb 4c3d 3cc1 07bc 7e65 331f
000003f0: eafa 343a 47d2 d13c 47f1 d13c 7034 1b3c

net.6.bias f4 [200]
-0.028474908 -0.021351153 -0.010303711 -0.0282455 -0.053306114 0.0032873116 -0.008839489 -0.011294624
-0.011954298 -0.01453344 3.7961367e-16 -0.020727716 0.0406887 -0.008128742 0.009927975 -1.2755164e-10
-0.0012865122 -0.04655508 0.00092874136 -0.0173832 -0.07107132 -0.0014979155 0.022883767 -0.047673088
-0.0020895759 -0.05576925 0.028131185 -0.016898677 -0.037019983 -0.010450022 -0.015385308 0.04639393
-0.0025647639 -0.021249983 -0.0386005 -3.0074953e-23 -0.042490676 -0.014639328 -0.00014839837 0.024941847
-0.0001643135 0.006040375 0.024040146 -0.025495835 -0.050734643 -0.010157099 -0.0016544443 -0.008665176
-0.000111685906 0.054936793 -0.03489413 0.00046498526 -0.017373135 0.016813546 -0.03633886 0.010399317
0.008536092 -0.037771042 0.0009361082 -0.034446426 -0.03919793 -0.005980706 0.027249005 -0.025737744
-0.029500246 -0.015344639 -0.009684893 -0.021388931 -0.016701803 -0.01597792 -0.020484116 0.0013512713
-0.008564273 -0.008783801 -0.04485029 -0.060582615 5.331109e-27 0.014630955 -0.016005771 0.0011512272
1.4027819e-10 0.055796433 0.016071662 -0.03789431 0.0025399018 -0.009154188 0.022012968 -0.0017067834
-0.057467192 -0.02671961 -0.0026792227 -0.06011792 0.03790591 -4.659754e-12 0.0038379773 -0.0104506025
0.0133292 -0.053920377 -0.0125481235 0.018148698 -0.032514542 0.008430034 0.03622027 -0.029184654
-0.018990828 -0.017741218 0.004482236 -0.00080310233 -0.0017804325 -0.0025600675 0.01776927 -0.0050383084
0.0548036 0.012398385 0.0010896862 0.026373202 -0.022097278 -0.00011128863 -0.00078442204 -0.006200872
-0.030196747 -0.016393756 0.017329602 0.035919074 -0.010177766 0.025591884 -0.047744744 -1.1637847e-07
-0.04126064 0.013081202 -0.01829825 0.03212723 -0.00032736902 -0.0337254 -0.0070376582 -0.004957224
-0.013811407 -0.0014897437 -0.036884334 -0.078660354 -0.01442351 0.0019175932 0.050700054 -0.01018643
-0.0041133473 -0.0146395555 0.02049947 0.061428845 -0.040546328 -4.6141204e-06 -0.0022484467 -0.013527727
-0.009487104 -0.040481165 -1.2647227e-07 -0.008212402 -0.008683244 -0.03940068 -4.285664e-27 -0.008881504
-0.021922968 -0.00038345542 -0.021741249 -0.01551993 0.008980418 -7.251867e-07 0.047698505 -0.0159111
-0.014954765 -0.022279099 -0.016975103 -0.020421878 0.0070391567 0.005844666 -0.010256678 0.04262936
-0.0031710258 -0.001338297 -0.008119539 0.029211903 -2.0152044e-07 -0.030290408 -0.021996764 -0.017247746
0.047689088 -9.938514e-37 -0.039924383 -0.021693446 0.043121517 -0.039001886 -0.026544698 -0.045805585
-0.019265596 0.0054250807 0.012401776 0.022870613 -0.027445706 0.0066405563 -0.02897584 -0.008195997
00000000: 3644 e9bc 9de8 aebc e5d0 28bc 1b63 e7bc
00000010: 8357 5abd f06f 573b 81d3 10bc 160d 39bc
00000020: f6db 43bc aa1d 6ebc 17d5 da25 2ccd a9bc
00000030: 32a9 263d 6a2e 05bc f2a8 223c 983e 0caf
00000040: 30a0 a8ba 8ab0 3ebd c776 733a 3667 8ebc
00000050: d78d 91bd b455 c4ba bd76 bb3c db44 43bd
00000060: 44f1 08bb 4c6e 64bd 5f73 e63c 186f 8abc
00000070: 44a2 17bd 9236 2bbc a912 7cbc 9007 3e3d
00000080: 9915 28bb 7214 aebc 8f1b 1ebd fd6e 119a
00000090: b40a 2ebd cbd9 6fbc 629b 1bb9 d852 cc3c
000000a0: 924b 2cb9 57ee c53b d7ef c43c a4dc d0bc
000000b0: 21cf 4fbd f669 26bc f0d9 d8ba 62f8 0dbc
000000c0: ea38 eab8 6705 613d 26ed 0ebd 44c9 f339
000000d0: 1b52 8ebc 90bc 893c 0ed8 14bd e661 2a3c
000000e0: f7da 0b3c cfb5 1abd 2865 753a b217 0dbd
000000f0: 028e 20bd ccf9 c3bb 4e39 df3c f6d7 d2bc
00000100: 80aa f1bc 1568 7bbc 63ad 1ebc d737 afbc
00000110: 38d2 88bc 20e4 82bc 4ece a7bc 241d b13a
00000120: 2a51 0cbc efe9 0fbc f0b4 37bd 7a25 78bd
00000130: de2f d313 acb6 6f3c 891e 83bc c6e4 963a
00000140: cd3c 1a2f cd8a 643d b8a8 833c 1037 1bbd
00000150: 7b74 263b 73fb 15bc 8a54 b43c 26b6 dfba
00000160: b862 6bbd 15e3 dabc e695 2fbb 353e 76bd
00000170: 3a43 1b3d 55f3 a3ac 9386 7b3b 0139 2bbc
00000180: b862 5a3c 9ddb 5cbd a596 4dbc 94ac 943c
00000190: f82d 05bd 201e 0a3c b55b 143d a814 efbc
000001a0: a792 9bbc 0856 91bc b9df 923b 4987 52ba
000001b0: 675d e9ba cec6 27bb dc90 913c 6518 a5bb
000001c0: bd79 603d 9922 4b3c cdd3 8e3a 9d0c d83c
000001d0: 5a05 b5bc a163 e9b8 aca1 4dba af30 cbbb
000001e0: 2b5f f7bc 334c 86bc cff6 8d3c e11f 133d
000001f0: a5c0 26bc 12a6 d13c fe8f 43bd beeb f9b3
00000200: eb00 29bd 8a52 563c 36e6 95bc d897 033d
00000210: baa2 abb9 a523 0abd 289c e6bb 3570 a2bb
00000220: 3d49 62bc 8143 c3ba 0714 17bd ae18 a1bd
00000230: 9650 6cbc c057 fb3a dcaa 4f3d fce4 26bc
00000240: 42c9 86bb bfda 6fbc 81ee a73c d09c 7b3d
00000250: e813 26bd fed2 9ab6 ad5a 13bb 66a3 5dbc
00000260: cc6f 1bbc 94cf 25bd 6fcc 07b4 508d 06bc
00000270: 2a44 0ebc 9c62 21bd ccc5 a993 ba83 11bc
00000280: cc97 b3bc 840a c9b9 b41a b2bc 4e47 7ebc
00000290: 9a22 133c 73aa 42b5 825f 433d ff57 82bc
000002a0: d504 75bc a882 b6bc 5f0f 8bbc c84b a7bc
000002b0: baa8 e63b 9d84 bf3b a00b 28bc 209c 2e3d
000002c0: fcd0 4fbb cc69 afba d107 05bc cd4d ef3c
000002d0: 8461 58b4 9723 f8bc 8f32 b4bc 254b 8dbc
000002e0: a255 433d 5518 a983 c087 23bd 74b6 b1bc
000002f0: 30a0 303d 71c0 1fbd 4474 d9bc a39e 3bbd
00000300: e2d2 9dbc e0c4 b13b d230 4b3c 275b bb3c
00000310: d1d5 e0bc 0699 d93b be5e edbc 8148 06bc
