data/models/heart_attack/heart_attack_200x1.pth (torch, 15016 bytes, 4 tensors)

net.0.weight f4 [200, 13]
-0.021783143 0.28821796 -0.06393649 0.26019832 0.24137898 -0.26540855 -0.3282681 0.11325518
0.48928475 0.08338399 0.047445823 0.03704679 -0.07099098 0.07480712 -0.52596474 0.09010266
-0.22103398 0.12071159 0.16634783 -0.032371968 0.03645981 -0.032098126 -0.036033884 -0.17897145
-0.44655025 -0.38428366 1.0265398e-29 -5.12306e-40 -2.4315132e-38 7.580596e-37 -5.12497e-39 -5.022111e-22
-5.985819e-26 4.3897557e-36 -1.7036913e-37 -2.2146605e-36 -9.980191e-38 -5.831982e-14 -6.53436e-34 -4.1115107e-26
-4.6128553e-25 1.0866751e-36 -7.031442e-16 -2.0689497e-36 1.0918357e-38 3.5941958e-38 5.962754e-31 5.0112916e-38
1.7983156e-23 -4.928168e-13 1.3072317e-38 9.907829e-15 -0.005818932 0.6338962 0.032382037 -0.14547855
0.07252825 0.24133734 -0.069446206 -0.00570342 0.49697006 0.46443346 0.18234944 0.016737735
0.26103073 -0.09130282 0.43607062 0.07646518 0.22127226 0.25820565 -0.15696649 0.15348035
-0.1592601 0.35952255 0.35142407 -0.14288558 0.21665198 0.23733008 -0.25867864 0.60950214
-0.13603367 -0.085896894 0.26560098 0.14752167 -0.017892834 -0.25435442 0.09273902 0.097134024
-0.089573264 -0.13236047 0.12056846 -0.20570998 -0.1471992 0.25298765 -0.083176784 -0.0024966889
0.33476108 -0.15722412 0.1567738 -0.048863858 0.075558886 -0.061648503 -0.2737075 -0.14699489
0.10917011 0.50790596 -0.15696219 0.029974451 0.20347074 0.09460511 -0.25374195 -0.032666307
0.38298008 0.100585684 -0.17698498 0.4029602 0.39232454 0.012050955 0.513968 -0.091154024
0.13391829 0.077724054 -0.24191199 -0.29696035 -0.14421377 0.46228126 0.33685338 0.14913112
0.22524333 0.076055884 -0.12935148 0.043943405 -0.45883754 -0.06645805 0.122952834 0.06535455
0.04148537 0.20260419 0.23113456 0.3646637 -0.33592248 0.25458005 0.0559565 -6.423833e-11
8.288349e-38 1.6742947e-37 -1.9269918e-30 -6.290114e-21 -4.264125e-31 4.719232e-28 2.0209102e-20 9.73979e-26
-5.39449e-38 3.3526495e-28 -2.3661797e-30 -2.0512206e-38 -0.022290675 -0.015111879 0.010196749 -0.022102062
-0.022983765 -0.008375527 -0.009492182 -0.023158425 -0.016288837 -0.014707173 -0.013135131 -0.0025387427
-0.061455358 -0.18177283 -0.510636 0.30204347 0.11257821 0.1302437 -0.020266326 -0.18192661
-0.23059863 -0.12315852 -0.37019977 -0.042291887 -0.3617584 0.018123198 -0.12660728 -0.37468076
-0.020171028 0.06948351 -0.029083451 0.1330938 0.24894854 0.24375562 -0.15075563 -0.02618156
0.108740345 -0.2845746 0.0046448037 0.0967598 -0.40344474 0.3469813 -0.15624514 0.15083958
-0.20660172 -0.071272925 0.22892746 -0.10039639 -0.35779533 -0.18100573 -0.2509345 -0.15902612
-4.329176e-22 1.8400858e-38 1.4441652e-19 -2.6178867e-38 -1.2925713e-12 2.51798e-39 -1.2454714e-38 -5.407556e-38
-6.9388634e-38 6.7906617e-19 -8.182311e-29 2.2533469e-30 1.831395e-16 0.19463587 0.45512888 0.061905675
0.23411393 0.07227486 -0.086604916 -0.02537505 -0.108021274 0.14744194 0.24081862 0.03448451
0.11427683 0.40029034 -0.26448047 0.32989568 -0.2685617 0.2136111 0.11144147 -0.26535764
-0.008203039 0.16795327 0.27388522 0.18806326 -0.041741833 -0.06877298 0.09487002 -4.0450492e-38
1.7301977e-34 -5.025264e-39 5.679717e-23 -7.720738e-21 3.247058e-39 2.4602337e-28 3.1605907e-29 -2.0365072e-29
00000000: 9072 b2bc 4e91 933e 22f1 82bd b738 853e
00000010: 0d2c 773e a1e3 87be c212 a8be 55f2 e73d
00000020: 8883 fa3e 3ac5 aa3d 8d56 423d 60be 173d
00000030: b863 91bd 7a34 993d a0a5 06bf be87 b83d
00000040: bb56 62be a337 f73d 1657 2a3e 7898 04bd
00000050: e256 153d 5379 03bd 4498 13bd 4b44 37be
00000060: 3ca2 e4be d4c0 c4be fe34 500f 1a94 0580
00000070: 5962 0481 27fa 8003 55ce 3780 b4c8 179c
00000080: a333 9495 35b8 ba04 fae4 6782 0967 3c84
00000090: e4d7 0782 1653 83a9 3024 5988 9797 4b95
000000a0: cec2 0e97 60e3 b803 e2aa 4aa6 bc01 3084
000000b0: f0e3 7600 c7af 4301 9f80 410d 9b6b 8801
000000c0: 23ec ad19 31b7 0aab 4d58 8e00 cc7b 3228
000000d0: bdac bebb 0547 223f 07a3 043d 54f8 14be
000000e0: b189 943d 2321 773e d039 8ebd c1e3 babb
000000f0: dc72 fe3e 39ca ed3e d0b9 3a3e 931d 893c
00000100: d2a5 853e f9fc babd a644 df3e c799 9c3d
00000110: 3295 623e 8833 843e d3bb 20be f429 1d3e
00000120: 1415 23be 5713 b83e dbed b33e 9950 12be
00000130: 04da 5d3e a806 733e 8771 84be 5508 1c3f
00000140: 694c 0bbe b6ea afbd dafc 873e ec0f 173e
00000150: fe93 92bc be3a 82be f5ed bd3d 34ee c63d
00000160: 3072 b7bd 8189 07be 99ec f63d a3a5 52be
00000170: 63bb 16be 9987 813e 9758 aabd 7d9f 23bb
00000180: ce65 ab3e 5cff 20be 5089 203e 7825 48bd
00000190: 9ebe 9a3d 2483 7cbd 6423 8cbe d485 16be
000001a0: 9494 df3d 2006 023f b2ba 20be fb8c f53c
000001b0: a25a 503e 53c0 c13d 77ea 81be 1bcd 05bd
000001c0: f715 c43e deff cd3d 8d3b 35be cd50 ce3e
000001d0: c3de c83e 5e71 453c 6893 033f f6ae babd
000001e0: e021 093e ca2d 9f3d c7b7 77be 300b 98be
000001f0: c6ac 13be 21b0 ec3e 0c78 ac3e d4b5 183e
00000200: 30a6 663e 30c3 9b3d b774 04be 00fe 333d
00000210: c1ec eabe 281b 88bd b2ce fb3d 9bd8 853d
00000220: 90ec 293d 7977 4f3e 8aae 6c3e 33b5 ba3e
00000230: 08fe abbe 5158 823e a532 653d f742 8dae
00000240: 5da1 e101 a8e4 6302 0e56 1c8e 40a2 ed9d
00000250: f760 0a8d f58e 1512 9cde be1e 4125 f115
00000260: 1cda 9281 d97f d411 a1f7 3f8e af5b df80
00000270: ef9a b6bc d197 77bc 4410 273c 620f b5bc
00000280: 7348 bcbc 8239 09bc 1985 1bbc bdb6 bdbc
00000290: 2b70 85bc 5bf6 70bc bc34 57bc 0961 26bb
000002a0: 9db8 7bbd a822 3abe 0ab9 02bf 71a5 9a3e
000002b0: 688f e63d 9b5e 053e 9105 a6bc f84a 3abe
000002c0: 0c22 6cbe 893a fcbd d38a bdbe 423a 2dbd
000002d0: 6638 b9be 1a77 943c 57a5 01be 28d6 bfbe
000002e0: b63d a5bc 5f4d 8e3d 6b40 eebc be49 083e
000002f0: 5eec 7e3e 139b 793e af5f 1abe b67a d6bc
00000300: 42b3 de3d c3b3 91be 7033 983b 012a c63d
00000310: 4f90 cebe 88a7 b13e bafe 1fbe b175 1a3e
00000320: 678f 53be 8af7 91bd f66b 6a3e 9f9c cdbd
00000330: f330 b7be 9159 39be 7d7a 80be bed7 22be
00000340: 60d7 029c 1b5e c800 377f 2a20 0488 0e81
00000350: cae9 b5ab 1b6b 1b00 ad9e 8780 2a35 9381
00000360: d2e4 bc81 ca6c 4821 3c72 cf90 2fd0 360e
00000370: 3d25 5325 a04e 473e a706 e93e ce90 7d3d
00000380: 90bb 6f3e d804 943d eb5d b1bd 56df cfbc
00000390: 423a ddbd 05fb 163e 2899 763e a13f 0d3d
000003a0: f809 ea3d dbf2 cc3e fc69 87be 16e8 a83e
000003b0: eb80 89be debc 5a3e 6d3b e43d f5dc 87be
000003c0: 0a66 06bc f1fb 2b3e af3a 8c3e a893 403e
000003d0: 7cf9 2abd d9d8 8cbd 374b c23d c23b 5c81
000003e0: 94fb 6507 64b8 3680 bf53 891a 33d7 119e
000003f0: 7a5b 2300 93ef 9b11 d042 2010 c086 ce8f

net.0.bias f4 [200]
0.11714419 -0.1748868 -1.9616799e-14 -8.13564e-15 0.23259561 0.2377457 -0.06643951 0.16957836
-0.249271 0.12200669 -0.1981516 5.5597757e-24 -0.013928367 0.1988456 -0.16858058 0.08227795
2.561012e-34 -0.17305537 -0.056693967 -8.283323e-15 -0.24817316 1.8022215e-20 0.22859405 -0.015147713
0.06417056 -0.024844937 -0.27226722 -9.006791e-12 0.2026826 0.0019539197 -0.19588472 0.061106782
-1.5636273e-20 -6.494674e-16 0.0006607431 0.10259685 -4.760747e-14 0.19893508 0.14224143 0.15346307
6.543357e-32 -9.64068e-40 -4.0636074e-14 0.22544613 7.35233e-40 0.09107731 0.09925777 0.06952326
-0.18326598 -6.6861525e-32 1.0015369e-38 1.6954102e-20 -0.18101992 0.0034329065 -0.27892405 -0.04815849
-0.15586545 -0.0006644498 0.021793868 2.9072472e-35 0.051334567 -0.0069274777 0.022232829 0.010979747
0.0552515 -0.027134266 -0.004770447 0.23263702 0.123770766 6.912552e-39 -0.18814777 -0.0041141165
-0.030885536 0.026467849 -0.012039304 -0.01165998 -0.19468696 0.008677117 -0.22911409 -0.22313209
-6.9935784e-15 -0.14410602 0.020098321 -0.23690747 -0.19985153 -0.0018823761 -0.0016982802 -0.07203001
0.032760188 -0.023543213 0.16409007 2.9400863e-21 -0.15391316 -1.542639e-39 -0.0001867917 -4.6146987e-32
-0.0004896483 0.0054201647 -0.003535064 0.0472319 0.092104666 0.060400892 0.15717329 -0.22552238
-2.432986e-28 -0.18043345 -0.00281589 -0.29357374 -0.020529352 0.14007537 0.1995745 -2.3255439e-30
-3.61039e-39 0.07902426 -1.4546712e-18 1.437511e-29 -0.078297004 -0.018612808 -1.3810312e-38 6.459123e-19
-0.0075301146 0.13264376 -0.015599565 0.13680173 -0.24663512 0.13498907 0.025875028 0.240578
-0.018881664 -0.0035847125 -4.1576045e-06 -0.20868939 -0.00039007224 -2.562337e-38 0.030922059 -6.46212e-39
-0.023648713 -2.6802676e-37 -1.2611248e-35 -0.25231183 -0.19557714 -1.1306163e-34 -0.00013128849 -0.1691747
-6.314144e-34 0.16241336 -0.043441445 -0.14051959 -0.2497597 0.07273766 -0.0428952 -7.8722846e-13
-0.29295602 -4.8371405e-09 -0.007663774 0.21796192 -0.0076652267 -0.0854726 0.016486544 -0.21445447
-0.0044886894 -0.19146164 1.0776217e-26 0.007584328 0.0933873 0.06603141 0.050518375 -2.7130538e-06
0.014086949 -0.20281053 -0.00023817897 -0.05423256 -0.25618407 0.10920542 -0.08387365 0.16966543
-0.013033808 -0.034313627 -0.0036850013 -0.17863277 -0.005225258 -0.06316951 -0.27841985 1.7919652e-23
-3.730307e-38 0.013686324 0.00019837361 -0.08224176 3.8697725e-30 0.026255252 0.18612723 -2.3354408e-22
0.16759872 -0.034134623 0.16790578 -0.09246909 -0.011967673 -0.16775776 -0.14575905 4.6731905e-13
00000000: 4be9 ef3d 8615 33be 42b1 b0a8 048f 12a8
00000010: 8b2d 6e3e 9c73 733e 7011 88bd f3a5 2d3e
00000020: e640 7fbe a5de f93d 41e8 4abe 5a15 d718
00000030: ce33 64bc 2e9e 4b3e 63a0 2cbe 5881 a83d
00000040: 5c35 aa07 6d35 31be ef37 68bd 1638 15a8
00000050: 1b21 7ebe 0b37 aa1e 8f14 6a3e 1d2e 78bc
00000060: db6b 833d 9c87 cbbc 9c66 8bbe fb72 1ead
00000070: 078c 4f3e 550d 003b 0196 48be 1b4b 7a3d
00000080: 30ae 939e 3c32 3ba6 b835 2d3a 4c1e d23d
00000090: ad67 56a9 a3b5 4b3e bda7 113e 6c25 1d3e
000000a0: 11e0 a90b 6e7f 0a80 3402 37a9 5adb 663e
000000b0: 8801 0800 be86 ba3d a847 cb3d 3662 8e3d
000000c0: 14aa 3bbe 1b95 ad8b c60e 6d00 8120 a01e
000000d0: 495d 39be 9dfa 603b 22cf 8ebe d641 45bd
000000e0: 319b 1fbe 792e 2eba 0e89 b23c 6693 1a06
000000f0: 3244 523d e5ff e2bb 9f21 b63c 66e4 333c
00000100: 664f 623d ae48 debc 6951 9cbb 6638 6e3e
00000110: 877b fd3d 6245 4b00 cfa9 40be b6cf 86bb
00000120: aa03 fdbc 1ad3 d83c 8040 45bc 8009 3fbc
00000130: 055c 47be 772a 0e3c e29c 6abe bd7c 64be
00000140: 60f8 fba7 8790 13be 3ca5 a43c df97 72be
00000150: e1a5 4cbe 10ba f6ba d498 deba 7884 93bd
00000160: 8c2f 063d b2dd c0bc 3a07 283e 8a25 5e1d
00000170: 699b 1dbe 40cc 1080 84dd 43b9 de9b 6f8b
00000180: be5b 00ba a39b b13b 88ac 67bb 3d76 413d
00000190: 5fa1 bc3d ed66 773d 09f2 203e 57ef 66be
000001a0: 7435 9a91 8cc3 38be cb8a 38bb 4c4f 96be
000001b0: 2c2d a8bc eb6f 0f3e 425d 4c3e a8ab 3c8e
000001c0: 4c50 2780 79d7 a13d edab d6a1 ebc7 910f
000001d0: 2e5a a0bd e379 98bc 8861 9680 c1a3 3e21
000001e0: 2ebf f6bb c4d3 073e 5195 7fbc c115 0c3e
000001f0: eb8d 7cbe 933a 0a3e def7 d33c 145a 763e
00000200: b8ad 9abc 7fed 6abb 8d81 8bb6 acb2 55be
00000210: 9c82 ccb9 c481 0b81 4250 fd3c c35d 4680
00000220: f2ba c1bc d968 b682 151b 8685 042f 81be
00000230: 6045 48be e148 1687 7caa 09b9 223c 2dbe
00000240: ccd2 5188 b04f 263e a8ef 31bd 5ee4 0fbe
00000250: 02c1 7fbe 7bf7 943d e1b2 2fbd ca95 5dab
00000260: 55fe 95be f033 a6b1 6520 fbbb 6931 5f3e
00000270: 952c fbbb 420c afbd ca0e 873c f499 5bbe
00000280: db15 93bb 850e 44be e971 5514 f485 f83b
00000290: d741 bf3d 7a3b 873d 5bec 4e3d e911 36b6
000002a0: f2cc 663c 90ad 4fbe aebf 79b9 f622 5ebd
000002b0: 8f2a 83be 17a7 df3d f3c5 abbd c6bc 2d3e
000002c0: c18b 55bc 728c 0cbd 1080 71bb 82eb 36be
000002d0: a438 abbb 045f 81bd 0c8d 8ebe e94e ad19
000002e0: e418 4b81 9a3c 603c 8302 5039 5e6e a8bd
000002f0: 04fa 9c0e 4115 d73c 2398 3e3e 322b 8d9b
00000300: 009f 2b3e bfd0 0bbd 7eef 2b3e 6f60 bdbd
00000310: 0f14 44bc b1c8 2bbe dc41 15be e389 032b

net.2.weight f4 [2, 200]
0.06467599 0.053424597 -2.0491542e-38 6.039668e-39 0.048944708 0.03107806 0.024047537 -0.053213328
0.00880443 0.06900665 -0.012175906 5.2894e-39 0.007444808 -0.057826646 0.026320606 -0.059436854
3.9635677e-38 0.0671896 0.0353246 -1.077647e-38 -0.039933097 -3.832694e-39 0.00802518 -0.03760567
0.057461403 -0.030648964 -0.005710558 1.2993187e-37 -0.009216335 -0.03491347 0.1801272 0.013875199
-4.0476596e-38 3.2703092e-38 0.020111263 0.051060896 2.1218425e-38 0.017787617 -0.04027419 -0.01984858
-9.790313e-38 -9.476638e-38 -5.190024e-38 0.0073317788 1.1623842e-38 0.009492664 0.0027458845 -0.05880703
0.03684821 -1.6351526e-38 -1.493725e-39 2.890947e-39 -0.056062628 -0.006619524 0.05608277 -0.09729657
0.067649975 0.011096791 0.023135966 -2.2279627e-38 0.0022530672 0.037001323 0.049003426 -0.04385552
-0.04992841 0.00032010837 -0.02494955 -0.067606896 -0.009345502 1.3664155e-38 -0.028856294 0.01887475
-0.067157924 -0.020695401 0.01877237 -0.009330501 -0.03933251 -0.0003010383 -0.041079167 -0.055227417
-7.039907e-16 -0.018792784 0.05535572 0.027714537 -0.006890197 0.021671306 1.4852714e-08 -0.030849826
-0.043366488 0.055838194 0.040322 8.2656265e-23 0.034302294 -9.663024e-38 -0.0005676272 1.1649238e-38
0.025767744 -0.029880518 -0.020474022 -0.020816809 0.055695165 -0.0136832455 0.024230713 -0.0061804955
-2.297244e-38 -0.05601992 -0.0031131445 0.038338505 -0.03513894 0.030280875 -0.05109248 -8.874877e-39
6.8278767e-38 0.047072943 2.1217077e-38 8.162026e-29 -0.048974354 -0.01815625 -1.3861732e-37 -1.940079e-37
0.030376118 -0.041756365 -0.0012764382 -0.057145603 -0.05843906 -0.061660577 -0.037611607 -0.061970383
0.019137695 -0.01868301 -0.018746518 -0.048810847 -0.014873812 1.3397069e-37 0.032472737 3.081315e-39
-0.21111046 -1.3530209e-38 -4.335389e-39 0.03248707 0.04146042 -5.65349e-13 0.021144059 -0.032771084
-1.537097e-39 -0.011380284 -0.0076856483 0.027613254 -0.034868237 -0.057936154 -0.060888663 -3.633137e-39
-0.020392971 0.0008382861 0.011440079 -0.0018388056 0.0017348616 -0.018860206 -0.038656984 0.014076165
0.027099967 -0.065674976 -2.634569e-38 -0.00019295269 -0.02935933 -0.032655705 -0.033604525 -0.008616309
-0.036915336 0.058415484 -0.023960192 0.06553063 0.05924635 -0.023162328 -0.03506847 -0.03773388
-0.011855638 -0.013461398 -0.1615312 -0.025741462 -0.06206942 -0.031882197 -0.06968489 -6.751529e-39
1.5949086e-38 0.036558088 0.00195921 -0.03428871 6.092725e-39 -0.02731271 0.059651103 2.4186322e-38
-0.067658424 0.02203446 -0.18909803 -0.056577984 0.06665956 -0.025287302 -0.045261838 8.871403e-10
-0.048633162 0.07287067 -5.606745e-39 -3.900797e-39 -0.074803464 -0.031862114 -0.030302538 0.026608946
-0.05865276 0.00037992204 -0.024734234 -2.1296254e-38 -0.0073977653 0.03183827 0.0521041 -0.017962372
-1.076828e-39 0.022209577 -0.028325036 -3.7284163e-38 0.020961815 -1.1292504e-38 -0.004708303 -0.022082943
0.049493268 0.031047935 0.030232063 1.8515099e-38 -0.04947172 -0.026860792 -0.09529891 0.005663034
1.7437696e-38 -9.007028e-39 0.015515503 0.054855246 1.00165e-39 -0.033547595 0.044722784 0.029660689
1.046593e-37 2.46299e-40 -2.4301949e-38 0.0017667648 1.253394e-39 0.050163586 -0.020115819 -0.057706095
0.019040948 -8.7134033e-38 -5.947013e-39 2.6607595e-38 0.028190019 0.029725082 0.033299755 0.0011718726
00000000: d874 843d c0d3 5a3d 1522 df80 23c4 4100
00000010: 3f7a 483d 6a97 fe3c 57ff c43c 38f6 59bd
00000020: 7540 103c 5c53 8d3d 747d 47bc b298 3900
00000030: 93f3 f33b a2db 6cbd 509e d73c 0f74 73bd
00000040: 12cc 5701 b39a 893d 87b0 103d 6a58 7580
00000050: e390 23bd febb 2980 0b7c 033c 6708 1abd
00000060: a65c 6b3d 8913 fbbc a21f bbbb a6da 3002
00000070: 1c00 17bc 6d01 0fbd 4473 383e cd54 633c
00000080: 2460 5c81 750d 3201 60c0 a43c 3b25 513d
00000090: 560c e700 56b7 913c 8df6 24bd 7d99 a2bc
000000a0: 4342 0582 44fd 0082 3049 8d81 6b3f f03b
000000b0: 8b92 7e00 1e87 1b3c 4cf4 333b a4df 70bd
000000c0: 26ee 163d 670d b280 e643 1080 c97a 1f00
000000d0: eda1 65bd 98e8 d8bb 0cb7 653d 6d43 c7bd
000000e0: 128c 8a3d 51cf 353c a387 bd3c 899a f280
000000f0: 32a8 133b b38e 173d d1b7 483d d9a1 33bd
00000100: bc81 4cbd 38d4 a739 0063 ccbc 7c75 8abd
00000110: e01d 19bc 1bca 9400 0964 ecbc 389f 9a3c
00000120: 188a 89bd 6789 a9bc 83c8 993c f5de 18bc
00000130: 201b 21bd add4 9db9 a142 28bd 2536 62bd
00000140: 58e9 4aa6 53f3 99bc aebc 623d 9909 e33c
00000150: 29c7 e1bb 0688 b13c ed2a 7f32 c6b8 fcbc
00000160: 0fa1 31bd 97b6 643d ae28 253d c0d9 c71a
00000170: 9080 0c3d b986 0382 d1cc 14ba 56d9 7e00
00000180: e016 d33c fdc7 f4bc 23b9 a7bc 0388 aabc
00000190: 9d20 643d b12f 60bc 7d7f c63c c185 cabb
000001a0: d125 fa80 2575 65bd e605 4cbb d608 1d3d
000001b0: d9ed 0fbd 990f f83c 5946 51bd 8ca3 6080
000001c0: 5bdf b901 8fcf 403d 9408 e700 94ee ce10
000001d0: 5599 48bd 6abc 94bc 16ad 3c82 f108 8482
000001e0: 56d7 f83c b908 2bbd 294e a7ba 8211 6abd
000001f0: cc5d 6fbd cd8f 7cbd a10e 1abd a8d4 7dbd
00000200: a8c6 9c3c 1d0d 99bc 4c92 99bc e2ed 47bd
00000210: 4ab1 73bc f959 3602 2202 053d 748d 2100
00000220: 572d 58be b854 9380 4d35 2f80 2911 053d
00000230: 67d2 293d b021 1fab 4e36 ad3c f93a 06bd
00000240: cdbc 1080 5f74 3abc e4d7 fbbb 3135 e23c
00000250: ffd1 0ebd 764e 6dbd 6466 79bd b58f 2780
00000260: 290f a7bc 6ec0 5b3a 2b6f 3b3c 1404 f1ba
00000270: 4c64 e33a b880 9abc c956 1ebd b79f 663c
00000280: c000 de3c 9a80 86bd 8870 0f81 5853 4ab9
00000290: fa82 f0bc fdc1 05bd e6a4 09bd 6b2b 0dbc
000002a0: 8934 17bd 1345 6f3d 2a48 c4bc ec34 863d
000002b0: 4dac 723d ecbe bdbc f5a3 0fbd d78e 1abd
000002c0: 263e 42bc 328d 5cbc 6f68 25be c2df d2bc
000002d0: 813c 7ebd e896 02bd f4b6 8ebd 8484 4980
000002e0: 90ab ad00 efbd 153d 1766 003b 5272 0cbd
000002f0: 0a58 4200 e8be dfbc b754 743d d0ae 0301
00000300: 8090 8abd 9d81 b43c eaa2 41be 51be 67bd
00000310: cf84 883d 5127 cfbc 7a64 39bd f3da 7330
00000320: 9133 47bd 383d 953d 530d 3d80 d679 2a80
00000330: 8f32 99bd d981 02bd 073d f8bc 01fb d93c
00000340: e03d 70bd 4630 c739 739f cabc 4be5 e780
00000350: f468 f2bb d968 023d 1c6b 553d d325 93bc
00000360: c2b9 0b80 dcf0 b53c e809 e8bc 8afe 4a81
00000370: 1db8 ab3c e8f6 7a80 1c48 9abb 4ae7 b4bc
00000380: 74b9 4a3d 3d58 fe3c 3ba9 f73c 909c c900
00000390: dca2 4abd 2a0b dcbc 132c c3bd f990 b93b
000003a0: 34e1 bd00 ee13 6280 bc34 7e3c e5af 603d
000003b0: 31e8 0a00 3469 09bd 3d2f 373d f9fa f23c
000003c0: 7274 0e02 95ae 0200 f94f 0481 ca92 e73a
000003d0: f4a5 0d00 5578 4d3d eec9 a4bc 3a5d 6cbd
000003e0: c3fb 9b3c 8f33 ed81 dac1 4080 93dd 1001
000003f0: c1ee e63c 0482 f33c 5365 083d 8599 993a

net.2.bias f4 [2]
-0.061703622 0.044857714
00000000: f0bc 7cbd b9bc 373d
