data/models/heart_attack/heart_attack_50x8.pth (torch, 80925 bytes, 17 tensors)

net.0.weight f4 [50, 13]
0	0xbe5919ef	-0.21201299
1	0xbee2be78	-0.4428594
2	0x3e7a294e	0.24429819
3	0x3de16001	0.110046394
4	0xbdffb78f	-0.12486183
5	0x3ede77a9	0.43450668
6	0xbe4856ce	-0.19564363
7	0x3e3930f1	0.18085076
8	0xbef3b913	-0.47602138
9	0xbed47484	-0.41495144
10	0x3ed87195	0.42274156
11	0xbf08bfc2	-0.534176
12	0xbee5a5ab	-0.44852957
13	0xbc97fcf2	-0.01855323
14	0xbc38829d	-0.011261609
15	0x3c15e501	0.009148837
16	0xbc8646f2	-0.016391251
17	0xbc9851e5	-0.018593738
18	0xba972339	-0.0011530883
19	0xbae84f27	-0.0017723785
20	0xbc8c5d56	-0.01713435
21	0xbc2a4f62	-0.010394903
22	0xbcd82533	-0.026384925
23	0xbb85d7c4	-0.004084559
24	0xbc919d03	-0.017775064
25	0xbca28856	-0.0198404
26	0xbbe6bbeb	-0.0070414445
27	0x3cd518e3	0.026012843
28	0xbd768d89	-0.060193572
29	0xbbbcab80	-0.005757749
30	0xbb73bddb	-0.003719202
31	0x3c2351dc	0.009968247
32	0xbccf1b94	-0.025281705
33	0x3bf2b7f0	0.007407181
34	0x3d57fd20	0.052731633
35	0x3d64636b	0.055758875
36	0xbcdc586c	-0.026897632
37	0x3d17f21d	0.03709613
38	0x3c489985	0.012243633
39	0xbda307f7	-0.079605035
40	0xbe1d6244	-0.15369517
41	0x3db72745	0.08943037
42	0xbde3642d	-0.111030914
43	0x3d927f5b	0.071531974
44	0xbd9359e1	-0.071948774
45	0xbd545302	-0.051836975
46	0xbd96eaba	-0.07368989
47	0xbe412945	-0.188634
48	0xbe05ef49	-0.13079561
49	0x3d291633	0.041280936
50	0xbe25c198	-0.16187131
51	0xbd922caf	-0.07137429
52	0x39c17857	0.0003690149
53	0xa8b69f82	-2.0275235e-14
54	0x2ebf4351	8.697632e-11
55	0xbc021871	-0.007940398
56	0xbc2a72af	-0.010403319
57	0x0bb92c05	7.132564e-32
58	0x0a31ec0a	8.566634e-33
59	0xbc6f01e9	-0.014587858
60	0x97c1a214	-1.2513247e-24
61	0x06df886c	8.408373e-35
62	0xad7fc34f	-1.4538439e-11
63	0x10897dd3	5.4230835e-29
64	0x365d79af	3.3002395e-06
65	0xbe49155d	-0.19637056
66	0x3f31e276	0.69486177
67	0xbf154cf7	-0.58320564
68	0x3e4b42ba	0.19849673
69	0x3c3af393	0.011410612
70	0x3b1e6c6e	0.0024173516
71	0xbe0ee435	-0.13954242
72	0xbdb9e6e5	-0.09077243
73	0x3f1e194b	0.61757344
74	0x3ed3eafb	0.41390213
75	0xbe48dbc8	-0.1961509
76	0x3f1ad314	0.6047833
77	0x3edebf74	0.43505442
78	0xbcae5489	-0.021280544
79	0xb681b372	-3.8653898e-06
80	0xba61b3ea	-0.0008609878
81	0xbcc8f080	-0.024528742
82	0xbc3fb70f	-0.011701359
83	0x339c10f2	7.2673984e-08
84	0xb6778349	-3.6882286e-06
85	0xbc9cb337	-0.019128425
86	0x34001952	1.193014e-07
87	0x375654e1	1.2775156e-05
88	0xb536efc8	-6.814921e-07
89	0xb77d010a	-1.5080217e-05
90	0xba09e1ff	-0.00052598113
91	0x3e5f87c7	0.21829139
92	0xbf286279	-0.6577526
93	0x3f36c78a	0.7139822
94	0xbe816cb0	-0.25278234
95	0x3e45d872	0.19320849
96	0xbdc383a4	-0.09546593
97	0x3d26a85e	0.04068791
98	0xbd5dafce	-0.05412274
99	0xbf6ceb7d	-0.92546827
100	0xbf18df87	-0.59716076
101	0x3e633b36	0.22190556
102	0xbf3eb33d	-0.74492246
103	0xbee4c37c	-0.44680393
104	0x3c1c9c2a	0.009558717
105	0xbd8cf878	-0.06883329
106	0x3c93e6aa	0.018054325
107	0x3bb80121	0.005615369
108	0xbb1b24ee	-0.0023673135
109	0x3d99accd	0.07503662
110	0xbc840d0b	-0.0161195
111	0xbc27e44d	-0.010247302
112	0xbd587bc2	-0.0528524
113	0xbd6100fe	-0.054932587
114	0x3d038c13	0.032116007
115	0xbcbca88e	-0.023029592
116	0xbd17b2c1	-0.037035707
117	0xbe8e395d	-0.2777814
118	0x3f5131d5	0.8171666
119	0xbf590bbb	-0.84783524
120	0x3c377faf	0.011199876
121	0x3e594191	0.21216418
122	0x3ddc75f3	0.107646845
123	0xbe9d71e3	-0.3075095
124	0xbdf251b6	-0.118319914
125	0x3f0baabc	0.54557395
126	0x3f20a4ea	0.6275164
127	0xbe7912ea	-0.24323621
128	0x3f35838c	0.7090385
129	0x3e34d63c	0.17659849
130	0xbeb4c601	-0.35307315
131	0x3f5577fc	0.83386207
132	0xbf00a4a3	-0.50251216
133	0xbe0b6460	-0.13612509
134	0x3e544abf	0.20731638
135	0x3ec89511	0.3917623
136	0xbeddf883	-0.43353662
137	0xbe8206c5	-0.2539579
138	0x3e8282b6	0.2549035
139	0x3f0328cf	0.51234144
140	0xbe5dc972	-0.21658877
141	0x3e68cb3d	0.22733779
142	0x3ddf9e98	0.10918921
143	0x3de3d34d	0.11124287
144	0x3f0556fc	0.5208585
145	0xbf3a0865	-0.7266906
146	0x3dc31535	0.09525529
147	0xbb8cf822	-0.0043020407
148	0xbe3c1df7	-0.18370806
149	0xbdb996a3	-0.09061935
150	0x3d5f6cbf	0.054547068
151	0x3f21b88d	0.6317223
152	0x3f2d1d29	0.6762262
153	0xbebbf37a	-0.36709195
154	0x3ec9f1c7	0.39442274
155	0x3e4ec436	0.20192036
156	0x3d712226	0.058870457
157	0xbdbcc93a	-0.092180684
158	0xbe93f4f1	-0.28897813
159	0x3e519ff7	0.20471178
160	0xbd444a9b	-0.04792271
161	0xb995bcac	-0.00028560066
162	0x3dc34049	0.09533746
163	0xbe41e7a2	-0.18936017
164	0x3e464ea3	0.19365935
165	0x3ead9234	0.33900607
166	0xbba3b6db	-0.0049961633
167	0x3e7830b0	0.24237323
168	0x3d9b6281	0.075871475
169	0x3e595543	0.21223931
170	0x3f5a08b0	0.85169506
171	0xbf6f7e7c	-0.93552375
172	0xbda28b21	-0.07936693
173	0x3c96f170	0.018425673
174	0x3cc3ae58	0.023886845
175	0xbe889c38	-0.26681685
176	0xbbd8a7ce	-0.0066118008
177	0x3f8a00b7	1.0781468
178	0x3f337591	0.7010127
179	0xbdc41dc6	-0.09575991
180	0x3f533ab9	0.8251148
181	0x3e9db95c	0.3080548
182	0x02da9efe	3.2123478e-37
183	0xacc3ca81	-5.564716e-12
184	0x80476876	-6.557794e-39
185	0x9e13d012	-7.825143e-21
186	0xa81043ae	-8.0082815e-15
187	0x922770cc	-5.283494e-28
188	0x9e3ab8e5	-9.884993e-21
189	0xa22ea8b7	-2.3670714e-18
190	0x80a479d3	-1.5104724e-38
191	0x855bffd1	-1.03443166e-35
192	0x92a7fb9d	-1.0601209e-27
193	0x22246563	2.2279818e-18
194	0x80dbc491	-2.0182488e-38
195	0xbe49d7a8	-0.19711173
196	0xbf4b95cd	-0.7952545
197	0x3f4a823c	0.7910497
198	0xbdd35c5d	-0.10320351
199	0x3d81e894	0.06343189
200	0x3d0ade74	0.033903554
201	0x3ebb53fd	0.36587515
202	0x3e1d47f2	0.15359476
203	0xbf309a84	-0.6898577
204	0xbf4bae1c	-0.79562545
205	0x3dbbe3f4	0.09174338
206	0xbf0f5ab0	-0.55997753
207	0xbe0fe6fc	-0.14052957
208	0x3c4ce2f2	0.01250528
209	0x3f510ace	0.8165711
210	0xbf4bc0df	-0.7959117
211	0x3db02f8a	0.08602817
212	0x3e6b4397	0.22975002
213	0xbd82c9cd	-0.06386147
214	0xbeaedde1	-0.34153655
215	0xbdda10f3	-0.10647764
216	0x3f1874d5	0.5955327
217	0x3f4e8cb2	0.80683434
218	0xbe17af35	-0.1481293
219	0x3eb7a992	0.3587156
220	0x3f0dfb80	0.55461884
221	0xbc88ec13	-0.016714131
222	0xb4f0bfec	-4.4843125e-07
223	0xb6ec34da	-7.039501e-06
224	0xbc9d4fc4	-0.019203074
225	0xbcc54f64	-0.024085708
226	0xae5adcfb	-4.976373e-11
227	0x2fb7d1b0	3.3436498e-10
228	0xbcdfc871	-0.027317258
229	0x2e0f8a33	3.263718e-11
230	0xb5023dc4	-4.8518655e-07
231	0xb78ab2b2	-1.6534093e-05
232	0xb231a3f2	-1.0340033e-08
233	0xb93021e2	-0.0001679729
234	0xbad6229d	-0.001633722
235	0xb8052aad	-3.1749416e-05
236	0xb30c87d2	-3.2719818e-08
237	0xbb52fffa	-0.003219603
238	0xbb8032d6	-0.00391231
239	0xb28dad3a	-1.6493335e-08
240	0xb80ac24c	-3.3082717e-05
241	0xbb9860b9	-0.004650202
242	0xb3df63a6	-1.0402373e-07
243	0x33b23394	8.298153e-08
244	0xb7e4cfa0	-2.7276401e-05
245	0x33c7c08c	9.301684e-08
246	0xb8912ef1	-6.922882e-05
247	0xbd9ac23f	-0.07556581
248	0xbf145f58	-0.57957983
249	0x3ea099a1	0.3136721
250	0xbdf435b2	-0.11924304
251	0x3e178aa0	0.14798975
252	0x3e713719	0.23556174
253	0xbc958325	-0.018251011
254	0x3de12934	0.10994187
255	0xbf1ae662	-0.60507786

net.0.bias f4 [50]
0	0xbe2c7339	-0.16840829
1	0xbbea3cdf	-0.0071483697
2	0xbabaf29e	-0.0014262979
3	0xbc4867cb	-0.012231777
4	0xa3c0072d	-2.081972e-17
5	0x3b075374	0.0020649107
6	0xb5870473	-1.0059579e-06
7	0x3d1cb789	0.03826097
8	0x3aa2c1b9	0.0012417353
9	0x3df33ac5	0.11876444
10	0x3e2c7974	0.16843206
11	0xbe807e8e	-0.25096554
12	0x3e1dd128	0.15411818
13	0x3daa7acc	0.08324203
14	0x0ad049ea	2.0057475e-32
15	0xbe1090de	-0.14117762
16	0x3df1ea0c	0.11812219
17	0xb83f4d49	-4.5609926e-05
18	0xb8044e96	-3.154444e-05
19	0xbd696539	-0.0569813
20	0x22367d49	2.4731925e-18
21	0x1d277e9a	2.2167717e-21
22	0xbd1dbdab	-0.03851096
23	0x3e81b12a	0.25330478
24	0x063b0484	3.5174109e-35
25	0xbe1284af	-0.14308427
26	0xbc2ae310	-0.0104301125
27	0x07f40320	3.6714876e-34
28	0x005c5834	8.480507e-39
29	0x3df0bdbb	0.11754938
30	0xade318d2	-2.5817935e-11
31	0x1289edfc	8.704583e-28
32	0xadeddfd3	-2.7043178e-11
33	0x9e2af6b7	-9.0507445e-21
34	0xbd0f2442	-0.034946688
35	0xbc43296c	-0.011911731
36	0x3e29efe9	0.16595425
37	0x3d2b465d	0.04181515
38	0x0f2772fa	8.2558794e-30
39	0x3d0b8b5a	0.034068443
40	0xb9cf8f4a	-0.00039588875
41	0xbab22f89	-0.0013594489
42	0xbb57ed3e	-0.0032947804
43	0x3e4c4855	0.19949467
44	0x0847210a	5.992322e-34
45	0x01b6e681	6.7187e-38
46	0x3e403ed3	0.18773966
47	0x3e321ed2	0.1739457
48	0x3de4b251	0.11166824
49	0xb5983a32	-1.134182e-06

net.2.weight f4 [50, 50]
0	0x3ccc119e	0.024910744
1	0x3c47d603	0.01219702
2	0xbd043d32	-0.032284923
3	0x3d9b6ab1	0.07588709
4	0x8569d2fd	-1.099436e-35
5	0xbd5a1487	-0.053242233
6	0x26d94828	1.5076958e-15
7	0xbddfaa0b	-0.10921105
8	0x3bc7a47a	0.006092605
9	0x3d1618f1	0.03664488
10	0x3e54677f	0.20742606
11	0xbdfd5b03	-0.12370875
12	0x3d923af0	0.07140148
13	0xbddb7281	-0.10715199
14	0x001d5455	2.693482e-39
15	0xbe0b7ef4	-0.13622648
16	0x3dbfd4ee	0.09366785
17	0xac93c2df	-4.1996263e-12
18	0xb2fad415	-2.9200274e-08
19	0x3d6a0090	0.057129443
20	0x8c6f81e8	-1.8450983e-31
21	0x9bf22ae7	-4.0063267e-22
22	0x3d831bcb	0.064017855
23	0xbdd885dd	-0.105724074
24	0x040f963c	1.6878553e-36
25	0x3cf30e9d	0.029670054
26	0x04232c6d	1.9180957e-36
27	0x00ba23c4	1.7094233e-38
28	0x8018a861	-2.264455e-39
29	0xbdacbfc0	-0.08435011
30	0x8ded41c4	-1.4622085e-30
31	0x07fa54bd	3.7665624e-34
32	0x800e77ee	-1.32872e-39
33	0x8325ed4c	-4.8761545e-37
34	0x3bbb64ac	0.005718788
35	0x3cdc638c	0.026902936
36	0x3d1d9eb8	0.038481444
37	0x3dee499f	0.11635136
38	0x00404c9f	5.904958e-39
39	0x3caf94a4	0.021433182
40	0x3d2f821c	0.04284869
41	0xbc5ab5ae	-0.01334898
42	0x3d26ab51	0.040690724
43	0x3d2ace13	0.041700434
44	0x80b66042	-1.6748591e-38
45	0x00e9e4aa	2.14797e-38
46	0x3d4bfdfc	0.049802765
47	0xbd15ad2c	-0.036542103
48	0x3ba1aa47	0.0049336287
49	0x8beecb3c	-9.198006e-32
50	0x38b7015a	8.726372e-05
51	0x809d8ab1	-1.4467926e-38
52	0x0451448a	2.4599304e-36
53	0x05090c29	6.4439425e-36
54	0x80202969	-2.953591e-39
55	0xbb98c34c	-0.004661953
56	0x8084c9a0	-1.2194615e-38
57	0xbbf5a13f	-0.0074960287
58	0x81c2e073	-7.1586414e-38
59	0xbbcbff43	-0.006225498
60	0x3b533729	0.0032228923
61	0xbbf241b1	-0.007393085
62	0x88866bf2	-8.0902095e-34
63	0xbb4bf3dc	-0.0031120693
64	0x8c84764b	-2.0409015e-31
65	0xbbe4586f	-0.00696855
66	0xbbd5bc97	-0.006522726
67	0x0a2bd019	8.272489e-33
68	0x0848dfe0	6.0448475e-34
69	0xbc940edc	-0.018073492
70	0x027b4de2	1.8462919e-37
71	0x034f69bb	6.0953205e-37
72	0xbbe48fc2	-0.006975145
73	0xbb8e56b5	-0.0043438324
74	0x820811ba	-9.996789e-38
75	0xbc20b2da	-0.009808267
76	0x86de4a57	-8.361635e-35
77	0x8689d2a2	-5.184317e-35
78	0x02578475	1.5833719e-37
79	0xbc18889e	-0.009309916
80	0x80fd671b	-2.3271368e-38
81	0x80dc2838	-2.0218237e-38
82	0x8ba8963b	-6.493729e-32
83	0x00194e6c	2.32402e-39
84	0xab881186	-9.668245e-13
85	0xb8234238	-3.89239e-05
86	0xba4417ae	-0.0007480335
87	0x3452dca4	1.9638043e-07
88	0x814bf542	-3.7461175e-38
89	0x3b994100	0.004676938
90	0x8a181ded	-7.324162e-33
91	0x03d06bc1	1.224988e-36
92	0x005143f2	7.46305e-39
93	0x3a06350c	0.0005119599
94	0x010a7f6d	2.543802e-38
95	0x08360ef7	5.4786224e-34
96	0x3afb843e	0.0019189192
97	0x3b1bb034	0.0023756148
98	0xb6989d0e	-4.5482366e-06
99	0x0043bfa6	6.221729e-39
100	0x0559a3b5	1.0233359e-35
101	0x04f2c26e	5.7072482e-36
102	0x0e0d8883	1.744532e-30
103	0x8028acd6	-3.735422e-39
104	0x86071412	-2.5405423e-35
105	0x0a367eac	8.7868056e-33
106	0x0060b254	8.88018e-39
107	0x3b6f152c	0.0036481125
108	0x85467bbe	-9.332643e-36
109	0xbbbc41a4	-0.0057451297
110	0x01890db2	5.0345504e-38
111	0x3a9b6076	0.0011854309
112	0x825c781e	-1.6197519e-37
113	0x88996c30	-9.233787e-34
114	0x841d0b06	-1.8460323e-36
115	0xb072a1b7	-8.82689e-10
116	0xbc4f0131	-0.012634561
117	0x8773fd2e	-1.8355691e-34
118	0x0078485d	1.1046219e-38
119	0x3d236b53	0.039897274
120	0x0071d81e	1.045494e-38
121	0x0ac7a68d	1.9225652e-32
122	0xbb8831a7	-0.0041563096
123	0xb572d77b	-9.046559e-07
124	0x0134d54c	3.3213812e-38
125	0x35c2d4b6	1.4516033e-06
126	0x0b00465f	2.4704845e-32
127	0x01910911	5.32776e-38
128	0x012de036	3.1935945e-38
129	0xbcead295	-0.028664866
130	0x0a2965a3	8.15617e-33
131	0x0280a34a	1.8901633e-37
132	0x85f4c33b	-2.3017366e-35
133	0x80089faa	-7.9196e-40
134	0x0a3234c9	8.580316e-33
135	0x82fdf7d8	-3.7317264e-37
136	0x8d097d8f	-4.236752e-31
137	0x01446d49	3.6077923e-38
138	0x00e9423f	2.1421435e-38
139	0x00cd8d0d	1.8876876e-38
140	0x83042c39	-3.884208e-37
141	0x8abf1fd7	-1.8404608e-32
142	0x0044d4e0	6.321179e-39
143	0x35502603	7.754135e-07
144	0x0a3ccac1	9.0900045e-33
145	0x033d0545	5.5548157e-37
146	0x8dcbc5f0	-1.2558493e-30
147	0x3acbaad3	0.001553858
148	0x80424ee8	-6.089449e-39
149	0x86918e66	-5.4752174e-35
150	0x3e08f3c9	0.13374247
151	0xbccdb1d7	-0.025109215
152	0xbc09e89d	-0.008417276
153	0x3cc99c51	0.02461067
154	0x9d8d4831	-3.7397033e-21
155	0xbd017926	-0.031609677
156	0x3c970e1c	0.018439345
157	0x3e1a9144	0.15094477
158	0x3ce45df0	0.027876824
159	0x3dc002e9	0.09375555
160	0x3bfc9f71	0.0077094366
161	0x3d5cbcd4	0.053891018
162	0xbbbfb9f0	-0.005851023
163	0xbdef483f	-0.11683702
164	0x007afc92	1.1294536e-38
165	0x3da5cfe6	0.08096294
166	0xbe09d0e7	-0.13458596
167	0xbc6eb565	-0.014569615
168	0x3990b080	0.00027597323
169	0x3dff7a13	0.12474456
170	0x80183ba1	-2.225443e-39
171	0x9bf02f60	-3.9735285e-22
172	0x3d2df385	0.042468566
173	0xbe382422	-0.17982534
174	0x09e613b0	5.5389e-33
175	0x3e10d88c	0.14145106
176	0xbd0c4816	-0.034248434
177	0x807d6dec	-1.151887e-38
178	0x8037fa10	-5.140658e-39
179	0x3d26cefc	0.04072474
180	0x8d90d6dd	-8.926412e-31
181	0x802cb288	-4.104807e-39
182	0x8354a13c	-6.248629e-37
183	0x803758a2	-5.082748e-39
184	0x3d235a6c	0.039881155
185	0x3e6857fa	0.2268981
186	0xbd62261b	-0.05521212
187	0xbc9670e1	-0.018364372
188	0x8ba4cf28	-6.3482196e-32
189	0x3c8fa893	0.017536437
190	0x3b9fe276	0.004879291
191	0xbc582f1d	-0.013194826
192	0x3d3e0883	0.046394836
193	0xbd942b9f	-0.072348826
194	0x03098366	4.041152e-37
195	0x0011d6e0	1.638286e-39
196	0xbd86190a	-0.065477446
197	0xbd987857	-0.07444828
198	0x3ca3bdc9	0.019987958
199	0x3c9f91ba	0.019478668
200	0xbcfb928c	-0.030709527
201	0xbcce512a	-0.025185186
202	0xbbb3bfb6	-0.0054855
203	0x3d2daebc	0.042402968
204	0x9b70166a	-1.9859577e-22
205	0x3d1b66ab	0.03793971
206	0x3c948dd1	0.01813403
207	0x3c42f9dd	0.011900392
208	0xbcc131d3	-0.023583328
209	0x3c0e4717	0.008683941
210	0xbc035161	-0.008015008
211	0xbe03b0da	-0.12860432
212	0x3dc326eb	0.095289074
213	0xbe382708	-0.17983639
214	0x8d45c7bd	-6.094574e-31
215	0xbdde6cec	-0.10860619
216	0x3d34e028	0.044159085
217	0x39870b45	0.00025757603
218	0x39788e80	0.00023704208
219	0xbb86234a	-0.0040935623
220	0x84a117ae	-3.7872664e-36
221	0x1bd232fc	3.4774534e-22
222	0x3e1b22ea	0.15150037
223	0xbe006119	-0.1253704
224	0x048cfa44	3.3143675e-36
225	0x3df195e4	0.117961675
226	0xbd54ee05	-0.051984806
227	0x0431c24f	2.0895472e-36
228	0x006bbef0	9.894894e-39
229	0x3dbbfc83	0.09179022
230	0x0e0b4a7d	1.7168938e-30
231	0x051fa32b	7.506113e-36
232	0x8320919c	-4.7186925e-37
233	0x029a4f3e	2.267375e-37
234	0x3bacae71	0.0052698185
235	0x3ea5a2b4	0.32350695
236	0x3a62973b	0.0008643751
237	0x3b8f7e56	0.004379074
238	0x000bc0b0	1.079314e-39
239	0xbd36b9c4	-0.044610754
240	0x369afe3d	4.619155e-06
241	0xbb8e0fe2	-0.0043353895
242	0xbd812f8e	-0.063078985
243	0x3d2d14f1	0.0422563
244	0x81f76e77	-9.089198e-38
245	0x8b95f5a8	-5.7762335e-32
246	0xbdb1afeb	-0.08676132
247	0xbcc1c799	-0.023654746
248	0x3d67af68	0.056563765
249	0x3ca3bd3f	0.0199877
250	0x3d812e17	0.06307619
251	0xbcaa2119	-0.020767735
252	0x3cd97ad4	0.026547827
253	0x3d275d15	0.040860254
254	0xb2bc8ea9	-2.1950955e-08
255	0x3baeb1af	0.00533124

net.2.bias f4 [50]
0	0xbd3f520b	-0.0467091
1	0xb7bd55a2	-2.2570432e-05
2	0x05bc542c	1.7710355e-35
3	0xbe17c0f8	-0.14819705
4	0xbc0bfc1f	-0.008543997
5	0xbe0c32d9	-0.13691272
6	0x3da21d64	0.07915762
7	0xbba9f9bb	-0.005187241
8	0x173c6522	6.0873724e-25
9	0xbd51f82d	-0.05126207
10	0x0a2aa37a	8.215949e-33
11	0xbd95b560	-0.07309985
12	0xbc0a35a3	-0.00843564
13	0x052cd868	8.127149e-36
14	0xbdfa2779	-0.1221456
15	0xbbd60c04	-0.006532194
16	0xbc4de7dd	-0.012567488
17	0xbdf3b053	-0.118988656
18	0xba626bf2	-0.0008637301
19	0xba70ee54	-0.0009190787
20	0x3684570d	3.9440406e-06
21	0xbc67778a	-0.014127621
22	0x0be02bb5	8.6347425e-32
23	0xaac00762	-3.4111174e-13
24	0xba4f22aa	-0.00079015887
25	0x3c041c2b	0.008063356
26	0xbd73e5ba	-0.059545256
27	0x875a3421	-1.6415816e-34
28	0x3bdb5adc	0.006694181
29	0xbc98e74a	-0.018664975
30	0xbc6e99da	-0.014563048
31	0x8b8d44b3	-5.441459e-32
32	0x3b7db846	0.0038714572
33	0xbc0668b4	-0.008203674
34	0xa1f56a48	-1.6629978e-18
35	0xbd65d7c6	-0.05611398
36	0x3d4b0062	0.049560912
37	0xbbcf9dcc	-0.0063359495
38	0x098bc720	3.365029e-33
39	0x3d8ce8af	0.068803184
40	0xbd2a49e0	-0.04157436
41	0xbdf2d359	-0.118567176
42	0x3db815bf	0.08988523
43	0x3cd61313	0.026132142
44	0xbd4c1e62	-0.049833663
45	0x3d8ac6a6	0.067761704
46	0xbdbb1f06	-0.091367766
47	0x804aceec	-6.870056e-39
48	0xbbffef51	-0.007810511
49	0x3dde7497	0.108620815

net.4.weight f4 [50, 50]
0	0x19a570d2	1.7106168e-23
1	0x074d49bb	1.5444153e-34
2	0x89df4724	-5.3752198e-33
3	0x39cfea1e	0.00039656548
4	0xb6463782	-2.953661e-06
5	0x11bbab2d	2.9608893e-28
6	0xb7015a59	-7.710035e-06
7	0x09aa8042	4.1046624e-33
8	0x848b206c	-3.2708518e-36
9	0x01c2966d	7.1480195e-38
10	0x08f2b85f	1.4608191e-33
11	0xac8eac26	-4.054995e-12
12	0x87663ddf	-1.7321459e-34
13	0x83b7e084	-1.080732e-36
14	0xb4e217df	-4.211315e-07
15	0x2ede93af	1.0121625e-10
16	0x00d745e3	1.9769702e-38
17	0xbb2f6d71	-0.0026768113
18	0x80ed1de1	-2.1775731e-38
19	0x85d56806	-2.0068636e-35
20	0x0777ec47	1.865165e-34
21	0x21214f1e	5.465363e-19
22	0x067d8b30	4.768627e-35
23	0x0b9e530d	6.098435e-32
24	0x030848dc	4.0050446e-37
25	0xb21d63d5	-9.161302e-09
26	0x8e049763	-1.6343146e-30
27	0x0107ad28	2.4919817e-38
28	0x9c384ec5	-6.09823e-22
29	0xba2967b4	-0.00064622913
30	0x86102dcc	-2.7117036e-35
31	0x830625f6	-3.942264e-37
32	0xad0a9bfe	-7.879029e-12
33	0x81013712	-2.373307e-38
34	0x871d529e	-1.1835646e-34
35	0x292c8a9e	3.8311903e-14
36	0x15eae3a0	9.4870976e-26
37	0xb79df939	-1.8831912e-05
38	0x897c6fb5	-3.0385921e-33
39	0xaec24163	-8.8337136e-11
40	0x33aef811	8.1476294e-08
41	0x32f20f29	2.8179402e-08
42	0x3559b6c1	8.110474e-07
43	0x30fdf1e8	1.8476927e-09
44	0xb8fd931d	-0.00012091382
45	0xb6ecd898	-7.058563e-06
46	0x814943d4	-3.6966534e-38
47	0x0ddd1787	1.3625841e-30
48	0x00dbbf7c	2.0180665e-38
49	0xb7686030	-1.3850673e-05
50	0xbd72ac52	-0.05924637
51	0xbb3eee36	-0.0029133684
52	0x81846216	-4.862989e-38
53	0xbdf0d30b	-0.11759003
54	0xbcac44d9	-0.021028923
55	0xbd0ceb18	-0.03440389
56	0xbcc15015	-0.023597756
57	0x3c24ff56	0.010070642
58	0xbbd0aaa7	-0.0063679996
59	0x3caafa5b	0.020871332
60	0x07f05ec8	3.6166894e-34
61	0x3ca21c5a	0.01978891
62	0x3c266abd	0.010157284
63	0x06ad8d5d	6.528308e-35
64	0xbe26f9e4	-0.16306263
65	0x3d8978a3	0.06712463
66	0x3b1ee938	0.0024247896
67	0x3e387bac	0.18015927
68	0x3c443837	0.011976293
69	0x3c41ac9b	0.0118209375
70	0xbac76e6f	-0.0015215407
71	0xbde2e9be	-0.11079739
72	0xb278757f	-1.4462215e-08
73	0x3c37e38e	0.011223687
74	0xbc5448ba	-0.0129567925
75	0x3b9efdf4	0.004852051
76	0x3d7c76ef	0.06163686
77	0x3549a383	7.5116276e-07
78	0xbe14c6ce	-0.14528963
79	0x3df4ab97	0.11946791
80	0xbd0ec45d	-0.034855235
81	0x8b806c66	-4.9466906e-32
82	0xbd9c767a	-0.07639785
83	0xbd5720b5	-0.052521426
84	0x3b5492d3	0.0032436147
85	0x3df52901	0.119707115
86	0xbbd3de70	-0.0064657256
87	0xbb3f3839	-0.0029177798
88	0x849ec9dc	-3.7331e-36
89	0x3e036e53	0.12835054
90	0xbdf915d9	-0.1216237
91	0xbdaa310a	-0.08310135
92	0xbdcb14ef	-0.09916102
93	0x3d99406e	0.07482992
94	0x3db413e1	0.08792854
95	0x3cc52c43	0.024068957
96	0x3db3ad4e	0.087732896
97	0x0993d1c7	3.5586236e-33
98	0x39ddfece	0.0004234225
99	0xbe1df9b2	-0.15427282
100	0x38bb4c95	8.9311194e-05
101	0x8131bb99	-3.264436e-38
102	0x82ed96b9	-3.491053e-37
103	0xbcf643ec	-0.030061685
104	0x3c8bcb5b	0.01706474
105	0xbb8db60a	-0.0043246793
106	0x3cd902b4	0.026490547
107	0x3b334594	0.0027354704
108	0x009cdd08	1.4405628e-38
109	0x3dd004e0	0.1015718
110	0x86b90df5	-6.9609774e-35
111	0x3dcdacb8	0.10042709
112	0x028f205a	2.103053e-37
113	0x0ba22c65	6.246693e-32
114	0xbd0f4af4	-0.03498359
115	0x3dadce8c	0.08486661
116	0x3c80a5cc	0.015704058
117	0x3d8a2e11	0.06747068
118	0x3dba32a4	0.0909169
119	0x86e8ef9d	-8.762078e-35
120	0xb639f59e	-2.7710116e-06
121	0x3c59b754	0.013288338
122	0x89063fbc	-1.6159631e-33
123	0x00b0bf62	1.6231703e-38
124	0x098dd208	3.4142028e-33
125	0x3d0c1a68	0.03420487
126	0x3b95db7f	0.004573285
127	0x8a5bdca6	-1.0585966e-32
128	0x3d60f75f	0.05492341
129	0xbc54a684	-0.012979154
130	0x87f45f00	-3.6768876e-34
131	0x81608446	-4.1237204e-38
132	0x804f40e3	-7.278281e-39
133	0x8d47c57a	-6.1559313e-31
134	0x85ab27c4	-1.609537e-35
135	0x3dc80e1c	0.09768316
136	0x3da7814f	0.081789605
137	0x3e134be7	0.14384423
138	0x828e5dfb	-2.0918967e-37
139	0x3ccb4a22	0.024815623
140	0xba89c272	-0.001051022
141	0x3d700313	0.05859668
142	0x3d1ca51b	0.038243394
143	0x3a0d45ac	0.0005389105
144	0x3c8953b5	0.016763547
145	0x3d85ba28	0.06529647
146	0x8d898a63	-8.476592e-31
147	0x085a9061	6.5771705e-34
148	0x3dc719b4	0.09721699
149	0x3ab176d4	0.0013539442
150	0x3bfbea22	0.007687823
151	0xbc1cd077	-0.009571186
152	0x8241df14	-1.4243421e-37
153	0x3c3b9013	0.011447924
154	0xbe2bbc63	-0.16771083
155	0xbd948532	-0.072519675
156	0xbd88e694	-0.06684604
157	0x3d3f7048	0.04673794
158	0x8129b53e	-3.1170433e-38
159	0x3cf53d26	0.029936384
160	0x8a802228	-1.23388e-32
161	0xbe498049	-0.19677843
162	0xbc0246fc	-0.007951494
163	0x32340194	1.0477738e-08
164	0x3d286f5b	0.04112182
165	0x3c636608	0.013879307
166	0x3c8b9059	0.017036604
167	0x3df720d9	0.12066812
168	0x3d4cc5e0	0.049993396
169	0xb821cda9	-3.8576927e-05
170	0xb7d6a55b	-2.5587788e-05
171	0x3d6f7d4f	0.058469113
172	0x871bc836	-1.1719741e-34
173	0x3b427c17	0.0029676014
174	0xbbbcfbfa	-0.0057673426
175	0x3df7f672	0.121075526
176	0x3cc27ba7	0.023740603
177	0x08903f5e	8.681582e-34
178	0x3d6b3300	0.057421684
179	0xbd8b5aec	-0.06804451
180	0xbbad2028	-0.0052833743
181	0x899e1be3	-3.806334e-33
182	0x3dc1c2fb	0.09461018
183	0xbca023c1	-0.019548299
184	0x3bf23f4d	0.0073928
185	0x3d337d61	0.043820743
186	0xbb6a1b4a	-0.0035721832
187	0xbdac70e8	-0.08419973
188	0x8023ad7c	-3.276477e-39
189	0x3d81f772	0.063460246
190	0xbddff82c	-0.10936007
191	0xbd913d65	-0.07091788
192	0x3d4cd7db	0.050010543
193	0x3dd59b03	0.10429957
194	0xbdcd7b0a	-0.100332335
195	0x3d182b1d	0.03715049
196	0x3e01f9a3	0.12692885
197	0x001eabfd	2.816763e-39
198	0xb9d03de7	-0.00039718972
199	0xbe0e6313	-0.13904981
200	0x3c043b23	0.00807074
201	0x05b28784	1.678882e-35
202	0x894304a0	-2.3474446e-33
203	0xbccbd278	-0.024880633
204	0xbd79433c	-0.060855135
205	0x39cc0b6b	0.0003891842
206	0xba456e14	-0.00075313565
207	0x077f5b00	1.921081e-34
208	0x05584b7d	1.0170136e-35
209	0x315a00e0	3.1723673e-09
210	0x01e0f0a2	8.2629896e-38
211	0x3892127b	6.965265e-05
212	0x010268ca	2.3952411e-38
213	0x33aefd6c	8.1486036e-08
214	0xbb27bc57	-0.0025594437
215	0x3b7f4bed	0.0038955167
216	0x89e8a920	-5.6011013e-33
217	0xbd165b3b	-0.036708098
218	0x038b3910	8.182787e-37
219	0xb90737ba	-0.00012895363
220	0x02a29042	2.388656e-37
221	0x3d3b848b	0.0457807
222	0x81154084	-2.7413266e-38
223	0x00014072	1.14954e-40
224	0x0228ec88	1.2410572e-37
225	0xbce28470	-0.027651042
226	0xaff73c68	-4.497196e-10
227	0x04fd4db2	5.9551366e-36
228	0xb4f059c2	-4.476879e-07
229	0xbd218cca	-0.039440908
230	0x0b997542	5.9109886e-32
231	0x8619aac9	-2.8901575e-35
232	0x3ce0a424	0.027422018
233	0x3ba39e6e	0.0049932515
234	0x829b592d	-2.2826387e-37
235	0x3cd20ebc	0.025641792
236	0x82405fcf	-1.4133428e-37
237	0x3b40022e	0.0029298174
238	0x8c28ea8f	-1.3012834e-31
239	0xb7b41407	-2.1466998e-05
240	0xbc02a5e3	-0.007974121
241	0x3c299df3	0.010352599
242	0x3bcf49eb	0.0063259504
243	0x3d0b2b99	0.033977125
244	0x3c99c553	0.01877085
245	0xb12a94f1	-2.482292e-09
246	0xbbfda7cb	-0.0077409497
247	0x809443ae	-1.3615932e-38
248	0x86f7a37f	-9.315131e-35
249	0x3be1b08d	0.0068875016
250	0x3b046be4	0.002020591
251	0x3c4d2274	0.012520421
252	0x062c2d2c	3.2382792e-35
253	0x3c114366	0.008866167
254	0x3a046ffa	0.0005052086
255	0x3da0e20b	0.07855614

net.4.bias f4 [50]
0	0x0eca9dae	4.9948685e-30
1	0xbc160918	-0.009157442
2	0x3ce01a01	0.02735615
3	0x3d520892	0.051277705
4	0xb3e8b6ed	-1.0836616e-07
5	0xbcce08a3	-0.025150603
6	0xbc47cf65	-0.012195443
7	0x3d74607f	0.05966234
8	0x3d6ba912	0.057534285
9	0x3bc4094b	0.005982553
10	0xb9ed90ce	-0.0004531205
11	0xad27f213	-9.546602e-12
12	0xbca235d5	-0.01980106
13	0x3db49745	0.08817915
14	0x2ad61966	3.803166e-13
15	0xbdd1ab0c	-0.10237703
16	0x3c44bda4	0.0120081045
17	0x3cbeb6cd	0.023280526
18	0xbd59f1ad	-0.053208996
19	0xbbf7bc70	-0.0075603053
20	0xa7d74309	-5.9747167e-15
21	0x3d3c8cbd	0.046032656
22	0x3d85d00c	0.065338224
23	0xbde70cb1	-0.112817176
24	0xbd6f37e3	-0.058402907
25	0xbd1a1087	-0.037613418
26	0xbdc72cb7	-0.097253256
27	0xbd14344a	-0.03618268
28	0xbd1c5c88	-0.038174182
29	0xbd0348b0	-0.032051742
30	0x3d4709a8	0.048593193
31	0x3d8b8e68	0.06814271
32	0xbddc2faa	-0.10751279
33	0xbbb6f521	-0.005583421
34	0xbce83af0	-0.028348416
35	0xb9db1eb6	-0.00041793816
36	0xbde70268	-0.11279756
37	0xbd5fb3dc	-0.054614887
38	0x3c812054	0.015762486
39	0x3cdbc506	0.026827347
40	0x3c0c0482	0.008545997
41	0x3cf3be92	0.029753957
42	0xbc8b861e	-0.017031725
43	0xba5a334d	-0.00083236845
44	0xbb01f396	-0.0019829026
45	0xbae59f7e	-0.0017518846
46	0xbb741388	-0.0037243087
47	0xbda5036c	-0.08057293
48	0xbe1570af	-0.14593767
49	0xbd95087d	-0.0727701

net.6.weight f4 [50, 50]
0	0xad5043ea	-1.1838511e-11
1	0xbdf588c2	-0.11988975
2	0x3c60aad4	0.013712604
3	0x3ce4394d	0.027859354
4	0x34ea1e35	4.3607875e-07
5	0x3cc8d866	0.02451725
6	0xbc2e22c0	-0.010628402
7	0xbdd62dba	-0.104579404
8	0x3e206e67	0.15667115
9	0x3e0e2d05	0.13884361
10	0xbc0e1421	-0.008671791
11	0xb5aed564	-1.3026115e-06
12	0x3c9c0f41	0.019050242
13	0x3d23e717	0.040015306
14	0x2ab12639	3.1468038e-13
15	0x3d52d1c7	0.05146959
16	0x3df0483d	0.11732528
17	0xbcd3a882	-0.025837187
18	0xbd87c07a	-0.06628509
19	0x3c3c7bf2	0.01150416
20	0x94cba74c	-2.0563749e-26
21	0xbd1b73f5	-0.037952382
22	0xbdbb6768	-0.091505826
23	0x3e2a17c6	0.16610631
24	0x3e0f9640	0.1402216
25	0xbcb008a2	-0.021488491
26	0x3dfcc268	0.123417675
27	0x3d4bf710	0.049796164
28	0xbd2a275a	-0.041541435
29	0x3ca822e0	0.020524442
30	0xbcffec25	-0.031240532
31	0xbd40f22a	-0.047105946
32	0x3e0accb3	0.13554649
33	0xbb51c31a	-0.0032007159
34	0x3c5a61e6	0.013329005
35	0xb990daf0	-0.00027628941
36	0x3e062e5f	0.13103627
37	0x3dd96b36	0.10616152
38	0xbe000266	-0.12500915
39	0x3d786edb	0.060652595
40	0x3cb61100	0.022224903
41	0x3e05d5a8	0.13069785
42	0xbdbbe632	-0.09174766
43	0x3bab7203	0.005232097
44	0x3d91b398	0.07114333
45	0xba4eadd1	-0.0007884177
46	0x3d2ba8e2	0.041909106
47	0xbd9ae0d4	-0.07562414
48	0x3e3315bf	0.17488764
49	0xbdc188c4	-0.09449914
50	0x802e012c	-4.224853e-39
51	0xbc2f5427	-0.010701216
52	0x80c1c474	-1.7794725e-38
53	0x3b050f73	0.0020303398
54	0x018a3003	5.076209e-38
55	0xbb99d2dd	-0.0046943263
56	0xbaad814a	-0.0013237384
57	0xbc96e152	-0.018417988
58	0xbca1b3a7	-0.019738985
59	0xbcf74974	-0.030186392
60	0x0730a98f	1.3290597e-34
61	0x00506405	7.38272e-39
62	0xbbb5e18c	-0.005550569
63	0xbc5670f6	-0.013088455
64	0x0062b8ca	9.066168e-39
65	0xb44bd8a0	-1.8984656e-07
66	0xbc9097a2	-0.01765043
67	0xbd0dece1	-0.034649733
68	0xbbd2919c	-0.0064260494
69	0x00aea0e4	1.6037093e-38
70	0x001a4be4	2.414947e-39
71	0xbc218905	-0.009859328
72	0xbcce7570	-0.025202483
73	0xbbdbe706	-0.0067108897
74	0xbc3573ff	-0.011075019
75	0x0040c224	5.947116e-39
76	0xbc41d539	-0.011830621
77	0xbcdc93f5	-0.02692602
78	0xa13cd2d9	-6.397593e-19
79	0x109d9697	6.21576e-29
80	0xbbe473e3	-0.0069718226
81	0xbba50356	-0.005035798
82	0xbb7f4497	-0.0038950795
83	0x8879836e	-7.5085207e-34
84	0xbc19e1a8	-0.00939218
85	0x80ce91d7	-1.897043e-38
86	0xbd02edf1	-0.0319652
87	0x3b30857b	0.002693503
88	0xbc8024b0	-0.015642494
89	0xa149e98d	-6.841055e-19
90	0x3b22d1cc	0.0024844287
91	0xbccbe1c5	-0.024887929
92	0xbb5a4d83	-0.003331036
93	0x87c15a31	-2.9092422e-34
94	0xbb7082a1	-0.0036698955
95	0x80c2d21c	-1.7891459e-38
96	0x937595b2	-3.0997153e-27
97	0xbb600521	-0.0034182745
98	0xbcd997a8	-0.026561573
99	0x3a4aae86	0.00077316945
100	0x073077d4	1.3275983e-34
101	0x3d8ab1dd	0.06772206
102	0x3ea77e91	0.3271375
103	0x3e379a6c	0.17930001
104	0xba075102	-0.00051619124
105	0xbd46673f	-0.048438307
106	0x3e2057d1	0.156585
107	0xbde4e8f5	-0.111772455
108	0xbe27ab4a	-0.16373935
109	0xbe0d7e6a	-0.13817754
110	0xbb845cfd	-0.0040394054
111	0x397efb6c	0.0002431699
112	0xbc926989	-0.017872589
113	0xbc8412eb	-0.016122302
114	0x2a2585b3	1.470133e-13
115	0x3dc6d823	0.097091936
116	0x3db6bee3	0.089231275
117	0xbe05782c	-0.13034123
118	0xbda40200	-0.08008194
119	0xbca9234f	-0.02064672
120	0x0525bb68	7.792684e-36
121	0x3d41ffbd	0.04736303
122	0x3df29e76	0.1184663
123	0x3c60b9cf	0.013716175
124	0xbe043ef4	-0.1291464
125	0x3d00c142	0.031434305
126	0xbced9590	-0.029001981
127	0x3d9e6f9e	0.07736133
128	0xbe0b7dd9	-0.13622226
129	0xbc9da567	-0.019243909
130	0x3e081553	0.13289385
131	0x3c9fd34b	0.019509932
132	0xbd27bea6	-0.0409533
133	0x3c56d9d5	0.013113459
134	0x3d959cfe	0.073053345
135	0xba0ef9e3	-0.0005454106
136	0xbe024aaf	-0.12723802
137	0x3e8472a8	0.25868726
138	0xbc0c4f09	-0.008563765
139	0xbd09f4f9	-0.03368089
140	0x3da904e1	0.08252884
141	0x3dd43770	0.10362136
142	0x3d6a4777	0.05719706
143	0xbc4e175a	-0.01257881
144	0x3d7b27c4	0.06131722
145	0x39b6a702	0.00034838176
146	0x3d3c38dc	0.045952663
147	0x3d9f13d8	0.07767457
148	0xbdcc51f4	-0.09976569
149	0x3cf19713	0.029490983
150	0x8774da56	-1.8420683e-34
151	0xba36cbe9	-0.0006973134
152	0x008d7e88	1.2994196e-38
153	0x84607a47	-2.638722e-36
154	0x845cae46	-2.5940898e-36
155	0x03255c55	4.8595134e-37
156	0xa5c85321	-3.47508e-16
157	0xba5037ad	-0.00079428667
158	0xb9383976	-0.00017569013
159	0xba5e5081	-0.0008480624
160	0x00d6eff6	1.9738878e-38
161	0x00f3eb51	2.2400441e-38
162	0x001ff523	2.934839e-39
163	0xb92596ea	-0.00015791846
164	0x001d9a30	2.718541e-39
165	0xb8b9525a	-8.8368266e-05
166	0xbc31cac7	-0.010851569
167	0xbabfaaa7	-0.0014623002
168	0xb9446736	-0.00018730466
169	0x80e2f4a7	-2.0842587e-38
170	0x80588322	-8.128565e-39
171	0xb8aebef9	-8.332538e-05
172	0xbb3b89e3	-0.0028616122
173	0xb92a2085	-0.00016224578
174	0xb8821793	-6.203274e-05
175	0x801cf587	-2.659473e-39
176	0xba381ae5	-0.00070230506
177	0xbaa4dfe4	-0.0012578932
178	0x39a2994f	0.00031013272
179	0x82c817eb	-2.9401087e-37
180	0xba5e9c69	-0.0008491935
181	0xb9eec206	-0.00045539456
182	0x3969e302	0.00022305179
183	0x019e0194	5.80423e-38
184	0xb943c934	-0.00018671603
185	0x803ccaff	-5.582951e-39
186	0xbb1c9d8f	-0.0023897623
187	0xb115bd09	-2.1789808e-09
188	0xba29c7c8	-0.0006476608
189	0x8695ad38	-5.630209e-35
190	0xacc7d997	-5.6800775e-12
191	0xbb14e9a8	-0.0022722278
192	0xb9127ba2	-0.00013969702
193	0x82ca3cd6	-2.971615e-37
194	0xb8ee4c58	-0.000113629445
195	0x8119c478	-2.824262e-38
196	0x85c3ea9c	-1.8423894e-35
197	0x8099dbd1	-1.4129686e-38
198	0xba0c03c9	-0.000534114
199	0xb94bf322	-0.00019450163
200	0x24bdec07	8.236553e-17
201	0x3e5079f4	0.20359021
202	0x3b1f86da	0.0024341852
203	0x3d6b84be	0.05749964
204	0xb6b0aa2f	-5.2650207e-06
205	0x3c1ed3ad	0.009694022
206	0x3b5bc673	0.0033535033
207	0xbcdeb7b1	-0.0271872
208	0xbe0d0e32	-0.13774946
209	0xbc9234ef	-0.017847506
210	0x3b1442c0	0.0022622794
211	0x35b26521	1.3291466e-06
212	0xbbc6916a	-0.006059815
213	0xbd674cec	-0.056469843
214	0xa9d085e9	-9.260285e-14
215	0x3aaf240b	0.0013362182
216	0x3dce0d2f	0.10061108
217	0x3d27f855	0.041008312
218	0x3dc324f8	0.095285356
219	0xbc922b24	-0.017842837
220	0x1412ee7c	7.418149e-27
221	0x3c37ea23	0.011225256
222	0x3deba075	0.11505214
223	0xbc98f905	-0.01867343
224	0xbc8b3391	-0.016992362
225	0x3cee3e6c	0.0290825
226	0x3cde09a2	0.027104203
227	0xbb416380	-0.002950877
228	0xbcf9253c	-0.030413263
229	0xbb3694a0	-0.0027859583
230	0xbdbac622	-0.09119822
231	0x3d5c18e7	0.053734686
232	0xbd4fd776	-0.05074259
233	0x3b85a673	0.00407868
234	0x3d51639e	0.051120393
235	0xbb026e47	-0.0019902156
236	0x3d9178cb	0.071031176
237	0x3dc04069	0.09387285
238	0x3e16070c	0.14651126
239	0x3d72ae88	0.059248477
240	0x3e06f8aa	0.13180795
241	0x3d9f7a16	0.07786958
242	0x3d43fc0b	0.04784779
243	0xbbe2f921	-0.006926671
244	0x3c9fd16f	0.019509045
245	0x39f150fe	0.00046027446
246	0xbc809136	-0.015694242
247	0x3da9431e	0.08264755
248	0x3c103f01	0.008804084
249	0x3dae9460	0.08524394
250	0x0041b859	6.035439e-39
251	0xbb73a8a3	-0.0037179373
252	0x01023fcf	2.392301e-38
253	0x2e8cc536	6.4014946e-11
254	0x05b864c3	1.7340291e-35
255	0xb0f9a962	-1.8165276e-09

net.6.bias f4 [50]
0	0xbe1a0e9a	-0.15044633
1	0xbc8500ce	-0.016235735
2	0xbe00579e	-0.12533423
3	0xb34794ec	-4.646874e-08
4	0xbd1613fb	-0.03664015
5	0xb886b45e	-6.423214e-05
6	0xbc02f723	-0.007993492
7	0x16665b12	1.8607989e-25
8	0xbdceab19	-0.10091228
9	0xbb841ac0	-0.004031509
10	0x3ddb11a7	0.10696726
11	0xbe1f942e	-0.1558387
12	0xb8422a98	-4.6292873e-05
13	0x3c5e85dd	0.01358172
14	0x3d08de45	0.033415098
15	0xb63bb256	-2.7968977e-06
16	0xbb50429f	-0.003177799
17	0xbc16dc8f	-0.009207859
18	0xbdad1c51	-0.084526666
19	0xbd3939b5	-0.04522105
20	0xb7a32c69	-1.9451794e-05
21	0x3dd5605b	0.10418769
22	0x3c573b7b	0.01313674
23	0x3c6da995	0.014505764
24	0x3ca841bf	0.020539163
25	0xba931362	-0.0011220986
26	0xbe3648cd	-0.17801209
27	0xb9254e41	-0.00015764778
28	0x3c404ab2	0.011736559
29	0xbe157c23	-0.14598136
30	0xbd1863d7	-0.03720459
31	0x3b852dff	0.004064321
32	0xbce7c19a	-0.028290559
33	0xbaade941	-0.0013268368
34	0xbc91b05e	-0.017784294
35	0xbde56dfa	-0.11202617
36	0xbc998788	-0.018741384
37	0x3d8736c8	0.066022456
38	0xbdb7473b	-0.08949133
39	0x3db8dd8e	0.09026633
40	0xbde02006	-0.10943608
41	0xb98f569a	-0.0002733961
42	0xbe1f4841	-0.15554906
43	0x3de7cf22	0.11318804
44	0xb288df62	-1.5934067e-08
45	0x3c050bc2	0.008120479
46	0xbbf42f9d	-0.007451965
47	0x3cc57b88	0.024106756
48	0x3d5e9802	0.054344185
49	0xbcf7ab1f	-0.030232964

net.8.weight f4 [50, 50]
0	0xb59d03a2	-1.1698469e-06
1	0x040ffbc0	1.6925167e-36
2	0xab933945	-1.0460874e-12
3	0x07f21681	3.642534e-34
4	0xb8990648	-7.2967785e-05
5	0x055946c0	1.0216286e-35
6	0xb77b31eb	-1.4972388e-05
7	0x83187149	-4.479883e-37
8	0xb018a728	-5.553482e-10
9	0x1b956829	2.4717294e-22
10	0xaa776627	-2.1973448e-13
11	0x96a88d88	-2.7231183e-25
12	0x007483f1	1.0700249e-38
13	0x1b58e35e	1.7940568e-22
14	0x15126a96	2.9568547e-26
15	0x8016e287	-2.101644e-39
16	0x0080f32e	1.184218e-38
17	0x02635e04	1.6704307e-37
18	0x16ab4ab3	2.7673682e-25
19	0x23f53db6	2.6589089e-17
20	0x96065877	-1.0852348e-25
21	0xaa16f22a	-1.3406694e-13
22	0x97c25912	-1.2559441e-24
23	0xb6c04264	-5.729775e-06
24	0x949a9cb5	-1.5611836e-26
25	0x8ffb4e43	-2.4780656e-29
26	0xb1710055	-3.5070304e-09
27	0x8730d12d	-1.330224e-34
28	0x23a70da4	1.8111953e-17
29	0xb26b7e01	-1.370745e-08
30	0x0badf715	6.7008944e-32
31	0x878c94d0	-2.1152323e-34
32	0x96b08c78	-2.8522982e-25
33	0x886620bd	-6.925159e-34
34	0xb6fc1c69	-7.5134926e-06
35	0x96a6b060	-2.6930055e-25
36	0x001d03ed	2.664638e-39
37	0x9ff84290	-1.05142204e-19
38	0xae579e01	-4.9025676e-11
39	0xb68007a3	-3.8155863e-06
40	0xb45ec1fa	-2.074593e-07
41	0x8dcb158e	-1.251603e-30
42	0xb6e35ee9	-6.776176e-06
43	0xb6199e2a	-2.289084e-06
44	0x01c3a092	7.1862094e-38
45	0x16f463bc	3.9483267e-25
46	0x8067942e	-9.512213e-39
47	0xb732e78b	-1.0663537e-05
48	0xae246f19	-3.7387957e-11
49	0x840e7f50	-1.6750479e-36
50	0xbe0b0aa9	-0.13578285
51	0xbbd5160d	-0.006502873
52	0x3e28ca5b	0.16483442
53	0x1c026193	4.3139504e-22
54	0x3dc501e9	0.09619505
55	0xaf3b72a0	-1.7048274e-10
56	0x3c90066d	0.017581189
57	0x917c8d7d	-1.9922894e-28
58	0xbdbf3f71	-0.09338272
59	0xbd61a4dc	-0.055088863
60	0xbc122c61	-0.008921714
61	0x3e1185b4	0.1421116
62	0x36254df8	2.46323e-06
63	0x3e2350d6	0.15948805
64	0x3d8ce79a	0.06880112
65	0xb61b3fb1	-2.3133873e-06
66	0xba0ed52f	-0.0005448637
67	0xbc628aaa	-0.013827005
68	0xbcd17bb6	-0.025571685
69	0x3c7773d6	0.015103301
70	0xb6cd9129	-6.126375e-06
71	0x3dd21b59	0.102591224
72	0x3d50d263	0.05098189
73	0x3dbb6332	0.091497794
74	0x3d0f53e8	0.03499213
75	0xbc1850fc	-0.009296652
76	0xbdd4c3a0	-0.10388875
77	0x3895fa11	7.151452e-05
78	0x3ba0f03a	0.0049114497
79	0xbd91834b	-0.0710512
80	0xb7e3f189	-2.7172982e-05
81	0x3c8b36a3	0.016993826
82	0xbc58d5d2	-0.0132345725
83	0x3175956b	3.5737127e-09
84	0x3c889f83	0.016677624
85	0x3dc36ff7	0.0954284
86	0xbd1f3908	-0.03887275
87	0x3c9b99be	0.018994208
88	0x3d2d030a	0.042239226
89	0xbcfcc066	-0.030853461
90	0xbc437888	-0.011930592
91	0xafd56627	-3.8817058e-10
92	0x3d51fda1	0.05126727
93	0x3be67ec3	0.007034154
94	0x1764c5f2	7.3920615e-25
95	0x3b49a8aa	0.0030770698
96	0xb87ca265	-6.0232724e-05
97	0xbde8299f	-0.113360636
98	0xbcd46b44	-0.025930054
99	0x3bb6fa53	0.00558404
100	0xbd6b42c8	-0.057436734
101	0x3b9b95f7	0.004748102
102	0x3e1d3e21	0.15355732
103	0x05c47f7d	1.8478583e-35
104	0x3daca96c	0.08430752
105	0xad9a6bb1	-1.7555598e-11
106	0xbd557213	-0.052110743
107	0x12762684	7.7671387e-28
108	0xbdfd9174	-0.123812586
109	0xbd7fcbd4	-0.062450245
110	0x3de13cb9	0.1099791
111	0x3da2c3eb	0.07947525
112	0x32ebfb94	2.7472005e-08
113	0x3d3c973f	0.046042677
114	0xbda9f585	-0.08298782
115	0xb9bda72f	-0.0003617345
116	0xbbc5758e	-0.0060259765
117	0xbc85c85d	-0.016330892
118	0x39cc536b	0.00038972063
119	0x3c2edef9	0.010673278
120	0xb756f66e	-1.281277e-05
121	0xbcc8cd1c	-0.024511866
122	0x3d4b2493	0.049595427
123	0xbe282e64	-0.16423947
124	0x3ce0a11a	0.02742057
125	0xbb9443dd	-0.0045246915
126	0x3c8eac22	0.017416064
127	0x3b606226	0.0034238189
128	0x94a9b309	-1.7135256e-26
129	0xbd58007c	-0.052734837
130	0x3b2dd2f5	0.0026523445
131	0x3d39e2cb	0.045382302
132	0xbc8d4541	-0.017244937
133	0xb33ceaf7	-4.398586e-08
134	0xbcf21e19	-0.029555367
135	0x3cd0b8ea	0.025478799
136	0xbd220d5c	-0.03956352
137	0x3ba41cb0	0.0050083026
138	0xbdeebe15	-0.11657349
139	0x3d47184f	0.048607167
140	0xbdf197ce	-0.117965326
141	0xb0e1fae1	-1.6442209e-09
142	0xbe1f4450	-0.15553403
143	0x3cb7db70	0.022443503
144	0x0798356e	2.2901821e-34
145	0x3e60f258	0.21967447
146	0xbb6e9b68	-0.0036408547
147	0xbd8a469b	-0.06751748
148	0x3d83acf2	0.06429471
149	0xbbcc503e	-0.0062351516
150	0x3dbe658c	0.09296712
151	0xbc0ab736	-0.008466532
152	0xbdd46bba	-0.1037211
153	0x3afdaa8e	0.0019353197
154	0xbd8e9be9	-0.06963331
155	0xbb26b170	-0.002543535
156	0x3dc05083	0.093903564
157	0xb9c0501e	-0.00036680786
158	0x3e126f08	0.14300168
159	0x3db4a973	0.088213824
160	0xbdd2e388	-0.102973044
161	0xbc41e283	-0.01183379
162	0xbaa76afd	-0.0012772974
163	0xbd7b8ef8	-0.061415642
164	0xbdedfc7b	-0.116204225
165	0x38c82366	9.543337e-05
166	0x363ee46f	2.8445172e-06
167	0xb92cbea7	-0.00016474222
168	0x3b9bcad3	0.004754403
169	0x3d7c8dc8	0.06165865
170	0xb9e465fc	-0.00043563533
171	0x3cf37d61	0.029722871
172	0xbbd0c872	-0.006371551
173	0x3e373551	0.17891432
174	0xba709c23	-0.00091785396
175	0x3be3f2b3	0.0069564222
176	0x3df62413	0.12018599
177	0xbb66a867	-0.003519559
178	0x3e079e85	0.13244064
179	0x3e31894b	0.1733753
180	0xbcf33645	-0.029688964
181	0x3c8c1e73	0.017104363
182	0x3cc91586	0.024546396
183	0xbc5429db	-0.012949432
184	0x3dbe1f5a	0.092833236
185	0xbdae7dd0	-0.085200906
186	0x3c051305	0.00812221
187	0x3c7e5595	0.015523334
188	0x3e24619d	0.16052862
189	0xbca94f02	-0.020667557
190	0x3e117c5e	0.14207599
191	0xb981ff61	-0.0002479507
192	0x3e307e9a	0.17235795
193	0x3e2e618c	0.17029399
194	0xbb9c772e	-0.0047749495
195	0x3da4add9	0.08040971
196	0xba23cd95	-0.00062485907
197	0x3d7300f9	0.0593271
198	0x3cc29a77	0.023755295
199	0xbc02480b	-0.007951747
200	0x3e0205b5	0.1269749
201	0xbc85cba5	-0.016332457
202	0xbe050f1d	-0.12994047
203	0xba4fc747	-0.0007926118
204	0x3c1efd79	0.009703987
205	0xbaf2d2d2	-0.0018525964
206	0x3dd81afc	0.10552022
207	0xb939f963	-0.00017735879
208	0x3daf7d06	0.08568768
209	0xbd669fbe	-0.056304686
210	0x3cee0f24	0.029059954
211	0xbd8b5f04	-0.06805232
212	0xba4e12a7	-0.0007861056
213	0xbd8e643e	-0.069527134
214	0x3c563d8d	0.013076198
215	0x373d2be0	1.1275493e-05
216	0x359e3b84	1.1789239e-06
217	0x397e84a5	0.00024272742
218	0x3def0d65	0.11672477
219	0x3d61e730	0.05515212
220	0xba6c28e8	-0.0009008781
221	0x3c6dabf9	0.0145063335
222	0xbcd0a372	-0.025468562
223	0x3e43b2ac	0.19111127
224	0xbdb77ac7	-0.08958965
225	0x3bfe705e	0.00776486
226	0x3dc60e1d	0.09670661
227	0xbb1fe4a5	-0.0024397757
228	0x3da89b6c	0.08232769
229	0xbc870522	-0.01648194
230	0x3d59f256	0.053209625
231	0x3cfaeb5e	0.03062981
232	0x3aa51968	0.0012596073
233	0xbc3df9f3	-0.011595237
234	0xbbdcc095	-0.0067368248
235	0x3d6cc968	0.057809263
236	0x3c5e0b4c	0.013552498
237	0xbbd9f1e4	-0.00665115
238	0x3e3abc39	0.18235864
239	0xbb708279	-0.0036698862
240	0x3dcc82d9	0.09985895
241	0x38eb8ac1	0.00011231518
242	0x3e382bcc	0.17985457
243	0x3b5c8f99	0.0033654927
244	0xbb51af25	-0.0031995263
245	0x3d3bc7d5	0.04584487
246	0xba366c1e	-0.000695886
247	0xbdb15ff1	-0.086608775
248	0x3cc45042	0.023964051
249	0xbd202e6f	-0.039106783
250	0xbb5e6322	-0.00339336
251	0x0c97342c	2.3296634e-31
252	0xba7b7bb7	-0.0009593325
253	0x809c6f79	-1.4366326e-38
254	0xba5db85b	-0.0008457952
255	0x013e0ecc	3.4908105e-38

net.8.bias f4 [50]
0	0xb1dda10d	-6.450256e-09
1	0xbafbdaf7	-0.0019215037
2	0xbd96edd4	-0.07369581
3	0xbe0ad13c	-0.13556379
4	0xbdaac089	-0.083375044
5	0xba9c0a21	-0.0011904874
6	0xbe0750fc	-0.13214487
7	0x21bc173c	1.2745526e-18
8	0x3d558e24	0.05213751
9	0xbcebafdf	-0.028770385
10	0xb9de8f99	-0.00042450128
11	0xbcbe0c49	-0.023199217
12	0xbdb5dc63	-0.08879926
13	0xbb30d8e1	-0.0026984739
14	0xbc88c475	-0.01669524
15	0xbd776357	-0.060397472
16	0xb8940127	-7.0574046e-05
17	0x3e2c617b	0.16834061
18	0xbdadc301	-0.0848446
19	0xb4cc99c5	-3.8109843e-07
20	0x3e3075d8	0.17232454
21	0xbe0e9fc3	-0.13928132
22	0x3d11eecf	0.035628136
23	0x3df897c3	0.12138321
24	0xbc930f59	-0.017951654
25	0x3c359bbc	0.011084493
26	0xbde155db	-0.11002704
27	0xbcce007e	-0.025146719
28	0x3c52b86b	0.0128613515
29	0x3d84ea5c	0.06490013
30	0x39583e59	0.00020622592
31	0x8db296da	-1.1006413e-30
32	0xbcaf6df0	-0.021414727
33	0xbb45a9a0	-0.0030160919
34	0xbd9aeb91	-0.07564462
35	0xbbdf6531	-0.006817483
36	0xbde573ee	-0.112037525
37	0xab2e86a8	-6.200409e-13
38	0xbc26cb62	-0.010180326
39	0xb379f138	-5.8194217e-08
40	0xb0b0b125	-1.2856033e-09
41	0x3d8a1b2f	0.06743466
42	0x3e0a8362	0.13526681
43	0xbdb6279a	-0.08894272
44	0xbbe84b09	-0.007089023
45	0xbd8d9692	-0.06913485
46	0x3d9d5934	0.0768303
47	0x3d4c53d7	0.049884643
48	0xbbcf13e1	-0.0063195084
49	0xbd21afdf	-0.039474364

net.10.weight f4 [50, 50]
0	0x00054286	4.83042e-40
1	0x9851c4ab	-2.7111909e-24
2	0x86965425	-5.654737e-35
3	0x07c3b868	2.9448723e-34
4	0x1000427b	2.5294764e-29
5	0x0e155cfd	1.841044e-30
6	0x84192456	-1.8001748e-36
7	0x0d324432	5.493257e-31
8	0xae707dee	-5.468153e-11
9	0x09cf4e58	4.990711e-33
10	0x8033937b	-4.736516e-39
11	0x806f233a	-1.0206377e-38
12	0x2080e5b4	2.1836048e-19
13	0x8a01697e	-6.230965e-33
14	0x8900c54d	-1.550021e-33
15	0x028cd171	2.0691365e-37
16	0x0dbddf21	1.1701741e-30
17	0x98490e82	-2.5985966e-24
18	0x83deaac4	-1.3087193e-36
19	0x87baf08a	-2.8127546e-34
20	0x9d514d68	-2.7700938e-21
21	0x043770cd	2.1563342e-36
22	0x8037f28f	-5.137966e-39
23	0xa4f13660	-1.04609204e-16
24	0x804c1f0c	-6.990635e-39
25	0x0229f48b	1.248634e-37
26	0x14ab992f	1.7327008e-26
27	0x834d917e	-6.0411102e-37
28	0x00b66b68	1.675259e-38
29	0xab2d8048	-6.163997e-13
30	0x042043d9	1.8839064e-36
31	0x010ca0d9	2.5829341e-38
32	0x8980f9c4	-3.1049758e-33
33	0x806aaa62	-9.795684e-39
34	0x8252a0de	-1.547453e-37
35	0x0151c676	3.8529626e-38
36	0x821dc810	-1.1591953e-37
37	0x81ea7ca3	-8.613687e-38
38	0x88368ced	-5.493429e-34
39	0x01b7f766	6.757858e-38
40	0x0404c565	1.5607165e-36
41	0x0c5a260d	1.680556e-31
42	0x00ef3b62	2.1969986e-38
43	0x8f4efa5a	-1.02048e-29
44	0x02009ec5	9.449519e-38
45	0x013d5832	3.4777095e-38
46	0x079fe72d	2.4059534e-34
47	0x82e03eb5	-3.2949834e-37
48	0x000892e5	7.8738e-40
49	0x826b5b8b	-1.7291345e-37
50	0x94a2777f	-1.6404953e-26
51	0xbcb21f32	-0.02174339
52	0x3c10f2b8	0.008846931
53	0x3c8adeb1	0.01695189
54	0xbbf2a51c	-0.0074049365
55	0xb0b37fd8	-1.30603e-09
56	0xb950c78d	-0.00019910764
57	0x1bfdf66a	4.201458e-22
58	0xbccdc304	-0.025117405
59	0xbbe071cb	-0.0068495027
60	0x80378e39	-5.101972e-39
61	0x34841e80	2.4609108e-07
62	0xbc510bb6	-0.01275914
63	0x01aac27e	6.272722e-38
64	0x3be786e7	0.007065642
65	0x3c7c8666	0.015412902
66	0x801cc94a	-2.643603e-39
67	0x3c0eaef3	0.008708703
68	0xbc9119c9	-0.01771249
69	0x1a2aa5bd	3.5289058e-23
70	0x3a878c51	0.00103415
71	0xbb38a964	-0.0028177137
72	0x978d5ed2	-9.135847e-25
73	0xbc1324b9	-0.008980923
74	0xa238991d	-2.5017707e-18
75	0x3c46e7be	0.012140213
76	0xbc259d42	-0.010108294
77	0x3bd124f6	0.00638258
78	0x8c61e3dc	-1.7401938e-31
79	0xbca7157e	-0.02039599
80	0x82168e99	-1.1061183e-37
81	0x8c814884	-1.991924e-31
82	0x9c69962a	-7.7287316e-22
83	0x1b496b90	1.6661086e-22
84	0xbbfdbe2b	-0.007743617
85	0xb486642b	-2.5032327e-07
86	0x3c17b926	0.009260451
87	0x808795e4	-1.2451563e-38
88	0xa5426e9f	-1.6864298e-16
89	0x82776d96	-1.8178144e-37
90	0x83ee1512	-1.399322e-36
91	0x3c317dab	0.010833184
92	0x00068340	5.98097e-40
93	0xbc2ce257	-0.0105520105
94	0x1efc4735	2.6710988e-20
95	0x37771a1a	1.47284245e-05
96	0xbc032ea5	-0.008006726
97	0x3ae73aa1	0.0017641374
98	0x224686ce	2.6905369e-18
99	0x38b938b6	8.832051e-05
100	0x94939d00	-1.4905132e-26
101	0xbccae2b1	-0.024766298
102	0xbc75724a	-0.014980862
103	0xbca12e45	-0.019675383
104	0xbc40757b	-0.0117467595
105	0x858c9cc2	-1.322312e-35
106	0x3b54a367	0.0032446028
107	0x9821d1c1	-2.091466e-24
108	0x3c7ff262	0.015621753
109	0xbc9b79d3	-0.018978989
110	0x002d8a89	4.182294e-39
111	0xbb83ad5f	-0.00401847
112	0xbc04e1d1	-0.008110479
113	0x81d11067	-7.679801e-38
114	0xbc26441e	-0.010148076
115	0xbbf044ba	-0.0073324116
116	0x83aea3aa	-1.0264376e-36
117	0xbcbce36f	-0.023057668
118	0xbc699c88	-0.014258511
119	0x815827ea	-3.970157e-38
120	0xbb7a8916	-0.0038228682
121	0xbd0601be	-0.032716505
122	0xba83af8b	-0.0010046823
123	0xbbf2ad49	-0.007405911
124	0x873d0e48	-1.4222977e-34
125	0xa61a45c2	-5.352402e-16
126	0xbc554da4	-0.013018999
127	0xbc656247	-0.014000482
128	0xb4ee9f6a	-4.4446944e-07
129	0xbc85b97f	-0.016323803
130	0x00f0cb58	2.2113465e-38
131	0x0191d2c7	5.356704e-38
132	0x3aed75cb	0.001811677
133	0x88fac69d	-1.5093021e-33
134	0xbcaed239	-0.021340476
135	0x005ef1c2	8.719263e-39
136	0xba4f2d6e	-0.0007903193
137	0x1d128dfd	1.9396345e-21
138	0x0c284498	1.2962891e-31
139	0x23cdbf6f	2.230722e-17
140	0x86fb1c22	-9.4457044e-35
141	0x3cc571d5	0.02410213
142	0xb7ca5a31	-2.4122275e-05
143	0x3bce88ee	0.0063029444
144	0x004984e1	6.751659e-39
145	0xbcab0487	-0.020876182
146	0x391e2bd6	0.00015084384
147	0xbc08953d	-0.008336362
148	0x01787bd9	4.5639262e-38
149	0xbcd14351	-0.025544794
150	0x1a05d4d8	2.767569e-23
151	0x3d5b6c99	0.053570364
152	0x3e1e723f	0.15473269
153	0x3d6c7fc6	0.05773904
154	0xbe11ebc8	-0.142501
155	0xbb868d6e	-0.004106215
156	0x8017e4f4	-2.19435e-39
157	0x9d95f7ac	-3.969606e-21
158	0xbdf5b833	-0.11998024
159	0xbda51ab4	-0.08061734
160	0x00523306	7.548814e-39
161	0x3c4b37d8	0.012403451
162	0xbe0383cf	-0.1284325
163	0x3290dc75	1.6864059e-08
164	0xbc2ba37b	-0.0104759885
165	0x3d0ba889	0.034096275
166	0x0d23c31a	5.04631e-31
167	0x3e077f8b	0.13232248
168	0xbd8d64fe	-0.06904028
169	0xb647caea	-2.9771422e-06
170	0x3d5ff8da	0.054680683
171	0x3ba6b5bd	0.005087583
172	0x3c429cf6	0.011878243
173	0x3e031710	0.12801766
174	0x3beb0622	0.007172362
175	0x3e168f36	0.14703068
176	0x3d30542a	0.043049015
177	0x3e23c0ff	0.15991591
178	0x3a41af86	0.0007388521
179	0x3d9c8ae7	0.07643681
180	0x0140dd2e	3.542352e-38
181	0x0759f8ca	1.6398378e-34
182	0x3d2942dd	0.04132353
183	0x34e58474	4.2750946e-07
184	0xbb01e5e9	-0.0019820875
185	0x36f4fb7c	7.3010433e-06
186	0x3d7801bc	0.06054853
187	0x1dd2fa88	5.584558e-21
188	0x391ccc8b	0.00014953518
189	0x876507ba	-1.7230316e-34
190	0x250d519d	1.2257452e-16
191	0x3cc47a1e	0.023984011
192	0x3e42c4db	0.19020407
193	0xbdb7fb49	-0.08983476
194	0xbb2206d6	-0.0024723313
195	0xbcec1055	-0.028816381
196	0xbe00b9a5	-0.12570818
197	0x3d9959c7	0.07487827
198	0x3baccd36	0.0052734865
199	0xb806dcd9	-3.215377e-05
200	0x007608ff	1.0839816e-38
201	0x2c07e9d3	1.9314452e-12
202	0x2c28aeb4	2.3971216e-12
203	0xb9655cef	-0.00021873762
204	0xb7ff7410	-3.0452415e-05
205	0x05b703fe	1.7210704e-35
206	0x9b1615e1	-1.2414779e-22
207	0x00dbadb4	2.0174287e-38
208	0xb7c72ee7	-2.374449e-05
209	0xb6213f4b	-2.402771e-06
210	0x809f8952	-1.4651105e-38
211	0xb3751bf1	-5.706892e-08
212	0xb60e5319	-2.1208018e-06
213	0x811d36be	-2.887562e-38
214	0xabb729fa	-1.3014583e-12
215	0xa93f61d8	-4.2495385e-14
216	0x87069114	-1.0123674e-34
217	0xac9dacc8	-4.481391e-12
218	0xaf7c717c	-2.2959584e-10
219	0x03021973	3.823278e-37
220	0x2a9b8b4e	2.7630193e-13
221	0xb603a316	-1.961545e-06
222	0x09cab9fb	4.8804626e-33
223	0x2c58b0a2	3.0793497e-12
224	0x80db64d1	-2.014814e-38
225	0xa6693e62	-8.092266e-16
226	0xb74d89b1	-1.2251011e-05
227	0xac4ab457	-2.8806035e-12
228	0x80e0bf8a	-2.0639862e-38
229	0xac77ec83	-3.5232102e-12
230	0x8987d215	-3.2697628e-33
231	0x802ef5a2	-4.312549e-39
232	0x80b64a15	-1.6740636e-38
233	0x0d568eb6	6.6115623e-31
234	0xb0f609b4	-1.7901614e-09
235	0x8d36606d	-5.619915e-31
236	0xabc7308a	-1.4153273e-12
237	0x833fec4c	-5.640111e-37
238	0x8997cec1	-3.6546358e-33
239	0x022d8cc4	1.275043e-37
240	0x871801f8	-1.1435788e-34
241	0xa9c5c19f	-8.7821453e-14
242	0xacb0feea	-5.030522e-12
243	0xaad3f22a	-3.7649164e-13
244	0x0309aef0	4.04615e-37
245	0xb6fa97cc	-7.468252e-06
246	0xab119f6b	-5.1735585e-13
247	0xac2c607a	-2.4496225e-12
248	0x05266eb0	7.8256126e-36
249	0x97b837de	-1.1904824e-24
250	0x811fe1b2	-2.9365616e-38
251	0xbc019fe9	-0.007911661
252	0xbc494e7a	-0.012286777
253	0x3b9e3f2d	0.0048293085
254	0x3bdc59a7	0.0067245546
255	0x381e644f	3.7763555e-05
