data/models/heart_attack/heart_attack_200x2.pth (torch, 176374 bytes, 6 tensors)

net.0.weight f4 [200, 13]
000000 95 c5 46 bc 61 a6 44 3e bd f3 23 bf ad 81 66 3e
       -0.012132068 0.19204094 -0.6404379 0.22510405
000010 a4 36 3c 3e 52 da e3 bd 85 23 a7 3d 8f 30 93 bd
       0.18380219 -0.11125626 0.08161072 -0.07186996
000020 50 63 63 3e a3 ef a2 3e 30 51 c8 be d4 79 72 3e
       0.22205853 0.31823453 -0.3912444 0.23679286
000030 97 a2 26 3e 7f 65 89 3e d2 e9 e6 3d 3a 5f 2e bf
       0.1627296 0.26835248 0.112750664 -0.68114054
000040 3e 7c 4c 3e 29 4a 23 be 28 b7 a4 be 95 2b c1 bd
       0.1996927 -0.15946259 -0.32170987 -0.09432141
000050 cd a6 a3 bd 1d a2 17 3f 95 28 07 3f 19 c3 fa bd
       -0.07990799 0.5923174 0.527963 -0.12244243
000060 ff ce 20 3f fc 9f 6b 3e ce a0 95 17 b7 c5 f5 0d
       0.6281585 0.23010248 9.669492e-25 1.5146889e-30
000070 5a a5 09 22 f9 a7 34 14 ca af 1e 85 77 37 78 87
       1.8654499e-18 9.1208044e-27 -7.461412e-36 -1.8673746e-34
000080 55 22 1d 80 ce a3 4b 09 53 89 c7 02 63 87 eb 95
       -2.675545e-39 2.4512257e-33 2.9319242e-37 -9.5129347e-26
000090 69 ed 26 a4 f5 b8 4f 80 74 a2 0f aa 18 37 01 86
       -3.6196606e-17 -7.321354e-39 -1.2757314e-13 -2.430268e-35
0000a0 7c d9 e3 a3 80 ec 84 01 e1 2e 53 80 25 59 9d ae
       -2.4703498e-17 4.8828503e-38 -7.639163e-39 -7.155369e-11
0000b0 9c cb 38 0a 30 9d 1d 14 d2 f0 09 03 8d 37 9f 97
       8.8975724e-33 7.957474e-27 4.053713e-37 -1.0289157e-24
0000c0 39 d5 e3 21 fd 7e d9 95 cc 47 ad 85 d9 1a ad 9e
       1.5438558e-18 -8.7845954e-26 -1.6295216e-35 -1.8328191e-20
0000d0 d8 5a 84 be 84 3c c6 be de a0 c2 3b cd c2 7c bd
       -0.25850558 -0.38718045 0.005939587 -0.061709214
0000e0 2c 65 11 3e 5a 8e 93 3e fd 84 0f be bd 4c 48 3e
       0.1419875 0.28819543 -0.14015575 0.19560523
0000f0 6a 7d 61 be c4 34 aa be 54 51 33 3d 3d 99 0e 3d
       -0.22020498 -0.33243382 0.043778732 0.03481411
000100 2e 15 67 bd e4 49 ce 3d b4 cf 86 be 59 9d 30 3e
       -0.056416683 0.10072687 -0.2633034 0.17247523
000110 50 65 68 be b7 dd 27 3e 3c 60 29 3e b5 e4 dc 3d
       -0.22694898 0.16393171 0.16540617 0.1078581
000120 3e b3 3c 3e 77 bd d9 be d6 7f 64 be 41 0a 7f 3e
       0.1842775 -0.42527363 -0.2231439 0.24906255
000130 d2 c4 7d 3c 49 12 38 be 8a 70 34 bd aa 9c 6e be
       0.01548882 -0.17975725 -0.044052638 -0.2330195
000140 02 f2 dd 3c 71 47 d1 bd b2 84 63 3e fa 8c f3 3d
       0.027092937 -0.102187045 0.22218588 0.118921235
000150 fc ad 4d 3d 73 ad 32 3d 92 d3 51 be 3c ff d1 be
       0.050214753 0.043622445 -0.20490864 -0.4101504
000160 f9 b6 85 3e ec b4 e0 be 7f d9 91 3d 59 64 be bd
       0.2611616 -0.43888032 0.07121562 -0.092964835
000170 81 2e 40 bb 3e c1 3e 3a ab dc 11 3e ce e7 6a 3c
       -0.0029324593 0.000727672 0.14244334 0.014337493
000180 29 ad 09 be 61 be 91 be 3a f4 0d be 43 37 f2 3d
       -0.13444962 -0.2846556 -0.13862696 0.118269466
000190 ca 0b 1a 3e 3b ff e1 bc fb 15 52 bc 3d 2c b3 3d
       0.1504356 -0.027587524 -0.012822623 0.08748672
0001a0 a3 05 35 3e 2b 87 4c 3e d2 92 e3 bd cc 6a d7 3d
       0.17677931 0.19973437 -0.11111988 0.10518417
0001b0 83 95 67 3e 73 7f 11 be 74 70 91 bd bd d0 23 be
       0.22615628 -0.14208774 -0.07101527 -0.15997596
0001c0 fd d4 0a 3f db 74 8f 3e 72 82 8a be bc 30 ff 3c
       0.54231244 0.2801884 -0.27052647 0.031151168
0001d0 41 44 5b 3e 15 45 b7 bd fb 02 6d be e6 27 34 3b
       0.21412756 -0.08948723 -0.23145668 0.0027489602
0001e0 12 ef ba 3c 2c 4e 86 be 9b a6 d8 3a 7d 90 b3 3d
       0.022819076 -0.26231515 0.0016529144 0.08767793
0001f0 f9 f3 80 3e 51 30 2c bd 86 00 e4 bb ea db 33 be
       0.25186136 -0.042038266 -0.00695807 -0.1756436
000200 29 05 1b 3e 17 51 86 bb 8c 10 4d be 5f d0 f7 3e
       0.15138687 -0.004099022 -0.20025843 0.48401162
000210 60 ee 0e be aa a7 e3 3d 6a b4 cd 3c 83 5e 2d 3b
       -0.1395812 0.11115964 0.025110442 0.0026454038
000220 d6 91 0b bd bc b5 df 3d ed 85 e9 3d e6 46 2a 3d
       -0.034074627 0.10923335 0.114024974 0.04157152
000230 93 4b c7 bc ee 05 50 bd 60 8e 80 bc b4 37 45 3e
       -0.024328029 -0.050786905 -0.01569289 0.1925953
000240 62 a4 8f 3e cd a2 f3 be 09 23 1e 3e 45 7d 6c 3e
       0.28055102 -0.47585145 0.15443052 0.23094662
000250 41 d0 5e bd 89 70 ec bd 03 1f 01 be ba 5c b0 3e
       -0.054397825 -0.11544902 -0.12609486 0.34445745
000260 d5 c2 96 3e d1 6d c3 3d ea 6e db 3e c7 00 f9 bd
       0.2944552 0.0954243 0.42858058 -0.121583514
000270 5f 49 8c 3c 32 87 f3 3d d5 ff 89 be ed 75 4b bd
       0.01712483 0.11891021 -0.26952997 -0.04967301
000280 ed e5 52 3e 28 6b 03 bd c6 b6 6f 3d 40 05 69 3e
       0.20595522 -0.032084614 0.058523916 0.22755909
000290 37 02 d2 3e e8 e5 8e 3e 8f 1a 06 be 39 06 e1 3d
       0.41017315 0.2790978 -0.13096069 0.10987515
0002a0 60 92 53 3e 7f d0 6f be dd fd b4 be 6a da 69 3e
       0.20661306 -0.23419379 -0.35349932 0.22837225
0002b0 78 ab 06 be bf ac 9c 3d cc 41 d4 3d 3a f8 09 bd
       -0.13151348 0.07650136 0.10364112 -0.033683993
0002c0 29 da 50 3e 09 ea d6 be 01 12 83 be 3b fc 16 be
       0.20395721 -0.4197543 -0.25599673 -0.14744656
0002d0 2e 1b e6 be e7 ad 48 3b eb a6 a2 ba 11 14 b3 3c
       -0.4494261 0.0030621232 -0.0012409365 0.021860154
0002e0 8f b3 32 bd 4f a5 74 bb 94 2b c3 b9 49 4c 8d bc
       -0.04362827 -0.0037329977 -0.00037225767 -0.01724829
0002f0 78 6b 1b ba 04 bd a7 ba 7d a1 fd 3c b2 88 e0 3c
       -0.0005928795 -0.001279742 0.030960793 0.027408931
000300 99 07 2b bc 40 ad e3 3c b4 f0 bb 3c 12 9b c3 bd
       -0.010438823 0.027792573 0.022941925 -0.09551062
000310 71 d6 50 3a 10 66 49 3a b5 8c 97 bd e3 de 4b bd
       0.00079665246 0.000768275 -0.073998846 -0.04977311
000320 a2 7a 40 a7 5e f2 40 00 97 ee d5 3d 10 c9 3d 84
       -2.6711832e-15 5.964417e-39 0.10445898 -2.2309167e-36
000330 cf fe 8f a8 48 42 34 bb f2 5b 20 80 eb 26 8a bc
       -1.5986695e-14 -0.0027505327 -2.97172e-39 -0.01686426
000340 cb 80 cd 3d eb cd 03 be 77 d4 be bc b1 16 34 3c
       0.10034331 -0.1287152 -0.02329467 0.010991738
000350 a0 ad 22 bb 34 52 2b bd 41 01 12 bd de d5 4d 3c
       -0.0024822727 -0.041826442 -0.035645727 0.012563197
000360 03 6e 10 be 81 79 fd 3d 81 87 48 bd 8d 17 e8 3d
       -0.14104466 0.12376691 -0.04895735 0.11332617
000370 45 29 40 3d 68 78 a4 a5 6f 9f 5c 2e 30 ba 60 a7
       0.046914358 -2.8531055e-16 5.0163814e-11 -3.1187177e-15
000380 fc 43 32 b7 8c f6 43 b9 c8 fb 33 28 fb be 0e 00
       -1.0625456e-05 -0.00018688495 9.9910924e-15 1.354208e-39
000390 6e 21 37 b9 c2 be e1 ab ae 08 b0 19 18 40 21 13
       -0.00017464694 -1.6040157e-12 1.8201479e-23 2.0352658e-27
0003a0 7f 51 60 01 67 97 8e 13 c4 3c 28 3e 59 25 bf 3e
       4.1200773e-38 3.5995134e-27 0.1642943 0.37333182
0003b0 78 68 95 be 07 4a 84 3e 46 c5 71 3e c8 cf 76 3d
       -0.29181266 0.25837728 0.2361041 0.06025675
0003c0 26 12 87 3c b3 4b 06 3e d9 25 e0 3e 12 68 c9 3c
       0.016488146 0.13114814 0.43778875 0.024585757
0003d0 1e 1c 85 be 21 62 2b 3e 3d ad af 3c f8 76 72 be
       -0.25998014 0.16736652 0.021444911 -0.23678195
0003e0 e5 44 33 bf 4a 3c 86 3e da b8 43 bc 43 3d 48 3e
       -0.70027 0.26217872 -0.0119459275 0.1955462
0003f0 e2 f1 e3 bc a6 a8 99 bd 3a 6d f5 bd f1 92 45 bf
       -0.0278253 -0.0750287 -0.11983724 -0.7717734

net.0.bias f4 [200]
000000 43 4f 2b bd 45 22 28 3d 74 03 9b a4 23 71 80 01
       -0.041823637 0.041048307 -6.7226385e-17 4.718212e-38
000010 5f 1e 18 3e cb 4c 32 be f8 e9 10 3e c1 78 fa bb
       0.14855336 -0.17412107 0.14151752 -0.0076437895
000020 09 de e1 3d 78 3e a9 3c 18 11 2b be c1 b4 27 bd
       0.11028678 0.02065967 -0.1670574 -0.040943865
000030 1c 4b 7e be a1 66 f8 3d 8e 0b 03 bb e3 66 c7 3a
       -0.2483334 0.1212895 -0.00199959 0.0015213158
000040 6f ac 66 3d 93 c0 1f 19 c7 61 cf bc 3b 29 4f 3e
       0.05631679 8.258997e-24 -0.025315179 0.20230572
000050 43 87 25 a9 43 32 98 3d 0f 1d c8 bc 50 b7 f5 30
       -3.675468e-14 0.07431462 -0.024427919 1.7878197e-09
000060 c2 c6 3f be 46 2c d6 bd 2c a1 39 bd eb bb 02 2e
       -0.18728164 -0.10457663 -0.04531972 2.9725482e-11
000070 60 0d bd bb b9 77 94 1f 23 1f 64 bd 2e 8c a0 3d
       -0.0057694167 6.28785e-20 -0.055693757 0.07839237
000080 6e 40 60 be d0 b3 4d 3e 54 0a 86 80 78 d4 80 35
       -0.21899578 0.20088124 -1.2309662e-38 9.59858e-07
000090 6b d3 7a 3e ad 6c 02 3e dc ff 39 3e db 8b 4c be
       0.24494712 0.12736769 0.18164009 -0.19975226
0000a0 34 c9 84 8c 70 f3 d9 02 35 8c 78 be 24 0d 92 04
       -2.0458915e-31 3.202501e-37 -0.24272235 3.4336503e-36
0000b0 5e c5 44 be 77 bf 2b 3d 96 ee a2 3d 84 ba 21 3e
       -0.19215915 0.041930642 0.07955663 0.15793806
0000c0 55 65 06 be 0f f8 18 3e cf 27 97 bd 60 61 ed 3c
       -0.13124593 0.14938377 -0.0738064 0.028977096
0000d0 58 8c bb bc ab 2d 47 bd 00 ef c4 bb f2 c6 4e 3e
       -0.02289407 -0.048627537 -0.0060099363 0.20193079
0000e0 6e b8 08 be 05 c6 96 b3 83 94 6b be 76 85 e6 3c
       -0.13351604 -7.020939e-08 -0.23005871 0.028139811
0000f0 07 c7 4c 80 bd 96 de 3d 73 63 22 3e 72 12 fe bc
       -7.050895e-39 0.10868595 0.1585825 -0.031014655
000100 2a d1 62 3e 6c 51 b9 3d af 5f 6d 3e 25 70 49 be
       0.22150102 0.09048733 0.23181032 -0.19671686
000110 03 1f 26 ab 20 98 05 bc 8b 3a 4d b6 69 bb 16 b5
       -5.9018084e-13 -0.008153945 -3.0581457e-06 -5.615207e-07
000120 e5 44 42 be b0 36 20 3e 38 fc a0 bd 8c fc 55 3e
       -0.18971594 0.15645862 -0.07860607 0.2089712
000130 d2 8a 5e 3d 3f c9 43 bd 59 ab 7b bc 53 ff ed 3d
       0.054331608 -0.047799345 -0.015360677 0.11620965
000140 3a 8e bb 3d 68 59 07 3e bc ad c9 3b 5e 2f dc 27
       0.09157987 0.132177 0.006154744 6.111362e-15
000150 63 0f 80 be 5c 04 b0 bc ba 1c 48 3e b6 04 21 3e
       -0.2501174 -0.021486454 0.19542208 0.15724453
000160 c0 6f d1 3d a2 92 57 be e8 01 61 bd 28 8f 4b be
       0.10226393 -0.2105203 -0.05493346 -0.19878829
000170 ea c0 cd bd 64 53 3b 3e ea 4d 71 be ec 5d 48 3e
       -0.10046561 0.1829353 -0.23564878 0.19567078
000180 fb 28 2d 3b f5 1a 27 bd ed 65 12 97 c1 6d fc bb
       0.0026422131 -0.040797193 -4.7303793e-25 -0.0077035134
000190 ea 0d 38 3e 03 d6 80 bc 4a 8c 2c be de e0 aa 1e
       0.17974058 -0.015727049 -0.16850391 1.8092453e-20
0001a0 4f 16 41 be ba 62 c7 3d 37 08 ab bd 27 6d 9f bc
       -0.18856166 0.097356275 -0.08351176 -0.019461228
0001b0 46 c5 82 0a 2e 9c c2 ab 81 75 81 b9 fa a0 9a ae
       1.259275e-32 -1.3827878e-12 -0.00024692345 -7.0317044e-11
0001c0 53 ca e0 87 75 3c a9 3d 3d a1 36 3e 7e 6d 32 83
       -3.382269e-34 0.082634844 0.17834945 -5.243519e-37
0001d0 9b 82 40 3e 14 34 e4 bd 56 7a c0 3d d8 24 95 3c
       0.18799822 -0.111427456 0.09398334 0.018206045
0001e0 6e 4f 13 3e eb a2 26 bb db 6f 48 3e 0e 84 3c aa
       0.14385769 -0.0025426697 0.1957392 -1.674357e-13
0001f0 b1 71 93 9d 47 9e 2c 3d e2 cd 19 be bb 8e b0 17
       -3.902813e-21 0.042143133 -0.15019944 1.1409764e-24
000200 23 30 2e a5 16 20 f3 a3 d8 b8 6c 2e 65 1c 17 3e
       -1.5108404e-16 -2.6359702e-17 5.382436e-11 0.14756925
000210 3c 87 1a be 9e 67 94 3c bd fc 1b bc ed f4 2c be
       -0.1509065 0.018115815 -0.009520707 -0.16890307
000220 65 57 a7 ae 38 c6 51 be 27 c4 74 bb 11 ec c3 3b
       -7.609805e-11 -0.2048577 -0.0037348361 0.005979069
000230 c1 e1 d7 bd a7 52 55 be d6 6d 98 bd 2f 36 42 3e
       -0.10541106 -0.2083231 -0.074428245 0.18965982
000240 b6 3d c4 bd a8 02 35 22 98 83 94 be e3 a1 6f b7
       -0.09582083 2.453148e-18 -0.29006648 -1.4283202e-05
000250 f0 88 80 be 6c 02 59 b5 cf 40 f7 3c 41 77 28 10
       -0.25104475 -8.0842324e-07 0.03018227 3.3224028e-29
000260 bb 30 de bb ff 31 a6 bd a4 8b db 8e 8c 92 20 3c
       -0.0067807115 -0.08115005 -5.4122137e-30 0.0098005645
000270 25 9e 96 86 1e 04 95 3c a0 3e 53 98 6a e1 d4 01
       -5.66561e-35 0.01819044 -2.7302728e-24 7.8199954e-38
000280 34 eb b8 3d a0 10 10 a2 40 2a 72 05 54 b0 3a 02
       0.090292364 -1.952444e-18 1.13865454e-35 1.3715726e-37
000290 d0 12 31 3e 4f 6a 8d be 58 af ec bd 09 dc 21 be
       0.17292333 -0.2762017 -0.11556882 -0.15806593
0002a0 48 5e 5b 3e 7e 25 56 80 c4 c0 8f bb 26 39 6f 0c
       0.21422684 -7.911302e-39 -0.004386993 1.8429088e-31
0002b0 38 7d e9 bd 8d 20 ba ad a5 76 07 3e f8 b7 34 30
       -0.11400837 -2.1160207e-11 0.13228853 6.5745054e-10
0002c0 c1 eb a2 bd 50 91 2d 28 11 7b 7e be 20 87 0e bd
       -0.07955123 9.634939e-15 -0.24851634 -0.034796834
0002d0 bf bf 0c ae 08 03 3e 3e a1 5b 81 bb f6 02 c1 34
       -3.200262e-11 0.18555844 -0.0039476906 3.5951206e-07
0002e0 2f 4c cb bd 32 b8 e8 bc f8 eb 4a be d5 08 60 bb
       -0.0992664 -0.028408144 -0.19816577 -0.0034184952
0002f0 b6 2d 13 3c 26 39 08 3c 63 c8 74 3b dd 48 16 be
       0.008983066 0.0083144065 0.0037350885 -0.14676233
000300 ae cb 0e 3e 25 33 1e 0f 5c 9a d3 a1 db 38 08 bd
       0.13944885 7.7998515e-30 -1.4338775e-18 -0.033257347
000310 80 70 87 3d 38 ad a3 00 a7 a2 ba 00 5a f6 72 3e
       0.066132545 1.5031325e-38 1.7139751e-38 0.23726788

net.2.weight f4 [200, 200]
000000 f6 61 fa ba 42 c8 95 04 5d da 26 82 8f 24 86 82
       -0.0019102681 3.521364e-36 -1.2258421e-37 -1.9710514e-37
000010 13 c0 5b ba f3 18 e0 ba c6 2c 98 ba 82 15 83 05
       -0.00083828083 -0.0017097279 -0.0011610023 1.2327082e-35
000020 c7 f6 0b bb 74 16 fe 83 e6 e2 ce b9 32 77 16 bb
       -0.0021356808 -1.4933933e-36 -0.00039460434 -0.002295923
000030 99 38 61 bb 8d 82 86 ba 20 76 85 00 3b bf a0 00
       -0.003436601 -0.0010262296 1.2256496e-38 1.476228e-38
000040 10 af 13 b9 08 9d 19 81 58 18 88 bb 01 b4 8b b7
       -0.00014084228 -2.8214326e-38 -0.0041532926 -1.6653912e-05
000050 18 93 0b 01 bc aa e2 86 d3 23 13 06 e3 51 95 02
       2.5635803e-38 -8.5262623e-35 2.7673947e-35 2.1940583e-37
000060 94 3e b3 02 dd 8d e1 b7 06 e5 41 ba e6 40 1f 01
       2.6337604e-37 -2.688815e-05 -0.0007396493 2.925025e-38
000070 ac 37 19 01 ec f6 a1 80 98 f9 42 bb 24 cb 2e bb
       2.8141604e-38 -1.4874094e-38 -0.002975082 -0.0026671374
000080 ca 70 37 04 46 df 9b bb 96 03 1f 00 f7 4e 72 80
       2.1563337e-36 -0.004756841 2.848187e-39 -1.0497574e-38
000090 30 83 e8 b9 3f 81 c4 b9 35 a2 30 b8 d3 2e 3e b8
       -0.0004434823 -0.0003748033 -4.2112737e-05 -4.534314e-05
0000a0 6e b7 3c 01 34 ab 8f 00 83 e2 c0 b8 64 8a 92 80
       3.466175e-38 1.3193892e-38 -9.1974645e-05 -1.3457628e-38
0000b0 b2 70 f0 b7 50 9c 1a 01 e6 b2 06 bb 91 4d 39 ba
       -2.8662707e-05 2.8397482e-38 -0.002055341 -0.0007068748
0000c0 45 f8 d6 b7 47 99 2d ba 32 2d 03 02 50 59 2d b3
       -2.5626397e-05 -0.00066222664 9.63733e-38 -4.036093e-08
0000d0 9d 12 f6 b9 61 61 8a bb fe 77 26 05 d1 25 aa 84
       -0.00046934644 -0.0042230343 7.8273216e-36 -4.0001537e-36
0000e0 d2 60 60 0b 36 85 9b 00 20 5a ed a6 f6 41 b1 ba
       4.321367e-32 1.4282289e-38 -1.6469607e-15 -0.0013523686
0000f0 4f 6a 1d 80 ce ec 0f bb 40 c5 19 bb 01 ed 03 00
       -2.701366e-39 -0.0021961215 -0.0023463517 3.60527e-40
000100 8e fe 72 bb 66 4c 78 b8 b8 f4 ec 04 07 91 60 ba
       -0.0037077996 -5.919896e-05 5.5708072e-36 -0.00085665326
000110 78 2c db 80 0a 84 39 00 c4 af dc 00 2a b3 61 01
       -2.0127926e-38 5.28199e-39 2.0266862e-38 4.1454517e-38
000120 f1 06 ff ba 29 d3 2d b6 18 09 81 80 a7 bb 4e 16
       -0.0019457025 -2.590192e-06 -1.1850041e-38 1.669976e-25
000130 f4 7a 75 b2 d2 33 93 81 b3 6a db b7 3e 77 38 ba
       -1.4288833e-08 -5.407363e-38 -2.615652e-05 -0.00070368114
000140 3d 2a bd 80 50 dd ec 82 fe 60 bc ba 40 98 06 00
       -1.7372061e-38 -3.480411e-37 -0.0014372168 6.0563e-40
000150 40 f5 18 bb a9 b0 2f 80 b7 16 c7 80 ea 34 b9 06
       -0.002333954 -4.379642e-39 -1.8283412e-38 6.9667016e-35
000160 ed b0 05 bb 0c e9 0c 03 61 b9 7f 84 2b ee f4 b7
       -0.0020399645 4.1409827e-37 -3.0060228e-36 -2.9197972e-05
000170 6d c6 33 ba c3 c8 dc ac 7e b3 b3 ba e5 20 88 b9
       -0.0006857876 -6.275065e-12 -0.0013710109 -0.0002596445
000180 0d 77 54 00 76 77 e1 b9 0a c6 1d 82 b2 f1 6c 00
       7.756889e-39 -0.0004300435 -1.1591373e-37 1.0004938e-38
000190 35 6d 15 ba cc cd 6e 91 f0 93 87 1a 28 30 99 80
       -0.0005700172 -1.8838306e-28 5.60737e-23 -1.4068106e-38
0001a0 86 41 82 b2 f3 a5 e1 ba fa a4 fa af 84 57 37 85
       -1.5163788e-08 -0.0017215594 -4.5591958e-10 -8.620693e-36
0001b0 51 94 2e 00 c5 66 56 01 61 9b 4d 00 8b 13 2b 00
       4.277639e-39 3.9379326e-38 7.127073e-39 3.955937e-39
0001c0 94 c4 29 00 f5 ad 14 b8 4f 99 d8 ba 9d 92 45 80
       3.835774e-39 -3.544796e-05 -0.0016525182 -6.389244e-39
0001d0 c8 a7 f3 02 52 a0 f0 ae 13 bf d1 b8 5a 82 59 b6
       3.5801943e-37 -1.0942415e-10 -0.00010001487 -3.2411394e-06
0001e0 6f 01 0d 05 c9 ca 3b 01 e1 81 d9 b8 b7 f3 f9 80
       6.6300514e-36 3.4491967e-38 -0.00010371558 -2.2954467e-38
0001f0 d8 f1 69 01 67 f5 12 86 c2 97 c9 ba 64 62 a5 80
       4.2968856e-38 -2.763984e-35 -0.001538031 -1.5188153e-38
000200 9d 73 a3 80 70 e3 21 00 e8 d2 3e 82 a6 fd 2b b0
       -1.501066e-38 3.11216e-39 -1.4019523e-37 -6.2569894e-10
000210 22 4d dd 0c da 3c 82 94 e4 ad 7c 02 db 37 33 86
       3.4096864e-31 -1.3150647e-26 1.856394e-37 -3.3707194e-35
000220 6e 69 05 81 d4 53 75 ba ac 16 45 80 19 4a 93 82
       -2.4503884e-38 -0.00093584997 -6.344782e-39 -2.1642239e-37
000230 1d c3 c4 ba d8 ac f4 ba 4e 47 b4 b9 a9 86 29 bb
       -0.0015011762 -0.0018667234 -0.00034385402 -0.0025867617
000240 9a bb 7d b9 34 c4 92 81 c6 9d 12 bb cb 6d 08 01
       -0.00024197847 -5.391347e-38 -0.0022371872 2.5058028e-38
000250 07 dd 57 b8 af e2 24 80 81 1c 87 02 04 3f 8d 00
       -5.1465842e-05 -3.387397e-39 1.9852828e-37 1.2971411e-38
000260 ba 5e 1d 00 1f 96 24 ba 1e a5 1a 80 1e bb 52 b7
       2.697211e-39 -0.00062784733 -2.446956e-39 -1.2560542e-05
000270 74 a0 4d 01 16 62 89 01 42 a7 37 01 f3 87 47 00
       3.7767673e-38 5.04666e-38 3.3731793e-38 6.56909e-39
000280 10 53 34 80 49 75 93 81 b8 b9 48 80 b5 15 88 80
       -4.805243e-39 -5.416757e-38 -6.678779e-39 -1.2497414e-38
000290 35 9a e8 ba 3a 7a aa ba 7c 08 f1 01 19 a5 04 b9
       -0.0017746153 -0.0013006397 8.854159e-38 -0.00012650005
0002a0 09 1d 5a bb b9 dc 3e 80 1b aa 27 80 b0 06 0e 01
       -0.0033281466 -5.772981e-39 -3.642607e-39 2.608608e-38
0002b0 69 d7 37 85 22 92 9b 01 24 ae b0 a3 95 a6 4c 00
       -8.644183e-36 5.71477e-38 -1.915571e-17 7.039256e-39
0002c0 13 01 69 b9 1e 75 16 01 28 1a 36 bb 25 ab d4 ba
       -0.00022221012 2.7634676e-38 -0.0027786586 -0.0016225321
0002d0 10 ea 00 00 f2 b7 09 af c8 b8 60 80 2b 47 0a 02
       8.3966e-41 -1.2525428e-10 -8.882495e-39 1.0159063e-37
0002e0 44 bc a1 97 23 00 77 b5 78 ab 02 af 58 ff 12 81
       -1.0451906e-24 -9.201487e-07 -1.1884349e-10 -2.6999165e-38
0002f0 b5 bd 88 84 0f 5d 73 ba 59 cf f0 00 50 ca db b8
       -3.2147665e-36 -0.0009283581 2.2114901e-38 -0.000104804174
000300 a7 54 6f bb bb fd cd 00 fa cf 28 80 a5 73 66 b6
       -0.0036518963 1.8917298e-38 -3.748028e-39 -3.4339985e-06
000310 6f b1 c3 ba 54 5f 57 01 21 f5 62 80 cc 28 46 b9
       -0.0014930199 3.9557658e-38 -9.087814e-39 -0.0001889795
000320 2f 45 52 bc 50 62 1e 00 38 f4 51 00 17 7d ed 00
       -0.0128338775 2.790333e-39 7.526284e-39 2.1809886e-38
000330 1e 76 09 bb 92 03 bd bc 36 b2 6c 3c 7a cd ea ac
       -0.0020974944 -0.023072992 0.014446786 -6.6734925e-12
000340 40 87 e8 bb 5a 34 51 81 9b 3c 90 3b 4b 95 9d 3a
       -0.007096201 -3.8424798e-38 0.004401756 0.0012022642
000350 e2 f7 dd 3c 26 19 21 3c 8a f4 30 82 ad 77 25 00
       0.027095739 0.009832656 -1.3000617e-37 3.440845e-39
000360 05 38 29 3b c8 26 23 00 50 a9 a3 3c 11 8f a8 b8
       0.0025820744 3.228154e-39 0.019978195 -8.0375125e-05
000370 28 a3 69 00 6a 31 7a b8 f0 cb 09 bb 68 88 06 80
       9.701257e-39 -5.9650665e-05 -0.0021026097 -5.99946e-40
000380 8e 27 01 81 25 42 cd 39 7b 7d 7c b9 58 ac 2a 82
       -2.3721937e-38 0.00039149928 -0.00024079338 -1.2539088e-37
000390 5e 70 7f 81 96 7b 53 80 e9 84 21 bd 34 8c f5 3c
       -4.6916723e-38 -7.66668e-39 -0.039433394 0.02997408
0003a0 ab 6b 1c ba ae d4 6f bc ba 7d 08 00 2d be 07 80
       -0.00059669715 -0.014638109 7.79786e-40 -7.1107e-40
0003b0 6e 40 c2 3a 29 c9 37 3c da 3d 2c b8 8c 62 28 3b
       0.0014820227 0.011217394 -4.10656e-05 0.0025693504
0003c0 91 3d 23 80 ff e3 a7 80 f2 db 8e 3b 0d 5f 2d 02
       -3.236328e-39 -1.5418317e-38 0.0043597156 1.2737311e-37
0003d0 14 87 2d b9 c3 1a 43 82 c9 b0 3e bc 10 b2 e6 bb
       -0.00016548886 -1.4334018e-37 -0.011638829 -0.0070402697
0003e0 42 7c a0 39 30 b8 b3 bc 26 4f ea 81 f1 c2 ce b9
       0.00030610157 -0.021938413 -8.6071597e-38 -0.00039436625
0003f0 97 0f 2c bc 53 b1 96 bc 26 e0 0b 01 4d 17 f8 0f
       -0.010501764 -0.018395102 2.5691087e-38 2.4463663e-29

net.2.bias f4 [200]
000000 a2 b6 0a 06 a9 36 0a 0d b9 ec dd bc fd 4c 10 bb
       2.6089093e-35 4.259033e-31 -0.027090417 -0.0022018545
000010 7d 64 a7 3c 95 21 08 bd dc 1d 3e 04 86 3d d8 ba
       0.020433659 -0.03323515 2.2348103e-36 -0.0016497828
000020 52 5e f0 87 5a 02 60 ba 49 9f c4 39 f8 de 2f bd
       -3.6166623e-34 -0.0008545272 0.0003750271 -0.04293725
000030 b6 4f b6 bc 2b 14 13 3d 0d 85 f5 bb cd 96 d0 ba
       -0.022254806 0.035907906 -0.0074926675 -0.0015914083
000040 ae ab a0 3c b4 5c 2d bb 18 19 c1 3c 68 33 1a 3d
       0.019613113 -0.002645296 0.023571536 0.03764668
000050 ab 3c b3 ba f1 fc 1c bc 7b 8b 15 bb b8 70 77 bb
       -0.0013674697 -0.00958179 -0.0022818733 -0.0037756395
000060 5f e2 e5 bb 10 04 74 05 c5 60 1a bb 54 bb e3 84
       -0.007015511 1.1473571e-35 -0.0023556214 -5.3539477e-36
000070 1b d2 8d 3a bc b3 a6 01 98 a5 a4 bb 58 06 7d bc
       0.0010820063 6.1236676e-38 -0.005024623 -0.015443407
000080 e3 5c 55 00 34 a3 bb bc ad a9 5c 3d 92 28 84 3c
       7.839339e-39 -0.02290497 0.053872753 0.016132627
000090 de 9c 38 bb b0 c3 d3 b9 6f 89 84 3d 4a 33 46 b9
       -0.0028169672 -0.00040390855 0.06471526 -0.00018901858
0000a0 d4 b9 2a 2d e9 88 a3 ba 79 cf 08 3c a4 d2 07 b8
       9.704643e-12 -0.0012476715 0.008350247 -3.2382683e-05
0000b0 b4 52 73 ba 29 50 cd 05 99 82 2e 3b 8b 5b 2c 02
       -0.0009282038 1.9307554e-35 0.0026628135 1.2662836e-37
0000c0 c3 4a 5b 3c ad 90 bf 3b 4e 5f 16 3d b2 3e 62 b7
       0.013384524 0.005846104 0.036711983 -1.3485247e-05
0000d0 eb 06 cd b9 ea 81 33 bd c6 24 1e 3d 04 17 10 3d
       -0.000391058 -0.043825068 0.03860929 0.0351782
0000e0 84 d5 e3 b9 16 aa ee bb 7a 50 f4 ba 7f 89 75 bd
       -0.00043455896 -0.0072834594 -0.0018639707 -0.05994558
0000f0 e6 cc d0 a6 ea 39 d0 bb 0d 14 e4 ba 53 a3 40 3a
       -1.4488437e-15 -0.00635456 -0.0017400995 0.0007348556
000100 6a 32 1c b9 81 38 69 bc aa 4b 10 bc a1 67 a4 bc
       -0.000148961 -0.014234663 -0.008807102 -0.020068945
000110 e2 c7 1c 85 43 c9 b6 bc f5 3f 38 2b 68 ad 15 b6
       -7.3717974e-36 -0.022312766 6.545869e-13 -2.2303666e-06
000120 08 da 8c bd 34 5e 80 3c 02 bd 8c 84 24 46 f4 bc
       -0.06877524 0.01566992 -3.3087418e-36 -0.029818602
000130 7e 53 80 aa f8 7f 1b 3d 25 86 b2 b0 48 b9 11 b8
       -2.2795302e-13 0.037963837 -1.2989331e-09 -3.474325e-05
000140 b4 8e 34 bb 21 6f 62 3d 73 55 87 94 e3 e1 59 3c
       -0.0027550878 0.055281762 -1.366522e-26 0.0132984845
000150 63 93 2d 3c 9f 6c 51 bd 49 f2 7d 3d 42 f5 99 bc
       0.010594222 -0.05112898 0.06199864 -0.018793706
000160 41 76 34 bc 06 76 47 bd f1 80 8f bc 3e 18 79 bb
       -0.011014522 -0.04869654 -0.017517539 -0.0038008834
000170 24 97 83 bc 2c fb c4 3c 1c 43 af 10 38 3d d1 39
       -0.01606328 0.02404555 6.912873e-29 0.00039909198
000180 e2 ae 8b bc 68 42 67 3d dc ae 45 bb 13 d2 ff bc
       -0.017051164 0.056459814 -0.0030164039 -0.0312281
000190 a8 0e d2 80 3a 6f f5 3c a9 05 67 3d 0e 6f b0 bc
       -1.9290712e-38 0.029960264 0.056401882 -0.02153733
0001a0 46 ec 06 81 14 e1 0d bd 45 e1 40 bb 92 ca bc bb
       -2.478143e-38 -0.03463848 -0.0029431146 -0.005761453
0001b0 95 7d 5d 3d 07 9c 29 bb 51 71 75 bd 57 fc 7e 3d
       0.054074842 -0.0025880353 -0.05992252 0.06225237
0001c0 42 59 0f bb 46 29 a2 bc b6 83 0d 3d 80 b1 2b 3d
       -0.002187327 -0.019795071 0.034549437 0.041917324
0001d0 81 d3 ec 85 ec e9 9d bc 14 95 7b b9 a8 fb 16 3d
       -2.2271028e-35 -0.019276582 -0.00023992761 0.03686109
0001e0 7d db e0 bb 79 18 f1 bc 39 16 83 bd 09 e5 a6 bb
       -0.0068621025 -0.029430615 -0.06400723 -0.005093221
0001f0 64 c9 05 3c 41 19 d3 3c cd 06 28 20 08 c8 b3 04
       0.008165691 0.025768878 1.4232404e-19 4.2266397e-36
000200 b9 ae f8 bc 57 77 e7 3c 73 ce 6c 3c bc 2c 3e 3d
       -0.030356752 0.028255148 0.014453518 0.04642938
000210 24 63 b8 0b 7c 16 4f bb f3 b3 c4 3c af 3b 81 ba
       7.102339e-32 -0.0031599095 0.024011588 -0.0009859706
000220 1a c0 4b bb fb cd 2d 3b ee 8e 1c b7 47 aa 09 3c
       -0.0031089843 0.002652048 -9.331603e-06 0.008402414
000230 a1 f5 d2 00 a5 a1 3d 84 7e 3b 55 3d 7d 67 ee b7
       1.9373569e-38 -2.2291067e-36 0.05205869 -2.8420001e-05
000240 da c1 10 3a d5 b9 86 bb e0 1a cf 3c 25 e6 91 b9
       0.000552205 -0.0041115084 0.02528137 -0.00027828026
000250 ff dd 9d 05 2c 39 9a b8 65 7b 86 bd d3 d9 01 87
       1.4845758e-35 -7.353941e-05 -0.065665044 -9.768894e-35
000260 3e f2 3b 3b f7 91 af ba 0e c1 ad 03 c4 78 5c b4
       0.0028678323 -0.0013394941 1.0212349e-36 -2.0533031e-07
000270 09 36 73 bc a5 2a e3 ba 20 08 f6 3c 3c 41 3a 0b
       -0.014844426 -0.0017331435 0.030033171 3.5871374e-32
000280 c2 3c e0 b9 00 24 94 81 5a 05 57 bd d5 0e 6a 3a
       -0.00042769877 -5.441827e-38 -0.052495338 0.0008928602
000290 69 ce 62 bd 46 3c b8 3b e5 43 f8 bb e8 65 c6 2b
       -0.05537263 0.0056224195 -0.007576453 1.4097031e-12
0002a0 27 53 8b 3c fb 79 58 b9 dc 85 18 bc 67 52 39 bb
       0.017007424 -0.00020644807 -0.009309258 -0.0028277875
0002b0 74 e3 ac 26 64 97 0f b9 e6 aa 1a 3d b6 1a 4d 84
       1.1996549e-15 -0.0001369394 0.037760638 -2.41099e-36
0002c0 4c 42 02 bd 02 69 a9 bc d4 a7 97 ba 39 8b 40 3d
       -0.031801507 -0.020679954 -0.0011570402 0.047007773
0002d0 42 1d ef 3c f8 81 c1 a3 cb 95 ed bc c9 66 40 3c
       0.029188756 -2.0980146e-17 -0.02900209 0.011743256
0002e0 0f 82 5f 04 3e 11 13 bc e7 d4 a4 bc 74 4f 15 3d
       2.6273244e-36 -0.008976279 -0.020121051 0.036452726
0002f0 3d 99 24 ba 9c 93 6d 39 3c 1a 3b bd a8 18 e2 b6
       -0.0006278938 0.0002265707 -0.045679316 -6.738195e-06
000300 aa 8f fe ba 6c 19 65 04 d1 45 b7 bb 71 6f 50 bd
       -0.0019421477 2.6930494e-36 -0.0055930396 -0.05088753
000310 d0 7e 3a bd c9 71 b9 ba a9 cc 16 bc 1f bc d4 04
       -0.045531094 -0.001414829 -0.009204068 5.0013722e-36

net.4.weight f4 [2, 200]
000000 5c 93 3b bc 91 2b 3a 2f 12 6f db 3c aa fd 15 bc
       -0.011448707 1.693208e-10 0.02678636 -0.0091547165
000010 07 9c 14 3d d5 22 77 3d d4 9d f2 88 b0 4b eb ba
       0.03628161 0.060335953 -1.460195e-33 -0.0017951634
000020 1d 52 49 39 ec 91 bb bb fb 7e 40 bb d7 ee 38 bd
       0.00019199443 -0.0057241824 -0.0029372561 -0.04514965
000030 cb 7d e0 3c 36 4a c6 3c 85 1c 1f 3c 90 d6 e7 ba
       0.027403733 0.024205308 0.009711389 -0.0017687846
000040 ea c4 d7 3b e4 5b 71 bc 15 9e 8a bc 7d 83 a4 3b
       0.0065847533 -0.014731381 -0.016921083 0.0050205574
000050 5e 5c ab 3c a1 f9 43 bd 0f 82 6a bc 81 e1 b3 3c
       0.020918068 -0.047845487 -0.014313235 0.021958115
000060 fa d3 d6 bb d4 7b 43 bc 9e 57 50 bb 84 b0 f8 bb
       -0.0065560313 -0.011931378 -0.0031790505 -0.0075894017
000070 74 57 65 3d c6 ec 85 ba e1 08 05 bc aa 90 47 bc
       0.055991605 -0.0010217659 -0.008119793 -0.012180487
000080 71 c6 6c 06 4b 72 96 3c bd 45 84 bd 00 63 3d 3c
       4.4532458e-35 0.018365046 -0.06458614 0.011559248
000090 48 f1 4b 39 e1 c6 0a 3c 96 3a 57 3d e5 77 fe bc
       0.00019449473 0.008470268 0.052546106 -0.03106303
0000a0 fa cb 44 3b d5 a4 1c bc e5 9d a4 bc 03 91 20 3c
       0.0030028806 -0.009560783 -0.020094821 0.0098001985
0000b0 5b 46 6d ba fc 05 3c bc 02 70 58 3d 30 ad e8 3a
       -0.00090513163 -0.011476036 0.052841194 0.0017751809
0000c0 7d 4b f1 ba 03 49 67 bd 73 8e 5c bd ea 02 31 bc
       -0.0018409338 -0.056466114 -0.053846788 -0.010803917
0000d0 61 01 82 3b 0d 12 ca bc 68 38 15 3d c5 34 04 bd
       0.0039674495 -0.02466681 0.036430746 -0.032276887
0000e0 4c 72 76 bb 75 3e 13 3c a3 fa d7 3c 84 fd 38 3c
       -0.0037604747 0.008987059 0.02636463 0.011290912
0000f0 e4 79 bd bb 86 38 7b 3c ac 36 4c bb 65 a5 5e 3c
       -0.0057823528 0.0153333 -0.0031160517 0.013589238
000100 30 a0 1f bc 97 cf 86 bb 26 0f bc bb 62 15 34 3c
       -0.0097427815 -0.004114102 -0.0057391105 0.010991426
000110 de 8a 35 bc 53 6c d4 3b ca 46 7e b9 3a a3 58 3c
       -0.011080472 0.00648264 -0.00024249699 0.01322251
000120 ed d1 45 bc 0f 9f 2a 3d e8 f1 8d 03 65 f8 85 bc
       -0.012073976 0.041655596 8.342774e-37 -0.016353795
000130 a4 c2 19 33 c5 fc 1e 3b 71 a1 4d 39 95 06 da bc
       3.5800113e-08 0.002425955 0.00019610465 -0.026614467
000140 3b 24 c8 bc 6b 08 26 3d 63 44 26 3c 28 1d 17 bc
       -0.024431339 0.04053537 0.010148141 -0.00922326
000150 41 fa 2f 3d ac 1f 25 3d 49 dd 02 bd 73 60 8a 3d
       0.04296327 0.040313408 -0.031949315 0.067566775
000160 9d a9 05 bd e4 cf 2a bd f1 5f 16 3d 0a 02 32 3d
       -0.03263246 -0.041702166 0.03671259 0.043458976
000170 ec 92 26 bd 2c e5 64 bb fe 17 37 3c fb 24 8d 3a
       -0.04066746 -0.0034926636 0.011175154 0.0010768467
000180 39 a7 cf 3c 0c 66 cb bc f1 2f 6f 3c 7b e9 ab 3c
       0.025348293 -0.024828933 0.0145988325 0.020985356
000190 e3 4d c5 ad 56 47 e9 bc f1 8c 34 3d 48 90 bd bc
       -2.2430896e-11 -0.028476398 0.044079725 -0.023140088
0001a0 aa 57 93 39 b4 eb c2 b9 a5 d9 5f bd bf ec c8 3c
       0.0002810334 -0.00037178176 -0.05465092 0.024526952
0001b0 d1 11 c0 bc 5d e9 83 3c 4a 39 38 bc 7d 8f 50 3d
       -0.023445996 0.016102487 -0.0112441275 0.05091809
0001c0 84 5d 80 bd 3e 9e af bb e7 8c 34 bd e9 91 49 bd
       -0.06267837 -0.00535944 -0.044079687 -0.049211416
0001d0 d9 b5 9d ba 8a 7f ca 3c 77 45 1a 3c 08 47 12 3c
       -0.0012032344 0.024719018 0.009415976 0.008928068
0001e0 10 c8 72 3d f8 50 4d 3c 7b da 42 3d 73 73 32 3c
       0.059272826 0.0125315115 0.04757164 0.010891783
0001f0 41 29 d6 bc 49 eb eb bb 9a 4e 04 a1 bf 8b 81 3b
       -0.026142718 -0.007199679 -4.482737e-19 0.0039534266
000200 59 0c 3f bd 4b a9 e9 bb c1 25 2f 3d 38 5c 5d bd
       -0.046642635 -0.007130777 0.042760614 -0.054043025
000210 df aa 38 3c 6b 6c a4 3b 27 6c 17 bd 3c 42 ed b9
       0.011271208 0.0050178072 -0.036968376 -0.0004525351
000220 bf 1c 19 bd b7 57 36 3b 4d 24 44 bd 52 24 0c bc
       -0.03738093 0.0027823278 -0.04788618 -0.008553581
000230 cf 77 a0 bb c2 50 34 bc f4 53 16 bd 6d ef 51 3c
       -0.004897095 -0.011005582 -0.036701158 0.012813431
000240 60 70 63 3c 4f 16 9f bb bc 63 13 3d 29 6f 50 bb
       0.013881773 -0.0048549543 0.035983786 -0.0031804538
000250 52 17 c3 98 3a 34 9e 35 7c 3f bd 3c 45 1c 6d bb
       -5.0429866e-24 1.1787117e-06 0.02310156 -0.003618018
000260 2a 4a ba 3c 02 a7 42 bd be 2c 09 bc 5a 8d 02 3c
       0.022740442 -0.047522552 -0.008372484 0.007968271
000270 f2 91 25 bc c1 c1 b8 bc 1a 69 44 bb 1e a7 b0 3b
       -0.010105597 -0.022553327 -0.0029969872 0.0053910157
000280 e2 07 fd 3b 6e c5 2c 0e 88 c0 1a bc 2d a2 1e 3b
       0.007721887 2.1295696e-30 -0.009445317 0.002420555
000290 4c 1c 52 bd 75 fe d9 bc e1 a8 67 bd ac 73 d9 3c
       -0.051296517 -0.026610592 -0.05655754 0.026544414
0002a0 6a 44 31 3d 39 44 3d bd fb 00 71 3d 3e f3 21 3d
       0.043278135 -0.04620764 0.058838826 0.039538614
0002b0 8b dc 33 3d f3 95 82 3c 86 99 61 3d 66 ef bd 05
       0.043911498 0.015940642 0.055078052 1.7861416e-35
0002c0 ef c1 3b 3d 45 4e 80 3b d4 ff 6b 3c 6b b6 15 bb
       0.045839246 0.0039155805 0.014404256 -0.0022844325
0002d0 1e 36 e5 bb 7c 80 49 bc 83 0f e2 3c a0 e2 1c 3d
       -0.0069949767 -0.0122986995 0.027595287 0.038302064
0002e0 c0 78 56 85 6d 66 28 3c 2e b1 55 3d e0 7f 2c 3c
       -1.008441e-35 0.010278326 0.052170925 0.010528535
0002f0 e2 8b 13 3b c2 26 46 3d 37 09 2a 3d 75 06 2d b9
       0.0022513797 0.048376806 0.041512694 -0.00016500971
000300 07 02 24 ba 3f d2 ac 05 ee 64 f5 bb 8e 2a 4d bd
       -0.00062564056 1.6252034e-35 -0.0074888384 -0.05008941
000310 6e 99 90 3c 31 77 54 bd 4a 30 49 3d 59 e5 2a 86
       0.017651286 -0.051871482 0.049118318 -3.2141944e-35
000320 04 a8 39 3c df c1 b6 ad 2f 26 a5 3c 0a bd bb 3c
       0.011331562 -2.07771e-11 0.020159809 0.02291729
000330 0b cd 15 3d c2 6b 17 bd c2 65 1c 88 e0 19 ab 3a
       0.036572497 -0.036968 -4.706416e-34 0.0013053976
000340 d4 6e 48 b9 73 8e 03 3d c8 01 27 3b b9 4f ce 3b
       -0.00019114773 0.032118272 0.002548324 0.006296125
000350 9f 8b 12 bd a8 88 09 3d 4a 1c 1f bc 87 4b e1 3a
       -0.035777684 0.03357759 -0.0097113345 0.0017188647
000360 30 58 eb 3b c3 39 68 3c f5 51 58 3d 5a 9b 19 3a
       0.0071821436 0.014173928 0.052812535 0.0005859636
000370 56 be 0f bd ba b3 38 bd de 4b 63 3c d8 75 ec bc
       -0.035093628 -0.045093276 0.013873069 -0.028864786
000380 a3 25 6b 3d 38 52 43 3c 68 b7 56 3b 04 61 f7 3b
       0.05740894 0.011921458 0.0032763127 0.007549407
000390 3f a9 65 3d cd f0 70 bb a0 27 08 3c d7 b2 47 3c
       0.05606961 -0.0036764622 0.008310229 0.012188635
0003a0 2a 94 5a 85 72 fb fd bc 74 ef 81 bd 90 01 7c 3d
       -1.0277524e-35 -0.031003688 -0.063445 0.061524928
0003b0 db 20 9e 3b e1 43 08 bc ce 85 8e bc cd fc dd bc
       0.004825694 -0.008316965 -0.017397787 -0.027098084
0003c0 cd 94 3a 3c 08 65 1b 3c 9d d8 22 bd 10 d0 1f bc
       0.011388016 0.009484537 -0.03975736 -0.009754196
0003d0 16 ff 9e 3b c0 ec 3c 3c de b2 50 3d 11 52 f8 ba
       0.004852186 0.011531055 0.05095183 -0.0018945356
0003e0 58 3b 58 bd 14 58 04 bc 1d 02 82 bd 83 2b 3b 3c
       -0.05279097 -0.00807764 -0.06348059 0.011423948
0003f0 b4 72 96 bb a1 64 0f 3d 5e f0 f4 3c 5a 53 1a bc
       -0.0045913104 0.035008077 0.029899772 -0.009419287

net.4.bias f4 [2]
000000 17 b6 e2 3c f2 be 9d b9
       0.027674718 -0.0003008764
