data/models/heart_attack/heart_attack_50x6.pth (torch, 59457 bytes, 13 tensors)

net.0.weight f4 [50, 13]
000000 e9 be 06 be 88 36 0e 3e 46 02 9f be 43 4f ad 3d
       -0.13158764 0.1388799 -0.31056422 0.084623836
000010 cc 30 35 3e 24 e3 f4 3d 83 3d 1a be 64 1a 57 be
       0.17694396 0.11957386 -0.15062527 -0.21006161
000020 c4 4f 0c 3e 0f f0 3a 3c ae 69 e6 3d eb 02 ba 3e
       0.13702303 0.0114097735 0.112506256 0.3633035
000030 80 f5 55 bd 4e ba ef 3d 09 7d 9b 3e 6a 54 ce be
       -0.05223608 0.11705457 0.30368832 -0.40298778
000040 6b 46 2e bd 86 5d a9 bd 77 79 10 be dd b6 00 3e
       -0.042547625 -0.08269791 -0.14108835 0.12569757
000050 f2 06 e6 3b 1d c2 80 3e f2 71 61 be ca e5 68 be
       0.007019871 0.25148097 -0.22016123 -0.22743908
000060 67 c7 56 be 78 fc e1 3d eb 9c c5 3d 5e 08 b7 3c
       -0.20974503 0.11034483 0.0964907 0.022342857
000070 08 e6 75 be 1f 1b 8d be 66 3b f2 bd 39 87 ef bd
       -0.24013531 -0.27559754 -0.118277356 -0.116957135
000080 f0 1f 80 3e e0 58 08 be c1 87 8a 3e e9 a5 8d 3e
       0.25024366 -0.13315153 0.27056697 0.27665642
000090 ac 16 20 be 25 14 8f bd 49 67 08 3e d3 2a ac 3d
       -0.15633649 -0.06986264 0.1332065 0.084066056
0000a0 12 7f d3 3d c7 ff 8c 3e d8 d5 a4 bc e5 05 84 3e
       0.10326971 0.27538893 -0.0201215 0.25785747
0000b0 b0 57 74 bc b9 a5 fd 3d 86 5b 95 be 8c b9 d9 bd
       -0.014913484 0.12385125 -0.2917139 -0.106310934
0000c0 65 46 5a be bb 5e d1 bb 97 65 18 bd c8 20 9b be
       -0.21315916 -0.0063894666 -0.03720626 -0.30298448
0000d0 8a 76 1b 3e f1 56 31 3e 9e 0a 84 be 32 63 bf bd
       0.15181938 0.17318322 -0.2578935 -0.09345092
0000e0 86 22 90 be 73 e7 6a be a3 da 9f be 13 c4 0d 3e
       -0.2815134 -0.22939853 -0.31221494 0.13844328
0000f0 9c 54 2d be db 71 d1 bd ea e7 83 be f7 d9 db 3e
       -0.16926807 -0.10226794 -0.25762874 0.4293973
000100 43 48 2b 3e 29 77 92 be 67 1b d7 3d db 64 95 3d
       0.16726784 -0.28606537 0.105032735 0.07294627
000110 1b 6c e6 bd 47 22 ba 3e 29 32 d1 bd 72 61 8a 3e
       -0.11251088 0.36354277 -0.102146454 0.2702747
000120 4a 3c 0f be 9c c5 ee 3c c6 b0 4b 3e 1b 2b 61 ba
       -0.13987842 0.029146962 0.19891652 -0.0008589492
000130 9a 46 d0 3e 81 c9 53 3e c5 c1 d5 bd a3 d5 93 bd
       0.40678865 0.20682336 -0.10437349 -0.07218482
000140 02 d3 22 3c 53 29 68 bd e5 82 83 be cb 1a 6c be
       0.0099380035 -0.056680035 -0.25685802 -0.23057096
000150 36 21 a2 3c d7 98 f1 bc fd e9 d8 bd f2 f8 1d bb
       0.019791227 -0.029491825 -0.10591505 -0.0024104682
000160 b1 d6 0b 3e 0a d5 1c be df d0 a1 3e 03 dc b1 3d
       0.13656117 -0.15315643 0.31604668 0.08684542
000170 a2 f2 51 bd 56 ea a4 bd 37 11 ab bd 39 e8 6e 3d
       -0.051256783 -0.080525085 -0.08352893 0.058326934
000180 cb 94 9e 3e f5 5f 80 3e 23 87 b0 39 46 50 63 3e
       0.30972895 0.2507321 0.0003367002 0.2219859
000190 2e c8 35 3d d9 c7 8e be c5 1e 7d 3e cd d7 35 be
       0.04438036 -0.27886847 0.24718769 -0.17758103
0001a0 7e d1 73 3d 9c 40 f4 bd b4 67 e1 3d 1b 06 06 3d
       0.05952596 -0.11926386 0.11006108 0.032720666
0001b0 41 28 e8 3d 94 af ca 3d e0 bb 0f be c5 62 39 3e
       0.11335803 0.0989677 -0.14036512 0.18104084
0001c0 66 25 0b be eb 33 3f 3e 47 17 ca be 8f 5a 3e be
       -0.13588485 0.18672149 -0.39470884 -0.18589233
0001d0 6f 1e f5 bd 0e 6e 33 3d b4 3c 89 3e 17 76 20 3e
       -0.11968695 0.04380613 0.26804125 0.15670048
0001e0 71 ec 0c 3e 09 39 a7 be 8b eb 8f 3e 69 56 74 be
       0.1376207 -0.32660702 0.28109393 -0.23861088
0001f0 a4 8b ef 3c ea 10 49 3e fa 57 61 be d2 72 c2 bd
       0.02924139 0.19635358 -0.22006217 -0.094945565
000200 c6 c3 ca be 16 0f 3b be 2e b8 2e be 87 b9 a6 bd
       -0.39602488 -0.18267474 -0.17062446 -0.08140855
000210 f7 b8 86 3e 72 34 30 3e 6c 4e a3 be a3 8d 5d 3e
       0.26312992 0.17207506 -0.3189577 0.21636061
000220 a9 32 b5 be 2f 52 dc bd b5 ff fb 3d 48 66 5c be
       -0.35390213 -0.10757863 0.123046316 -0.21523392
000230 fb 1d 96 3e 08 7f bf bd ab 90 72 bd 25 d3 b0 be
       0.29319748 -0.09350401 -0.059219997 -0.3453609
000240 11 bc 45 3e 96 15 6c 3d a5 16 06 be 24 fa 22 3d
       0.19310023 0.057637773 -0.13094576 0.039789334
000250 24 a3 a2 be 7d 44 b9 3e c7 ff 92 be 7d 48 56 3e
       -0.3176509 0.36185065 -0.28710768 0.2092609
000260 58 1e d1 3c 18 a5 ca bd 09 3a 4a bd 71 3f 1e 3e
       0.025527164 -0.098947704 -0.049371753 0.15453888
000270 92 a4 40 3d 98 99 64 be 9a c2 89 be c7 4c 5b 3e
       0.047031946 -0.22324216 -0.26906282 0.21416007
000280 9e 3d 39 3e ba 9f d5 bd d7 b2 46 bc c4 0e 8f 3e
       0.18089911 -0.10430856 -0.0121276 0.27940953
000290 d2 54 00 3e e5 fd 21 be fc 93 c1 bb c6 f4 79 3e
       0.12532356 -0.1581951 -0.0059075337 0.2440978
0002a0 52 36 e9 3a f3 3e 29 be 8d ef 61 3e d9 75 63 bd
       0.0017792678 -0.1652792 0.22064038 -0.05553231
0002b0 78 dc b7 3e 0e 0f 46 3e 4b a2 05 bd 7c d0 bb be
       0.35910392 0.1934168 -0.032625478 -0.36682498
0002c0 11 e1 07 be 91 e4 6c 3d 4e 1b 56 3e cd 53 25 3d
       -0.1326945 0.057835165 0.20908853 0.04036312
0002d0 da 18 d1 3e ea a4 3e be df 43 4f 3e 3e 07 67 be
       0.40839273 -0.18617597 0.20240735 -0.22561356
0002e0 c8 9e 0f 3e 02 50 f3 3d 37 b1 dd 3d 58 67 c9 bd
       0.14025414 0.11880495 0.10824817 -0.098341644
0002f0 61 a2 57 bc 68 cb 54 3d ed 7c 59 be a3 98 30 bd
       -0.013161273 0.051951796 -0.21239062 -0.043114316
000300 21 ab c2 be 60 e6 ef 3d 15 95 b7 3d 33 7e 9b bc
       -0.38021186 0.117138624 0.08963982 -0.018981075
000310 d1 58 05 3c e6 f7 89 be 1e 3c a5 3e f2 b1 70 3e
       0.008138851 -0.26946944 0.32272428 0.23505381
000320 8b 5b 26 bd b8 f1 89 3e c3 79 8e 3d d0 0d 93 3e
       -0.040614646 0.2694223 0.06956818 0.28721476
000330 4a b2 c9 3e 29 df 1c 3d 8d c8 c0 3d d9 b1 75 be
       0.39393836 0.03829876 0.09413252 -0.23993625
000340 44 c5 79 be 87 f9 ff bd 37 80 05 be a4 7e 8c bd
       -0.24391657 -0.124987654 -0.13037191 -0.06860092
000350 0e 82 15 3d fe ff 87 bc 63 97 02 be 06 85 69 3d
       0.036500983 -0.016601559 -0.12753062 0.057011627
000360 fe 35 75 3e c3 97 a9 be 3f e5 4b be 3f 0d 83 be
       0.23946378 -0.33123598 -0.19911669 -0.25596043
000370 a5 9a 80 bd 3a 1e 91 3e 07 2f 99 bd 23 b6 4e 3e
       -0.06279496 0.28343374 -0.07479673 0.20186667
000380 ab ae 85 3c 84 95 49 3e 46 55 7a be fa f6 31 3c
       0.01631864 0.19685942 -0.24446592 0.010862106
000390 bf 8d 8f be 2f 64 a3 3e e4 75 27 3e cf b8 c9 bd
       -0.2803783 0.31912372 0.16353565 -0.098497026
0003a0 ed 20 77 be d0 8e 30 3e f1 e7 23 bd bd 79 9c be
       -0.24133654 0.17241979 -0.04001612 -0.3056163
0003b0 83 0e 97 3d 61 4f 78 3e 07 c1 c6 3d 53 85 6f be
       0.07375815 0.2424903 0.09704786 -0.23390703
0003c0 6a 41 13 3e 53 09 41 3e 8c 80 eb bc bf 1d b0 bd
       0.14380422 0.18851213 -0.02874782 -0.085994236
0003d0 e4 95 98 be 15 15 53 3e 3d 16 6e 3d d2 a0 02 3e
       -0.29801857 0.20613511 0.058126677 0.1275666
0003e0 26 be 86 be b2 49 c4 3c 82 6d 87 3e 8d 06 9a bd
       -0.26316947 0.023960922 0.26450735 -0.07520781
0003f0 44 60 4c be 46 3d 83 be be 8a 45 3e f6 4b bb 3c
       -0.19958597 -0.25632685 0.19291207 0.02286337

net.0.bias f4 [50]
000000 7b eb 36 3d 51 cb d0 3c e0 50 89 3c 71 3d 90 bb
       0.044658165 0.025487574 0.016762197 -0.0044018556
000010 77 ab 1e bc 42 75 5a 3b 81 dc f9 3c 6a d8 10 3d
       -0.009684435 0.0033334051 0.030500652 0.03536264
000020 ee 22 31 3d 25 ed 8f 3d 27 fb a4 3c ab 77 b8 3c
       0.043246202 0.070276536 0.02013929 0.022518
000030 ba f4 0f bd f0 33 d3 bc c9 09 30 3d 77 4a f3 bb
       -0.0351455 -0.025781602 0.04297808 -0.0074246484
000040 74 9e 28 ba 93 14 4f 3c 25 94 56 3c 6d 99 16 3d
       -0.0006432303 0.012639183 0.013096844 0.036767412
000050 2b 5c 90 bc c3 b7 0e 3c aa 09 b1 3b ab b8 20 bb
       -0.017622074 0.008710804 0.0054027634 -0.0024524133
000060 7b fa f8 bc 31 3d 0f bd 5e 21 a8 3c 25 f2 91 3d
       -0.030392876 -0.034970466 0.020523723 0.071262635
000070 9b 5a 29 bd 74 a5 c3 bc d3 28 0f ba 86 60 82 3d
       -0.041346174 -0.023882605 -0.00054611004 0.06366067
000080 38 29 95 3d 99 a6 0b bd 47 1a 02 3d f0 b4 40 bc
       0.072832525 -0.034094427 0.03176334 -0.011761889
000090 00 00 00 00 2f bd 7e 3b 49 3b f5 bc e0 bc 24 bd
       0.0 0.0038870086 -0.029935496 -0.040219188
0000a0 2c 36 82 3c c9 00 a2 bc cd ae 4b 3c ef 95 4d 3c
       0.015894972 -0.019775765 0.0124318125 0.012547954
0000b0 0a 58 ef bc 96 80 c4 bc 74 e4 c0 3c d6 a1 c8 ba
       -0.029216785 -0.023987096 0.023546435 -0.001530702
0000c0 1c 19 53 3c 98 46 99 3c
       0.0128844045 0.01871042

net.2.weight f4 [50, 50]
000000 5a e2 da bc b1 a9 a7 3d 85 1d 89 be 64 03 02 be
       -0.026719261 0.08186663 -0.26780334 -0.12696606
000010 2d 83 4d bd ba ac 6a 3e 8d 4f bf 3e 40 0f 8c be
       -0.050173927 0.22917452 0.3736538 -0.27355385
000020 04 7c 94 3e fe ee 3e be 88 b7 d0 bd ad 3f d5 3d
       0.29000866 -0.18645856 -0.10191256 0.10412536
000030 fa e7 da 3d 20 e2 1b 3e 8f 66 73 3d 24 75 2d 3e
       0.10688777 0.15222979 0.05942398 0.16939217
000040 6a d5 42 be 54 cf 5d 3e 63 b0 07 3b 89 05 12 be
       -0.19026724 0.2166112 0.00207045 -0.14259924
000050 71 f8 0f 3e 6e 6d 55 bd 89 e3 1e be ea 7a 0d 3e
       0.14059617 -0.052106313 -0.15516485 0.13816419
000060 a1 d2 68 3e 1a 99 98 bd 7b cb 62 bd c3 aa b0 be
       0.22736599 -0.07451077 -0.055369835 -0.3450528
000070 3b 1c fa 3d 61 b0 58 be ae 8f 09 be 6f 87 3e 3d
       0.12212416 -0.21161033 -0.13433716 0.04651588
000080 ad 49 56 3e a3 af fe 3d 26 15 b6 bd db d8 8d 3d
       0.20926543 0.12435844 -0.088907525 0.069261275
000090 00 00 00 00 71 d0 b7 3d 77 c5 58 3e 68 84 2c bd
       0.0 0.08975304 0.21169077 -0.04211846
0000a0 98 42 bb 3c dd 89 f7 3d b1 f2 ee 3c 15 b3 3c bd
       0.022858903 0.12086842 0.029168459 -0.046069223
0000b0 0b 37 aa 3e 31 8f 81 3e 96 bf 8a bd 3e e1 56 be
       0.3324512 0.2530456 -0.06774823 -0.2098436
0000c0 e9 58 5c 3e 72 58 f0 3d c3 48 70 ae ca d2 6c 23
       0.21518292 0.117356196 -5.4634307e-11 1.2838222e-17
0000d0 4c 99 27 23 66 58 a9 a7 12 75 7b 22 6a 92 8b bc
       9.08555e-18 -4.7002765e-15 3.407882e-18 -0.01703759
0000e0 d4 c3 11 bc 04 6b 01 b2 4f cb f8 bb 63 7b 92 bc
       -0.008896787 -7.533121e-09 -0.0075925956 -0.017881101
0000f0 57 a1 81 a5 49 78 34 ad af 0b 59 24 ec 9a 46 bc
       -2.248726e-16 -1.0258524e-11 4.706427e-17 -0.012121897
000100 a6 7d b1 a3 0a d9 39 bc 00 00 00 00 59 6d 9c bc
       -1.9243593e-17 -0.01134325 0.0 -0.01909511
000110 84 92 2a a4 0d 80 e1 23 35 5a 43 bc 40 db 5a bc
       -3.6986977e-17 2.444878e-17 -0.0119233625 -0.013357937
000120 0b dd df a6 7b ee 90 bc fa ce 59 a0 8b 9c a6 bc
       -1.5533647e-15 -0.017691841 -1.8449098e-19 -0.020338317
000130 62 63 a1 ac 02 1c a6 b8 07 39 2f ae 3e a9 b0 bc
       -4.586929e-12 -7.920714e-05 -3.9841044e-11 -0.021565076
000140 d5 19 9a bc 33 29 01 a4 d4 6e a0 1e ef 1f 92 bc
       -0.018811146 -2.8007313e-17 1.6986496e-20 -0.017837493
000150 af 00 98 bc f0 13 83 bc 00 00 00 00 83 c3 77 bc
       -0.018555013 -0.016000718 0.0 -0.015122297
000160 0d 9e 52 b8 91 f5 8d bc 52 1a 4b bb 57 b2 cb b4
       -5.0215098e-05 -0.01732901 -0.003099103 -3.7941456e-07
000170 50 c1 b7 bc 84 b7 24 bc 6b 5f 70 bc 49 de 73 bc
       -0.022431046 -0.010053519 -0.014671187 -0.01488454
000180 60 81 dd a2 40 3e 8d bc dc 84 7a a3 db 57 37 ba
       -6.003915e-18 -0.017241597 -1.3580661e-17 -0.00069939875
000190 0a 9c 37 3e 2d f1 0b 3e 65 96 35 3e 30 17 90 3e
       0.17930618 0.1366622 0.17733152 0.2814269
0001a0 d8 c6 1e 3e 7e 16 25 bc 4b 9b 71 3e 72 10 5e bb
       0.1550554 -0.010076163 0.23594396 -0.0033884314
0001b0 bc 8c 01 be a9 06 8d be da 78 fa bd 5f 3b 44 3e
       -0.12651342 -0.27544144 -0.12230082 0.19163273
0001c0 94 1d 81 3e 03 cb a6 bd a8 4b f1 bd 68 11 0c be
       0.2521788 -0.0814419 -0.117820084 -0.13678515
0001d0 f2 f4 46 3e 08 61 01 3d 5c ce 32 3e 5e 53 71 bc
       0.19429377 0.031586677 0.17461532 -0.014729349
0001e0 f9 da e3 3c fd 8d 48 be 76 68 ac 3e 7c 39 e1 bc
       0.027814375 -0.19585414 0.33673447 -0.027493231
0001f0 27 ed 0a bd a3 0b 97 3d d4 a4 a5 3d b0 2c 99 be
       -0.033917572 0.073752664 0.08088079 -0.29916906
000200 31 9b 94 3d fc b4 d7 3d 68 bb 0b 3e 63 ad 31 be
       0.07256163 0.10532567 0.13645709 -0.17351298
000210 d5 49 65 3e 76 e8 87 bd fe 26 e6 3c b2 41 0f be
       0.22391446 -0.06636135 0.028094765 -0.13989905
000220 00 00 00 00 d1 24 b8 bd ec 25 91 be 5f 50 5d 3e
       0.0 -0.08991397 -0.28349245 0.2161269
000230 91 4b 91 3e da 3f 53 3e 15 84 30 3d 8f 61 38 bd
       0.28377965 0.20629826 0.043094713 -0.045014914
000240 fc 05 c0 3b ba 3a 5c 3e f3 60 da be 53 bc d3 3c
       0.0058600884 0.21506777 -0.4265209 0.025846636
000250 93 cb 66 bd ec 56 ef bd b5 11 48 3e ec 36 68 bd
       -0.056346487 -0.11686501 0.19538005 -0.056693003
000260 d7 05 6e be e0 34 9a 3d 5e a2 8b 3a d5 c4 b4 bd
       -0.23244415 0.07529616 0.0010653248 -0.08826605
000270 6a 4a 74 3c bb 89 28 be 95 8c a4 3e f8 c5 9d 3d
       0.01491032 -0.1645879 0.32138506 0.07703775
000280 90 9e 68 3d b9 bc 49 3e 43 5f 84 bc 05 f5 8a be
       0.056791842 0.19700898 -0.016158706 -0.2714006
000290 8f 51 9d 3d 72 37 a4 3d dc 27 b5 3e 8d 87 78 3e
       0.07681572 0.08018388 0.35381973 0.24270459
0002a0 78 4e 16 be c4 92 e5 bc b1 03 b3 3b ed d2 17 3e
       -0.14678371 -0.028024085 0.0054630865 0.14826556
0002b0 fc 91 bd bd 2c 75 43 be 2d fe 76 bd 27 05 22 bd
       -0.0925636 -0.19087666 -0.060300995 -0.039555695
0002c0 8c 3f c8 3c 37 3e 0f 3e f0 1a 6c 3d 1b 8e ef 3c
       0.024444364 0.13988577 0.057642877 0.029242566
0002d0 8c 4b 4a 3e db b5 fc 3e 12 f4 04 3e 35 2a 90 3d
       0.19755381 0.49357495 0.1298373 0.070393
0002e0 56 81 64 be 4e cb 45 be 17 90 43 2e c1 eb bc 3d
       -0.22314963 -0.19315836 4.4465844e-11 0.09224654
0002f0 5e d8 db 3d 61 8d 05 be fc c1 d1 bd e9 bd 3d 3d
       0.10734628 -0.13042213 -0.10242078 0.04632369
000300 13 7b 07 bd d6 0b 87 bd c4 4b d6 3d 99 a7 15 3e
       -0.033076357 -0.065940544 0.1046367 0.14614715
000310 99 0c 07 3e 01 00 ad b9 90 76 4d be 6f db 7f 3e
       0.131884 -0.00032997134 -0.20064759 0.24986051
000320 51 83 16 3e 0e 22 ca 3d c0 ed 46 3e 20 44 85 bd
       0.1469853 0.09869777 0.19426632 -0.065071344
000330 51 ba fe bc a5 72 1a 3e 31 77 5d bc 97 62 04 3e
       -0.031094702 0.15082796 -0.013517187 0.12928234
000340 82 49 3b bd 4d a3 fa bd 95 7f 4a 3e a1 00 fe bd
       -0.0457244 -0.122381784 0.19775231 -0.12402464
000350 98 01 2b 3e 3b 42 0c 3e f4 4e 61 3c ca 87 8b 3d
       0.16699827 0.1369714 0.013751734 0.06813009
000360 3c 65 81 be 6b f4 98 3c 72 a3 cd 3c fe e4 5f bd
       -0.25272548 0.018671235 0.02510235 -0.054661743
000370 ec 7c f8 3d a6 dd 02 3e 3b ae 5f 3d 6b da 8a bd
       0.12133202 0.12779865 0.05460952 -0.06779941
000380 96 3b a6 3d 9a f8 fc 3d b7 5a 21 3e 52 ee b2 be
       0.08116834 0.123521045 0.15757261 -0.3494745
000390 ee 91 de bc 8c d2 8f bd a9 6f 59 be 2c c4 07 be
       -0.027169194 -0.070225805 -0.21234001 -0.13258427
0003a0 f9 ad ce 3d 55 54 61 3e cc b7 f6 bd 65 7b 40 3d
       0.100917764 0.22004826 -0.12046775 0.04699268
0003b0 66 56 5a 9f fe 7d 85 be 40 74 83 be ea 46 91 3c
       -4.6234763e-20 -0.26072687 -0.2567463 0.01773401
0003c0 7a 78 16 be 22 26 1c be ca 74 02 3e 2e 19 9b bd
       -0.14694396 -0.15248922 0.12739864 -0.07573162
0003d0 ec 76 85 3c 1b bb 89 3e 09 3a 57 bd 37 67 34 be
       0.016292058 0.26900563 -0.05254558 -0.17617498
0003e0 aa 2b 51 bd 40 18 47 3d 86 4b a0 3d a4 e8 bb bd
       -0.051067032 0.04860711 0.07826905 -0.09175232
0003f0 b3 db 4b be 7d db 64 3d 24 d9 de be d3 37 38 3e
       -0.19908027 0.055873383 -0.4352504 0.17990045

net.2.bias f4 [50]
000000 89 ca 6a bc af 43 bd bc 32 32 58 3c f3 53 41 3d
       -0.014330515 -0.023103563 0.013195561 0.0471992
000010 af 02 d6 3b da ad 49 3c e8 28 cb 3c 98 01 c8 3c
       0.0065310816 0.012309516 0.024799779 0.024414822
000020 ae 37 28 3d 43 29 67 bc fc a0 1e 3d bd 8b 20 3c
       0.041068725 -0.014108959 0.038727745 0.009798941
000030 2f 94 91 3c 36 72 2b 3d f4 f3 18 3d 54 56 0b 3d
       0.017770855 0.041856967 0.037342027 0.034017876
000040 5d 27 98 bb 24 df e8 bc 06 7e ae 3c 68 9f 23 3d
       -0.0046433643 -0.028426714 0.021300327 0.039946944
000050 a9 43 69 bc 23 6f 6d 3c b3 a6 cb 3c 14 a6 95 bc
       -0.014237323 0.014491829 0.024859762 -0.018267669
000060 4a fd a1 3c 68 57 14 3d 5a 8a f6 3b 53 6c 8a 3c
       0.019774098 0.03621617 0.007523817 0.016897356
000070 63 47 3f bc d0 09 c4 bb c1 0f ef 3b 34 86 23 bb
       -0.011674735 -0.005982615 0.007295579 -0.0024951817
000080 4e 09 84 bc cb 95 d9 bc 9e 1e 35 3c da 41 7b bc
       -0.016117718 -0.026560685 0.011054663 -0.015335524
000090 1d b1 ff 3c 68 98 ee 3c 0b 29 68 3c f6 ff 39 3d
       0.031212384 0.029125407 0.014169942 0.04541012
0000a0 e0 97 2f bc 50 9e 8d 3c 3b 88 1d bc 6d 4e 39 3b
       -0.010717362 0.017287403 -0.009614999 0.0028275505
0000b0 69 32 de 3c d2 90 11 3d ef 66 65 3c 05 37 2b 3d
       0.027123647 0.035538502 0.014001592 0.041800518
0000c0 70 a6 8f 9c d7 ed 9e ba
       -9.505969e-22 -0.0012125325

net.4.weight f4 [50, 50]
000000 0a 53 2c bd 38 c2 41 b7 e6 7e 5a be d7 93 28 be
       -0.04207138 -1.15489165e-05 -0.2133747 -0.16462646
000010 19 81 31 3e 1d 59 13 be 63 63 3e bd 79 74 1e 3e
       0.17334403 -0.14389463 -0.0464815 0.15474118
000020 32 10 67 3e 25 0c a5 bd c6 b9 3e 3e 9a 18 29 be
       0.22564772 -0.08058957 0.18625554 -0.16513291
000030 d6 d7 20 3e 6a 4f 97 3e 59 6a 19 be 92 28 ff 3d
       0.15707335 0.29552776 -0.14981975 0.1245891
000040 5c 78 b6 3d f3 8a b4 3d 37 17 c3 3d c6 6d bc bd
       0.089096755 0.08815565 0.09525912 -0.09200625
000050 0d ea 9a bc ca b8 6e be c7 ac 47 3e 10 88 47 3e
       -0.018910432 -0.23312679 0.19499503 0.19485497
000060 d4 e1 96 3d b2 8e 08 3e 1e dc d7 3d bc 51 2d 3c
       0.07367292 0.13335684 0.10540031 0.010578569
000070 3d 0e 8b b0 51 81 1e bd fd ab 4d 3d be 22 96 be
       -1.0117628e-09 -0.038697544 0.05021285 -0.2932338
000080 3c 1f 0c 3c 8b 57 7b be b3 9d 20 3e cb ce 38 3c
       0.008552369 -0.24545114 0.15685157 0.011279772
000090 4f 53 64 3d 9e 5d bf bc f1 5f 26 be 55 05 19 3e
       0.05574351 -0.02336007 -0.16247536 0.1494344
0000a0 c3 28 a4 b0 5a 84 86 3e 7f 6d 1a 3b 2f f4 0c bd
       -1.1944156e-09 0.2627285 0.00235638 -0.03441256
0000b0 8c d8 55 3e 13 84 f5 3d 46 4a 5e 3d 3f 84 63 3e
       0.20883387 0.11988082 0.05427005 0.22218417
0000c0 c0 e0 42 99 e3 85 33 bc 7d 7c 2e 3e 38 77 bc ba
       -1.0074953e-23 -0.010957214 0.17039676 -0.0014378792
0000d0 69 3d 65 be 93 29 e1 3d 24 ee ef 3d bc d8 b5 3e
       -0.22386707 0.10994258 0.117153436 0.35516918
0000e0 e8 fd b7 bb 0b 27 a0 3d 06 e1 a3 3e 65 b3 6c 3e
       -0.005614985 0.07819947 0.32007617 0.23115309
0000f0 b2 16 b8 3d 37 1d bd bd b2 e7 bd 3d 62 da cf 3e
       0.08988704 -0.09234088 0.09272708 0.405963
000100 7d c1 01 3e f0 61 2b be 81 39 f2 3c 0b f5 7d be
       0.12671466 -0.16736579 0.029568436 -0.24800508
000110 9f 6d d1 3e fa ed d4 bd ee e3 f8 bd 6d ff 72 bd
       0.40903947 -0.10396953 -0.12152849 -0.059325624
000120 ba f6 76 3e 35 97 a5 bd 8c f3 07 3d fa 78 ed 3d
       0.24117556 -0.08085481 0.03319125 0.1159534
000130 fc f6 53 3e a7 87 2a bd ab c3 78 1a 8c 3e 8f be
       0.20699686 -0.041633274 5.1443257e-23 -0.27977407
000140 64 ed be be 4c 5a 5b be 70 22 74 3d 4e bd 18 be
       -0.3729049 -0.21421164 0.059603155 -0.14915964
000150 78 df 52 be 32 5c 53 3c cc e9 b3 3d d4 02 b3 3e
       -0.20593059 0.012900399 0.087848276 0.34963095
000160 07 8a 5b be 0c 43 6a 3d 00 00 00 00 6c d6 01 3d
       -0.21439372 0.057192847 0.0 0.03169863
000170 00 e6 59 bc 12 c5 55 3b 99 56 01 3e b9 06 4d be
       -0.013299465 0.0032618684 0.1263069 -0.20022096
000180 69 4b 36 be df 6a 86 3d ab f7 94 99 06 c2 86 bc
       -0.17802204 0.06563353 -1.5402874e-23 -0.01644994
000190 7d d4 99 bd 2d c6 38 b8 47 7d c8 bc 14 24 25 be
       -0.07511232 -4.4053584e-05 -0.0244738 -0.16127044
0001a0 f0 95 83 be 5c d9 93 3e 68 2f f9 bc 5f 8e 3a 3d
       -0.2570033 0.2887677 -0.030418113 0.045545932
0001b0 53 02 f5 3d d4 71 ff 3d ac 36 bc bd a3 90 16 be
       0.11963334 0.12472883 -0.09190115 -0.14703612
0001c0 60 01 02 3d 59 f6 c9 3e cc ef 2e 3e 75 5b 3d be
       0.031739593 0.3944576 0.17083663 -0.1849192
0001d0 bb 97 96 be 32 a2 81 3e 84 fe 09 3d e1 f0 63 be
       -0.29412636 0.25319058 0.03368999 -0.22259857
0001e0 16 67 ec bd 45 4a 5c 3e c7 26 48 3e 91 d7 c0 bd
       -0.115430996 0.21512707 0.19546042 -0.09416116
0001f0 69 a8 81 3e 03 82 d9 3d 41 26 54 3d be 9b 9e 3e
       0.253238 0.10620501 0.051794294 0.30978197
000200 69 41 c5 9e ce c9 64 be ce 54 ae bc 07 c3 88 be
       -2.088524e-20 -0.22342607 -0.021280672 -0.26711294
000210 7e bb 01 be 1c e6 13 be 8a b2 46 3e c7 01 dd ba
       -0.12669179 -0.14443249 0.19404045 -0.0016861492
000220 5b ec 8d 3c 10 e7 ef bd 27 b3 00 be a0 77 5f 3e
       0.017324617 -0.117139935 -0.12568341 0.21822977
000230 00 00 00 00 f8 1d cb bc ef e1 04 bc 0a 84 c2 3c
       0.0 -0.024794564 -0.008110507 0.023744602
000240 d0 97 9d bc 1a eb f9 3d fd 3c 88 3e 63 d6 5c be
       -0.019237429 0.12203045 0.2660903 -0.21566157
000250 f0 01 74 15 ba 80 94 bd e0 f4 1d 3e 55 ef 82 23
       4.9276936e-26 -0.07251115 0.15425444 1.419599e-17
000260 34 5a bf 3d 8f 83 af bc 5c e9 41 3e fe cb 99 3e
       0.09343377 -0.021425037 0.18936676 0.30038446
000270 f5 c2 65 3e c6 d2 96 3c 90 38 81 bc a7 28 89 be
       0.22437651 0.018411051 -0.015774041 -0.26788828
000280 f5 9c 34 3c 89 e9 4c 3d dc c5 1f 3e 80 07 02 bd
       0.01102375 0.050027404 0.15602821 -0.031745434
000290 4b 05 09 3b 80 6e ea bd a9 96 9c bd df 73 9c 3e
       0.0020907696 -0.114468575 -0.07645924 0.30557153
0002a0 25 f3 87 3e 69 a4 40 be e7 f1 a0 bc 2e 89 49 3d
       0.26552692 -0.18812717 -0.019646598 0.04920309
0002b0 3f bf d1 3d bf 3d ca 3d 30 c1 83 be 56 d3 06 be
       0.102415554 0.098750584 -0.25733328 -0.13166556
0002c0 00 d6 7d be ad 4c ec 3e 25 8e 80 1f 65 67 15 3e
       -0.24788666 0.4615225 5.444527e-20 0.14590223
0002d0 75 fb 10 bd d4 15 fd 3d 46 2a f5 3c 94 1c 09 be
       -0.035396058 0.12357679 0.029927384 -0.13389808
0002e0 1d 21 d8 bd ee 46 50 3c 41 35 57 be 62 3d 02 3e
       -0.10553191 0.012712223 -0.21016409 0.12718728
0002f0 c5 9c 51 be 35 3b 55 3e 28 80 05 26 73 ed e6 bc
       -0.20469959 0.20823367 4.631733e-16 -0.028189396
000300 a3 1f ad 33 58 fe 61 3e 0a 94 46 3e 04 4b 18 be
       8.061695e-08 0.2206968 0.1939241 -0.14872366
000310 76 81 27 3b 65 cc 83 be 74 ff 29 aa 84 83 25 be
       0.0025559342 -0.25741878 -1.5098843e-13 -0.1616345
000320 fd 7f b2 3c 34 64 6b 25 48 a8 52 be 3c b2 c4 3d
       0.021789545 2.0416951e-16 -0.20572007 0.09604308
000330 b5 5f 82 be 07 d5 85 bd dd 59 96 3d 26 32 12 be
       -0.25463644 -0.06534772 0.07341359 -0.14276943
000340 19 ab da bd 44 6d d6 bc f1 bc 70 bc 82 c0 de 3d
       -0.106771655 -0.026175149 -0.014693485 0.10876562
000350 43 e9 e1 bd fd 1b 0b bd 78 3c 83 3d d7 e2 66 be
       -0.11030819 -0.03396224 0.06408018 -0.2254747
000360 52 80 df bd 0f 9e ac 3d ea cb 14 3e c1 b3 00 3d
       -0.10913147 0.08428585 0.14530912 0.031421427
000370 2e 91 a8 3d b8 49 32 3e f6 e7 5b be 99 36 af bd
       0.08230816 0.17410934 -0.21475205 -0.085553356
000380 65 be 15 3e 36 dc 0b bd dc 05 71 be 04 d8 17 3e
       0.14623411 -0.034145556 -0.23537391 0.14828497
000390 49 ca 83 11 27 08 df bc d4 16 76 3d e9 67 8f bd
       2.0792824e-28 -0.027225567 0.060080364 -0.07002241
0003a0 0d d1 e8 3d d4 d8 d2 3d 2f 0f 88 be 63 f2 37 bb
       0.11367998 0.10295263 -0.26574084 -0.0028068058
0003b0 16 00 8c 3d ce f0 68 3b 0f 3f 45 bd 97 4d 35 3e
       0.06835954 0.0035543921 -0.04815584 0.1770538
0003c0 c8 64 92 2d 04 83 05 3e 12 80 99 27 e1 e6 61 3d
       1.6643034e-11 0.1303826 4.2604885e-15 0.055151824
0003d0 47 ae a9 bd f0 2f 0f be 7e 25 91 be 90 de 85 be
       -0.08285194 -0.1398313 -0.28348917 -0.26146364
0003e0 b7 b6 b2 ab 0c ab ec bd b2 8b 5a be 00 00 00 00
       -1.2698374e-12 -0.11556062 -0.21342352 0.0
0003f0 7e 0c 5f bd 46 64 f7 3d 3b 96 17 be 76 c5 3e 3e
       -0.054455273 0.120796725 -0.14803402 0.18630013

net.4.bias f4 [50]
000000 2e 01 04 3d d7 53 38 3d 59 cc 26 3d 67 81 8f 3a
       0.032227688 0.04500183 0.040722225 0.0010948599
000010 7a ae 0c bd 4b 5e 65 bc a0 10 cc 3b 92 3a 30 3d
       -0.03434608 -0.013999532 0.006227568 0.043024607
000020 d7 46 a2 bc 6e 8a c1 bc 6a 30 60 3d 8d d4 1b 3d
       -0.01980917 -0.023625579 0.05473367 0.0380445
000030 14 c6 5b 3d 5a b5 14 3d a3 4f 24 ba 76 3c 4f 3d
       0.0536557 0.036305763 -0.00062679703 0.05059477
000040 ba 4a f8 bb 8c 4c bd bb 79 47 4a bc 76 85 65 bb
       -0.0075772675 -0.0057769474 -0.012346142 -0.0035022176
000050 c8 2e c1 bb 10 c6 44 3d ed bf 11 3d 3f b8 33 3b
       -0.0058954693 0.04804045 0.035583425 0.0027423052
000060 d7 ec f7 3c 8c e6 c6 3c 99 c4 03 bc 15 6e 20 bc
       0.030264301 0.024279855 -0.008042478 -0.009791871
000070 9d 96 1f bb de 27 ea 3c 56 2f ab bc 6a 9d 26 3c
       -0.0024351247 0.028583463 -0.020896595 0.010169366
000080 3e 41 87 3c 9a a8 39 3c bd 38 20 3d 9c 5d 27 3d
       0.016510602 0.011331702 0.03911661 0.040860757
000090 5d 70 56 3d 3b 67 80 bb 7f f0 58 3d 7f 78 08 3d
       0.05235325 -0.003918556 0.05296373 0.03331804
0000a0 a7 4a 05 3d 0e 69 bc b9 a6 bc 14 bc 42 6a d0 3c
       0.032541897 -0.00035936426 -0.00907818 0.025441293
0000b0 89 fa 18 3d 3b 23 a0 bc 55 40 cd bb 20 ef 2f bb
       0.037348304 -0.01954805 -0.0062637725 -0.002684541
0000c0 04 dd 0d 3d 00 00 00 00
       0.034634605 0.0

net.6.weight f4 [50, 50]
000000 56 f9 eb 3d 65 2d ad 3d 3d d0 0f be 34 18 b4 3d
       0.115221664 0.08455924 -0.1404428 0.08793679
000010 23 dd 52 3d c6 57 b6 bc d9 fc 53 bc 24 1e b6 3d
       0.051480424 -0.02225865 -0.012938702 0.088924676
000020 45 40 92 1b 04 9a de 3b 8b 47 c4 bd 80 19 64 be
       2.4195207e-22 0.0067932624 -0.09583958 -0.22275352
000030 58 c1 bc bd ac e5 d3 bd d6 ae 52 3e bd 0f bd 3d
       -0.09216565 -0.10346541 0.20574507 0.092315175
000040 cb 3e a7 3d 1d a7 00 3e 63 c7 30 be cc 49 82 3e
       0.08166274 0.12563749 -0.1726356 0.25446928
000050 91 b6 53 9b 44 89 50 be 11 a6 35 3e fc e0 63 3e
       -1.7512501e-22 -0.20364863 0.1773913 0.22253793
000060 43 e3 07 be e4 bc 0a be 7a d6 5e 3e ff 2f 79 bc
       -0.13270287 -0.13548619 0.21761504 -0.015209197
000070 06 29 53 3e 9e 74 a2 bc 27 4e 35 3d 58 65 16 bd
       0.20621118 -0.019830998 0.044263985 -0.036717743
000080 57 31 86 be 3f c5 c1 3e ff 0c 47 bd 80 55 2c be
       -0.26209518 0.378458 -0.04859638 -0.1682949
000090 78 14 17 3e f8 a0 a6 3e b3 97 8b bd 7a 25 34 3e
       0.14753902 0.32544684 -0.06816044 0.17592421
0000a0 d7 f4 48 be 85 ef f7 3d 3e 3e d9 3b 9e 68 82 be
       -0.19624649 0.121062316 0.0066297343 -0.25470442
0000b0 54 89 9c be 38 eb fa 3d 08 fe 67 3d ec 4c 97 3d
       -0.30573523 0.12251896 0.056638747 0.073877186
0000c0 27 8e 2e 3d 23 df a5 29 85 35 05 3e 9e 9a e5 3d
       0.042616036 7.36618e-14 0.13008697 0.112111315
0000d0 2c 45 6a 3e 3e 97 39 bd dc 68 c9 3d 20 f5 dd 3c
       0.2287795 -0.04531025 0.098344535 0.027094424
0000e0 a6 36 32 be 6a ea 5c 3e 5e 84 6a 1d 20 51 ca bb
       -0.17403659 0.21573797 3.1038074e-21 -0.0061742216
0000f0 ee f8 f8 3d 97 2f ae bc 84 60 68 bd d8 2b 3f 3e
       0.121568546 -0.021262927 -0.05673267 0.18669069
000100 ee 7c 56 3d 18 9e 00 bd 46 9f a0 be 2f bb b8 3b
       0.052365236 -0.03140077 -0.31371516 0.0056375484
000110 3e 7f d1 3a 85 32 d6 bd e4 7e de 2e d4 eb 25 3d
       0.0015983356 -0.104588546 1.01179315e-10 0.040508106
000120 37 3d ac 3d 6f ab 8e be 58 8e 89 3e 29 6a 5b 3d
       0.08410113 -0.27865168 0.26866412 0.05356804
000130 be f0 10 be 9b ff 0c 9a fb 27 22 bd ca b4 11 be
       -0.14154336 -2.9157798e-23 -0.03958891 -0.14229122
000140 7f 54 e4 3c f8 28 3f be d0 1c af bb bf b3 e5 bd
       0.027872322 -0.18667972 -0.005344011 -0.112159245
000150 9e ff f1 3d f2 39 6f bd ac 24 d6 3b a4 46 da bb
       0.11816333 -0.05840487 0.0065351333 -0.006661253
000160 1e ed ac 3e 9a 80 f0 3d 64 45 ca 3d 2e c4 18 3e
       0.33774656 0.11743279 0.098765165 0.14918587
000170 67 79 af 3d 75 fd 4e bd bd 96 e3 3c 00 00 00 00
       0.085680775 -0.050534684 0.027781839 0.0
000180 e5 a6 07 be 99 7e e3 bd f1 70 b3 bc 00 00 00 00
       -0.13247259 -0.11108131 -0.02190444 0.0
000190 db 4a 27 3b cb 18 18 3e 19 91 f1 bd 69 31 97 bd
       0.0025526795 0.14853208 -0.11795253 -0.07382471
0001a0 62 ce f9 bd bf 2f 69 3d 7f 86 fa bd 03 06 29 3e
       -0.121975675 0.0569303 -0.12232684 0.165062
0001b0 02 fe 03 ad 10 57 2c 3d ca 41 78 3c f4 dc 0e 3e
       -7.502889e-12 0.042075217 0.015152404 0.13951474
0001c0 28 c7 4a be 5e 63 a2 bd a8 d6 d0 3d cb 77 87 3e
       -0.19802535 -0.07929109 0.101971924 0.26458582
0001d0 29 70 69 be 75 9b 84 be ba 8c 00 bc 4c 37 33 3e
       -0.22796692 -0.25899854 -0.007846052 0.17501563
0001e0 00 00 00 00 e5 66 0a 3e 6c c0 52 bd ce dd bd bd
       0.0 0.13515814 -0.05145304 -0.092708215
0001f0 67 26 a1 3c 98 84 31 be b2 c6 2b be 09 ac a4 ac
       0.019671632 -0.17335737 -0.16775015 -4.68026e-12
000200 e7 e0 c9 3d 9b 27 9c bd ba 66 db bb 3f 6b 29 be
       0.0985735 -0.07624742 -0.0066955956 -0.16544817
000210 55 67 57 be 8e 4b 96 be 77 44 95 3e 2d db 9c 3e
       -0.21035512 -0.2935452 0.29153797 0.30635968
000220 99 08 39 3e f5 84 94 bd e7 72 76 3e e5 2c 9c 3d
       0.18069686 -0.07251922 0.2406727 0.076257505
000230 6c ff 9b 3e cf 7b 92 bd e3 ad 8f 3d 03 18 8f 3e
       0.3046831 -0.07152521 0.07015588 0.27948007
000240 56 7d 0c be 47 4b c5 bd 41 7c 8a 3e 02 d2 15 3e
       -0.13719687 -0.09633499 0.27047923 0.14630893
000250 1d cf bf 3d 00 00 00 00 9e 7c 8e bc 73 4c 40 be
       0.093656756 0.0 -0.017393406 -0.18779163
000260 ce b1 d2 bd aa 84 01 be 6f 10 3b 3d be 30 84 bd
       -0.1028782 -0.12648264 0.04566997 -0.06454609
000270 e5 0d 37 be 9e 49 a8 bc 5e 3a 03 18 56 de 14 be
       -0.17876394 -0.020542916 1.6960821e-24 -0.1453794
000280 3e 0f f3 bd e2 cd 58 be 33 95 6b 3e 16 da 4b 3d
       -0.118681416 -0.21172288 0.23006134 0.04976853
000290 5c 1b 30 3e 5e ce 22 3e 0b 16 79 3d 88 3e 03 be
       0.17197937 0.15899035 0.060812037 -0.12816823
0002a0 9d b6 ce 3c 85 cc 72 3e ba 67 14 0f c9 7d 95 bd
       0.025233561 0.2371083 7.3169404e-30 -0.07299382
0002b0 68 69 11 bd 49 2e 9c 3e 0b 5b 2f be 00 2a 4b 3e
       -0.035500914 0.30504063 -0.17124574 0.1984024
0002c0 7d 6d 34 3e fa 78 02 31 2f c1 41 3e 22 0a 1b 3e
       0.17619891 1.8986257e-09 0.1892135 0.15140584
0002d0 b0 16 bd 3b e3 74 45 be cc 01 8d bd a5 09 b2 3e
       0.005770527 -0.1928287 -0.06885108 0.34772983
0002e0 da 80 15 3e 23 a6 7b be 9a 4e 6b 3d ec 52 c3 bd
       0.14599934 -0.24575095 0.057448007 -0.095373005
0002f0 80 3e 06 3e 55 a7 b4 bc 50 3d 51 3d 64 6e 90 3e
       0.1310978 -0.022052446 0.051083863 0.2820922
000300 28 47 a4 bd b3 92 74 3c 2d 4d 59 3a 93 cc 5a 3d
       -0.080213845 0.014927554 0.0008289393 0.053417753
000310 28 30 02 be 71 65 43 3d 58 9b 22 be 00 00 00 00
       -0.12713683 0.047704164 -0.15879571 0.0
000320 4a 88 1c bc ff de 75 3d cc 3b b0 3c 91 71 89 bb
       -0.009553978 0.06002712 0.021512888 -0.0041944464
000330 ec 54 1b 1b eb c1 c3 12 17 3b e7 bc da 6d c0 bb
       1.2848739e-22 1.2354035e-27 -0.028226418 -0.0058724703
000340 00 00 00 00 37 37 2d a8 7b c6 1d bc d7 e6 57 bd
       0.0 -9.615402e-15 -0.009629841 -0.05271038
000350 8e 0f 50 bc 6a 9d a7 bd 00 00 00 00 f6 e3 94 bb
       -0.012699021 -0.08184321 0.0 -0.0045437766
000360 6a f3 53 bc 2f c9 8d bc 00 00 00 00 da f2 a6 bb
       -0.012936452 -0.017307846 0.0 -0.005094868
000370 00 00 00 00 6e 31 65 bc 8c fe 2c 3c d2 0d 6a bc
       0.0 -0.013988836 0.010558736 -0.014285522
000380 ae 5d 2a bc a9 98 8b 3d fc bb 4c bd 00 00 00 00
       -0.010398312 0.06816227 -0.049983963 0.0
000390 24 5e 4a bc 16 c7 8c bc 00 00 00 00 38 fa 13 bc
       -0.012351546 -0.017184775 0.0 -0.009031825
0003a0 a4 5e 31 91 62 62 43 3d 69 c5 0c 3c ae c0 8d bc
       -1.3992001e-28 0.047701247 0.008591988 -0.01730379
0003b0 6f 1c 6a bc 4d c4 88 bd 1f 3f 93 bc f2 8e 46 ad
       -0.014289006 -0.066780664 -0.017974434 -1.1286737e-11
0003c0 72 1a 9e bc f0 59 61 bc 6e 57 8d 3b 60 fc c5 ba
       -0.01929972 -0.013754353 0.004313401 -0.0015105121
0003d0 bc 20 ba bb c3 8c 97 ab 57 cb 13 ab 65 f8 3c bc
       -0.005680172 -1.0768265e-12 -5.250708e-13 -0.011533831
0003e0 65 d7 5f 3d 00 00 00 00 4d 17 e0 bb 84 d8 d6 bd
       0.054648776 0.0 -0.006838715 -0.10490516
0003f0 1b 25 a1 3d 28 77 4f 3e d6 dd 12 be 1d f1 6b 3c
       0.078684054 0.20260298 -0.14342436 0.014400748

net.6.bias f4 [50]
000000 f1 c5 96 ba f0 61 28 3d c5 10 57 3d 80 58 d1 ba
       -0.0011503083 0.041109025 0.052506227 -0.001597181
000010 a0 28 12 bc d0 31 10 3a 22 78 1b 3d 13 1d 77 bc
       -0.008920819 0.00055005867 0.037956364 -0.015082615
000020 d9 7b 0b 3d 38 59 54 3a aa db e9 3c 9a 52 98 3c
       0.034053657 0.0008100453 0.028547127 0.018594075
000030 eb d9 1b 3d af 2e 32 3d fb ca 4f bc 12 92 47 bd
       0.03804962 0.043501552 -0.012682672 -0.048723288
000040 cd 78 42 bc f9 90 89 3c 42 2c 42 3d d1 b7 7b bb
       -0.011869621 0.016792761 0.04740549 -0.0038409124
000050 46 4e 3c 3d c8 2f c8 bc 16 37 9a bc 34 b4 5f bc
       0.045973085 -0.024436846 -0.018825095 -0.013653804
000060 bb 5b 78 3d d3 4f 81 3c ef 4f d4 3b 53 49 0b 3d
       0.060634356 0.015785133 0.0064792554 0.034005474
000070 b9 ab 3e bc 58 4e f7 ba f8 e0 9d 3a 50 64 f9 3c
       -0.011637622 -0.0018867953 0.0012045195 0.03044334
000080 8f b8 24 bb 10 84 4d a4 d9 63 0e 3c ed a4 6c 3d
       -0.002513442 -4.456415e-17 0.008690798 0.057774473
000090 9a 75 fa 39 00 00 00 00 da e2 16 bc 81 ba 06 3d
       0.00047771336 0.0 -0.009209359 0.032892708
0000a0 a8 9e 53 3d 2a fe a8 3c 03 41 1c 3d 57 da 34 3d
       0.05166498 0.020629007 0.038147938 0.044153538
0000b0 9b d4 5d bc 51 0e 5f 3d 95 3b 52 bc e8 8b 6f bc
       -0.013539459 0.054457013 -0.012831588 -0.014620759
0000c0 22 59 42 bc 76 f3 87 3d
       -0.011862071 0.06638233

net.8.weight f4 [50, 50]
000000 44 7e 05 be 48 c4 29 be 7b 1c 9a 3d e8 07 36 be
       -0.13036448 -0.16578782 0.075249635 -0.17776453
000010 94 34 1c 3c 01 b8 74 3e 77 44 c4 3b 8d 7d 84 3e
       0.00953402 0.23898317 0.005989607 0.25877038
000020 86 6b 44 be 64 5c fc bd b1 0d ae bd 34 4e 15 3e
       -0.19181642 -0.123223096 -0.08498705 0.14580613
000030 2c 83 97 bd 5e 4f 1a be 6a e4 c0 3e a9 b3 03 be
       -0.07398066 -0.15069339 0.37674266 -0.12861504
000040 76 18 ac b8 39 f1 6a bd b1 0d 0c 3e 76 3c 42 3e
       -8.206155e-05 -0.057358954 0.13677098 0.18968377
000050 cf 3b 08 be 7c 6b 6b bc e7 5a 11 be 35 b3 f8 bc
       -0.13304065 -0.014368888 -0.14194833 -0.03035889
000060 d3 67 54 bd 4a 23 04 3e 8b 0c d7 3d 0d 66 58 3e
       -0.051856827 0.12904087 0.10500439 0.2113268
000070 ec 06 c4 bb 3e 28 60 3d 8b cf 33 bd d1 a6 f4 3d
       -0.0059822705 0.054725878 -0.0438991 0.1194588
000080 87 d9 01 3e 24 7f c2 20 b2 e0 13 3c 1c 5e dd 3d
       0.12680636 3.2949013e-19 0.0090257395 0.108089656
000090 b4 93 23 3e 00 00 00 00 eb 5d 97 35 9f a8 83 bd
       0.15974313 0.0 1.127771e-06 -0.06428646
0000a0 c3 08 29 be 78 5e dc 3c 75 3a 73 be 77 29 68 3e
       -0.16507249 0.026900515 -0.23752768 0.22672068
0000b0 e7 c3 e0 3d 52 9c 87 be 59 4c 15 bc 95 21 c7 bd
       0.109748654 -0.2648645 -0.009112441 -0.09723202
0000c0 2f fd 01 3c a4 68 6c 3e 08 6a 57 3e ac f5 bf bd
       0.007933899 0.23086792 0.21036541 -0.0937303
0000d0 bf d7 84 be 7f 6e b0 3d 15 e9 60 2e fb af a8 bd
       -0.2594585 0.086148255 5.113872e-11 -0.082366906
0000e0 f3 56 34 3e 79 55 94 be 80 08 1b bd d4 52 96 bc
       0.17611293 -0.2897146 -0.037849903 -0.018350042
0000f0 fb f8 bd 3d 86 45 7c 3c 4b b7 af 3d f1 80 8d bd
       0.09276005 0.015397435 0.08579882 -0.06909359
000100 ec b5 ab bd 8e f4 44 3d 60 31 99 9e 1e 10 10 be
       -0.08384308 0.048084788 -1.6219926e-20 -0.14068648
000110 46 8b 99 bd 41 cb 21 3e 88 bd b1 3c 18 b5 43 3e
       -0.074972674 0.15800191 0.02169682 0.1911205
000120 1a 11 21 3e 91 8f 69 3c b4 8b 44 bc bd e4 7e bd
       0.1572918 0.01425542 -0.011996198 -0.06222986
000130 03 3b 50 be e0 14 68 bd e1 83 63 be a9 95 27 3d
       -0.20335011 -0.056660533 -0.22218277 0.04091421
000140 84 bc 50 3d 33 42 46 3e 29 5d 8f 3c 00 00 00 00
       0.050961033 0.1936119 0.017500477 0.0
000150 6b cf 90 bd 01 d5 42 3e 8a 4d 81 bd 00 00 00 00
       -0.07070812 0.19026567 -0.063136175 0.0
000160 00 00 00 00 c5 2f 63 be 84 08 2d 3e 25 35 b9 3c
       0.0 -0.22186191 0.1689778 0.02260835
000170 2f 2c c8 be ba c3 c9 bd 00 00 00 00 71 2a e7 bd
       -0.3909621 -0.09851785 0.0 -0.11287392
000180 e2 67 1a be fa 7f 1e 35 4b 5c 13 2b c6 ca b6 bd
       -0.1507869 5.9045817e-07 5.2352973e-13 -0.08925395
000190 3a a5 2a 3e 6e 51 a2 3d f6 1d e1 bd bf f9 54 3e
       0.16664591 0.07925688 -0.10992043 0.20798396
0001a0 77 3a 0c 3d 2e 21 70 3e 10 52 9b bd c4 c6 3f 3e
       0.034235444 0.23450157 -0.075840116 0.18728167
0001b0 54 42 2b 3d ee c2 f7 bd 19 94 90 be 48 17 77 3b
       0.041811302 -0.12097727 -0.2823799 0.0037703086
0001c0 dc 95 02 3e 10 ee 47 3e 6c da 4a 3e fc 95 3a 3e
       0.1275248 0.19524407 0.19809884 0.18221277
0001d0 1b bc 88 ba 96 3b 9c 3e bc 66 f9 3d 14 52 1f 3e
       -0.0010432036 0.3051421 0.12177798 0.15558654
0001e0 ce d6 06 3e d1 94 45 be 0e b9 90 bd 42 65 05 3e
       0.13167879 -0.1929505 -0.070665464 0.13026908
0001f0 5d 92 36 be cf 6d 88 3e bb 06 a4 3e 70 09 e0 bd
       -0.1782927 0.26646277 0.32036385 -0.109393
000200 03 9c 5c 3e 69 6f 83 3c a4 ba 43 be 24 72 6c 3e
       0.21543889 0.016044335 -0.19114166 0.23090416
000210 ab a7 4b 3e f5 05 20 20 9a cd ad bc 7c 8e 3c 3e
       0.19888179 1.3554498e-19 -0.021216203 0.18413728
000220 3a fc 64 3e 4c b0 05 9b 5e 35 63 93 8f df 06 3e
       0.22361842 -1.1058467e-22 -2.867774e-27 0.13171218
000230 51 f6 02 be 8f d1 17 3e 78 93 8a be ba e4 37 be
       -0.12789275 0.14826034 -0.27065635 -0.17958346
000240 be 3f 79 bd 7e 00 e7 3d 2d 22 93 3e dc e8 5a 3b
       -0.060851805 0.11279391 0.28737012 0.0033402955
000250 d4 ac 0d ba 81 3f 17 3e a8 2f 8c 3b d7 7b 6e 3d
       -0.00054044765 0.14770319 0.004278142 0.05822357
000260 5c 6d 93 3e 25 df 2a bd 22 b5 08 bd 3a 5b 51 3e
       0.28794372 -0.041716713 -0.033375867 0.20444956
000270 7b 98 18 be f7 ad e7 bd aa f3 c7 3d 2a 5e 05 bc
       -0.14901917 -0.11312478 0.09763272 -0.008140126
000280 35 4f 8d 3e ac d0 61 be e7 66 0e be 00 68 26 3e
       0.27599493 -0.22052258 -0.13906442 0.1625061
000290 fa 47 56 be 7d d0 80 bc 1c 48 50 b9 46 9e e4 bd
       -0.20925894 -0.015724415 -0.00019863289 -0.11163001
0002a0 03 98 66 3e 05 fe 69 be 86 54 6d 3e b8 a2 11 3e
       0.22518925 -0.22850807 0.23176774 0.14222229
0002b0 7d dc 48 3e 08 dc 64 be fa 6c 51 3e d1 81 3d bd
       0.1961536 -0.2234956 0.20451728 -0.04626638
0002c0 19 de 38 3e 42 4a 04 3d ff c3 4c be 83 4b 03 3e
       0.18053474 0.03229738 -0.19996642 0.12821774
0002d0 7e 98 bf bd ea f9 0f be 42 eb 8f bd 87 c7 f8 1f
       -0.093552575 -0.14060178 -0.07027294 1.05362176e-19
0002e0 67 2e 39 3e 2a bb 88 3e a6 50 77 3e 00 00 00 00
       0.18084107 0.26705295 0.24151859 0.0
0002f0 db ff e5 29 f5 45 b9 3d aa cd 4e 3e 1e b6 59 3e
       1.0214027e-13 0.09046546 0.20195642 0.21260878
000300 47 01 e6 bc a9 53 45 3e 5a 4e c2 3c 08 fd e1 3d
       -0.028076781 0.19270195 0.023719002 0.1103459
000310 47 fa b2 3c 95 73 09 bc 00 86 d8 ba 27 08 84 3e
       0.021847857 -0.008389373 -0.0016519427 0.2578747
000320 a2 b3 27 3e 9d 1a 45 3e 9b f7 03 3e a6 12 30 3e
       0.16377118 0.19248433 0.12887423 0.17194614
000330 24 38 f1 3c 0a cd 45 3d f6 93 81 3e d4 f5 96 bd
       0.029445715 0.048291244 0.25308198 -0.07371107
000340 8b 60 d3 bd 63 be 57 be 5d 23 31 3e f3 a4 a3 3e
       -0.103211485 -0.2106872 0.17298646 0.31961784
000350 e7 3a 1c be 47 a6 34 be 30 5e 0a 3e b9 d4 b6 3d
       -0.15256844 -0.17641555 0.13512492 0.089272924
000360 cf d3 aa 3a ad fb be 3d 33 bb 28 bd 5a 30 1d bd
       0.0013033095 0.09325347 -0.041194152 -0.03837619
000370 f4 b1 60 3e 0f 2e 87 3e 1a 1f ed bc 3e 82 e0 bd
       0.21942884 0.26402327 -0.028945494 -0.10962342
000380 8c 50 83 bc a7 e2 90 3e 9a 68 5b 3d 30 46 cf bd
       -0.016029619 0.28297922 0.053566553 -0.10120809
000390 b8 07 01 bd 43 e6 95 3e 86 68 75 3d ef 6f 6a 3e
       -0.0315015 0.29277238 0.059914134 0.22894262
0003a0 f6 16 cb bb f1 79 95 a0 7d 2a 45 3e 6a 74 12 bd
       -0.0061978055 -2.5322276e-19 0.19254489 -0.035755552
0003b0 21 81 19 be 15 98 06 1f 0b 01 27 33 03 ad 52 be
       -0.14990665 2.8501403e-20 3.8883666e-08 -0.20573811
0003c0 29 05 34 3e e7 0e 63 3e 27 b3 6b be cb 79 4f 3e
       0.17580093 0.22173654 -0.2301756 0.20261304
0003d0 5f ad 84 bd cf f4 0a be 5e 98 be 3d c0 a3 59 be
       -0.064783804 -0.1356995 0.093064055 -0.21253872
0003e0 f5 84 aa 3b f6 95 19 3e e0 0f 2e be fb c9 af 3c
       0.005203838 0.14998612 -0.16998243 0.021458616
0003f0 18 b3 65 3e 24 5d 55 3e 88 0d f4 b9 44 18 9f be
       0.224316 0.20836312 -0.00046549388 -0.310732

net.8.bias f4 [50]
000000 0d 15 e6 3c b0 56 23 bd 66 da d6 3a d0 bf bc 3d
       0.02808621 -0.039877594 0.0016391992 0.09216273
000010 19 de 69 3d 6c 28 32 3d d6 77 59 bc fc 68 77 3d
       0.057096574 0.04349558 -0.0132732 0.060402855
000020 69 e2 4a 3d 53 97 70 bb f3 6b 57 3d da 28 25 b9
       0.049532328 -0.003671129 0.052593183 -0.00015750845
000030 80 7f 34 3d 00 00 00 00 69 92 49 a2 f1 4f 3d 3d
       0.044066906 0.0 -2.7318088e-18 0.046218816
000040 c1 74 49 bc 00 00 00 00 30 53 e4 bb e5 6d 39 3d
       -0.012295903 0.0 -0.0069679245 0.04527082
000050 21 d2 9a bb 13 14 52 3d f0 77 9c 3c e3 7a 8b 3c
       -0.0047247563 0.051288676 0.01910016 0.01702637
000060 5d 03 41 3b 3d f8 30 3b be a3 a1 3d 04 67 02 3d
       0.0029451468 0.002700343 0.078925595 0.031836525
000070 cb 94 9a 3b f6 ce 12 3d 58 10 36 3d 13 af 62 bb
       0.0047174445 0.035841905 0.04444918 -0.0034589216
000080 00 00 00 00 54 6c 9b bc d7 ad 29 3c 62 5d 48 3d
       0.0 -0.018972553 0.010356388 0.04891718
000090 b4 77 bb 3d d5 88 4a 3d ed ff 27 b9 4e e7 8e 3d
       0.09153691 0.0494469 -0.00016021701 0.069777116
0000a0 c4 b4 ae 3c c1 bc 9b 3c 58 3f 0a bc f8 60 c2 3a
       0.02132643 0.019010903 -0.008437954 0.0014829924
0000b0 03 ec 58 3d 56 2b 67 bb 4e eb 37 bc 8c ff a0 3b
       0.052959453 -0.0035273633 -0.011225535 0.004913276
0000c0 7b 2b c9 3c 7b 86 15 3c
       0.024556866 0.009126301

net.10.weight f4 [50, 50]
000000 1c 30 6f bd 8c aa 78 be 99 25 81 3e d1 ea 9b 3d
       -0.05839549 -0.24283808 0.25223997 0.07613147
000010 0f 9d 62 bd bb 63 9f 3e 12 08 0b 3e db 33 57 3e
       -0.055325564 0.31130776 0.13577297 0.21015875
000020 a1 59 5c 3d 22 da 70 be 4b 6b 98 3e 3f db 80 1b
       0.053796414 -0.23520711 0.29769358 2.1317508e-22
000030 1b cc e7 bd 00 00 00 00 42 a0 c5 20 0d 64 4d 3e
       -0.11318227 0.0 3.3479148e-19 0.20057698
000040 59 e0 22 3d 3d f4 aa 2c 89 09 34 9b 48 98 4c 3d
       0.039764736 4.8588065e-12 -1.4892332e-22 0.049949914
000050 55 d8 91 3d 7e de 4c 3e b4 1d 5a 3d 4d 4c 22 bc
       0.0712134 0.20006749 0.053250983 -0.009905887
000060 0b ef ac bd ee 68 a4 3d db 94 10 3d 7a a2 65 3d
       -0.08444031 0.08027826 0.03529821 0.056063153
000070 45 0e 75 be 94 d8 81 3d bb 7a 14 3e 55 1a dc ba
       -0.23931225 0.06340137 0.14499943 -0.0016792516
000080 af f0 ab 95 88 89 85 3d 80 f9 bb 3c a2 88 97 3e
       -6.944608e-26 0.06520373 0.02294612 0.2959643
000090 36 4b 76 3d 95 bd 08 3e d2 46 8f be 9e 71 31 3e
       0.06013032 0.1335357 -0.2798372 0.17328498
0000a0 51 5a 6a 3e d5 45 3a be 31 d3 77 3c d3 df ad bc
       0.22886015 -0.18190701 0.015126036 -0.021224892
0000b0 c8 09 1e 3e 54 b9 9b bc e7 49 4d 3d 5a f4 94 3d
       0.15433419 -0.01900927 0.050119307 0.07273169
0000c0 4c 7d 32 be 56 c9 5a be 73 d2 5b 3e 78 62 95 3e
       -0.1743061 -0.21365866 0.21466999 0.29176688
0000d0 53 d7 63 3e 70 fe 84 3e 17 1f 8c 3e 74 19 be bd
       0.22250108 0.2597537 0.2736747 -0.092821985
0000e0 c7 38 83 3c a3 49 4a bd b8 ea 24 be 57 89 e8 bb
       0.016018284 -0.04938663 -0.16105163 -0.0070964503
0000f0 ef ec 0f 3e 00 00 00 00 c0 e1 04 be ea b1 e0 aa
       0.14055227 0.0 -0.12976742 -3.9913846e-13
000100 92 73 fd 28 3b 40 45 be 77 c8 86 3e 00 00 00 00
       2.8138763e-14 -0.19262783 0.26324818 0.0
000110 36 63 85 b9 6f c9 8d be 66 f2 1b 3e e8 ca 65 bc
       -0.00025441655 -0.27692744 0.15229186 -0.014025427
000120 46 5b 9e 3e d3 01 99 3e f6 ed 8b 3d 32 0d 8d 3d
       0.3092901 0.29884204 0.06832497 0.068872824
000130 25 7f a7 bd a3 50 7a be 68 1c 7d 3e 48 8e 9a 3e
       -0.08178548 -0.24444823 0.24717867 0.30186677
000140 d4 b7 2d 3e f7 8c f4 3d 00 00 00 00 ca fd 33 3e
       0.16964656 0.119409494 0.0 0.17577282
000150 72 94 7b 3c ee 5c 01 3e 5d 40 00 be dc 6e 69 be
       0.015355216 0.12633106 -0.12524553 -0.22796196
000160 c2 c8 6e bd 01 d5 af 3d e0 7e 10 bd 3c 27 89 3d
       -0.058296926 0.08585549 -0.035277247 0.066969365
000170 78 2a f8 ba 77 89 4f 3d 2c 5b f4 bc ae 8d b8 3d
       -0.0018933555 0.050668206 -0.02982863 0.09011398
000180 fb 56 15 3c e4 33 99 3a 85 93 78 3e ff cd 50 3e
       0.009114976 0.0011688438 0.24275024 0.20391081
000190 b8 c9 95 3e 6b 34 8b 3d 1b 4e 00 be 02 9b 7c 3e
       0.29255462 0.06797107 -0.12529795 0.24668506
0001a0 9a 34 d2 3d cd c0 f3 3d 9d c7 1f be d3 8d 36 bd
       0.10263939 0.11902008 -0.1560349 -0.044568848
0001b0 0e c3 bb 3d a0 8e 42 3e a7 44 4a bd 98 6d 27 10
       0.09168063 0.1899972 -0.04938188 3.301937e-29
0001c0 71 60 81 be 08 30 db 8f 6a f6 84 2e 8b e7 ee 3d
       -0.2526889 -2.1613568e-29 6.046437e-11 0.11665257
0001d0 79 85 50 3e d2 b3 04 90 6d 66 88 b8 3a d7 b4 3d
       0.20363416 -2.6170938e-29 -6.504064e-05 0.08830114
0001e0 b4 21 a9 3c ac 4d 4a be 97 cf 0b 3d 3d 84 25 bd
       0.020645954 -0.19756192 0.03413352 -0.040409315
0001f0 59 14 87 3e ed e4 54 be f7 9a 9f bd 5d 55 af bd
       0.26382712 -0.20790453 -0.07793229 -0.08561204
000200 9c 07 a8 3e 7a c6 82 3c 94 1b ec 3c 65 5d e1 bd
       0.32818305 0.015963782 0.028821744 -0.11004142
000210 00 00 00 00 7b 45 42 bc 14 26 5d 3d fb 45 8b be
       0.0 -0.011857386 0.053991392 -0.27201828
000220 1c b5 83 3e b2 8e b0 bd 86 da 78 3e 57 e0 89 be
       0.25724113 -0.08620967 0.2430211 -0.2692897
000230 97 45 81 bd 03 ee f9 3c 57 22 dc bb af 69 17 be
       -0.06312101 0.030509 -0.006717961 -0.14786409
000240 3b a3 85 3d e3 0c 87 bd 01 d6 69 bd 85 30 5b 3e
       0.06525274 -0.06594255 -0.057088856 0.21405227
000250 93 a2 4c 3e 8f 82 42 3e bb 3f f9 bd 61 b9 1a be
       0.19983892 0.18995117 -0.12170359 -0.15109779
000260 54 82 67 be cc 8b 68 3e eb 6f da bd 1b 17 6c 3e
       -0.2260831 0.22709578 -0.10665878 0.23055689
000270 8c 67 eb bd a1 91 8e 3e 8e d7 be bd b1 65 9d bd
       -0.114943594 0.2784548 -0.093184575 -0.07685412
000280 ee fa ac 3d 1a 0e a3 90 20 55 ca 3d 29 b5 8c 98
       0.084462985 -6.431389e-29 0.098795176 -3.6372077e-24
000290 bd 69 01 a1 84 2f cf 3d 57 04 27 3d 00 00 00 00
       -4.3846844e-19 0.10116485 0.040775623 0.0
0002a0 00 00 00 00 46 f5 2d bd 11 4b f9 bd 10 9a 57 3e
       0.0 -0.04247024 -0.12172521 0.21054864
0002b0 f5 32 30 be b9 72 e1 3d b4 04 f1 bd eb 0f 2f 3e
       -0.17206939 0.1100821 -0.11768475 0.17095916
0002c0 6d 05 78 3e c8 70 84 3d e9 c1 63 be c3 72 f9 bd
       0.2422082 0.06466824 -0.2224194 -0.12180092
0002d0 87 91 f8 3d dc 27 67 bd 28 2f a5 1e 16 4c 9a 3d
       0.12137132 -0.056434497 1.7489558e-20 0.075340435
0002e0 5c cd 33 3e 02 5a 3b 3e b2 62 33 3d db 97 16 3e
       0.17558807 0.18296054 0.043795295 0.14706366
0002f0 fb f7 13 be 99 1b 84 3e 57 b6 c6 3d ab 42 cd bd
       -0.14450066 0.25802305 0.09702747 -0.100224815
000300 cc 85 8d 3c 0e 36 2d 3d d7 af 25 3d 85 89 a3 8f
       0.017275713 0.04228788 0.040450897 -1.6126012e-29
000310 60 53 49 3c b7 fd 05 3c 8e c4 64 3e d4 ef 32 3e
       0.012287945 0.008178166 0.22340605 0.174743
000320 9d f9 95 3d 23 37 49 bc 38 6f 5e 3e 51 c5 40 be
       0.073230006 -0.012281212 0.21722114 -0.1882527
000330 b8 47 da 3d 00 00 00 00 ae f6 09 2a 00 00 00 00
       0.106582105 0.0 1.2253629e-13 0.0
000340 e1 d6 3b be 81 c4 b1 bd a7 69 77 3c e1 97 bd ad
       -0.18343689 -0.08680058 0.015100873 -2.155426e-11
000350 76 1c 2c be 00 00 00 00 00 00 00 00 79 e1 5e be
       -0.16807732 0.0 0.0 -0.21765698
000360 65 18 c5 3d b2 b9 18 ab 8c 49 19 ad 1a 89 8c 3c
       0.096237935 -5.425895e-13 -8.713374e-12 0.017155219
000370 15 67 2a be 58 66 09 be fb 2c 3e be 87 1f 84 be
       -0.16640885 -0.13417947 -0.18571846 -0.25805303
000380 2f b3 5c 3e 3f 07 1a be 6b 3a 72 bd 45 bc db 3d
       0.21552728 -0.15041827 -0.059137743 0.10729269
000390 69 44 3b be 39 6d a9 3c 00 00 00 00 af 7c 94 bc
       -0.18287815 0.020681964 0.0 -0.01812586
0003a0 00 00 00 00 00 00 00 00 9c d2 21 98 30 df 91 bd
       0.0 0.0 -2.0915093e-24 -0.07122648
0003b0 f9 60 77 be 00 00 00 00 7b 36 45 3e 93 a5 d4 bc
       -0.24158086 0.0 0.19259064 -0.025957858
0003c0 52 4a 2f 3e ca 73 9b bc cb 06 08 2a 00 00 00 00
       0.17118195 -0.018976111 1.2081583e-13 0.0
0003d0 9b 2d 34 bd 0d f8 0e 3e 67 bc 6a 20 d4 c8 78 bd
       -0.043988805 0.13961811 1.9882908e-19 -0.0607384
0003e0 c5 64 70 3c 08 9c 6f be 90 92 f9 bc 33 47 05 3d
       0.014672463 -0.23399365 -0.030465394 0.032538604
0003f0 9e ba ff 3d 82 6a 3e be 34 18 29 3e c6 e7 12 bc
       0.12486766 -0.18595317 0.16513139 -0.008966392
