data/models/mnist/mnist_50x3.pth (torch, 183095 bytes, 8 tensors)

net.0.weight f4 [50, 784]
00000000: eea2 0c3d 571e 06bd de2b aebc 8b25 043d
00000010: 3516 9f3c 1a7f b83c 9371 20bc 8a12 dabb
00000020: 3c8e 933c 7ee2 efbc 932c 2b3c ce06 5fbc
00000030: 97ac 08bd 3d6c 83bc e4c0 413d c35c f23c
00000040: eed7 0bbd 3ec4 c0bc cb5d 0c3d 9331 36bc
00000050: 0e78 cbbc dcfe 25bb ca77 103d c3c6 debc
00000060: 13bb ee3b 0582 24bc 5c51 393b 8eaf 2fbc
00000070: ca67 5c3b 539e 323c 93b3 d3bb 60fa 863c
00000080: ceeb 35bd 9be0 7abd 580f 37be af2f 4bbe
00000090: 1a90 43be 1dca 66be 77e5 eabd 37c1 983c
000000a0: 5676 9abe 4daf 3dbe b2a3 c43d 029d 12be
000000b0: 92ef a43e b608 6e3e a3b2 90bd 08d3 87be
000000c0: fe61 a3be eb3c 8fbe 7675 1abe 6f67 80bd
000000d0: 5c08 663c 274a c13c 5a14 bf3c ce55 41bc
000000e0: dc17 30bb caac b73b 5979 f4bd ef64 9fbe
000000f0: 2465 a4be db9a 8fbd 559f 4cbe 99a3 50be
00000100: fdeb bbbd c677 8b3e 197f 063e 6e05 f83d
00000110: f2f0 813e 478d 0d3e af69 983e 23c4 083e
00000120: 880a 6a3d 12c9 193e 58b1 e13d f2a8 3bbe
00000130: 83fa 8fbb e2d0 173e 6f50 463d 25b3 09bd
00000140: b237 833e c2c0 ad3d eee0 91bb 93a2 013b
00000150: 8c57 0e3d 680f dd3c a20b c8bd de33 edbe
00000160: 3440 d5be daaa e63c 2044 b63d 6839 b93d
00000170: b8c9 d1bd 08c7 05bb 5e2b 9c3d d1dc 873e
00000180: 293c a23d 8446 fb3d d441 373e b298 083e
00000190: 5187 403e 0b7e f63d 108f 60bd af41 34be
000001a0: 59e8 12be 9295 373d 93dd 86bd 6028 51bb
000001b0: 3fcd 97be b24a 7ebd 57b5 8fbd 972d 92bc
000001c0: 2176 4d3c c4b5 d0bc 3d7f 863d 9787 e6be
000001d0: cfa8 b1be 6aab 373d 0d2b 1d3e fbc0 ab3d
000001e0: 7968 5b3e 6296 ca3d 11ab 203e 041f 1b3e
000001f0: 9047 f93d 5aac 243e 6304 5c3e 2b45 ce3d
00000200: f29c c33d a94f 84bc bcaa 1e3c 8c91 a7bd
00000210: f576 9cbc 89cb c6bd 3127 2ebe ac63 aabe
00000220: 297e 12bd 478e 013e c102 5dbe 91d8 2abe
00000230: 8114 bfbc 97ce c2bc b417 4bbe 372e 4ebe
00000240: 4b29 7fbd 4818 93be c87d 3b3a a9c1 d33d
00000250: 63c9 50bd f50a 03be fd11 803c dcb9 e93d
00000260: 6b06 2b3e de16 483d f371 373d cb59 383d
00000270: 1435 a83d 3ea6 5e3d fecf e13c 5e8b 1b3e
00000280: bd7a 813d af41 ae3c c92c 11bd f062 05be
00000290: 5c72 6c3d 8c58 ae3e eac3 f63b 6097 84be
000002a0: 6f3e 053d cf02 0d3e 9e6e 4cbe d3bd 51bd
000002b0: d905 00be fc46 57be 8437 b73c 0bda 86bd
000002c0: f51e 18be e5c3 c73c 3899 46bb 9975 5ebc
000002d0: 28a3 abbc 8536 b9bc 4de0 b93c 3818 013d
000002e0: d828 113d 699e ff3c 9dd8 813d 4123 113d
000002f0: 4774 d33c 55af 4bbd d1f6 393d 9e9e 043c
00000300: afc7 a7be a9b6 cb3c c5a2 813c a85d 2e3e
00000310: 3f60 023c 28e5 983e 33ab 82bd a6af cc3a
00000320: eb20 6b3e 5650 213c ab46 1b3d 83d6 17be
00000330: 906a e1bb 45e4 1b3c 1b72 21bd 1fe1 1a3c
00000340: 73ac 38bb 6875 913c 8892 29bd 2b13 0f3d
00000350: 7369 b4bd dfca 353d 260e cd3d bf1e 953c
00000360: f54b 833c b1de a63c faa3 b63d 7e3c 82bd
00000370: 6af1 223d 0aae 7cbd cfba 623d b4f6 05bc
00000380: 5088 ac3e 2dce ccbd 1eaa a33d 36a5 243e
00000390: 671f 043e 1980 a8bd 18ae 0b3d f421 2a3c
000003a0: 3b16 42bd 8d23 67bb 016f 133d a7f2 1c3d
000003b0: cce0 75bd 4e78 37bb e256 1fbb 8eef a03b
000003c0: 32bf b7bb a702 ac3d 37e5 fb3d fa8f 8e3d
000003d0: 1f5e a33d 6ca1 bebc 15ca 203d 644f a0bd
000003e0: 994b 35be e155 7a3d 27f2 f73d ccf0 bdbd
000003f0: 29ff 973c d17b d7be 98bf fe3d c7eb 913e
0.03433507 -0.032743778 -0.021261152 0.032262366 0.019419769 0.022521544 -0.009792703 -0.006655042
0.018012159 -0.029282805 0.010447639 -0.013612462 -0.03336772 -0.016042823 0.047303095 0.029585248
-0.034141473 -0.023531076 0.034269135 -0.011120218 -0.02483752 -0.002532891 0.03527049 -0.027194386
0.0072854846 -0.010040765 0.0028277254 -0.010723008 0.00336312 0.010902005 -0.006460616 0.01647681
-0.044414334 -0.061249357 -0.17876947 -0.19842409 -0.19097939 -0.22538038 -0.11469548 0.01864682
-0.30168408 -0.18523903 0.09601535 -0.14317706 0.32214028 0.2324551 -0.07065322 -0.26528192
-0.319107 -0.27976164 -0.1508387 -0.062697284 0.014040079 0.023594929 0.023325134 -0.011800243
-0.002686969 0.005605315 -0.11937208 -0.31131694 -0.32108414 -0.07011958 -0.19982655 -0.20374908
-0.091758706 0.27239817 0.13134421 0.12110411 0.2537914 0.13823424 0.2976813 0.1335607
0.05713895 0.15018108 0.11020154 -0.18326166 -0.004393877 0.14825776 0.04841655 -0.03361811
0.2562843 0.08484031 -0.0044518625 0.001978074 0.03475146 0.026984885 -0.09767844 -0.46328634
-0.41650546 0.02815764 0.088997126 0.090441525 -0.10243553 -0.0020412821 0.07625459 0.26535657
0.07921631 0.12269309 0.17896205 0.13339499 0.18801619 0.120357595 -0.054823935 -0.17603181
-0.14346446 0.044820376 -0.06585231 -0.0031914935 -0.29648778 -0.062082954 -0.0701701 -0.017844005
0.012540371 -0.025477298 0.065672375 -0.45025322 -0.34699103 0.044841208 0.15348454 0.083864175
0.21426572 0.098919645 0.15690257 0.1514855 0.121718526 0.16081372 0.21486048 0.100717865
0.09551419 -0.016151266 0.009684261 -0.08182058 -0.019099692 -0.0970679 -0.17007138 -0.3327917
-0.035764847 0.12651931 -0.21583082 -0.16684176 -0.023325207 -0.02378015 -0.19833261 -0.20134817
-0.06229524 -0.28729463 0.0007152227 0.10339672 -0.050973307 -0.12797149 0.015633577 0.11412403
0.16701667 0.048849933 0.044786405 0.04500751 0.08213249 0.05435776 0.027564999 0.15189883
0.063222386 0.021271555 -0.0354431 -0.13026023 0.05772625 0.3405193 0.007530679 -0.2589674
0.032530244 0.13770603 -0.19964072 -0.05120642 -0.1250223 -0.21023172 0.02236534 -0.06584557
-0.14855559 0.024385402 -0.0030303728 -0.013577842 -0.020951822 -0.022609005 0.022689963 0.031517237
0.035439342 0.031203466 0.06340144 0.03543401 0.025812281 -0.049727757 0.045401398 0.008094458
-0.32769534 0.024867373 0.015824685 0.17027915 0.007957517 0.29862332 -0.0638031 0.0015616312
0.22961776 0.009845814 0.03790919 -0.14827923 -0.0068791583 0.009514873 -0.03941546 0.009453087
-0.002817896 0.017756179 -0.04139951 0.03493039 -0.08809175 0.044382926 0.10012464 0.018203137
0.01602743 0.02036986 0.08917995 -0.06359194 0.03978101 -0.061689414 0.055353936 -0.008176494
0.33697748 -0.100002624 0.07991432 0.16078648 0.12902604 -0.08227558 0.034101576 0.010384072
-0.047384482 -0.0035268993 0.035994533 0.03831735 -0.060028836 -0.0027995291 -0.002431326 0.0049113696
-0.005607509 0.083989434 0.12299579 0.06961055 0.079769365 -0.023270331 0.03925522 -0.078276426
-0.1770462 0.061117057 0.12106734 -0.09274444 0.018554287 -0.42086652 0.12438887 0.28500196

net.0.bias f4 [50]
00000000: 5ac1 11ba f701 48be 0963 e13d fdbb 7ebd
00000010: 9161 703e 6e72 b13d 15a4 5c3e 3b29 793d
00000020: f039 fb3d 58fb d6bc aaa8 133e f41c a0bd
00000030: 56ca 97b9 b758 64bd 5f8b a83d d5d1 083e
00000040: 1c5e 9e3d d1ed 0c3e 76df 2c3a 04a4 4bbe
00000050: 06d8 28bc b0e1 16bd 12ec fd3b c9cd c13d
00000060: 803f 853d ad89 473d 4891 e33d 4277 ab3d
00000070: 4919 d03d 4e1e 933d 10e6 003e baf6 123d
00000080: a2a9 3f3e edd3 873d 2f91 f93c 3339 433d
00000090: 7019 333e dc02 6cbb 15b5 5a3e 6d2d d2bd
000000a0: 4c73 cebc cfae aabd d552 2abd 7166 2bbd
000000b0: 65ef 103e b2cb 57bd cbda 533d c7fa f93d
000000c0: 7dbd 21bc d901 f63c
-0.00055601227 -0.19532 0.110052176 -0.062191 0.23474719 0.08664404 0.21546967 0.060830336
0.1226691 -0.026242897 0.14419809 -0.07818022 -0.00028951716 -0.055748668 0.08229708 0.13361295
0.07732794 0.13762595 0.00065945776 -0.19886786 -0.01030541 -0.036836326 0.007749089 0.094630785
0.06506252 0.048715282 0.111116946 0.08372356 0.10161073 0.071835145 0.12587762 0.035879828
0.18717054 0.066322185 0.030464737 0.04766197 0.17490172 -0.0036012447 0.2135814 -0.102625705
-0.025201462 -0.08334123 -0.0415829 -0.041845743 0.14153822 -0.052684493 0.05172233 0.12206035
-0.009871838 0.030030178

net.2.weight f4 [50, 50]
00000000: fd34 3b3e dce2 cfbd a0be bb3d d919 20be
00000010: 5469 ae3d 79a8 223e 6a34 c9bd 5a17 9e3c
00000020: 7e06 59be ff8b 6d3e a36c ab3c 27ca e9bc
00000030: 0798 f13c 52ee 75bd d276 863e 34c7 8e3d
00000040: a615 bc3d 123f b73d ff56 873e dce5 1c3e
00000050: bf7c 02be e470 40be 833d 94bd 7938 bd3d
00000060: cb8b 63bd a897 c3be 702a 59bd 02b7 823e
00000070: 986f f43d 938b 513d 6473 ae3d be91 863e
00000080: bb59 913e 0e19 d6be 3678 2dbd 0ee8 76bc
00000090: e347 e0bb 9f63 febd 9e18 7a3e 8267 71be
000000a0: 0066 ff3c 6dc3 aebe e258 0cbe 32e3 1bbe
000000b0: 28c8 96bd 765f 413d a7e7 253d 432b b73d
000000c0: d278 363c 1e49 2d3e f171 133d d690 393e
000000d0: 5ff8 58be 64dc 03bd 380a 363e 33de 593e
000000e0: 1b4a 27be 1e0a 9fbd d799 be3e 7fe6 ef3d
000000f0: 7ed3 173e b3b1 92be 5aef 3ebb 8c41 8d3d
00000100: 49d9 74bd 4875 81bc 1740 5d3e dc4a 01bd
00000110: f66d 473e 5a3c 62be 72be 7dbe f7c3 8dbd
00000120: 2975 90be 7bb5 62be e9c5 f53d a931 6bbe
00000130: 8e92 843e 90e9 1ebe cdaf 92bd bed6 83bd
00000140: f4ae 633e ef78 d7bb 75b6 29bc 34ef 753e
00000150: 845a 2d3c 2bbd 893d f39b f5bd 2ec6 a83d
00000160: ec21 d5bd 557f 2ebc 438f fc3c 4992 113e
00000170: 8bd1 b13e e00f e93d 51d0 69bd 3cb0 8e3d
00000180: ee0a c73c 8fb2 f3bd 5795 743e 2efe 413b
00000190: 880d 883e 5069 c7be 8dd3 673d 8965 64be
000001a0: 19cd b93d be81 25be b8fa 1b3d 7169 153d
000001b0: d163 abbe 7a1d f13e 02a1 5c3e a061 b8bd
000001c0: b39e ab3d 8cc5 643d 3255 473e 9456 913d
000001d0: cf29 373d ac99 253d 77ab d9bd 11cf 4abe
000001e0: ebe0 033f 7622 86bd 73da 873e df97 8a3d
000001f0: 9be7 82bd 0f95 993d 6fcd 4e3d 9ce7 273e
00000200: 3417 263d 20cd 1dbe e783 efbc 6e68 c53d
00000210: 590c a33d a2bc 4bbe 0d9e afbd b2c8 9fbd
00000220: 2530 cf3d 02b3 55be 2de4 333e 1270 51be
00000230: c9d2 e43d 2f96 fcbe 385a fcbe ee14 d63c
00000240: 4c09 8cbc 931d a33d f632 9abe 68d9 713e
00000250: da85 f4be d589 aebe 3e61 febc a25a e5bd
00000260: 9934 d0bd 7f11 15be 168d c23c 27d0 08be
00000270: b35a b43c 007d 08be b7fc d13d 9f1a b3bd
00000280: 1530 21be 6e54 2e3d 6913 4fbc d2a2 843d
00000290: 36bc 2cbc c36d 873d 09d2 67bc e48c c63d
000002a0: 3583 c83d c1eb bdbd b2b1 893d 4160 0fbc
000002b0: 62e4 9bbd f604 dd3d 9c7a 1dbe cc07 363d
000002c0: 8d91 97bd a353 bbbd 4819 bcbd 0530 bdbd
000002d0: f6ea 093c 9765 e8bd 8c37 143d 999a cfbd
000002e0: a498 dcbd 383c f4bc 6634 c5bd bd59 353c
000002f0: 3fcc 233c 8c61 93bd dc86 7dbb 387e ddbc
00000300: 4697 c4bd 0e2f a2bd d219 85bc 8713 18be
00000310: c8e3 883d 9f1e 0cbe 0a83 d7bd b4f3 b13d
00000320: cec2 d73d 3343 16bc dd15 dfbc 782b 99be
00000330: fe8b c2be 4eba 1a3e 9909 9f3d e6bd 8c3e
00000340: 35ef 21be f257 383e b427 69be b7a7 79bd
00000350: ea36 a83e 5c22 ef3d e6fb 4dbd e17e a6bd
00000360: 14f1 87bc f31a c0bd d25e 803e 2136 553e
00000370: 4c05 b4be c00d 6cbe 7548 06bf e714 a03d
00000380: c1ac b53d ce34 1abf 7c00 8fbe c99a 233d
00000390: a1f5 923e daff d3bd 6b45 d4bd 4bb9 6d3d
000003a0: 1946 2b3e 3ce5 c2be 391f 923d c49c 12be
000003b0: 127d 803e b89a 0fbe b5ad 9f3d f927 863d
000003c0: 8b0d d0bc 5fea 9ebe 9db5 9f3e 9257 e13d
000003d0: 3313 64bc 1d5d d83d 38c6 b93e 4763 583e
000003e0: 5bfb 1d3e 9046 a93e e526 83be 2feb a13d
000003f0: 4919 4bbe 1732 aa3e 7ae2 03bf 1ff7 b8be
0.18281932 -0.10150692 0.09167218 -0.1563486 0.085161835 0.1588458 -0.0982445 0.019298244
-0.21193883 0.23197936 0.020925825 -0.028538777 0.029491438 -0.060041733 0.26262528 0.06971589
0.091838166 0.089475766 0.2643356 0.1532206 -0.127429 -0.18793064 -0.07238295 0.09239287
-0.05555324 -0.38201642 -0.053018987 0.2553025 0.11935347 0.0511585 0.08518103 0.26283067
0.2838877 -0.4181599 -0.04235097 -0.015069975 -0.006844507 -0.12421345 0.24423453 -0.23574641
0.031176567 -0.34133473 -0.13705781 -0.15223387 -0.073623955 0.04721018 0.040504124 0.089437984
0.011137204 0.16922423 0.035997335 0.18121657 -0.21188496 -0.032192603 0.17777336 0.21276169
-0.16336863 -0.077656016 0.37226745 0.117138855 0.14826772 -0.286512 -0.0029134364 0.06897268
-0.05977753 -0.015802994 0.2160648 -0.031565532 0.1947554 -0.22093335 -0.2477968 -0.06922143
-0.28214386 -0.22139542 0.12000639 -0.22968163 0.25893062 -0.15518785 -0.071624376 -0.06437443
0.22234708 -0.0065756957 -0.010358443 0.2401703 0.010580663 0.06725534 -0.119926356 0.08240925
-0.10406861 -0.0106504755 0.030830031 0.1421596 0.3473018 0.11379981 -0.05708343 0.06967208
0.024297204 -0.11899292 0.23885094 0.0029600966 0.26572824 -0.38947535 0.056598235 -0.22304358
0.090723224 -0.16162774 0.0380809 0.03647751 -0.3347459 0.470928 0.21545795 -0.090029955
0.08379879 0.055852458 0.19466093 0.070965916 0.044717606 0.040429756 -0.106284074 -0.19805552
0.5151507 -0.06549542 0.2653385 0.06767248 -0.063918315 0.07499134 0.050488885 0.16396946
0.040549472 -0.1541028 -0.0292377 0.09639059 0.079613395 -0.19896176 -0.08575068 -0.078019515
0.10116605 -0.20869067 0.17567511 -0.20452908 0.111730166 -0.4933333 -0.4928758 0.026133027
-0.017094277 0.07964625 -0.30117005 0.2361809 -0.4775837 -0.34089532 -0.031052228 -0.111989275
-0.10166282 -0.14557455 0.023748916 -0.13360654 0.022015905 -0.13328934 0.1025328 -0.08745312
-0.15740998 0.042560987 -0.012638905 0.06476368 -0.01054292 0.06612732 -0.014149197 0.096948415
0.09790651 -0.09273482 0.06723346 -0.008750976 -0.0761192 0.10791962 -0.15378803 0.04444103
-0.074008085 -0.09146812 -0.091845095 -0.092376746 0.008417835 -0.11347502 0.036185786 -0.10136909
-0.107713014 -0.02981387 -0.09629135 0.011068759 0.0099974265 -0.0719634 -0.0038685119 -0.027037725
-0.095991656 -0.07919131 -0.016247664 -0.14851199 0.06684071 -0.13683556 -0.105230406 0.08689061
0.10535203 -0.009171295 -0.027232105 -0.29915977 -0.3799743 0.15110132 0.077655025 0.2748863
-0.15813906 0.18002298 -0.22769052 -0.06095096 0.32854396 0.116764754 -0.050289057 -0.08129669
-0.016594447 -0.0938014 0.25072342 0.2082143 -0.3516029 -0.2305212 -0.5245431 0.07816487
0.08870841 -0.60236824 -0.27930057 0.039942537 0.28703025 -0.10351534 -0.10364803 0.058038037
0.16725959 -0.38065517 0.071348615 -0.14317614 0.2509542 -0.14023864 0.07796804 0.06550593
-0.025397083 -0.31038186 0.31193247 0.11003031 -0.013920593 0.10564635 0.3628404 0.21131621
0.15427916 0.33061647 -0.25615612 0.07906186 -0.19833864 0.3324134 -0.5151745 -0.36126038

net.2.bias f4 [50]
00000000: dda9 1a3e edc3 f33c c1b4 3f3e 186a edbc
00000010: 1d2c f03d 2ec9 48be 3335 933e 8cd9 17be
00000020: 7086 c63b 9c24 b33c ef76 00be 9c44 4c3e
00000030: 4d9a 813d f5cc a0bd 26e4 52be f253 26bd
00000040: 3206 46bd 2738 28bd 65e6 1b3e 065d a5bc
00000050: 91c7 c6bd 87bb c73c 7f2a b5ba 3ca7 fa3d
00000060: 3b20 b5bc f14e 2b3d 73df 583d d57f 3a3e
00000070: 4f1d 633e a241 263e 80af 723e 221d c83d
00000080: 35db c3bd 278a cfbd c751 80be 4188 f7bd
00000090: 7a8b b4bd 6e1d 163e 3f83 2cbe 575c 3e3e
000000a0: 56ff cabd 2130 883e 12c5 aebd 555f 623d
000000b0: b4da 3d3c 419e dd3d dbdd b93d 122c cf3d
000000c0: 335b 9cbc 5202 103e
0.1510386 0.02975651 0.18721296 -0.028981254 0.11727164 -0.19607994 0.28751525 -0.14829081
0.0060585067 0.021868043 -0.1254537 0.19948047 0.06328259 -0.078515925 -0.20594844 -0.0406074
-0.048345752 -0.041069176 0.15224607 -0.020185959 -0.09706033 0.024381412 -0.0013821869 0.12238929
-0.022110095 0.04182333 0.052947473 0.18212827 0.22179149 0.16235974 0.2369976 0.09771182
-0.09563295 -0.10133772 -0.2506239 -0.12086535 -0.088156655 0.14659664 -0.16846941 0.18589912
-0.09911983 0.2659922 -0.08533682 0.055266697 0.011587787 0.108212 0.09075519 0.101158276
-0.019086456 0.14063385

net.4.weight f4 [50, 50]
00000000: a3bb 463d cfde 1abe b8dd 04be 75c4 dd3d
00000010: 38b5 31bd 8880 b63d 9f81 563b 1745 11be
00000020: acb1 17be f736 18be de08 6b3e 5740 bdbd
00000030: 8975 3e3d a9f3 f0bd 70d7 bc3d 081f 203d
00000040: 7eb7 00be 3c79 2b3e 785b 773d bb8e a23d
00000050: 5877 a83d f8ee ec3d 1df9 31bd 3d56 73be
00000060: c42a 4ebd e06f 4f3d b28c 243c ced4 243e
00000070: 0594 ab3d 2ec5 90bd 2977 59ba a44c f1bd
00000080: cbb9 d83d d049 eebd c63f fdbc 7c3e 9a3c
00000090: 5396 3cbe 21d2 003e 1217 713d 8746 d73d
000000a0: 0ff9 8abc b7b8 dabc 645d da3d ad12 72be
000000b0: 83cf eebd 2cca ffbc a2b7 e03b 8c5e 59bd
000000c0: dae2 17be 83b7 94bd 2f4f c3bb 07ab ebbd
000000d0: e8fe cf3e 4c4d 433d 6b2f debd 314d 9e3e
000000e0: c163 5abe 74d6 203e 49be 023f 149a 703e
000000f0: 8280 123e a22e d53d 6a65 acbd cf7e c4bd
00000100: ffe7 3d3e da6f 523e 63cd 5c3e 8c11 033d
00000110: f69e 013e 1f1f 5e3d d5ad 233d 6d4e e03e
00000120: 7bbe 2cbe 59c2 253f 2c7d 813d 1376 a63e
00000130: 6e32 07be 2813 853e 3b42 06bb 1660 993d
00000140: 7bee 85be 8940 7dbd 8ae3 78be 0bfc c33e
00000150: 0d6f 9cbd 6f73 663e 9fad a43c 0899 3abe
00000160: b3c4 f23e f648 acbd 7fca c43d 06c3 a0be
00000170: 0a2f 203e 193f 293e 34d2 96ba 63e3 623e
00000180: fd07 1dbe 8529 c1be 62c9 583e ce4c 2f3e
00000190: 30cc e23d 4961 dcbe 5b75 4a3f c372 0f3a
000001a0: 0fd9 2abe 5b4b 1a3f d255 643d 2a86 f53d
000001b0: b3e9 a83e d61f 9fbe ef43 f63e dfc3 003e
000001c0: 7367 b7bb 4395 54be 71bd 6c3e 136b 003d
000001d0: 8074 483e cb29 12bd 0108 a0bd ee5a c23c
000001e0: 6bfe d6be e6c7 e63d f7b6 d1be 335a 5d3e
000001f0: 3ca1 3d3e 4d76 d53b d202 2c3e d061 a93d
00000200: f1e3 c73e 035d 053e 72d7 683e 8539 29be
00000210: 45ab 5b3e af06 133e 3f44 7cbe 7321 0bbe
00000220: b4db 88bd bb44 10be c36d 46be 4675 023e
00000230: c61b 32be a83c 643d 04e3 243c 0916 abbe
00000240: 306b 90be 83c0 d6be f9de ad3c fb82 8c3e
00000250: e703 883d fcbe 9abc 776d 243e 8539 32bd
00000260: c268 a83e 9cf4 563c 3120 d63e 2695 22bf
00000270: ed52 07bd 4f5c 963d c919 133d f13b 18bd
00000280: 9461 953e 66dc 6b3b 813c 83be 8d27 dabd
00000290: 2125 2c3e dcb1 c5bd 71b9 19be 368b d2bc
000002a0: bc3f f83d e309 313d 9116 20be 7fa3 8ebd
000002b0: 14b2 033f bd76 23be 8abd 983d aeb8 203b
000002c0: dbbd 55be b826 b63d fb5b fcbd 6d23 26bd
000002d0: 2ab3 583e 6fcd 53be 36ed 193e eb4d 0c3e
000002e0: 5b06 3b3e e591 d53c 2f5c 8f3d 0a78 d43d
000002f0: d213 f8be 9a08 51bd 737d 093e a488 913e
00000300: 14b4 b73e e1cd bdbd ce65 adbd d442 55be
00000310: b11c 9d3e 3078 e4be bb9e 883e d9c2 23be
00000320: 5b20 4e3d 1983 8cbd 068f a1bd f192 bdbd
00000330: 14db 06be 383c 88bd e33d 983d 1a35 f8bd
00000340: 0d83 9dbc e460 7bbd 3492 b5bd 80a3 e0bd
00000350: 43b2 8b3d 5b0d 943d fa8b b3bd de3a 40bc
00000360: c0a1 b63d 84ab a6bd 0f30 09be 7eb3 c93c
00000370: bb8f 47bd 1e78 d5bd 46a1 5f3d a5b3 863d
00000380: d276 e93d aa16 f8bc 6e9a 7ebd 2a47 03be
00000390: d502 5abd f00e 8e3d 0238 a03d d3b1 06be
000003a0: 793c aebc cf1b 00bd 330a 803d ecc9 b5bd
000003b0: 8744 01be bbbf f1bd d626 fc3d 4e63 503d
000003c0: 9dea 29bd f2aa d0ba 326f c23a 648a 81bc
000003d0: 276d 7abd 2a8f cbbd 9f92 a9bc 9a18 9ebc
000003e0: 62e0 bbbd b52a 6cbc f89a fa3d dad0 99bd
000003f0: c7b0 53be 974e cc3d 7b4e 01be d44d ab3e
0.048518788 -0.15124057 -0.12975204 0.10828487 -0.043385714 0.08911234 0.0032731069 -0.14186512
-0.1481387 -0.14864717 0.22952601 -0.092407875 0.04649881 -0.117652245 0.09220779 0.039092094
-0.12569997 0.16745466 0.060389966 0.0793738 0.08225888 0.11569017 -0.043450464 -0.23763366
-0.050333753 0.0506438 0.01004331 0.16096804 0.08377842 -0.07068859 -0.00082956493 -0.11782196
0.10582312 -0.11635172 -0.030914199 0.018828623 -0.18416719 0.12580158 0.058859892 0.10511499
-0.016964464 -0.026699407 0.10662344 -0.23639937 -0.116606735 -0.031224333 0.0068578282 -0.053068683
-0.14832631 -0.072615646 -0.005960367 -0.1150723 0.40624166 0.047681138 -0.10848888 0.30918267
-0.21327116 0.15706807 0.510716 0.23496276 0.14306834 0.10409285 -0.08417781 -0.09594499
0.1854553 0.2055048 0.21562724 0.031999156 0.12658295 0.0542289 0.0399607 0.43809834
-0.16869538 0.64749676 0.06322703 0.32511958 -0.13202831 0.25991178 -0.0020486254 0.0748903
-0.2615851 -0.061829124 -0.2430555 0.3827823 -0.07638369 0.22504972 0.02010232 -0.1822244
0.47415695 -0.08412354 0.096089356 -0.3139879 0.15642944 0.16527976 -0.0011506737 0.22157054
-0.15335079 -0.3772699 0.21170571 0.17119142 0.11074102 -0.43042973 0.7908532 0.0005472118
-0.16684364 0.60271233 0.055745907 0.119884804 0.32990798 -0.31078976 0.48098704 0.12574719
-0.005597049 -0.20760064 0.23119141 0.031352114 0.19575691 -0.035684388 -0.078140266 0.023725
-0.4199098 0.11268596 -0.40959904 0.2161644 0.18518537 0.0065143467 0.16797951 0.082706094
0.39041093 0.13023762 0.22738436 -0.16525848 0.21452053 0.14358018 -0.24635409 -0.13586979
-0.0668253 -0.14088719 -0.19377808 0.12740049 -0.17393407 0.05572191 0.01006389 -0.3341525
-0.28206778 -0.4194375 0.021224486 0.2744368 0.06641369 -0.018889897 0.16057383 -0.043511886
0.32892424 0.013119843 0.41821435 -0.6350883 -0.03303807 0.07341825 0.035913263 -0.03716654
0.2917601 0.0035989522 -0.25632098 -0.10652075 0.16811039 -0.096530646 -0.15012147 -0.025701147
0.12121531 0.04322232 -0.15633608 -0.06964778 0.514436 -0.15963264 0.07458027 0.002452414
-0.20873205 0.08894104 -0.123222314 -0.04056113 0.21162096 -0.20683835 0.15031895 0.13701598
0.18264143 0.026070544 0.070000045 0.10374458 -0.48452622 -0.051033594 0.13426761 0.2842456
0.35879576 -0.09267784 -0.08466683 -0.20826274 0.30685952 -0.44622946 0.26683602 -0.15992297
0.050323825 -0.068609424 -0.07888608 -0.092565425 -0.13169509 -0.06652111 0.07433679 -0.12119503
-0.019227529 -0.0613717 -0.08865777 -0.10968685 0.0682111 0.0722911 -0.08766933 -0.011732785
0.0891757 -0.08138183 -0.13397239 0.024621721 -0.048721056 -0.10423301 0.05459716 0.06577233
0.11399616 -0.030284245 -0.062158994 -0.12820116 -0.053225357 0.06936443 0.07823183 -0.13153772
-0.02126907 -0.03127652 0.06251945 -0.08876404 -0.12623797 -0.11804148 0.12312095 0.050875954
-0.04148351 -0.0015920086 0.0014834164 -0.01581306 -0.061139252 -0.09939416 -0.020699797 -0.01929884
-0.09173657 -0.014414479 0.12236589 -0.075105384 -0.20672904 0.09975927 -0.12627594 0.33457816

net.4.bias f4 [50]
00000000: 417d 09bd 8dcf 2abe a0e1 3e3e 59e8 083e
00000010: ade2 5cbc 6193 4abd 1ef2 f03d 46bf e53d
00000020: 1bea 2b3e 8404 bbbc 0c5a f03d 558f 9abd
00000030: 51ea 52be 2de5 583d 4665 e3bd 45b1 76bd
00000040: e622 b6bd a495 6f3b 39dd 4abd 7d25 503e
00000050: 1986 f23d 407e 7d3e 130a c2bc 9e56 203e
00000060: 04d1 113d 340b 173d 66f2 debd 3efb ce3d
00000070: 545c 843e ad09 993d c1cc ee3d 0b01 29bc
00000080: a6b3 2bbd aff7 363c 2d03 2cbd 646e 573d
00000090: af10 13be 088e 02bc d20c 1e3d 075b 8d3c
000000a0: 08ce 353e 9855 1fbc 9793 563e 4687 ccbc
000000b0: d496 f83d 20db e53d d490 da3c 53c5 7a3e
000000c0: bc02 c83b af52 abbe
-0.033566717 -0.16680737 0.18640757 0.13369884 -0.013481778 -0.049456958 0.1176493 0.11218123
0.16788523 -0.022829302 0.11735925 -0.0754687 -0.20597197 0.052952934 -0.11103301 -0.06022765
-0.08893375 0.0036557699 -0.04952738 0.203268 0.11841983 0.24755192 -0.023686444 0.15658042
0.035599723 0.03687592 -0.108860776 0.101065144 0.2585169 0.07472549 0.116601475 -0.01031519
-0.041919373 0.011167451 -0.041995216 0.05259551 -0.14361833 -0.007968433 0.038586445 0.01725532
0.17754376 -0.009724997 0.20954739 -0.024966847 0.12138143 0.112234354 0.026680388 0.24489336
0.0061038416 -0.3346152

net.6.weight f4 [10, 50]
00000000: 6e62 133e bccc bebd ccbc 0cbf fc57 f93e
00000010: 07d9 233d fd5d b33d 0dd3 02bf ad8e 40be
00000020: 3554 38bf 0b59 c73d 2f48 a03e bc23 5b3d
00000030: 63dc d8be 0e4d 15bd c7ba 743d e70f a4be
00000040: b62b 9cbe be49 f73c ade7 9bbe a4b7 bebd
00000050: e850 07bf 547a ccbe 18fb 1b3e ee5c ea3d
00000060: 0491 e23e be8e 46bf f649 b53d 8391 663d
00000070: 353c 393d 8687 663e ea28 193e 01b4 9f3e
00000080: 5bb4 25be 50a9 85bd 9804 833d 313b 00bf
00000090: 04b8 babc 3f9b 65be 41e1 a33e b8d9 b8bd
000000a0: 1601 55be 3f40 87bd 63bb 03bf 5be5 653d
000000b0: 89d2 423e 908b bdbe cd65 f7be 993b a6bc
000000c0: f91d ca3d 9720 1fbf 4c13 0ebe 13c6 4ebe
000000d0: 20a1 f33c abe0 c4be 86d4 423d 30b9 96be
000000e0: 69ac 853e bb13 2f3e 4825 8b3e a5db 7ebe
000000f0: 3b89 a33e d364 0fbf 705b 0fbc 4062 73be
00000100: c0b1 153d 6a12 48bf dce9 eb3d cdd1 85be
00000110: 9387 02bc c2a4 03bf 0e32 843e acf7 a03e
00000120: af5c 9f3e 3191 e03d 2e15 b63e 821c 973e
00000130: 50e5 0cbf 0159 56be 5ea4 4bbe 8373 d9be
00000140: 0c33 d4be 70c7 febd 7c29 053e 21ea 313e
00000150: 6910 55be 4e62 0f3d 892b ea3d 4814 9ebe
00000160: 9162 773e d971 c53d d4b2 b13d e8ca ae3d
00000170: b15e eb3d 1908 9e3c 7b07 e7be 4d85 37bd
00000180: 9f8c f83e 0cdc 4abe 6ea7 0c3e 952e 00be
00000190: 034a 4bbe 77b8 91bd 8aa1 633e 6bb4 903e
000001a0: bd02 08be 7fe1 c2be 3c2a d5be efac 49be
000001b0: b09e 973e 0154 023e ec01 90be f702 b3be
000001c0: 16c9 4e3e f311 bbbe 8de2 b93d 9f7c d4bc
000001d0: bb1b 603e 8157 0abc f8f6 89be 8126 b53d
000001e0: 8e6d 8e3d fce4 af3e 61b1 eabe 394b 723e
000001f0: e4cf bdbe 3e00 cb3e da9d 233e 2d7a 4dbe
00000200: b673 a3be e977 743e b4ae 983d 0a8c 593e
00000210: e044 9f3d fd45 a8be 2227 d03d 76e4 613e
00000220: 7db1 c0bd 568b 6abe 1853 4a3e ddf7 653e
00000230: ce6d eb3d 1e96 1abe 94e1 44bf e2bf 3dbd
00000240: 08f5 e3bd 0545 9fbe e3a3 14be 069f f8bc
00000250: b37f bc3d 8242 963e 6c44 eabd 5835 463e
00000260: 1ddc d3be 7870 ebbe 8872 eb3c 7c96 823e
00000270: 6943 56be 0b26 4b3e e823 adbe 514c 2f3e
00000280: 5089 a5be 610b 823e fcea c83e b077 0ebf
00000290: d7e2 f53d 5fb0 bbbe 52f2 3dbe d08d f4bc
000002a0: b58f 783e 3f73 36bd 3f64 40be 6b96 1dbf
000002b0: 6c5a 4e3a 9d9b 803d f1f3 38be c270 8b3e
000002c0: 2573 ee3b eada 743e 1d15 a9be 997f 863d
000002d0: b7b3 1dbe 7220 7ebd 96d6 63bd 9219 833e
000002e0: 8e93 933d 7c15 193e 80aa 133d 417c 873d
000002f0: a8ea 0e3e 9351 15be dd65 82bd edd5 00bd
00000300: d906 883e 1e32 b0bc 73b6 8cbd 7883 04be
00000310: 8498 84bf 53a9 bbbe d9c5 b4bd 43b5 973e
00000320: fbbd b43d f722 893e ecb9 1e3f d83a 68bf
00000330: b692 4c3d 239f 37bd 4b5b 6f3e 4164 88be
00000340: 16fd 24be 8711 87bb cdc3 bfbe c208 d5be
00000350: 8ee4 fa3d 8191 a43e b93e 86bd 6400 7c3e
00000360: cdb2 0b3e 33f7 7c3c 48e6 2abf 0c47 dcbe
00000370: 086a c9bd 0997 4b3e 44e5 643e fe1f e5be
00000380: 81c0 c6bd 1387 3cbe dacb 243e fc94 b8be
00000390: a407 403e 8263 15bd 3145 90bd 748d 9fbe
000003a0: 2292 9dbe 6e1b e8bc 7f19 56bf 96f1 053e
000003b0: 39cd 46bc 90c8 843e 5c0d 7e3e 8d58 35bf
000003c0: 0885 113e 2815 383c 0b35 28be a319 02be
000003d0: a1f1 a2be 757f 5bbe cf0d 9c3e 239f 423e
000003e0: 32ff 933e 889d 1cbd 2b08 893c ab13 79be
000003f0: e822 073f 8f11 a2bd a5fc 463d 85db 0f3e
0.14393017 -0.09316394 -0.5497558 0.4869994 0.040001895 0.08758161 -0.5110329 -0.18804426
-0.7200349 0.097337805 0.31305072 0.053500876 -0.42355642 -0.03645044 0.059748437 -0.32043383
-0.305021 0.03018653 -0.30450192 -0.093123704 -0.5285783 -0.3993708 0.15232503 0.11443506
0.44251263 -0.7756156 0.088519976 0.056291115 0.045223434 0.22512636 0.14957014 0.3119202
-0.16182081 -0.065264344 0.063973606 -0.5009032 -0.022792824 -0.22422503 0.32007793 -0.090259016
-0.20801196 -0.06604051 -0.51457804 0.056126934 0.19025625 -0.3702054 -0.48319855 -0.02029209
0.09868998 -0.62159103 -0.13874549 -0.20192747 0.029739916 -0.38452658 0.04756596 -0.29438162
0.261081 0.1709737 0.2717688 -0.24888475 0.31940636 -0.5601322 -0.008749828 -0.23767948
0.03654647 -0.781531 0.115192145 -0.26136628 -0.007966894 -0.51423275 0.2581944 0.3143896
0.311254 0.10965193 0.35563034 0.29513937 -0.55037403 -0.2093239 -0.1988692 -0.4247094
-0.41445196 -0.124403834 0.13004106 0.1737447 -0.20807041 0.03500586 0.11434085 -0.30874848
0.24158694 0.09640855 0.08676687 0.08534795 0.1149267 0.01929097 -0.45122895 -0.04480486
0.48544785 -0.19810504 0.13735744 -0.1251777 -0.19852452 -0.07115262 0.22229591 0.28262648
-0.13282295 -0.38062665 -0.41633785 -0.19694875 0.29613256 0.12727357 -0.28126466 -0.349632
0.20193896 -0.36537132 0.09076414 -0.02593833 0.21885578 -0.008443714 -0.26946235 0.08845235
0.0695449 0.3435439 -0.45838454 0.23661508 -0.3707267 0.39648622 0.15978184 -0.20066138
-0.31924218 0.23873867 0.07455197 0.21244827 0.07776809 -0.32865897 0.10163714 0.22059807
-0.09408853 -0.22904715 0.1975826 0.22457834 0.11495553 -0.15096328 -0.76906705 -0.04632557
-0.111307204 -0.31107345 -0.14515643 -0.030349266 0.09204044 0.29347616 -0.11438832 0.19356287
-0.4137887 -0.45984244 0.028741136 0.25505435 -0.20924152 0.19838731 -0.33816457 0.17118956
-0.32331324 0.25399306 0.3924178 -0.5565138 0.12006157 -0.36657998 -0.18549469 -0.029852778
0.2427357 -0.0445435 -0.18788241 -0.61557645 0.000787175 0.06279681 -0.18061806 0.27234465
0.00727691 0.23911634 -0.3302392 0.06567306 -0.15400587 -0.06204266 -0.055624567 0.25605446
0.07205878 0.14949602 0.036051273 0.066154964 0.13956702 -0.145819 -0.06367085 -0.031454016
0.26567724 -0.021508273 -0.06870737 -0.12940776 -1.0359044 -0.36652622 -0.08826799 0.2963048
0.088252984 0.2678449 0.62002444 -0.9071479 0.049944602 -0.0448295 0.23374669 -0.26638988
-0.1611217 -0.0041219625 -0.37454072 -0.41608244 0.122506246 0.3214226 -0.06554932 0.24609524
0.13642426 0.015439796 -0.6675763 -0.43022954 -0.09834677 0.19881834 0.22353083 -0.4475097
-0.09704686 -0.18410902 0.16093388 -0.36051166 0.18752915 -0.03647185 -0.07044447 -0.31162608
-0.30775553 -0.028333392 -0.83632654 0.13080439 -0.01213389 0.25934267 0.24809784 -0.7083824
0.14210904 0.011235513 -0.16426484 -0.12705092 -0.31824973 -0.2143534 0.30479285 0.19006018
0.28905636 -0.03823617 0.016727528 -0.24323909 0.5278764 -0.07913505 0.048580784 0.14048584

net.6.bias f4 [10]
00000000: 4794 6fbd 73d3 c53d 4dd1 4f3c 3e3d 3fbe
00000010: 0518 fcbd c79d 173e 0973 813c 5bae 1cbe
00000020: 5733 66be a297 413e
-0.058491018 0.09659471 0.012684179 -0.18675706 -0.12309269 0.14806281 0.015801923 -0.15300886
-0.22480522 0.189055
