data/models/mnist/mnist_50x4.pth (torch, 193845 bytes, 10 tensors)

net.0.weight f4 [50, 784]
-0.034802716 0.028802022 0.016585167 -0.014296856 -0.026161779 0.003656843 0.029390208 -0.015809065
-0.012127659 0.023244552 0.032354757 -0.02564353 0.097926565 0.1312808 0.0056272144 -0.033308316
-0.02786969 0.009996406 0.015718188 0.0027804973 0.011553994 0.03176888 -0.022531396 -0.03402951
-0.0017470293 0.009329954 -0.0016215445 -0.015681949 -0.022977183 -0.012858791 0.015060136 -0.019163413
0.041378446 0.011134749 0.046145156 0.06303343 0.07166294 0.073466495 0.23466851 -0.19597875
-0.21274823 -0.23169054 -0.22404997 -0.013052218 -0.08698572 -0.058531813 0.26056585 0.3034246
0.251114 0.1386604 -0.0036154527 0.05089597 0.018185621 -0.0013618725 0.017749663 -0.016546391
-0.024634562 0.017319344 0.066341676 0.1954701 0.2232853 0.13638797 -0.038160782 -0.099751815
0.041756634 0.22289519 0.2321765 0.33176956 0.36614963 0.19215032 0.21646877 0.4672064
0.35751083 0.13027458 0.23940095 0.26176864 0.3938628 0.49002814 0.4878883 0.2899713
0.29892653 0.08195571 0.0037866535 0.027905228 0.014539205 0.018281277 0.0041772276 0.07631839
-0.090885445 0.034984536 0.35497192 0.15996197 0.035195593 0.3791199 -0.21021186 -0.05296007
0.117525116 0.06593274 -0.112719834 -0.3456854 -0.28171152 -0.27991873 -0.25462383 -0.08258654
-0.118875004 0.12029176 0.21285242 0.28015164 0.32624346 0.007491411 0.09631172 0.0062576025
0.0025870376 -0.026105495 0.11708002 -0.097226456 0.0009175471 -0.22452554 -0.09899927 -0.18467396
-0.027360786 0.0015413172 -0.16872036 -0.10009131 0.051218297 -0.0337982 -0.061436336 -0.15564533
0.011387509 0.06103801 -0.03224329 -0.04361472 -0.02714038 -0.05673577 0.0009245787 0.18903486
-0.03913465 -0.23848853 -0.11545561 0.24243666 0.0080098305 -0.0059468877 0.35017383 0.006778457
-0.039449114 -0.1619224 -0.057337556 -0.0715642 -0.047153115 0.018763289 -0.11237131 -0.074150085
-0.04466545 -0.12103348 -0.062086113 -0.07943266 -0.117214605 -0.06512505 -0.055285636 0.028674768
-0.034458283 0.046473328 -0.08192397 0.1470884 0.16337803 -0.008031252 0.21281305 0.31750104
-0.018783946 -0.09096584 -0.26093554 0.39185965 -0.039659195 -0.4401272 0.029841803 0.054243933
-0.043508623 0.045238473 -0.1458417 -0.051902752 -0.10972779 -0.15530728 0.059226383 -0.0222092
0.034774702 0.08481769 -0.004042609 0.06444509 0.068579145 0.12910101 -0.02081981 -0.128735
-0.11127009 0.118984565 0.073426455 0.14691103 -0.028272754 0.05880482 -0.2303737 0.098169215
0.07689624 -0.20569986 -0.041245613 -0.11737329 -0.17671953 -0.004226754 -0.12614699 -0.18210335
-0.03992692 -0.0034085044 0.052566975 -0.031734623 0.018326808 0.079573266 0.053152874 0.14194484
0.10018461 0.08035498 0.08018264 0.017144555 0.06214629 0.13363191 -0.080232814 0.13249144
0.1807404 0.15673132 -0.1311536 0.10018701 0.0885672 -0.012657537 -0.030951014 -0.11712072
-0.07029176 -0.033308994 -0.12933455 -0.14693247 -0.15127242 -0.07641598 -0.11154007 -0.06612775
-0.07273445 -0.025759872 0.02114013 0.062577486 -0.06185954 -0.0046046963 0.05664254 0.12737381
-0.03234289 -0.038400598 0.0016814222 -0.31007224 -0.16283607 -0.17155047 0.020992916 0.094871834
00000000: 4b8d 0ebd 38f2 eb3c 9edd 873c 5c3d 6abc
00000010: 3a51 d6bc a5a7 6f3b bcc3 f03c 0382 81bc
00000020: 17b3 46bc 5c6b be3c 6c86 043d 6112 d2bc
00000030: b98d c83d 796e 063e 7f64 b83b 4d6e 08bd
00000040: fa4e e4bc f7c7 233c 6ec3 803c 0139 363b
00000050: f74c 3d3c 1620 023d c393 b8bc 8762 0bbd
00000060: 93fc e4ba aadc 183c 018a d4ba 6e77 80bc
00000070: a53a bcbc aead 52bc cabe 763c 97fc 9cbc
00000080: 727c 293d 866e 363c b402 3d3d ac17 813d
00000090: 05c4 923d 9a75 963d f14c 703e a7ae 48be
000000a0: acda 59be 4940 6dbe 5b6d 65be f8d8 55bc
000000b0: 9225 b2bd 0ebf 6fbd e368 853e 785a 9b3e
000000c0: 0492 803e fefc 0d3e 3bf1 6cbb 4b78 503d
000000d0: 03fa 943c dc80 b2ba be67 913c 4c8c 87bc
000000e0: 6cce c9bc 4ce1 8d3c 25de 873d 5029 483e
000000f0: e7a4 643e 4aa9 0b3e 7b4e 1cbd ae4a ccbd
00000100: 0109 2b3d a33e 643e adbf 6d3e b3dd a93e
00000110: f777 bb3e 0ec3 443e fda9 5d3e ad35 ef3e
00000120: a90b b73e b366 053e 8625 753e 8a06 863e
00000130: 63a8 c93e f8e4 fa3e 7fcc f93e 1e77 943e
00000140: e60c 993e 65d8 a73d 8129 783b 8199 e43c
00000150: d835 6e3c 9ec2 953c 20e1 883b d14c 9c3d
00000160: 2622 babd f24b 0f3d e1be b53e 12cd 233e
00000170: 4129 103d 011c c23e c741 57be a9ec 58bd
00000180: 02b1 f03d bf07 873d a8d9 e6bd adfd b0be
00000190: 7e3c 90be 8251 8fbe 0e5e 82be 2223 a9bd
000001a0: bd74 f3bd 875b f63d fcf5 593e 0970 8f3e
000001b0: 6209 a73e 837a f53b 143f c53d 930c cd3b
000001c0: 4a8b 293b 31db d5bc a6c7 ef3d aa1e c7bd
000001d0: 8b87 703a 06ea 65be 21c0 cabd 2c1b 3dbe
000001e0: ba23 e0bc 0606 ca3a 08c5 2cbe acfc ccbd
000001f0: 47ca 513d fb6f 0abd aba4 7bbd 7d61 1fbe
00000200: ad92 3a3c fe02 7a3d 8a11 04bd 59a5 32bd
00000210: 8155 debc c463 68bd 6d5f 723a 5b92 413e
00000220: a84b 20bd 5636 74be fe73 ecbd 5141 783e
00000230: aa3b 033c 1cde c2bb fc49 b33e d21d de3b
00000240: 6595 21bd fcce 25be c9da 6abd 4090 92bd
00000250: a023 41bd 78b5 993c ee22 e6bd 00dc 97bd
00000260: 1ef3 36bd 67e0 f7bd 024e 7ebd 97ad a2bd
00000270: 360e f0bd 4860 85bd 3173 62bd 59e7 ea3c
00000280: 2124 0dbd d15a 3e3d c1c7 a7bd 579e 163e
00000290: 924c 273e 8395 03bc aaeb 593e 7f8f a23e
000002a0: cae0 99bc 4c4c babd 5899 85be d4a1 c83e
000002b0: ae71 22bd 5a58 e1be cc76 f43c e32e 5e3d
000002c0: 1936 32bd fa4b 393d 8757 15be fb97 54bd
000002d0: f7b8 e0bd df08 1fbe 5d97 723d 11f0 b5bc
000002e0: eb6f 0e3d e6b4 ad3d dd77 84bb cafb 833d
000002f0: 3973 8c3d 0e33 043e 4e8e aabc 1cd3 03be
00000300: 93e1 e3bd 2eae f33d 9c60 963d d86f 163e
00000310: 439c e7bc 53dd 703d 15e7 6bbe f10c c93d
00000320: c77b 9d3d fca2 52be 29f1 28bd 6861 f0bd
00000330: f7f5 34be 9580 8abb ad2c 01be 4d79 3abe
00000340: 698a 23bd 3761 5fbb 7850 573d 2afc 01bd
00000350: 1a22 963c 4ff7 a23d d4b6 593d fd59 113e
00000360: 972d cd3d 2791 a43d cc36 a43d bd72 8c3c
00000370: 1c8d 7e3d ced6 083e 1a51 a4bd d6ab 073e
00000380: 0314 393e 2d7e 203e 214d 06be d92e cd3d
00000390: b862 b53d 8f61 4fbc fb8c fdbc fddc efbd
000003a0: 20f5 8fbd 036f 08bd 4770 04be 7775 16be
000003b0: 28e7 1abe fb7f 9cbd 1f6f e4bd fc6d 87bd
000003c0: cdf5 94bd 5e06 d3bc 112e ad3c a028 803d
000003d0: 6e60 7dbd fee2 96bb 0202 683d 486e 023e
000003e0: fa79 04bd f249 1dbd 2b63 dc3a cac1 9ebe
000003f0: 80be 26be edaa 2fbe 56f9 ab3c 2a4c c23d

net.0.bias f4 [50]
0.027258288 0.07979352 -0.03208257 0.095973 -0.037574016 0.06969372 0.093511194 0.03543229
0.04563485 0.091182105 0.08351544 0.013123001 0.12048052 -0.016674412 -0.05985534 0.15882145
0.07993933 -0.004448633 0.013881052 0.090545945 -0.020084525 0.037036248 0.07089353 0.085952714
0.02596128 -0.02630084 0.021145325 0.04741211 -0.13809377 0.1006572 0.045722403 0.09051913
-0.09128151 0.1180209 -0.110732995 0.08772052 0.013228326 0.062438063 -0.082671955 0.05039466
0.09666269 0.09287933 0.028474884 0.07107262 -0.0044637998 0.11593157 -0.08010413 0.15020016
-0.1079141 0.03005821
00000000: c64c df3c c96a a33d 0369 03bd 7e8d c43d
00000010: 36e7 19bd 95bb 8e3d cc82 bf3d 7321 113d
00000020: 9ceb 3a3d afbd ba3d 250a ab3d db01 573c
00000030: 7ebe f63d c798 88bc df2a 75bd 17a2 223e
00000040: 3bb7 a33d d7c5 91bb 5a6d 633c 2770 b93d
00000050: 4d88 a4bc 52b3 173d a130 913d fa07 b03d
00000060: c0ac d43c dc74 d7bc f638 ad3c 3333 423d
00000070: 7468 0dbe 5d25 ce3d 6a47 3b3d 1862 b93d
00000080: cdf1 babd f1b4 f13d fbc7 e2bd d1a6 b33d
00000090: 9fbb 583c 0ebf 7f3d ea4f a9bd a26a 4e3d
000000a0: 17f7 c53d 8537 be3d 2944 e93c 868e 913d
000000b0: 1145 92bb 886d ed3d a20d a4bd 12ce 193e
000000c0: 1102 ddbd a33c f63c

net.2.weight f4 [50, 50]
-0.04549319 0.11613395 0.1418058 -0.12894194 0.03014732 0.08405879 0.08770924 0.28595346
0.11778227 0.07279632 -0.09694662 0.06481023 0.06917426 -0.10699359 0.024690807 0.2654151
-0.13404757 0.02411102 0.043900862 0.05166597 -0.1711749 -0.14599288 -0.1320614 0.16476299
0.25679237 -0.11070824 0.09207656 0.16893628 -0.36383504 -0.35213086 0.16083814 0.14625798
0.21097507 -0.013757766 0.09491321 0.12295486 -0.060790457 -0.04763451 -0.038928833 -0.024549885
-0.012642338 -0.033407077 -0.33110857 0.2761107 0.3574081 -0.17578512 0.02231407 -0.23281454
0.11963066 0.09059653 0.21479146 -0.1111572 0.03671578 0.14834028 -0.04963026 -0.051082715
-0.037746094 0.1300863 -0.34208438 0.09684897 0.22617437 0.18867278 0.19396593 -0.06783813
-0.020380493 -0.021713717 0.1010134 0.120713 0.110191464 0.060618922 -0.45020613 -0.066831
-0.295752 0.1653319 0.11253986 -0.09302807 0.09257525 -0.04884124 -0.1715745 -0.014669035
0.1655907 0.01588699 -0.11339094 0.037052624 -0.26964653 0.07341426 -0.03032099 0.2698943
0.20586789 -0.09195049 0.19649999 -0.08552874 -0.12223366 -0.07235721 -0.114852645 -0.004433629
-0.03488842 -0.0006982872 0.26242167 0.18586497 0.2157386 -0.081330985 0.16501132 0.13187185
-0.022926457 -0.04171736 0.12140033 0.24240795 -0.21995732 0.08257331 -0.10652569 0.2375274
0.2232087 0.05520208 0.28061748 -0.040820975 -0.0086311875 0.10633058 -0.13861118 -0.120926626
-0.23958205 -0.080407135 -0.27653825 -0.005695064 -0.108677074 0.047925904 0.2092864 -0.096294165
0.47938535 -0.05626084 0.18261816 0.09968726 -0.006574508 0.24552347 -0.06421669 -0.010734037
0.16468269 0.05646184 0.45291823 0.05183582 -0.06725501 -0.054554727 -0.16616434 0.020982757
0.091165155 -0.25899413 0.20119132 -0.1209404 0.32045886 0.24092536 0.21101002 -0.06922188
0.14749141 0.052905258 -0.010319262 -0.15278134 0.020627027 -0.034200974 0.0047962167 0.057971578
-0.10699171 -0.17491783 0.15219751 0.1793636 -0.31152612 -0.18026194 -0.10129344 -0.21074468
-0.109118275 0.23249403 -0.36497635 -0.07379668 -0.14184004 -0.08445703 -0.090177245 -0.024011655
0.14416791 -0.02451551 -0.01726699 -0.1586252 0.0040488355 -0.18144208 0.025396323 -0.08408963
0.1110164 0.0071196556 0.23684283 -0.18093118 -0.25191128 0.32475808 0.12147589 0.040733963
0.03404335 0.08894653 -0.211017 0.123812124 -0.2535228 0.06661585 0.2334287 0.07855986
0.04271346 -0.22312404 -0.16478142 -0.008847282 0.11060794 0.107113734 -0.13121359 -0.192829
0.29328158 -0.076119415 0.03051058 0.12268131 -0.1466553 0.30962804 0.14858945 0.018304594
0.037284024 -0.07371763 0.09706829 -0.23882797 0.24562745 0.04141311 0.10108469 0.004461759
-0.4086545 0.080343895 0.1754827 0.21176133 0.4398363 -0.13524209 0.17109197 -0.05110215
0.055714857 0.18851289 0.2208244 0.13126847 0.15586132 0.08125566 -0.046184238 0.07131335
-0.00058246846 0.027191605 -0.17637634 -0.10450684 -0.009241152 0.080235735 -0.1502132 -0.12052627
0.34254706 -0.05299754 0.06444195 0.048472058 0.22271517 -0.017417574 0.029925374 -0.056223504
00000000: 1157 3abd a3d7 ed3d 8a35 113e 5b09 04be
00000010: 83f7 f63c 0427 ac3d e7a0 b33d 7e68 923e
00000020: d537 f13d 3d16 953d f38b c6bd 3abb 843d
00000030: 3cab 8d3d 751f dbbd 6044 ca3c 7de4 873e
00000040: c443 09be 7984 c53c 64d1 333d b29f 533d
00000050: 7948 2fbe 287f 15be 1b3b 07be a1b7 283e
00000060: 4a7a 833e 00bb e2bd a392 bc3d a2fd 2c3e
00000070: 9648 babe 7f4a b4be c1b2 243e a7c4 153e
00000080: d909 583e 4168 61bc db61 c23d c2cf fb3d
00000090: 6aff 78bd 671c 43bd d773 1fbd d71c c9bc
000000a0: cf21 4fbc dcd5 08bd 1087 a9be 625e 8d3e
000000b0: 32fe b63e 0401 34be ffcb b63c ef66 6ebe
000000c0: eb00 f53d ac8a b93d 4bf2 5b3e 63a6 e3bd
000000d0: 4963 163d 84e6 173e 1949 4bbd 1c3c 51bd
000000e0: a69b 1abd 5835 053e af25 afbe c158 c63d
000000f0: 419a 673e 7033 413e 019f 463e b8ee 8abd
00000100: fef4 a6bc f7e0 b1bc 1de0 ce3d 6138 f73d
00000110: 10ac e13d 8c4b 783d 6b81 e6be b1de 88bd
00000120: ce6c 97be c44c 293e 4c7b e63d 8085 bebd
00000130: 1898 bd3d c10d 48bd 3ab1 2fbe 6456 70bc
00000140: 9c90 293e 6f25 823c 8239 e8bd 7ec4 173d
00000150: 1c0f 8abe 375a 963d ba63 f8bc 962f 8a3e
00000160: 08cf 523e 8a50 bcbd 4b37 493e b129 afbd
00000170: a455 fabd 0430 94bd dd37 ebbd fa47 91bb
00000180: 29e7 0ebd 430d 37ba 225c 863e 6353 3e3e
00000190: 94ea 5c3e dc90 a6bd baf8 283e 6a09 073e
000001a0: 44d0 bbbc d3df 2abd bca0 f83d ca39 783e
000001b0: 7e3c 61be 321c a93d 242a dabd 623a 733e
000001c0: d290 643e 941b 623d 18ad 8f3e e533 27bd
000001d0: d369 0dbc d9c3 d93d 17f0 0dbe 61a8 f7bd
000001e0: ff54 75be 7fac a4bd 6c96 8dbe a99d babb
000001f0: 1692 debd f44d 443d 2d4f 563e e035 c5bd
00000200: ff71 f53e c471 66bd 4100 3b3e d628 cc3d
00000210: f86e d7bb 816a 7b3e 0a84 83bd d0dd 2fbc
00000220: 94a2 283e 8844 673d e6e4 e73e cc51 543d
00000230: ffbc 89bd c774 5fbd fc26 2abe 08e4 ab3c
00000240: ccb4 ba3d e19a 84be 1905 4e3e 9aaf f7bd
00000250: 2f13 a43e 23b5 763e 0313 583e 33c4 8dbd
00000260: fd07 173e 2fb3 583d 1f12 29bc b672 1cbe
00000270: 03fa a83c 5216 0cbd 9529 9d3b 9b73 6d3d
00000280: 781e dbbd a91d 33be aad9 1b3e 17ab 373e
00000290: 5a80 9fbe 9696 38be ef72 cfbd 74cd 57be
000002a0: 6779 dfbd ea12 6e3e 2ede babe b722 97bd
000002b0: 843e 11be cff7 acbd d9ae b8bd 17b4 c4bc
000002c0: c1a0 133e c0d4 c8bc 8173 8dbc a56e 22be
000002d0: 18ac 843b f4cb 39be f30b d03c 2f37 acbd
000002e0: 915c e33d 004c e93b ed86 723e 0646 39be
000002f0: 84fa 80be b146 a63e 5ac8 f83d a8d8 263d
00000300: 0a71 0b3d 9929 b63d d714 58be 3691 fd3d
00000310: becd 81be e46d 883d ef07 6f3e fee3 a03d
00000320: 4ff4 2e3d a17a 64be 76bc 28be 31f4 10bc
00000330: 6a86 e23d 725e db3d db5c 06be f774 45be
00000340: 0129 963e 7fe4 9bbd 53f1 f93c 5740 fb3d
00000350: cf2c 16be 9187 9e3e d527 183e 84f3 953c
00000360: 22b7 183d 45f9 96bd bdcb c63d 528f 74be
00000370: c385 7b3e cba0 293d 7d05 cf3d f233 923b
00000380: 2a3b d1be 578b a43d bdb1 333e f6d7 583e
00000390: 3932 e13e e77c 0abe bc32 2f3e 7d50 51bd
000003a0: 4335 643d 8609 413e cb1f 623e 3e6b 063e
000003b0: 1c9a 1f3e 5e69 a63d af2b 3dbd bc0c 923d
000003c0: ccb0 18ba eec0 de3c 009c 34be af07 d6bd
000003d0: 3368 17bc a252 a43d 7dd1 19be 7ad6 f6bd
000003e0: 5462 af3e f313 59bd 24fa 833d a38a 463d
000003f0: 720f 643e 4daf 8ebc 0f26 f53c 9e4a 66bd

net.2.bias f4 [50]
0.09094221 0.19101964 0.092457205 -0.13853063 -0.07902204 0.11569861 -0.039550446 0.15161668
0.15215062 0.06529284 0.14472213 -0.18564017 0.06866546 -0.108528815 0.09455637 0.13167855
-0.14097323 -0.044431012 -0.07446052 0.16012517 -0.08214834 -0.04394667 0.14236906 0.028331812
0.03256569 0.060696747 0.10212622 0.122656904 -0.027134623 0.018457513 0.07812667 0.006095448
-0.054796383 0.08691592 0.065210216 0.020901982 -0.011329671 0.14987084 0.12604132 0.23679426
0.15113847 0.046644915 0.0071107247 0.04629077 0.084526055 -0.003400581 -0.070943944 -0.13229871
0.07718036 -0.09460108
00000000: e93f ba3d a79a 433e 345a bd3d f9da 0dbe
00000010: 4fd6 a1bd 65f3 ec3d a6ff 21bd 6741 1b3e
00000020: 5fcd 1b3e 41b8 853d 0a32 143e 7518 3ebe
00000030: 7aa0 8c3d 5b44 debd c5a6 c13d bed6 063e
00000040: 495b 10be 4bfd 35bd c27e 98bd daf7 233e
00000050: 643d a8bd 6c01 34bd 32c9 113e 1e18 e83c
00000060: 9a63 053d 279d 783d 8d27 d13d 8b33 fb3d
00000070: 6e49 debc 3634 973c e000 a03d 53bc c73b
00000080: 2c72 60bd f900 b23d ef8c 853d a23a ab3c
00000090: 16a0 39bc be77 193e fa10 013e 327a 723e
000000a0: 0bc4 1a3e bd0e 3f3d 1501 e93b 649b 3d3d
000000b0: ff1b ad3d 48dc 5ebb 0f4b 91bd 5079 07be
000000c0: bd10 9e3d 36be c1bd

net.4.weight f4 [50, 50]
0.33516797 0.16155228 0.05025574 -0.03146495 0.00523991 -0.14094856 -0.34748968 0.12810832
0.14311962 -0.10322899 0.028265256 -0.12688556 0.03143556 0.09238677 -0.15735795 -0.06685719
0.2659812 0.028893823 -0.14543071 0.09440013 -0.048513122 -0.12524253 0.12169927 0.24232647
0.27192768 0.18089372 -0.042103436 -0.14123312 -0.13587056 -0.09969387 0.2088794 0.36298358
-0.4180216 -0.011786357 0.108316526 0.21625218 0.08069836 0.12074704 0.17369594 0.11211719
-0.247559 0.078256994 -0.0116194105 0.18676652 -0.052986447 -0.16032535 -0.19478045 -0.45612764
-0.28602436 0.10395989 0.23279734 0.017642412 0.098451555 -0.012509217 0.1654984 0.18043596
-0.28309196 -0.15811259 0.014639545 0.107865684 0.03198003 0.15736131 0.26799023 0.037970286
-0.08562915 0.4685492 -0.12564552 -0.05879203 -0.053539596 -0.3041072 -0.056118272 -0.08988476
-0.079580516 -0.029462216 0.21391836 -0.120323926 0.120091185 0.03185132 0.24144445 0.05242413
0.021054318 0.122426935 -0.16521676 -0.2334355 0.19252333 0.11439278 0.3958283 -0.32901886
-0.08280516 0.1303962 -0.091803156 -0.27623007 -0.070295155 0.10732533 -0.23162912 -0.049725067
-0.051701866 0.11997034 -0.12519087 -0.043685414 0.024615278 0.21220766 0.26454717 -0.2293382
-0.028306184 -0.14568684 -0.3716316 -0.102127574 -0.13085982 -0.022793751 0.17287026 0.40200394
-0.18638428 0.20765238 -0.032877598 -0.2518177 0.2524827 0.15496702 0.1219136 0.23095143
0.0060920664 -0.13403614 0.16328748 0.12669787 0.21392462 0.04550813 -0.22343631 0.09950953
-0.1305263 -0.14565286 0.20528145 0.18736517 -0.33360517 -0.119690835 0.17367831 0.13430196
0.12768263 0.14071779 0.23743527 0.107167356 0.05964246 0.31008133 0.062199872 0.030631348
-0.25030795 0.2964939 0.12543039 -0.07684885 -0.01486496 0.0635846 -0.046513356 0.083014145
-0.034627855 -0.45471096 -0.084801786 -0.081106775 -0.26915896 0.19934192 0.0007036266 -0.020925757
0.30759436 -0.020137643 -0.057433225 -0.35381076 0.266196 0.053234998 -0.022445137 0.10735211
-0.07959557 -0.21288039 0.2634089 0.18282428 0.04392865 -0.073928654 0.07534989 -0.017259104
0.23927602 0.18083069 0.29875958 -0.040305186 -0.0077742254 -0.39744753 -0.029169805 0.057193227
0.17098582 0.124176934 -0.0036709695 0.17073023 -0.14999579 -0.2003862 -0.04384967 0.31019527
0.07907534 0.11842114 0.25261143 0.2050915 0.35139576 0.24516672 -0.16082217 0.08777565
-0.07987858 0.12076716 -0.18019943 -0.17916046 0.22387181 -0.11798933 0.38390735 0.036785457
0.10914671 -0.12698753 0.17993915 -0.5281204 0.12824215 -0.1292247 0.07167077 -0.0809023
-0.31002915 0.20539606 0.0055256463 0.11472754 -0.10386312 0.1388048 0.04965554 -0.0022643371
0.120758355 0.13209544 0.18183261 0.060648117 0.25606513 0.15858586 -0.06055045 -0.035141047
0.1514875 0.2496584 -0.37264457 0.18466547 -0.038641576 -0.06700261 -0.15063198 -0.15465239
0.06598551 -0.08460863 -0.03141489 0.038578182 0.32149816 -0.21566954 -0.00500369 0.30892977
-0.033795025 0.3080666 0.23307979 -0.06225545 -0.0982703 0.41774145 0.12839095 0.21496552
00000000: 239b ab3e f66d 253e f6d8 4d3d 64e1 00bd
00000010: 8db3 ab3b d254 10be 2bea b1be d42e 033e
00000020: f38d 123e b969 d3bd 8a8c e73c 4aee 01be
00000030: 93c2 003d 4635 bd3d 7122 21be 6cec 88bd
00000040: b02e 883e bdb2 ec3c caeb 14be db54 c13d
00000050: b2b5 46bd 943f 00be 783d f93d 6e24 783e
00000060: 1b3a 8b3e 343c 393e a774 2cbd 6a9f 10be
00000070: a721 0bbe 4d2c ccbd 7be4 553e fcd8 b93e
00000080: ed06 d6be 901b 41bc 0ed5 dd3d 3671 5d3e
00000090: 2f45 a53d 394a f73d 59dd 313e b39d e53d
000000a0: 1b80 7dbe 3445 a03d 575f 3ebc b93f 3f3e
000000b0: 5108 59bd 542c 24be 8774 47be 9089 e9be
000000c0: c971 92be ece8 d43d 6d62 6e3e d286 903c
000000d0: f8a0 c93d 75f3 4cbc 6a78 293e 34c4 383e
000000e0: 6ef1 90be 44e8 21be b4da 6f3c afe8 dc3d
000000f0: 7efd 023d 5323 213e 0436 893e bb86 1b3d
00000100: 565e afbd aee5 ef3e 38a9 00be e9cf 70bd
00000110: 564c 5bbd f0b3 9bbe 46dc 65bd 8015 b8bd
00000120: 1cfb a2bd bf5a f1bc 6a0d 5b3e 646c f6bd
00000130: 5ef2 f53d 8876 023d 373d 773e afba 563d
00000140: 1b7a ac3c f9ba fa3d 952e 29be b709 6fbe
00000150: d624 453e c346 ea3d 02aa ca3e 2975 a8be
00000160: c095 a9bd 9586 053e 4b03 bcbd 076e 8dbe
00000170: e8f6 8fbd 62cd db3d 2f30 6dbe 83ac 4bbd
00000180: 56c5 53bd 02b3 f53d 0932 00be 7aef 32bd
00000190: fba5 c93c f74c 593e ba72 873e a2d7 6abe
000001a0: 5fe2 e7bc ee2e 15be 7f46 bebe 4328 d1bd
000001b0: 1e00 06be f6b9 babc e704 313e 76d3 cd3e
000001c0: 85db 3ebe d3a2 543e a9aa 06bd 40ee 80be
000001d0: 6a45 813e adaf 1e3e d6ad f93d 887e 6c3e
000001e0: f59f c73b c540 09be d534 273e 16bd 013e
000001f0: 0e0f 5b3e bc66 3a3d 7dcc 64be a7cb cb3d
00000200: b0a8 05be 0626 15be 4d35 523e a8dc 3f3e
00000210: 4cce aabe 7820 f5bd bad8 313e 7486 093e
00000220: 3cbf 023e 5318 103e 3b22 733e 8f7a db3d
00000230: a74b 743d fbc2 9e3e 4bc5 7e3d 98ee fa3c
00000240: 5d28 80be 0cce 973e d370 003e ee62 9dbd
00000250: 298c 73bc a538 823d ca84 3ebd 5203 aa3d
00000260: f0d5 0dbd e0cf e8be 8fac adbd 4f1b a6bd
00000270: 34cf 89be 4a20 4c3e 9573 383a 7e6c abbc
00000280: 027d 9d3e b3f7 a4bc 1a3f 6bbd af26 b5be
00000290: d84a 883e f10c 5a3d ddde b7bc 6cdb db3d
000002a0: 0103 a3bd 51fd 59be 88dd 863e 4a36 3b3e
000002b0: 87ee 333d e867 97bd 0b51 9a3d f762 8dbc
000002c0: c604 753e ae2b 393e 04f7 983e 0d17 25bd
000002d0: eebe febb 3e7e cbbe 84f5 eebc 7243 6a3d
000002e0: e816 2f3e 7a50 fe3d a694 70bb e8d3 2e3e
000002f0: 7f98 19be 0a32 4dbe b69b 33bd ead1 9e3e
00000300: 40f2 a13d c886 f23d 4956 813e 8203 523e
00000310: 25ea b33e fc0c 7b3e 91ae 24be b8c3 b33d
00000320: 6297 a3bd c654 f73d 3386 38be d775 37be
00000330: a73e 653e 64a4 f1bd 818f c43e 59ac 163d
00000340: 4f88 df3d 0509 02be f841 383e e632 07bf
00000350: e951 033e 7b53 04be 20c8 923d 1bb0 a5bd
00000360: 24bc 9ebe 5853 523e 7b10 b53b 46f6 ea3d
00000370: 30b6 d4bd d822 0e3e 9c63 4b3d 4665 14bb
00000380: 2850 f73d 0744 073e 5432 3a3e 296a 783d
00000390: f81a 833e 5564 223e c003 78bd 0ff0 0fbd
000003a0: 8a1f 1b3e 74a6 7f3e 45cb bebe f218 3d3e
000003b0: a146 1ebd aa38 89bd 453f 1abe 325d 1ebe
000003c0: 6923 873d 4a47 adbd e6ac 00bd 2804 1e3d
000003d0: 689b a43e 7ad8 5cbe fef5 a3bb 0b2c 9e3e
000003e0: a76c 0abd e8ba 9d3e 78ac 6e3e 92ff 7ebd
000003f0: f041 c9bd 35e2 d53e eb78 033e ec1f 5c3e

net.4.bias f4 [50]
0.117328726 -0.021431096 0.14696847 0.03295419 -0.111316554 -0.035725858 0.029499669 0.33244175
0.0140751805 0.19356887 0.20236622 0.079283625 0.22548504 -0.18299298 0.025557425 -0.109987095
-0.07470961 0.20256877 -0.09525989 0.2307728 0.26248485 0.084390976 -0.06373296 0.1455982
0.002780131 0.12521309 0.08166679 -0.15242095 0.098944575 -0.008446589 -0.025368929 0.015726784
0.119245835 0.06990655 0.14455399 0.04085088 0.047924392 0.007599438 -0.08023103 0.031064462
0.20218424 0.07484809 0.13103513 0.13387942 -0.048372593 0.04988092 0.110603146 0.1983347
-0.025770674 0.12903434
00000000: 0b4a f03d 4490 afbc e77e 163e f9fa 063d
00000010: eff9 e3bd 4755 12bd 4aa9 f13c ce35 aa3e
00000020: 969b 663c eb36 463e 1739 4f3e 745f a23d
00000030: 8de5 663e 8362 3bbe ce5d d13c ea40 e1bd
00000040: 5a01 99bd 306e 4f3e 9e17 c3bd b44f 6c3e
00000050: 6a64 863e 2dd5 ac3d 6d86 82bd b217 153e
00000060: dc32 363b dc37 003e eb40 a73d 3d14 1cbe
00000070: 74a3 ca3d 9063 0abc 80d2 cfbc 75d5 803c
00000080: 2937 f43d 2a2b 8f3d f605 143e 4153 273d
00000090: 5e4c 443d b504 f93b 2b50 a4bd e67a fe3c
000000a0: 6309 4f3e f549 993d 132e 063e b017 093e
000000b0: 5722 46bd f04f 4c3d e783 e23d 4018 4b3e
000000c0: 051d d3bc 9421 043e

net.6.weight f4 [50, 50]
-0.09470042 0.39591798 0.0970152 0.03574474 -0.20003021 -0.0450799 -0.052159164 0.115374014
-0.019061828 -0.2328469 -0.12541322 0.14895958 -0.1720939 0.17821446 -0.29770085 -0.11046271
0.35604995 -0.20422903 -0.111488216 -0.2985163 -0.4007978 0.12990713 0.08850477 0.16560416
-0.27392584 0.30824375 -0.031363033 0.011242252 0.07304797 0.10712373 -0.38254333 0.2673047
-0.2803527 0.26359633 -0.27899987 0.13092399 -0.032526404 -0.048233412 0.1207319 0.19799633
0.31349656 0.2681506 -0.2475004 -0.25908253 0.2725282 -0.14916913 -0.26277143 0.41004533
0.19936787 0.093662396 0.27289054 -0.07676766 0.14617719 0.24746123 0.09294237 0.03542936
0.40723357 0.29344493 -0.045508083 -0.2287846 0.06702123 0.4018538 0.1515965 0.24844417
0.039819885 0.03610106 -0.08496434 -0.16089374 0.04546854 -0.2601431 -0.06882821 0.20758268
0.052172244 -0.03271992 -0.10436046 0.00465358 -0.22578183 0.08409936 0.11068375 -0.113268994
0.285659 0.027640544 -0.33199954 0.01798744 0.066002525 -0.051083013 0.07544317 -0.013169925
-0.25715747 -0.025881678 -0.09505702 0.22803386 0.23543258 0.2472583 0.25471446 0.12144808
0.014100303 0.057191577 -0.03760303 0.13868791 -0.1207638 -0.12034121 0.011287502 0.16728342
0.097388096 0.19556132 -0.2525694 0.09289014 0.02243613 -0.10568315 0.09886489 -0.28639585
0.020080665 -0.28357562 0.1577269 -0.19401087 -0.20926987 0.22561535 -0.08745613 -0.1929559
-0.42296237 0.13185559 0.10968407 0.23423584 0.13702781 0.08668728 0.40514192 0.20220886
0.046235017 0.08293281 -0.036172453 0.1364108 0.16806805 0.13469023 -0.31530902 0.0937498
0.26727685 -0.1369299 -0.029917255 -0.20111857 0.31667325 -0.045124304 0.3556546 -0.11056544
0.17139693 0.1321355 -0.36512175 0.12013418 0.328369 0.21191598 -0.17695144 -0.2554711
-0.12622246 0.045179605 0.12801097 -0.035770558 0.10422536 0.07332442 0.2791078 0.09931402
0.15453683 -0.556232 0.23754282 -0.39068362 0.014597262 -0.0932582 0.039249882 -0.049627203
-0.101521954 0.342812 0.23854531 0.12641956 0.16049595 0.0480208 0.41159454 0.02257197
-0.094741575 -0.13675037 0.060660306 0.2095127 -0.06952813 0.13195606 0.45624986 0.118531264
-0.17321737 0.14902924 -0.048165794 -0.25022233 -0.025618471 -0.09878969 0.13677114 0.0741721
0.18300882 0.101823084 0.111825824 0.23216343 0.08085151 -0.42643908 -0.06928576 0.097406164
-0.1253572 0.14146422 -0.12702407 -0.18179066 -0.060999967 -0.20923041 0.014746832 0.026065463
0.040835872 0.058881436 0.06805733 -0.25557888 -0.02010699 0.09144796 -0.027403578 0.22490329
0.30365226 0.13178328 0.12510517 0.485474 0.46683493 -0.24726103 -0.12005157 -0.025991391
0.26719877 -0.12034455 0.069228575 -0.14465307 0.24254614 0.15978897 -0.08694258 0.22981365
0.35504803 -0.009758451 -0.049483795 0.07286036 -0.102928214 0.025431778 0.009475118 0.39814168
0.054406755 -0.27677378 -0.1371264 0.13586618 -0.13487951 -0.0021458827 0.16635078 0.17096134
-0.17368364 -0.042016175 0.076764025 0.17786238 0.0607192 0.1326079 0.053598363 0.053662892
00000000: 4bf2 c1bd c3b5 ca3e e8af c63d 1469 123d
00000010: b8d4 4cbe b4a5 38bd d9a4 55bd 3649 ec3d
00000020: 8d27 9cbc 6b6f 6ebe 536c 00be dc88 183e
00000030: 6239 30be da7d 363e 3f6c 98be 463a e2bd
00000040: 2e4c b63e 6a21 51be ef53 e4bd 21d7 98be
00000050: 5f35 cdbe 6006 053e fd41 b53d 2394 293e
00000060: 0240 8cbe 20d2 9d3e 8676 00bd 6c31 383c
00000070: 2d9a 953d b063 db3d b8dc c3be 29dc 883e
00000080: 648a 8fbe 19f6 863e 12d9 8ebe f010 063e
00000090: 683a 05bd 6690 45bd 4942 f73d 8dbf 4a3e
000000a0: 9f82 a03e 094b 893e bf70 7dbe 77a6 84be
000000b0: d188 8b3e cbbf 18be fa89 86be 76f1 d13e
000000c0: 1727 4c3e 12d2 bf3d 4fb8 8b3e 5d38 9dbd
000000d0: 79af 153e 7a66 7d3e 9258 be3d 601e 113d
000000e0: eb80 d03e 6a3e 963e af66 3abd 8346 6abe
000000f0: 6d42 893d c8bf cd3e 1d3c 1b3e 2668 7e3e
00000100: 2d1a 233d b5de 133d c901 aebd 54c1 24be
00000110: 383d 3a3d 7a31 85be cef5 8cbd 8e90 543e
00000120: 90b2 553d 5305 06bd f0ba d5bd 0f7d 983b
00000130: 5a33 67be 493c ac3d 29ae e23d 93f9 e7bd
00000140: e541 923e 6c6e e23c d8fb a9be 655a 933c
00000150: 552c 873d 6c3c 51bd f381 9a3d abc6 57bc
00000160: 25aa 83be d005 d4bc 41ad c2bd b581 693e
00000170: 3d15 713e 4831 7d3e ef69 823e c5b9 f83d
00000180: f504 673c b741 6a3d a305 1abd 3404 0e3e
00000190: 0353 f7bd 7475 f6bd 37ef 383c 584c 2b3e
000001a0: 6973 c73d 3a41 483e c750 81be 303d be3d
000001b0: facb b73c 6870 d8bd ad79 ca3d 7aa2 92be
000001c0: 3580 a43c d330 91be 2983 213e c9aa 46be
000001d0: d74a 56be b607 673e 331c b3bd 3b96 45be
000001e0: 868e d8be 2705 073e 0ba2 e03d 85db 6f3e
000001f0: 0551 0c3e 1a89 b13d c36e cf3e d70f 4f3e
00000200: ee60 3d3d add8 a93d 9129 14bd 46af 0b3e
00000210: 081a 2c3e 3cec 093e 2f70 a1be e5ff bf3d
00000220: 83d8 883e 5a37 0cbe 0815 f5bc 07f2 4dbe
00000230: ff22 a23e 43d4 38bd 5c18 b63e 2270 e2bd
00000240: ad82 2f3e 874e 073e 3df1 babe e908 f63d
00000250: fb1f a83e 8100 593e c232 35be 1ccd 82be
00000260: 7640 01be 400e 393d 4f15 033e 2684 12bd
00000270: 1b74 d53d 1d2b 963d 38e7 8e3e 2665 cb3d
00000280: e73e 1e3e 3865 0ebf 6d3e 733e af07 c8be
00000290: 5b29 6f3c 28fe bebd 7cc4 203d e545 4bbd
000002a0: beea cfbd 0e85 af3e 3945 743e 2174 013e
000002b0: 0d59 243e 75b1 443d 85bc d23e dae8 b83c
000002c0: df07 c2bd 4a08 0cbe f176 783d 7f8a 563e
000002d0: c464 8ebd 7d1f 073e 9599 e93e 85c0 f23d
000002e0: e55f 31be 1f9b 183e 7f49 45bd 241d 80be
000002f0: d4dd d1bc 4052 cabd bc0d 0c3e 8be7 973d
00000300: aa66 3b3e 9f88 d03d f004 e53d 40bc 6d3e
00000310: 7a95 a53d 3956 dabe b1e5 8dbd e27c c73d
00000320: a35d 00be ffdb 103e 9912 02be 5527 3abe
00000330: 1adb 79bd 7f40 56be b29c 713c 3d87 d53c
00000340: 8443 273d a92d 713d a461 8b3d 3cdb 82be
00000350: 6ab7 a4bc 1149 bb3d 787d e0bc 0c4d 663e
00000360: 4f78 9b3e 32f2 063e 921b 003e 0c90 f83e
00000370: fd04 ef3e ff31 7dbe 99dd f5bd e6eb d4bc
00000380: 47ce 883e 3477 f6bd b6c7 8d3d ef1f 14be
00000390: 045e 783e b89f 233e f40e b2bd 4554 6b3e
000003a0: dbc8 b53e e9e1 1fbc 85af 4abd d037 953d
000003b0: 07cc d2bd 4e56 d03c 863d 1b3c 3ad9 cb3e
000003c0: 9ed9 5e3d 4bb5 8dbe dd6a 0cbe 8120 0b3e
000003d0: db1d 0abe f0a1 0cbb dc57 2a3e 7d10 2f3e
000003e0: 20da 31be 2719 2cbd 7536 9d3d 8e21 363e
000003f0: b2b4 783d 5eca 073e f589 5b3d 9fcd 5b3d

net.6.bias f4 [50]
0.23502098 0.15454227 -0.14432336 -0.031834874 0.14046358 0.03083886 0.036013436 -0.21710183
0.051781226 0.050897293 0.08895429 -0.05924517 -0.10325869 0.15849036 0.122087575 0.026064571
0.09415411 -0.123820335 0.18527944 0.031383913 0.072254874 0.11008664 0.0032296658 -0.13964182
-0.15610012 0.046937227 -0.001211991 -0.05213155 -0.026293095 -0.06970111 -0.13291113 -0.06592948
-0.058242697 -0.034484662 -0.018234992 -0.08227562 0.26789132 0.15491183 0.14618671 0.23786466
0.1142362 -0.12161002 -0.083200596 -0.02067427 -0.09171716 0.07789502 0.265145 -0.04533966
-0.063255206 0.20138809
00000000: 57a9 703e 5440 1e3e 81c9 13be 4965 02bd
00000010: afd5 0f3e c7a1 fc3c d382 133d f14f 5ebe
00000020: 8d18 543d ae79 503d ab2d b63d 10ab 72bd
00000030: 4b79 d3bd 4c4b 223e 0d09 fa3d 5e85 d53c
00000040: dfd3 c03d 8495 fdbd e5b9 3d3e 6b8c 003d
00000050: 5dfa 933d 1b75 e13d cda8 533b 44fe 0ebe
00000060: b6d8 1fbe 4041 403d abdb 9eba e487 55bd
00000070: 9e64 d7bc 75bf 8ebd db19 08be 0906 87bd
00000080: e58f 6ebd ca3f 0dbd 8d61 95bc 1f80 a8bd
00000090: 0d29 893e 35a1 1e3e f8b1 153e cb92 733e
000000a0: abf4 e93d ad0e f9bd 1365 aabd 165d a9bc
000000b0: 35d6 bbbd 6d87 9f3d 16c1 873e 14b6 39bd
000000c0: f28b 81bd ae38 4e3e

net.8.weight f4 [10, 50]
0.36974987 0.068976134 0.2209639 -0.2592063 -0.56691194 0.041226774 -0.35012963 0.025000663
0.30759805 -0.09423096 0.02679246 -0.027691526 -0.039363142 -0.34688193 -0.21266356 0.09404942
-0.30748126 -0.13162759 0.020985313 0.104943134 -0.26496655 0.0024842531 0.20105162 -0.106934465
-0.15102205 -0.12967536 -0.16470166 -0.29281965 0.0141695775 -0.120349474 0.04859443 0.08838644
-0.07797708 -0.2982661 0.19451876 -0.18307042 -0.2334498 0.23725584 -0.04119966 -0.30973613
-0.2389239 -0.07993277 0.030347088 0.08860831 -0.121525146 -0.21094328 0.08016126 0.10259445
-0.0040045185 -0.10276891 -2.179305e-05 0.15788464 -0.45964587 -0.2502839 0.08127055 0.31718516
0.14453056 -0.11641624 0.15071517 -0.09836055 -0.37210727 0.18149848 -0.26166573 0.15577787
-0.39104176 -0.46793804 0.07487109 0.118065 -0.5828978 -0.05196605 -0.025652107 -0.22636755
0.10490318 0.13773562 0.10188426 0.017545562 -0.029296542 -0.2630348 -0.015223708 -0.10844696
-0.009658942 -0.31976917 -0.40762648 0.20011975 -0.46410376 0.2589679 -0.21413305 -0.18659875
0.20390485 -0.100108124 0.23154388 -0.11490501 0.26207668 0.10289333 -0.07779084 0.644767
-0.0999979 -0.07821462 0.13381666 -0.048549097 0.06894515 -0.111346975 -0.011531208 -0.19394341
-0.20025742 0.09456074 0.061971117 -0.1062609 0.030121727 0.06777061 -0.4484959 -0.1362261
0.0017425476 -0.100753956 0.24005467 -0.1641409 -0.24227467 0.100625806 -0.09580538 -0.3203521
0.04229964 -0.003924024 0.23884788 -0.08210891 -0.070249304 -0.35977727 -0.036858443 0.11444206
0.057404403 -0.09494055 0.0026872694 -0.010745644 0.29136142 -0.45549622 0.085658535 0.30891484
0.23978901 0.19470239 0.07523132 -0.23477815 0.19253202 -0.39157692 -0.23314135 -0.11814997
-0.09141379 -0.50983495 0.2945707 0.03873675 0.10604849 -0.18489021 -0.13829069 -0.25900453
-0.014936785 0.18145175 0.25225884 0.04953617 0.25244802 0.2098595 -0.16984057 -0.013461922
0.07275637 -0.25235525 -0.20535168 0.08680724 -0.43632397 0.035130467 -0.100513875 0.008574467
-0.21581495 0.08423631 0.22352843 0.06619506 -0.13406819 0.025562435 0.070816256 -0.58205366
0.120752 0.24710327 0.058249753 0.009487745 -0.049154803 -0.0084739225 0.23122065 -0.12259239
0.11813541 0.19353755 -0.23948047 -0.07868893 0.017238397 0.100581415 0.03131531 -0.103197336
0.10889074 -0.18901645 -0.058377914 -0.8871703 -0.32229868 0.12889189 -0.26480418 -0.12375069
0.14606944 0.14971724 0.15261024 0.31123868 -0.52436054 -0.24467412 -0.029841682 -0.6781157
-0.26764292 -0.04897328 0.10302118 -0.4481206 -0.11200901 -0.005807055 0.26154202 -0.13553503
0.27449122 -0.11255707 -0.32868946 -0.4005852 -0.5602814 0.18613376 -0.3876029 0.067141786
0.01787904 -0.053099275 -0.09934731 -0.6528355 -0.47991973 -0.10051575 0.027599134 0.038249202
-0.1741794 0.17818719 -0.08006947 0.21489678 0.21342692 0.22175281 0.08208792 0.29364774
-0.32109016 0.20921795 -0.35138944 -0.24896863 0.01495064 0.18055838 0.02132567 -0.10835165
-0.28283328 0.056396004 -0.05837221 -0.15626876 -0.07051956 0.16298564 0.39741138 -0.042675138
00000000: db4f bd3e 5c43 8d3d 5c44 623e b0b6 84be
00000010: 2421 11bf 68dd 283d 3144 b3be 31ce cc3c
00000020: 7e7d 9d3e 29fc c0bd dc7b db3c 57d9 e2bc
00000030: 3f3b 21bd 829a b1be 7ac4 59be fb9c c03d
00000040: 2f6e 9dbe 62c9 06be 64e9 ab3c 6dec d63d
00000050: b2a9 87be dace 223b 7ae0 4d3e 7500 dbbd
00000060: 86a5 1abe 9ec9 04be 8da7 28be 75ec 95be
00000070: 8427 683c c979 f6bd f40a 473d f303 b53d
00000080: 73b2 9fbd 56b6 98be ed2f 473e d076 3bbe
00000090: 770d 6fbe 32f3 723e fac0 28bd bc95 9ebe
000000a0: 78a8 74be cbb3 a3bd 759a f83c 4678 b53d
000000b0: 2de2 f8bd 8401 58be 962b a43d 0a1d d23d
000000c0: 5638 83bb 8278 d2bd 38d0 b6b7 83ac 213e
000000d0: b456 ebbe 3625 80be 2d71 a63d 1866 a23e
000000e0: d2ff 133e a36b eebd 1455 1a3e 4271 c9bd
000000f0: d884 bebe bdda 393e 0df9 85be 3c84 1f3e
00000100: a036 c8be 9395 efbe 0456 993d 10cc f13d
00000110: ca38 15bf 5ada 54bd 5e24 d2bc e5cc 67be
00000120: 7ad7 d63d 910a 0d3e b2a8 d03d b6bb 8f3c
00000130: 4dff efbc 7fac 86be dc6c 79bc 7119 debd
00000140: 8a40 1ebc c9b8 a3be 6bb4 d0be 31ec 4c3e
00000150: 029f edbe 7197 843e b245 5bbe be13 3fbe
00000160: 6fcc 503e 7d05 cdbd d719 6d3e 5153 ebbd
00000170: ea2e 863e bdb9 d23d ce50 9fbd 730f 253f
00000180: b3cb ccbd fd2e a0bd 3c07 093e 6bdb 46bd
00000190: 1d33 8d3d e209 e4bd 64ed 3cbc 1a99 46be
000001a0: 4810 4dbe 10a9 c13d 6dd5 7d3d 519f d9bd
000001b0: d7c1 f63c 51cb 8a3d 41a1 e5be db7e 0bbe
000001c0: 3266 e43a 1758 cebd e4d0 753e 8d14 28be
000001d0: da16 78be e714 ce3d 9c35 c4bd 3105 a4be
000001e0: 6342 2d3d 1995 80bb 8a94 743e b728 a8bd
000001f0: dede 8fbd ba34 b8be e1f8 16bd 9960 ea3d
00000200: e120 6b3d 3170 c2bd e61c 303b 7f0e 30bc
00000210: 532d 953e cd36 e9be be6d af3d 162a 9e3e
00000220: 408b 753e 1060 473e e112 9a3d af69 70be
00000230: 1d27 453e c57c c8be 9bbc 6ebe 9df8 f1bd
00000240: 2737 bbbd 8b84 02bf f9d1 963e 6daa 1e3d
00000250: f32f d93d dc53 3dbe 139c 0dbe 3e9c 84be
00000260: 6bb9 74bc 7dce 393e 1228 813e 70e6 4a3d
00000270: de40 813e 69e5 563e b0ea 2dbe 658f 5cbc
00000280: 4b01 953d b534 81be b647 52be ffc7 b13d
00000290: db65 dfbe f7e4 0f3d 38da cdbd ec7b 0c3c
000002a0: 98fe 5cbe 1684 ac3d a3e4 643e 4791 873d
000002b0: 2c49 09be 5068 d13c 1d08 913d 7801 15bf
000002c0: d34c f73d a408 7d3e 4b97 6e3d 7d72 1b3c
000002d0: 8c56 49bd 35d6 0abc 1bc5 6c3e b811 fbbd
000002e0: faf0 f13d b52e 463e 5e3a 75be a927 a1bd
000002f0: 8a37 8d3c a1fd cd3d 7c44 003d 2059 d3bd
00000300: 1c02 df3d 878d 41be ae1d 6fbd 981d 63bf
00000310: 5504 a5be 3cfc 033e 6a94 87be 0071 fdbd
00000320: 3a93 153e 7a4f 193e dc45 1c3e ad5a 9f3e
00000330: 7e3c 06bf da8b 7abe 8b76 f4bc fe98 2dbf
00000340: 7e08 89be 3598 48bd c5fc d23d 1070 e5be
00000350: fb64 e5bd 1c49 bebb d6e8 853e b2c9 0abe
00000360: 1d8a 8c3e 5284 e6bd fc49 a8be 8119 cdbe
00000370: 9a6e 0fbf d999 3e3e e373 c6be a281 893d
00000380: 1177 923c a07e 59bd 9a76 cbbd 3a20 27bf
00000390: 0ab8 f5be 34db cdbd 9417 e23c 32ab 1c3d
000003a0: 165c 32be b476 363e 76fb a3bd e70d 5c3e
000003b0: 968c 5a3e 2b13 633e b61d a83d ff58 963e
000003c0: ee65 a4be 3b3d 563e 51e9 b3be a2f1 7ebe
000003d0: 87f3 743c 4ce4 383e 2cb3 ae3c 78e7 ddbd
000003e0: 86cf 90be 7fff 663d b317 6fbd eb04 20be
000003f0: 8f6c 90bd b5e5 263e 8179 cb3e 20cc 2ebd

net.8.bias f4 [10]
0.052736863 0.11423767 0.16006738 -0.14910334 0.009726252 0.15331191 -0.15644775 -0.07616418
0.04486679 -0.1365137
00000000: 9c02 583d 71f5 e93d b4e8 233e 8cae 18be
00000010: dc5a 1f3c ccfd 1c3e d733 20be f7fb 9bbd
00000020: 3dc6 373d 3fca 0bbe
