data/models/mnist/mnist_50x2.pth (torch, 172345 bytes, 6 tensors)

net.0.weight f4 [50, 784]
0.01195636 -0.022814019 0.03173288 0.026682736 0.014500329 0.02067606 0.022766476 0.027676681
0.014489455 0.030087523 -0.01895171 -0.0152378725 0.005031293 0.042549636 0.08355592 -0.012881442
0.02905427 0.034364536 0.015307457 -0.028635236 -0.03180918 0.012536841 -0.033294737 0.017586386
-0.002011014 0.003142012 0.028424755 0.014673668 -0.015077208 0.028337216 0.03271429 0.0024293917
-0.052167732 -0.030524177 0.00013639043 0.023931228 0.05812557 0.07445657 -0.22081262 -0.008813292
-0.022181211 0.32544896 0.13926563 -0.015496245 0.09451109 0.14864242 -0.34680712 -0.3399209
-0.34554696 -0.18582027 -0.117316514 0.013127786 0.024884595 -0.016406324 -0.015624213 0.029816255
-0.002236328 -0.0011108263 -0.011294126 0.30324927 0.31730598 -0.12935127 -0.021483941 0.045007672
-0.34043306 -0.27259958 0.15278529 0.32773486 0.45453027 0.4043522 0.17287491 -0.1017954
-0.05927375 -0.21141934 -0.15936238 -0.40792647 -0.66745514 -0.63439685 -0.6106548 -0.50905395
-0.09828211 0.031253226 -0.014503863 -0.034384347 0.017153293 -0.028160157 0.14263843 0.29823896
-0.12979996 -0.10477131 0.0075216033 -0.027767481 0.33500275 0.16297393 0.34046614 0.09894961
0.12334272 0.12338477 0.20226505 0.12292554 0.1333796 0.12907359 -0.051969036 -0.14798734
0.13812606 -0.152996 -0.14998901 -0.051624853 0.12862672 0.10785832 -0.06333954 -0.023638867
-0.028141279 0.039900336 0.13256598 0.121442035 -0.25452155 0.08153141 0.022872506 0.29237846
0.24955249 0.13037865 0.060240597 0.16982818 0.18478887 0.2337217 0.17722379 0.084206015
0.04942271 0.049512535 0.11420922 -0.0126381 0.036888715 -0.2247708 -0.07026661 -0.2735043
-0.17040823 -0.005595722 0.21068257 -0.31120586 0.032212246 0.0066649406 -0.18197243 0.09020926
-0.19199698 -0.073290855 -0.1503229 0.18334465 0.15180948 -0.0837679 0.0010218533 0.14975472
0.18637222 0.18930164 0.05192205 0.010902439 0.050610617 0.03316075 0.12264141 0.1962105
0.043269444 0.029856235 -0.12154645 -0.27039245 -0.3381162 -0.16011013 -0.06339002 -0.36940542
0.020595513 0.14426777 -0.095383085 0.29738656 0.029884351 0.20631714 -0.11510299 -0.04480806
0.056293108 0.0376995 0.0038183874 -0.12086274 -0.24666385 -0.12118602 0.046252776 0.05475679
0.1261301 0.244114 0.3145979 0.26129726 0.23033518 0.37203422 0.015825626 0.10400558
-0.11720641 -0.087781675 0.1008706 -0.334143 -0.009045442 0.49942133 -0.0023253781 -0.13029774
-0.18833935 -0.073939934 -0.02358907 -0.026109003 -0.050375916 -0.23234 -0.14392954 -0.2921583
-0.11918306 -0.0214681 0.009592378 0.19996573 0.16154271 0.18563522 0.317189 0.3449014
0.21581434 0.2226772 0.13983378 0.34064195 -0.0497561 0.049627937 0.22219874 -0.36880228
-0.01080836 0.29939356 0.13535443 0.27473396 -0.049098957 0.17332101 -0.05403515 -0.1338039
-0.10693111 -0.26694673 -0.08345407 -0.08910586 -0.017835949 0.07092749 0.08186557 0.15632056
0.21102293 0.15732308 0.24129689 0.25789785 0.24346069 0.20441294 0.24722615 0.21979655
0.032639075 0.015917733 0.22481759 0.23091343 0.13479008 0.32529595 0.15931448 0.40892938
00000000: 9ce4 433c 77e4 babc 56fa 013d c195 da3c
00000010: ca92 6d3c d760 a93c c380 ba3c 35ba e23c
00000020: 2e65 6d3c 1c7a f63c 9e40 9bbc 45a8 79bc
00000030: 8bdd a43b 8748 2e3d 5e1f ab3d af0c 53bc
00000040: 3803 ee3c d4c1 0c3d 21cc 7a3c 7194 eabc
00000050: 584a 02bd 5367 4d3c 1060 08bd 5311 903c
00000060: 37cb 03bb 37ea 4d3b 08db e83c d369 703c
00000070: 6506 77bc 7323 e83c 6bff 053d 6e36 1f3b
00000080: d5ad 55bd d70d fabc 0704 0f39 6c0b c43c
00000090: 1415 6e3d b07c 983d b41c 62be a065 10bc
000000a0: 5fb5 b5bc 3fa1 a63e a69b 0e3e f6e3 7dbc
000000b0: 088f c13d b835 183e b490 b1be 1d0a aebe
000000c0: 88eb b0be ab47 3ebe a443 f0bd ed15 573c
000000d0: c7da cb3c 8e66 86bc b3fc 7fbc 3841 f43c
000000e0: 5c8f 12bb 2599 91ba ff0a 39bc 7d43 9b3e
000000f0: ee75 a23e a974 04be 17ff afbc f759 383d
00000100: 3e4d aebe 2c92 8bbe bf73 1c3e ddcc a73e
00000110: 31b8 e83e 4007 cf3e 1f06 313e 1b7a d0bd
00000120: 08c9 72bd 507e 58be e42f 23be bddb d0be
00000130: 57de 2abf d567 22bf df53 1cbf 5c51 02bf
00000140: 2248 c9bd 6203 003d 9ca1 6dbc 9ad6 0cbd
00000150: 1085 8c3c 21b0 e6bc cf0f 123e c7b2 983e
00000160: 48ea 04be 5792 d6bd c877 f63b a178 e3bc
00000170: 7b85 ab3e a3e2 263e 9451 ae3e 18a6 ca3d
00000180: 1c9b fc3d 27b1 fc3d 921e 4f3e 63c0 fb3d
00000190: a994 083e de2b 043e 7cdd 54bd fe89 17be
000001a0: eb70 0d3e fcaa 1cbe b896 19be 9574 53bd
000001b0: b9b6 033e d3e4 dc3d 29b8 81bd 4ca6 c1bc
000001c0: 8a88 e6bc 896e 233d 60bf 073e 9ab6 f83d
000001d0: a650 82be f1f9 a63d 1f5f bb3c a1b2 953e
000001e0: b08a 7f3e fb81 053e d8be 763d 70e7 2d3e
000001f0: 4b39 3d3e be54 6f3e 277a 353e 3474 ac3d
00000200: 786f 4a3d a8cd 4a3d 86e6 e93d 0910 4fbc
00000210: 9f18 173d 512a 66be f1e7 8fbd c108 8cbe
00000220: 7f7f 2ebe 515c b7bb 2cbd 573e 6056 9fbe
00000230: fdf0 033d 9365 da3b fb56 3abe a2bf b83d
00000240: db9a 44be 8419 96bd 3fee 19be b3be 3b3e
00000250: f273 1b3e 818e abbd b5ef 853a 4d59 193e
00000260: 5cd8 3e3e 4ad8 413e 37ac 543d 25a0 323c
00000270: 144d 4f3d 91d3 073d 6b2b fb3d 68eb 483e
00000280: 4d3b 313d 1095 f43c 58ed f8bd e170 8abe
00000290: 911d adbe e9f3 23be a0d2 81bd b522 bdbe
000002a0: ecb7 a83c eeba 133e 3558 c3bd 0d43 983e
000002b0: 07d0 f43c cd44 533e 1ebb ebbd a888 37bd
000002c0: 9a93 663d ca6a 1a3d e93d 7a3b e286 f7bd
000002d0: 7395 7cbe 6030 f8bd 8d73 3d3d a848 603d
000002e0: 4028 013e 05f9 793e fa12 a13e c1c8 853e
000002f0: fcdc 6b3e 457b be3e bea4 813c e100 d53d
00000300: ea09 f0bd e1c6 b3bd 3f95 ce3d cb14 abbe
00000310: 5533 14bc 27b4 ff3e 5f65 18bb c56c 05be
00000320: 08dc 40be d26d 97bd de3d c1bc 8ce2 d5bc
00000330: fa56 4ebd 89ea 6dbe 4462 13be c695 95be
00000340: 4016 f4bd dedd afbc 5929 1d3c d1c3 4c3e
00000350: 746b 253e 2917 3e3e 9966 a23e eb96 b03e
00000360: 6ffe 5c3e 7e05 643e 9630 0f3e 9f68 ae3e
00000370: 0dcd 4bbd aa46 4b3d 1188 633e a7d3 bcbe
00000380: 8c15 31bc 1d4a 993e 5a9a 0a3e eea9 8c3e
00000390: fd1b 49bd 107b 313e f653 5dbd e403 09be
000003a0: b3fe dabd 3ead 88be f8e9 aabd 227d b6bd
000003b0: b21c 92bc 6f42 913d 23a9 a73d 7f12 203e
000003c0: 6516 583e 4d19 213e 8816 773e 300b 843e
000003d0: c24d 793e a051 513e da28 7d3e 5912 613e
000003e0: 8db0 053d e865 823c 9536 663e 9274 6c3e
000003f0: 6906 0a3e 318d a63e 5623 233e 315f d13e

net.0.bias f4 [50]
-0.087499194 0.27227226 -0.14934732 0.20979235 0.07416009 -0.2646176 0.10864034 -0.005811057
0.12779832 0.06948725 0.12780105 0.048586093 0.006153339 -0.016359938 0.16726074 -0.028791996
-0.024598718 0.18640828 0.22895506 0.19321677 -0.16293938 0.21441111 0.21649478 0.06051768
-0.019630792 0.1586417 -0.12020348 0.15961143 0.24456233 0.05823051 0.009799747 0.12337932
0.16456321 0.11510885 -0.14915569 -0.07130437 0.03299199 0.14780018 -0.042445116 0.15665756
-0.17240418 -0.16894501 0.16083013 0.059512906 -0.06372173 0.040723495 -0.001771053 -0.09010587
0.12833236 0.024526706
00000000: c732 b3bd 4567 8b3e 81ee 18be ced3 563e
00000010: 3fe1 973d f57b 87be d47e de3d ae6a bebb
00000020: 90dd 023e 554f 8e3d 47de 023e 3602 473d
00000030: f3a1 c93b 4705 86bc 6646 2b3e 31dd ebbc
00000040: 4083 c9bc d0e1 3e3e 3273 6a3e 9eda 453e
00000050: 95d9 26be 968e 5b3e cfb0 5d3e 63e1 773d
00000060: c1d0 a0bc f872 223e 3e2d f6bd 2e71 233e
00000070: 8c6e 7a3e 1e83 6e3d 1e8f 203c 4cae fc3d
00000080: 4283 283e 30be eb3d 45bc 18be 0708 92bd
00000090: 9c22 073d ee58 173e eeda 2dbd d76a 203e
000000a0: b98a 30be ecff 2cbe a7b0 243e cec3 733d
000000b0: 8a80 82bd aecd 263d ad22 e8ba 6d89 b8bd
000000c0: 8f69 033e 3bec c83c

net.2.weight f4 [50, 50]
-0.010680647 0.25239292 -0.065131955 0.17052928 0.024460677 -0.23433028 0.48649153 0.17254297
0.21009652 -0.02740028 -0.24965361 0.048869547 -0.16474846 -0.12566693 0.30825275 -0.37859315
-0.16401625 0.34242973 0.14125465 0.4168875 0.019993259 -0.06640199 0.08824384 0.21742967
0.18919456 -0.3434259 -0.14496773 -0.11832507 0.100045085 0.17269857 -0.07262424 -0.21428011
-0.073446855 0.02648057 0.21700613 0.10308494 0.25233853 0.061437074 0.14908461 -0.20687395
-0.4720318 0.18490928 0.038349904 0.059172124 -0.06842963 -0.23476712 -0.33751205 0.02830016
-0.07928748 -0.16335662 -0.0327715 -0.024979718 -0.093748026 0.26374123 -0.49035516 0.30300316
-0.060008414 -0.015810762 0.045294985 -0.21675791 0.12502548 0.28060254 -0.19682384 0.10251015
-0.22369084 0.081979096 -0.30887955 -0.027161293 -0.23999248 -0.33680996 -0.29088494 -0.19477278
0.107452594 -0.32740635 0.29069918 0.20586157 -0.027315078 -0.18577665 0.10666096 -0.006461019
-0.12617192 -0.08748732 0.085170776 -0.14287989 0.11802742 0.052857056 -0.4996381 -0.13427092
-0.11026136 0.08184364 -0.2883107 -0.08685811 0.10226658 0.14171574 -0.039074842 0.030693771
0.03137678 0.15435614 -0.09974544 0.25138724 0.12920897 -0.10036505 0.45353812 0.14860132
-0.4966005 0.1990809 -0.30950373 0.18147512 -0.14504953 0.22933891 0.57344353 -0.019016242
0.07725073 -0.28275597 0.111575246 0.07213582 0.11280599 0.07748277 -0.03152387 -0.3730703
-0.05031501 -0.25052124 -0.017903846 -0.61759794 -0.16025141 0.5051816 0.31126782 0.20414434
0.060621206 0.10526738 0.123832636 0.303875 0.13216932 -0.22920625 0.08308353 0.25884062
0.041273184 -0.0003235062 0.28403926 0.2800394 0.25872773 -0.24886027 0.11039458 0.03955096
0.24241316 0.1772153 0.19808215 0.075879134 -0.17520826 0.24690543 -0.087051086 0.043332614
0.46959367 0.02136259 -0.037175305 0.22832519 -0.06755394 -0.34925413 -0.009522288 -0.2650691
0.2657143 0.29739705 -0.7902623 0.021951804 0.51602364 0.24895574 0.011859069 0.007677249
0.2957728 0.05901578 -0.14877301 -0.33887106 -0.0062292395 -0.4067711 0.14327346 0.31397545
-0.12015795 -0.09112506 0.15652843 0.020845726 0.55232835 0.080700636 -0.04717865 -0.25283775
0.1484754 0.2020561 0.007873683 -0.23749875 0.15793435 -0.02746379 -0.39195392 0.16421272
-0.067778714 0.37307054 0.22582102 -0.006760929 0.13250062 -0.10557754 -0.3880048 0.25349444
-0.09195892 -0.09494139 0.1099074 -0.07504477 0.10774505 -0.008811679 -0.087509215 -0.09676091
-0.1333767 -0.03143495 -0.058483303 -0.13939548 0.043081608 -0.0006462662 -0.082484506 -0.12739314
-0.12895904 0.034354202 -0.12790753 0.061144616 -0.07436253 0.043494888 -0.0061218166 0.05666186
0.0052822195 -0.01910779 0.10232797 -0.14532463 -0.050381355 0.114571676 0.010148578 -0.10613613
0.044713233 0.0431641 0.04995158 0.06344814 -0.13459711 -0.06714406 -0.04203839 -0.11194019
-0.015671233 0.08803419 -0.06659703 -0.07165871 0.009426194 -0.028747827 0.015511649 0.03736941
-0.058127616 0.027548453 -0.4551354 0.0940196 0.14419882 0.29490522 0.758366 0.47029862
00000000: e1fd 2ebc a539 813e e763 85bd 3a9f 2e3e
00000010: c261 c83c 47f4 6fbe 6b15 f93e 1baf 303e
00000020: 8b23 573e 8d76 e0bc 32a5 7fbe 6f2b 483d
00000030: d2b3 28be d5ae 00be 4ed3 9d3e f6d6 c1be
00000040: e0f3 27be f352 af3e 0fa5 103e 4772 d53e
00000050: e7c8 a33c c4fd 87bd 30b9 b43d e2a5 5e3e
00000060: 38bc 413e 85d5 afbe 6c72 14be 6a54 f2bd
00000070: 70e4 cc3d e5d7 303e 04bc 94bd 3f6c 5bbe
00000080: 4e6b 96bd c8ed d83c db36 5e3e 321e d33d
00000090: 8432 813e 71a5 7b3d a3a9 183e c4d6 53be
000000a0: 27ae f1be dc58 3d3e ca14 1d3d 785e 723d
000000b0: d524 8cbd cb66 70be 61ce acbe bdd5 e73c
000000c0: 7961 a2bd f546 27be 693b 06bd 44a2 ccbc
000000d0: f7fe bfbd 1709 873e d50f fbbe 3b23 9b3e
000000e0: 62cb 75bd 9285 81bc 3c87 393d c9f5 5dbe
000000f0: ae06 003e 23ab 8f3e 308c 49be d7f0 d13d
00000100: 360f 65be a8e4 a73d 7625 9ebe 5c81 debc
00000110: 97c0 75be 5b72 acbe dfee 94be 8472 47be
00000120: 1b10 dc3d cea1 a7be 86d6 943e 60cd 523e
00000130: dfc3 dfbc 3c3c 3ebe 1071 da3d f5b6 d3bb
00000140: 3633 01be 8d2c b3bd 046e ae3d 1b4f 12be
00000150: 5cb8 f13d a480 583d 91d0 ffbe 517e 09be
00000160: b5d0 e1bd a39d a73d 769d 93be aae2 b1bd
00000170: 2471 d13d ee1d 113e f10c 20bd 8171 fb3c
00000180: f084 003d 890f 1e3e 5647 ccbd d4b5 803e
00000190: 5b4f 043e 318c cdbd 2636 e83e f22a 183e
000001a0: 6c42 febe dddb 4b3e 4677 9ebe 9dd4 393e
000001b0: dd87 14be d2d7 6a3e 32cd 123f f3c7 9bbc
000001c0: a135 9e3d 64c5 90be 9081 e43d f2bb 933d
000001d0: d406 e73d 49af 9e3d 2c1f 01bd 1203 bfbe
000001e0: 1d17 4ebd 5244 80be 16ab 92bc e61a 1ebf
000001f0: f218 24be 9553 013f 7f5e 9f3e 370b 513e
00000200: f14d 783d 6d96 d73d f79b fd3d 8195 9b3e
00000210: 6557 073e 0bb5 6abe b327 aa3d c286 843e
00000220: 120e 293d 449c a9b9 986d 913e 5361 8f3e
00000230: f677 843e 3ad5 7ebe 8e16 e23d 3000 223d
00000240: 283b 783e ed77 353e 0cd6 4a3e 8566 9b3d
00000250: cb69 33be c7d4 7c3e d747 b2bd 8a7d 313d
00000260: 956e f03e 9900 af3c 2245 18bd 14ce 693e
00000270: b859 8abd 70d1 b2be 5f03 1cbc 23b7 87be
00000280: b40b 883e 6d44 983e a14e 4abf 45d4 b33c
00000290: 201a 043f 41ee 7e3e 8a4c 423c 6f91 fb3b
000002a0: 886f 973e 88ba 713d f457 18be 8280 adbe
000002b0: a61e ccbb 4d44 d0be 47b6 123e 64c1 a03e
000002c0: 5f15 f6bd c79f babd fd48 203e a8c4 aa3c
000002d0: 6465 0d3f 6046 a53d 663e 41bd f373 81be
000002e0: ef09 183e cbe7 4e3e 9f00 013c df32 73be
000002f0: 8bb9 213e befb e0bc 2fae c8be 6127 283e
00000300: 91cf 8abd 1a03 bf3e a03d 673e c88a ddbb
00000310: 3eae 073e 0a39 d8bd 91a8 c6be 06ca 813e
00000320: f554 bcbd a270 c2bd 2217 e13d 13b1 99bd
00000330: 70a9 dc3d dc5e 10bc 0838 b3bd 952a c6bd
00000340: e793 08be efc1 00bd 308c 6fbd b0bd 0ebe
00000350: 5776 303d 316a 29ba a3ed a8bd 5973 02be
00000360: d70d 04be feb6 0c3d 31fa 02be c772 7a3d
00000370: 624b 98bd b227 323d 8599 c8bb 4416 683d
00000380: 7816 ad3b f187 9cbc 5491 d13d fbcf 14be
00000390: ae5c 4ebd 8ea4 ea3d 3946 263c e65d d9bd
000003a0: 3925 373d d7cc 303d 079a 4c3d 19f1 813d
000003b0: d3d3 09be d382 89bd 7230 2cbd e640 e5bd
000003c0: f560 80bc 454b b43d 0664 88bd cdc1 92bd
000003d0: 5370 1a3c 9080 ebbc 9224 7e3c ab10 193d
000003e0: 3917 6ebd 4bad e13c 8207 e9be 598d c03d
000003f0: dba8 133e d1fd 963e 4624 423f fbca f03e

net.2.bias f4 [50]
-0.023931308 0.09393406 0.073799185 -0.087811194 0.010242956 0.20824353 0.19798739 0.31061265
0.00039445967 -0.022562236 0.090672985 -0.16568534 -0.066226915 0.20883851 0.035451237 -0.05859161
0.23954098 0.17552972 0.3196228 0.18723382 0.2728802 0.17166673 -0.075278506 0.07045247
-0.13424149 0.024020571 0.2666528 -0.05856275 -0.15792592 0.022409221 0.07334392 0.11857376
0.07769847 0.10755019 0.16055074 -0.20756224 0.015006491 0.109422654 0.18564704 0.23713364
0.26545408 -0.12249107 -0.04413797 0.04368631 0.050972946 -0.27110934 -0.11931613 -0.05511327
-0.055227555 -0.20171663
00000000: 970b c4bc 8060 c03d 0724 973d 5bd6 b3bd
00000010: 12d2 273c cb3d 553e 35bd 4a3e 9f08 9f3e
00000020: 7bcf ce39 70d4 b8bc c2b2 b93d 6ba9 29be
00000030: faa1 87bd c3d9 553e 5135 113d c2fd 6fbd
00000040: 3b4a 753e 10be 333e 9aa5 a33e 39ba 3f3e
00000050: f4b6 8b3e 67c9 2f3e 9e2b 9abd 6249 903d
00000060: 9a76 09be cac6 c43c b786 883e 7fdf 6fbd
00000070: 55b7 21be 8b93 b73c 5635 963d cdd6 f23d
00000080: 6020 9f3d 4643 dc3d 6a67 243e 328b 54be
00000090: c9dd 753c fc18 e03d 421a 3e3e 29d3 723e
000000a0: 99e9 873e 99dc fabd 04ca 34bd 6bf0 323d
000000b0: 02c9 503d d8ce 8abe 045c f4bd 74be 61bd
000000c0: 4a36 62bd ce8e 4ebe

net.4.weight f4 [10, 50]
0.19848266 0.16142632 0.24024233 0.4523267 -0.019570004 0.03760686 0.028402943 0.3906178
0.15534809 0.1530315 -0.087084256 0.3007403 -0.38606554 0.23700033 0.1106434 -0.08557524
-0.5121386 -0.34951353 0.14609528 0.2855749 -0.7623576 -0.023895917 -0.08225384 0.18536435
-0.091249146 -0.2728481 -0.21082516 -0.30463338 -0.5886683 -0.27963826 0.0641209 -0.8680282
0.41839296 -0.5580962 0.1386242 0.44473404 0.08152905 -0.3376111 -0.39291638 -0.43683264
0.21348037 0.00680088 0.4556454 -0.25519252 -0.57082266 -0.22276382 0.115566865 -1.1915609
-0.1112888 0.24969938 -0.2875489 -0.18282026 -0.26007542 -0.28845397 -0.06403596 -0.035138268
-0.4264908 -0.4185229 -0.18545827 -0.60888034 -0.6564923 0.32858542 0.47554812 -0.38604373
0.4649667 0.23290013 -0.018567685 0.09154749 -0.68055516 -0.37874445 0.1585467 0.2739375
-0.41696084 -0.5757321 -0.08447114 0.28992322 0.4082353 -0.13868065 0.28225264 0.28910977
-0.45016813 -0.7909099 -0.358293 0.8845891 0.12091698 0.6322408 -0.049328744 -0.1424081
0.023729444 -0.06765372 0.09325496 0.19406968 0.52497464 0.24227369 -0.09869891 -0.41670525
0.36335325 -0.15507713 -0.1391007 -0.05405857 -0.39683464 -0.51656646 0.36114812 0.17066991
-0.049216054 0.4785809 -0.18270935 0.12439615 0.4092456 0.081339225 0.40820432 -0.19540048
0.51286495 -0.067228384 -0.6029048 0.12357802 -0.6787802 -0.0089881895 0.28584254 0.0967765
0.16863145 0.049236923 -0.10542012 -0.80987424 0.06442515 -0.8627367 0.30137658 -0.40399045
0.16097477 0.22767708 0.12707524 0.5750751 0.24184911 -0.005562127 -0.28580526 0.09151477
-0.1706713 0.2589451 -0.5516602 0.5362886 -0.1014344 0.21244736 -0.124086715 0.15521377
-0.33433947 0.06258471 0.12623312 0.524768 -0.25983524 0.28344753 -0.46501938 0.35971272
0.3018812 -0.20224626 -0.021664964 -0.58161026 -0.079391606 -0.508996 0.3217378 0.1125267
-0.28837672 0.105735466 -0.6329318 -0.13223858 -0.6790179 0.48217633 0.0062120855 0.14503399
-0.1473752 -0.11237042 -0.13771665 0.027885575 -0.35472697 0.14146312 0.0040246025 -0.012812806
-0.8557814 0.4001136 -0.12513503 0.25268382 0.19021139 0.0052900272 -0.21473177 -0.36923957
-0.16134973 -0.1656825 -0.5170297 -0.72834754 0.35813227 -0.77286553 -0.83991927 -0.013199294
-0.23993441 0.15062775 0.064594805 0.3692894 -0.16785339 -0.18332238 0.4136607 0.3351208
-0.00036503043 -0.35618538 -0.33434203 0.22263353 0.090162575 0.23613514 -0.04171364 0.038882863
-1.1176751 -0.66662014 0.2443558 0.047603637 0.010877997 0.0959902 0.44541213 -0.28544345
0.20494494 -0.06549566 -0.8991504 -0.17532942 0.57453436 -0.33020827 0.3521989 0.44387117
-0.008810374 -0.90343237 0.55963355 -0.19213621 0.16686194 -0.6088084 0.020542607 -0.32751167
-0.61767155 -0.33594224 -0.4165676 -0.206584 0.3795678 -0.23155575 0.11340551 0.10904011
-0.036843628 -1.0912566 -0.551265 0.19499749 0.2641769 0.011655262 0.46769956 -1.2010256
-0.12896551 -0.87989634 0.035520326 -0.6005972 0.051118802 -0.43018186 -0.11085346 -0.28194484
00000000: 0a3f 4b3e f14c 253e 1602 763e 5d97 e73e
00000010: 4651 a0bc a709 1a3d 4aad e83c 0eff c73e
00000020: 9213 1f3e 4ab4 1c3e 3b59 b2bd a2fa 993e
00000030: 62aa c5be 37b0 723e 0299 e23d 1242 afbd
00000040: 841b 03bf 70f3 b2be 009a 153e e036 923e
00000050: de29 43bf 5fc1 c3bc b474 a8bd 27d0 3d3e
00000060: d5e0 babd bfb2 8bbe 8de2 57be e8f8 9bbe
00000070: f7b2 16bf bf2c 8fbe d251 833d 1937 5ebf
00000080: 9a37 d63e 64df 0ebf 81f3 0d3e 2eb4 e33e
00000090: b4f8 a63d 5ddb acbe 562c c9be 87a8 dfbe
000000a0: 999a 5a3e ebd9 de3b 5b4a e93e 98a8 82be
000000b0: 6f21 12bf 331c 64be 52ae ec3d 1185 98bf
000000c0: 62eb e3bd 32b1 7f3e 9c39 93be 3c35 3bbe
000000d0: 9b28 85be 3db0 93be 4925 83bd 25ed 0fbd
000000e0: 015d dabe a248 d6be c6e8 3dbe 95df 1bbf
000000f0: e10f 28bf 593c a83e 0b7b f33e 86a7 c5be
00000100: 1e10 ee3e 5f7d 6e3e 421b 98bc 407d bb3d
00000110: dd38 2ebf cbea c1be 115a 223e 8941 8c3e
00000120: e47b d5be 2e63 13bf 34ff acbd d170 943e
00000130: 3804 d13e 4d02 0ebe 6b83 903e 3206 943e
00000140: 707c e6be 1279 4abf 2e72 b7be 6e74 623f
00000150: 52a3 f73d 88da 213f f00c 4abd 6ed3 11be
00000160: 4064 c23c 098e 8abd 75fc be3d 34ba 463e
00000170: bd64 063f 9816 783e a722 cabd 645a d5be
00000180: 7009 ba3e 8acc 1ebe 6a70 0ebe 856c 5dbd
00000190: e92d cbbe b33d 04bf 68e8 b83e 18c4 2e3e
000001a0: c696 49bd 8e08 f53e 2918 3bbe 69c3 fe3d
000001b0: a488 d13e 2e95 a63d 2800 d13e 1017 48be
000001c0: 1e4b 033f 09af 89bd f857 1abf 7916 fd3d
000001d0: 8ac4 2dbf 3343 13bc f459 923e c232 c63d
000001e0: b9ad 2c3e a8ac 493d 81e6 d7bd eb53 4fbf
000001f0: 55f1 833d 50dc 5cbf 084e 9a3e d6d7 cebe
00000200: 92d6 243e 2e24 693e 0320 023e 1f38 133f
00000210: 4ba7 773e 8142 b6bb 1155 92be 196c bb3d
00000220: 75c4 2ebe 7494 843e 9a39 0dbf 364a 093f
00000230: d7bc cfbd cd8b 593e 2d21 febd 5cf0 1e3e
00000240: 8b2e abbe 6a2c 803d 4143 013e 3257 063f
00000250: 2009 85be 0920 913e 0517 eebe 442c b83e
00000260: 2c90 9a3e a519 4fbe b97a b1bc 69e4 14bf
00000270: 1198 a2bd 904d 02bf d1ba a43e 6674 e63d
00000280: 1da6 93be d68b d83d d207 22bf 8d69 07be
00000290: 1ed4 2dbf d1df f63e c08e cb3b ca83 143e
000002a0: 86e9 16be 7622 e6bd 9805 0dbe 4a70 e43c
000002b0: c69e b5be b5db 103e d0e0 833b ceec 51bc
000002c0: 7d14 5bbf b1db cc3e 6623 00be c65f 813e
000002d0: c6c6 423e f757 ad3b a5e2 5bbe f80c bdbe
000002e0: dd38 25be aca8 29be 0f5c 04bf fc74 3abf
000002f0: 1d5d b73e 84da 45bf f304 57bf da41 58bc
00000300: 5eb1 75be 293e 1a3e 484a 843d 8013 bd3e
00000310: c2e1 2bbe ddb8 3bbe 56cb d33e f494 ab3e
00000320: 8e61 bfb9 ee5d b6be e12e abbe 0bfa 633e
00000330: 28a7 b83d 69cd 713e ecdb 2abd a343 1f3d
00000340: fa0f 8fbf 9ea7 2abf 6838 7a3e 08fc 423d
00000350: a039 323c 8396 c43d 0f0d e43e a525 92be
00000360: 16dd 513e 9722 86bd b82e 66bf 8e89 33be
00000370: af14 133f 0f11 a9be 6a53 b43e 1543 e33e
00000380: 6359 10bc 5847 67bf 2544 0f3f 5bbf 44be
00000390: dbdd 2a3e deda 1bbf f848 a83c 9caf a7be
000003a0: b91f 1ebf 9f00 acbe 5948 d5be c28a 53be
000003b0: b656 c23e f31c 6dbe 2641 e83d 6c50 df3d
000003c0: 58e9 16bd 4cae 8bbf b41f 0dbf 6cad 473e
000003d0: 3242 873e b6f5 3e3c 5176 ef3e 35bb 99bf
000003e0: 890f 04be e340 61bf c37d 113d bdc0 19bf
000003f0: f361 513d cc40 dcbe 2407 e3bd 135b 90be

net.4.bias f4 [10]
-0.10187769 -0.13559611 -0.110963985 -0.085900806 -0.06804376 0.123032644 -0.0733316 0.024596129
0.06485726 -0.115223534
00000000: 40a5 d0bd b5d9 0abe 1641 e3bd c3ec afbd
00000010: 875a 8bbd 8af8 fb3d e12e 96bd d27d c93c
00000020: e2d3 843d 51fa ebbd
