data/models/gtsrb/gtsrb_50x1.pth (torch, 625512 bytes, 4 tensors)

net.0.weight f4 [50, 3072]
00000000: 2558 6d3e 1737 443e 5f05 143e 3bf5 fb3d
00000010: 2fc7 ab3d f30f a23d 3ee9 653d 905a e83c
00000020: 63c0 ae3c 34d0 eb3c 4dda 963d 37cd 8d3d
00000030: 6896 7d3d 88e0 873d 7576 1e3d 02b0 5d3d
00000040: 1f6f 7c3d 367c 843d 7027 153d 0eb8 613d
00000050: c3fe 393d 1f8d 323d a063 bd3c 3e81 0c3d
00000060: 98a8 db3c 3790 223d 3221 ca3d 4ab2 b33d
00000070: 52e8 cd3d 8d05 e93d 8e8c 0e3e f7f7 333e
00000080: 182f 1e3e 9433 ff3d d14f a23d e283 8c3d
00000090: d0d8 873d 2f0c 6b3d 26aa 293d dded d63c
000000a0: c76e ab3c 6c03 653c 7546 823c db07 4b3d
000000b0: 2e54 333d bc97 1c3d 682e 333d 9191 f63c
000000c0: 8761 443d a680 7ebb 579f 393b 5284 1dbc
000000d0: 8f82 e23b 324c bd3b 6c91 cfbb eb68 4dba
000000e0: a734 cc3c 6a5b 113d f0dc 933d b46f 7b3d
000000f0: 7cd9 843d 5989 a43d d443 d33d 9388 033e
00000100: 5814 de3d dc0e dc3d d1a5 a13d 57d6 5c3d
00000110: a52a 393d b42d ac3c b848 b63a 7c8e 8dbc
00000120: 9079 b8bb d04d 0bb9 ad73 bf3c 9557 9e3c
00000130: 49c6 e53b a60e 233c 6db4 5a3c 6822 7fbb
00000140: d201 b0bc 4687 9d3b f654 3ebc c178 2bbb
00000150: 8d14 7ebc f04a bb3b c915 573c 6a76 433c
00000160: e542 bd39 6835 e43b 9876 1d3d d9f9 943d
00000170: 4183 333d 8678 573d 24a9 963d 7273 dc3d
00000180: 8754 ae3d e1e2 9c3d a380 173d 79b3 2b3d
00000190: d88c df3c b6f1 dbba 14d1 a7bc 3508 86bc
000001a0: 985e 15bd 7f60 ef3b 2267 c73a c8fd ed3b
000001b0: d29a b7bc 0e47 c2bc 25fe 86bb 6286 c8bc
000001c0: 0f0b 05bd d5d7 eebc 117c 39bd e7b4 81bc
000001d0: c8ae 5cbc 0da4 11bd 2cc6 f6bc bcf7 adbc
000001e0: 71ed bb3c 5996 853c ef79 7f3d dcbe 333d
000001f0: 408e 0b3d e593 0d3d cb34 fc3c 79bf 953d
00000200: d007 adba d4c5 1d3d ab1a 1dbd c2da e0bc
00000210: 0604 ebbc 407f 84bd 5fb9 a1bd 21df 9ebd
00000220: 8f2a 70bd 67be 72bd 91df 6fbd cd51 c1bd
00000230: 9fbb 05be d8fb f7bd 9476 00be 600a 1cbe
00000240: 6526 00be 5511 fcbd 4e83 c1bd 4ddf 90bd
00000250: b092 85bd b9b2 a0bd 934b ebbd 261c a0bd
00000260: c690 29bd d463 11bd d875 03bb 4a02 9dbc
00000270: 2de6 24bd fd36 7cbd 0b1c f6bc 7724 83bb
00000280: 6c29 973d 3c51 313d 6e7f 503c f8e9 183a
00000290: 00a7 f5ba 8694 c2bc 37aa 43bd 7769 1ebd
000002a0: 5a77 6ebd 4459 d9bb 8089 31bd 6a18 a3bd
000002b0: 8945 80bd 960e 72bd 6195 a2bd 8335 adbd
000002c0: be43 abbd d99d 64bd 9e83 5bbd 8e0e ddbc
000002d0: 7ec1 b0bc 8a56 d4bc 4263 2ebd 71af a6bc
000002e0: f244 02bd b746 aebc 784d cc3b 8632 a5ba
000002f0: ae3b efbc 2b90 efba ab12 a63c 68cf 273d
00000300: 6c6f 233d e88f 113d b55f e63b a771 f3bc
00000310: b978 0fbc 7cd7 f9bc 479c 6cbd 5bb0 97bd
00000320: 69be 85bd 8dfd fbbc 9f12 06bd f4ab bbbd
00000330: 8d60 a9bd 3c99 d1bd 59ad d2bd 4915 c9bd
00000340: 0eb8 debd 8c0e bebd 245e 88bd 8d60 1bbd
00000350: 95f2 1dbd 6bc5 efbc 65eb 58bc 419b 26bd
00000360: 24a2 25bd 16fe b2bd f850 4abc 4874 a5bb
00000370: 55e8 33bb 559d abba dc50 3fb9 1467 063d
00000380: 59b8 873d 1bb0 493d 93b8 93bc f1f8 08bd
00000390: 3700 31bd 5479 7ebd 2973 0bbd 09fc 8ebd
000003a0: c8cd 73bd 26c8 b6bc bee5 8cbd b181 a5bd
000003b0: e64d a3bd ffb8 d6bd 448b 1bbe d0be 16be
000003c0: ba46 fdbd 5d90 ffbd 6bc3 f0bd 2cb1 87bd
000003d0: 6e9c 60bd 0598 76bd f990 edbc b3e5 56bd
000003e0: 5321 44bd cb42 6ebd c540 2ebd 2eee c7bc
000003f0: bdf7 9ebc b377 79bc d5cf 583c f3d4 d83c
0.23178156 0.1916164 0.14455174 0.123026334 0.08387601 0.07913198 0.05613064 0.028363496
0.021331972 0.028785802 0.07365856 0.06923907 0.061911017 0.06634623 0.03868719 0.054122932
0.06162941 0.06469004 0.036414564 0.05510717 0.045408975 0.043591615 0.023118794 0.034302942
0.02681379 0.039688315 0.09869613 0.0877424 0.10054077 0.11378012 0.13920805 0.1757506
0.15447652 0.124610096 0.0792538 0.06861092 0.066331506 0.057384666 0.04142203 0.026236469
0.020926846 0.013977867 0.015902737 0.04956804 0.043781452 0.038230643 0.04374543 0.030098708
0.04794457 -0.0038834005 0.0028323734 -0.009614067 0.0069125365 0.0057769055 -0.0063344743 -0.00078357634
0.02492745 0.03548757 0.07219875 0.061385825 0.06486794 0.080340095 0.103156716 0.12845068
0.10843724 0.10745022 0.07892955 0.053915348 0.045206685 0.021017887 0.001390717 -0.017279856
-0.0056297258 -0.0001328506 0.023370588 0.019328872 0.007012163 0.009952223 0.013348681 -0.003893042
-0.021485243 0.0048073856 -0.011616936 -0.0026164504 -0.015507829 0.0057157204 0.013127753 0.011930088
0.0003609873 0.0069643743 0.038443178 0.07274217 0.043826345 0.052605174 0.0735648 0.10764207
0.08512216 0.07660461 0.036987912 0.041919205 0.02728884 -0.001678041 -0.020485438 -0.016361335
-0.036467165 0.0073052044 0.0015213231 0.007262919 -0.022412691 -0.023715522 -0.004119652 -0.024478141
-0.03248125 -0.029155651 -0.045284335 -0.015833331 -0.0134694055 -0.03555684 -0.030123793 -0.021236293
0.02294037 0.016307043 0.062372144 0.04388319 0.034071207 0.03456487 0.030786892 0.07311911
-0.0013201181 0.03851874 -0.03835551 -0.027448062 -0.028688442 -0.064695835 -0.07896685 -0.07757402
-0.058634337 -0.059263613 -0.05856282 -0.094394304 -0.13059853 -0.12108582 -0.12545234 -0.15238333
-0.12514646 -0.12307993 -0.094488725 -0.07073841 -0.06522119 -0.07846589 -0.11489024 -0.07817869
-0.041397832 -0.035495594 -0.0020059254 -0.01916613 -0.040258575 -0.06157588 -0.030042669 -0.0040021497
0.073809475 0.04329036 0.012725694 0.0005833204 -0.0018741786 -0.023752462 -0.04776975 -0.038674798
-0.05821929 -0.0066329557 -0.04334402 -0.07963641 -0.06263263 -0.05909594 -0.07938648 -0.08457472
-0.0836253 -0.055814598 -0.053592317 -0.02698448 -0.02157664 -0.025920171 -0.04257513 -0.020347329
-0.031804033 -0.021273954 0.006234821 -0.0012603558 -0.029203262 -0.0018277218 0.020272573 0.040969282
0.039901182 0.03553763 0.007030452 -0.02971728 -0.00875681 -0.030498259 -0.057766225 -0.07406684
-0.065304585 -0.03076055 -0.032732602 -0.09163657 -0.08270369 -0.10234305 -0.1028697 -0.09818513
-0.108749494 -0.09280118 -0.06658581 -0.037933875 -0.038561422 -0.02926894 -0.013239716 -0.040675405
-0.040437832 -0.08739869 -0.012348406 -0.005049262 -0.0027451713 -0.0013093153 -0.00018245302 0.032813147
0.066269584 0.049240213 -0.018032348 -0.033440534 -0.043213096 -0.062127426 -0.034045372 -0.06981666
-0.05952242 -0.022312235 -0.06879757 -0.08081377 -0.07973842 -0.10484504 -0.15189844 -0.14721227
-0.12367006 -0.12478707 -0.11756023 -0.0662559 -0.054836683 -0.06020357 -0.028999792 -0.052465152
-0.047883343 -0.058169167 -0.042542238 -0.024405565 -0.01940524 -0.015226292 0.013233145 0.02646873

net.0.bias f4 [50]
00000000: de22 e0bf fd06 1fc0 fd2d 11bf 15a0 c9bf
00000010: e290 443e 983e e23d 4253 dfbe 3475 64bf
00000020: 4049 393f aee4 5abf 8392 aa3e 2994 ebbe
00000030: ba8e 1d3f fb03 9bbf cbd2 78be 6950 30bf
00000040: 5d90 e6bf ffb6 453e 8934 fdbf b93a 28bf
00000050: 41e2 72bf ca8e 9ebf 1993 8e3e dfa5 8bbf
00000060: 7e19 953f 4445 e53f 2bc9 0d3f cc0f ccbf
00000070: 67e5 383f 69e0 e2bf e212 92bf 9a1f 8a3c
00000080: 52cf 4a3e 999e ecbe bdc2 093f 42fc b2bf
00000090: 8525 15bf 71c8 533f 427e b03c 77e7 11bf
000000a0: 286a 3abd c8cb 8f3e 0785 f73e e6e4 c7bf
000000b0: 1819 4f3e 80ea 3bbf 4f7f 2f3f 7235 d4be
000000c0: c776 9a3d 389b b9bf
-1.7510641 -2.4848015 -0.567108 -1.5751978 0.19195893 0.11047095 -0.43618208 -0.8924134
0.72377396 -0.8550519 0.33314905 -0.46011475 0.6154591 -1.211059 -0.24299161 -0.68872696
-1.8012806 0.19308089 -1.9781657 -0.65714604 -0.94876486 -1.2387326 0.27846602 -1.0909995
1.1648405 1.7911763 0.5538508 -1.5942321 0.7222504 -1.7724735 -1.1412013 0.016860772
0.19805649 -0.4621475 0.5381277 -1.3983233 -0.58260375 0.82727724 0.02154458 -0.5699381
-0.045511395 0.2808516 0.4834368 -1.5616729 0.20224416 -0.73404694 0.6855363 -0.41447026
0.07542186 -1.4500494

net.2.weight f4 [43, 50]
00000000: aae9 e7bb 665f a9bd db63 1ebd 0a07 c5bd
00000010: 4ca5 1e3b 4859 023d 2720 723d d9f6 ca3d
00000020: 156e 523d 5e3f 8c3d cea6 3f3d f3bb a83d
00000030: 3c2b c8bc 7577 99bd f73e d8bd bf2c 89bb
00000040: 26b9 54be 15de 01bd ee4c 85bb 7888 ecbc
00000050: b25a 6dbd 4e77 6f3d d337 a1bc 7fa1 8f3d
00000060: e52b 833d 7260 a03d 5874 ab3c d8c5 cebd
00000070: 6cbf 2bbd b87b 523d 14b8 1abc aea0 b1bd
00000080: 62d8 8b3d 446c 38bd 6344 86bd 0295 533c
00000090: 07de 53be 9804 f73c e4b2 0a3e b3fe dd3c
000000a0: 4e4f bb3d f4cd 2f3c 6509 12bd 7063 c83d
000000b0: d2fc edbb 585e 9c3d 4536 aabd 700e 6ebd
000000c0: 128d b93d ea70 e7bd 115e 863b 9e8b ffba
000000d0: c2d4 adbd dc95 0bbd e338 f23c e136 e93c
000000e0: 7f2f 2e3d cf59 c23d 090c 583d 8680 a5bc
000000f0: 10e4 de3c 94a0 843d c165 53bd 7c16 28bb
00000100: b2b6 9b3d 106e 8e3d 135e d4bc bbd8 55bd
00000110: 0233 633d ab01 15bd 4f84 7a3c ea20 253d
00000120: 5c36 3bbd 71a8 5aba 7774 cbbd d379 9e3d
00000130: f494 483d b624 cdbd 1fe1 73bd ed79 273d
00000140: 6854 5dbd a243 c2bd 0dd2 b33c aa6c 9a3c
00000150: 7404 81bd 5d52 33be 6d6c 5bbd 8ddd d53c
00000160: f23d d23d e82c 443c 1557 8d3d 46fb 08bd
00000170: 294a 6bbd 1ff9 6f3d ee97 12bd 6eb7 843d
00000180: 7ef7 99bd a2e5 87bc 94d0 293d 6a53 c7bd
00000190: a870 923c 7161 edbc 2bbf acbd 9281 333c
000001a0: 11b4 183d 18b7 883d a010 373d b96e bf3d
000001b0: 9c94 973d 50aa ffbb a787 b3bc fa7e b23d
000001c0: 0e72 50bd 5033 a0bc 49e4 81bd f8c6 68bb
000001d0: b600 58bb e1d3 2dbd 2a47 a23d bf84 67bd
000001e0: 0b73 243d 8b02 3d3d 55bd 9bbd 2201 513d
000001f0: 9e5d 4abe e347 cb3d 9821 603d a74a c1bd
00000200: 9328 51bd d96b 8b3d 62ca 8abd ac22 bdbd
00000210: 79c0 443d 4cdd 6f3c bd7f 88bd ab9b 33be
00000220: 522a 723d 26c3 803c b991 ed3d 7e76 28bb
00000230: 514e c73d 10d9 d73b 1dce ccbc 233e 613d
00000240: 1cd3 32bd 1946 533d 2988 6dbd 05f6 0abc
00000250: 2e58 f93c 12b7 4fbd ca82 5f3c e0a8 853d
00000260: d4b9 54bd 0f7d d73b 2cd9 6e3d 8788 61bd
00000270: bab3 b13c 823d d13d b7d0 c73d 4d31 b53d
00000280: 6cf3 7bbd 994d 923d 1729 50bd 0173 1a3e
00000290: 6d91 593d 6900 b43b ce50 98bc dd97 a5bd
000002a0: cc53 023e 7991 cdbd 866c 24be 41cc c3bb
000002b0: 062c abbc 03b2 92be c731 33be e18b 063e
000002c0: c6b1 d13d 83dd 8ebd 3df4 abbd 0e39 213d
000002d0: 9486 a8bc 76d0 fbbd ca34 41be 8367 dbbd
000002e0: bc2d 87bd 57b2 c2bb 7640 ab3d e28a b1bd
000002f0: 31a2 943d aab5 033d 83e9 b53d 61d3 0bbe
00000300: d485 de3b 5c83 ef3c 732e 85bd 97a8 873d
00000310: 3eb3 9dbd 3294 843c 08d7 da3c 80bc 9dbd
00000320: d76f 9b3c 5617 d7bc 2f8a c4bd 1a3e 1ebd
00000330: 011d 513d 1f4b 423d 3ae5 17bc 7df2 b43d
00000340: a46a a03d 2251 2e3c 1a45 9ebd c6d5 d33d
00000350: f0dc 6ebd 818b 0ebc f27b 2fbb 8600 e6bb
00000360: 4a81 3d3d e951 1cbd 0e34 c53d a88e 9ebd
00000370: ce9c 603d f952 c13a 5f57 0bbd de91 8b3d
00000380: 8ebb 13be e845 f63d 6747 b33d 86bc 9dbd
00000390: b6ef 36bd fe06 633d b113 8fbd 17e7 d6bd
000003a0: 7e85 9e3d 9cbe 963c 8a86 70bd 3274 9abb
000003b0: 949e 9a3d db2d 08be fbf8 bb3d 8995 02bd
000003c0: eecc a33d 80e0 d1bc 99bb e7ba cadb 27bc
000003d0: 21b2 7cbd d9dc 7b3d 451d acbd 19bf c03a
000003e0: 07d0 f63c 69d2 d5bd a9c7 523c fdd2 8e3d
000003f0: 8206 babd ba18 b83c fb08 333c 7361 e23c
-0.0070774155 -0.08270149 -0.03866945 -0.09620483 0.0024207411 0.031823426 0.059112694 0.09910364
0.051374514 0.06848024 0.046789937 0.082389735 -0.024434678 -0.07493488 -0.105588846 -0.0041862424
-0.20773754 -0.031705935 -0.0040680086 -0.028873667 -0.057947822 0.058463387 -0.01967994 0.07013225
0.064048566 0.078308955 0.0209295 -0.100963295 -0.0419306 0.05138752 -0.009443302 -0.08673225
0.06828381 -0.045025125 -0.065560125 0.012913944 -0.20690165 0.030153558 0.13544804 0.02709899
0.091459855 0.010730255 -0.03565349 0.09784591 -0.0072628045 0.07635182 -0.08311132 -0.058119237
0.0906011 -0.113008335 0.004100569 -0.0019496565 -0.08487846 -0.034078464 0.029568141 0.028468551
0.042525765 0.09489786 0.052745853 -0.020202886 0.027208358 0.0647594 -0.051610712 -0.0025648167
0.07603206 0.069545865 -0.025923764 -0.052208643 0.055468567 -0.036378544 0.015290334 0.040314592
-0.045706138 -0.000834114 -0.09934323 0.0773808 0.048970178 -0.10016768 -0.059540864 0.04088776
-0.054035574 -0.09485556 0.021950746 0.018850643 -0.062996775 -0.17511888 -0.0535702 0.02610662
0.102657214 0.011973597 0.06901375 -0.033442758 -0.05744377 0.05858719 -0.035789423 0.06480299
-0.075179085 -0.01658899 0.04145868 -0.09732707 0.017875984 -0.028977128 -0.084349 0.010956185
0.0372811 0.06675547 0.04469359 0.093472905 0.07401392 -0.0078022853 -0.02191527 0.08715625
-0.05089002 -0.019555718 -0.0634237 -0.0035518985 -0.0032959408 -0.04243839 0.0792373 -0.05652308
0.040148776 0.046145003 -0.076044716 0.05102647 -0.19762275 0.09925821 0.054719537 -0.09438067
-0.051064085 0.0680768 -0.06776883 -0.09235129 0.04803512 0.014640164 -0.06664989 -0.17539851
0.05912239 0.015718054 0.1160006 -0.0025705392 0.097317345 0.006587155 -0.025000626 0.0549909
-0.04365836 0.051580522 -0.05799118 -0.008481507 0.030437555 -0.0507117 0.013642022 0.06526351
-0.051935032 0.0065761874 0.05831258 -0.055061843 0.021692146 0.1021681 0.09756606 0.08847294
-0.061511442 0.07143707 -0.050820436 0.15082933 0.053117204 0.005493213 -0.018593218 -0.08085606
0.12727278 -0.10037512 -0.16057023 -0.0059752767 -0.020895015 -0.28651437 -0.17499457 0.13139297
0.10238986 -0.06975844 -0.08396194 0.039361052 -0.020571984 -0.1229562 -0.18867794 -0.10713103
-0.0660052 -0.00594167 0.08361904 -0.08669068 0.07257498 0.03215567 0.088824295 -0.13654853
0.006790856 0.029237442 -0.06503 0.06623953 -0.07700203 0.016183946 0.026713863 -0.07701969
0.018974228 -0.026256245 -0.09596669 -0.038633443 0.05105305 0.047434922 -0.00927096 0.088353135
0.0783284 0.010639461 -0.07728024 0.103435084 -0.05831617 -0.0087002525 -0.0026776758 -0.0070191054
0.046265878 -0.038164053 0.09629069 -0.07742053 0.05483704 0.0014749459 -0.03401887 0.06814931
-0.14427015 0.12025052 0.08753853 -0.077019736 -0.0446622 0.05542659 -0.06986178 -0.10493296
0.07740305 0.018401437 -0.058722056 -0.0047135586 0.075497776 -0.13298742 0.09178349 -0.03188089
0.079980716 -0.025619745 -0.001767981 -0.010245273 -0.061693314 0.061489914 -0.0840402 0.0014705389
0.030128492 -0.10440523 0.0128649855 0.069738366 -0.090832725 0.022472728 0.010927434 0.027634358

net.2.bias f4 [43]
00000000: dc6c 49be ef5e be3f 0dd5 b93e af69 fcbd
00000010: ac92 443d 94e2 ac3d b1ea 8b3e ae69 95be
00000020: 9939 8fbf c212 0cbf b7b5 27bf f81a bb3d
00000030: fe9f 0540 7574 873f c939 25bf 2e0c b43e
00000040: 1922 b4bf 9f95 09c0 140d 7d3f 8b0c 753d
00000050: 2690 a7be b6f6 78bf f6e6 983e 2d07 d5bd
00000060: 3924 8b3f 9561 363f bbdc 41bf 7586 40bf
00000070: 777e e03e 2730 103f 824d 6dbe 1c2d c13f
00000080: ea47 ca3f 8cf1 1fbf 0dcf e3bf b9f1 acbf
00000090: 7192 56bf 1bdf 1ebf a1eb aa3d b7ba 7dbf
000000a0: 0d2a 81bf 19cd 0c3f 9729 3a3e
-0.19670433 1.4872721 0.36295357 -0.12324845 0.04799144 0.08441654 0.27327493 -0.2918219
-1.1189452 -0.5471612 -0.6551165 0.09136003 2.0878901 1.0582415 -0.645413 0.35165542
-1.4072906 -2.1497571 0.9884808 0.059826415 -0.32727164 -0.9725145 0.2986371 -0.10401759
1.0870429 0.7124265 -0.7572743 -0.75205165 0.43846485 0.56323475 -0.23174098 1.5091891
1.5803196 -0.62477946 -1.7797562 -1.3511268 -0.838172 -0.6205918 0.08345724 -0.9911303
-1.0090958 0.55000454 0.18179928
