data/models/gtsrb/gtsrb_50x6.pth (torch, 679266 bytes, 14 tensors)

net.0.weight f4 [50, 3072]
-0.058244914 -0.019409591 -0.04032375 -0.04275524 -0.023666348 -0.042883884 -0.053191897 -0.060938217
-0.048708804 -0.058856368 -0.066060156 -0.07529285 -0.05347104 -0.07047101 -0.073353626 -0.08134245
-0.08216986 -0.08890201 -0.06648609 -0.06776749 -0.085199445 -0.09090345 -0.10084255 -0.08105393
-0.08746245 -0.061629903 -0.04914819 -0.04389991 -0.020908488 -0.019900775 -0.019200422 -0.03693005
-0.06440626 -0.047941424 -0.071809635 -0.07061656 -0.05631262 -0.05686154 -0.042128082 -0.0703242
-0.053675134 -0.06866696 -0.04686787 -0.064378045 -0.055398233 -0.07501193 -0.086152084 -0.073275305
-0.084259525 -0.10179195 -0.10253212 -0.07962544 -0.08037238 -0.056225162 -0.074755825 -0.09510517
-0.08735894 -0.057948925 -0.054477807 -0.06235602 -0.07115014 -0.027821451 -0.033509385 -0.028030956
-0.054428227 -0.046462756 -0.072442815 -0.09779574 -0.092420705 -0.102426134 -0.08300329 -0.09015825
-0.06431607 -0.083886385 -0.053260755 -0.059655648 -0.08294153 -0.07639954 -0.0785394 -0.06605118
-0.07384931 -0.07481596 -0.096850924 -0.074325725 -0.08273033 -0.09956819 -0.06058501 -0.077498615
-0.10208304 -0.112201594 -0.10619882 -0.08087351 -0.08179607 -0.047395196 -0.05411475 -0.02456307
-0.054825358 -0.07752275 -0.056158964 -0.08096918 -0.087423995 -0.08879541 -0.08129581 -0.07708623
-0.09450506 -0.063746184 -0.05799994 -0.062219255 -0.08619646 -0.058122963 -0.044952694 -0.0810069
-0.05990018 -0.06741325 -0.06428744 -0.057380043 -0.09290251 -0.093637004 -0.11243674 -0.08840402
-0.10539772 -0.103314444 -0.12467385 -0.09903582 -0.07432269 -0.06232284 -0.052387178 -0.0605989
-0.04939574 -0.07014299 -0.049767002 -0.07463278 -0.017865587 -0.04782653 -0.048312787 -0.024096297
-0.041375376 -0.019194143 -0.023354398 -0.02963212 -0.03328276 -0.030164793 -0.009881049 -0.0068802927
0.021637406 0.025800351 0.007487576 -0.0069540218 -0.017080644 -0.030345006 -0.061427206 -0.054898083
-0.047399778 -0.06602973 -0.052731793 -0.06641642 -0.043312162 -0.051620685 -0.041217573 -0.0456136
-0.044640806 -0.05828356 -0.04533303 -0.055768613 -0.052164685 -0.045947485 -0.054948185 -0.071317405
-0.06566099 -0.06492188 -0.051415253 -0.09575518 -0.072471805 -0.06859075 -0.04976253 -0.010183234
-0.04331194 -0.030069863 -0.032933157 -0.026885562 -0.06145107 -0.09486857 -0.10327738 -0.07070508
-0.078592494 -0.0766777 -0.08843251 -0.050374497 -0.06722647 -0.061900195 -0.066997044 -0.0399361
-0.057446238 -0.09599596 -0.07538448 -0.07364371 -0.04450628 -0.04641748 -0.06407208 -0.071659826
-0.07899194 -0.07638758 -0.06784964 -0.096932486 -0.0985697 -0.10503959 -0.072766885 -0.062649794
-0.08159032 -0.05061732 -0.07521671 -0.054482743 -0.09638708 -0.092677414 -0.116589546 -0.097227834
-0.11327989 -0.07552379 -0.07964444 -0.04572017 -0.09145761 -0.09670312 -0.071286745 -0.065684356
-0.06830542 -0.0722394 -0.059608284 -0.07083756 -0.05188246 -0.06414077 -0.08021893 -0.057106696
-0.07911404 -0.083788216 -0.07538261 -0.09986911 -0.1160116 -0.119972214 -0.092798576 -0.07191566
-0.107858784 -0.0928654 -0.10228119 -0.11352948 -0.098055944 -0.10606911 -0.12131634 -0.11033638
-0.08850348 -0.09701044 -0.08427212 -0.05026332 -0.0913162 -0.096841395 -0.08172661 -0.086246625
00000000: 3892 6ebd dd00 9fbc 842a 25bd 1e20 2fbd
00000010: eedf c1bc 03a7 2fbd bfdf 59bd 5a9a 79bd
00000020: e282 47bd 6013 71bd 8c4a 87bd 2333 9abd
00000030: 7304 5bbd 1b53 90bd 6d3a 96bd df96 a6bd
00000040: ac48 a8bd 4212 b6bd dc29 88bd afc9 8abd
00000050: 0c7d aebd 972b babd 8a86 cebd 9aff a5bd
00000060: 831f b3bd a36f 7cbd 9d4f 49bd 64d0 33bd
00000070: 4748 abbc f306 a3bc 344a 9dbc f743 17bd
00000080: 6ee7 83bd 3a5e 44bd ee10 93bd 6a9f 90bd
00000090: 10a8 66bd a5e7 68bd 7f8e 2cbd 2206 90bd
000000a0: 75da 5bbd 43a1 8cbd 86f8 3fbd a3d8 83bd
000000b0: 42e9 62bd db9f 99bd 8170 b0bd 5d11 96bd
000000c0: 4290 acbd 4c78 d0bd 5cfc d1bd aa12 a3bd
000000d0: 469a a4bd 5b4c 66bd 9519 99bd 80c6 c2bd
000000e0: 3ee9 b2bd da5b 6dbd 1f24 5fbd 0769 7fbd
000000f0: 2ab7 91bd d0e9 e3bc 2341 09bd 2da1 e5bc
00000100: 22f0 5ebd bb4f 3ebd e65c 94bd 2249 c8bd
00000110: 1147 bdbd cbc4 d1bd a1fd a9bd e3a4 b8bd
00000120: 25b8 83bd a0cc abbd f327 5abd 7b59 74bd
00000130: 40dd a9bd 5d77 9cbd 44d9 a0bd d745 87bd
00000140: 4f3e 97bd 1c39 99bd c759 c6bd 1638 98bd
00000150: 856e a9bd 68ea cbbd fd27 78bd 98b7 9ebd
00000160: ea10 d1bd f3c9 e5bd c47e d9bd 03a1 a5bd
00000170: b384 a7bd 7721 42bd 6ea7 5dbd 7e38 c9bc
00000180: 8e90 60bd 3fc4 9ebd f106 66bd 2bd3 a5bd
00000190: 5a0b b3bd 5eda b5bd 6b7e a6bd 63df 9dbd
000001a0: de8b c1bd 5c8d 82bd 5891 6dbd 9ed9 7ebd
000001b0: c587 b0bd 5812 6ebd 5120 38bd f2e6 a5bd
000001c0: e459 75bd f50f 8abd 22a9 83bd 5607 6bbd
000001d0: ac43 bebd c2c4 bfbd 3c45 e6bd 2b0d b5bd
000001e0: c3da d7bd 8696 d3bd 0155 ffbd 4bd3 cabd
000001f0: 7f36 98bd 3c46 7fbd f093 56bd 8d36 78bd
00000200: 3053 4abd 21a7 8fbd 7cd8 4bbd 12d9 98bd
00000210: da5a 92bc c0e5 43bd a1e3 45bd 9965 c5bc
00000220: 3a79 29bd 093d 9dbc b951 bfbc 0fbf f2bc
00000230: 8153 08bd 281c f7bc 20e4 21bc 1474 e1bb
00000240: ee40 b13c 425b d33c 575a f53b 90de e3bb
00000250: b5ec 8bbc 1796 f8bc 189b 7bbd d0dc 60bd
00000260: 4526 42bd 983a 87bd 4bfd 57bd 5505 88bd
00000270: 1868 31bd 3670 53bd c2d3 28bd 54d5 3abd
00000280: 47d9 36bd beba 6ebd 21af 39bd a16d 64bd
00000290: a3aa 55bd 6e33 3cbd 5911 61bd dc0e 92bd
000002a0: 4579 86bd c3f5 84bd cd98 52bd 4b1b c4bd
000002b0: 196c 94bd 4f79 8cbd cbd3 4bbd 94d7 26bc
000002c0: dc67 31bd 1355 f6bc ebe4 06bd 1c3f dcbc
000002d0: 1eb4 7bbd 744a c2bd 1783 d3bd d3cd 90bd
000002e0: 1af5 a0bd 3309 9dbd 1b1c b5bd 7d55 4ebd
000002f0: 08ae 89bd 0f8b 7dbd bf35 89bd 0994 23bd
00000300: bf4c 6bbd 8899 c4bd 2e63 9abd 83d2 96bd
00000310: 384c 36bd 4120 3ebd 3938 83bd 63c2 92bd
00000320: 87c6 a1bd 1771 9cbd c1f4 8abd 8a84 c6bd
00000330: e9de c9bd ff1e d7bd ce06 95bd 894e 80bd
00000340: d318 a7bd 1b54 4fbd 380b 9abd 4c29 5fbd
00000350: 9766 c5bd a8cd bdbd 80c6 eebd 631f c7bd
00000360: 49ff e7bd 38ac 9abd a01c a3bd 1345 3bbd
00000370: 214e bbbd 490c c6bd c9fe 91bd 8585 86bd
00000380: b6e3 8bbd 40f2 93bd d127 74bd 4813 91bd
00000390: b482 54bd 3c5c 83bd d349 a4bd b6e8 69bd
000003a0: 8b06 a2bd 2899 abbd 3362 9abd 2d88 ccbd
000003b0: 7d97 edbd feb3 f5bd 2e0d bebd 8448 93bd
000003c0: 11e5 dcbd 3730 bebd cd78 d1bd 2582 e8bd
000003d0: 8ed1 c8bd c33a d9bd b474 f8bd 0af8 e1bd
000003e0: 5041 b5bd 69ad c6bd dc96 acbd e9e0 4dbd
000003f0: fd03 bbbd c854 c6bd 4860 a7bd 12a2 b0bd

net.0.bias f4 [50]
-0.7437749 0.01550531 -0.27800313 0.20122702 0.49347505 0.009475043 -0.27513003 0.46008244
-0.45629266 -0.20365609 0.24371696 0.14346634 0.42760405 -0.41417992 0.14957196 -0.22229122
0.5510107 0.44118482 -0.46463805 0.042256653 -0.4146973 0.28640187 0.5195995 -0.3243344
0.39506912 0.4260057 -0.28317875 0.4858852 0.05632364 -0.30160594 0.59953773 0.20227005
0.23983206 0.12108045 -0.40956342 -0.28335074 0.25057516 1.0469384 0.091682225 0.4843272
-0.31862122 0.023371072 0.33767644 -0.6442172 0.6604925 -0.21621698 0.6862419 0.78662246
0.12390643 -0.41084298
00000000: 0868 3ebf fc09 7e3c 6d56 8ebe 750e 4e3e
00000010: c3a8 fc3e 363d 1b3c d8dd 8cbe ed8f eb3e
00000020: 319f e9be 398b 50be f090 793e d7e8 123e
00000030: ebee da3e 640f d4be 6429 193e 4fa0 63be
00000040: 0a0f 0d3f fae2 e13e 0ae5 edbe 5015 2d3d
00000050: 3453 d4be 44a3 923e 7904 053f 290f a6be
00000060: 8046 ca3e 6b1d da3e cefc 90be f2c5 f83e
00000070: 9eb3 663d 186c 9abe 4e7b 193f e11f 4f3e
00000080: 8996 753e 07f9 f73d 4cb2 d1be 5913 91be
00000090: 634b 803e 1402 863f e4c3 bb3d bcf9 f73e
000000a0: 5222 a3be b174 bf3c ede3 ac3e 6beb 24bf
000000b0: 0916 293f fc67 5dbe 8dad 2f3f 1760 493f
000000c0: a8c2 fd3d 035a d2be

net.2.weight f4 [50, 50]
0.17139243 0.12787512 0.23864459 0.06954925 0.073251404 -0.043868095 0.14307673 -0.050907824
0.2034982 0.011372285 0.085846454 -0.04163096 0.087016165 0.020838136 -0.075214155 -0.1372669
0.24050237 0.06546245 -0.057834323 0.14274806 -0.3295661 0.092718214 -0.11064756 -0.0012778834
0.20479311 -0.020194368 0.1305205 0.18105896 -0.0015536016 -0.08766503 -0.12366212 0.14184189
0.053180166 -0.09266746 0.08413638 -0.09924995 0.053273756 0.06404747 -0.046341997 0.27328855
0.042241644 0.052640133 -0.17531629 -0.11531287 0.012673373 0.43906173 -0.03735824 -0.07903968
-0.10222203 0.33977798 0.12761146 -0.097080745 0.1463098 -0.02821975 0.06499508 0.072300375
0.2809889 -0.05740473 0.24115537 -0.113612674 -0.09297975 -0.03159645 -0.10873927 0.15336508
-0.07674305 -0.21885219 0.08033168 0.012695935 0.21050648 0.14125021 0.1257667 0.0023239236
-0.124473326 0.01571916 0.0501431 -0.05146855 0.11155854 0.09955157 -0.10338293 0.017767496
-0.022493519 -0.07085673 0.124962024 -0.056676894 -0.0877231 0.07804816 0.16922414 -0.06306653
-0.22769944 0.04702839 -0.12290339 0.024438312 0.03782608 0.01846183 0.03130586 0.13256243
-0.21136597 -0.002935 0.030141916 0.17008395 -0.06335551 -0.12996694 0.10589837 -0.034588415
0.056959733 -0.026764188 0.11544369 -0.044262305 0.066629216 0.1687435 -0.25757384 -0.10822598
0.027508376 0.09572481 0.21703285 -0.1284862 0.13621093 -0.0029221238 0.1267707 0.0049573
0.012711353 0.0107646 -0.25027648 -0.15790248 0.23476738 -0.1212976 -0.064830355 0.3121955
0.081115864 0.026287999 -0.09712997 0.0051554777 -0.22610815 0.049386047 0.5169687 0.011604308
-0.19757251 0.06497164 -0.059806082 -0.014833972 -0.09182904 0.19236556 -0.16943482 0.08351444
0.029054133 0.13346203 -0.16584492 -0.09897937 -0.010231593 0.0022856155 -0.07337867 0.050782114
-0.043574695 0.027555378 0.08790061 -0.39247876 -0.23681949 0.088690765 0.13590296 0.09427907
0.21021949 -0.16288696 -0.28306422 -0.007854188 0.03368638 0.21198718 -0.048604388 0.11337801
0.072109915 0.026938075 -0.10248432 0.04212641 -0.023694823 -0.04073621 0.047169853 0.18048997
4.1605686e-05 0.052657366 0.12942672 0.08762477 -0.18185821 -0.14522731 -0.012954105 0.15681212
0.07109336 -0.2505147 0.08440328 0.021543484 0.012615703 0.13705918 0.107582085 0.09060002
-0.33815703 0.09875286 0.045398906 0.2901103 0.050746046 -0.12231517 -0.047253802 -0.050416272
-0.020296399 0.55680496 -0.034676272 -0.04184759 -0.16037136 0.23791263 -0.25326467 0.2196123
0.038129594 -0.3721676 0.04847615 -0.2643773 -0.47559068 -0.085197516 -0.16549107 0.011044962
0.014522632 -0.0021175495 -0.034226507 0.033127572 -0.17130762 0.0013376875 -0.05018026 0.21305308
0.07470405 0.1113374 -0.09583833 0.12042814 -0.137523 0.021104235 0.10015169 -0.40571493
0.04189566 0.13576339 -0.30589914 -0.14069702 0.027539914 0.019320663 -0.043036968 0.34689832
-0.23886034 -0.09008436 0.027090715 0.011188285 0.014177155 0.07994506 -0.29369318 -0.20000584
0.023645412 0.012763885 0.0951604 -0.2534662 0.012741771 0.043171085 -0.018501768 0.21906087
00000000: 7f81 2f3e b2f1 023e 3f5f 743e d66f 8e3d
00000010: d504 963d 08af 33bd b582 123e b984 50bd
00000020: d561 503e d252 3a3c 44d0 af3d 3a85 2abd
00000030: 8835 b23d bdb4 aa3c e109 9abd b28f 0cbe
00000040: 4146 763e 2d11 863d afe3 6cbd 8c2c 123e
00000050: e3bc a8be 0ce3 bd3d 309b e2bd a77e a7ba
00000060: 49b5 513e a96e a5bc 2aa7 053e 8567 393e
00000070: 38a2 cbba b989 b3bd 9142 fdbd 003f 113e
00000080: 72d3 593d 70c8 bdbd b24f ac3d 8f43 cbbd
00000090: 9535 5a3d 522b 833d 1bd1 3dbd 7aec 8b3e
000000a0: 9305 2d3d 2e9d 573d 1d86 33be 2729 ecbd
000000b0: fba3 4f3c b3cc e03e f404 19bd 8edf a1bd
000000c0: c959 d1bd 61f7 ad3e 94ac 023e 45d2 c6bd
000000d0: 3cd2 153e 1b2d e7bc 241c 853d 3812 943d
000000e0: c7dd 8f3e 3921 6bbd 6ff1 763e c3ad e8bd
000000f0: 2b6c bebd 476b 01bd b2b2 debd bc0b 1d3e
00000100: 762b 9dbd ca1a 60be f084 a43d 9c02 503c
00000110: 038f 573e e5a3 103e fcc8 003e f84c 183b
00000120: dfeb febd 78c5 803c da62 4d3d b0d0 52bd
00000130: ce78 e43d b2e1 cb3d 6eba d3bd 248d 913c
00000140: 5444 b8bc 551d 91bd 17ec ff3d 0826 68bd
00000150: 2ba8 b3bd b7d7 9f3d 1849 2d3e 0629 81bd
00000160: 0b2a 69be d7a0 403d c6b4 fbbd db32 c83c
00000170: 85ef 1a3d 443d 973c 933a 003d 72be 073e
00000180: 5270 58be 2159 40bb 2eec f63c 7d2a 2e3e
00000190: 89c0 81bd 0e16 05be 3fe1 d83d 95ac 0dbd
000001a0: 9c4e 693d 9240 dbbc be6d ec3d 644c 35bd
000001b0: e674 883d 19cb 2c3e b8e0 83be 95a5 ddbd
000001c0: 3f59 e13c 5f0b c43d dc3d 5e3e e391 03be
000001d0: e17a 0b3e 1a81 3fbb 2ed0 013e d970 a23b
000001e0: 4743 503c 015e 303c 3d24 80be 30b1 21be
000001f0: dc66 703e e06a f8bd c7c5 84bd 17d8 9f3e
00000200: 1320 a63d ee59 d73c 14ec c6bd 48ef a83b
00000210: e588 67be 0649 4a3d 1058 043f ff1f 3e3c
00000220: 7350 4abe da0f 853d 39f7 74bd 300a 73bc
00000230: dd10 bcbd 7afb 443e 5280 2dbe 9e09 ab3d
00000240: ef02 ee3c 45aa 083e 40d3 29be b2b5 cabd
00000250: 69a2 27bc 44ca 153b 8e47 96bd e800 503d
00000260: 617b 32bd d1bb e13c 3c05 b43d faf2 c8be
00000270: cf80 72be 81a3 b53d 252a 0b3e 6315 c13d
00000280: c743 573e d7cb 26be cbed 90be daae 00bc
00000290: bbfa 093d 2b13 593e 6515 47bd bb32 e83d
000002a0: 5dae 933d 3dad dc3c 4de3 d1bd be8c 2c3d
000002b0: a51b c2bc 03db 26bd 2d35 413d 5dd2 383e
000002c0: c481 2e38 40af 573d 7088 043e 9e74 b33d
000002d0: 0a39 3abe 78b6 14be 743d 54bc 5b93 203e
000002e0: 6599 913d 7643 80be a0db ac3d f67b b03c
000002f0: 18b2 4e3c 3e59 0c3e ff53 dc3d 818c b93d
00000300: eb22 adbe f13e ca3d 34f4 393d 5689 943e
00000310: 16db 4f3d 6080 fabd 348d 41bd 4b81 4ebd
00000320: a244 a6bc c58a 0e3f b508 0ebd 6168 2bbd
00000330: 6438 24be 5e9f 733e e8ab 81be 0ce2 603e
00000340: c72d 1c3d c08c bebe ed8e 463d 765c 87be
00000350: 9f80 f3be 097c aebd 7e76 29be eef5 343c
00000360: 55f0 6d3c 96c6 0abb 1831 0cbd c7b0 073d
00000370: 446b 2fbe 5855 af3a d189 4dbd 962a 5a3e
00000380: 70fe 983d dd04 e43d e346 c4bd 07a3 f63d
00000390: d4d2 0cbe cae2 ac3c 541c cd3d deb9 cfbe
000003a0: c99a 2b3d 8f05 0b3e d09e 9cbe e112 10be
000003b0: 639b e13c 5e46 9e3c 8847 30bd a89c b13e
000003c0: ce97 74be 267e b8bd 59ed dd3c 124f 373c
000003d0: 4c47 683c 3cba a33d f45e 96be 55ce 4cbe
000003e0: 06b4 c13c 9d1f 513c 75e3 c23d 52c6 81be
000003f0: dcc2 503c 2ad4 303d 0591 97bc 7e51 603e

net.2.bias f4 [50]
-0.26802215 -0.57094043 0.119326904 0.37730676 -0.00033703173 0.103965364 -0.4555196 0.97292894
0.18171987 -0.18655449 0.9147941 0.8177882 -0.3899016 0.4896218 -0.020371513 0.12301593
-0.9907595 0.34137914 -0.5302949 -0.48745835 0.43763414 1.0787244 0.32760146 0.6674992
-0.17884704 -0.05104406 -0.59827733 0.02080702 -0.6326948 -0.3554775 0.43280306 -0.21031155
0.0756512 0.99121284 -0.7943415 0.63880277 0.33506092 -0.5696247 0.48882914 -0.8676391
-0.41174486 -0.34486458 -0.48392874 0.16627824 -0.31279615 0.12590109 0.9881107 0.40627927
0.721577 -0.24636893
00000000: 333a 89be 2729 12bf aa61 f43d 5a2e c13e
00000010: a2b3 b0b9 cbeb d43d dd39 e9be df11 793f
00000020: c614 3a3e 2408 3fbe f22f 6a3f 915a 513f
00000030: 2fa1 c7be b5af fa3e 29e2 a6bc c7ef fb3d
00000040: 6aa2 7dbf 3fc9 ae3e 68c1 07bf 2494 f9be
00000050: 9511 e03e a413 8a3f 61bb a73e 3ae1 2a3f
00000060: ae23 37be 9413 51bd b428 19bf 7c73 aa3c
00000070: 49f8 21bf 2601 b6be 5d98 dd3e e95b 57be
00000080: 04ef 9a3d 20c0 7d3f f759 4bbf 9488 233f
00000090: 1b8d ab3e edd2 11bf d047 fa3e 991d 5ebf
000000a0: 39d0 d2be 1792 b0be 82c5 f7be d844 2a3e
000000b0: d126 a0be 37ec 003e d3f4 7c3f d603 d03e
000000c0: 45b9 383f 2348 7cbe

net.4.weight f4 [50, 50]
-0.08390439 0.07679851 -0.08761492 0.043417197 0.15064219 -0.016179094 0.0002645977 -0.08789786
0.1341825 0.061613813 0.020854821 0.11922697 0.038803656 -0.18744808 -0.20757234 -0.3656323
-0.124563225 0.22244678 0.12761761 -0.0040334384 -0.0028382433 0.13226636 -0.07605278 0.04120827
-0.103410944 -0.07525953 0.14995931 0.015825763 0.22070216 -0.15285522 0.1093865 -0.14138007
-0.044112425 0.14063308 -0.07706038 -0.011131548 -0.029124947 0.25138333 -0.07353374 -0.1843962
-0.08426457 -0.13252965 0.32501206 0.16479097 0.23571819 0.120612994 -0.2340106 0.12231584
-0.20963947 -0.32804713 -0.09978398 0.16378652 0.028310202 0.05093748 0.13585195 0.18053268
-0.051905084 0.19552214 0.12879463 -0.1798419 -0.16407757 -0.07288967 -0.20945677 0.086306795
0.096126966 -0.012037113 0.051934477 -0.17834611 0.2660462 -0.10316769 -0.022437396 -0.21011929
0.12187713 -0.15542412 -0.08677899 0.07192377 0.16619143 -0.13271561 0.19298142 -0.047324233
-0.18675 0.17226394 -0.076632045 -0.13527651 0.025506606 -0.025774268 -0.006957663 0.12465855
-0.23041387 -0.22443493 0.19208474 0.08359863 0.2779007 0.10972297 -0.017755635 -0.07588778
0.025901424 -0.23745562 -0.24785465 0.29652476 0.028345259 0.086822405 0.036830693 0.12963293
0.0017922038 -0.09198454 -0.17677487 0.31599745 0.05773217 0.13091761 0.031513557 0.23049112
0.18730496 0.08179768 -0.1328917 -0.16973491 -0.035204288 0.19259751 0.269805 -0.10797768
0.03111856 0.08232559 -0.22407682 0.1162512 -0.011491067 -0.30508208 -0.093428716 -0.03684017
-0.118685916 -0.20163423 -0.04278704 0.07470015 -0.1479737 0.06644895 0.07253446 0.18483539
0.07724538 -0.33542964 -0.033979293 -0.16801618 0.21196653 -0.2128935 0.016622521 0.10030179
-0.24066284 -0.012495377 -0.09987887 -0.07636414 -0.2004274 -0.020895625 -0.027550641 0.094120085
0.14788324 0.16587172 -0.10477544 -0.26164505 0.19479463 -0.22688462 -0.07261035 0.005746203
-0.013908002 -0.26892602 0.091350324 -0.25083122 0.17147684 -0.015824044 0.013251331 0.25730395
-0.21160027 0.20170386 -0.00093898823 -0.18145244 0.10957655 0.20674397 0.18996485 -0.2675441
-0.2002946 0.08992625 0.116829894 0.07126278 -0.08179084 -0.34481964 -0.05176033 0.14098069
-0.049943317 -0.23227681 0.15973924 -0.07430243 0.07752877 0.07901851 -0.00486866 0.1915171
-0.12729874 0.05182384 0.2036826 0.01966675 -0.041249726 -0.018459972 0.008779595 0.04949324
-0.12687582 0.08038566 -0.06667381 0.02296813 0.18936881 0.12621672 0.013113795 -0.043384008
-0.03429544 -0.27433568 -0.27918726 -0.13304335 0.06604925 -0.14006208 0.05626045 -0.07378871
0.054456595 -0.08910706 -0.41752118 -0.1289593 0.024929259 -0.020318478 -0.07827101 -0.19216481
-0.3358071 -0.347543 0.2840221 -0.03957932 -0.12427855 0.09786789 0.055345602 -0.04689319
0.1022752 0.13182752 0.11995124 -0.066396646 0.13296653 -0.03729813 0.058276217 0.13982354
0.2139482 0.014543527 -0.23474225 0.1806715 0.11823408 0.038571455 0.110582106 -0.031844813
0.026583705 0.122590125 0.15796894 0.20743838 0.0045827725 0.04454415 -0.054011572 0.16502169
00000000: 11d6 abbd 8a48 9d3d 746f b3bd 3bd6 313d
00000010: f241 1a3e 058a 84bc b4b9 8a39 cb03 b4bd
00000020: 2367 093e c45e 7c3d bbd7 aa3c 452d f43d
00000030: 95f0 1e3d 64f2 3fbe d88d 54be 2834 bbbe
00000040: 011b ffbd 17c9 633e 31ae 023e ef2a 84bb
00000050: d201 3abb d570 073e 8fc1 9bbd 01ca 283d
00000060: 1ec9 d3bd ab21 9abd ef8e 193e 08a5 813c
00000070: bfff 613e 1486 1cbe 0806 e03d f0c5 10be
00000080: 3baf 34bd 1e02 103e d5d1 9dbd 1961 36bc
00000090: 7197 eebc 51b5 803e dc98 96bd 5cd2 3cbe
000000a0: e792 acbd dab5 07be fb67 a63e f7be 283e
000000b0: 1c60 713e f203 f73d 7aa0 6fbe ba80 fa3d
000000c0: bbab 56be cbf5 a7be 8b5b ccbd a7b7 273e
000000d0: ccea e73c d2a3 503d c61c 0b3e 8fdd 383e
000000e0: 6d9a 54bd f536 483e bde2 033e 7a28 38be
000000f0: f303 28be 2e47 95bd d67b 56be 9ec1 b03d
00000100: 37de c43d 5037 45bc 3fb9 543d 5da0 36be
00000110: 3537 883e 9549 d3bd a1ce b7bc 8329 57be
00000120: b79a f93d 8027 1fbe 2fb9 b1bd c54c 933d
00000130: 162e 2a3e 9ae6 07be ec9c 453e 0ed7 41bd
00000140: 643b 3fbe f565 303e 43f1 9cbd ed85 0abe
00000150: 3bf3 d03c 8f24 d3bc 1cfd e3bb fb4c ff3d
00000160: 9df1 6bbe 45d2 65be ddb1 443e c235 ab3d
00000170: 0049 8e3e 70b6 e03d 4474 91bc 0d6b 9bbd
00000180: 392f d43c 9127 73be 9ccd 7dbe 18d2 973e
00000190: 5134 e83c f2cf b13d c8db 163d 7fbe 043e
000001a0: 61e8 ea3a 6462 bcbd 7904 35be 6bca a13e
000001b0: 9178 6c3d 440f 063e 5c14 013d dd05 6c3e
000001c0: dfcc 3f3e 8b85 a73d c314 08be fdce 2dbe
000001d0: 5f32 10bd 4838 453e e223 8a3e 6723 ddbd
000001e0: 5aec fe3c 529a a83d 6574 65be 1c15 ee3d
000001f0: 0745 3cbc b833 9cbe 8e57 bfbd b8e5 16bd
00000200: 9a11 f3bd 3479 4ebe 7741 2fbd 64fc 983d
00000210: 6b86 17be 6316 883d f28c 943d 7d45 3d3e
00000220: d332 9e3d 6fbd abbe df2d 0bbd 6f0c 2cbe
00000230: c10d 593e c100 5abe f42b 883c 066b cd3d
00000240: 5270 76be 69b9 4cbc 4b8d ccbd cd64 9cbd
00000250: d73c 4dbe 4d2d abbc e2b1 e1bc 08c2 c03d
00000260: b46e 173e 47da 293e 8294 d6bd 57f6 85be
00000270: 3e78 473e 7154 68be bcb4 94bd a54a bc3b
00000280: 63de 63bc acb0 89be e115 bb3d f36c 80be
00000290: a097 2f3e 6da1 81bc 1c1c 593c 58bd 833e
000002a0: bead 58be 758b 4e3e 6f26 76ba abce 39be
000002b0: ac69 e03d b1b4 533e 2586 423e 8afb 88be
000002c0: 071a 4dbe 412b b83d 8344 ef3d 38f2 913d
000002d0: f581 a7bd 338c b0be a402 54bd 3e5d 103e
000002e0: 5d91 4cbd f9d9 6dbe af92 233e df2b 98bd
000002f0: 67c7 9e3d 75d4 a13d 4889 9fbb 0f1d 443e
00000300: 9a5a 02be 3c45 543d 2c92 503e 2a1c a13c
00000310: 79f5 28bd 5e39 97bc 4ad8 0f3c 6cb9 4a3d
00000320: bceb 01be 3da1 a43d 478c 88bd a927 bc3c
00000330: e6e9 413e f53e 013e 3edb 563c 6eb3 31bd
00000340: 6079 0cbd ba75 8cbe a2f1 8ebe 843c 08be
00000350: d444 873d 6f6c 0fbe 5c71 663d 891e 97bd
00000360: e10d 5f3d c37d b6bd 56c5 d5be e80d 04be
00000370: 7238 cc3c f072 a6bc 8d4c a0bd dac6 44be
00000380: e9ee abbe 28f1 b1be 586b 913e ed1d 22bd
00000390: c185 febd f66e c83d 12b2 623d 1313 40bd
000003a0: a975 d13d cbfd 063e ffa8 f53d f7fa 87bd
000003b0: 6128 083e edc5 18bd 0bb3 6e3d e72d 0f3e
000003c0: 3d15 5b3e f947 6e3c 4660 70be f301 393e
000003d0: b624 f23d 1afd 1d3d df78 e23d b56f 02bd
000003e0: 12c6 d93c 8810 fb3d 9cc2 213e ba6a 543e
000003f0: 152b 963b ed73 363d 3d3b 5dbd 72fb 283e

net.4.bias f4 [50]
0.77246916 -0.8818027 1.4212866 -0.9588381 -1.3388184 -0.35127735 0.2287687 -0.919171
-0.13151073 -0.08078869 -1.0095496 1.2021538 0.009708358 0.08483077 0.20836227 1.5272883
-0.70420504 -1.1609837 -0.50899065 -0.44211757 0.7397895 -0.4325511 0.1188311 0.858945
-0.12450017 0.67946625 -0.7380833 -0.32267442 0.65576386 -1.1634659 -0.5278329 0.66579133
-0.6128585 -0.17109233 0.07103841 0.78885657 1.51207 1.130623 -0.76374185 0.9732063
-0.67446303 0.6262034 0.19905818 -0.53700906 -0.2778287 -0.49830294 0.7425335 1.3533918
1.1386362 0.07118246
00000000: 8ac0 453f d2bd 61bf b8ec b53f 6a76 75bf
00000010: 675e abbf a0da b3be 5842 6a3e ca4e 6bbf
00000020: c0aa 06be 8a74 a5bd ec38 81bf 2de0 993f
00000030: ce0f 1f3c c1bb ad3d eb5c 553e 2f7e c33f
00000040: c846 34bf 1d9b 94bf 364d 02bf 3c5d e2be
00000050: d862 3d3f 5677 ddbe b85d f33d d2e3 5b3f
00000060: f2f9 febd 80f1 2d3f 07f3 3cbf 9535 a5be
00000070: 24e0 273f 73ec 94bf 0f20 07bf 4d71 2a3f
00000080: 4be4 1cbf d432 2fbe 967c 913d 81f2 493f
00000090: 828b c13f 41b8 903f 9684 43bf 0c24 793f
000000a0: 9ca9 2cbf de4e 203f e8d5 4b3e 6d79 09bf
000000b0: 903f 8ebe 9021 ffbe ad16 3e3f f13b ad3f
000000c0: d5be 913f 1cc8 913d

net.6.weight f4 [50, 50]
-0.2695708 0.17226654 0.20080797 -0.11494171 -0.04402232 -0.35176477 -0.0464173 -0.16352943
0.22621064 -0.10439873 0.0858259 0.14205651 -0.26338974 -0.031814214 0.081540674 -0.025007645
-0.13474496 -0.4031963 0.0149171045 0.116785996 0.09858286 -0.09134289 0.08766863 -0.09898201
-0.05914675 0.24263398 0.1299745 0.16851859 0.16019377 -0.23072192 -0.09965249 -0.29929966
0.07661526 0.11210429 0.047633763 -0.2723732 0.15914507 -0.25661853 -0.17949632 0.025460504
-0.16543218 0.14898673 -0.06626952 -0.10437302 -0.097909294 -0.12418645 0.13436346 -0.07316987
0.039480485 -0.06953273 -0.21424638 -0.06312492 0.1419481 0.1853937 0.34041765 0.1748421
-0.063330166 -0.16680308 0.16253263 -0.017236173 0.14371666 0.12695508 0.002038802 -0.110368505
-0.18234113 -0.08076286 0.007931184 -0.10785272 0.034698416 -0.022944946 0.0083913505 0.10894874
-0.19364624 0.08354882 0.09184932 0.013617023 0.16780697 0.038588144 -0.13251112 -0.10678164
0.14667538 -0.18445429 0.07079689 0.18319994 0.016381335 0.153292 -0.0673614 0.0029744657
-0.34368327 -0.24638762 -0.03122961 0.041783333 0.20660825 -0.11101871 -0.06858726 0.19291386
0.09967802 -0.25118622 -0.15083736 -0.018944776 0.20264876 0.10486946 -0.34152484 -0.13116772
-0.18689662 0.055181127 -0.4137027 0.0894776 -0.20390174 0.10139658 -0.16911742 -0.06505431
-0.14426582 0.05307699 0.031102514 -0.24853672 0.19187567 0.093804225 0.031061746 -0.049226254
-0.07098461 -0.16244003 -0.01673104 -0.056361843 0.06620123 -0.23886637 -0.15176521 0.01596185
-0.1569501 0.13756965 0.0792931 -0.026503801 0.02759051 0.25419036 0.11714563 0.3618376
0.08461691 0.10990662 0.17745025 0.33716294 -0.086635396 -0.024977665 0.69816524 0.14845395
0.033049755 0.14334196 -0.08215405 0.25726125 0.004793534 -0.03182523 0.027351372 0.09220805
-0.09724141 0.00391171 -0.086393476 0.14956124 -0.20404468 0.03924354 -0.11945958 0.11963496
-0.19676223 0.086191624 0.16738638 -0.18479253 0.056929942 -0.03658293 -0.00042776106 0.018915966
0.18765953 0.11776732 0.2018183 0.056657203 -0.04929469 0.13483173 0.06485034 0.038820237
-0.13626474 -0.107046284 -0.31952217 0.039545313 0.27261385 -0.21585736 -0.2565317 -0.016322523
-0.13934001 0.17699128 0.12747154 0.04466075 0.26612264 0.120549224 0.014245262 0.19665046
0.0028700437 0.146746 0.19151066 -0.045120776 -0.1220407 -0.04736396 0.12713337 0.06652965
-0.030059505 -0.1721753 0.023875928 0.14032388 0.09159737 -0.072860524 0.24879201 0.045505263
0.09276595 0.074755475 0.121970765 -0.018753782 0.07886664 0.10616806 -0.3237496 0.011484514
-0.24673127 -0.11066007 -0.09970888 0.12574297 -0.030095853 -0.23798342 -0.0009091349 0.15579858
-0.088927716 0.06542756 0.004158417 -0.277528 -0.041271683 0.09236749 0.032213137 0.024524378
-0.36555192 -0.053039327 -0.08851998 0.18374744 0.16294917 -0.04658558 0.05242929 -0.13027553
0.005930544 -0.22989318 -0.15402834 -0.111223996 -0.11556974 0.034419585 0.08134288 -0.0042634974
0.23501685 -0.15248226 0.1965164 0.23162049 -0.037926346 0.17924519 0.16963841 -0.01746511
00000000: 2f05 8abe a466 303e 9ba0 4d3e 8f66 ebbd
00000010: c050 34bd 831a b4be 1120 3ebd 4274 27be
00000020: c3a3 673e 00cf d5bd 7dc5 af3d 4377 113e
00000030: 05db 86be 9f4f 02bd ccfe a63d d5dc ccbc
00000040: 95fa 09be bf6f cebe df66 743c 7f2d ef3d
00000050: cfe5 c93d fb11 bbbd 9c8b b33d 14b7 cabd
00000060: dd43 72bd 0b75 783e 0918 053e 2390 2c3e
00000070: d609 243e 5e42 6cbe 9b16 ccbd ce3d 99be
00000080: 76e8 9c3d ef96 e53d 9f1b 433d 8074 8bbe
00000090: edf6 223e 8163 83be e2cd 37be 8c92 d03c
000000a0: 0e67 29be fa8f 183e 50b8 87bd 86c1 d5bd
000000b0: ab84 c8bd 7755 febd 9396 093e 16da 95bd
000000c0: 4ab6 213d 2d67 8ebd 6763 5bbe a347 81bd
000000d0: d85a 113e d9d7 3d3e 394b ae3e cf09 333e
000000e0: 3fb3 81bd 6dce 2abe f46e 263e e032 8dbc
000000f0: 762a 133e 8300 023e 6c9d 053b e208 e2bd
00000100: a2b7 3abe 0067 a5bd ccf1 013c e3e1 dcbd
00000110: ed1f 0e3d 0af7 bbbc e07b 093c 8420 df3d
00000120: 334b 46be a51b ab3d 7f1b bc3d ef19 5f3c
00000130: 97d5 2b3e 9a0e 1e3d ffb0 07be 55b0 dabd
00000140: 1232 163e 96e1 3cbe f6fd 903d c498 3b3e
00000150: 2632 863c 94f8 1c3e c6f4 89bd 41ef 423b
00000160: 41f7 afbe 094d 7cbe 3dd5 ffbc 0025 2b3d
00000170: 1d91 533e c75d e3bd 7a77 8cbd 368b 453e
00000180: fd23 cc3d 7b9b 80be 1c75 1abe 1332 9bbc
00000190: 2883 4f3e cdc5 d63d 58dc aebe d550 06be
000001a0: d461 3fbe 9b05 623d d7d0 d3be 0840 b73d
000001b0: 9ecb 50be 03a9 cf3d 1e2d 2dbe 323b 85bd
000001c0: 6bba 13be 4267 593d b3ca fe3c 6980 7ebe
000001d0: 0e7b 443e 6e1c c03d 3475 fe3c 78a1 49bd
000001e0: 6160 91bd ae56 26be 890f 89bc addb 66bd
000001f0: 8394 873d 6399 74be 5768 1bbe 6dc2 823c
00000200: 87b7 20be 0fdf 0c3e 6c64 a23d 801e d9bc
00000210: 7e05 e23c 3d25 823e 0cea ef3d c742 b93e
00000220: a14b ad3d b916 e13d 85b5 353e 9fa0 ac3e
00000230: e66d b1bd f69d ccbc f5ba 323f 5004 183e
00000240: 2e5f 073d 3cc8 123e 6240 a8bd bfb7 833e
00000250: 1413 9d3b 2c5b 02bd fc0f e03c 93d7 bc3d
00000260: 8126 c7bd cd2d 803b 10ef b0bd 9526 193e
00000270: 17f1 50be d6bd 203d 39a7 f4bd 2d03 f53d
00000280: 0a7c 49be 3c85 b03d 5667 2b3e 413a 3dbe
00000290: 5f2f 693d fbd7 15bd 1e45 e0b9 a8f5 9a3c
000002a0: d229 403e fe2f f13d 75a9 4e3e 6211 683d
000002b0: 3be9 49bd 5411 0a3e 41d0 843d f801 1f3d
000002c0: fc88 0bbe 153b dbbd 6998 a3be 44fa 213d
000002d0: 0b94 8b3e b609 5dbe 1f58 83be d0b6 85bc
000002e0: 26af 0ebe 343d 353e e687 023e 31ee 363d
000002f0: 3a41 883e 83e2 f63d f664 693c bd5e 493e
00000300: 5817 3c3b 9544 163e 5f1b 443e 90d0 38bd
00000310: 79f0 f9bd b600 42bd 402f 023e b240 883d
00000320: 5a3f f6bc b94e 30be 7397 c33c 10b1 0f3e
00000330: 6797 bb3d e637 95bd 55c3 7e3e ba63 3a3d
00000340: 13fc bd3d 6619 993d cfcb f93d 88a1 99bc
00000350: d584 a13d a46e d93d 82c2 a5be 8b29 3c3c
00000360: 1fa7 7cbe bfa1 e2bd 2b34 ccbd c4c2 003e
00000370: 948b f6bc edb1 73be 0353 6eba aa89 1f3e
00000380: bc1f b6bd e2fe 853d 5543 883b 2618 8ebe
00000390: 7f0c 29bd 2b2b bd3d ecf1 033d 59e7 c83c
000003a0: 9f29 bbbe c43f 59bd f749 b5bd 4a28 3c3e
000003b0: 26dc 263e 85d0 3ebd 18c0 563d f366 05be
000003c0: 0255 c23b 1e69 6bbe 9bb9 1dbe 68c9 e3bd
000003d0: d4af ecbd 8dfb 0c3d 1997 a63d cfb4 8bbb
000003e0: 42a8 703e 4f24 1cbe 983b 493e ec2d 6d3e
000003f0: a858 1bbd 0d8c 373e b1b5 2d3e fe12 8fbc

net.6.bias f4 [50]
0.66746956 -0.93478006 -0.3525824 0.13834468 -0.7802588 0.2867722 0.58421123 -0.13611871
0.5665043 0.95590043 -0.5471146 0.6218751 -0.8707815 1.403492 0.40823483 -1.0129062
2.2462518 1.0761772 -0.3849857 0.7681813 0.78737026 0.7739169 -0.17190018 0.3557215
-1.4664477 -0.67784053 -1.3760071 0.54758394 -0.46470052 -0.31397134 0.095714994 -1.2790285
0.085236 0.037879843 0.0072586844 1.9867064 -1.0372885 -1.2630124 -0.4590614 -0.55959827
-1.4202064 -0.73352706 -0.08975175 0.40163207 -0.22630286 -0.40742135 -0.16905808 -0.35587874
0.7017638 -0.9260211
00000000: 49df 2a3f bf4d 6fbf ae85 b4be 3aaa 0d3e
00000010: 0abf 47bf ced3 923e de8e 153f b462 0bbe
00000020: 6d06 113f e4b5 743f b40f 0cbf 3533 1f3f
00000030: 89eb 5ebf a0a5 b33f 2804 d13e e9a6 81bf
00000040: 97c2 0f40 2dc0 893f d81c c5be 88a7 443f
00000050: 1991 493f 6b1f 463f 9a06 30be 2121 b63e
00000060: 8fb4 bbbf f586 2dbf 0021 b0bf 762e 0c3f
00000070: 3aed edbe dac0 a0be 3906 c43d 35b7 a3bf
00000080: 3690 ae3d e527 1b3d 42da ed3b 654c fe3f
00000090: dfc5 84bf 64aa a1bf 190a ebbe d541 0fbf
000000a0: 53c9 b5bf 6ec8 3bbf c4cf b7bd b8a2 cd3e
000000b0: f0bb 67be 8899 d0be 901d 2dbe bd35 b6be
000000c0: cba6 333f b80f 6dbf

net.8.weight f4 [50, 50]
0.13702439 0.03461077 0.10166419 -0.060200304 -0.20819597 0.125945 -0.22748709 -0.20003764
0.27005765 -0.23809884 0.26528776 0.13745238 0.071753 -0.12310369 0.0954285 -0.14154886
0.015770178 -0.11934136 -0.051933512 0.09353425 0.119111374 -0.53942794 -0.0705124 -0.14338858
0.2789665 0.19332235 0.07702936 -0.10880966 -0.15407233 0.19241104 -0.2915157 0.13776915
0.39663082 0.06862383 -0.15188172 -0.040750194 -0.12775967 0.014632338 0.087548114 0.3291242
-0.048967496 -0.13085769 0.1517698 -0.028403385 0.067507565 -0.30459562 -0.109770715 0.060207628
0.18154365 0.045249343 0.02486844 0.06623188 -0.11705246 0.12772493 -0.025907438 0.12920457
-0.13837144 -0.27385685 0.22643001 0.0064862496 -0.08004718 0.20906243 0.02787706 0.25036052
0.24309175 -0.36645502 -0.17190851 0.08567031 -0.07816464 -0.035314433 0.2313372 0.020921413
0.09899936 -0.05904268 0.14827545 0.081700645 0.32335022 -0.16270901 0.058002822 0.23337817
0.21956167 -0.3967285 0.07890154 -0.013891234 -0.55316365 -0.26693046 -0.04994241 0.091778405
0.1666769 -0.087073006 -0.16901551 0.073686235 0.21423006 0.107298 0.021777093 -0.12138233
-0.009574968 0.07419926 0.12515669 -0.06467683 -0.095964804 -0.04443735 0.4014285 0.13753864
-0.6081321 0.008311629 -0.4987434 -0.06822544 0.020415965 -0.04646236 -0.045752198 -0.3440646
-0.3514279 -0.1516829 0.0907544 -0.5459594 0.1217335 0.0074446816 -0.2756636 -0.18867001
-0.31214777 -0.31305656 -0.04426293 -0.2942606 -0.22079404 0.053279806 -0.40327242 0.06508042
-0.09267323 0.254369 -0.17856203 0.022572707 -0.044008207 -0.04238656 0.21779473 0.015595085
0.2394149 0.16086267 -0.06644086 0.21123703 0.15111716 0.18471882 0.12901516 0.045273736
0.029184433 -0.20687212 0.040395234 0.05508659 0.31464103 0.11543896 0.39046082 -0.032342058
-0.44727385 0.09940002 0.08650909 -0.53816795 0.021864053 0.01875948 0.060721323 0.2845952
0.07440268 0.12661727 0.19406089 -0.07098597 -0.4632724 -0.072499886 0.19800991 0.10369037
-0.03235794 0.067679934 -0.012609088 -0.110231124 -0.064402916 0.0021998505 -0.07010748 -0.1322599
0.0168779 0.070720546 -0.25392178 -0.1499066 0.029288115 -0.1451156 -0.2729251 0.10101037
0.084089056 -0.08833387 -0.27652895 -0.20150204 -0.20862795 -0.066600166 -0.494699 0.02387932
-0.20311052 0.096114144 -0.051155485 0.24324034 0.14124309 -0.044572394 -0.043715466 -0.17730886
0.21766786 -0.09511718 -0.078143865 -0.17461942 0.017202895 0.30230743 -0.036685746 0.038719926
-0.15975128 0.14873715 0.14154968 0.0068922886 0.1361016 -0.1964249 -0.0540033 0.11731763
0.12769373 0.14432876 0.09206995 -0.108227864 0.06742755 0.24012004 0.025515417 -0.23322153
0.03158128 0.09217274 -0.25856116 0.22646885 -0.019163817 0.1273201 -0.041005448 0.25823158
-0.017788189 -0.09646262 0.1730773 -0.22987552 0.09817969 0.111356445 0.0035179933 -0.3328316
-0.15405022 0.14758743 -0.06772844 0.04329036 0.18037102 -0.7247399 -0.09280498 -0.18434095
-0.02035124 0.024187585 -0.2953875 -0.2978252 0.22317821 0.13476166 -0.28372627 -0.08249153
00000000: 1f50 0c3e 06c4 0d3d 5135 d03d 9894 76bd
00000010: 5331 55be baf7 003e 60f2 68be abd6 4cbe
00000020: ff44 8a3e 2fd0 73be ccd3 873e 51c0 0c3e
00000030: 3df3 923d ca1d fcbd 0470 c33d 2ff2 10be
00000040: 7630 813c 3e69 f4bd 3cb8 54bd e38e bf3d
00000050: aaf0 f33d f317 0abf ce68 90bd 75d4 12be
00000060: b2d4 8e3e 4bf6 453e 92c1 9d3d 99d7 debd
00000070: 23c5 1dbe 6607 453e 8c41 95be 5b13 0d3e
00000080: 3213 cb3e a78a 8c3d e286 1bbe ade9 26bd
00000090: 6ed3 02be 79bc 6f3c 6d4c b33d f882 a83e
000000a0: 2492 48bd 8fff 05be 8b69 1b3e 37ae e8bc
000000b0: 6841 8a3d f5f3 9bbe 78cf e0bd 469c 763d
000000c0: 94e6 393e 6057 393d e6b8 cb3c 94a4 873d
000000d0: 33b9 efbd 53ca 023e d63b d4bc 344e 043e
000000e0: 3eb1 0dbe f736 8cbe 45dd 673e 9b8a d43b
000000f0: c7ef a3bd 7614 563e 6f5e e43c 412f 803e
00000100: 0bed 783e fe9f bbbe c908 30be ea73 af3d
00000110: c814 a0bd dea5 10bd a9e3 6c3e 6263 ab3c
00000120: 2dc0 ca3d bdd6 71bd 85d5 173e ab52 a73d
00000130: 298e a53e 319d 26be 5e94 6d3d b0fa 6e3e
00000140: c6d4 603e ff1f cbbe 2197 a13d 0f98 63bc
00000150: 229c 0dbf 1cab 88be 6a90 4cbd 51f6 bb3d
00000160: 59ad 2a3e 5553 b2bd 6712 2dbe cfe8 963d
00000170: 205f 5b3e 0ebf db3d e065 b23c 4d97 f8bd
00000180: 54e0 1cbc c8f5 973d 1329 003e 4975 84bd
00000190: 3289 c4bd f003 36bd 0988 cd3e eed6 0c3e
000001a0: 8cae 1bbf 802d 083c 4c5b ffbe c8b9 8bbd
000001b0: 623f a73c 514f 3ebd a866 3bbd 3c29 b0be
000001c0: 5cee b3be c352 1bbe 71dd b93d ffc3 0bbf
000001d0: 6a4f f93d 84f2 f33b c823 8dbe b632 41be
000001e0: d5d1 9fbe f348 a0be 0c4d 35bd 53a9 96be
000001f0: d517 62be ed3b 5a3d b979 cebe e248 853d
00000200: 76cb bdbd a73c 823e f7d8 36be 66ea b83c
00000210: f341 34bd 889d 2dbd 9505 5f3e 8782 7f3c
00000220: 2e29 753e 2fb9 243e 2512 88bd 854e 583e
00000230: 75be 1a3e ee26 3d3e 8d1c 043e f470 393d
00000240: 3114 ef3c 49d6 53be 7975 253d 7aa2 613d
00000250: a118 a13e 436b ec3d 7bea c73e 1b79 04bd
00000260: 1401 e5be 3d92 cb3d ae2b b13d 60c5 09bf
00000270: 3e1c b33c 7bad 993c ecb6 783d 76b6 913e
00000280: 6f60 983d f5a7 013e e6b7 463e 1861 91bd
00000290: 0a32 edbe d27a 94bd 1cc3 4a3e 9e5b d43d
000002a0: c289 04bd c79b 8a3d 5996 4ebc dbc0 e1bd
000002b0: ade5 83bd 5e2b 103b 8394 8fbd 246f 07be
000002c0: 8643 8a3c efd5 903d 0902 82be 1e81 19be
000002d0: a1ed ef3c 2f99 14be d7bc 8bbe 86de ce3d
000002e0: e236 ac3d 63e8 b4bd 3495 8dbe 8d56 4ebe
000002f0: 91a2 55be ab65 88bd 3049 fdbe 909e c33c
00000300: 34fc 4fbe 7ed7 c43d 6a88 51bd ff13 793e
00000310: 07a2 103e 8b91 36bd fd0e 33bd 7490 35be
00000320: 53e4 5e3e cccc c2bd e409 a0bd 6fcf 32be
00000330: 16ed 8c3c 0ac8 9a3e cb43 16bd c998 1e3d
00000340: d795 23be 8d4e 183e 66f2 103e b5d8 e13b
00000350: 385e 0b3e 9c23 49be 9032 5dbd 3a44 f03d
00000360: 25c2 023e ebca 133e 2c8f bc3d 92a6 ddbd
00000370: 7517 8a3d 07e2 753e b505 d13c a0d1 6ebe
00000380: 5f5b 013d 10c5 bc3d 2162 84be 73e7 673e
00000390: 70fd 9cbc 3360 023e 54f5 27bd ee36 843e
000003a0: 89b8 91bc 328e c5bd 2d3b 313e 7d64 6bbe
000003b0: 6f12 c93d d90e e43d 228e 663b e768 aabe
000003c0: 57bf 1dbe 2921 173e 35b5 8abd 3c51 313d
000003d0: 2eb3 383e 8e88 39bf 8a10 bebd e0c3 3cbe
000003e0: a5b7 a6bc 0b25 c63c 083d 97be 8b7c 98be
000003f0: d488 643e f6fe 093e 9244 91be 52f1 a8bd

net.8.bias f4 [50]
-0.0032136233 -0.48388627 -0.32795328 0.5114823 -0.9188944 -0.06241446 -0.8347259 0.3996765
2.2606962 0.029573971 0.3054651 0.07678606 0.12856914 1.2189782 0.03679795 0.075157925
-1.1882802 -1.6543071 0.2982372 -1.2645873 0.73877853 0.20714007 0.34881714 -0.14477375
-0.18323135 -0.18856384 0.36206377 -0.96954507 0.16175097 -0.31597778 1.4544494 0.66409093
0.5043501 -1.1013086 -0.68553454 -0.43786687 0.1469898 -0.46849966 0.46024737 -0.20846877
-0.25733635 0.41335842 0.3933257 1.3944035 0.4523839 0.9238938 -0.66638106 -0.67735386
0.51308626 -1.3492154
00000000: a79b 52bb f1bf f7be 7ee9 a7be 81f0 023f
00000010: aa3c 6bbf 4ea6 7fbd 99b0 55bf 66a2 cc3e
00000020: 3faf 1040 1d45 f23c ec65 9c3e 0342 9d3d
00000030: a1a7 033e 7a07 9c3f 72b9 163d 66ec 993d
00000040: 9119 98bf 56c0 d3bf 8cb2 983e ffdd a1bf
00000050: 9720 3d3f 871c 543e 2998 b23e 923f 14be
00000060: 00a1 3bbe e116 41be 6c60 b93e 1b34 78bf
00000070: 0ca2 253e d7c7 a1be 662b ba3f dd01 2a3f
00000080: 171d 013f aef7 8cbf 317f 2fbf 1630 e0be
00000090: 7e84 163e 30df efbe 8ba5 eb3e d678 55be
000000a0: 97c1 83be b7a3 d33e fc61 c93e d07b b23f
000000b0: dd9e e73e 4e84 6c3f f397 2abf 1067 2dbf
000000c0: 9f59 033f 17b3 acbf

net.10.weight f4 [50, 50]
-0.16393414 -0.1782978 -0.29381058 -0.15782954 -0.28805867 -0.061360314 0.16034162 0.11610469
0.02392596 0.10186312 0.05784435 -0.018195564 -0.03280738 0.0039604055 0.117916286 -0.039450925
-0.23933893 -0.3092086 0.17329985 0.05295774 0.25025472 0.121405855 -0.1459653 0.009444285
0.0047900737 0.20540784 -0.02671499 -0.14445709 0.046702437 0.10982316 -0.114918336 0.022757387
0.17110196 -0.23291783 0.08069738 0.09157311 -0.13399827 0.048799105 0.35107917 -0.012333756
0.013817236 0.10180423 0.2580395 -0.08686141 0.029656207 -0.060947713 0.19843476 0.1292854
0.27552494 0.019918654 -0.18355668 0.13324194 -0.11498947 0.15581053 0.12399042 -0.092865504
-0.49266195 0.13942175 0.121337116 0.05330838 -0.6443096 0.018691098 -0.081157595 0.11097292
-0.0139673315 0.03874465 -0.41362348 -0.33639684 -0.117278285 -0.07402543 -0.11978666 0.28874224
0.20272289 -0.032814477 0.075491026 -0.19535418 -0.24199829 -0.3231371 0.026171746 0.20068257
-0.12017667 -0.02064992 -0.19114664 -0.028376305 0.16089728 0.023087334 0.19558041 0.11209325
-0.19835024 -0.20640369 -0.21804969 0.06209145 -0.2951691 0.18927287 -0.05090932 -0.042731646
0.06516199 0.08564182 0.12581365 0.21960807 0.060401063 0.31481004 0.0013213769 -0.004513129
0.21745062 0.24358957 -0.11582631 0.07102975 -0.1411014 0.40420258 0.05460382 0.18472858
0.15807343 0.072015785 0.2032927 0.16425094 -0.1743717 -0.053202137 -0.1357477 -0.051013492
-0.37254542 0.058072515 -0.09685135 0.104464285 -0.10966997 0.27267185 -0.0077848686 0.111948855
0.07665554 0.00113243 -0.05374533 -0.24322838 0.03964391 0.0328416 -0.14455214 -0.23544501
-0.31873986 0.04331837 -0.10756269 0.32744196 -0.36923048 0.04012983 -0.09477033 0.009897956
0.077257216 -0.0743568 0.16937222 0.1661794 0.0641116 0.033195313 -0.23952045 -0.39067206
-0.27232176 0.049882717 -0.073370315 0.11566924 -0.14056116 0.2074847 0.21883562 -0.101444386
0.010625196 -0.10536731 -0.048471395 -0.04468593 -0.055925913 -0.12566191 -0.042784467 -0.39280277
-0.26657206 -0.008508571 0.026972953 -0.15984924 0.002704374 0.118664235 0.032235637 -0.019232126
0.31666282 -0.11199888 0.015591986 -0.19549036 0.03441394 0.02837213 0.21234477 0.018763762
-0.2545921 -0.067461945 0.00032587038 0.028213128 0.19438191 -0.051474888 -0.061811127 -0.018885478
0.015639646 -0.2341098 0.085037515 -0.2565007 -0.027056042 -0.12065203 -0.32702714 -0.19506554
-0.24686266 0.20844297 -0.27129266 0.16080908 -0.11381251 -0.29511312 -0.17332216 -0.20581852
0.13077928 -0.1022424 0.122148775 -0.05573049 -0.14731576 -0.10069319 0.1088007 0.3907914
-0.07447931 -0.19881363 0.21252252 -0.29638335 -0.091044866 0.28644305 0.09129393 0.117673755
0.21825188 -0.1893222 0.30897853 0.1468767 -0.051855847 0.07894452 -0.06725573 -0.22139044
0.04089039 -0.025368454 -0.13710523 -0.5853188 -0.09855022 -0.0947696 0.021316351 -0.1605631
0.14736262 0.15300024 0.04529759 0.09898886 -0.09019133 0.059078768 -0.28015694 -0.16062738
-0.05241342 0.18436486 0.31779584 0.06779428 0.26223424 0.1789535 0.013172297 0.12701218
00000000: 5ade 27be b393 36be 576e 96be 119e 21be
00000010: 6d7c 93be f454 7bbd 9830 243e 4cc8 ed3d
00000020: 6000 c43c 9d9d d03d 32ee 6c3d dd0e 95bc
00000030: 0861 06bd 4ac6 813b 187e f13d 4b97 21bd
00000040: 4415 75be 9750 9ebe 8475 313e 37ea 583d
00000050: 6321 803e a2a3 f83d ed77 15be 34bc 1a3c
00000060: 0df6 9c3b 6f56 523e 65d9 dabc 8fec 13be
00000070: 0e4b 3f3d f7ea e03d 4e5a ebbd b36d ba3c
00000080: 5a35 2f3e 0382 6ebe ab44 a53d af8a bb3d
00000090: d836 09be 92e1 473d a6c0 b33e 8613 4abc
000000a0: b061 623c bc7e d03d c11d 843e 65e4 b1bd
000000b0: 93f1 f23c 4fa4 79bd 7b32 4b3e 6463 043e
000000c0: 9b11 8d3e 722c a33c 48f6 3bbe 9370 083e
000000d0: 997f ebbd cc8c 1f3e b0ee fd3d 4530 bebd
000000e0: 303e fcbe 93c4 0e3e 987f f83d e359 5a3d
000000f0: 79f1 24bf 131e 993c f435 a6bd c545 e33d
00000100: 3cd7 64bc b6b2 1e3d 75c6 d3be 353c acbe
00000110: 992f f0bd a59a 97bd b552 f5bd 06d6 933e
00000120: 9796 4f3e 7968 06bd 0a9b 9a3d ed0a 48be
00000130: 66ce 77be 3a72 a5be 2166 d63c bb7f 4d3e
00000140: 301f f6bd 052a a9bc f2bb 43be 6d75 e8bc
00000150: 42c2 243e a621 bd3c 3b46 483e 2591 e53d
00000160: 531c 4bbe 7d5b 53be 6b48 5fbe 9b53 7e3d
00000170: 6720 97be bfd0 413e 4b86 50bd 6107 2fbd
00000180: a673 853d fb64 af3d 4bd5 003e f0e0 603e
00000190: 1b67 773d c82e a13e 0d32 ad3a dfe2 93bb
000001a0: 60ab 5e3e 8b6f 793e 5836 edbd 0c78 913d
000001b0: e37c 10be a4f3 ce3e 41a8 5f3d 7d29 3d3e
000001c0: 00de 213e 037d 933d f62b 503e 6631 283e
000001d0: 7f8e 32be 7cea 59bd 7201 0bbe 86f3 50bd
000001e0: 46be bebe 72dd 6d3d 005a c6bd 5ff1 d53d
000001f0: a69a e0bd a59b 8b3e 3618 ffbb 7145 e53d
00000200: 94fd 9c3d 0c6e 943a 1024 5cbd dc10 79be
00000210: a761 223d ea84 063d 7a05 14be 7f18 71be
00000220: df31 a3be 9a6e 313d d449 dcbd 79a6 a73e
00000230: c70b bdbe 2d5f 243d f216 c2bd 092b 223c
00000240: 0839 9e3d 6148 98bd e96f 2d3e ef2a 2a3e
00000250: f14c 833d cff7 073d d944 75be 2b06 c8be
00000260: c26d 8bbe d251 4c3d 2d43 96bd ffe3 ec3d
00000270: 44ef 0fbe df76 543e 7216 603e 13c2 cfbd
00000280: 4d15 2e3c d1ca d7bd f189 46bd 9808 37bd
00000290: 9212 65bd 84ad 00be c43e 2fbd 721d c9be
000002a0: 227c 88be 8967 0bbc 62f6 dc3c 85af 23be
000002b0: de3b 313b 3c06 f33d 8409 043d b18c 9dbc
000002c0: a121 a23e ab5f e5bd 8775 7f3c a02e 48be
000002d0: a2f5 0c3d ab6c e83c e870 593e 76b6 993c
000002e0: e559 82be 7d29 8abd 95d9 aa39 381f e73c
000002f0: 0d0c 473e 55d7 52bd aa2d 7dbd b8b5 9abc
00000300: b71e 803c 7bba 6fbe 2628 ae3d 0f54 83be
00000310: a2a4 ddbc 6918 f7bd 1a70 a7be 43bf 47be
00000320: 91c9 7cbe 1372 553e dfe6 8abe 23ab 243e
00000330: 8916 e9bd 1119 97be 5d7b 31be 17c2 52be
00000340: 01eb 053e 7764 d1bd 2329 fa3d a745 64bd
00000350: f1d9 16be 3b38 cebd e7d2 de3d cf15 c83e
00000360: 9c88 98bd cd95 4bbe 819f 593e 8fbf 97be
00000370: bb75 babd aaa8 923e 50f8 ba3d f0fe f03d
00000380: 6c7d 5f3e aedd 41be 6f32 9e3e d866 163e
00000390: cc66 54bd aaad a13d 5fbd 89bd 2db4 62be
000003a0: ae7c 273d 81d1 cfbc 5065 0cbe 74d7 15bf
000003b0: b3d4 c9bd 9016 c2bd a19f ae3c a76a 24be
000003c0: 3ae6 163e 18ac 1c3e f789 393d acba ca3d
000003d0: 3bb6 b8bd 94fc 713d bb70 8fbe 817b 24be
000003e0: 74af 56bd 24ca 3c3e 23b6 a23e bad7 8a3d
000003f0: 9143 863e 963f 373e 9ed0 573c 7b0f 023e

net.10.bias f4 [50]
-0.033078853 0.13186456 -0.360079 0.40292522 0.24230029 0.40978128 0.91043264 0.70932156
1.6039152 0.022584226 1.0287889 -0.17207003 0.09955356 -0.1996464 -0.7688272 1.0261675
0.133375 0.7086675 0.9003556 0.4419896 0.17867878 0.028198604 -0.49483633 1.2978806
0.545415 0.04705971 -0.36794704 -0.7757765 0.1730128 0.8945585 -0.21114142 0.26636195
-0.1454004 0.02735729 0.6672593 -0.86240834 0.5762051 -0.21834841 -0.7376357 -0.42900404
-0.95616853 0.0048114737 -0.943856 -0.13722707 0.34902886 0.50939846 -0.13756269 0.7710101
0.9986734 0.07978023
00000000: b17d 07bd 8107 073e 465c b8be 374c ce3e
00000010: 911d 783e dace d13e 1d12 693f 1996 353f
00000020: 184d cd3f 8e02 b93c 5baf 833f 2033 30be
00000030: bde2 cb3d 1b70 4cbe dcd1 44bf 7559 833f
00000040: 7593 083e 3c6b 353f b47d 663f 764c e23e
00000050: 92f7 363e c200 e73c 305b fdbe f420 a63f
00000060: 51a0 0b3f afc1 403d 8e63 bcbe 4a99 46bf
00000070: 442a 313e c901 653f 7535 58be 9860 883e
00000080: d8e3 14be 651c e03c 81d1 2a3f cbc6 5cbf
00000090: 2d82 133f ba96 5fbe b1d5 3cbf 6ba6 dbbe
000000a0: 76c7 74bf 91a9 9d3b 8ca0 71bf 4185 0cbe
000000b0: e9b3 b23e f067 023f 3cdd 0cbe eb60 453f
000000c0: 0fa9 7f3f d163 a33d
