data/models/gtsrb/gtsrb_50x16.pth (torch, 787549 bytes, 34 tensors)

net.0.weight f4 [50, 3072]
000000 99 f5 01 be 2e 89 dd bc ee 5f 9c 3b e1 82 1e 3d
       -0.12691344 -0.027042951 0.004772178 0.038699035
000010 a8 c5 c3 3d 17 96 69 3d 09 fc 9f 3d 5d d9 c3 3d
       0.09559184 0.057027902 0.07811744 0.09562943
000020 18 f1 d4 3d fe c5 11 3e 86 f6 14 3e 0c 30 05 3e
       0.103975475 0.14235684 0.14547166 0.1300661
000030 53 7b a0 3d 9a a9 89 3d b1 66 43 3d 4d 34 b2 3c
       0.07836022 0.06721802 0.047705356 0.021753455
000040 a8 1e 6f 3d 1d b1 4f 3d d9 d4 af 3b 2e bc 29 bd
       0.058378845 0.050706018 0.0053659496 -0.041439228
000050 77 d6 41 bd 66 d0 3b bd e9 c4 e7 bc 56 c1 a1 bd
       -0.04732367 -0.04585304 -0.028292136 -0.07898204
000060 ad 65 60 bd 76 99 43 3b 93 df 2e 3d 01 00 61 3d
       -0.054784466 0.0029846109 0.042693686 0.054931644
000070 e8 11 8f 3d a1 d3 d1 3d d9 45 47 3e e2 5e 85 3e
       0.06985837 0.10245443 0.19460239 0.26048952
000080 85 26 9d bd 10 bf 6c bd 27 4f ef bc 11 14 61 bc
       -0.07673363 -0.0577994 -0.029212547 -0.013737694
000090 cc 19 07 3d 50 89 49 3a be 74 3a 3d 36 e7 94 3d
       0.032983586 0.00076880027 0.04552149 0.072706625
0000a0 5b 71 a7 3d bd b6 bd 3d ba b4 cb 3d 63 0a e6 3d
       0.08175918 0.0926337 0.0994658 0.1123245
0000b0 34 2c ae 3d 3f 3b cf 3d 46 ab 34 3d 97 11 20 3d
       0.08504525 0.10118722 0.04410865 0.039079275
0000c0 d3 96 01 bc 14 37 1f bc 5d 87 db bc 51 b1 9f bd
       -0.007909494 -0.0097177215 -0.026797945 -0.07797492
0000d0 d5 2c a7 bd b1 4e 3e bd 32 74 5d bd c1 6f 69 bd
       -0.08162848 -0.046461765 -0.05406589 -0.056991342
0000e0 64 88 93 bd 9c d2 ca bc f5 77 97 bc 9d fc 14 3d
       -0.07203749 -0.02475863 -0.018489817 0.036373723
0000f0 e4 d8 00 3d c7 a7 99 3d c4 37 0a 3e 3d ed 5c 3e
       0.031456843 0.07502704 0.13497835 0.21574874
000100 40 40 e0 bd f5 d3 23 bd 3f 0b fd bc 80 a5 2f bd
       -0.10949755 -0.03999706 -0.030889152 -0.042882442
000110 c8 3c 89 3a 07 5d 91 bc 20 8c e7 ba 7c 30 6b 3c
       0.0010470385 -0.017744554 -0.0017665662 0.014354821
000120 e6 96 3b 3d 8e 9e c7 3d 44 0a 64 3d cd 6e 9d 3d
       0.045798205 0.09747039 0.055673853 0.07687149
000130 fc 05 c0 3d c6 0a aa 3d 26 72 2d 3d 35 49 a1 bc
       0.093761414 0.08302836 0.04234519 -0.019688228
000140 f0 f5 26 bc ff c9 83 bd a2 1f 72 bd 84 26 48 bd
       -0.010190472 -0.06435012 -0.0591122 -0.048864856
000150 80 ff 8c bd a8 63 97 bd 75 92 bc bd bf 07 ac bd
       -0.0688467 -0.07392055 -0.09207622 -0.08399915
000160 7a 6f a5 bd 58 69 93 bd 9c bc 8f bc 35 bb 27 3d
       -0.08077903 -0.07197827 -0.01754599 0.04095002
000170 1a 50 0c bb c2 af f5 3c 64 5d af 3d b7 0a 38 3e
       -0.002141005 0.029991034 0.08562735 0.17972837
000180 db 12 d8 bd b8 9a b3 bd 2e 0c 7e bd 8b 95 46 bd
       -0.105504714 -0.08769745 -0.062023334 -0.04848246
000190 d4 60 9f 3b 3b dc 37 bd 51 29 88 bc 52 00 67 bc
       0.0048638377 -0.044887763 -0.016621264 -0.014099197
0001a0 b4 f3 26 3d a1 d7 a9 3d dc 7d bd 3d ee 8b 01 3e
       0.040759757 0.08293081 0.092525214 0.12651035
0001b0 c2 1e c9 3d 66 21 a2 3d 4b 60 48 3d 1b a6 c3 3c
       0.0982032 0.079165265 0.048919957 0.023882916
0001c0 7e 52 3b 3b ed a7 26 bd 8c aa fd bc 09 94 78 bd
       0.0028583105 -0.04068749 -0.030965112 -0.060688052
0001d0 66 62 de bd a8 dc ad bd cf 80 78 bd c5 c0 93 bd
       -0.10858612 -0.084893525 -0.060669716 -0.07214502
0001e0 db 8f a2 bd 3e 68 06 bd 02 8f c8 bb 57 07 f1 3c
       -0.079375945 -0.032814257 -0.0061205635 0.029422445
0001f0 5f 4a 89 3a a5 9d e2 3c a8 d1 90 3d d5 3b 2a 3e
       0.0010474435 0.027663061 0.07071239 0.16624387
000200 33 ea 06 be 9d 61 a0 bd 3e f4 8b bd 3d 54 23 3c
       -0.13175277 -0.07831118 -0.06833695 0.009968814
000210 f0 63 70 3d 57 d3 0a 3c c9 00 74 3c b6 85 89 3c
       0.058689058 0.008473239 0.014892765 0.016787391
000220 89 fc 98 3d 26 ab ca 3d e8 8b 07 3e b7 88 12 3e
       0.07470042 0.09895925 0.13236964 0.14309965
000230 3a 1c 13 3e 9b f2 13 3e 9d 6e c4 3d 8d 46 c1 3d
       0.14366236 0.14448015 0.0959141 0.094372846
000240 2a d0 a3 3d 16 4c d0 3c 37 79 2c 3d 26 4a 13 3b
       0.079986885 0.025426906 0.042107787 0.0022474616
000250 1b db 10 bd e4 8c 0f bd 67 04 19 bd ac 9f c3 bc
       -0.035365205 -0.035046473 -0.037357714 -0.023879848
000260 58 35 7d bd 4d 9b f7 bc 3d f5 51 bc a6 05 27 3d
       -0.06181845 -0.03022542 -0.012814817 0.04077687
000270 90 c8 c3 3c 46 be 5c 3d 94 1f a3 3d dc bc 0d 3e
       0.023899347 0.053892396 0.079650074 0.13841575
000280 30 68 f5 bd 7c 9c 8b bd ce f0 ab bd e4 76 4a bd
       -0.11982763 -0.068169564 -0.08395539 -0.04942979
000290 4d 44 02 3d f7 b4 b8 ba a9 35 d2 bc f3 5e b1 3a
       0.031803418 -0.0014092018 -0.025660353 0.0013532325
0002a0 5e 5a 0c 3c ef 71 3b 3d 3d 0c 97 3d 01 c3 f6 3d
       0.008566467 0.045762952 0.07375381 0.12048913
0002b0 ce 9e 02 3e 8d bc c6 3d 79 2f b5 3d d3 ac 53 3d
       0.12755892 0.09703932 0.08846945 0.05167849
0002c0 93 66 5f 3d dd f4 d9 3b 2a 02 26 bd 80 3c 66 bd
       0.05454118 0.0066515044 -0.040529408 -0.05621004
0002d0 01 d7 49 bd 02 79 75 bd 0b be 85 bd e4 b6 98 bd
       -0.04927731 -0.059929855 -0.065303884 -0.074567586
0002e0 08 d2 49 bd 22 fe 96 bd a1 c4 30 bd af 30 bf bc
       -0.049272567 -0.07372691 -0.04315627 -0.023338644
0002f0 66 c7 54 bc 97 80 34 3d 9c 00 31 3d fc f6 d6 3d
       -0.012986993 0.044067945 0.04321347 0.10496327
000300 82 ff 25 be 68 b5 d7 bd ae d5 aa bd 8b 74 d8 bd
       -0.1621075 -0.10532647 -0.083415374 -0.10569104
000310 b6 fe 3b 3b dd c8 0f bd c1 49 c6 3b 03 49 49 3c
       0.0028685755 -0.035103668 0.0060512726 0.012285474
000320 a6 5c 19 bc 34 c0 99 3c 4c e9 23 3d bc b0 49 3d
       -0.009360468 0.018768407 0.04001741 0.049240813
000330 05 a1 a4 3d d4 8b 9f 3d da 6d 3a 3d 0c 09 85 3c
       0.080385245 0.07790342 0.04551492 0.016239665
000340 0c 93 b7 ba 58 3d b8 bc 85 b1 8f bd 47 19 a1 bd
       -0.0014005615 -0.022490188 -0.07016281 -0.078661494
000350 24 8c 81 bd 23 fe aa bd 50 60 22 bd 03 4e 86 bd
       -0.06325558 -0.08349254 -0.039642632 -0.06557848
000360 88 dc e6 bc 87 f9 19 bd 11 68 55 bd ec 52 3c bd
       -0.02818133 -0.037591483 -0.0521012 -0.045977518
000370 bb 42 17 bd 5f db 51 3c b1 5e 50 3d 1c 83 c3 3d
       -0.036928874 0.01280865 0.050871555 0.095464915
000380 61 8b 0d be 13 7a e0 bd 6f a7 69 bd 2d 73 a6 bd
       -0.138227 -0.10960784 -0.057044443 -0.08127437
000390 86 ac df bc 18 48 0c 3b d9 81 15 bc d6 ca b9 3b
       -0.027303945 0.0021405276 -0.009125196 0.005669932
0003a0 04 17 6f 3c 13 c5 26 bc 4c b4 54 3d b6 ed 19 3d
       0.01459289 -0.010178822 0.051929757 0.037580214
0003b0 88 9a c3 3c 61 6c ee 3c 4c 63 55 3c 17 ea 75 bc
       0.023877397 0.029104413 0.0130241625 -0.015009425
0003c0 6b d3 06 bd 09 c7 b7 bd 9b 59 dd bd eb 76 e9 bd
       -0.032916468 -0.0897351 -0.108081065 -0.11399635
0003d0 12 9f 90 bd 64 92 7f bd 78 fe 4e bd 63 c3 3a bd
       -0.0706159 -0.06239547 -0.05053565 -0.04559649
0003e0 47 1f 80 bd 24 fd 87 bd 2a cc 99 bd 35 cd ae bd
       -0.06255966 -0.066400796 -0.07509644 -0.08535234
0003f0 bd 66 74 bd f4 7d b7 bc 8c 8a 52 3c 99 66 40 3d
       -0.05966829 -0.022398926 0.012850415 0.046972845

net.0.bias f4 [50]
000000 16 4f ee be 81 c0 a4 be a0 6b e1 be bf d7 cc 3e
       -0.46544713 -0.3217812 -0.44027424 0.4000835
000010 e6 f4 10 bf 8e a6 5e bf 24 c1 1a be 12 13 30 3d
       -0.56623685 -0.8697289 -0.1511274 0.042986937
000020 53 3d 0d bf 20 09 b5 be 36 30 4f bf 1e a7 bd be
       -0.551717 -0.35358524 -0.8093294 -0.37041563
000030 c1 19 aa be ae c7 99 3e e1 5d c4 bd eb a8 96 be
       -0.33222774 0.30035156 -0.095882185 -0.2942575
000040 a0 22 94 b8 5f a6 d3 be 38 7c 51 bf e4 dc 1a 3f
       -7.063639e-05 -0.4133787 -0.8183017 0.604933
000050 5c fe 0b 3f 8c c5 53 3f 7c c7 14 3e fa 98 b5 3d
       0.54684997 0.8272331 0.14529222 0.088670686
000060 ff 3b 18 3f 7d 7f 55 bf 19 36 b6 be 66 40 3b be
       0.59466547 -0.83397657 -0.35588148 -0.18286285
000070 fd 24 10 be af 5d 26 3f c5 23 f0 be 61 63 91 3f
       -0.1407661 0.649867 -0.4690229 1.1358453
000080 bf 82 9d bf b1 05 51 bf 6d 1b f7 bc bc 59 2b 3d
       -1.2305526 -0.8164931 -0.030164445 0.041833624
000090 72 b3 e5 bc 64 3f 4d 3f 41 80 b4 be b2 d0 9c be
       -0.028039668 0.8017485 -0.352541 -0.30627972
0000a0 9c 79 68 be 4b d2 eb be d2 17 25 bf 59 b5 ef 3e
       -0.2270264 -0.46058878 -0.6448947 0.46818045
0000b0 39 12 f3 be 23 2c 9c 3e aa d2 29 3f 5a f3 4a be
       -0.4747484 0.30502424 0.6633707 -0.19819394
0000c0 5d d9 8d 3d 88 3d d5 bc
       0.069262244 -0.026030317

net.2.weight f4 [50, 50]
000000 71 fc 17 3d 14 dc 5f 3e ec 2c aa 3d e6 55 04 bc
       0.03710598 0.21861297 0.083093494 -0.00807712
000010 d2 6b bb bd 37 70 4b bd 4d 4c 70 bd d0 aa f3 3d
       -0.091514245 -0.049667563 -0.058666516 0.11897814
000020 c3 a3 cf bd 4a 05 3d be 43 6f b7 3d d3 5a 4c 3e
       -0.10138657 -0.18459049 0.08956768 0.19956522
000030 fb c5 19 bd be 01 ae be 95 d5 02 be 94 f0 09 3c
       -0.037542325 -0.33985704 -0.12776788 0.008419175
000040 28 b2 2e 3d a8 ac 33 3e 79 53 96 bd 0e c7 a2 bd
       0.04265037 0.17546332 -0.0734014 -0.07948123
000050 5c f8 bf 3d e1 2d 8d be 02 ff 1e bc 40 a7 41 bc
       0.09373543 -0.27574065 -0.009704353 -0.011819661
000060 d1 b2 ae bc a9 ef 56 3c b1 33 0e 3e 12 31 c5 3c
       -0.0213255 0.013118663 0.13886906 0.02407125
000070 15 a6 1d 3f 79 66 8a be 6b e2 0c 3e a0 14 9a be
       0.61581546 -0.27031305 0.13758247 -0.3009386
000080 8b 06 8c 3c c9 6d d5 bd 3d 4f 54 be 73 f4 23 3d
       0.017092964 -0.104213305 -0.20733352 0.040028047
000090 4c c4 02 bd bf 2a 97 bd 9c 02 2c 3e 8d 18 66 bd
       -0.031925485 -0.073812 0.1679787 -0.056175757
0000a0 33 c5 01 be 10 2f af bd 12 5c 33 bd 04 dd 6f 3e
       -0.12672882 -0.08553898 -0.043788977 0.23424155
0000b0 a5 5b 56 3d a3 c1 0d bd 1f 86 33 3c f6 2c 08 be
       0.052333493 -0.034608494 0.01095727 -0.13298401
0000c0 3d 42 2d 3d e1 6f ba 3d 70 18 68 be e6 ae c0 3a
       0.042299498 0.091033705 -0.22665572 0.0014700561
0000d0 ad 64 95 be 2b 76 35 be 67 06 07 bf 12 a4 40 bc
       -0.29178372 -0.17720859 -0.52744144 -0.011757867
0000e0 a2 de 8d bd bf 87 c7 bd 28 33 29 be dc e9 38 3c
       -0.069272295 -0.097426884 -0.16523421 0.011286225
0000f0 35 aa 17 be a1 2d ce be 53 38 ee 3c e1 81 ae 3d
       -0.14811023 -0.40269187 0.029079592 0.08520866
000100 41 37 f9 3d c8 4c 22 3d ff 52 77 ba e2 0d 31 bd
       0.12168742 0.039624006 -0.00094346696 -0.04322613
000110 1e 65 23 3c ee 1f 19 be ae 1a a8 bd 11 da 3c bd
       0.009972839 -0.14953586 -0.08208214 -0.0461064
000120 69 31 40 3d f6 04 1c 3e aa 8b dc bc da 19 75 bd
       0.04692212 0.15236267 -0.026922066 -0.059839107
000130 5f 71 9c bd 4e bc 8d 3e 52 8d 14 bf 45 b0 d3 3e
       -0.07638811 0.27682728 -0.5802814 0.4134542
000140 22 f7 a6 3c ee b6 39 3e 2d 1e 3f 3e dd a7 9e 3d
       0.020381514 0.18136188 0.18663855 0.07746861
000150 51 03 35 bd 26 1e 82 3e ac 48 70 bd df 11 ad bd
       -0.044192616 0.25413626 -0.058663055 -0.08450674
000160 52 91 81 3e 0c 2b 74 3d c1 4a bd 3d fe fb 4c bd
       0.25306183 0.059611365 0.09242774 -0.050045006
000170 06 48 85 3e 6c 2b 3f be a4 83 7f 3d 07 f9 15 be
       0.26031512 -0.18668908 0.0623814 -0.14645778
000180 b3 de 96 bd dd c4 4e bc 92 f0 99 3d e6 44 69 3e
       -0.07366695 -0.012620178 0.07516588 0.22780189
000190 f4 35 1d 3d ba a7 36 3e 4b a3 da bd ac f1 d9 bc
       0.03838153 0.1783742 -0.10675677 -0.026604496
0001a0 5a 03 00 be bb c7 32 bc 7e 7f 59 3d a5 57 0f 3e
       -0.12501279 -0.010911877 0.0531001 0.13998277
0001b0 8b e6 46 3d b3 06 27 3e 86 63 fc 3d 83 56 80 3d
       0.048559707 0.1631115 0.1232367 0.06266501
0001c0 2a 11 7a bc 16 9d 30 be fc 01 82 3e 54 61 1e 3e
       -0.015262881 -0.17247424 0.2539214 0.15466815
0001d0 de 2f 8a 3c 0e 14 71 bd 18 bf d7 3d 21 b3 50 bd
       0.016868528 -0.058857016 0.10534495 -0.05095208
0001e0 a2 eb 5b bd a2 73 14 be 4f ac 34 be b6 6a 13 3e
       -0.053691514 -0.14497235 -0.17643856 0.14396176
0001f0 26 e2 eb bd ff e7 3d be f3 2b f2 3b a8 55 74 3e
       -0.11517744 -0.1854553 0.007390493 0.238608
000200 8f 3e d2 3e 2a 24 43 be a8 1f 88 3d d8 86 8a be
       0.41063353 -0.19056764 0.06646663 -0.27056003
000210 4b c0 61 3c c4 91 9c bd ca 20 28 bd 4d b9 09 3e
       0.013778756 -0.0764499 -0.041046895 0.13449593
000220 3a 1f a0 3c de 19 a1 3d 2a 55 b8 3e c7 56 14 3e
       0.01954614 0.07866262 0.36002475 0.14486228
000230 8b b3 09 be bc 58 f5 bd f6 a8 a7 bd e8 d8 bb bd
       -0.13447396 -0.11979815 -0.081865236 -0.09172231
000240 da 0c 56 3e da 4b 29 3d d2 85 0e be e0 a8 18 3e
       0.2090334 0.041332103 -0.13918236 0.1490817
000250 a1 b0 96 be c2 7a 03 3e 14 a6 c4 bd cf 0b 2d bd
       -0.29431632 0.12839797 -0.096019894 -0.04224759
000260 60 00 3b be a4 3f ad 3c 84 21 13 be e9 9a 2d 3d
       -0.18261862 0.02114851 -0.14368254 0.042384062
000270 1d 68 65 bc 28 70 3b 3c f3 f4 d7 bc be f2 43 be
       -0.014001873 0.011440314 -0.026361918 -0.19135568
000280 6a dd d2 bd d7 7b 10 be f5 70 b2 bd 91 42 85 bd
       -0.10296138 -0.14109741 -0.08712951 -0.06506837
000290 fe 06 f4 3c b5 10 13 be 12 06 40 be 7b fa cc 3d
       0.02978849 -0.14361842 -0.18752316 0.10008713
0002a0 69 62 01 bc 47 4e 05 be 96 4d 2a be cb d1 05 be
       -0.007896998 -0.13018142 -0.16631159 -0.13068311
0002b0 99 55 0f be 06 fa 54 bd 82 59 93 bd 71 4b de bd
       -0.13997497 -0.051996253 -0.07194807 -0.10854233
0002c0 34 80 b6 3c 8e e6 d4 bd 82 cb 66 bd 2a 4b 9e bd
       0.022277929 -0.10395537 -0.056346424 -0.0772918
0002d0 2f f7 2e be eb f7 63 bd c6 cb c6 bd 0b eb e6 bd
       -0.1708648 -0.055656355 -0.097068354 -0.112753
0002e0 0d 5e 21 bd 29 b8 0e 3d 24 b3 0a bd 37 7a b1 bd
       -0.039396334 0.034843598 -0.033862248 -0.08665889
0002f0 b3 24 bf bd 74 88 5d be a4 2a 2e be 69 26 91 bc
       -0.09333172 -0.21634084 -0.17008454 -0.01771851
000300 40 7d b6 bc 55 bc 21 3a 5e 21 b1 bd a9 65 1f be
       -0.02227652 0.0006169726 -0.086489424 -0.15566124
000310 16 8e 5b bd 1a e2 7f 3d 7f 59 3e bd 5b dd 1b 3d
       -0.0536023 0.062471487 -0.04647207 0.038052898
000320 8e ff 8f 3d 8e 02 58 3e b5 ef 5e bd 30 d0 6d be
       0.07031165 0.21094725 -0.05442782 -0.23223948
000330 d1 e5 d6 3d 65 eb 28 bc 2e b9 4b 3e d7 89 92 be
       0.10493053 -0.010310029 0.19894859 -0.28620788
000340 af ba 32 be e1 2d b1 bd c9 1a 3b 3e 91 c1 19 3c
       -0.17454027 -0.08651329 0.18271936 0.009384529
000350 cb 6e 7e 3e 51 de 91 3d 82 cb 31 3e a7 fb 00 3e
       0.24846952 0.071224816 0.17362788 0.12595998
000360 0b 0f 18 be e9 d2 69 3d e8 36 30 bc 43 46 07 3c
       -0.14849488 0.057085905 -0.010755278 0.008256498
000370 a7 16 10 bd 02 97 55 be 31 f2 55 3e d3 6c 81 be
       -0.035177853 -0.20858386 0.2089317 -0.2527834
000380 7d ba a2 3d 0f cd 78 3e 75 e9 af bd 60 5f 9a bd
       0.07945726 0.24296974 -0.0858945 -0.075377226
000390 d0 87 b5 be 90 f9 90 bc 56 23 42 3e c4 a1 5c be
       -0.3545518 -0.017697126 0.18958792 -0.21546084
0003a0 8a 89 a8 3c 93 c0 9a 3e 5a 18 86 3e 77 8e 1a 3e
       0.020573396 0.30225047 0.26190454 0.15093409
0003b0 bc 2e 70 3e 38 fc 88 be 21 6b eb 3d d8 92 16 3e
       0.23455328 -0.26754928 0.114950426 0.14704454
0003c0 55 65 c2 be b5 f9 5b 3e 18 4c 88 be 93 da 54 be
       -0.37967935 0.21481974 -0.26620555 -0.20786504
0003d0 95 80 5e 3d 13 29 e9 bc 5a 90 32 bd 61 11 02 3e
       0.054321844 -0.028461969 -0.043594696 0.12701942
0003e0 f9 7d f7 3d 09 43 04 3d ad 95 1c 3e 31 27 b2 bd
       0.12084574 0.032290492 0.15291472 -0.086988814
0003f0 3b 01 a9 be 83 6e 79 be 55 b7 bc 3e 51 92 83 bc
       -0.3300875 -0.24358563 0.3685862 -0.01606098

net.2.bias f4 [50]
000000 f2 ba 9e 3e 00 59 68 3e 6b 58 01 3d 47 19 18 bc
       0.31002003 0.22690201 0.031578463 -0.00928337
000010 b0 59 c9 be a1 8e ce be 6a 86 d5 be bb 3c a9 3e
       -0.3932624 -0.40343192 -0.41704112 0.33054146
000020 7b 5d 4c 3e 88 ef ef 3e 42 90 41 bf 91 95 bf be
       0.19957535 0.46862435 -0.75610745 -0.37418798
000030 e3 80 93 bf 96 3f 3f 3f 11 40 8c bd 44 f3 91 be
       -1.1523708 0.747064 -0.06848157 -0.2850591
000040 78 64 ca 3e 4f c5 08 bf 14 84 2b 3f be c0 00 3f
       0.39529777 -0.5342607 0.6699841 0.502941
000050 86 de 42 bf dd 52 25 bf ed ad 18 be b1 45 39 bf
       -0.76120794 -0.64579564 -0.14910097 -0.72371966
000060 07 26 e6 be 5c be c3 be 29 60 69 3e 8a 47 39 bf
       -0.44950888 -0.3823117 0.22790588 -0.72374785
000070 8f 32 81 be 9c df 05 3f 68 99 3c be 9d 45 d2 3e
       -0.25233886 0.52294326 -0.18417895 0.41068736
000080 c1 c5 7d bd 76 ae 48 3f 17 43 0a 3f 4e 4e 6f 3e
       -0.06195617 0.78391206 0.5400862 0.23369715
000090 99 cc b5 3e f3 52 6f 3f 0b 91 3c be b7 ed 4e bd
       0.35507658 0.93485945 -0.18414705 -0.05051967
0000a0 a0 de a3 bd b6 d3 93 bd a0 bf 36 3d fd d3 5f be
       -0.08001447 -0.07218115 0.04461634 -0.21858211
0000b0 5d 74 89 3c 62 36 93 bf 92 9d 34 3e 1d e8 60 bf
       0.01677912 -1.1500971 0.17638233 -0.87854177
0000c0 7c 12 81 3d 28 cb e7 be
       0.06302354 -0.45272183

net.4.weight f4 [50, 50]
000000 e8 80 96 be d5 c5 8b 3e 1f a5 c2 bd 06 c1 e4 bd
       -0.29395223 0.2729937 -0.095041506 -0.11169629
000010 8f 4a 9d 3d 81 33 b4 bc d1 63 df bd f9 ff 88 be
       0.076802365 -0.021997215 -0.1090771 -0.26757792
000020 c5 9e 5f 3e 13 b9 9c bd 91 d8 cf bd 1f 8a 5b be
       0.2183791 -0.076524876 -0.10148729 -0.21439408
000030 b6 10 44 3e a8 39 ff bd 9d ba 70 be 30 89 1e 3e
       0.19147 -0.12462169 -0.23508687 0.1548202
000040 ae b2 1e 3d ed 7b d8 3d 52 07 57 3d 5f f6 2f 3d
       0.03874462 0.10570512 0.052497216 0.042959567
000050 a6 c2 8a 3e 0a e9 76 3d 95 c6 e9 bd b6 b7 bd bc
       0.2710163 0.060280837 -0.1141483 -0.02315889
000060 d8 09 8b 3d 2d 11 c9 3d f5 ae ea bc d9 d4 97 3c
       0.06788987 0.09817729 -0.02864788 0.01853411
000070 ce 46 0d 3e 0d 51 03 bc c5 6b 7f be 9a 56 16 3c
       0.13796541 -0.0080149295 -0.24943455 0.009175921
000080 e4 c0 f7 3d d4 55 af be e2 3a 61 be df 98 f6 3c
       0.12097338 -0.3424517 -0.21995118 0.030102191
000090 8a c6 15 bc 8a 28 a2 be e5 c3 09 3e 0d 27 5c be
       -0.009141574 -0.31671554 0.13453634 -0.21499272
0000a0 d3 ac 8f 3b c9 7c 5b bd 31 29 01 be 42 b8 8b 3c
       0.004384616 -0.0535858 -0.1261337 0.017055634
0000b0 a1 1a e9 3d 41 71 83 3e 96 08 f0 bd 0f 23 00 3e
       0.11382032 0.25672343 -0.11720388 0.12513374
0000c0 6f f5 b8 bd bc 94 5b bb ac 06 72 3e e6 cb 3f bb
       -0.09031188 -0.00335054 0.23635358 -0.002926582
0000d0 6b 6d 35 3e e1 b2 fd bd 39 cc 22 be d1 fb 62 3e
       0.17717521 -0.12387634 -0.15898217 0.22166373
0000e0 93 7a 2f be a2 d8 05 3d 3a b8 36 be ff eb 67 3e
       -0.17136602 0.0326773 -0.17843714 0.22648619
0000f0 53 1d aa bd 7e 8e a7 bd 16 e6 30 3d 8a 25 88 bd
       -0.083063744 -0.08181475 0.043188177 -0.06647785
000100 95 78 69 be c5 af 5a 3e da 4e 85 be 42 bc 18 bd
       -0.22799905 0.21356113 -0.2603672 -0.03728891
000110 8e c8 e4 bd 6a 37 97 be a8 e8 ed 3d d7 23 d9 bd
       -0.11171065 -0.29534465 0.11616641 -0.10602539
000120 c5 57 0b be c8 0d c8 3d 4e 26 ff bd a4 dc b8 be
       -0.136077 0.097682536 -0.12458478 -0.36105835
000130 c8 fa 0c be 67 7a 03 be 14 c3 5b be 33 8c 4d be
       -0.1376754 -0.12839662 -0.21461135 -0.20073013
000140 a9 76 f4 bd b9 26 f1 3c 36 7b 7c bc 68 cd 1f 3e
       -0.11936695 0.02943741 -0.015410235 0.156057
000150 91 ea 2f bd 18 ef 18 3e 6c 1f e5 bc 5b 4f 67 bd
       -0.04294831 0.14934957 -0.027969085 -0.056472164
000160 a8 57 12 be a8 d0 1d 3d 52 c0 41 b8 53 ad 36 3e
       -0.1429125 0.03852907 -4.6193898e-05 0.17839555
000170 dc 8b ba be 54 6f 76 3c 8d 2a 90 3d e4 bb 91 bd
       -0.3643483 0.015041191 0.07039366 -0.071159154
000180 45 98 60 3e a1 92 22 bc 44 e2 51 be f7 f6 52 3e
       0.21933086 -0.009922654 -0.2049647 0.20602022
000190 47 d5 8a bc 5b 58 ff be df c1 a2 3d cc ba 1d b9
       -0.016947402 -0.49872097 0.07947134 -0.00015042274
0001a0 d5 3d 82 3e 27 3f 41 bd fd eb 7f 3d fb f0 df bd
       0.254378 -0.047179367 0.062480915 -0.10934635
0001b0 dd 68 3d be 3e dd 1d bd 19 af fe 3d 58 ba 1a 3e
       -0.18497033 -0.03854107 0.12435741 0.15110147
0001c0 9a b4 0e be 62 e8 80 3e 75 6a 90 3e 2c ae 77 be
       -0.13936082 0.25177294 0.2820622 -0.24187535
0001d0 5d bb 59 be b9 e1 5f bd bd 5f bf be 32 40 fe bd
       -0.2126288 -0.054658625 -0.3737773 -0.12414588
0001e0 fb 1c bd be f4 d0 05 3e 1d 71 49 be 89 7f 99 3d
       -0.36936173 0.1306799 -0.19672056 0.074950285
0001f0 d1 77 4c bd ce 56 a1 be f5 d5 37 be 77 19 87 be
       -0.049918953 -0.3151154 -0.17952712 -0.26386616
000200 c2 c9 07 3e bf da 86 bd cf 05 2a bd 86 2b 58 bc
       0.13260558 -0.06584691 -0.041509446 -0.013193971
000210 b7 47 0b be 61 dd c2 3c 76 e9 0a 3e 5b 53 15 3e
       -0.13601576 0.023787202 0.13565621 0.14582579
000220 62 e7 69 3e 97 30 16 be 1c 88 a4 bd 0f 7b b1 bd
       0.22842172 -0.14666973 -0.08033773 -0.0866605
000230 e3 d7 8f 3d 3c aa c3 3d 2e af 8a bc 45 ad c8 bd
       0.07023599 0.09553954 -0.016929235 -0.097986735
000240 a7 92 58 bd 3e 0b 92 bd a2 13 01 3d 08 9f 71 be
       -0.052874234 -0.071310505 0.031512864 -0.23595822
000250 09 70 48 be 88 68 85 3d e1 5c 89 be c2 25 a0 3e
       -0.19573988 0.065140784 -0.26828673 0.31278807
000260 a9 d5 53 3d a5 c0 cd 3d 58 a8 0e bd 78 bb 71 be
       0.051717434 0.1004651 -0.034828514 -0.2360667
000270 4c 6c c9 bd 6e 79 96 3e a5 57 18 3d 9c f1 51 3d
       -0.09835109 0.29389518 0.03719296 0.051255807
000280 d9 c3 21 be b2 6e 99 be 8f 13 08 be 18 4b 0e bd
       -0.15797366 -0.29967266 -0.13288711 -0.034739584
000290 56 91 88 3c 29 34 84 be b0 17 c0 3d 79 4a 0b 3e
       0.016670864 -0.25821045 0.09379518 0.13602628
0002a0 70 e5 57 3e 0e 48 38 3d 7c b9 46 be 5a 77 87 3c
       0.21083617 0.04499059 -0.19406694 0.016536403
0002b0 dc 3e a1 bd 54 b5 56 bd a2 5b f8 bd 83 5c 03 be
       -0.078733176 -0.05241902 -0.121268526 -0.12828259
0002c0 57 ce 0c 3c 21 0c 46 bd b2 b7 cf 3c 64 a1 aa 3c
       0.008594117 -0.04835141 0.025356147 0.02082891
0002d0 1d 70 2d 3e 1b 7e 8a 3d 92 83 54 bd 2c 9d 6e bd
       0.16937299 0.06762334 -0.051883288 -0.05825536
0002e0 dc bf 4f 3e 78 90 19 3e 78 a6 78 bd 5b d9 4c 3d
       0.20288032 0.14996517 -0.060705632 0.050011974
0002f0 08 06 16 be 97 f8 3b be 01 a6 d6 bc e2 86 23 3d
       -0.14650738 -0.18356548 -0.026202204 0.039923556
000300 7c c3 24 3e 69 1f ca bd 3d 89 0e be 84 f5 ee 3d
       0.16090196 -0.09869272 -0.1391954 0.11667922
000310 05 e5 04 be af fd 9f 3e 6c 1d b8 bd fb 0a c4 3d
       -0.12977989 0.31248233 -0.08989987 0.09572407
000320 6c 0a c7 bd 48 74 1a be c9 3c 21 3e bf fb a8 bd
       -0.09718785 -0.1508342 0.15745844 -0.08251142
000330 06 78 1c 3e c4 aa 8e 3d cc 75 db bd b8 2d c0 3d
       0.1528016 0.06966165 -0.10715827 0.0938372
000340 4d c5 c8 bd 9b 6c 02 be 97 1e 4d bd 44 47 22 3e
       -0.09803257 -0.12736742 -0.050078 0.15847498
000350 1f 85 e9 3b 72 ce 05 bc 6c 41 d6 bd 57 a2 39 3e
       0.007126465 -0.008166896 -0.10461697 0.18128334
000360 43 b6 44 be 37 9a 3a 3e f7 60 2c be ea ce 43 be
       -0.19210152 0.18222891 -0.16833864 -0.191219
000370 00 52 18 3e 2a 81 7b bd 35 77 98 bd 1d c1 14 3e
       0.1487503 -0.061402477 -0.07444612 0.14526792
000380 ad da 5b be c2 48 75 be 19 0c aa 3d 35 59 51 be
       -0.21470137 -0.23953536 0.08303089 -0.20444186
000390 26 8c 4c 3e 70 8e ba bc 7f b7 7f bd 8a 65 c1 bd
       0.19975337 -0.022772998 -0.062430855 -0.09443195
0003a0 bb 9e 7a 3d fc 56 ac 3c e0 a2 61 be 58 3e 25 3e
       0.061186533 0.021037571 -0.22034788 0.16137064
0003b0 f1 f7 ae 3d 8e e3 59 bc 26 23 61 3d 8a f3 cc bd
       0.08543385 -0.013298882 0.05496516 -0.10007389
0003c0 f2 bd fe 3d aa 16 29 be d5 50 70 be 95 6e ee 3d
       0.12438573 -0.16512552 -0.23468335 0.116421856
0003d0 b0 4b c2 3d 2d 9e fc 3d e5 36 a3 3d 2c 76 9a 3d
       0.094870925 0.12334857 0.07969455 0.07542071
0003e0 8e b4 2d be cd 03 74 3e 92 45 37 be 2c c1 17 3e
       -0.16963407 0.23829575 -0.17897633 0.14819783
0003f0 a2 57 df bc a9 0e 7b bd 39 1a 72 3c 38 10 5a bd
       -0.027263466 -0.061293278 0.01477676 -0.053238124

net.4.bias f4 [50]
000000 bc 00 5f bf b5 d3 6c be f9 fb b0 3d 39 74 26 3f
       -0.87110496 -0.23127635 0.0864181 0.6502109
000010 7b d3 3b bf 2b 64 13 bf 3c b2 dc 3e 1c 9b fa be
       -0.7336957 -0.5757472 0.43104732 -0.48946464
000020 c2 53 24 bf 63 eb 0d bf 03 81 47 bf d2 be 08 3e
       -0.64190304 -0.55437297 -0.7793123 0.13354042
000030 75 10 09 3f 6b 0a 27 bf fb 65 47 bf c7 ba 93 be
       0.53540736 -0.6525027 -0.77889985 -0.28853437
000040 95 dc 0a bf c9 48 8c be f1 7b 0d 3e 23 fe 43 bf
       -0.5424283 -0.2739928 0.13816811 -0.76559657
000050 5c 67 70 be 20 e1 da 3e 14 f7 58 bf 0e 08 a6 be
       -0.23476928 0.42749882 -0.8475201 -0.3242802
000060 af 09 23 3f 46 86 05 3f 25 26 04 3f f2 0e 52 3f
       0.6368665 0.5215801 0.51620704 0.82054055
000070 93 22 3f bf 51 9b 9b be fe 30 ea be 19 18 1b bf
       -0.7466213 -0.30391935 -0.45740503 -0.60583645
000080 05 2d 81 bf 59 e8 d3 3d f2 cd 08 3f ba f5 93 3e
       -1.0091864 0.10347051 0.5343925 0.28898412
000090 8f be 77 be 55 10 79 3e 48 e0 10 be 05 ed 8d 3f
       -0.24193786 0.24322636 -0.14148057 1.1087958
0000a0 6d 67 13 bf 1e 63 06 bf 33 1a 4d 3e 34 79 ca bd
       -0.5757969 -0.5249499 0.20029525 -0.09886399
0000b0 21 46 d7 be ac db 10 be 02 32 fb 3e 91 3e 6f 3c
       -0.42045692 -0.14146298 0.4906159 0.014602319
0000c0 70 ab 82 bd a8 bc c2 3d
       -0.06380355 0.095086396

net.6.weight f4 [50, 50]
000000 9a b0 da bc c2 99 98 3e 52 16 68 be c3 35 ef 3d
       -0.026695538 0.29804808 -0.22664765 0.11680176
000010 14 18 ff bd 2f 3c 76 be 95 98 ab 3d 56 7a ae bc
       -0.124557644 -0.24046396 0.08378712 -0.021298569
000020 7d b3 7a 3a f0 ce 70 3e cd 34 5b 3e 25 c5 5d 3d
       0.0009563489 0.2351644 0.2140686 0.05414309
000030 66 62 4c bd 7f 28 06 bf 56 f4 2d 3d 4d d7 61 be
       -0.049898528 -0.5240554 0.042469345 -0.22054787
000040 5d 1e 71 bd cd bc 34 be 2b b7 18 bc cc e5 8b bc
       -0.058866847 -0.17650147 -0.009321014 -0.01707735
000050 c2 a2 db bd d1 37 50 3d 12 ad 3d be 13 af a2 3e
       -0.10724403 0.05083448 -0.18523052 0.31774196
000060 67 2d c2 3e 9a 35 e5 bd 1f 34 f7 3d 30 ce bb bd
       0.37925264 -0.11191864 0.12070488 -0.091701865
000070 49 60 a3 bc 60 06 04 be 89 c7 22 bd b7 0c 20 3e
       -0.019943373 -0.12893057 -0.039741073 0.1562985
000080 74 a6 01 be 20 83 4d 3e fc c0 19 be e9 c6 af 3d
       -0.12661153 0.20069551 -0.15015024 0.08582861
000090 73 bd e7 bd 13 14 f3 3c 8a 2d 9c bc f6 30 ff be
       -0.113154314 0.029672658 -0.019064683 -0.49842042
0000a0 c3 7a 85 be 3a b5 e0 bd 7f 45 bc 3d e3 e4 61 3e
       -0.26070222 -0.10972066 0.09192943 0.2205997
0000b0 96 63 93 3d 95 15 8a be c8 20 5f 3d 93 8f 44 be
       0.07196729 -0.2696959 0.054474622 -0.19195394
0000c0 b7 a5 6b 3e a7 88 e0 3d d6 7b 16 3d 6c 95 08 be
       0.23012434 0.10963564 0.036739193 -0.1333825
0000d0 d0 bf 4e bd 2e 81 2b 3e cb 8a 4e 3c c3 b2 4d 3e
       -0.050475895 0.16748497 0.012606333 0.20087723
0000e0 3b 87 14 be 80 b5 23 be 7d db b0 be 25 19 19 be
       -0.14504711 -0.15987206 -0.34542456 -0.14950998
0000f0 00 d4 75 be b5 44 1e be 5b ea af bd 9e d1 2c be
       -0.24006653 -0.15455897 -0.08589622 -0.16876838
000100 87 42 83 be 3c 5e 9a 3e 9b e7 e3 bc ab 17 16 3e
       -0.25636694 0.3015002 -0.027820399 0.14657466
000110 54 93 58 be 56 eb d9 bc 71 3b f6 be 36 71 e7 3d
       -0.21149951 -0.026601475 -0.48092225 0.1130089
000120 10 8f 4f be 00 02 a3 be c5 3e 36 3e 2c af af bd
       -0.20269418 -0.31837463 0.17797382 -0.08578333
000130 7d 1c d3 bc cd be 77 3e 20 8b db bd c5 37 21 be
       -0.02577042 0.24193878 -0.10719895 -0.1574393
000140 66 f8 c8 3d e6 c9 cf bd 70 15 ab 3d 3c 2b df 3e
       0.09813003 -0.10145931 0.08353698 0.43587673
000150 c0 dd 22 bd 38 6e 90 3d d1 29 9a 3d 0e f1 37 bd
       -0.03976226 0.070522726 0.07527507 -0.044907622
000160 45 c4 37 be 35 2c 7c be a6 b2 5b bb af fb 71 3e
       -0.17945965 -0.24626239 -0.003352323 0.23631166
000170 da b4 8e bd 8e c4 9e bd 11 f1 b3 bd 10 a9 e8 bc
       -0.069680884 -0.077523336 -0.08786214 -0.028400928
000180 f6 f4 b5 3e f0 17 8a 3d c2 d5 67 3d 24 97 25 bc
       0.35538453 0.06742847 0.05660034 -0.0101068355
000190 47 5e 55 be ec 70 f2 3d de 6a e5 be f8 3e 36 bd
       -0.20836745 0.118379444 -0.44808096 -0.044493645
0001a0 74 7a 2c be 6e fc 52 be 46 b9 e5 be aa b2 99 be
       -0.16843587 -0.20604107 -0.44867915 -0.30019122
0001b0 46 b5 97 be 30 2e 54 3e b7 f8 c0 be 09 ed f3 3b
       -0.29630488 0.20720744 -0.37689754 0.0074440283
0001c0 64 2c 73 3e 8b 0e 8e be 17 e6 fb be 9c b5 17 be
       0.23747402 -0.2774547 -0.49198982 -0.14815372
0001d0 ef db 16 3d 07 3b a6 3d 8e 71 cc bd 2b b8 bc bc
       0.03683084 0.08116727 -0.09982596 -0.023037037
0001e0 2c 80 9a be e0 55 95 be 49 66 80 bd bf 76 67 3e
       -0.30175912 -0.2916708 -0.06269509 0.22603892
0001f0 d6 b8 27 3d 06 c1 49 be 0b de af bd fc d9 2c be
       0.040947758 -0.19702539 -0.08587273 -0.1688003
000200 59 45 db 3d 3e 6a 10 be 4c 13 16 bf 8e 36 bd be
       0.107065864 -0.14103028 -0.58623195 -0.36955684
000210 96 ed 92 3d a7 85 09 be d6 0c 02 bf 99 d9 0c 3d
       0.07174222 -0.1342989 -0.50800836 0.034387205
000220 62 59 75 3e 9a 39 c4 3e 94 aa b7 bd 56 55 85 bd
       0.23959878 0.38325197 -0.08968082 -0.06510417
000230 22 53 d0 be 2e 0b 63 be 75 c2 74 bd d4 71 a9 3d
       -0.40688425 -0.22172233 -0.05975576 0.08273664
000240 c6 26 31 3e 2c 97 82 3d 60 29 d6 3d 6d e6 ca bc
       0.17299947 0.0637649 0.104571104 -0.024768079
000250 3f 68 cf be 42 d2 00 3e d6 e1 1b 3e 37 0b f6 3d
       -0.4050922 0.12580207 0.15222868 0.12013858
000260 e7 da 71 be 5b ae 10 3d a6 ce dd bb 4b 94 9f 3d
       -0.23618661 0.03532253 -0.006769019 0.077919565
000270 fa 35 b4 bd 8c 67 38 3e 9b b4 29 3d c3 44 06 3e
       -0.08799358 0.1800825 0.041432004 0.13112168
000280 76 3b 8f be 6b d6 98 bc a9 7d fb 3d 71 9a 2f 3e
       -0.27975053 -0.01865693 0.12279827 0.17148758
000290 b8 90 b4 3d 0a 97 b9 be f4 c1 28 3e 3b a1 e3 bd
       0.088166654 -0.36248046 0.16480237 -0.11114737
0002a0 3a 4e 07 be ab cb cd 3d f2 de 7a be af 0e 22 bd
       -0.13213435 0.10048612 -0.2449911 -0.039564785
0002b0 05 3f 2c be 34 a9 11 3d e3 01 13 3e d5 ee b0 3d
       -0.16820915 0.035561755 0.14356188 0.086393036
0002c0 24 1e 2d be e4 75 9d bd a5 88 2e 3d 51 40 f9 bd
       -0.16906029 -0.076885015 0.042610783 -0.121704705
0002d0 d6 17 d4 3d 74 08 1d 3e af c7 55 3e 3e 41 04 bd
       0.10356109 0.15335256 0.20876954 -0.032288782
0002e0 17 3a b7 3b 51 13 5c be 6a 01 4c bd 02 ef 51 bc
       0.0055916416 -0.21491744 -0.049806036 -0.012813332
0002f0 d3 b5 b0 3c 08 5f 1a be 3f 60 18 3d b4 2f a4 bd
       0.021571076 -0.15075314 0.037201162 -0.08016911
000300 1a 4c d3 bb ce 4d a7 3c 5e 91 ac 3d 65 a7 65 bd
       -0.006448281 0.020422842 0.08426164 -0.056067843
000310 0c ff 83 3d 38 f9 18 be e9 29 0c bd a6 ae 57 39
       0.06445131 -0.1493882 -0.034219656 0.0002056906
000320 65 85 96 bd 7d ca 80 be b6 14 b3 bd c9 b6 62 3e
       -0.07349662 -0.25154486 -0.08744185 0.2214004
000330 5b 61 aa bd 37 4f 46 be 75 2c f0 bd b5 33 71 3e
       -0.0831935 -0.19366156 -0.117272295 0.23554881
000340 c7 6c c3 3d c4 ac 5f 3e d4 74 82 be cb bf d4 3d
       0.09542232 0.21843249 -0.25479758 0.10388144
000350 fa ee a3 3d f4 11 11 3e ae 8c 0f be c7 63 84 3d
       0.080045655 0.14167005 -0.14018509 0.064643435
000360 a6 f9 a2 bd cc 29 94 bc 6e a5 bb bc b1 11 29 be
       -0.07957773 -0.018086337 -0.022906031 -0.16510655
000370 44 6d 3d be 9b f0 54 3e 86 17 c4 3d 40 f7 22 3e
       -0.18498713 0.20794909 0.09574799 0.15914631
000380 70 bc 2d 3d b7 27 6f bd c3 83 f5 3b de c0 e4 3d
       0.042416036 -0.058387484 0.007492514 0.11169599
000390 74 fd 04 3e 40 a2 69 bc 26 e3 76 bd 74 1c 4e be
       0.1298731 -0.014259875 -0.06027522 -0.20128042
0003a0 6b eb 48 3c 54 66 5c 3e 0b 43 82 3d c4 98 61 bd
       0.012263159 0.2152341 0.06360444 -0.05507733
0003b0 60 6f 84 bd 5a ef a7 3d a9 88 5e 3e b4 fa c1 3c
       -0.064665556 0.081999496 0.21731819 0.023679115
0003c0 64 c6 a0 bd 39 b6 de 3d 0f 92 66 3e 2b c0 80 3d
       -0.0785034 0.108746 0.22516654 0.06286653
0003d0 5b 7f b8 3d 2b a6 cd 3d 4f 00 79 3e 96 f9 e4 3d
       0.09008666 0.1004146 0.24316524 0.11180417
0003e0 a0 d2 df 3b 43 72 2d be b6 44 1b 3e 32 3a 7c 3e
       0.0068305284 -0.16938119 0.1516293 0.24631575
0003f0 63 b9 04 be 95 32 ce 3b 45 3b b3 3d 3d c6 7c 3d
       -0.12961344 0.006292651 0.08751539 0.061712492

net.6.bias f4 [50]
000000 b8 22 bb be b7 ae d5 3e 1e e0 df be ad d1 5d bf
       -0.36549926 0.4173486 -0.43725675 -0.86648065
000010 db c1 0d bf f0 d7 a4 be 80 72 e7 3e 6f 2a 0c bf
       -0.55373925 -0.32195997 0.45204544 -0.5475225
000020 09 ac e2 be 32 ff 18 3f be 5d 37 be 9c 7d 86 be
       -0.44271877 0.597644 -0.17906854 -0.26267707
000030 69 02 0f bf b5 e5 80 3e 6b 9b 1e 3f cb a0 c1 3e
       -0.5586305 0.25175253 0.619559 0.37817988
000040 c6 84 a2 3e 38 1b e3 3e 46 52 c5 3e 25 5b 3a be
       0.31741923 0.44356704 0.38539332 -0.18198831
000050 be 0b 52 3d 4c f4 a6 be e2 62 80 bf f1 f4 54 bf
       0.05128073 -0.3260826 -1.0030177 -0.8318625
000060 c6 c7 90 bd c3 8d 20 3f 75 8e 89 be 56 d9 eb 3e
       -0.07069354 0.6271631 -0.268665 0.46064252
000070 10 71 0e 3f fe e0 4a be e0 6d d7 be 53 8b 28 bf
       0.5564127 -0.1981239 -0.42076015 -0.6583759
000080 f8 66 13 bf 44 9b 2b bf 85 0a 88 3e f3 77 82 3c
       -0.5757899 -0.6703379 0.26570526 0.015926337
000090 2e 78 16 bf b4 5e e5 bd 83 a4 0e 3f 4f 53 10 bf
       -0.5877713 -0.11199704 0.55719775 -0.5637712
0000a0 e8 0d 22 bf b5 25 b5 3e 6a 52 14 be 80 82 fa 3e
       -0.6330247 0.3538033 -0.14484563 0.4892769
0000b0 13 46 17 3f f9 a4 9a be c1 b0 2a be 1d a5 db 3c
       0.590913 -0.3020399 -0.16668989 0.02681213
0000c0 b5 34 15 bd 20 e4 da be
       -0.03642722 -0.4275217

net.8.weight f4 [50, 50]
000000 20 52 8d bd fe e6 1e 3d 40 0e 17 be 0b 33 24 bd
       -0.0690043 0.03879451 -0.1475153 -0.04008774
000010 6d c2 ca be 79 17 96 3c b5 fe 21 3e 81 30 07 3e
       -0.3960146 0.01832174 0.1581982 0.13202097
000020 69 24 98 bd 38 57 92 bd 65 80 07 3e ad 90 c4 3d
       -0.0742882 -0.07145542 0.13232572 0.09597907
000030 72 d0 30 3e fe 4f 9b bc ee 09 8c be 5f c4 29 be
       0.17267016 -0.018959042 -0.27351326 -0.16578816
000040 93 74 31 be 14 bb 93 3e 19 fc 25 3e 04 1e 7a be
       -0.17329626 0.28853667 0.16209449 -0.24425513
000050 f9 47 3c 3e 13 5b a0 be 4f 50 9a bd 5b dc 95 be
       0.1838683 -0.31319484 -0.07534849 -0.2926968
000060 cd 71 21 be 12 85 02 be 3e 67 03 be 02 67 5f 3c
       -0.15766068 -0.12746075 -0.12832353 0.013635399
000070 b4 de 4a be c8 6b 53 be 77 19 69 3e a0 8b 4e bc
       -0.19811517 -0.20646584 0.2276362 -0.012606531
000080 31 7e 66 be 36 e5 da bc 5f 3b ca bd 14 36 3f 3e
       -0.22509076 -0.026720624 -0.098746054 0.18672973
000090 aa 69 ff bd c5 61 ad 3d af 0b e9 bd cd af bf 3d
       -0.12471326 0.08465914 -0.113791816 0.09359703
0000a0 44 8d a6 bd 15 74 43 be 58 e0 2c bd 8d 05 d9 be
       -0.08132413 -0.1908725 -0.04220614 -0.42387047
0000b0 e7 3a d8 3d a0 57 12 3e 59 e8 5a be d0 b4 b0 be
       0.1055811 0.14291239 -0.21377696 -0.3451295
0000c0 c9 cd 4a bd e8 9e ea bd f3 85 8f 3c 45 07 3d bd
       -0.04951266 -0.1145609 0.017519927 -0.04614951
0000d0 b5 9f 88 be 62 da 4a 3e 1b 9b 1e 3e ba 87 82 3d
       -0.26684347 0.19809869 0.15488856 0.06373544
0000e0 83 e3 96 be 3b a3 79 be af ee 1f bd 31 00 b9 3b
       -0.29470453 -0.24378674 -0.039045986 0.005645775
0000f0 8e c1 48 bc 9f 05 93 bc 43 dd 66 bd e2 1f 5a 3e
       -0.012253178 -0.017947016 -0.056363355 0.21301225
000100 76 2d b0 bd d5 b0 4f 3d d5 2f b8 3c e7 90 75 3e
       -0.08602421 0.05070575 0.022483746 0.23981057
000110 0a 8a cb 3d da b5 65 bd 54 e8 23 be 7c bd 87 be
       0.09938438 -0.05608163 -0.16006595 -0.26511753
000120 09 e1 79 bd 2e 34 33 3d bd 11 68 3c 33 0d 46 bd
       -0.061005626 0.043750934 0.014164385 -0.04835243
000130 c8 09 06 3c 39 c1 3c be fe b3 49 be c7 4e 61 be
       0.008181043 -0.18433084 -0.19697568 -0.22002707
000140 9b 44 af 3d 2e 23 08 bc 43 06 bb bc b0 2a f4 3d
       0.08558007 -0.008309169 -0.022830134 0.119222045
000150 b6 73 96 3d 23 dd 0d bd 26 03 63 be 44 0c 53 be
       0.07346289 -0.03463472 -0.2216917 -0.20610148
000160 19 77 99 bd ab 05 9f bd cb 52 23 be b7 29 0b bc
       -0.07493419 -0.07764753 -0.15949552 -0.008493832
000170 ee b0 ec bd f3 2a 30 be 9d 5e e0 3c 59 4e 09 3e
       -0.11557184 -0.17203884 0.027388865 0.13408794
000180 dd ac 81 be f8 81 7d be 26 34 8f bc 37 dd 77 3d
       -0.25327197 -0.2475661 -0.017480921 0.0605137
000190 09 3d 12 be d1 a8 56 3e b2 7c b4 3e 16 ce 17 3e
       -0.14281096 0.20962836 0.35251385 0.1482471
0001a0 9c 09 34 3e e0 0a 07 be db 83 be 3d 32 7b fc bd
       0.1758179 -0.13187742 0.09302493 -0.12328185
0001b0 06 d0 35 3e 43 d2 87 bd f3 b1 63 be 27 2f 91 3d
       0.17755136 -0.06631901 -0.22235851 0.07089072
0001c0 1b 39 4f 3d 02 b8 84 bb f6 85 f6 bc c3 41 81 be
       0.05059157 -0.0040502558 -0.030093174 -0.25245485
0001d0 dc 38 07 be 8c 56 8e be 44 1c 36 be 96 c4 cc bd
       -0.13205284 -0.27800405 -0.1778422 -0.09998433
0001e0 e6 75 da bd ff 59 9f 3d a1 74 3b 3e a8 39 0a 3d
       -0.106670186 0.07780837 0.18306209 0.03374639
0001f0 ac 4f 34 bc 56 80 30 be bb 41 30 3e 8b 5b b5 bd
       -0.011005323 -0.17236456 0.17212574 -0.08855351
000200 76 6d 99 bd 98 46 36 be 75 2d 1e 3e b1 ba 9b 3d
       -0.07491581 -0.17800367 0.15447028 0.07603968
000210 06 b8 22 3c dd 3b 74 bd 3d 86 d3 bd 58 85 45 be
       0.00993157 -0.059627403 -0.10328338 -0.19289148
000220 bd d2 2c 3d c3 30 b1 be ab 2e 3c 3e 99 00 3d 3d
       0.042193163 -0.34607515 0.18377177 0.046143148
000230 9a 1b 38 3e d9 84 47 be 73 9a 03 3e 7c c2 ec 3d
       0.17979279 -0.19484271 0.12851886 0.115605325
000240 e6 90 a4 be 7e 28 cd bd 75 81 9c 3d fe 22 d7 be
       -0.321418 -0.10017489 0.076418795 -0.42018884
000250 b8 be 6d bd e5 5a 59 3d ee e8 b2 be d9 50 01 3e
       -0.05804321 0.0530652 -0.34943336 0.12628497
000260 52 a8 ee bc a7 87 64 3d d3 d8 9d bc 93 5c f2 3d
       -0.029132996 0.05579343 -0.019268429 0.118340634
000270 1c 06 5e be 1a 43 10 3e e2 13 13 3e f2 92 c8 3d
       -0.21682018 0.14088097 0.14363053 0.097936526
000280 27 9b ad bd c1 95 2c bd a0 69 30 3e 0b 6a 0a be
       -0.084768586 -0.042135004 0.17227793 -0.13517015
000290 f6 69 2a 3d ee ab fc bd b2 82 bd bd 3b 18 af bd
       0.04160496 -0.123374805 -0.09253444 -0.085495435
0002a0 bc 47 5d be 7e e5 1f 3e 5d a7 fd bd 29 70 05 3e
       -0.21609396 0.15614888 -0.12385438 0.13031067
0002b0 90 fb b2 3d a7 5c 36 be ef 5b 60 3e de e5 39 3d
       0.08739388 -0.17808782 0.2191007 0.045385234
0002c0 cc 40 5a bd b7 67 b6 bd 22 af b2 bd c4 95 8c 3d
       -0.05328445 -0.08906501 -0.0872481 0.06864503
0002d0 66 e4 ab bd 2a a6 90 3e 17 21 30 3e c6 e6 bf 3d
       -0.08393173 0.28251773 0.17200123 0.093701884
0002e0 f6 82 32 3e d1 1f 42 bd 1c 9a 86 bd db 53 7d bc
       0.1743277 -0.047393624 -0.06572363 -0.015461887
0002f0 15 46 1a 3e b7 82 81 bb e4 3d e3 be 0a ea 01 be
       0.15065797 -0.00395235 -0.44383156 -0.12686935
000300 42 e9 e2 3d ed ae 03 3e ef 06 42 bd 2b a3 b6 bd
       0.11079647 0.12859698 -0.047369894 -0.089178406
000310 d0 ab eb bc 8e b7 87 bd 2c a0 85 bd da 9d b7 bd
       -0.02876845 -0.06626807 -0.06524691 -0.08965655
000320 99 09 25 3d 8c e3 76 3c 78 a5 2b be e8 31 c7 bd
       0.040292356 0.0150689 -0.1676234 -0.09726316
000330 9c 70 8f bd ba 46 df 3c 2e eb 2a 3c 53 66 4f bd
       -0.070039004 0.027255405 0.010432048 -0.050634693
000340 4c 85 ef 3c 56 2a 49 bd 0c e6 64 bd 00 13 1c bc
       0.029238366 -0.04911264 -0.055883452 -0.009526014
000350 5d 50 e5 bd 2d 4a f1 bd a9 26 4b be b0 17 12 be
       -0.11196969 -0.11781726 -0.19838966 -0.14266849
000360 ec 55 01 be f6 44 07 be 44 fe f1 3c 20 27 c9 bd
       -0.12630433 -0.132099 0.029540189 -0.098219156
000370 03 11 69 bd 91 01 7a bd 2d 16 4e be d4 ea d8 bc
       -0.05690099 -0.06103665 -0.20125647 -0.026479162
000380 bf b9 81 bc 4f 95 9b 3c 45 9e 3f be 74 73 d2 3d
       -0.015835641 0.018992094 -0.18712719 0.10275927
000390 98 39 b4 bd b6 cb 3d bc 33 2a 91 bd c8 fb f2 bd
       -0.08800048 -0.011584213 -0.07088127 -0.1186443
0003a0 9b e1 11 3d 26 82 f6 bc 8b 39 ab bd e6 b6 e9 3d
       0.035615545 -0.030091356 -0.08360585 0.11411838
0003b0 d7 51 bb bd 5e 51 e8 bd f0 5e 67 bd 88 8e fd bc
       -0.09146469 -0.113436446 -0.056487024 -0.030951753
0003c0 ae d1 bc bc 1d b1 11 bd 4e 40 4c 3d 89 b9 e2 bd
       -0.023049202 -0.0355693 0.049866013 -0.11070544
0003d0 5a eb 44 bd 30 89 08 bd bb 15 08 be fb b8 1e be
       -0.04807601 -0.033333957 -0.1328954 -0.15500252
0003e0 f1 3c 83 bd bc 44 b8 3d bc e6 dc 3b 1e 2b f9 bd
       -0.06408108 0.08997485 0.006741373 -0.12166427
0003f0 7a 64 09 3e 24 48 a3 3d 87 b2 c6 3d 7a 97 e0 bd
       0.13417235 0.07972744 0.0970202 -0.10966392

net.8.bias f4 [50]
000000 80 0d a4 3c 8a 40 cf be 40 9e 3a bf aa 92 11 be
       0.020025969 -0.40478927 -0.7289772 -0.14216104
000010 02 8d 45 be be cf 6a bf aa df 29 be b1 e5 7e 3e
       -0.19292071 -0.9172324 -0.16589227 0.24892308
000020 06 04 f2 3e 21 d3 a3 3e c9 10 5f 3d c2 cd 27 3f
       0.47268695 0.31997016 0.054459367 0.65548337
000030 8a 21 bf be 69 6f 84 be 88 b8 b8 bc ce 32 ad be
       -0.37330276 -0.2586625 -0.022548929 -0.33827823
000040 fe d8 57 3c d8 03 19 be f2 81 5a bf ca 2b cf bd
       0.013174294 -0.14942873 -0.8535453 -0.10115774
000050 3f d4 4b 3e 14 83 50 3f 93 15 2c be 24 6a 1b bf
       0.19905184 0.8145001 -0.16805105 -0.6070883
000060 f3 d4 a2 3e 61 27 b2 be c0 dd aa 3e af 76 95 be
       0.31803092 -0.3479567 0.33372307 -0.2919211
000070 40 57 4c bf fe fc 01 be 42 30 05 3f 19 eb a3 be
       -0.7982063 -0.12694165 0.5202676 -0.32015303
000080 54 fd 70 bf 1f ac c7 be e4 27 0b bf 75 d2 ff be
       -0.9413655 -0.38998505 -0.54357743 -0.49965253
000090 71 bb 39 be ba 5c 13 3d bb c4 bf 3e 2f 5c e1 3e
       -0.1813791 0.035977103 0.3745478 0.44015643
0000a0 66 4c 80 3e e5 7e 07 3f 16 de bc 3e 1d 18 ad be
       0.25058287 0.52928 0.36888188 -0.3380746
0000b0 56 49 15 bf 54 4a 01 be 0b c7 22 bf c6 8b ba be
       -0.58315027 -0.1262601 -0.63584965 -0.36434764
0000c0 5b 07 df be 93 96 27 bf
       -0.435603 -0.65464133

net.10.weight f4 [50, 50]
000000 d7 5b a1 3d bf 55 13 bd 01 fe f4 3d 78 21 fd 3d
       0.07878845 -0.035970446 0.1196251 0.12359899
000010 58 33 98 3d b9 e8 a1 3e 0b e2 49 bd 10 7c 03 bd
       0.07431668 0.31622866 -0.049287837 -0.032100737
000020 87 dc d4 3b 6c 9f 40 bc e7 86 63 3e 88 84 83 be
       0.0064960155 -0.011756759 0.2221943 -0.2568705
000030 21 c0 90 3d 31 c5 6c 3d 82 98 9a bd c8 d2 44 bd
       0.07067896 0.057805244 -0.0754862 -0.04805258
000040 79 a0 98 bd f7 01 e3 be c1 97 a0 be 6d 62 76 be
       -0.07452483 -0.44337437 -0.3136578 -0.24060984
000050 0f 88 c1 3d 36 20 6c 3d 6d 6d bb bd ed b7 fa bd
       0.09449779 0.057647906 -0.09151731 -0.12242112
000060 b9 27 c0 bd 28 a8 28 bd 5f 04 aa bc b3 b0 bc 3c
       -0.093825765 -0.04117599 -0.020754037 0.023033476
000070 09 fd e5 3d 6c 9a 26 be f5 39 0e be ac b1 c1 bd
       0.11229903 -0.16269845 -0.13889296 -0.09457716
000080 39 1c d4 bd 72 f7 a1 3c 6c 2e a9 3d e8 a9 ca be
       -0.103569455 0.019771311 0.082608074 -0.39582753
000090 1b 60 e5 be 4a eb 54 3d cd 03 b4 b8 46 93 e8 3d
       -0.44799885 0.0519822 -8.583777e-05 0.11356215
0000a0 f1 19 89 3d 12 81 0f be 0b 49 16 be c9 85 f6 bc
       0.06694401 -0.1401408 -0.14676301 -0.03009309
0000b0 50 38 96 be d2 49 5a 3e 5e 3e 25 3d 8a c1 99 3e
       -0.29339838 0.21317223 0.04034268 0.3003047
0000c0 25 1b ac 3d 3c dc 0b be 94 c6 86 be 38 36 3f be
       0.08403615 -0.13658231 -0.26323378 -0.18673027
0000d0 2f 88 11 be 4d 82 75 bd dd c3 88 3d 47 11 cc be
       -0.14212106 -0.059938718 0.06677983 -0.39856932
0000e0 2c dc 9c 3c 48 ab b8 bd 2f 5e 11 be ea 4d ba be
       0.019147955 -0.09017044 -0.14196084 -0.3638757
0000f0 a2 29 04 be 2f bd a1 be ac f1 6e be 99 d4 b6 3c
       -0.12906507 -0.31589648 -0.23334378 0.022318171
000100 11 b7 a4 be aa bd ea bc 11 d3 11 be e9 0a a0 bd
       -0.3217092 -0.028654892 -0.14240672 -0.07814581
000110 4c 13 04 3b 13 db 28 bc 6f b0 05 be 66 d7 24 be
       0.0020153103 -0.010306138 -0.13055585 -0.16097793
000120 81 82 08 3d 77 ac b5 3d 27 fa f0 bc 1e 45 c9 bd
       0.033327583 0.08870786 -0.029416157 -0.09827636
000130 ad 64 88 3d 19 67 e3 bc a4 7f 2f be 37 00 a1 3c
       0.066598274 -0.027759122 -0.17138535 0.019653423
000140 59 c0 70 be 49 9c cc bd 12 30 32 bd 0e 4f 65 3d
       -0.23510875 -0.099907465 -0.043502875 0.055983596
000150 35 48 4e bd 22 bc d3 bd 2b 80 d7 3d d1 4a 09 be
       -0.05036183 -0.10338618 0.10522493 -0.13407446
000160 a4 0a 88 bd 48 f8 bb 3a d3 30 31 3a 14 0f 99 bd
       -0.066426545 0.0014340961 0.00067592895 -0.07473579
000170 d9 51 b1 bd 2d 23 0a be 74 72 d7 3c e4 88 da bd
       -0.08658189 -0.13489981 0.026299693 -0.10670641
000180 48 99 9f bb 48 92 91 bd 1e 34 05 bd 41 ee d9 bd
       -0.0048705675 -0.07107979 -0.032520406 -0.106411465
000190 a2 17 07 3e c8 52 1b 3d fc 3c 8a 3d a7 c5 fb bd
       0.13192609 0.037920743 0.06749913 -0.122935586
0001a0 a2 51 78 3d ed 73 9a bd cb 2a 02 3e 14 b1 8a 3d
       0.060624726 -0.07541642 0.12711637 0.06772056
0001b0 ca 25 3d 3d f3 ab 0c bd 04 59 49 3d 8a eb 84 be
       0.046178617 -0.03434367 0.049157158 -0.25960952
0001c0 6d 50 95 bd 04 97 07 be 9d b4 39 3a bc 86 06 be
       -0.072907306 -0.13241202 0.00070841034 -0.13137335
0001d0 e3 9f 64 3e 83 01 80 3d ce b8 03 be 3f 93 70 bd
       0.22326617 0.06250288 -0.12863466 -0.058734175
0001e0 fe d5 cd 3d 64 4a 52 be a0 c3 f6 3d f6 88 95 3e
       0.100505814 -0.2053619 0.12049031 0.29206055
0001f0 40 3e 29 be 7f 60 cc 3c 9d e4 ab 3d 29 15 02 be
       -0.16527653 0.024948357 0.08393214 -0.12703384
000200 11 6c fd bc 13 01 32 bd 45 c6 5d bd ad ef f8 bd
       -0.03093532 -0.043458056 -0.054144163 -0.121550895
000210 88 cc df bc c0 a3 47 3d e7 14 e2 bd 08 aa 49 3d
       -0.027319208 0.04874015 -0.11039143 0.04923442
000220 35 e8 7a 3d 7a 2c 30 3d 9f 5d f1 3d 12 11 27 3d
       0.061256606 0.043011166 0.11785435 0.040787764
000230 23 ef 94 3d 72 05 e8 3c a8 1e ee 3d 43 bf f2 3d
       0.07272174 0.028322909 0.11626941 0.118528865
000240 d3 e9 2c be 4e 94 78 3d 14 fb f9 3d f1 96 14 3d
       -0.16886072 0.06068831 0.122060925 0.03627676
000250 08 a8 a3 bd 49 cc ef 3d 0e 35 db be 5c 25 6a be
       -0.07991034 0.11708886 -0.42813915 -0.22865814
000260 7d 3c 31 3e 0a f7 59 3d 24 5b b4 bd fc bd 02 be
       0.1730823 0.05321411 -0.08806446 -0.12767786
000270 ae 8a a9 bd b0 aa 66 be bd 45 e4 be d2 a6 60 3d
       -0.08278404 -0.2252605 -0.44584456 0.054846592
000280 cf 23 c4 3d d0 c1 b0 3e c6 58 1b 3e 10 d0 88 bd
       0.095771424 0.34522867 0.15170583 -0.0668031
000290 91 e1 02 3e d9 ce b2 be 09 a2 3e bd e0 a8 9b bd
       0.1278136 -0.34923437 -0.046541248 -0.0760057
0002a0 60 87 af bd bf 41 28 be b0 98 61 3e df 3b d1 bd
       -0.085707426 -0.1643133 0.22030902 -0.10216498
0002b0 17 38 57 3e 02 c2 2c 3e 32 ae 38 be 72 b3 31 bd
       0.2101749 0.16870883 -0.180352 -0.043384023
0002c0 b9 4f 8e 3e d7 4f 90 3d ca 55 b2 3d f6 f2 41 be
       0.277952 0.07046478 0.08707769 -0.18940338
0002d0 50 ef 67 be 27 f1 81 bd ab 24 b4 bd a1 96 ef 3d
       -0.22649884 -0.06344824 -0.08796056 0.11698652
0002e0 9b e7 0f 3e af fd ca be ec 34 2c 3e 4f 14 23 3e
       0.14053194 -0.3964667 0.16817063 0.15925716
0002f0 46 ad b5 bd dc 3f 3d 3c f3 5c 15 3c 08 ae df 3d
       -0.0887094 0.01155087 0.009116399 0.10921866
000300 29 f9 7f 3e 9b 67 e2 bd d1 e6 14 3e dc f2 18 be
       0.24997391 -0.110549174 0.14541174 -0.14936393
000310 35 01 41 3e f4 2b c4 3d f6 7c a4 3d be de 74 be
       0.18848117 0.09578696 0.08031647 -0.23913094
000320 77 8d 63 be 82 01 e9 3d 54 55 6a 3e 2b cf 41 be
       -0.22221933 0.11377241 0.22884113 -0.18926685
000330 52 d5 be bd bf de 5a bd b4 c2 4a bd 8e 68 da bd
       -0.09318031 -0.053435083 -0.04950209 -0.106644735
000340 1e f7 20 3e ca 95 95 bd 12 24 90 bd ff 27 df 3c
       0.15719268 -0.073039606 -0.0703813 0.027240751
000350 4d 38 9e bd 26 78 b7 3d 84 fc 1f 3e 71 38 37 3d
       -0.07725582 0.08958463 0.15623671 0.04473156
000360 d4 c5 92 ba b7 0c 06 3e 6f 4a 27 3e 8f 4f 93 3d
       -0.0011197873 0.13090788 0.16336988 0.07192909
000370 5b a2 dd 3d 78 c9 c4 bd ef dc b9 bd 16 a3 cc bd
       0.108219825 -0.096087396 -0.09075343 -0.09992044
000380 c4 39 0d be 05 8f aa 3d c0 73 9b be 9a 2e 93 3c
       -0.13791567 0.0832806 -0.30361748 0.017966557
000390 3a b7 e5 bd d6 65 e1 bb 31 5d 96 3e 70 bb b4 3d
       -0.11216588 -0.006878595 0.29367974 0.08824813
0003a0 e3 c6 87 3e f3 00 40 be 24 90 9d bc fb ab 91 bd
       0.26518926 -0.18750362 -0.01923377 -0.07112881
0003b0 f4 25 1f be df b5 fa 3d 0b 43 24 3e 99 3d 7c 3d
       -0.15541822 0.122417204 0.160412 0.06158218
0003c0 0f 5d e6 bb 26 7a 55 3c 96 af 25 3e 78 c1 c1 bc
       -0.0070301364 0.013029611 0.16180262 -0.023651823
0003d0 14 f4 3c 3d f0 b8 30 bd dd 87 ae 3d c0 bc 36 3c
       0.04613121 -0.04314512 0.085220076 0.0111534
0003e0 f1 79 61 3d 59 31 92 3d c1 55 0c be fd f5 53 be
       0.055047933 0.071383186 -0.13704588 -0.20699306
0003f0 b6 c3 57 bd 54 27 72 3d 0b 17 15 bd 4c 4b 60 3d
       -0.05267688 0.059119537 -0.03639893 0.05475931
