data/models/gtsrb/gtsrb_50x14.pth (torch, 765849 bytes, 30 tensors)

net.0.weight f4 [50, 3072]
-0.108610205 -0.07956724 -0.01412863 0.08971451 0.15561375 0.1615981 0.18689227 0.21617013
0.21344747 0.22568554 0.213948 0.19959049 0.18434972 0.114907764 0.07653089 -0.0033872833
-0.0853124 -0.09982653 -0.09897153 -0.16491406 -0.16459273 -0.1588373 -0.14607573 -0.17701635
-0.18423814 -0.15297548 -0.1624199 -0.12278888 0.006294105 0.05770745 0.08604581 0.102944516
-0.15711127 -0.11108571 -0.060602996 0.015161701 0.108365186 0.085454375 0.11428009 0.13290338
0.2170719 0.20068975 0.2047965 0.18852337 0.15766497 0.112242416 0.02734604 -0.025939887
-0.06554987 -0.14991286 -0.15938874 -0.17994526 -0.17795664 -0.18319628 -0.19482368 -0.17367584
-0.15789402 -0.15374382 -0.16283926 -0.10729043 0.036446873 0.10674272 0.14875162 0.1574997
-0.121072754 -0.0883131 -0.054056443 -0.02759791 0.0027745483 0.01834659 0.052061666 0.094219185
0.15115003 0.17704347 0.17602001 0.15952094 0.12780227 0.059271764 -0.004558326 -0.033564933
-0.12693824 -0.16544417 -0.19608444 -0.18608338 -0.1672226 -0.2205689 -0.22198747 -0.20983854
-0.15651657 -0.20320746 -0.19062755 -0.20089844 -0.07449119 0.08285285 0.121007405 0.19607443
-0.09453682 -0.073174916 -0.051886354 -0.048364267 0.055760536 0.037436206 0.12177774 0.14043787
0.17057577 0.16514634 0.1657161 0.1428185 0.094920404 -0.0008428264 -0.022502152 -0.030001387
-0.0642957 -0.1300338 -0.15615319 -0.14020558 -0.13626578 -0.15957 -0.17818998 -0.15510443
-0.12041937 -0.1284406 -0.1727901 -0.16413713 0.030191692 0.17427586 0.22421725 0.26636147
-0.05676596 -0.06369984 -0.01848554 0.0063121105 0.17248665 0.15237695 0.21437348 0.23888579
0.267244 0.319747 0.32061744 0.25402018 0.1949298 0.15483208 0.091852546 0.11722058
0.05556068 -0.03790645 -0.08638715 -0.10064092 -0.0992247 -0.13778773 -0.11494965 -0.13174427
-0.11441387 -0.08435456 -0.09835404 -0.07774018 0.10047927 0.23197936 0.31663343 0.35627082
-0.07583665 -0.057321753 -0.03291557 -0.0009878619 0.1469432 0.10419333 0.19448873 0.22955762
0.25162107 0.28670445 0.28041276 0.23330005 0.16304886 0.077142164 0.024060993 0.008508916
-0.0068143727 -0.06926585 -0.08609096 -0.14116165 -0.19028658 -0.18806122 -0.19079153 -0.16082434
-0.16198373 -0.09241091 -0.071716264 -0.041438766 0.110945426 0.20453577 0.28316736 0.35757524
-0.07163987 0.0037798022 0.030956063 -0.017960792 0.12376466 0.113986075 0.18003042 0.2269409
0.2647435 0.23957884 0.28038236 0.22435576 0.1674087 0.10510482 0.0007827697 -0.01145193
-0.074187666 -0.12984642 -0.11743029 -0.15546748 -0.16662881 -0.13884878 -0.15898646 -0.17771381
-0.15222819 -0.09288466 -0.029386194 -0.01528483 0.12976828 0.2060915 0.28283864 0.33705816
-0.04079043 0.05665399 0.07021739 0.032583106 0.0912046 0.1227203 0.21960104 0.261067
0.27463984 0.3102455 0.2565259 0.21488354 0.13339853 0.07179278 0.028553825 -0.048095535
-0.113230705 -0.14152756 -0.14139274 -0.15198176 -0.10099998 -0.13785811 -0.15752788 -0.17368737
-0.1467546 -0.073070824 -0.033661988 0.009227603 0.16126607 0.26920778 0.27437598 0.3184681
00000000: 076f debd 26f4 a2bd c57b 67bc 3ebc b73d
00000010: 3659 1f3e f979 253e b060 3f3e b45b 5d3e
00000020: f991 5a3e 1c1a 673e 2f15 5b3e 7361 4c3e
00000030: 2cc6 3c3e c354 eb3d 3abc 9c3d 2ffd 5dbb
00000040: 44b8 aebd da71 ccbd 96b1 cabd 3bdf 28be
00000050: ff8a 28be 3fa6 22be e094 15be c643 35be
00000060: eca8 3cbe 9ba5 1cbe 6751 26be bc78 fbbd
00000070: c83e ce3b a65e 6c3d c938 b03d 93d4 d23d
00000080: c7e1 20be e880 e3bd d93a 78bd c868 783c
00000090: 91ee dd3d b402 af3d ae0b ea3d d317 083e
000000a0: 1948 5e3e 9d81 4d3e 2cb6 513e 450c 413e
000000b0: ed72 213e 5adf e53d cd04 e03c e37f d4bc
000000c0: 033f 86bd c282 19be cd36 23be 9243 38be
000000d0: 443a 36be ce97 3bbe dc7f 47be 14d8 31be
000000e0: f8ae 21be 056f 1dbe 56bf 26be 16bb dbbd
000000f0: 5149 153d ed9b da3d 5852 183e 9a47 213e
00000100: fef4 f7bd 80dd b4bd 4a6a 5dbd 0315 e2bc
00000110: 32d5 353b 974b 963c 9d3e 553d fdf5 c03d
00000120: 13c7 1a3e e24a 353e 973e 343e 7559 233e
00000130: 99de 023e f3c6 723d 035e 95bb 627b 09bd
00000140: 19fc 01be 326a 29be 5cca 48be a48c 3ebe
00000150: 673c 2bbe d0dc 61be af50 63be eadf 56be
00000160: e145 20be 9e15 50be de33 43be 52b8 4dbe
00000170: d68e 98bd c1ae a93d bbd2 f73d bcc7 483e
00000180: 859c c1bd bbdc 95bd c986 54bd 9c19 46bd
00000190: 2965 643d b556 193d 9c66 f93d f2ce 0f3e
000001a0: 6aab 2e3e 1f1c 293e 7bb1 293e 033f 123e
000001b0: a165 c23d 1ff1 5cba 6f56 b8bc 78c5 f5bc
000001c0: 77ad 83bd 9527 05be 9fe6 1fbe 0d92 0fbe
000001d0: 4289 0bbe 5166 23be 6f77 36be b2d3 1ebe
000001e0: 6e9e f6bd ef85 03be e3ef 30be 9013 28be
000001f0: 9154 f73c 5f75 323e 3599 653e 8860 883e
00000200: 6c83 68bd 1075 82bd fd6e 97bc d2d5 ce3b
00000210: 57a0 303e b408 1c3e b984 5b3e 7a9e 743e
00000220: 35d4 883e e1b5 a33e f827 a43e ef0e 823e
00000230: ad9b 473e 4d8c 1e3e 301d bc3d 5811 f03d
00000240: 9893 633d cb43 1bbd bfeb b0bd d41c cebd
00000250: 5236 cbbd 3a18 0dbe b96a ebbd f8e7 06be
00000260: d251 eabd 15c2 acbd d86d c9bd 3e36 9fbd
00000270: 13c8 cd3d ff8b 6d3e c71d a23e 2169 b63e
00000280: 3f50 9bbd 37ca 6abd 7ad2 06bd 257b 81ba
00000290: 4778 163e 5063 d53d 0e28 473e 2711 6b3e
000002a0: 7ad4 803e edca 923e 4392 8f3e 35e6 6e3e
000002b0: 48f6 263e b6fc 9d3d 8f1b c53c fb68 0b3c
000002c0: 1a4b dfbb 41db 8dbd 7550 b0bd ae8c 10be
000002d0: 7cda 42be 1f93 40be db5e 43be 23af 24be
000002e0: 10df 25be ee41 bdbd fadf 92bd b2bb 29bd
000002f0: 5b37 e33d d371 513e 50fb 903e 1a14 b73e
00000300: edb7 92bd 8fb6 773b 9297 fd3c 8322 93bc
00000310: 5378 fd3d 8871 e93d e559 383e 3263 683e
00000320: 768c 873e 2854 753e 478e 8f3e 84bd 653e
00000330: 306d 2b3e 3241 d73d c932 4d3a e0a0 3bbc
00000340: b4ef 97bd 76f6 04be 4b7f f0bd de32 1fbe
00000350: bea0 2abe 602e 0ebe 59cd 22be 9cfa 35be
00000360: b5e1 1bbe 503a bebd 51bb f0bc 396d 7abc
00000370: fae1 043e a609 533e 3ad0 903e e392 ac3e
00000380: de13 27bd 040e 683d 23ce 8f3d dd75 053d
00000390: 7ac9 ba3d c854 fb3d 18df 603e 93aa 853e
000003a0: 989d 8c3e 80d8 9e3e 5d57 833e 6e0a 5c3e
000003b0: a099 083e 1808 933d b6e9 e93c d3ff 44bd
000003c0: 80e5 e7bd 9aec 10be 42c9 10be 1ba1 1bbe
000003d0: 14d9 cebd ad2a 0dbe fd4e 21be 1adb 31be
000003e0: d646 16be 28a6 95bd 27e1 09bd 5f2f 173c
000003f0: ef22 253e 9ad5 893e 027b 8c3e 400e a33e

net.0.bias f4 [50]
-0.09705154 -0.1470517 -0.12678227 0.22043799 0.4236842 -0.08472733 0.29637358 -0.3159069
0.5438261 0.20781873 -0.7271193 -0.28861764 -0.0129442215 0.40353703 -0.2117801 -0.29520568
0.5756265 0.48981574 0.3561677 0.59224874 0.17945112 0.08352352 -0.44221354 0.33823925
-0.31803697 0.01791296 0.61164355 0.02557843 0.3311071 0.011508582 -0.3652052 0.572762
0.040979534 -0.5611527 0.19662127 -0.28168625 0.30786565 -0.4899515 -0.23819406 0.07256459
-0.33528826 -0.9091381 0.12549813 -0.32974184 -0.32881296 -0.070124164 0.19282864 -0.37330344
-0.1951952 -0.04743394
00000000: f5c2 c6bd b994 16be 36d3 01be 7fba 613e
00000010: 23ed d83e 8685 adbd 47be 973e 8dbe a1be
00000020: 3038 0b3f 6fce 543e 7e24 3abf b1c5 93be
00000030: 0014 54bc 689c ce3e e2dc 58be 3325 97be
00000040: 425c 133f 21c9 fa3e 9d5b b63e 9d9d 173f
00000050: 09c2 373e 610e ab3d d069 e2be b22d ad3e
00000060: bed5 a2be 33be 923c ac94 1c3f db89 d13c
00000070: df86 a93e 7e8e 3c3c 2dfc babe 88a0 123f
00000080: 28da 273d b4a7 0fbf 1657 493e 2e39 90be
00000090: 91a0 9d3e ecda fabe 25e9 73be be9c 943d
000000a0: e7aa abbe 46bd 68bf 9582 003e ecd3 a8be
000000b0: 2c5a a8be 429d 8fbd df74 453e a121 bfbe
000000c0: 40e1 47be 174a 42bd

net.2.weight f4 [50, 50]
0.18175906 -0.011836179 0.14145485 -0.23871635 0.18721108 0.09471369 -0.0061000744 0.19715574
0.027067186 0.17525913 -0.13724716 -0.27637923 0.051996376 0.42378628 0.058518056 0.07665357
0.13694343 0.09492671 0.10755707 0.04483018 0.09396224 -0.17295937 0.070852466 0.026585585
-0.017906895 -0.26555026 0.038709205 0.025999783 0.29719594 -0.0059973896 -0.16995151 0.18240029
0.15488037 -0.052724287 0.121708214 0.065422975 -0.05771819 -0.07698724 0.022933818 -0.14253016
0.10681709 0.009760385 -0.101720594 -0.31349555 0.16536792 0.057506654 0.078219056 0.093286455
-0.07465023 0.14512996 0.09597931 0.03389976 0.0887614 -0.28984934 -0.3263362 -0.025421424
0.13968371 -0.503569 -0.26533094 -0.1934548 0.11610154 -0.0193168 0.12838693 0.2732525
-0.06838703 -0.1981146 0.0063853892 -0.0020993957 0.23306955 0.080434985 -0.06546073 -0.052388173
-0.15941438 -0.11790282 -0.084948696 -0.03922895 0.061824657 -0.3661673 -0.122817874 -0.01633057
0.103988916 0.27831855 0.14254948 0.030793546 -0.3154046 0.02950095 0.15698881 0.13732485
0.026310857 -0.04428948 -0.065446116 -0.027562864 -0.3186701 0.2800394 0.016984139 -0.12595926
-0.015307872 -0.015479919 0.0755073 0.16839503 -0.30501413 -0.04764124 -0.01734003 -0.17718285
-0.026606798 0.021420522 -0.18666847 -0.12018085 -0.34501448 0.11639717 0.04398508 0.29453164
0.05505139 0.08570473 -0.265206 0.04150666 -0.2067726 0.30371198 0.03319101 0.103045665
-0.12485084 -0.09535499 0.09943814 0.024154652 -0.029962663 0.18403646 0.07479893 -0.23714645
-0.030677143 -0.40863487 0.18322021 -0.16897438 -0.26758802 -0.024909029 0.32056022 0.44977832
-0.23352249 0.16718584 -0.3900793 -0.35262972 0.15068874 -0.044372655 -0.071508765 0.045656588
0.0444011 -0.070507914 0.12428688 0.019815866 -0.27067474 0.11637885 0.028433448 -0.00061445904
0.02200659 -0.102871 -0.417313 0.085336804 0.024590435 0.16533533 0.1572996 -0.016582226
-0.13372505 0.1001146 -0.1893762 0.23468919 -0.1612217 0.046193164 -0.07266481 0.15651587
-0.009305598 -0.3520729 -0.103668034 -0.0033259739 -0.07363545 -0.06711772 -0.059687674 0.011259013
-0.34487918 0.21861878 0.051734123 -0.07953555 -0.3891238 -0.13988073 -0.39365682 0.02042129
0.45658815 0.118739985 -0.02332526 -0.0152889965 0.043504715 0.047088318 -0.41472247 0.029982626
-0.11812208 0.07806962 0.10520572 0.019294783 0.10899115 -0.027899196 0.06950789 -0.32554206
-0.0942036 -0.12914398 -0.21432488 -0.0731762 -0.1616707 -0.06266874 -0.16180524 -0.20079592
-0.25783983 -0.108496785 -0.054620948 -0.12612933 -0.08646316 -0.13218008 -0.18639307 0.011748947
-0.07669659 -0.070082955 -0.10939305 -0.3084568 -0.011453218 -0.21367411 0.06009031 0.065406114
0.015310165 0.030925013 -0.109379664 -0.09025034 -0.046072315 -0.10488956 -0.09286091 -0.03536169
-0.08371156 -0.028454283 -0.1238856 -0.039092965 -0.13563365 -0.09619847 -0.07008029 -0.17058724
-0.14787184 -0.05258237 -0.1407001 -0.02894999 -0.1407756 0.07142706 -0.035624254 -0.146039
-0.0746459 -0.027096001 -0.077678606 -0.083298214 0.09860667 -0.09731495 -0.2019316 0.23213053
00000000: 0c1f 3a3e 88ec 41bc 8ad9 103e 0f72 74be
00000010: 43b4 3f3e 40f9 c13d 22e3 c7bb 32e3 493e
00000020: 01bc dd3c 2177 333e 858a 0cbe 9481 8dbe
00000030: 27fa 543d 84fa d83e a1b0 6f3d 8cfc 9c3d
00000040: e63a 0c3e ef68 c23d e246 dc3d da9f 373d
00000050: 466f c03d 431c 31be 191b 913d 03ca d93c
00000060: 7bb1 92bc 34f6 87be 8b8d 1e3d 7ffd d43c
00000070: 112a 983e c085 c4bb c507 2ebe 24c7 3a3e
00000080: f698 1e3e 6cf5 57bd 2842 f93d 7bfc 853d
00000090: e969 6cbd 7cab 9dbd b4df bb3c 6df3 11be
000000a0: ebc2 da3d 06ea 1f3c e352 d0bd 7d82 a0be
000000b0: 3556 293e 198c 6b3d 5031 a03d f80c bf3d
000000c0: 38e2 98bd f39c 143e cd90 c43d 7ada 0a3d
000000d0: 89c8 b53d 2267 94be 8a15 a7be 9740 d0bc
000000e0: 3f09 0f3e e6e9 00bf 75d9 87be 0419 46be
000000f0: a5c6 ed3d 443e 9ebc dd77 033e c0e7 8b3e
00000100: 800e 8cbd 8ede 4abe 873c d13b 0496 09bb
00000110: c9a9 6e3e 19bb a43d 4610 86bd fb94 56bd
00000120: 863d 23be 0977 f1bd 95f9 adbd 89ae 20bd
00000130: da3b 7d3d 487a bbbe f087 fbbd b0c7 85bc
00000140: 24f8 d43d c57f 8e3e 7ef8 113e bf42 fc3c
00000150: b67c a1be faab f13c adc1 203e e39e 0c3e
00000160: de89 d73c e368 35bd 9d08 86bd 84cb e1bc
00000170: ba28 a3be 5361 8f3e 5222 8b3c 77fb 00be
00000180: decd 7abc 7c9f 7dbc 92a3 9a3d bf6f 2c3e
00000190: d02a 9cbe 7623 43bd ae0c 8ebc 6c6f 35be
000001a0: 80f6 d9bc 177a af3c 0526 3fbe 6121 f6bd
000001b0: bda5 b0be a461 ee3d b329 343d dacc 963e
000001c0: 917d 613d f685 af3d 15c9 87be e302 2a3d
000001d0: 32bc 53be 2380 9b3e 4cf3 073d 9b09 d33d
000001e0: ccb1 ffbd 7a49 c3bd 39a6 cb3d fadf c53c
000001f0: 4274 f5bc 0e74 3c3e 2e30 993d 85d6 72be
00000200: a24e fbbc 9738 d1be 149e 3b3e 9f07 2dbe
00000210: 4c01 89be 050e ccbc 7820 a43e 5849 e63e
00000220: 8520 6fbe c432 2b3e 79b8 c7be e28b b4be
00000230: 264e 1a3e 1ac0 35bd 3073 92bd 6702 3b3d
00000240: eedd 353d 7466 90bd 1f8a fe3d e254 a23c
00000250: e195 8abe 0958 ee3d 43ed e83c a613 21ba
00000260: 2a47 b43c 08ae d2bd 0daa d5be 10c5 ae3d
00000270: e171 c93c aa4d 293e 2513 213e 73d7 87bc
00000280: 38ef 08be e208 cd3d d6eb 41be 5d52 703e
00000290: 4d17 25be 0b35 3d3d 4ad1 94bd b245 203e
000002a0: 8276 18bc e642 b4be e84f d4bd 95f8 59bb
000002b0: 2fce 96bd 0475 89bd 107b 74bd b977 383c
000002c0: 0194 b0be 9add 5f3e 29e7 533d 89e3 a2bd
000002d0: 3c3b c7be e53c 0fbe 638d c9be 8d4a a73c
000002e0: ecc5 e93e f32d f33d 9e14 bfbc b37e 7abc
000002f0: 0032 323d aedf 403d 8156 d4be 209e f53c
00000300: fde9 f1bd f7e2 9f3d 1976 d73d 1810 9e3c
00000310: c136 df3d db8c e4bc 275a 8e3d 73ad a6be
00000320: d1ed c0bd 523e 04be fb77 5bbe 67dd 95bd
00000330: 018d 25be 7858 80bd 46b0 25be 729d 4dbe
00000340: 9503 84be 9033 debd 37ba 5fbd 0c28 01be
00000350: 9913 b1bd 375a 07be d3dd 3ebe a87e 403c
00000360: 1a13 9dbd a787 8fbd 7709 e0bd 0dee 9dbe
00000370: 47a6 3bbc 63cd 5abe 4221 763d a4f3 853d
00000380: 7cd7 7a3c 7456 fd3c 7202 e0bd 2cd5 b8bd
00000390: 53b6 3cbd 56d0 d6bd dc2d bebd 6bd7 10bd
000003a0: f770 abbd f518 e9bc bcb7 fdbd f21f 20bd
000003b0: 8ce3 0abe b403 c5bd 4186 8fbd 6cae 2ebe
000003c0: b76b 17be 9c60 57bd b013 10be 8828 edbc
000003d0: 7b27 10be 5a48 923d bdea 11bd 3f8b 15be
000003e0: f3df 98bd 6ff8 ddbc f615 9fbd 4198 aabd
000003f0: 4bf2 c93d 0f4d c7bd 28c7 4ebe a0b3 6d3e

net.2.bias f4 [50]
0.031752594 -0.23590522 0.14075021 0.63480383 -0.13676642 -0.3926018 0.6202399 0.6147877
0.42319894 -0.5464974 0.51371205 0.30362192 -0.4353493 -0.6225269 -0.31201 0.19210367
0.5707138 -0.12904063 -0.1566953 -0.10839269 -0.26941502 -0.26047906 -0.19829 -0.26931885
0.41685548 0.3029425 0.6353092 0.13902171 0.3093953 -0.24123687 -0.60383415 0.14275642
0.36691192 0.46405414 -0.3512945 -0.22356677 -0.0026184793 0.36436027 -0.5167418 0.07815451
-0.18368609 -0.17073908 -0.40376845 0.05937056 -0.16066971 0.30855036 0.12354703 0.5520859
0.14054722 0.30227858
00000000: 020f 023d 2391 71be d320 103e 8182 223f
00000010: 7f0c 0cbe 1a03 c9be 0bc8 1e3f ba62 1d3f
00000020: 88ad d83e 41e7 0bbf a282 033f 5574 9b3e
00000030: 1ae6 debe ec5d 1fbf c6bf 9fbe d3b6 443e
00000040: 4d1a 123f 3a23 04be bc74 20be fdfc ddbd
00000050: c4f0 89be 835d 85be 890c 4bbe 29e4 89be
00000060: 156e d53e 481b 9b3e a0a3 223f b55b 0e3e
00000070: 1069 9e3e cc06 77be e094 1abf bd2e 123e
00000080: e1db bb3e 8198 ed3e dfdc b3be b0ee 64be
00000090: cb9a 2bbb 6e8d ba3e 3149 04bf 790f a03d
000000a0: 3518 3cbe 3ad6 2ebe bdba cebe 8b2e 733d
000000b0: 9a86 24be 50fa 9d3e 3a06 fd3d 8055 0d3f
000000c0: 9ceb 0f3e 42c4 9a3e

net.4.weight f4 [50, 50]
-0.41557074 -0.08233573 -0.17983931 -0.0956018 0.09899051 -0.018078746 -0.21645401 -0.010510886
-0.11909644 -0.5645162 -0.17739211 -0.16970883 0.06492221 -0.26652583 -0.0162083 -0.21556894
-0.30823505 0.023537848 -0.7490383 -0.052445557 -0.025521863 -0.3896311 -0.06769968 0.03973201
0.21851623 -0.051680434 -0.21105163 -0.17252752 -0.011307724 0.13494214 0.15074646 -0.026995681
0.056966566 -0.46498176 -0.17989348 -0.07678106 -0.06385047 0.05426532 0.12405713 0.23368059
0.22972189 -0.1936728 -0.1714861 -0.4193667 0.15352423 -0.041602798 -0.17487305 -0.15914035
0.14190118 0.17554496 0.12750424 0.2118698 -0.059873916 0.24720699 0.053837202 0.4138168
-0.08034106 0.21112424 0.004718184 -0.32080632 -0.080475695 -0.049620464 -0.010051582 -0.1200185
-0.20317669 -0.3193565 -0.15164962 0.13524653 -0.29761407 0.17348182 0.1714834 0.13490477
0.09623126 0.24776287 -0.15301012 -0.15091023 -0.22886787 -0.30914655 -0.27027 -0.24476779
0.046611596 0.08651115 0.109835766 -0.30708376 -0.03377769 0.19172244 -0.31759357 -0.10987058
0.3194777 -0.06902317 0.04446056 -0.26716143 -0.22873975 -0.2903825 0.06506154 -0.19983578
-0.26432216 -0.111600205 -0.26639313 -0.17311795 0.082327604 0.16181463 0.09699155 -0.042298127
0.049909372 0.4473189 -0.18656275 -0.26238605 -0.0019820358 0.018969312 0.038796455 0.1458904
-0.2552582 -0.041014303 -0.3799326 -0.078368515 0.25983396 -0.23052296 0.03194657 -0.1919551
0.015455281 -0.033212375 0.016153283 0.13009617 -0.22361307 -0.0087358905 0.019924607 -0.013924599
-0.06596489 0.05654643 -0.04288881 -0.21698701 -0.1345689 -0.17517321 -0.3396606 0.094951786
0.19363621 0.05992769 0.20530842 0.16116047 -0.31120363 -0.1862357 0.019130753 0.247417
-0.11529762 0.024139913 -0.07756755 0.19512385 0.07517153 -0.07124564 -0.17417376 -0.0973903
-0.050958414 -0.1109731 -0.09798677 -0.07017676 0.081106484 -0.1778622 -0.10180957 -0.17034473
0.013662412 -0.17642464 -0.12957415 -0.19634186 -0.010554222 -0.023903305 -0.12206344 0.065330185
-0.1911172 -0.041117016 0.0058605964 -0.13100801 -0.18603206 -0.07260886 -0.14757565 -0.14617634
0.038573317 -0.041615732 0.06537831 -0.07963099 -0.071445934 0.06911967 -0.011953441 -0.0952188
-0.13184045 -0.09234097 -0.029973343 0.07226543 -0.09497007 -0.16527009 0.03820492 -0.07978201
0.06250678 -0.12554105 -0.09189311 0.052240655 -0.14491828 -0.06308713 0.03572697 -0.25694862
-0.107273005 0.12923642 -0.29874697 -0.12005132 -0.06441551 -0.057801545 -0.24750741 -0.0026106196
0.11929184 0.07962935 -0.035392646 -0.08263406 -0.14735036 -0.2133613 -0.38380924 -0.05360962
0.120869316 -0.2647458 -0.26680115 0.013976278 -0.10902531 -0.004462996 -0.0008996023 0.2873091
0.20487179 0.12668705 -0.22655883 -0.063120864 -0.1032408 -0.01837586 -0.004160606 -0.19227973
0.119447835 0.122318886 -0.28256518 -0.03430174 0.0047777183 0.1280422 0.003236025 0.15428196
0.22648938 0.027272852 0.11441845 -0.023587877 -0.053392455 0.079355285 -0.15331793 0.0130146975
0.2562595 0.047865752 -0.09961898 0.24650425 -0.15429342 -0.1135488 -0.019771267 0.17601283
00000000: b0c5 d4be a39f a8bd cc27 38be e0ca c3bd
00000010: 89bb ca3d e119 94bc 1fa6 5dbe da35 2cbc
00000020: d6e8 f3bd 2284 10bf 47a6 35be 27c8 2dbe
00000030: f0f5 843d 1376 88be 45c7 84bc 1bbe 5cbe
00000040: fcd0 9dbe 72d2 c03c f9c0 3fbf 27d1 56bd
00000050: 3a13 d1bc ba7d c7be 21a6 8abd 08be 223d
00000060: b8c2 5f3e ddae 53bd eb1d 58be 0eab 30be
00000070: 0844 39bc 462e 0a3e 485d 1a3e 0c26 ddbc
00000080: c655 693d 1712 eebe ff35 38be 633f 9dbd
00000090: 09c4 82bd 5045 5e3d aa11 fe3d f749 6f3e
000000a0: 373c 6b3e 2a52 46be 0d9a 2fbe 3bb7 d6be
000000b0: 7535 1d3e b267 2abd ec11 33be b0f5 22be
000000c0: 8b4e 113e 0fc2 333e 7990 023e 66f4 583e
000000d0: 5a3e 75bd d423 7d3e 6684 5c3d ccdf d33e
000000e0: db89 a4bd f430 583e ff9a 9a3b ba40 a4be
000000f0: 71d0 a4bd d43e 4bbd 64af 24bc 42cc f5bd
00000100: 8d0d 50be b282 a3be 0a4a 1bbe 117e 0a3e
00000110: df60 98be 38a5 313e 5899 2f3e 7a24 0a3e
00000120: e514 c53d 8db5 7d3e afae 1cbe 3688 1abe
00000130: 575c 6abe 7548 9ebe d460 8abe 68a4 7abe
00000140: cdeb 3e3d c22c b13d 93f1 e03d 153a 9dbe
00000150: 7a5a 0abd e352 443e a09b a2be d403 e1bd
00000160: 9592 a33e 055c 8dbd 471c 363d 62c9 88be
00000170: c13a 6abe 04ad 94be fc3e 853d c0a1 4cbe
00000180: 3c55 87be a68e e4bd ae64 88be d545 31be
00000190: 609b a83d bcb2 253e 81a3 c63d cd40 2dbd
000001a0: c56d 4c3d fc06 e53e 4e0a 3fbe 7757 86be
000001b0: 0be5 01bb 8865 9b3c 08e9 1e3d 4b64 153e
000001c0: 34b1 82be 9dfe 27bd 8786 c2be ac7f a0bd
000001d0: f508 853e 360e 6cbe 68da 023d e18f 44be
000001e0: 2638 7d3c b309 08bd e453 843c ee37 053e
000001f0: d3fa 64be fb20 0fbc ee38 a33c 0024 64bc
00000200: 9a18 87bd 3b9d 673d 2dac 2fbd d831 5ebe
00000210: 6ecc 09be 9b60 33be ffe7 adbe 1576 c23d
00000220: 9248 463e bd76 753d 5f3c 523e 4007 253e
00000230: 1556 9fbe 92b4 3ebe 19b8 9c3c e25a 7d3e
00000240: 2921 ecbd 11c1 c53c bcdb 9ebd 8cce 473e
00000250: 88f3 993d 3ce9 91bd 9b5a 32be 9174 c7bd
00000260: c5b9 50bd dd45 e3bd 4aad c8bd d5b8 8fbd
00000270: 281b a63d 8221 36be 8981 d0bd d96e 2ebe
00000280: 4fd8 5f3c a9a8 34be 16af 04be d70d 49be
00000290: 9eeb 2cbc ddd0 c3bc 66fc f9bd d5cb 853d
000002a0: 3ab4 43be 516a 28bd 3f0a c03b f726 06be
000002b0: 307f 3ebe f4b3 94bd 121e 17be 40af 15be
000002c0: 0eff 1d3d 4275 2abd 10e5 853d 9315 a3bd
000002d0: 3f52 92bd 9d8e 8d3d 5ed8 43bc 1302 c3bd
000002e0: 2f01 07be 431d bdbd a88a f5bc e6ff 933d
000002f0: ab7f c2bd 903c 29be c37c 1c3d c064 a3bd
00000300: 8e03 803d d58d 00be 7432 bcbd 4cfa 553d
00000310: 7565 14be d333 81bd 7156 123d c58e 83be
00000320: f3b1 dbbd 8d56 043e 5df5 98be 77dd f5bd
00000330: 47ec 83bd 50c1 6cbd 9572 7dbe ee16 2bbb
00000340: 484f f43d b614 a33d e1f7 10bd 0c3c a9bd
00000350: 03e3 16be 627b 5abe a582 c4be c395 5bbd
00000360: 558a f73d c38c 87be 299a 88be c2fc 643c
00000370: a948 dfbd 533e 92bb 4ad3 6bba 2e1a 933e
00000380: e9c9 513e 40ba 013e 0aff 67be 8345 81bd
00000390: ea6f d3bd f988 96bc b155 88bb fae4 44be
000003a0: 11a1 f43d 5382 fa3d 62ac 90be fb7f 0cbd
000003b0: 688e 9c3b 7f1d 033e 7e13 543b 17fc 1d3e
000003c0: d5ec 673e 516b df3c 3854 ea3d 5d3b c1bc
000003d0: 0cb2 5abd 0685 a23d 60ff 1cbe 993b 553c
000003e0: 7234 833e e10e 443d 0905 ccbd 9c6b 7c3e
000003f0: 18ff 1dbe 468c e8bd 5af7 a1bc b53c 343e

net.4.bias f4 [50]
-0.554169 -0.36426678 0.06640907 -0.026193691 -0.16700667 -0.62586385 -0.45645705 -0.19333822
-0.11955708 -0.47565535 -0.5769164 -0.009170769 0.34961322 -0.14539771 -0.48622265 0.21978955
-0.15820178 0.11213989 -0.6339203 -0.7665023 -0.26250005 0.08379883 -0.21409617 -0.35645396
0.17873248 -0.42223182 -0.7421801 0.45922855 0.045409292 0.070020236 0.38257432 -0.65814954
-0.12551737 -0.66641587 1.0670705 -0.6511498 -0.7809303 0.27229527 0.48213148 0.31277183
0.28801283 -0.2595782 -0.5448755 -0.08815974 1.0188093 0.1291288 -0.36316577 0.04771291
-0.3231165 -0.34750783
00000000: 05de 0dbf 2d81 babe 7a01 883d 2794 d6bc
00000010: cc03 2bbe 9d38 20bf bdb4 e9be 74fa 45be
00000020: 58da f4bd 1989 f3be cbb0 13bf fe40 16bc
00000030: 8100 b33e 23e3 14be 2df2 f8be 8310 613e
00000040: a6ff 21be 99a9 e53d 9a48 22bf 7f39 44bf
00000050: 6866 86be b99e ab3d 073c 5bbe 2281 b6be
00000060: a605 373e c52e d8be 84ff 3dbf 0120 eb3e
00000070: 18ff 393d c566 8f3d c8e0 c33e 7d7c 28bf
00000080: a087 00be 3b9a 2abf c495 883f c1b1 26bf
00000090: 0ceb 47bf 496a 8b3e f0d9 f63e a123 a03e
000000a0: 6b76 933e 6fe7 84be f67c 0bbf 188d b4bd
000000b0: 5868 823f 573a 043e ddf0 b9be 9d6e 433d
000000c0: 876f a5be 8cec b1be

net.6.weight f4 [50, 50]
0.11849128 0.16152117 -0.06882454 -0.14044353 -0.20037667 -0.19853912 0.1360801 -0.03652499
-0.26585326 -0.19736587 0.024178449 -0.1286246 0.09356031 0.0859721 0.13702704 -0.20231113
0.023119397 -0.00759656 -0.22957559 -0.19420312 -0.07364144 -0.049348075 0.40787256 0.124444105
0.0038095156 0.06080775 -0.41478488 -0.08768598 -0.10089845 0.006559265 -0.069977194 -0.2753417
0.19268493 0.07052337 0.016810408 -0.17726904 0.021901647 0.3901237 0.018986616 -0.018295404
-0.17683165 -0.09484026 -0.06382534 -0.03799958 0.14676674 0.0660576 -0.18018317 -0.17727104
-0.05550321 0.18778731 0.33519527 -0.13773797 -0.197036 -0.076301366 0.0707437 0.14736496
-0.11175714 -0.03822057 -0.08505751 -0.019752774 0.2197772 -0.100401215 0.02898875 0.064459816
0.114834346 0.030675124 -0.038767077 0.016759023 -0.057944663 -0.09385736 0.15679021 -0.06713588
-0.2345886 -0.21719123 -0.05448645 -0.04388906 0.081319325 0.09229203 0.039109927 0.25768137
0.03653422 -0.3469142 0.072324805 -0.009624749 -0.15099731 -0.03332683 0.108979896 0.13800694
-0.25924936 0.13577329 -0.22998461 -0.19085366 0.23827729 0.10741352 0.26389095 -0.058161378
0.3529647 0.11676128 0.018808134 -0.2463653 -0.40938967 -0.06729074 -0.20758322 0.08114987
0.2426615 -0.42033276 -0.04186523 0.037796807 -0.0015764493 -0.0086372085 -0.16264464 -0.118157744
-0.064917654 -0.18295404 0.09313453 -0.0068323393 0.109654896 -0.028829806 0.13011725 -0.4977713
-0.31471148 -0.02287785 -0.13600813 -0.45731184 -0.3183663 -0.052778337 -0.004690999 -0.04057481
-0.039268643 -0.22105934 0.18625358 0.10332712 -0.11952845 0.13363887 -0.19278558 -0.18576826
-0.13390134 0.23215926 -0.09657737 -0.04833567 -0.29078016 -0.12989657 -0.14264587 0.030167889
0.14216074 -0.18702595 0.03169057 0.12759869 -0.30601305 -0.47404557 0.11514448 0.07792324
-0.17143987 0.16393946 -0.0068763676 -0.2288158 -0.029083714 -0.17540619 0.17897625 0.07014985
-0.12720805 -0.1295913 0.07828118 0.184982 -0.056367774 -0.14048432 0.022257043 -0.10095234
0.13153277 -0.026544396 0.077434786 0.036913455 -0.15988965 -0.1338139 -0.06936137 0.40629578
-0.17432965 -0.24719147 -0.17919758 0.32707563 0.10432006 -0.42103824 -0.131905 0.07994981
-0.31325313 -0.04138053 0.22310737 -0.18877245 -0.0713456 0.40656352 0.34213567 -0.44107017
0.17967029 0.04258202 -0.3967201 0.35919842 0.325747 0.01328677 -0.07758456 -0.007877215
-0.02253106 -0.003299397 0.07265764 0.008507329 -0.17911 -0.12136644 0.03984007 0.11509578
-0.25783023 -0.3297161 0.051917173 -0.057875592 0.019977307 -0.0690734 -0.22124314 -0.0722415
-0.02266838 -0.37941322 0.07806104 -0.07364671 0.11785603 0.053295333 0.15917347 -0.15686907
-0.11569796 -0.17494136 -0.14204454 -0.14573343 -0.026116626 0.14321278 0.096129715 -0.12973203
-0.20748994 0.07374532 -0.09726414 -0.0253718 -0.082058065 0.22469631 -0.1818162 0.2499628
-0.098812856 0.16955929 -0.04405485 -0.018085236 -0.23488063 0.0145932315 -0.11515995 -0.19888802
-0.20485353 -0.1835939 0.10916278 0.24072218 -0.20833369 -0.08054693 0.042486485 -0.22870292
00000000: 8eab f23d ce65 253e e1f3 8cbd 6ed0 0fbe
00000010: 8b2f 4dbe d74d 4bbe 9558 0b3e 3a9b 15bd
00000020: eb1d 88be 471a 4abe e211 c63c 2bb6 03be
00000030: 8c9c bf3d 2412 b03d d150 0c3e a62a 4fbe
00000040: e464 bd3c 90ec f8bb dd15 6bbe 2fdd 46be
00000050: 53d1 96bd 3521 4abd acd4 d03e 8ddc fe3d
00000060: 11a9 793b 8c11 793d af5e d4be b594 b3bd
00000070: d9a3 cebd 1aef d63b 3450 8fbd 96f9 8cbe
00000080: 334f 453e 8e6e 903d fbb5 893c 0486 35be
00000090: 156b b33c 4bbe c73e d289 9b3c 3ee0 95bc
000000a0: 5b13 35be 9c3b c2bd dcb6 82bd 73a5 1bbd
000000b0: 054a 163e 3549 873d f081 38be 8a86 35be
000000c0: 5557 63bd 514b 403e b79e ab3e 2f0b 0dbe
000000d0: cec3 49be e443 9cbd 13e2 903d d7e6 163e
000000e0: ede0 e4bd 2c8d 1cbd a232 aebd 92d0 a1bc
000000f0: 460d 613e 279f cdbd d179 ed3c 8203 843d
00000100: 452e eb3d 664a fb3c 3aca 1ebd 384a 893c
00000110: 6257 6dbd 4a38 c0bd 9d8d 203e 897e 89bd
00000120: fe37 70be 6167 5ebe 2f2d 5fbd 04c5 33bd
00000130: bf8a a63d 9b03 bd3d bb31 203d d0ee 833e
00000140: e8a4 153d bd9e b1be 071f 943d 20b1 1dbc
00000150: 0a9f 1abe b781 08bd da30 df3d b151 0d3e
00000160: 55bc 84be 2708 0b3e 1681 6bbe 246f 43be
00000170: f6fe 733e 9ffb db3d b71c 873e a03a 6ebd
00000180: cab7 b43e 8a20 ef3d 8413 9a3c 2f47 7cbe
00000190: 869b d1be bacf 89bd b290 54be e731 a63d
000001a0: 427c 783e db35 d7be e07a 2bbd d3d0 1a3d
000001b0: dca0 ceba 1483 0dbc 518c 26be b0fc f1bd
000001c0: 8cf3 84bd 4e58 3bbe 51bd be3d d1e1 dfbb
000001d0: bf92 e03d 7c2c ecbc 753d 053e e1db febe
000001e0: dd21 a1be 546a bbbc b745 0bbe c724 eabe
000001f0: e800 a3be 192e 58bd f4b6 99bb c631 26bd
00000200: 28d8 20bd 615d 62be 42b9 3e3e 2b9d d33d
00000210: 55cb f4bd a1d8 083e 9569 45be 093a 3ebe
00000220: 6f1d 09be 28bb 6d3e 5bca c5bd a0fb 45bd
00000230: 23e1 94be 9b03 05be c211 12be a622 f73c
00000240: 9692 113e bb83 3fbe f9cd 013d 3ba9 023e
00000250: bead 9cbe 1ab6 f2be ded0 eb3d 3896 9f3d
00000260: ef8d 2fbe bfdf 273e 2753 e1bb b04e 6abe
00000270: f840 eebc ae9d 33be 8d45 373e b9aa 8f3d
00000280: d442 02be 95b3 04be e251 a03d ec6b 3d3e
00000290: e5e1 66bd 1fdb 0fbe 6754 b63c 1ac0 cebd
000002a0: 87b0 063e a273 d9bc 2196 9e3d 9032 173d
000002b0: 1dba 23be 8306 09be 550d 8ebd 0006 d03e
000002c0: 7983 32be c31f 7dbe 927f 37be 7576 a73e
000002d0: c1a5 d53d 5392 d7be 1b12 07be babc a33d
000002e0: b762 a0be a17e 29bd 4276 643e 914d 41be
000002f0: a41d 92bd 1829 d03e 682c af3e f3d3 e1be
00000300: 7dfb 373e 7c6a 2e3d e61e cbbe dbe8 b73e
00000310: 50c8 a63e c1b0 593c a7e4 9ebd 6f0f 01bc
00000320: 0f93 b8bc b23a 58bb 87cd 943d 5362 0b3c
00000330: 9d68 37be f88e f8bd 572f 233d 56b7 eb3d
00000340: 5302 84be 8cd0 a8be 1aa7 543d f50e 6dbd
00000350: 73a7 a33c 5b76 8dbd 908d 62be 5af3 93bd
00000360: 0ab3 b9bc 7342 c2be 77de 9f3d 16d4 96bd
00000370: 815e f13d 354c 5a3d 5ffe 223e 49a2 20be
00000380: 0df3 ecbd d423 33be 2074 11be 253b 15be
00000390: 89f2 d5bc 5fa6 123e a8df c43d 79d8 04be
000003a0: 3e78 54be c907 973d 6c32 c7bd 85d8 cfbc
000003b0: 0f0e a8bd ca16 663e 072e 3abe 40f6 7f3e
000003c0: 655e cabd f3a0 2d3e dc72 34bd 7d27 94bc
000003d0: 8c84 70be 7318 6f3c fbd8 ebbd 4da9 4bbe
000003e0: 20c5 51be 0a00 3cbe bc90 df3d e07f 763e
000003f0: 6d55 55be caf5 a4bd 4f06 2e3d 1931 6abe

net.6.bias f4 [50]
0.18976158 -0.62390727 -0.0965292 -0.25197414 0.25247136 -0.13503125 0.85198003 -0.6560949
-0.7383376 0.35731867 -0.14553088 -0.36795408 -0.3434996 -0.1552742 0.01737591 0.25948697
-0.50295055 -0.43517688 0.27394038 0.71754473 -0.6974233 -0.10908941 0.48297906 -0.44978368
-0.6507959 0.09339149 -0.14322028 -0.1901604 -0.17992581 0.6323278 -0.1721412 0.72809076
-0.2588489 0.20826466 0.44962984 -0.18345097 0.67370784 0.12661257 0.10979847 -0.40221563
0.28639644 0.48172852 -0.17915013 -0.5579565 -0.79661757 -0.27454397 0.26975045 0.21814826
0.07674381 -0.26069775
00000000: dc50 423e 63b8 1fbf 1ab1 c5bd c102 81be
00000010: ed43 813e a245 0abe 5d1b 5a3f d6f5 27bf
00000020: b103 3dbf 79f2 b63e 0c06 15be 7a64 bcbe
00000030: 2edf afbe 3300 1fbe ed57 8e3c 7adb 843e
00000040: 5ec1 00bf 81cf debe ea41 8c3e 03b1 373f
00000050: 558a 32bf 456a dfbd 0849 f73e 0c4a e6be
00000060: 8f9a 26bf 0a44 bf3d 56a8 12be 68b9 42be
00000070: 793e 38be 3ce0 213f c845 30be 2864 3a3f
00000080: d887 84be 5543 553e e235 e63e 92da 3bbe
00000090: 1e78 2c3f baa6 013e 05de e03d 35ef cdbe
000000a0: 8ea2 923e 1fa5 f63e 2273 37be 3dd6 0ebf
000000b0: 21ef 4bbf 0791 8cbe bb1c 8a3e 4262 5f3e
000000c0: dc2b 9d3d 2d7a 85be

net.8.weight f4 [50, 50]
-0.05387043 0.12660588 0.24674971 -0.119617626 -0.3086449 0.035980247 -0.01959146 0.12186018
0.27398038 -0.006300695 -0.073970854 0.19939922 0.09077954 -0.11595775 0.062175162 -0.12462495
-0.0898248 0.12317353 -0.005299483 -0.2540996 -0.1318014 -0.32165217 0.018605163 -0.015600808
-0.01126463 -0.27967858 -0.25176346 -0.036250364 0.08308293 0.23221964 0.072680876 0.014185661
0.001621193 0.038999796 -0.13538747 -0.14873488 -0.06838196 -0.120592244 -0.031797443 0.2001955
0.19461823 0.04706393 0.043993622 -0.058517396 0.07800536 -0.26371008 0.15907778 -0.16964838
-0.25521386 0.21171519 -0.20731121 0.18224657 -0.2527221 0.24009445 0.17038035 0.11697595
-0.10303429 -0.22117975 -0.19170599 0.4108681 -0.5472264 0.0886376 0.19853988 -0.00919451
-0.024699185 0.021935627 0.11707107 0.17195657 -0.023670102 -0.4248383 -0.051912304 -0.29623124
0.04818459 -0.23217466 -0.480008 -0.2151556 0.016758436 -0.33361757 0.13997732 -0.05024234
-0.0009977459 -0.009680524 0.031772792 -0.26571372 0.14780651 -0.12925234 -0.1725261 -0.055947598
-0.3792455 0.056829073 -0.032741982 -0.01837092 -0.24458583 0.21637118 -0.16203468 -0.03462927
-0.30586743 0.11960756 0.032147676 -0.05574725 0.009797366 0.08918617 -0.100101344 0.36813876
0.27339607 -0.2331521 0.20842198 0.039222658 -0.4675317 -0.16191952 0.095802024 -0.05256455
-0.06715017 -0.07521666 -0.030872166 0.08012184 0.08190749 -0.18759918 -0.26205426 -0.003280635
-0.09556459 0.014753862 -0.32565886 -0.053642847 -0.27543664 0.14865243 -0.42301798 -0.4170069
-0.133702 0.1279426 0.049032222 -0.23009408 -0.10582776 -0.17029972 0.08373472 -0.1504729
-0.12733452 -0.3022855 -0.086188614 0.027595771 -0.009852245 -0.2789093 0.11774227 0.07051686
0.023701625 -0.062252555 -0.14384444 -0.12461814 -0.22399068 0.22676378 -0.07003992 0.20701222
-0.02986744 0.16407254 0.01093552 -0.11256464 0.15388007 -0.09200521 -0.12242823 0.06364675
0.02693233 0.2584412 0.100229 0.04255005 -0.1156391 0.21165192 0.10758676 0.1523877
-0.121636294 -0.10177568 -0.16535977 0.10994025 0.22318922 -0.083873615 -0.029139964 0.110374175
0.09658051 -0.16018735 0.006118875 -0.100837216 0.13111508 0.12462096 -0.16026156 -0.0830709
0.120577484 0.011218384 -0.12397489 0.03917795 -0.048092227 -0.24684978 0.031898748 -0.13534234
-0.086605184 0.035431128 -0.01111825 0.07345573 -0.20648356 -0.048240315 -0.113353565 0.12929851
0.026905052 0.005987115 -0.018699558 -0.030624112 0.028845426 -0.044787545 -0.09301846 -0.18336819
-0.048639115 0.07540217 -0.22136477 -0.084741816 -0.13522744 -0.038082674 -0.162034 -0.16236101
-0.005075162 -0.120486245 -0.18130386 -0.1531711 -0.024202155 -0.050252955 -0.043212347 -0.031806886
0.06352134 -0.020646626 0.07025151 -0.005074643 -0.11761633 -0.012860771 0.122714676 -0.05950979
-0.07332398 -0.060592953 -0.03345812 -0.11478147 -0.15180926 -0.06563034 -0.050115597 -0.06604749
-0.062123153 -0.012504724 0.03283606 0.037970748 -0.19143777 -0.07370855 -0.03997254 -0.10365373
-0.16177754 0.07629938 -0.16916364 -0.22939225 0.19017312 -0.19766726 -0.015622384 0.08387743
00000000: 3da7 5cbd f9a4 013e f5ab 7c3e 16fa f4bd
00000010: b406 9ebe 0660 133d 457e a0bc d491 f93d
00000020: 2847 8c3e 0f76 cebb 087e 97bd 4f2f 4c3e
00000030: a0ea b93d 427b edbd 62ab 7e3d 5e3b ffbd
00000040: 11f6 b7bd 6742 fc3d 49a7 adbb 5819 82be
00000050: f2f6 06be 98af a4be db69 983c 889a 7fbc
00000060: 488f 38bc 0832 8fbe 24e7 80be 437b 14bd
00000070: 6227 aa3d fcca 6d3e b6d9 943d fa6a 683c
00000080: 367e d43a 40be 1f3d 03a3 0abe f54d 18be
00000090: d70b 8cbd 11f9 f6bd 093e 02bd 0d00 4d3e
000000a0: 004a 473e 1cc6 403d a832 343d f0af 6fbd
000000b0: 46c1 9f3d 0205 87be 49e5 223e 4eb8 2dbe
000000c0: 64ab 82be decb 583e 6449 54be d89e 3a3e
000000d0: cb64 81be 52db 753e 3078 2e3e 1691 ef3d
000000e0: a403 d3bd f27c 62be 934e 44be 4e5d d23e
000000f0: 0817 0cbf a187 b53d 0a4e 4b3e 92a4 16bc
00000100: f255 cabc 58b2 b33c f5c2 ef3d 6215 303e
00000110: cde7 c1bc 6884 d9be ffa1 54bd 9fab 97be
00000120: 345d 453d 32bf 6dbe 9cc3 f5be c051 5cbe
00000130: fd48 893c eccf aabe 3756 0f3e e9ca 4dbd
00000140: ccc6 82ba 0f9b 1ebc 3024 023d a10b 88be
00000150: 975a 173e ba5a 04be afaa 30be 4f29 65bd
00000160: 772c c2be 9ac5 683d 751c 06bd 9d7e 96bc
00000170: b574 7abe 6890 5d3e 6bec 25be 6cd7 0dbd
00000180: a89a 9cbe cff4 f43d 48ad 033d 3a57 64bd
00000190: 2285 203c 3da7 b63d ef01 cdbd af7c bc3e
000001a0: 92fa 8b3e 6dbf 6ebe 926c 553e f0a7 203d
000001b0: 5160 efbe 3bce 25be da33 c43d ed4d 57bd
000001c0: 0786 89bd 310b 9abd a0e7 fcbc eb16 a43d
000001d0: 1dbf a73d 001a 40be fa2b 86be ecff 56bb
000001e0: 5eb7 c3bd 2fba 713c c2bc a6be 9ab8 5bbd
000001f0: 0806 8dbe 5838 183e d095 d8be ee81 d5be
00000200: 2de9 08be 6303 033e 03d6 483d c89d 6bbe
00000210: 3abc d8bd 0d63 2ebe 1c7d ab3d 9115 1abe
00000220: fb63 02be 2ac5 9abe a883 b0bd 8710 e23c
00000230: 506b 21bc 33cd 8ebe dc22 f13d 256b 903d
00000240: e929 c23c 89fc 7ebd f54b 13be cc37 ffbd
00000250: d05d 65be c434 683e 1771 8fbd 03fb 533e
00000260: 90ac f4bc a202 283e e52a 333c 4a88 e6bd
00000270: bd92 1d3e 3a6d bcbd a7bb fabd 3a59 823d
00000280: 31a1 dc3c 6852 843e dd44 cd3d f648 2e3d
00000290: 31d4 ecbd 48bb 583e 7256 dc3d 850b 1c3e
000002a0: 731c f9bd c56f d0bd 1254 29be 5b28 e13d
000002b0: b78b 643e eec5 abbd efb6 eebc db0b e23d
000002c0: 01cc c53d 2708 24be d880 c83b be83 cebd
000002d0: 0843 063e 4639 ff3d 9b1b 24be 1321 aabd
000002e0: 54f1 f63d 50cd 373c 8ce6 fdbd 0f79 203d
000002f0: 5bfc 44bd 30c6 7cbe 43a8 023d 2f97 0abe
00000300: 0f5e b1bd 3b20 113d 5229 36bc f56f 963d
00000310: 6d70 53be a397 45bd ea25 e8bd d466 043e
00000320: fc67 dc3c 902f c43b d12f 99bc 6bdf fabc
00000330: 3e4d ec3c 2573 37bd 7680 bebd dfc4 3bbe
00000340: cf39 47bd 746c 9a3d 72ad 62be 1e8d adbd
00000350: 1079 0abe 94fc 1bbd 3eec 25be f741 26be
00000360: 8b4d a6bb 7ec1 f6bd b8a7 39be e3d8 1cbe
00000370: 9943 c6bc 0bd6 4dbd 6eff 30bd f047 02bd
00000380: 7a17 823d 1d23 a9bc 06e0 8f3d 3149 a6bb
00000390: d5e0 f0bd fcb5 52bc d551 fb3d 8ac0 73bd
000003a0: e22a 96bd 5130 78bd 620b 09bd 8c12 ebbd
000003b0: e373 1bbe 3369 86bd 0346 4dbd e843 87bd
000003c0: d974 7ebd 9de0 4cbc 1b7f 063d 3787 1b3d
000003d0: 4308 44be 82f4 96bd 3fba 23bd 6848 d4bd
000003e0: 03a9 25be d942 9c3d 3c39 2dbe cde5 6abe
000003f0: bebc 423e 4969 4abe 07f5 7fbc eec7 ab3d

net.8.bias f4 [50]
-0.47879776 -0.5455876 0.3112588 -0.20363562 -0.17149185 0.33737606 0.33484775 -0.1314354
0.33535838 -0.30732706 0.595675 0.6395043 0.27633452 0.16558711 -0.010474486 -0.67646533
-0.49003974 -0.9864859 -0.39936823 0.755988 -0.12633906 0.8195535 -0.3928338 -0.5001611
0.635426 -0.45619702 -0.35634026 -0.06922249 -0.07125887 -0.17806444 -0.16482486 -0.24711832
0.4043785 0.08545874 -0.46564737 0.4312221 0.026057139 -0.6783439 0.0901145 1.2131335
0.61797744 0.2286147 0.6268623 -0.2310019 0.04917571 -0.13013512 0.21058816 -0.14388585
0.0044177976 -0.36817577
00000000: fb24 f5be a1ab 0bbf 505d 9f3e db85 50be
00000010: 8f9b 2fbe 8ebc ac3e 2a71 ab3e 0097 06be
00000020: 18b4 ab3e f959 9dbe 287e 183f 8eb6 233f
00000030: b87b 8d3e ab8f 293e 2e9d 2bbc d52c 2dbf
00000040: 7de6 fabe 578a 7cbf fe79 ccbe 6e88 413f
00000050: 075f 01be 42ce 513f 8321 c9be 8f0a 00bf
00000060: 47ab 223f a892 e9be 3b72 b6be 85c4 8dbd
00000070: 2cf0 91bd 8656 36be d9c7 28be 960c 7dbe
00000080: b30a cf3e fe04 af3d 5569 eebe 25c9 dc3e
00000090: c875 d53c f2a7 2dbf f38d b83d f547 9b3f
000000a0: c533 1e3f f919 6a3e 0c7a 203f c38b 6cbe
000000b0: 786c 493d 2442 05be 6ca4 573e d056 13be
000000c0: 2cc3 903b 8981 bcbe

net.10.weight f4 [50, 50]
-0.10479263 0.010549375 -0.034824144 -0.18409237 -0.03641329 0.029444525 -0.13485476 -0.12102924
0.10816049 0.30995923 -0.40764454 -0.15297936 -0.09190575 -0.25524455 -0.03130695 -0.16523515
-0.12908009 0.18043347 -0.039488856 0.037869826 0.043075807 -0.26975426 -0.12136045 0.06826366
0.07092908 0.13980249 0.10967124 -0.14761525 0.1714345 0.065431364 0.16840641 -0.45188075
-0.263498 0.04455767 0.08923219 0.012111135 -0.050384037 -0.3352445 -0.03439155 -0.019268785
0.058568355 -0.1463913 -0.1486209 -0.07416046 -0.020900963 -0.06093636 0.28272596 -0.039679453
-0.11035072 -0.1341491 0.12100128 0.231676 -0.27126983 0.124024294 -0.16907124 0.09730939
0.02594947 -0.21710184 -0.14489241 0.03233201 -0.3577269 0.37024212 -0.3106661 0.119604684
-0.170234 -0.07146259 0.009216291 0.26711175 -0.027696503 0.011916408 -0.13937853 0.16663449
-0.12352385 0.1722612 -0.14014249 0.18103462 -0.04688598 0.08227555 -0.281582 -0.10363224
0.17648648 0.114999324 -0.54719216 -0.19667035 0.17753382 -0.21717094 -0.08079065 0.24726883
-0.024123957 -0.11465046 0.100629404 0.009716983 -0.14120543 -0.3668958 -0.009297464 -0.0012898741
-0.11428427 -0.09511675 -0.09762075 0.2636273 -0.7019786 0.043079413 -0.03185125 -0.046627034
0.11642705 -0.49654856 0.14441128 0.14210129 -0.18288067 -0.017019114 -0.028102959 -0.12944525
-0.18133199 0.075863846 0.16679862 -0.18308961 0.16872695 0.19773452 -0.35213366 0.26004618
0.13221347 -0.15735304 -0.21268868 0.12799916 -0.0820323 -0.0651802 -0.45049316 0.16638708
0.43624747 0.1479234 0.37397453 -0.5352234 -0.10521397 -0.2689509 -0.19642858 -0.33359945
-0.41451338 -0.060434423 -0.35793477 -0.18115753 0.054180633 0.13334365 -0.06246208 -0.17001292
0.028460829 -0.017501736 -0.15624347 0.2421038 0.04760541 -0.00539755 -0.44889805 0.06047225
0.061285812 0.11698038 0.032598644 -0.2750059 -0.04226559 -0.18056883 -0.051495753 0.19190562
-0.21465813 0.4127366 -0.067992166 -0.2715065 0.14097922 -0.3642676 0.027198806 0.2618547
-0.22846238 -0.039823614 -0.091069125 0.16710061 -0.07337312 -0.048133276 0.07071955 0.06969371
-0.20907232 -0.005305144 -0.11256119 -0.009915622 -0.14360279 -0.15616746 0.038238026 -0.028025303
-0.20131701 0.05129003 -0.27024183 0.24404365 -0.005705552 0.15589154 -0.111352324 -0.032356955
0.15539724 0.024483517 0.09608284 -0.07876676 -0.05783376 -0.12260992 -0.091883354 0.0252429
0.057048876 -0.2832896 0.12108404 -0.17998523 0.09960923 0.2001788 -0.16406187 0.06608568
-0.15741648 0.13254823 -0.06802722 0.124573044 0.010094512 -0.031713247 -0.19195524 0.09449814
0.14284554 0.21688992 -0.041981358 -0.11031046 0.005465377 -0.010055845 0.19872962 0.13022049
-0.5265781 -0.13382375 -0.06869173 -0.021943597 -0.05226879 -0.23781092 -0.11524561 -0.10740105
0.15454397 -0.060992945 0.2136359 -0.36831167 -0.37076196 0.0065070502 -0.038649503 0.08125763
0.10102801 -0.16936903 0.017320167 0.011144132 0.123613395 -0.05073739 -0.011551828 0.06388413
-0.15479033 -0.12813194 0.0065955566 -7.2675764e-05 0.041988038 -0.16772681 0.0030779764 0.014821157
00000000: 859d d6bd 49d7 2c3c c3a3 0ebd b682 3cbe
00000010: 1a26 15bd a535 f13c 5e17 0abe 2ede f7bd
00000020: 3f83 dd3d fab2 9e3e c9b6 d0be 9fa6 1cbe
00000030: 1539 bcbd 6aaf 82be b73b 00bd 6733 29be
00000040: 922d 04be 8dc3 383e 11bf 21bd 641d 1b3d
00000050: 4270 303d 3b1d 8abe d48b f8bd d1cd 8b3d
00000060: 4443 913d 6228 0f3e 519b e03d 7428 17be
00000070: 878c 2f3e e100 863d bb72 2c3e ea5c e7be
00000080: 36e9 86be 1a82 363d 5ebf b63d c86d 463c
00000090: 7e5f 4ebd 2ba5 abbe 27de 0cbd 92d9 9dbc
000000a0: 5fe5 6f3d 9ae7 15be 1430 18be 70e1 97bd
000000b0: 7f38 abbc 6898 79bd 75c1 903e ec86 22bd
000000c0: 8fff e1bd 625e 09be 85cf f73d 793c 6d3e
000000d0: e1e3 8abe 7300 fe3d 0321 2dbe 254a c73d
000000e0: fc93 d43c f24f 5ebe ad5e 14be 926e 043d
000000f0: fb27 b7be 6090 bd3e a10f 9fbe 4df3 f43d
00000100: d251 2ebe fa5a 92bd edff 163c dfc2 883e
00000110: c7e3 e2bc 0a3d 433c 3fb9 0ebe 3ba2 2a3e
00000120: 13fa fcbd 3d65 303e 8381 0fbe 2461 393e
00000130: 830b 40bd 1580 a83d 842b 90be 243d d4bd
00000140: dfb8 343e c484 eb3d c914 0cbf f463 49be
00000150: 6dcb 353e 0f62 5ebe 9175 a5bd 0a34 7d3e
00000160: 9b9f c5bc dccd eabd ca16 ce3d fb33 1f3c
00000170: 2898 10be c4d9 bbbe 6454 18bc fe10 a9ba
00000180: df0d eabd 92cc c2bd 63ed c7bd 28fa 863e
00000190: dfb4 33bf 0a74 303d 7576 02bd fdfb 3ebd
000001a0: 4e71 ee3d 9d3b febe 8de0 133e 0083 113e
000001b0: 1245 3bbe ab6b 8bbc 2d38 e6bc 4c8d 04be
000001c0: 18af 39be 815e 9b3d 42cd 2a3e d87b 3bbe
000001d0: c2c6 2c3e eb7a 4a3e dd4a b4be c624 853e
000001e0: f862 073e 2821 21be 10cb 59be 3612 033e
000001f0: 8d00 a8bd 327d 85bd 0aa7 e6be 6061 2a3e
00000200: d45b df3e 3b79 173e 9779 bf3e 6704 09bf
00000210: 6c7a d7bd efb3 89be 9324 49be 8ccd aabe
00000220: 193b d4be 168a 77bd 3a43 b7be 5c81 39be
00000230: 83ec 5d3d 3d8b 083e 3dd8 7fbd de17 2ebe
00000240: af26 e93c cd5f 8fbc 4afe 1fbe 0fea 773e
00000250: e4fd 423d eedd b0bb f7d5 e5be c0b1 773d
00000260: d506 7b3d 6993 ef3d 2886 053d 93cd 8cbe
00000270: af1e 2dbd 09e7 38be 36ed 52bd e882 443e
00000280: 57cf 5bbe 3652 d33e 7a3f 8bbd e602 8bbe
00000290: db5c 103e 4881 babe 08d0 de3c d211 863e
000002a0: 0bf2 69be 161e 23bd 7382 babd 6c1c 2b3e
000002b0: a544 96bd 6627 45bd 69d5 903d 93bb 8e3d
000002c0: 0e17 56be c6d6 adbb 7b86 e6bd 2275 22bc
000002d0: 9c0c 13be 5dea 1fbe 7a9f 1c3d 5295 e5bc
000002e0: 0c26 4ebe 7f15 523d 235d 8abe 94e6 793e
000002f0: a4f5 babb 08a2 1f3e b00c e4bd ba88 04bd
00000300: 7420 1f3e a891 c83c 14c7 c43d 7850 a1bd
00000310: 18e3 6cbd e91a fbbd 572d bcbd 33ca ce3c
00000320: 15ac 693d 560b 91be e9fa f73d 0c4e 38be
00000330: edff cb3d acfb 4c3e d6ff 27be ee57 873d
00000340: c931 21be b9ba 073e db51 8bbd 2720 ff3d
00000350: 7463 253c c0e5 01bd ea8f 44be 3e88 c13d
00000360: 1a46 123e 6418 5e3e a5f4 2bbd 73ea e1bd
00000370: e816 b33b 45c1 24bc c77f 4b3e 8558 053e
00000380: d3cd 06bf 1809 09be 40ae 8cbd 0fc3 b3bc
00000390: cc17 56bd b584 73be e405 ecbd 15f5 dbbd
000003a0: c640 1e3e bdd3 79bd 5fc3 5a3e 5993 bcbe
000003b0: 83d4 bdbe 1839 d53b f14e 1ebd 666a a63d
000003c0: c6e7 ce3d 136f 2dbe 06e3 8d3c e195 363c
000003d0: 0529 fd3d 02d2 4fbd e143 3dbc afd5 823d
000003e0: 5b81 1ebe 0535 03be 8a1f d83b 8169 98b8
000003f0: a6fb 2b3d 94c0 2bbe e0b7 493b 70d4 723c

net.10.bias f4 [50]
0.48733878 -0.644745 -0.09525169 -0.08606423 -0.2735717 -0.22662131 -0.45471823 0.6593958
0.24472035 0.4059583 0.32780322 -0.29120457 0.0020411864 -0.37995318 -0.066462085 -0.3181434
0.042946145 0.32631174 -0.28063262 0.31242412 -0.43566132 -0.20588176 0.19240884 0.4492308
-0.5463615 -0.31180403 -0.02937145 -0.084132284 -0.03351338 0.5680346 -0.1853958 0.16822006
0.44107822 0.69177973 0.5136536 0.6709206 0.4087285 -0.46535027 0.16099028 0.028312106
-0.6696953 -0.013737502 -0.0050842464 0.02135536 0.34661394 -0.27331638 -0.051325344 -0.27252957
-0.12696756 0.3511035
00000000: 7884 f93e 020e 25bf 5113 c3bd 7142 b0bd
00000010: 9711 8cbe 6b0f 68be d4d0 e8be 2ace 283f
00000020: f997 7a3e c4d9 cf3e d3d5 a73e c418 95be
00000030: 6dc5 053b 3989 c2be 461d 88bd b1e3 a2be
00000040: 4ce8 2f3d 5512 a73e 14af 8fbe 0ef6 9f3e
00000050: 000f dfbe abd2 52be d306 453e 9401 e63e
00000060: 59de 0bbf c7a4 9fbe 659c f0bc 8c4d acbd
00000070: 5345 09bd b76a 113f 66d8 3dbe e141 2c3e
00000080: 01d5 e13e 7a18 313f cd7e 033f 74c1 2b3f
00000090: dd44 d13e 6442 eebe a3da 243e caee e73c
000000a0: 2771 2bbf 4213 61bc c099 a6bb 70f1 ae3c
000000b0: 6277 b13e 20f0 8bbe 863a 52bd ff88 8bbe
000000c0: c903 02be d7c3 b33e
