data/models/gtsrb/gtsrb_50x4.pth (torch, 657762 bytes, 10 tensors)

net.0.weight f4 [50, 3072]
-0.13079114 -0.08337575 -0.07558595 -0.086848006 -0.13741335 -0.11092298 -0.043619223 -0.029170154
0.008250711 0.03211096 0.011466832 0.02604038 0.01795118 0.04879489 0.02172416 -0.03332411
-0.034836613 -0.00058185327 -0.015790874 0.008314752 -0.0013306522 0.0037289928 0.00025555788 0.017148348
0.026377061 0.030639343 0.038714655 -0.0045544957 0.108944885 0.10383229 0.17398527 0.25480625
-0.08522742 -0.029325524 -0.04488237 -0.06325752 -0.15287521 -0.07325824 -0.041796673 -0.01471428
0.014686556 0.019425532 0.03962691 0.013649536 0.062751666 0.0396982 0.023043608 0.008080471
-0.010621772 0.001303233 -0.01803334 0.016409697 -0.03224497 -0.0027613249 -0.019212397 0.0011703302
0.03238646 0.044958994 0.04945697 0.012296176 0.09936517 0.09008954 0.120324746 0.22370036
-0.0794535 -0.067339934 -0.047132254 -0.056177247 -0.15068048 -0.081565775 -0.0666194 -0.015547447
0.015184416 0.02746852 0.036728255 0.039116386 0.059512854 0.046931807 0.006819682 -0.010276895
-0.011231916 -0.011230523 -0.005554853 0.007654964 -0.017056905 -0.030970952 -0.019298956 0.03338936
0.026616309 0.059622504 0.050479878 0.0115100145 0.09198311 0.07088703 0.09065612 0.1757135
-0.076113656 -0.039063234 -0.016604546 -0.0710534 -0.18610689 -0.12044659 -0.084101126 -0.049446154
-0.011302151 0.0020978078 0.04987763 0.041458312 0.07124997 0.02153307 0.025089387 0.0007227526
-0.022937298 -0.05836562 -0.028462943 -0.0021295962 -0.014670092 -0.032175165 -0.021941911 0.019548027
0.049269065 0.048096325 0.046096347 -0.03634526 0.06566889 0.03891454 0.08754893 0.16423568
-0.05207491 -0.040469352 -0.055109 -0.090811715 -0.24213344 -0.15407732 -0.10985944 -0.056707542
-0.019510686 0.009000726 0.051806673 0.022205401 0.060395405 0.01461015 -0.03337974 -0.021131279
-0.031535145 -0.071443394 -0.06206442 -0.059727635 -0.05157225 -0.06947476 -0.0707278 -0.023633072
-0.010494093 0.020958278 -0.02123887 -0.09587719 -0.016753435 0.013194364 0.0142086325 0.07376149
-0.06168282 -0.013932573 -0.04323184 -0.09590911 -0.21633135 -0.1336053 -0.07588309 -0.018507984
0.007897423 0.067024685 0.09845897 0.075012565 0.10187193 0.0651085 0.06092596 -0.013701898
-0.0049272925 -0.05178869 -0.05831952 -0.018609047 -0.023682646 -0.033314288 -0.008279099 0.049740408
0.060357843 0.036651853 0.014436656 -0.043367464 0.031043425 0.00989371 0.028281908 0.08132487
-0.051687174 -0.043680742 -0.025051448 -0.062805735 -0.2102797 -0.10874271 -0.06119863 -0.01628083
0.013163347 0.056942206 0.07614371 0.08443299 0.0698497 0.07795339 0.055394467 0.0027808228
-0.040516045 -0.056654304 -0.03878012 0.003284714 -0.036232457 -0.02525415 0.035423916 0.08021407
0.055153236 0.024342522 0.018726444 -0.05283583 0.029443404 0.02447701 0.057205938 0.08924442
-0.0673937 -0.045531034 -0.054188784 -0.066514924 -0.22962466 -0.09338732 -0.057146687 -0.059362862
0.010387513 0.04236122 0.06466848 0.057807174 0.08815808 0.08094222 0.058626484 0.006513545
-0.013857281 -0.032780662 -0.010757778 -0.020669878 -0.02029092 -0.011043086 0.028855901 0.07781231
0.07158774 0.043223094 0.011380802 -0.059778042 0.025791144 0.058505677 0.05674296 0.09972424
00000000: 1dee 05be e8c0 aabd cecc 9abd 5edd b1bd
00000010: 16b6 0cbe 962b e3bd 12aa 32bd 3ff6 eebc
00000020: fd2d 073c c886 033d 61df 3b3c a352 d53c
00000030: 5a0e 933c 27dd 473d def6 b13c dd7e 08bd
00000040: d6b0 0ebd 8387 18ba dd5b 81bc 993a 083c
00000050: 4769 aeba 1e62 743b 66fc 8539 b17a 8c3c
00000060: b514 d83c 5cff fa3c 4293 1e3d e13d 95bb
00000070: 7f1e df3d 06a6 d43d 3229 323e f775 823e
00000080: b78b aebd 153c f0bc 93d6 37bd 298d 81bd
00000090: 528b 1cbe 6b08 96bd fd32 2bbd 2a14 71bc
000000a0: e19f 703c 4b22 9f3c d44f 223d 4ea2 5f3c
000000b0: f283 803d 949a 223d f3c5 bc3c f463 043c
000000c0: f106 2ebc 3ed1 aa3a a8ba 93bc a16d 863c
000000d0: 4d13 04bd 58f7 34bb 5163 9dbc c465 993a
000000e0: aaa7 043d ec26 383d 6493 4a3d e675 493c
000000f0: f77f cb3d dd80 b83d d26c f63d b511 653e
00000100: 84b8 a2bd 85e9 89bd c00d 41bd 1d1a 66bd
00000110: fc4b 1abe f50b a7bd c16f 88bd b8ba 7ebc
00000120: 0fc8 783c a905 e13c 5e70 163d 8138 203d
00000130: c0c3 733d 913b 403d a477 df3b 6c60 28bc
00000140: 1206 38bc 3a00 38bc 7c05 b6bb 7ed6 fa3b
00000150: ecba 8bbc cbb6 fdbc d818 9ebc 48c3 083d
00000160: 720a da3c ba36 743d fdc3 4e3d 8094 3c3c
00000170: a461 bc3d 382d 913d eaa9 b93d 3dee 333e
00000180: 7ae1 9bbd c500 20bd 4206 88bc 7284 91bd
00000190: ce92 3ebe b4ac f6bd 363d acbd 0d88 4abd
000001a0: a82c 39bc 607b 093b 7c4c 4c3d 31d0 293d
000001b0: 81eb 913d 1f66 b03c 4288 cd3c 1b77 3d3a
000001c0: 00e7 bbbc ca10 6fbd 1e2b e9bc b290 0bbb
000001d0: d35a 70bc 1bca 03bd 86bf b3bc 2f23 a03c
000001e0: 5cce 493d a700 453d 86cf 3c3d c4de 14bd
000001f0: 697d 863d da64 1f3d da4c b33d 662d 283e
00000200: 804c 55bd 31c3 25bd fab9 61bd 7efb b9bd
00000210: d4f1 77be 72c6 1dbe fcfd e0bd 2b46 68bd
00000220: e0d4 9fbc c877 133c 3c33 543d 1ae8 b53c
00000230: 2c61 773d 695f 6f3c 32b9 08bd 811b adbc
00000240: ff2a 01bd ea50 92bd 4337 7ebd f7a4 74bd
00000250: 6c3d 53bd c848 8ebd bdd9 90bd 259a c1bc
00000260: 6bef 2bbc b2b0 ab3c 24fd adbc 435b c4bd
00000270: 803e 89bc 2c2d 583c 53cb 683c 4410 973d
00000280: 20a7 7cbd 7245 64bc df13 31bd ff6b c4bd
00000290: f785 5dbe d4cf 08be 9868 9bbd 0e9e 97bc
000002a0: 3164 013c 3d44 893d dba4 c93d 30a0 993d
000002b0: 3ba2 d03d 9b57 853d 808d 793d ed7d 60bc
000002c0: 2075 a1bb 6120 54bd 73e0 6ebd 0072 98bc
000002d0: 1c02 c2bc 9074 08bd 0fa5 07bc 99bc 4b3d
000002e0: c939 773d 4120 163d b987 6c3c 15a2 31bd
000002f0: c84e fe3c 3a19 223c 76af e73c a78d a63d
00000300: eeb5 53bd 94ea 32bd b238 cdbc 4ba0 80bd
00000310: 9053 57be 7fb4 debd 6aab 7abd 605f 85bc
00000320: 14ab 573c 3b3c 693d 3cf1 9b3d 34eb ac3d
00000330: 5c0d 8f3d 07a6 9f3d 4fe5 623d 773e 363b
00000340: 27f4 25bd 580e 68bd e7d7 1ebd 5b44 573b
00000350: 7c68 14bd cbe1 cebc ab18 113d 4647 a43d
00000360: 5ce8 613d f869 c73c 3368 993c 626a 58bd
00000370: 4b33 f13c 0384 c83c c650 6a3d c7c5 b63d
00000380: b505 8abd c07e 3abd 0ff5 5dbd fa38 88bd
00000390: ba22 6bbe da41 bfbd a512 6abd 7926 73bd
000003a0: 6330 2a3c f582 2d3d e870 843d 37c7 6c3d
000003b0: 398c b43d 09c5 a53d 5322 703d 936f d53b
000003c0: a609 63bc 0445 06bd 6441 30bc e053 a9bc
000003d0: 2539 a6bc 0fee 34bc 3663 ec3c 0f5c 9f3d
000003e0: 989c 923d b30a 313d 8b76 3a3c d2d9 74bd
000003f0: f347 d33c a6a3 6f3d 4e6b 683d 393c cc3d

net.0.bias f4 [50]
0.79188174 0.17757237 0.33343357 1.1436605 0.0046217116 0.53911614 0.015244657 0.07562541
0.62811506 0.0021673287 -0.070414506 -0.07124837 0.41688785 -0.45948786 0.3423646 0.61893594
0.42952845 -0.19118214 0.421114 0.008506978 0.49936682 0.22019473 -0.5108136 -0.6247686
-0.18308163 0.013975938 -0.08036645 0.3370235 0.25476938 -0.011493083 0.25332287 0.57111484
-0.39391306 0.36358997 0.3426203 -0.26228517 -0.029146826 -0.6153663 -0.8246726 -0.3698682
0.8379263 -0.31827885 -0.13115439 0.5343413 0.12945226 0.081594974 0.7312688 0.6455221
0.65005606 -1.1550654
00000000: c3b8 4a3f 88d5 353e ceb7 aa3e 7863 923f
00000010: ba71 973b 8403 0a3f bac4 793c 7fe1 9a3d
00000020: 26cc 203f be09 0e3b 7b35 90bd aaea 91bd
00000030: 5372 d53e fe41 ebbe 6a4a af3e 9672 1e3f
00000040: 27eb db3e 40c5 43be 419c d73e da60 0b3c
00000050: 02ad ff3e ba7a 613e aec4 02bf d6f0 1fbf
00000060: c079 3bbe 55fb 643c 2a97 a4bd 588e ac3e
00000070: 2271 823e 7c4d 3cbc 89b3 813e 9534 123f
00000080: f9ae c9be 7728 ba3e ee6b af3e 3e4a 86be
00000090: 53c5 eebc a588 1dbf be1d 53bf 5d5f bdbe
000000a0: 5782 563f 72f5 a2be 564d 06be 97ca 083f
000000b0: 228f 043e 441b a73d 6f34 3b3f f040 253f
000000c0: 136a 263f 2fd9 93bf

net.2.weight f4 [50, 50]
0.044227935 -0.29221165 -0.19488692 0.25069988 0.04895044 0.2785492 0.19449426 -0.10736527
-0.03755345 0.074046575 0.0672429 -0.14455636 -0.12685095 -0.047681723 -0.111694805 0.25633496
-0.04523981 -0.04428824 -0.14048421 -0.09055019 -0.14200088 0.18483749 0.08105316 0.15441696
0.27552387 0.14835072 -0.17104822 -0.030497748 0.07707904 -0.04801464 -0.1375057 0.020148166
-0.025822338 0.25632167 -0.10095513 -0.11382267 -0.05271438 0.07025552 0.19636737 -0.03929154
-0.01399148 0.070061065 -0.00464207 0.011234606 0.16811082 -0.67028564 0.04299037 0.18214378
0.18780194 -0.1997607 0.14637104 0.10249318 -0.027109222 0.3255431 -0.18117724 0.10987835
-0.2907608 0.046322625 0.09093439 -0.111839436 0.042129796 0.05072313 -0.0017786149 -0.059441235
0.061909225 0.029277317 0.0692716 0.19337313 -0.1362109 0.0007620995 0.12582953 -0.19568373
-0.09271783 -0.114748344 -0.1451543 -0.04679597 -0.4026613 0.10787043 -0.005782393 0.17797618
-0.04561075 -0.030447038 0.14214359 0.22295588 -0.10765612 -0.11857852 -0.06386864 -0.048733708
0.09820662 -0.048386794 -0.015017105 0.023318216 -0.044090834 -0.1398706 -0.110584244 0.07831407
0.17881328 0.15138231 0.12686872 -0.0046155695 -0.07432597 -0.08083736 0.112496525 -0.18889055
-0.034372814 0.10848451 -0.028948925 -0.18291333 -0.09499879 0.04588792 0.12226719 -0.08169157
0.045846283 -0.067382745 -0.09142276 -0.07128873 -0.014711868 -0.030013977 -0.011313716 -0.01340388
-0.054011855 0.10400041 0.025861327 0.07342465 0.052181322 -0.0046710414 0.14721362 0.115178674
0.10906436 0.055395 0.38858163 -0.11388048 0.04339143 0.0563246 -0.17408288 0.21057054
-0.09338963 -0.17455862 -0.037912235 -0.14866816 -0.049604975 -0.17495985 0.01960966 -0.10713771
-0.20361322 0.37165117 0.02343806 0.021957133 0.07864243 0.011885075 -0.01854735 -0.12336229
-0.07070199 0.122143514 -0.22314815 0.11360445 0.05658292 -0.25639114 -0.1400993 0.099525176
0.18595889 -0.151721 0.16007373 -0.11884297 0.02113735 0.0705235 -0.123333015 -0.21643074
-0.15013397 -0.03580945 -0.15503283 -0.310153 -0.102534905 -0.08600359 -0.06585513 0.15933289
-0.2481194 0.08810139 0.13327748 0.012149981 -0.01393357 -0.009101578 -0.17606832 0.29866105
0.12334948 0.19156094 -0.19369458 0.03936046 0.038459547 0.2228068 -0.08311377 0.240055
0.16472834 0.017293112 -0.25269157 0.12185192 -0.16455485 0.104925714 0.15073381 0.1566795
0.02496091 0.31125674 0.02894776 0.2586967 -0.09074905 0.081289046 0.01873792 0.03337693
0.045124445 -0.09794859 0.24848458 0.115042284 -0.067613795 -0.0063231266 0.16077238 0.08930355
0.048940953 0.110666916 -0.039923243 -0.05659992 0.06576702 -0.011175254 -0.07365553 -0.070793025
-0.049252197 0.10161529 -0.06639673 -0.25473145 0.09935072 -0.06462434 0.019153565 -0.1504034
0.01436533 0.0058009163 0.10668809 0.12464172 -0.026796669 0.05093523 -0.15374604 -0.18311189
-0.10554575 -0.23414648 -0.11524907 -0.21603447 0.116061956 -0.107700296 0.010376642 0.179088
0.10096107 0.05854022 0.22720559 0.11155912 -0.09530932 -0.010018738 -0.0073499586 -0.2185144
00000000: 5a28 353d c49c 95be 7090 47be bc5b 803e
00000010: 4280 483d 009e 8e3e 8129 473e 53e2 dbbd
00000020: a5d1 19bd bba5 973d a5b6 893d 9506 14be
00000030: 37e5 01be e94d 43bd 3fc0 e4bd 563e 833e
00000040: 614d 39bd 9667 35bd 18db 0fbe 6172 b9bd
00000050: ae68 11be 0a46 3d3e 33ff a53d 7b1f 1e3e
00000060: 7711 8d3e 40e9 173e 4427 2fbe 6ad6 f9bc
00000070: 9edb 9d3d 00ab 44bd 4bce 0cbe c40d a53c
00000080: 5e89 d3bc 983c 833e 90c1 cebd dc1b e9bd
00000090: 09eb 57bd 20e2 8f3d 8714 493e 2af0 20bd
000000a0: 853c 65bc 2d7c 8f3d 811c 98bb 5a11 383c
000000b0: 3e25 2c3e d797 2bbf ac16 303d e683 3a3e
000000c0: 274f 403e 128e 4cbe 4ae2 153e f2e7 d13d
000000d0: 2914 debc 96ad a63e 8786 39be e607 e13d
000000e0: 99de 94be cbbc 3d3d cf3b ba3d 130c e5bd
000000f0: 4b90 2c3d 0fc3 4f3d 6a20 e9ba a778 73bd
00000100: 8794 7d3d fcd6 ef3c 45de 8d3d 9b03 463e
00000110: df7a 0bbe a2c7 473a 75d9 003e 5161 48be
00000120: d8e2 bdbd 2e01 ebbd 54a3 14be 22ad 3fbd
00000130: 9f29 cebe 2ceb dc3d 3a7a bdbb 633f 363e
00000140: 56d2 3abd 116c f9bc 178e 113e 8c4e 643e
00000150: d07a dcbd 4cd9 f2bd 90cd 82bd ff9c 47bd
00000160: 8d20 c93d 3b31 46bd 4e0a 76bc d805 bf3c
00000170: 9798 34bd 3d3a 0fbe fe79 e2bd 2163 a03d
00000180: d41a 373e f703 1b3e e0e9 013e 343e 97bb
00000190: 3738 98bd 0f8e a5bd 9464 e63d 866c 41be
000001a0: 82ca 0cbd 202d de3d 4c26 edbc a24d 3bbe
000001b0: ba8e c2bd f9f4 3b3d 3867 fa3d e94d a7bd
000001c0: 50c9 3b3d f7ff 89bd db3b bbbd d3ff 91bd
000001d0: 0c0a 71bc dfdf f5bc 2a5d 39bc f39b 5bbc
000001e0: 893b 5dbd 2bfe d43d 22db d33c aa5f 963d
000001f0: 15bc 553d 890f 99bb 2bbf 163e cce2 eb3d
00000200: 235d df3d dee5 623d 2cf4 c63e 2b3a e9bd
00000210: 36bb 313d a0b4 663d c842 32be ce9f 573e
00000220: 1043 bfbd 7fbf 32be dc49 1bbd 773c 18be
00000230: 962e 4bbd ad28 33be 70a4 a03c 046b dbbd
00000240: fc7f 50be 1049 be3e 2d01 c03c 72df b33c
00000250: 480f a13d 9eb9 423c 9df0 97bc 5ea5 fcbd
00000260: 34cc 90bd 6126 fa3d f380 64be 73a9 e83d
00000270: 7ec3 673d b345 83be 3176 0fbe dbd3 cb3d
00000280: 026c 3e3e c05c 1bbe 5eea 233e f163 f3bd
00000290: 3c28 ad3c a06e 903d 0596 fcbd 05a0 5dbe
000002a0: b8bc 19be eeac 12bd edc0 1ebe 60cc 9ebe
000002b0: d2fd d1bd a622 b0bd 0edf 86bd 2928 233e
000002c0: 0313 7ebe 806e b43d e479 083e b710 473c
000002d0: a149 64bc c91e 15bc 414b 34be 1aea 983e
000002e0: a79e fc3d 8d28 443e df57 46be 6f38 213d
000002f0: c287 1d3d 7727 643e 8d37 aabd fad0 753e
00000300: 8cae 283e 49aa 8d3c ca60 81be 808d f93d
00000310: 1181 28be 4be3 d63d f759 1a3e 9770 203e
00000320: d37a cc3c 0b5d 9f3e da23 ed3c e573 843e
00000330: a3da b9bd df7a a63d 4480 993c 3fb6 083d
00000340: 69d4 383d 4599 c8bd be72 7e3e 4a9b eb3d
00000350: 1a79 8abd 3b32 cfbb 84a1 243e c8e4 b63d
00000360: 4f76 483d 56a5 e23d 8e86 23bd 51d5 67bd
00000370: dcb0 863d 6a18 37bc b6d8 96bd effb 90bd
00000380: acbc 49bd ad1b d03d 02fb 87bd 296c 82be
00000390: 6478 cb3d c459 84bd f0e7 9c3c 5903 1abe
000003a0: 905c 6b3c 9d15 be3b 497f da3d 2844 ff3d
000003b0: b084 dbbc 76a1 503d 9a6f 1dbe af81 3bbe
000003c0: 5f28 d8bd 18c4 6fbe b407 ecbd 2438 5dbe
000003d0: e4b1 ed3d f991 dcbd cb02 2a3c d862 373e
000003e0: adc4 ce3d dfc7 6f3d 95a8 683e 1c79 e43d
000003f0: 8831 c3bd a225 24bc ecd7 f0bb 3dc2 5fbe

net.2.bias f4 [50]
-0.25081462 0.8827407 0.9661678 0.14332268 0.26520485 0.32042617 0.12966304 0.92535067
0.89078254 0.07723849 -0.8589784 0.01899022 1.0728571 0.19987899 0.99322546 0.8873739
-0.9488582 0.47515696 0.21324833 0.06378561 0.4507833 0.2133618 -0.71389896 1.0296685
1.3451574 0.66805893 -0.08963006 0.4106628 -0.05084228 0.4334329 -0.67244905 -0.8009228
-0.70247024 -0.30286053 -0.028178576 -0.5853671 -1.5602462 0.020329934 -0.39791638 -0.90612835
0.22333232 -1.0674814 -0.6325467 0.049914632 0.046038266 -0.23811473 -0.6688204 -0.7028931
0.26501003 0.5910813
00000000: c66a 80be 4bfb 613f c656 773f 2ec3 123e
00000010: eec8 873e e60e a43e 63c6 043e c8e3 6c3f
00000020: 530a 643f 372f 9e3d 02e6 5bbf 6191 9b3c
00000030: 6253 893f 14ad 4c3e 0644 7e3f f02a 633f
00000040: 5fe8 72bf c647 f33e c55d 5a3e 08a2 823d
00000050: 12cd e63e 847b 5a3e 15c2 36bf 2dcc 833f
00000060: 1e2e ac3f e905 2b3f f78f b7bd 6542 d23e
00000070: ff3f 50bd ebea dd3e 9f25 2cbf 4709 4dbf
00000080: 17d5 33bf 8910 9bbe c2d6 e6bc 9eda 15bf
00000090: 26b6 c7bf f68a a63c b2bb cbbe 07f8 67bf
000000a0: 3ab1 643e 3ba3 88bf 95ee 21bf 4973 4c3d
000000b0: 9f92 3c3d 59d4 73be d037 2bbf cdf0 33bf
000000c0: 65af 873e 1b51 173f

net.4.weight f4 [50, 50]
0.013399192 0.03210189 -0.12526512 0.13200544 -0.059901647 0.148779 0.073335595 0.14487207
0.25008973 0.034107186 -0.41338328 0.06871589 -0.10956622 0.12119473 0.42917496 0.05464034
0.07969698 -0.034686096 0.10918508 -0.0103680855 0.011851036 -0.19628017 0.03935196 0.09895301
0.10636699 0.24220519 -0.032736704 0.15305172 0.11376717 0.042679038 -0.022903208 0.046463747
0.110579565 -0.22399257 -0.0064354013 -0.018722555 -0.044650935 0.056098234 0.1099598 0.051645536
-0.00356506 -0.2390467 -0.03502052 0.056658514 0.060041476 -0.28407994 -0.028702019 -0.051089525
0.10039873 0.2653928 0.10270175 -0.02788892 0.1447816 0.11627838 0.07299664 0.011923328
0.047068834 0.03549194 0.028884524 -0.21300635 -0.12166623 -0.0068692607 0.09408658 0.06242513
-0.15695105 0.16538508 -0.31166634 0.051106293 -0.061157852 -0.009962446 0.15785553 0.037824884
0.21543649 -0.005609524 0.07264278 0.21880007 -0.34134275 0.12498723 0.0960736 -0.33053884
-0.0303181 -0.45109522 -0.08813155 -0.22789346 0.04620792 0.16343883 -0.014057342 0.071411006
-0.12490393 -0.037249777 -0.27002 0.32011375 0.15731584 -0.15128128 0.1955375 -0.04721365
0.14555663 0.1041242 -0.14489791 0.045838423 -0.065103725 0.12577815 0.11928891 0.002781916
0.015000246 0.0496946 0.113513276 0.082247205 0.21170087 0.012747558 -0.1337407 0.069001205
-0.08914697 -0.17161277 0.20599686 0.037003174 0.06081604 -0.023383157 0.12259183 0.17469214
0.079202816 -0.1275263 0.073790915 0.16514008 -0.07448324 0.12743416 -0.014697327 -0.10820546
-0.06541668 0.13420987 -0.10147143 -0.14525296 -0.014225429 0.028005173 -0.17108467 0.009228628
-0.08308714 -0.10644474 -0.027414227 -0.20231955 -0.0046463087 0.116590664 -0.06748298 0.06479576
-0.05103423 0.031845164 -0.11469056 -0.024927968 0.0022579555 0.22375421 -0.3903114 -0.1413926
0.07266213 0.37505144 0.044780567 -0.09562947 0.11772731 -0.08069346 0.030574301 -0.019389827
0.169053 -0.0046299305 -0.24667853 -0.34812814 -0.70221555 -0.64625657 -0.08773756 0.2256915
0.031791992 -0.08238271 0.20355257 -0.16761714 -0.38711834 -0.087465726 -0.25574264 -0.16149111
0.04666197 -0.17533545 -0.21440884 -0.35596013 0.086767145 -0.054305382 0.013155467 -0.024252564
0.15168951 0.26431358 -0.028388621 -0.010598244 -0.5342564 -0.58406323 0.16089669 0.01338285
0.0442735 -0.05012163 0.04115392 -0.19055581 0.14437896 -0.014171809 -0.16226575 -0.27833834
0.27560976 0.017164757 -0.07602898 0.16558053 -0.012821736 0.08093037 -0.1460712 -0.0628849
0.11704686 0.16207694 -0.0007546579 -0.08092148 0.13802326 -0.2802846 -0.04720415 0.09878924
0.16543694 0.027805442 0.23146877 0.13682581 0.19669114 -0.1173799 -0.12875205 0.08297396
0.1363373 0.1770081 -0.32600614 -0.15293083 0.16658196 0.024196215 -0.24858537 -0.232704
-0.13758583 -0.23482706 -0.6102554 0.02489867 -0.1830784 -0.06775017 -0.120640025 0.052435067
-0.03299006 0.115895964 -0.5678289 0.00095545 -0.04060245 -0.09092031 0.06611598 0.040142518
-0.023816913 0.04699287 0.092006825 0.26931703 0.039014664 -0.021617291 0.0277587 -0.09063248
00000000: 4988 5b3c 457d 033d 8045 00be 6f2c 073e
00000010: 6e5b 75bd 8659 183e f930 963d 5859 143e
00000020: c30b 803e fab3 0b3d f9a6 d3be ebba 8c3d
00000030: 4164 e0bd f134 f83d d2bc db3e 8dce 5f3d
00000040: 2c38 a33d 0213 0ebd 6d9c df3d e7de 29bc
00000050: d92a 423c abfd 48be 852f 213d e0a7 ca3d
00000060: f0d6 d93d a304 783e ec16 06bd 97b9 1c3e
00000070: c3fe e83d 37d0 2e3d 829f bbbc c550 3e3d
00000080: 8a77 e23d 4f5e 65be 0fe0 d2bb 0b60 99bc
00000090: e6e3 36bd 43c7 653d 9b32 e13d 458a 533d
000000a0: c8a3 69bb a8c8 74be ad71 0fbd c212 683d
000000b0: 0dee 753d ed72 91be 7f20 ebbc 4043 51bd
000000c0: d99d cd3d 91e1 873e 4c55 d23d 4e77 e4bc
000000d0: a141 143e 5c23 ee3d 437f 953d 105a 433c
000000e0: 40cb 403d ff5f 113d 3d9f ec3c 561e 5abe
000000f0: 252c f9bd 8917 e1bb 77b0 c03d 7eb1 7f3d
00000100: c7b7 20be b55a 293e bb92 9fbe d554 513d
00000110: a880 7abd 8739 23bc e1a4 213e 44ee 1a3d
00000120: 629b 5c3e 19d0 b7bb bdc5 943d 200d 603e
00000130: 7ac4 aebe 4ef9 ff3d 3cc2 c43d 633c a9be
00000140: aa5d f8bc f4f5 e6be 507e b4bd e75c 69be
00000150: 8444 3d3d 825c 273e c450 66bc ef3f 923d
00000160: a2cd ffbd 3993 18bd 1040 8abe f3e5 a33e
00000170: 6717 213e 7be9 1abe fb3a 483e 1a63 41bd
00000180: cc0c 153e 123f d53d 1e60 14be 12c1 3b3d
00000190: 1a55 85bd fdcb 003e be4d f43d ce50 363b
000001a0: 98c3 753c 918c 4b3d a679 e83d 3971 a83d
000001b0: 1dc8 583e 22db 503c 52f3 08be 8150 8d3d
000001c0: b092 b6bd 42bb 2fbe d7f0 523e a490 173d
000001d0: 3d1a 793d 098e bfbc 6d11 fb3d 7fe2 323e
000001e0: 1635 a23d 4196 02be b11f 973d 7b1a 293e
000001f0: ab8a 98bd 1a7e 023e 0fcd 70bc d39a ddbd
00000200: 2ef9 85bd 506e 093e 41d0 cfbd 31bd 14be
00000210: c611 69bc 1b6b e53c d230 2fbe ac33 173c
00000220: 9729 aabd b3ff d9bd cd93 e0bc db2c 4fbe
00000230: 1040 98bb 16c7 ee3d 8434 8abd a4b3 843d
00000240: 4509 51bd 1370 023d e2e2 eabd bd35 ccbc
00000250: 35fa 133b d31f 653e e5d6 c7be 39c9 10be
00000260: e2cf 943d be06 c03e d46b 373d 62d9 c3bd
00000270: 041b f13d 9d42 a5bd f576 fa3c 6ad7 9ebc
00000280: 3b1c 2d3e acb6 97bb 4c99 7cbe da3d b2be
00000290: 66c4 33bf 1271 25bf c0af b3bd ac1b 673e
000002a0: 5238 023d 44b8 a8bd 1670 503e d4a3 2bbe
000002b0: 6034 c6be 3b21 b3bd b3f0 82be ed5d 25be
000002c0: 9f20 3f3d 238b 33be fe8d 5bbe 6840 b6be
000002d0: f9b2 b13d 526f 5ebd 078a 573c 50ad c6bc
000002e0: 7f54 1b3e 1c54 873e 418f e8bc 42a4 2dbc
000002f0: 07c5 08bf 2b85 15bf 1ac2 243e be43 5b3c
00000300: 2158 353d 574c 4dbd 0391 283d 1021 43be
00000310: 14d8 133e e030 68bc fe28 26be 5d82 8ebe
00000320: b91c 8d3e 1b9d 8c3c 15b5 9bbd f18d 293e
00000330: 4212 52bc d2be a53d b093 15be ccc9 80bd
00000340: 44b6 ef3d 7ff7 253e 3cd4 45ba 29ba a5bd
00000350: f855 0d3e 7781 8fbe 2459 41bd 0352 ca3d
00000360: 4d68 293e 3dc8 e33c 2606 6d3e 111c 0c3e
00000370: 6769 493e df64 f0bd 94d7 03be 40ee a93d
00000380: 019c 0b3e 9d41 353e 47ea a6be e699 1cbe
00000390: 7694 2a3e 2437 c63c 2a8d 7ebe f549 6ebe
000003a0: 4de3 0cbe 8176 70be b339 1cbf 4cf8 cb3c
000003b0: e778 3bbe 9ac0 8abd 1e12 f7bd 27c6 563d
000003c0: 9620 07bd dd5a ed3d 3c5d 11bf 2a77 7a3a
000003d0: c14e 26bd 6d34 babd d167 873d 7b6c 243d
000003e0: b01b c3bc 987b 403d 136e bc3d ece3 893e
000003f0: d7cd 1f3d bf16 b1bc 3766 e33c 869d b9bd

net.4.bias f4 [50]
0.26751962 -0.7853899 2.510166 0.10124659 0.74747765 0.44431448 -0.24719535 0.017806543
-0.5281914 2.2968178 0.025188923 -1.2615397 -1.0360229 -0.62867785 0.25262487 0.111054614
-0.89030206 0.90951693 0.47639522 -0.5959803 -0.5371224 0.6030081 0.065918565 -1.4779433
0.9840731 -0.15229978 0.3182398 -0.25887805 -0.45846623 -0.024251191 0.017450234 0.8530576
0.6045173 -0.17428404 -0.7587829 0.8236012 0.92309654 0.20289136 -1.0197923 0.033456385
0.9917062 0.06655451 -1.2256746 0.3493376 -0.5079099 -0.012280916 -0.04328792 -0.98803645
0.058111813 -0.15535355
00000000: 55f8 883e 500f 49bf 8fa6 2040 5f5a cf3d
00000010: b25a 3f3f 307d e33e c720 7dbe 07df 913c
00000020: 8d37 07bf 10ff 1240 0059 ce3c 227a a1bf
00000030: 669c 84bf 08f1 20bf 0c58 813e 9a70 e33d
00000040: d6ea 63bf 1ad6 683f 13ea f33e 2a92 18bf
00000050: db80 09bf bd5e 1a3f 5000 873d 3f2d bdbf
00000060: 37ec 7b3f 79f4 1bbe 54f0 a23e aa8b 84be
00000070: 16bc eabe 6faa c6bc cbf3 8e3c fc61 5a3f
00000080: a5c1 1a3f 8477 32be 993f 42bf 87d7 523f
00000090: 0e50 6c3f c1c2 4f3e 8e88 82bf 9009 093d
000000a0: 75e0 7d3f bb4d 883d e8e2 9cbf 61dc b23e
000000b0: 6206 02bf e535 49bc ad4e 31bd f5ef 7cbf
000000c0: a706 6e3d 0015 1fbe

net.6.weight f4 [50, 50]
0.05037909 -0.28426397 -0.12963942 0.22135185 -0.022572156 0.2734655 -0.06687095 0.15548402
-0.13421492 0.07016543 -0.17940447 -0.06545934 -0.19841595 0.10612622 -0.34031248 -0.111455284
0.16785531 0.057901077 -0.11175062 -0.0962367 -0.018008975 0.049746785 -0.14503479 0.08098179
0.051407818 0.22158283 0.30319968 -0.16140729 0.009434131 0.045517843 -0.07300863 0.024692537
-0.12539585 0.022610344 0.082919665 0.1527334 0.13041648 -0.043639977 0.02187337 0.13323924
-0.17663395 -0.013051435 -0.13869092 0.14873964 0.20813558 -0.07311813 -0.19986606 -0.06801682
0.037949003 0.07508979 -0.18575014 -0.16883144 0.24309738 0.14374885 -0.10836721 -0.04858946
0.2276197 0.0032282588 0.11712263 -0.08085037 -0.34639937 0.25114134 -0.62626916 -0.42127383
-0.09577397 -0.049707573 0.23909606 -0.32420105 -0.48002973 -0.25776714 0.008952018 -0.07930984
0.0032175716 -0.31578314 -0.002695972 0.14861219 0.03725019 0.009607682 -0.24783498 0.16380678
0.08713438 0.11344809 0.007226625 -0.071138576 -0.32586926 0.016562222 -0.2394375 0.0014356398
-0.033256028 -0.09877002 0.074742004 -0.23078074 0.034714602 -0.18728453 0.08629417 0.133129
0.13338463 -0.084537745 0.13013476 0.054047495 -0.028407885 -0.22793093 0.036700204 -0.26871714
-0.23417626 -0.124124914 0.11111737 0.038392227 0.26267207 0.0642383 0.37646052 0.09306862
-0.0040531303 0.005447129 -0.14538164 0.24414952 -0.011684331 -0.061325468 0.27166846 0.021131467
-0.13833916 -0.22823007 -0.12331174 -0.055405274 0.103835 0.049098764 -0.23525156 0.06719225
-0.027233288 0.114039876 0.016246349 -0.018322216 -0.24040088 -0.08373833 -0.20261985 0.09849233
-0.007993096 -0.020614661 -0.112167306 -0.05011979 -0.084482044 0.24851094 -0.004164319 -0.076238416
0.09688758 0.08044028 -0.08153695 0.10263394 0.10932218 -0.06743006 0.043971453 -0.002938936
-0.09389966 -0.21366902 0.062445648 -0.3220078 0.21089745 -0.35191092 0.013830965 0.095669195
0.23123056 -0.2654524 -0.11364151 0.020320993 0.17733774 -0.060222194 -0.0066606975 0.0580837
0.15195121 -0.28946075 -0.011934531 -0.17195173 -0.03335922 -0.06491156 -0.16297564 -0.067327365
0.39771107 0.029987969 0.07780054 -0.16673689 0.13290663 -0.40028507 -0.27782547 -0.0015850121
0.29201874 -0.045933627 0.11035865 -0.20410232 -0.071201414 -0.20698263 -0.54807085 -0.07516647
-0.10644718 0.21970737 -0.0057005314 -0.04066497 0.13616748 -0.080329694 0.16347699 0.48479143
-0.22633457 0.0046052015 0.06224954 -0.031462427 -0.08211264 0.06982435 0.10090492 0.17089452
-0.31896558 0.18703954 -0.048960805 0.23443799 0.18041655 0.24054405 0.17240338 -0.16036323
0.10450549 0.025510574 0.13190836 0.07200028 0.029054338 -0.094123594 -0.14350905 -0.037734512
0.094086625 0.16742256 -0.5676794 -0.19469781 -0.020939877 -0.05253173 -0.023174662 -0.05056221
0.038198 -0.008403791 -0.0062011587 -0.03811723 0.0265686 -0.08020811 0.06420276 -0.012056672
0.03245775 -0.013262792 0.19182344 0.010494249 0.086640894 -0.10242907 0.006737874 -0.07456871
-0.11532521 -0.16556764 0.0054336856 0.1636469 -0.104459316 -0.47278437 0.17186673 0.060288776
00000000: 4e5a 4e3d 0c8b 91be 32c0 04be 0faa 623e
00000010: 3ee9 b8bc ac03 8c3e a3f3 88bd 3437 1f3e
00000020: a36f 09be e5b2 8f3d ceb5 37be 8c0f 86bd
00000030: 8d2d 4bbe b458 d93d 703d aebe ab42 e4bd
00000040: 43e2 2b3e ae29 6d3d 82dd e4bd bf17 c5bd
00000050: 8f87 93bc 49c3 4b3d 0084 14be c8d9 a53d
00000060: 0191 523d 9ce6 623e fd3c 9b3e f447 25be
00000070: 9d91 1a3c eb70 3a3d 8c85 95bd 0148 ca3c
00000080: c567 00be 5439 b93c c9d1 a93d 2566 1c3e
00000090: e68b 053e d5bf 32bd c82f b33c de6f 083e
000000a0: 88df 34be b0d5 55bc fe04 0ebe 344f 183e
000000b0: 7e21 553e f5be 95bd b0a9 4cbe 674c 8bbd
000000c0: 6a70 1b3d adc8 993d 4935 3ebe 26e2 2cbe
000000d0: 85ee 783e e632 133e a1ef ddbd be05 47bd
000000e0: 2315 693e 3291 533b fddd ef3d e194 a5bd
000000f0: 425b b1be 9995 803e 2d53 20bf 34b1 d7be
00000100: 2525 c4bd 2b9a 4bbd 99d5 743e aefd a5be
00000110: 75c6 f5be 0efa 83be 7cab 123c 336d a2bd
00000120: e5dd 523b 54ae a1be e8ae 30bb cb2d 183e
00000130: a893 183d 8a69 1d3c 74c8 7dbe f7bc 273e
00000140: 8373 b23d 7957 e83d 53cd ec3b 1ab1 91bd
00000150: 56d8 a6be 7fad 873c 1b2f 75be 142c bc3a
00000160: 7937 08bd f047 cabd 5612 993d c951 6cbe
00000170: e630 0e3d 84c7 3fbe ffba b03d f852 083e
00000180: fb95 083e 2022 adbd 0c42 053e e860 5d3d
00000190: a7b7 e8bc ba66 69be f452 163d 4b95 89be
000001a0: e7cb 6fbe 3435 febd 8191 e33d 2b41 1d3d
000001b0: f47c 863e 5f8f 833d 6fbf c03e c39a be3d
000001c0: 1fd0 84bb d47d b23b edde 14be 5502 7a3e
000001d0: a36f 3fbc 6a30 7bbd 2118 8b3e e61b ad3c
000001e0: c8a8 0dbe 25b5 69be de8a fcbd a4f0 62bd
000001f0: 72a7 d43d c91b 493d c9e5 70be 179c 893d
00000200: 5818 dfbc bd8d e93d 1017 853c 7918 96bc
00000210: a62b 76be 007f abbd 947b 4fbe 59b6 c93d
00000220: 79f5 02bc 14e0 a8bc f9b7 e5bd 694a 4dbd
00000230: ec04 adbd a779 7e3e d774 88bb e322 9cbd
00000240: ff6c c63d e0bd a43d d8fc a6bd be31 d23d
00000250: 4fe4 df3d c518 8abd 691b 343d 2a9b 40bb
00000260: 774e c0bd 0dcc 5abe 02c7 7f3d 35de a4be
00000270: 80f5 573e ab2d b4be 469b 623c 36ee c33d
00000280: b4c7 6c3e 61e9 87be e1bc e8bd 3678 a63c
00000290: 0698 353e 8cab 76bd fb41 dabb 2ce9 6d3d
000002a0: 1999 1b3e 3334 94be 0d89 43bc 1d14 30be
000002b0: ada3 08bd 5af0 84bd 16e3 26be eee2 89bd
000002c0: c9a0 cb3e 54a9 f53c e455 9f3d 13bd 2abe
000002d0: ad18 083e 2af2 ccbe 243f 8ebe 2ec0 cfba
000002e0: 7b83 953e e624 3cbd b703 e23d 3300 51be
000002f0: 0cd2 91bd 41f3 53be 5f4e 0cbf e1f0 99bd
00000300: fb00 dabd f8fa 603e 86cb babb 5090 26bd
00000310: 7d6f 0b3e e583 a4bd 8366 273e 9536 f83e
00000320: 40c4 67be 3be7 963b 60f9 7e3d bfde 00bd
00000330: ac2a a8bd 1200 8f3d 3da7 ce3d f9fe 2e3e
00000340: 754f a3be 4b87 3f3e 208b 48bd 8310 703e
00000350: 1ebf 383e 2e51 763e 838a 303e 4236 24be
00000360: f906 d63d 8dfb d03c fc12 073e e274 933d
00000370: 5d03 ee3c dfc3 c0bd 09f4 12be 818f 1abd
00000380: 7db0 c03d d270 2b3e 7053 11bf dd5e 47be
00000390: 1b8a abbc 832b 57bd cad8 bdbc 521a 4fbd
000003a0: 8275 1c3d 0eb0 09bc 1733 cbbb d020 1cbd
000003b0: 65a6 d93c 2644 a4bd bd7c 833d 5989 45bc
000003c0: 6bf2 043d 2e4c 59bc 5d6d 443e 12f0 2b3c
000003d0: c870 b13d 55c6 d1bd 62c9 dc3b 7bb7 98bd
000003e0: a02f ecbd 908a 29be 0f0d b23b 0e93 273e
000003f0: c4ee d5bd cb10 f2be d5fd 2f3e 5df1 763d

net.6.bias f4 [50]
-0.20766348 0.84984946 0.21020953 0.37196842 -0.27087235 -0.65705615 0.65975916 0.42623955
-0.28601438 -0.10137655 0.6321448 0.5751896 0.5270026 -0.5278895 -1.427561 1.7598547
-0.09633978 -0.2840871 -0.63234675 -0.084119484 -0.24454153 -0.57106215 -1.0158569 -0.1765896
0.08607867 0.017007183 -0.7124439 -0.27518407 0.7198242 -1.1755515 0.42798835 -0.7390322
0.16793524 0.9155474 -0.99935824 2.098194 0.032008693 -0.5664605 -0.19683057 0.26666927
1.0434265 0.48904917 1.5602825 -0.6647376 -0.9223186 -1.2007025 2.1919582 0.3165241
0.09055112 -0.25145975
00000000: bca5 54be bc8f 593f 2b41 573e a572 be3e
00000010: c8af 8abe d534 28bf fae5 283f 123c da3e
00000020: 7a70 92be 829e cfbd 3ed4 213f a03f 133f
00000030: a4e9 063f c423 07bf 52ba b6bf eb42 e13f
00000040: ca4d c5bd dd73 91be 7ae1 21bf d646 acbd
00000050: 1869 7abe 2131 12bf 9907 82bf e7d3 34be
00000060: 044a b03d a652 8b3c b962 36bf ede4 8cbe
00000070: 6646 383f 7978 96bf 4a21 db3e 3731 3dbf
00000080: 37f7 2b3e 5061 6a3f f1d5 7fbf cf48 0640
00000090: 8c1b 033d 8e03 11bf f48d 49be e088 883e
000000a0: 008f 853f a764 fa3e 56b7 c73f 3e2c 2abf
000000b0: 121d 6cbf 9fb0 99bf 0b49 0c40 720f a23e
000000c0: de72 b93d 55bf 80be

net.8.weight f4 [43, 50]
-0.36844563 -0.18439615 -0.067869835 -0.022127056 0.0489715 -0.07304725 -0.23264232 0.12711878
-0.8329053 -0.06519651 0.15576473 0.054525428 -0.4040027 0.06368077 -0.12200594 -0.104420856
0.07145127 -0.42135584 -0.57318324 -0.20122004 -0.11735615 -0.24194373 0.2612983 -0.38804913
-0.085046485 0.030156666 0.17237999 0.2259519 0.076253146 0.09018248 0.09138832 -0.90172565
-0.02882737 -0.114599414 -0.06356618 0.21416226 -0.077622816 -0.3600992 0.17373642 0.08741509
-0.03099769 -0.25703064 0.053921834 -0.111152746 -0.31664416 -0.24037597 -0.0739642 -0.4344239
-0.6331167 -0.30131924 -0.09642072 -0.27952284 -0.17333336 0.40746477 0.119103946 0.037997752
-0.2416556 0.03667433 -0.10611445 0.085574746 -0.003316536 -0.06925116 -0.14414114 0.03136124
-0.028874747 0.060713165 -0.096995525 -0.023580741 0.17200245 -0.63886434 -0.053603612 -0.15335123
0.12996672 0.10080485 -0.048888046 0.0054079676 -0.0941166 0.06761678 0.043228526 -0.017004179
0.08496998 -0.23124783 0.050299108 -0.025209099 -0.07317574 0.2569808 -0.021765029 -0.41611606
0.125211 -0.0063123605 0.065074384 -0.14188275 0.22259735 0.030363342 -0.07491938 -0.14525348
0.023567326 -0.20144536 -0.20204698 -0.15734676 0.12102086 -0.072417095 -0.0545971 0.056590166
-0.08059092 -0.09389023 -0.23933598 -0.059060607 -0.16920806 -0.18274793 -0.05511414 -0.0005195022
-0.053938016 0.02147732 0.081761554 0.08365538 0.0847714 0.10084469 -0.04532721 -0.36227104
-0.015549578 -0.034745928 -0.0050533274 -0.17848891 -0.06678055 0.031641386 0.017695162 0.048452694
0.105416484 0.008968246 -0.08530025 0.10158928 0.17356269 0.03611413 0.048767738 0.066640705
-0.20785922 -0.1753024 -0.14728415 0.17666848 -0.1389546 -0.07822728 0.15851523 0.017879099
-0.06944329 0.07574778 0.04258966 -0.2886142 -0.056780703 -0.29837167 0.034734942 -0.36774364
0.0808219 -0.06671319 0.014332484 -0.16830117 -0.29509023 0.08468731 0.14646512 -0.34602702
0.058828127 -0.0081145065 -0.18387622 -0.1998868 0.03936832 0.017491272 -0.12572886 0.06814764
0.14256023 -0.27977866 -0.21851234 -0.27368274 0.03326296 -0.25122207 -0.09068615 -0.005472995
-0.18006709 0.055828355 -0.041310932 0.13492045 0.014654587 -0.008292464 0.12499125 -0.21839163
-0.20161843 0.002093166 -0.3238463 0.08662171 -0.2023595 -0.0054932195 0.13520516 0.06043521
0.075512044 0.24330589 -0.22413047 -0.20643897 -0.16672175 -0.25204432 -0.098727904 -0.10062679
0.010162724 -0.12833135 -0.061517503 -0.03002909 0.0063494374 0.17118643 -0.24103688 0.15758453
-0.010858413 -0.5544114 0.049827147 -0.13022302 -0.04663248 0.047548458 -0.18495569 0.011323137
-0.029408095 -0.046439763 0.06483276 -0.6701514 -0.19892605 -0.24253297 0.033198263 -0.01180316
0.000764309 -0.19196089 0.051151082 0.10957576 0.24932425 -0.03808955 -0.063598566 -0.0924034
-0.09464022 0.0471569 -0.18016696 0.14310263 0.16248414 -0.09356481 0.091958344 0.010236777
-0.0536061 0.13428502 -0.13847142 0.27038455 -0.048289493 -0.23185213 -0.11746965 0.0059946273
-0.24302986 -0.11618463 0.07056727 -0.24685046 0.20516083 0.1466508 0.24036324 -0.1351413
00000000: e8a4 bcbe 58d2 3cbe 57ff 8abd cd43 b5bc
00000010: 5796 483d cc99 95bd ca39 6ebe 6d2b 023e
00000020: 4839 55bf bf85 85bd ca80 1f3e 0e56 5f3d
00000030: 71d9 cebe 106b 823d 40de f9bd 9ada d5bd
00000040: 0b55 923d f4bb d7be 23bc 12bf a00c 4ebe
00000050: 6c58 f0bd 19c0 77be e4c8 853e 60ae c6be
00000060: da2c aebd 1d0b f73c 6184 303e ef5f 673e
00000070: 9c2a 9c3d 98b1 b83d cd29 bb3d 7ed7 66bf
00000080: 6027 ecbc 19b3 eabd fc2e 82bd 5a4d 5b3e
00000090: b6f8 9ebd ec5e b8be f6e7 313e af06 b33d
000000a0: deee fdbc 8599 83be 24dd 5c3d 0da4 e3bd
000000b0: 2f1f a2be 1e25 76be 8b7a 97bd cf6c debe
000000c0: f013 22bf 8446 9abe 3a78 c5bd 9e1d 8fbe
000000d0: 4d7e 31be 399f d03e c5ec f33d 88a3 1b3d
000000e0: 9174 77be d237 163d 8852 d9bd d041 af3d
000000f0: 3e5a 59bb 8dd3 8dbd bc99 13be a574 003d
00000100: bc8a ecbc 5eae 783d 97a5 c6bd 662c c1bc
00000110: 6921 303e 9d8c 23bf 768f 5bbd 1b08 1dbe
00000120: ff15 053e c672 ce3d d53e 48bd 5235 b13b
00000130: 34c0 c0bd ab7a 8a3d 6510 313d 594c 8bbc
00000140: be04 ae3d 3bcc 6cbe 7006 4e3d 5083 cebc
00000150: 2add 95bd fd92 833e 934c b2bc 2a0d d5be
00000160: 5037 003e ebd7 cebb b845 853d b649 11be
00000170: 8ff0 633e 8bbc f83c 556f 99bd 54bd 14be
00000180: 4410 c13c b147 4ebe 67e5 4ebe 821f 21be
00000190: c9d9 f73d 6a4f 94bd 35a1 5fbd 17cb 673d
000001a0: da0c a5bd 8549 c0bd 7e14 75be 89e9 71bd
000001b0: e144 2dbe 4622 3bbe 5dbf 61bd 342f 08ba
000001c0: 1cee 5cbd 34f1 af3c 9a72 a73d 8353 ab3d
000001d0: a19c ad3d a987 ce3d 06a9 39bd 977b b9be
000001e0: a8c3 7ebc bf51 0ebd 6296 a5bb ccc5 36be
000001f0: 3ec4 88bd 669a 013d 72f5 903c 5576 463d
00000200: 99e4 d73d 8def 123c e6b1 aebd 0a0e d03d
00000210: 6bba 313e 69ec 133d aec0 473d ec7a 883d
00000220: 0cd9 54be 7982 33be a8d1 16be 95e8 343e
00000230: 1d4a 0ebe a035 a0bd d151 223e 3077 923c
00000240: 4938 8ebd a721 9b3d 7f72 2e3d 3ec5 93be
00000250: e292 68bd 2cc4 98be 3a46 0e3d e548 bcbe
00000260: f485 a53d eda0 88bd ccd2 6a3c 2457 2cbe
00000270: 1116 97be 8a70 ad3d f4fa 153e 742a b1be
00000280: c3f5 703d b5f2 04bc 0c4a 3cbe 20af 4cbe
00000290: ad40 213d db49 8f3c 11bf 00be fd90 8b3d
000002a0: 4ffb 113e 263f 8fbe b3c1 5fbe 2520 8cbe
000002b0: be3e 083d 2ea0 80be a9b9 b9bd cf56 b3bb
000002c0: 8263 38be 46ac 643d a735 29bd 9628 0a3e
000002d0: cb19 703c 1ddd 07bc 6afb ff3d 0ea2 5fbe
000002e0: 1075 4ebe 802d 093b 2fcf a5be b966 b13d
000002f0: 5437 4fbe 7700 b4bb 3973 0a3e e98a 773d
00000300: 0fa6 9a3d 2e25 793e 7582 65be bd64 53be
00000310: 1bb9 2abe f40b 81be db31 cabd 6b15 cebd
00000320: 8e81 263c 4b69 03be c7f9 7bbd 91ff f5bc
00000330: f10e d03b 7f4b 2f3e 5fd2 76be d75d 213e
00000340: 7ce7 31bc e8ed 0dbf 8d17 4c3d 2f59 05be
00000350: b301 3fbd 2cc2 423d 0665 3dbe ae84 393c
00000360: 3fe9 f0bc 9f37 3ebd 0ac7 843d 0b8f 2bbf
00000370: 45b3 4bbe 905a 78be e7fa 073d 0b62 41bc
00000380: e95b 483a 6591 44be cc83 513d 4269 e03d
00000390: db4e 7f3e ca03 1cbd f73f 82bd fe3d bdbd
000003a0: bbd2 c1bd 9827 413d b07d 38be 7f89 123e
000003b0: 3e62 263e e89e bfbd a854 bc3d 28b8 273c
000003c0: 1292 5bbd 0382 093e 74cb 0dbe d86f 8a3e
000003d0: 34cb 45bd a56a 6dbe ee93 f0bd 946e c43b
000003e0: d2dc 78be 35f2 edbd 9385 903d 5ec6 7cbe
000003f0: ae15 523e a12b 163e c821 763e 7b62 0abe

net.8.bias f4 [43]
0.011520194 0.48844168 0.09269203 0.20122297 0.1736741 -0.1283428 0.05186785 0.21453534
-0.2514182 -0.0443373 -0.49815473 0.36795202 1.1559647 0.09182582 -0.6962517 -0.038935557
-0.31967884 -1.4230051 0.32059386 -0.12557516 0.06488488 -0.25948265 0.11354137 -0.061173063
0.56928927 0.2586017 -0.38200045 -0.08679708 0.416513 0.14964923 0.18275647 0.9620407
0.63072044 -0.33217943 -1.4453698 -0.71192914 -0.22406371 -0.35654303 -0.22350131 -0.50722826
-0.38532344 0.09459366 0.1988343
00000000: 32bf 3c3c 0715 fa3e 52d5 bd3d 650d 4e3e
00000010: a0d7 313e 4c6c 03be 6273 543d 27af 5b3e
00000020: e3b9 80be 079b 35bd 230e ffbe 3564 bc3e
00000030: a7f6 933f 2d0f bc3d 8d3d 32bf e47a 1fbd
00000040: f2ac a3be 0825 b6bf e124 a43e c696 00be
00000050: 5de2 843d e9da 84be 6188 e83d 9b90 7abd
00000060: f1bc 113f 7167 843e 9095 c3be abc2 b1bd
00000070: 3141 d53e a63d 193e 8324 3b3e 4d48 763f
00000080: e576 213f 6c13 aabe e101 b9bf fd40 36bf
00000090: f570 65be cf8c b6be 87dd 64be b6d9 01bf
000000a0: 1d49 c5be 52ba c13d 389b 4b3e
