data/models/gtsrb/gtsrb_50x10.pth (torch, 722236 bytes, 22 tensors)

net.0.weight f4 [50, 3072]
000000 21 ca 16 3d 42 8d 71 3d b7 53 9f 3d 4a fe b5 3d
       0.03681386 0.058972605 0.07779639 0.088863924
000010 9f 05 b2 3d 21 88 9f 3d 11 48 d2 3d e7 af 9c 3d
       0.086924784 0.077896364 0.10267652 0.07650738
000020 4e ef ad 3d 46 af ce 3d 51 aa 9a 3d 5b cb 98 3d
       0.08492909 0.100920245 0.075520165 0.07460662
000030 fb e4 c7 3d b5 21 b6 3d 9b 97 bd 3d 87 14 ac 3d
       0.097604714 0.08893148 0.09257432 0.08402353
000040 81 80 5f 3d 91 59 6e 3d 18 46 64 3d e3 c4 ae 3d
       0.05456591 0.058190886 0.05573091 0.08533647
000050 2a 72 82 3d 02 4b a4 3d 3d 4d 9c 3d c1 d1 ae 3d
       0.06369431 0.08022119 0.076319195 0.08536101
000060 d3 1b 9c 3d 06 d7 b4 3d a4 b7 bf 3d 47 fb a2 3d
       0.076224945 0.08830075 0.093611985 0.079580836
000070 1a 77 e4 3d cc 37 fa 3d 46 d7 ce 3d bf 77 58 3d
       0.11155529 0.12217674 0.10099654 0.052848574
000080 75 10 1c 3d 54 28 a7 3d a1 4c bb 3d 43 fb f5 3d
       0.038101632 0.08161989 0.09145475 0.12010815
000090 a9 29 c4 3d c6 5b d9 3d 65 56 8f 3d b8 72 5f 3d
       0.095782585 0.106132075 0.069989 0.054552764
0000a0 41 f1 9c 3d db b7 95 3d 9a ad 5f 3d e7 55 a2 3d
       0.07663203 0.07310458 0.05460892 0.07926541
0000b0 5b 4d 36 3d 6a 6d 89 3d 2a 24 78 3d 4c f0 ad 3d
       0.044507366 0.06710322 0.060581364 0.084930986
0000c0 be 51 86 3d d5 44 2d 3d ec 24 6c 3d a2 a4 6e 3d
       0.0655856 0.04230197 0.0576524 0.058262475
0000d0 8f 03 80 3d f9 35 b1 3d b5 80 72 3d f2 6d 9d 3d
       0.06250679 0.086528726 0.059204776 0.07686986
0000e0 e2 0d 95 3d 72 b9 8c 3d 08 76 6a 3d 0f 0a 98 3d
       0.072780386 0.068713084 0.05724147 0.074237935
0000f0 54 f7 b9 3d 68 47 a0 3d ef 29 d3 3d b0 8f 64 3d
       0.09080377 0.0782612 0.103107326 0.055801094
000100 dc 37 2f 3d ad b5 a7 3d 71 33 8f 3d b6 43 aa 3d
       0.04277788 0.08188949 0.069922335 0.08313696
000110 f5 09 83 3d 66 2a a0 3d 03 4e 15 3d a9 06 a3 3c
       0.063983835 0.07820587 0.03645135 0.019900637
000120 96 14 0a 3d 3a 7b 0f 3c e9 8c f1 3c f8 94 9b 3c
       0.03371104 0.008757407 0.029486137 0.018991932
000130 63 78 aa 3c 5f f2 e1 3c 97 c1 ce 3c 2b 73 45 3d
       0.020809358 0.027581392 0.025238795 0.048205536
000140 67 5f 02 3d b5 ae be 3c a1 8e a0 3c 27 48 2a 3d
       0.031829264 0.023276666 0.01959926 0.041572716
000150 2a ab 35 3d 91 7e e3 3c b3 ed 3b 3d a5 a6 d4 3c
       0.044352688 0.027770313 0.045880985 0.025958369
000160 29 5d fd 3c a0 93 f6 37 73 44 dc 3c 9c f8 83 3c
       0.030928211 2.9394228e-05 0.026888108 0.016109757
000170 73 87 a4 3d c5 73 9c 3d 48 38 c0 3d b6 d4 f8 3c
       0.080336474 0.07639269 0.09385735 0.030374866
000180 69 6d 0c 3d cb 7d a8 3d b3 84 7e 3d 2a 84 89 3d
       0.03428403 0.08227118 0.06213827 0.067146614
000190 d3 5d 27 3b 9e 61 2e 3b a2 24 af 3c d8 23 8a bc
       0.0025538101 0.0026608477 0.021379773 -0.016862795
0001a0 62 23 9f 3c 74 11 1f 3d de b1 53 bc e5 4b 08 bc
       0.019426052 0.038835004 -0.012920825 -0.008318876
0001b0 0a 93 af bc 7a d8 dc 39 5f 10 6b 3c b6 cf 43 3c
       -0.021432418 0.00042122958 0.014347165 0.011951378
0001c0 93 f5 11 3c c9 b5 1e bc 93 e1 05 3c 15 7a 11 3a
       0.008908647 -0.009686896 0.008171457 0.00055495027
0001d0 1b 3f 0c bc cb 7e c2 3c aa ea 41 3c 4a db ae bb
       -0.008559967 0.0237421 0.011835733 -0.0053362
0001e0 c2 ed d3 3b d7 5b 3f 3c f7 f0 9f 3b 55 33 c4 3c
       0.006467552 0.011679611 0.00488102 0.023950258
0001f0 60 86 51 3d dc 81 9a 3d f3 7f 93 3d b9 88 e5 3c
       0.05115354 0.075443 0.07202139 0.028019296
000200 10 30 90 bb f5 57 33 3d 54 05 cb 3c 47 92 15 3d
       -0.0044002607 0.043785054 0.024782814 0.036516454
000210 fb bb 7c bc 50 9d 92 bc c0 68 9d bc 39 0b 14 bd
       -0.015425677 -0.017897278 -0.019214988 -0.036143515
000220 b9 01 df bc e9 99 36 3a 93 09 d5 bc 56 2c 90 bd
       -0.027222501 0.00069656834 -0.026005542 -0.070397064
000230 05 92 79 bd 0f 6b 1e bd 89 31 26 3a a7 86 c7 bc
       -0.06093027 -0.038676318 0.0006339779 -0.0243562
000240 a7 f6 04 bd 3a 52 90 bc 6e d5 ff bc 47 a2 ff bc
       -0.03246179 -0.017617334 -0.0312297 -0.03120531
000250 c0 35 bf bc 91 92 28 bb 8a 86 da bc 9e b9 90 bc
       -0.02334106 -0.0025722126 -0.026675481 -0.017666634
000260 a2 aa 9f bc c4 e1 ec bb 83 ad b9 bc 1b 8a 3a bd
       -0.019490544 -0.007229062 -0.022665745 -0.045541864
000270 60 1f 12 3d c5 f5 e6 3c f4 52 bb 3c d8 e4 9e 3c
       0.035674453 0.028193364 0.022866704 0.01939623
000280 41 d0 10 bd d0 71 23 3c fa fe 54 3c 1f 43 c2 3c
       -0.035354856 0.0099758655 0.013000244 0.023713646
000290 ce 98 39 bd 16 b0 61 bc 9f b1 1b bd 67 91 81 bd
       -0.04531174 -0.013774892 -0.03801119 -0.063265614
0002a0 8b 3d 11 bd d6 91 e4 bc 33 2f 7d bd 96 bb b1 bd
       -0.035459083 -0.027901571 -0.06181259 -0.08678357
0002b0 62 5f 86 bd 71 02 a5 bd 51 f1 2e bd 65 ae 88 bd
       -0.065611616 -0.08057106 -0.042710606 -0.06673888
0002c0 f3 20 47 bd 9b 74 54 bd b9 c5 80 bd b7 8f a1 bd
       -0.048615407 -0.051869016 -0.062877126 -0.078887396
0002d0 bf 2c 50 bd 64 ea a0 bc b1 9b f1 bc 76 58 9f bd
       -0.050823923 -0.019643016 -0.029493185 -0.077805445
0002e0 9a b0 bc bd 21 28 92 bd 88 fc 1a bd 6a b3 4f bd
       -0.092133716 -0.0713656 -0.03783849 -0.050708212
0002f0 a0 64 20 3c 60 4f 8a 3b a4 c1 af bb 03 e3 18 bd
       0.009789616 0.004220888 -0.00536366 -0.03732587
000300 c6 26 f7 bc ea e9 0d bb 07 df c1 3b 5d b0 b8 bc
       -0.030169856 -0.0021654316 0.0059164795 -0.022545034
000310 92 6d 1c bd e4 07 d9 bc 51 cd 89 bd 1f d0 85 bd
       -0.038190432 -0.02649302 -0.06728614 -0.065338366
000320 84 54 53 bd 01 cc 8d bd 72 8c a5 bd 54 0c d6 bd
       -0.051594272 -0.06923676 -0.080834284 -0.1045157
000330 ec 74 fc bd 7f ad ca bd 32 1f 97 bd 4f df 87 bd
       -0.123269886 -0.09896373 -0.07378997 -0.066343896
000340 19 3b 9b bd 02 35 d2 bd 00 88 e2 bd be ce 0a be
       -0.07579631 -0.10264017 -0.11061096 -0.13555428
000350 ae 5c e1 bd 35 e0 d0 bd d9 dc 9e bd 00 f2 0e be
       -0.11004005 -0.10199014 -0.07756967 -0.13959503
000360 b9 43 2e be 56 e0 e4 bd e6 9b 8c bd 76 23 e6 bd
       -0.17018022 -0.11175601 -0.06865673 -0.112372324
000370 a4 d0 10 bd 6e 10 ef bc e5 0e 1e bd 63 6a 7b bd
       -0.035355225 -0.029182639 -0.038588423 -0.061380755
000380 ec 18 3d bd 3f c3 1c bd 75 df 46 bd 6f 48 2b bd
       -0.046166345 -0.03827214 -0.04855295 -0.041817125
000390 91 b0 db bd 38 2c a2 bd 0e ac d2 bd b7 0a d8 bd
       -0.10727037 -0.0791859 -0.10286723 -0.10548919
0003a0 b4 a1 fe bd d5 71 df bd 68 05 dc bd 5f bc 0d be
       -0.12433186 -0.109103836 -0.10743219 -0.13841389
0003b0 14 73 0a be ad 9a 04 be 78 29 06 be d3 73 f6 bd
       -0.13520461 -0.12949629 -0.13101757 -0.120338105
0003c0 8d 01 fc bd df d7 16 be bd 6a 2e be 4e 83 32 be
       -0.12304983 -0.14730786 -0.17032905 -0.17432901
0003d0 51 70 42 be 7d f4 27 be 45 7a 1c be e7 6a 26 be
       -0.18988158 -0.16401859 -0.15281017 -0.16251718
0003e0 75 0e 32 be f3 51 1a be e3 53 d4 bd a1 c3 04 be
       -0.17388327 -0.15070324 -0.103675626 -0.12965252
0003f0 c8 05 98 bd 3d 53 b0 bd 96 df ac bd 12 66 b3 bd
       -0.07422978 -0.086096264 -0.08441083 -0.08759703

net.0.bias f4 [50]
000000 2e 63 c0 be 8e 7c 46 3f b8 a2 85 be eb 29 c8 bd
       -0.37575668 0.77533805 -0.26100707 -0.0977362
000010 0e c0 bf 3e bb 8a fb 3d 54 24 61 be fb a5 f2 bd
       0.37451214 0.1228232 -0.21986514 -0.118480645
000020 42 ce ce be 01 7a 3a bd ae df 92 3f 43 93 f8 3e
       -0.40391737 -0.04552651 1.1474512 0.48549852
000030 f4 84 6c 3b a8 05 7a be 0a 65 d1 3d 6a fe aa be
       0.0036089988 -0.2441622 0.1022435 -0.33397228
000040 b3 bf 9a be 5a e2 6e bf e8 b7 50 3e a5 ba f7 3e
       -0.3022438 -0.93314135 0.20382655 0.48384586
000050 66 01 09 3f 61 4f 19 3f fb 21 1e 3e 08 81 8e bc
       0.5351776 0.5988675 0.1544265 -0.017395511
000060 15 02 12 bf 2a 85 ad 3e e3 1a 43 3f 33 09 98 3e
       -0.57034427 0.3389066 0.762129 0.29694518
000070 2d 4f 03 be c3 7d 76 be f2 a1 78 bf 7d e2 79 be
       -0.12823172 -0.24071412 -0.9712211 -0.24402805
000080 8b 36 02 bf 91 f0 9f 3e 8a 42 b7 bd b9 d6 a6 be
       -0.50864476 0.31238225 -0.08948238 -0.32585695
000090 5f 31 c0 bd 83 d3 15 bf 08 5a 19 bf a2 46 cb bd
       -0.09384417 -0.58525866 -0.59903 -0.099255815
0000a0 c3 03 03 3f 1c 68 8f 3d d6 3a 1b bf e6 37 4b bf
       0.51177615 0.07002279 -0.6063665 -0.7938217
0000b0 d7 d4 16 3e d4 c5 a7 be 09 48 b7 bd 5d ef 8b 3d
       0.1472963 -0.32768118 -0.089492865 0.06832764
0000c0 5f 15 80 bd b4 de c2 bc
       -0.06254076 -0.023787834

net.2.weight f4 [50, 50]
000000 78 25 f3 bd 58 7f 2d 3e 10 0e d6 3d 90 70 1e 3d
       -0.11872381 0.16943109 0.10451901 0.038681567
000010 68 09 8b be 69 81 16 bd 4f 9d 4e 3d c0 7c 3c be
       -0.27155614 -0.03674451 0.05044299 -0.18406963
000020 20 ba 4d bc 45 ca 7e 3c 96 6b 7f bd 86 a4 1b be
       -0.012556583 0.0155511545 -0.06235846 -0.1519948
000030 eb 36 51 be d4 a6 17 bd 1c ef 62 be 5b 7c 17 3e
       -0.20431106 -0.037024334 -0.22161525 0.14793532
000040 d4 14 81 3c 3b 9e f4 3d 4d 83 d1 3c 62 b7 e8 bd
       0.015757002 0.119442426 0.025575304 -0.113631025
000050 8e 1f 8d be 4c ab 24 be f2 5f ec bb e3 cc 86 3e
       -0.27563137 -0.1608097 -0.007213586 0.2632819
000060 f0 3e 72 3e 06 c7 0d 3e df 93 83 be c5 08 06 bd
       0.23656821 0.13845453 -0.25698754 -0.032723207
000070 d6 2c 1c 3e bf ee 04 bc 2b 89 c5 3d 99 18 4b be
       0.15251479 -0.008113562 0.09645303 -0.19833602
000080 be 8b 90 bd 8c 1b 74 bd 9b 99 75 be 36 a0 8b bb
       -0.07057904 -0.059596583 -0.23984377 -0.004261042
000090 7f 96 5a 3e 5b f2 15 be 67 6f 08 3f 9b 27 3c 3d
       0.21346472 -0.14643233 0.53294986 0.04593621
0000a0 a2 eb 29 be 69 5e d2 3d bc 10 e8 3d ef 96 64 bd
       -0.16593793 0.102719136 0.11331317 -0.055808004
0000b0 4b e3 4a be 30 06 3f 3e 27 09 ab bd dd e9 15 be
       -0.19813268 0.18654704 -0.08351355 -0.14639993
0000c0 b2 4f c2 3c ea a3 9d bd 35 c2 b2 bd 1c 76 c8 bd
       0.023719642 -0.0769728 -0.08728448 -0.097881526
0000d0 3a 52 93 3e 20 70 03 3d 77 28 ab bd 1f 54 3e 3c
       0.2877367 0.032089353 -0.083573274 0.011616736
0000e0 d8 2d 65 bd da 13 06 ba f3 99 f6 3d 84 1b 21 be
       -0.055951923 -0.00051146524 0.12041082 -0.15733153
0000f0 a4 2b 3d be a8 92 ad bd d9 e3 16 3c 50 92 aa 3d
       -0.18473679 -0.08475238 0.009209597 0.08328688
000100 69 27 c1 3d 56 a1 55 bd a0 e8 9d 3e a5 ab 31 3d
       0.09431345 -0.052155815 0.3084154 0.043376584
000110 19 ec 52 bd dd 1d 1b 3c d9 e9 85 bd e4 b1 23 bd
       -0.05149469 0.009467569 -0.065387435 -0.03996457
000120 27 54 85 bc 43 05 b8 bc e1 75 a5 3e 08 ce 66 3d
       -0.016275479 -0.022463446 0.32316497 0.05634883
000130 09 d6 45 be 5c 01 bd bd f9 1d f7 3d 06 15 8b bd
       -0.19319929 -0.09228775 0.12066264 -0.06791119
000140 c3 5b 45 3d fa ce 8a 3c 7a 4c 25 3e 75 eb 84 3d
       0.048183214 0.016944397 0.16142455 0.06490222
000150 0d fc d6 3e 1e d3 26 bd 0c b5 2f 3e 91 c5 55 3d
       0.41989174 -0.04072868 0.17158908 0.052190367
000160 07 e0 27 3e 38 de 8b bb ba 99 04 be 52 17 f4 bd
       0.16394053 -0.004268434 -0.12949267 -0.119185105
000170 d2 32 07 3d a8 0b 2b 3d ba c8 89 3c 4c 2e 50 be
       0.03300745 0.041759163 0.016819347 -0.20330161
000180 f4 60 63 bd 77 3f 3e 3c c9 8f 67 3d de 7c 76 bd
       -0.055512384 0.011611811 0.05653361 -0.060177676
000190 92 b6 73 be 5c 6b a4 3d 57 43 87 3e 8e 3a 30 be
       -0.23800114 0.0802829 0.26418564 -0.17209837
0001a0 f5 30 2f 3c b1 48 cf 3d 4e c8 f0 3d f8 b3 5e 3d
       0.010692825 0.10121287 0.11756955 0.05437085
0001b0 e3 ea e4 bd 5c 38 a1 3e f0 12 ea bc b1 77 81 3d
       -0.111776136 0.3148831 -0.028573483 0.063216574
0001c0 e9 92 2f 3e 7c 83 cb 3d de 5d 3f 3a 7a 07 86 bd
       0.17145886 0.09937188 0.0007300059 -0.06544395
0001d0 0c 5c 68 bd ad b2 c9 bb ff e4 39 bc 05 29 bc bc
       -0.056728408 -0.006155333 -0.011346101 -0.022968778
0001e0 67 45 b4 3c f0 49 63 be 19 87 3f 3d 51 01 81 bd
       0.02200575 -0.22196174 0.0467597 -0.06299079
0001f0 df ec 4b 3e b3 ee 5d be 12 c7 87 bd 77 ce 7e bd
       0.19914578 -0.21673088 -0.066297665 -0.06220862
000200 44 a6 1b 3e d5 aa d2 3d b3 a1 33 bc c7 70 18 3d
       0.15200144 0.1028649 -0.010963845 0.037216928
000210 1f 4c 48 bd d0 af 8f be 3a 1f a8 3e 53 a9 18 3e
       -0.04890072 -0.28063822 0.32836324 0.14908342
000220 b1 5b 4e 3d d8 31 f5 bd a6 ae ae 3c a8 56 ad bd
       0.050380412 -0.119723976 0.021323513 -0.08463794
000230 99 b1 30 3d 7d ce 24 be 74 77 dc 3d 3a 1a 0f 3e
       0.04313812 -0.16094394 0.107649714 0.13974848
000240 70 ae 1a 3d 3c fc 68 bd 89 68 17 3d b0 e2 c3 bc
       0.037764013 -0.056881174 0.036964927 -0.023911804
000250 38 5e 77 bd ed 9b 7e bd a8 c2 05 be e1 d7 1e 3e
       -0.06039259 -0.06216042 -0.13062537 0.15512039
000260 a2 6c 2c 3e cd ec 84 3e de 5c a5 bd 83 6f f9 3d
       0.16838315 0.25961915 -0.08074354 0.12179472
000270 a2 a5 89 ba bd db 61 3d 05 a4 2b 3d 41 11 37 3e
       -0.0010501633 0.0551412 0.041904468 0.17877676
000280 92 84 cd be 1f 58 c9 bd ed 28 40 3e 34 f1 31 3e
       -0.40140206 -0.09831261 0.18765612 0.17377168
000290 be 31 bf 3d 78 0f 83 3d af d2 ef bd 3b 15 35 3e
       0.093356594 0.06399435 -0.117101066 0.1768388
0002a0 3c 08 6b 3d 1d 98 3e be a9 42 d5 bd ec 52 61 bd
       0.0573809 -0.18612714 -0.10413105 -0.05501072
0002b0 ae c9 58 3d 51 66 16 be 99 79 02 3c dc 39 8a 3d
       0.05292671 -0.14687468 0.007963561 0.06749317
0002c0 a1 66 9a bd 00 fc 36 3e ee 1f 42 be 9c ef 1a bd
       -0.07539106 0.17869568 -0.18957493 -0.037826166
0002d0 13 23 bc 3d 1a b2 4e 3e 67 59 35 3e 8a 39 20 3d
       0.091863774 0.20185128 0.17709886 0.039117374
0002e0 84 81 b2 bd d6 3b 47 be 9f f8 36 bd d1 52 57 3b
       -0.087161094 -0.1945642 -0.044670697 0.003285576
0002f0 4e d1 c4 be 0d a1 1e bd be 6d 08 3d 29 d9 a4 be
       -0.38440937 -0.03872781 0.033307783 -0.3219693
000300 b3 bf 32 3e 4d 42 be 3d bc 8d e3 bd 26 a9 b1 be
       0.1745594 0.092899896 -0.11111018 -0.34699363
000310 e0 2f 24 3d 12 5a 72 3e 04 dc 20 3e 4b bb 3c be
       0.04008472 0.23667172 0.1570893 -0.18430822
000320 4f 79 ac bd a7 ad 43 be 4b 93 65 3d 59 cf b0 3d
       -0.08421575 -0.19109212 0.056048673 0.086332984
000330 45 9f 57 3e 15 02 27 3b ea 61 18 bd a5 3e 2c be
       0.2105685 0.0025483419 -0.037202753 -0.16820772
000340 5a d2 9d 3d 0a b3 55 bd 55 89 4e be 98 50 f1 bc
       0.07706137 -0.052172698 -0.20169576 -0.029457375
000350 50 70 2e 3e b0 fa 23 bd 09 49 dd 3c d9 72 83 be
       0.17035031 -0.040033996 0.027012365 -0.2567356
000360 50 09 46 bd aa 2c 6e bd 24 d5 4d 3d 70 35 57 3e
       -0.048348725 -0.058148064 0.050252095 0.21016479
000370 5c 51 a8 3d 96 ca 16 3e fb 67 79 3e 92 c9 13 be
       0.08218643 0.14725718 0.24356072 -0.14432362
000380 7a aa 75 3d ef c9 27 3e 56 9e 8e bd 9f bf 5e 3d
       0.059977032 0.16385625 -0.06963794 0.054381963
000390 69 e9 08 bd e5 36 d0 be f0 89 f1 3d 8d d1 23 3d
       -0.033425722 -0.4066688 0.117938876 0.039994765
0003a0 b8 60 cd 3d 72 fd 8a bd a7 e0 16 be 70 39 bc 3d
       0.10028213 -0.06786622 -0.14734136 0.09190643
0003b0 3b 5d 99 be a0 3f 47 3e 05 3b 23 3d 8d 2a f3 3e
       -0.29953942 0.19457865 0.039851207 0.474934
0003c0 45 ba 31 bd e7 fb b8 bd 95 b7 8e be 14 e0 7d 3c
       -0.04339053 -0.090324216 -0.27874437 0.015495319
0003d0 40 0c d0 bd 24 9d 15 3d 40 73 79 bd c7 5f ff bb
       -0.101585865 0.036526814 -0.060900927 -0.0077934
0003e0 8d 95 00 3e 25 e6 54 bd 28 00 12 3e 39 61 f7 be
       0.12557049 -0.051977295 0.14257872 -0.48316363
0003f0 f4 18 84 be cc d7 21 3e 26 ff 1e bd 83 e8 ae 3d
       -0.25800288 0.15804976 -0.038817547 0.08540442

net.2.bias f4 [50]
000000 ff 34 d7 be 72 72 c0 be 97 3f 3e bf a0 12 51 3e
       -0.4203262 -0.37587315 -0.7431578 0.20417261
000010 4e 9c 82 3d 87 f9 64 bf 98 c6 9a 3e b4 0e 8f bf
       0.06377469 -0.8944325 0.3022964 -1.1176362
000020 d2 20 13 bd 49 c2 74 bd c5 03 3b 3e 66 c7 da bd
       -0.03591997 -0.059755597 0.18263157 -0.106825635
000030 dd cb 7f 3e a2 2e 00 3f 1d 70 06 3e e2 36 9d 3f
       0.24980111 0.50071156 0.13128705 1.2282374
000040 52 56 64 3d d3 88 d7 3e 28 f1 05 3e c8 36 46 3e
       0.055746384 0.42096576 0.13080275 0.19356835
000050 35 ee 75 3e ba 9f 6a bf fc 50 03 bf d1 c5 73 be
       0.2401665 -0.91649973 -0.5129545 -0.2380593
000060 13 53 6a 3f 76 23 c1 be df 21 ef bd 02 6a fa be
       0.9153301 -0.37722367 -0.11676382 -0.48909003
000070 96 2f 2a be a5 87 27 bf a3 16 03 bf 07 2d b9 be
       -0.16619715 -0.6544135 -0.51206416 -0.36167166
000080 da de cd be bf 2f 0a bc c4 5a ad be be a2 d8 bd
       -0.40209085 -0.008434235 -0.3385831 -0.105779156
000090 2c 2b f8 3d 31 34 5b 3f aa 31 a7 3e 4f fe 12 bf
       0.121176094 0.8562651 0.32655078 -0.57419294
0000a0 66 c9 84 be 3f 2b bb bd 43 74 90 3e 01 25 06 bf
       -0.25934905 -0.09139108 0.282137 -0.52400213
0000b0 14 22 09 bd fe f0 61 3e 43 6d 34 3e 69 a0 82 3e
       -0.033479765 0.22064587 0.17619805 0.25513008
0000c0 84 b8 65 bc 4d fa 28 3e
       -0.014021043 0.16501732

net.4.weight f4 [50, 50]
000000 7b e0 e8 3d 7b 8c 44 3e 4d 32 6e 3e 85 e3 e3 3d
       0.11370941 0.19194214 0.23261376 0.1112738
000010 83 b6 d0 bd 5b 5d 8c bd 6e 4f 99 be ad eb a5 bd
       -0.10191061 -0.06853744 -0.29943413 -0.08101592
000020 df 85 5b be ef 35 0d bd 8f f4 08 3e 87 9c 35 3e
       -0.21437787 -0.034475263 0.13374542 0.17735492
000030 72 61 17 bd b6 ed a5 bd 95 3a 81 be 65 44 16 be
       -0.036958165 -0.081019804 -0.25240007 -0.14674528
000040 59 ba f7 3d 08 a3 02 3c b8 15 20 bd db be 36 3d
       0.1209609 0.00797344 -0.039083213 0.044615608
000050 01 10 86 bd c1 79 5d be 3e 53 22 3e 9f 00 ae be
       -0.06546021 -0.21628477 0.15852067 -0.3398485
000060 73 37 9b bb d4 5d 96 3b 67 60 00 3e 94 87 30 3e
       -0.0047368347 0.004588822 0.12536775 0.17239219
000070 cc 1a bc 3c 3b 32 d7 3d d1 99 b0 bc 37 df 9e 3c
       0.022961996 0.105076276 -0.02155772 0.019393547
000080 3f 78 17 be 4a 27 aa bd f2 b4 0e 3e 62 65 3d bc
       -0.14791964 -0.08308275 0.13936213 -0.011559816
000090 0e e9 e7 bd 4c 4e 23 3e 47 8d 0b 3e b0 3d 8b 3e
       -0.113237485 0.15947837 0.13628112 0.271955
0000a0 0d 15 56 3e b3 32 28 bf ec c3 56 be 84 7f 56 3d
       0.20906468 -0.6570236 -0.20973176 0.052367702
0000b0 26 83 b3 bc 2e dc 4b 3d 2c 2e c9 3d 63 f3 90 bd
       -0.021913122 0.049770527 0.0982326 -0.07077672
0000c0 5b 74 5e be a5 95 9f 3e 4f c9 22 3e 3f 4e 49 3d
       -0.21724074 0.31168857 0.15897106 0.049146887
0000d0 8e 51 ad bc a3 88 78 3d c3 e0 43 3e a8 50 91 3d
       -0.021157052 0.060677182 0.19128709 0.07095462
0000e0 9c bb d5 bd 5e b9 38 3d 5a a7 58 3e 1d 92 25 3e
       -0.10436174 0.045098655 0.2115759 0.16169019
0000f0 e6 15 01 3d 64 68 d6 3d 4e a2 4a be d6 d3 14 be
       0.031515025 0.1046913 -0.19788477 -0.14533934
000100 e3 fa 31 be 3e 83 8b be fd 9d d6 3b 01 a0 b5 3d
       -0.17380862 -0.27248567 0.0065495954 0.08868409
000110 6b bc 54 3d 0b 74 c6 bd c0 eb 38 3d 74 3b 1d 3d
       0.051937502 -0.09690102 0.045146704 0.038386777
000120 31 8e 33 bd f9 f4 9b bd 9b 3c df 3c b7 29 5d be
       -0.043836776 -0.07615084 0.027250579 -0.21597944
000130 20 8c b9 bc 59 08 4b 3e bb 2d f6 bd a2 1e a1 3d
       -0.022649825 0.19827403 -0.12020441 0.07867171
000140 ff 3b fb 3d eb 91 b9 3d dd f2 e9 3d ff 26 82 bd
       0.12267303 0.09061035 0.114232756 -0.06355094
000150 ac 42 42 bd 12 18 00 bf f8 4c 21 bd 2f 28 1f be
       -0.047426865 -0.5003673 -0.039380044 -0.15542673
000160 62 33 0f be c0 a4 cd 3e f5 21 14 3e 6f f0 21 be
       -0.13984445 0.40164757 0.14466079 -0.15814374
000170 81 e3 3b 3e 07 84 e9 3d 96 4e 57 be fb 02 ce bd
       0.18348505 0.11402135 -0.21026072 -0.10059162
000180 47 d9 04 be d9 2f 59 3e ab 44 5e bd e5 f0 cd bd
       -0.1297351 0.21209659 -0.054264706 -0.100557126
000190 b0 88 dd bd 13 db d9 bc 17 c2 d2 3d f0 2b 4a be
       -0.10817087 -0.02659372 0.10290926 -0.19743323
0001a0 e4 8a 86 be 5e 81 2c 3e 67 9d eb be 0f 02 0d be
       -0.2627784 0.16846225 -0.46018526 -0.13770317
0001b0 54 cf 08 bd 71 34 9e 3c ad 2e bf bc b9 c5 2c be
       -0.03340085 0.019312115 -0.023337686 -0.168723
0001c0 25 3a 21 3e 42 9b db bd 69 31 ba bd 4b 7c 9f be
       0.15744837 -0.107229725 -0.090914555 -0.31149516
0001d0 eb b6 da 3d 71 18 05 3e 90 0f e4 3d 57 31 8e be
       0.1067942 0.12997605 0.11135781 -0.27772018
0001e0 8a 16 db bd b1 b8 1d be eb 52 f1 be 6d b7 89 3d
       -0.10697658 -0.15402485 -0.47133574 0.06724439
0001f0 fd a2 57 be 04 9b 5e 3e c1 c9 23 be 6b b4 c0 3e
       -0.21058269 0.21738821 -0.15994932 0.37637648
000200 ef 7a 3a be fc d7 4a 3e 2a dc 0c 3d a3 a8 48 bc
       -0.18210958 0.19808954 0.034389652 -0.012247237
000210 cf 73 5f 3e 60 75 94 3e ae f5 4b 3e 57 ed 17 3e
       0.21821521 0.289958 0.19917938 0.14836632
000220 92 f1 26 bd 4d 3a 93 bb 36 88 3a bd 3a 24 60 3e
       -0.040757723 -0.004493034 -0.045540057 0.2188882
000230 dd d2 a9 3d 4f 18 ab bd 5c c3 a8 bd 25 c6 04 bd
       0.08292172 -0.08354246 -0.08240387 -0.032415528
000240 71 f9 13 bd 20 c8 83 be a4 a2 97 bd 4b 05 4e be
       -0.036126558 -0.2573862 -0.07404068 -0.20119207
000250 b1 74 8c 3c 31 32 3b bd a6 7a a1 3d 31 1f f8 3d
       0.017145487 -0.045702163 0.078847215 0.12115324
000260 dc 72 57 3d 93 21 8c be 21 3a aa be 2b 42 43 be
       0.052599773 -0.27369365 -0.33247474 -0.1906821
000270 a1 61 45 3d 75 e8 3a 3d 26 ff 32 be 53 7b a9 3d
       0.04818881 0.045631845 -0.17480144 0.08275475
000280 c3 36 b1 bd 41 6b 50 3e 14 3e 03 3e a3 f3 68 3c
       -0.08653023 0.20353414 0.1281665 0.014218244
000290 10 19 52 3e 00 71 87 3e 0d c1 61 be 56 66 6d 3e
       0.20517373 0.264534 -0.220463 0.2318357
0002a0 4b 1d 44 3e 8b ab e8 3c 8a d8 5d bd 43 c1 0a 3e
       0.191518 0.02840211 -0.054161586 0.13550286
0002b0 db 51 33 be cf 61 25 3e dc 9e 0e be 58 b0 8f 3d
       -0.17511694 0.16150592 -0.13927788 0.07016057
0002c0 92 38 9f 3b 08 9c 48 3e c5 21 af be 8d 19 d5 bd
       0.0048590386 0.19590771 -0.34205452 -0.10405264
0002d0 d2 83 5c be 6f c5 19 3d 95 2e d2 bd 45 d4 1a 3e
       -0.2153466 0.037541803 -0.10262791 0.15120037
0002e0 31 e5 13 bd 15 c7 11 be 34 97 7c be 68 c3 50 be
       -0.036107246 -0.142361 -0.24667054 -0.20387042
0002f0 78 b7 fa 3d be 4d 81 be 43 35 3f bd f8 53 9b bd
       0.12242025 -0.25254625 -0.046681654 -0.07584375
000300 55 3c 53 be 60 c5 cb 3d a5 de 34 be 85 38 f4 bd
       -0.20628484 0.09949756 -0.17663057 -0.11924843
000310 7b e7 ab 3e fb 16 a4 be 3e 8f e7 bd 8d fd 81 3e
       0.33575043 -0.32048783 -0.11306618 0.25388756
000320 ba a1 30 bc 15 7e d2 bd 59 54 63 3d 2d 4a e2 3d
       -0.010780746 -0.102779545 0.055500362 0.11049304
000330 25 cd 6c bd d9 2c a9 bd be e4 68 be 6e 1f 08 bd
       -0.05781283 -0.08260507 -0.22743508 -0.0332331
000340 ae c4 0c 3d 7a 5f 08 be 84 e9 42 bd 8f 7a bb bd
       0.034367256 -0.13317671 -0.04758598 -0.091542356
000350 4f a3 aa 3c ac ea 7a be aa e9 22 3c 7f 95 ff bd
       0.020829825 -0.24503583 0.009943405 -0.12479686
000360 05 8a 1e bd b4 c0 f7 bd d7 f0 05 3e c5 cc e2 bc
       -0.038705844 -0.12097302 0.13080154 -0.027685532
000370 97 34 9a be a6 04 e7 3d 84 41 f8 bb 91 ae ca bd
       -0.30118248 0.112801835 -0.0075761694 -0.09896577
000380 b5 ff 52 be 58 5a e9 bc b8 8b 14 3e 4d 93 20 3e
       -0.20605357 -0.028485462 0.14506423 0.15681191
000390 72 ff 4b bb 41 c2 29 bd e4 64 43 3e bd bf 2a 3e
       -0.00311276 -0.04144502 0.19081455 0.16674705
0003a0 92 4c cd bd b6 70 01 bd 75 6a de 3d ba cd 62 be
       -0.1002437 -0.03160163 0.10860149 -0.22148791
0003b0 5b e1 61 3e c3 0e bb bd 2d c9 83 3e 6b ba 2d 3e
       0.22058623 -0.09133675 0.25739422 0.16965644
0003c0 14 a0 8b bd 79 7b 4d be 85 ab a8 3d 83 d0 99 3d
       -0.06817642 -0.20066632 0.0823584 0.075104736
0003d0 02 6a 4f be 98 7e 38 3e c2 c3 14 be c9 52 bd bd
       -0.20255283 0.18017042 -0.145278 -0.09244306
0003e0 5e ae b7 3d ea 30 d1 bd 67 c2 ba bd 32 71 7b be
       0.08968805 -0.10214408 -0.091191106 -0.245549
0003f0 b0 f6 79 bc f4 54 09 be 12 64 99 bc ab 1b bf bd
       -0.015256569 -0.13411313 -0.018724475 -0.09331449

net.4.bias f4 [50]
000000 f1 d9 90 be 41 d8 f4 3e 5d b5 35 3e a7 9f 45 be
       -0.28291276 0.4782124 0.17744966 -0.19299184
000010 99 f8 c4 be 9a 71 38 3f 5c 82 22 be 79 10 88 be
       -0.38470915 0.7204834 -0.1587004 -0.26575068
000020 7a 51 a9 3e 42 fe 78 bc 00 f8 ec be 30 f9 1e be
       0.33069974 -0.015197339 -0.4628296 -0.15524745
000030 4c b7 b5 3e c0 cf 4b 3f d0 0f 28 be 00 6a fd be
       0.35491407 0.79613876 -0.16412282 -0.49494934
000040 aa 38 00 3f 21 0f 06 bf 6b 65 3a be 20 a4 7c 3e
       0.5008646 -0.52366835 -0.1820275 0.24671984
000050 a9 a3 81 be bc ae d3 be 81 64 31 3c 4f bf 66 bd
       -0.25320175 -0.4134425 0.010827185 -0.05633479
000060 b0 70 68 3e 97 9c e5 3e 94 df 63 bf 82 a8 73 3d
       0.22699237 0.4484603 -0.8901303 0.059486873
000070 dc 4b e5 bd aa 00 bf be 3c fd 90 3d 63 19 d0 bd
       -0.1119611 -0.37305194 0.070795506 -0.10161092
000080 56 1e 21 bf 28 2f 39 3e ad e0 07 bf ef 10 dd 3c
       -0.62936914 0.18084395 -0.53077203 0.026985614
000090 17 78 4c bf 5b 33 04 bf af f5 52 be 8b 1b 6f be
       -0.7987074 -0.5164086 -0.20601533 -0.2335035
0000a0 34 39 15 3b c7 47 14 bf c2 ba 40 bf 90 72 3c be
       0.0022769691 -0.57922024 -0.7528497 -0.18403077
0000b0 13 01 3f bf dc 33 0c bf c1 dd 96 3e 0b 42 10 bf
       -0.74611014 -0.5476663 0.2946606 -0.56350774
0000c0 80 07 80 3e 26 e7 2c bf
       0.25005722 -0.67540205

net.6.weight f4 [50, 50]
000000 31 ac 72 bd e0 3e 1d be 11 19 f5 3d 3f c3 15 bd
       -0.059246246 -0.15356016 0.11967672 -0.036563154
000010 4f 19 65 be 9a 06 64 3d dc 72 99 3b c1 30 44 3d
       -0.22372936 0.05567036 0.0046828818 0.047898058
000020 4f 52 ab 3e 4f f2 6b be a3 2d 76 be 12 49 a1 3e
       0.33461234 -0.23041652 -0.24040847 0.3150106
000030 f9 62 99 be 19 f7 a5 3e c3 81 09 3e 57 60 fb 3c
       -0.29958323 0.32415083 0.13428406 0.030685587
000040 72 e8 3f be 30 a7 8f 3e 00 47 e9 3d 62 1d 84 3e
       -0.18741015 0.2805724 0.11390495 0.25803667
000050 58 b5 2a be d3 50 e7 be cd 1f 9c bc a0 2b e1 bd
       -0.1667074 -0.4517885 -0.019058133 -0.10994649
000060 24 af 8d 3d 41 cc 42 3e bf 61 8e 3c 2e ab 5e 3e
       0.06918171 0.19023229 0.017380593 0.21744987
000070 66 73 4c 3e 9e 79 31 3d 15 46 6e 3d 65 26 b2 3d
       0.19965896 0.043328874 0.058172304 0.086987294
000080 ee b5 fa bd 41 3c 9b bc ad ce f5 3d 1f d7 db bc
       -0.122417316 -0.01894963 0.12002311 -0.026835976
000090 1b 4e 65 3d 2c ab 24 bd da 05 b8 bd cb 8a 92 3d
       0.05598269 -0.040202305 -0.08985491 0.07155379
0000a0 f2 42 8c 3e 34 80 87 be 5f 82 c7 be 79 86 66 3e
       0.27394825 -0.26465 -0.38966653 0.22512235
0000b0 de 62 79 be 70 b7 a1 be 74 3f e9 bd e2 89 a7 bd
       -0.24354121 -0.31585264 -0.11389056 -0.08180596
0000c0 0d 87 8f be 30 8a 61 bc 7e ac 2b bd 6a 36 c9 bd
       -0.28032723 -0.013765857 -0.04191255 -0.09824832
0000d0 3a 98 b9 be 03 fe 9e 3d f9 b7 f9 3d ab e5 59 3d
       -0.36248952 0.07763293 0.12193293 0.053197544
0000e0 21 fa 24 bd 2e 08 40 bd 0e ea 09 be 28 64 30 3d
       -0.040277604 -0.0468828 -0.13468191 0.043064266
0000f0 6c 8f 00 3d 40 8c 74 3e 95 b6 50 be 4b 16 0e 3d
       0.031386778 0.23881626 -0.2038215 0.03468923
000100 0e ea e3 bd 89 24 e1 bb 92 65 1f 3e e5 2a 8f 3e
       -0.11128627 -0.0068708104 0.1556609 0.27962413
000110 c9 24 30 be 8b 8a 2d bb 0c 22 cb 3d c5 ce 15 bd
       -0.17201532 -0.0026480283 0.09918603 -0.036574144
000120 b9 c3 e1 bc e6 26 33 3e cf 76 32 3e b3 28 98 bc
       -0.027559148 0.17495307 0.17428134 -0.018574094
000130 de c5 8d bd c9 cb 27 be 02 af a3 bd 52 c8 70 be
       -0.06922506 -0.16386332 -0.079923645 -0.23513916
000140 74 56 22 be 7c 20 67 3e 19 a1 62 be 70 30 7d 3e
       -0.15853292 0.22570986 -0.22131766 0.24725509
000150 5a cc b9 bc 34 36 cb bd 24 00 58 3e ab 7e af 3d
       -0.02268045 -0.09922448 0.21093804 0.08569082
000160 34 c7 1c 3e 79 93 8f bd 39 c7 b9 3d d9 85 63 bd
       0.15310365 -0.0701055 0.09071202 -0.05554757
000170 b2 01 02 3e 08 26 05 bd 35 b8 21 bd ee a8 e2 3d
       0.12695959 -0.032506973 -0.039482314 0.11067377
000180 a8 b3 57 bd b2 4b 5e 3e d3 b0 85 3d 9a 5d 9b 3e
       -0.052661568 0.21708563 0.06527867 0.3034485
000190 20 8a 72 3d 4c 66 d8 3d 2f a4 af be 11 d5 69 3d
       0.059213758 0.105663866 -0.3430495 0.05708796
0001a0 60 ce aa 3d 47 0f e5 3d ae 90 d8 3d 7c 17 a0 bc
       0.08340144 0.111845545 0.105744705 -0.019542448
0001b0 a4 9b bb be c1 4d 0e 3d c3 4b b7 be c5 f6 82 be
       -0.36642182 0.03474212 -0.3579999 -0.25578895
0001c0 03 a7 20 bd d9 e9 b2 be 18 98 76 bd 0e 8e 80 be
       -0.039221775 -0.34944037 -0.06020364 -0.2510838
0001d0 f1 0f b3 be 9e 98 bc bb f6 1e d4 3d 6c fb 37 be
       -0.349731 -0.005755498 0.10357468 -0.17967004
0001e0 81 45 36 3e a5 10 34 3e e1 88 a6 bd 87 a0 df bc
       0.17799951 0.17584474 -0.08131576 -0.027298225
0001f0 06 cb c7 3e 9e 1e 32 be a8 b4 76 b9 78 52 8c be
       0.39022082 -0.17394492 -0.00023527688 -0.2740667
000200 a0 2c 87 bd 74 a5 25 3d a1 41 8d 3d 7c 71 ec 3d
       -0.066003084 0.04044099 0.06897283 0.11545083
000210 ec c1 d5 bd e9 32 23 3e 74 30 05 be c6 fb b5 3c
       -0.10437378 0.1593739 -0.13006765 0.022214781
000220 67 fe 82 be 4c 4d f7 bd a9 a1 35 be 96 a8 1f 3d
       -0.2558472 -0.1207529 -0.1773745 0.038979135
000230 ab 54 4c 3e ea 6e 41 3e 50 16 1a 3e f1 25 01 3e
       0.19954173 0.18889967 0.15047574 0.1261213
000240 b6 07 13 3e f7 41 14 be 2d 46 14 bd 80 a7 bc 3d
       0.1435841 -0.14478289 -0.036199737 0.092116356
000250 7e de 83 3e 1f 83 ca bd cb 6e 22 be c5 1c d5 bd
       0.25755686 -0.098882906 -0.15862577 -0.10405878
000260 e7 fe 45 be 87 23 1c 3e 23 15 01 3e 5d 0d 66 bd
       -0.19335519 0.15247928 0.1260572 -0.056165088
000270 07 0e 3c be 91 ab a5 3d 18 c0 ba be 14 47 c3 3d
       -0.18364726 0.08089364 -0.3647468 0.095350415
000280 95 07 83 3d 46 25 50 bd 08 de 0f be fa 4c 0f be
       0.063979305 -0.050816797 -0.14049542 -0.13994208
000290 5d b8 77 3c 2d 58 6a be bd 83 5e be 04 7c 10 bd
       0.015119639 -0.22885199 -0.21729942 -0.03527452
0002a0 f4 7e 19 bd 73 96 8b bd 7e 64 bd bd c5 a9 d4 3d
       -0.037474588 -0.06815805 -0.09247683 0.103839435
0002b0 ec 21 86 3e 00 a5 3b 3e 51 08 b3 3d 48 9e b7 bd
       0.26197755 0.18324661 0.087418206 -0.08965737
0002c0 e4 be 1b b8 33 72 69 be 57 1d c6 bd d2 80 97 bd
       -3.713266e-05 -0.2279747 -0.09673565 -0.073976174
0002d0 29 7d 7a 3e 67 b7 c8 3d d9 3e ff bc 1e 5b 15 be
       0.24461807 0.09800606 -0.031157898 -0.1458554
0002e0 59 f1 af 3d 73 a9 24 be ce 5f 5b be 0b a8 3f bd
       0.08590955 -0.16080265 -0.21423265 -0.046791118
0002f0 ac 75 88 3d 0c de 01 be c1 2f 2b 3e 25 71 41 bd
       0.06663069 -0.1268236 0.16717435 -0.047227044
000300 39 70 8e 3d 83 b5 87 be b3 b7 27 3e 8c 90 9c 3e
       0.069549985 -0.2650567 0.1637867 0.3057903
000310 a5 0b 93 be 19 d2 32 3e 5a f6 4f 3e 56 cf 87 3d
       -0.28719822 0.17462958 0.2030882 0.06631343
000320 db 36 3c be 0d 41 3a be 3d 19 46 3d 51 0a 64 bd
       -0.183803 -0.18188877 0.048363913 -0.0556739
000330 2e 0f fa bd f7 6d c1 bc 5f 9a c3 3d 12 0c cf 3c
       -0.122099265 -0.023612006 0.09550928 0.02527431
000340 51 30 e8 3c 6a e0 a9 bd 17 84 04 be 99 d3 a1 bb
       0.028343352 -0.08294757 -0.12941013 -0.0049385545
000350 64 1a ae 3d df 28 f8 bd b7 dc e2 bd e9 6b 22 be
       0.08501127 -0.121171705 -0.11077254 -0.15861477
000360 0a f9 3d be a5 aa 80 3d 60 b6 d9 bc da 6e 0c be
       -0.18552032 0.06282548 -0.026576221 -0.13714162
000370 39 eb 31 be 84 b7 30 be 00 4f b8 3c 9b 58 62 be
       -0.17374887 -0.17257506 0.022498608 -0.22104113
000380 55 cf 5e 3d d1 90 8e be 26 40 35 be 43 c3 8c bd
       0.054396946 -0.2784486 -0.17700252 -0.06873181
000390 2d 7f 51 bb c7 8d d4 bd 81 43 ff 3b a4 c4 5e bd
       -0.0031966672 -0.103786044 0.0077900295 -0.05438675
0003a0 3e e0 67 be e3 31 ea bd e9 4a 18 be 75 ec c9 bd
       -0.22644135 -0.114352964 -0.14872326 -0.09859554
0003b0 01 78 f4 3a 6c 0f 5b 3b 45 c8 55 bd c7 e7 6a 3d
       0.0018651487 0.003342594 -0.052192945 0.057349946
0003c0 f7 32 d9 3c be 35 24 be 76 4f 2d 3c 68 c7 07 be
       0.02651356 -0.16036126 0.010578027 -0.13259661
0003d0 68 9a 0f bd 6b d7 b8 bd 6d b2 b5 bd 34 f7 94 3d
       -0.035059363 -0.09025463 -0.08871923 0.07273713
0003e0 3e 00 ed bc 64 a0 9f 3c 37 80 3e 3e 62 cd 5a be
       -0.02893078 0.01948566 0.18603598 -0.2136741
0003f0 0b 10 b0 be 1d 43 a3 3e dc 1e f0 bd c3 71 93 be
       -0.3438724 0.3188714 -0.11724636 -0.2879773

net.6.bias f4 [50]
000000 19 b5 25 be 4c 85 97 be dc 26 29 bf 5b 29 39 bf
       -0.16182365 -0.29593885 -0.6607492 -0.7232873
000010 3b 4b 1a be 30 3a ba 3e c5 f8 8b be 32 ae 22 3e
       -0.1506776 0.3637252 -0.27338234 0.15886763
000020 06 a0 24 bf 98 9b c1 bd 8e 96 08 be 5b d0 32 bf
       -0.64306676 -0.09453505 -0.13338682 -0.69849175
000030 1e df 08 3f fe 1f d6 3e bf 87 12 3f c3 88 82 bd
       0.5346545 0.41821283 0.5723838 -0.063737415
000040 84 90 cf be b2 7b 0e be 82 85 07 bf 84 5e 33 bf
       -0.40539944 -0.13914374 -0.5293809 -0.70066094
000050 37 a4 1e bf 17 27 66 3e 11 13 66 3f 98 79 f3 bd
       -0.6196932 0.22475849 0.89872843 -0.118884265
000060 cc ee 47 be ed bb 88 be ae c6 b7 3e d8 ab dd be
       -0.19524688 -0.26705876 0.35893768 -0.4329517
000070 10 28 03 3e ee 71 97 be 61 7c b2 be 29 86 f3 be
       0.12808251 -0.2957911 -0.3486052 -0.47563294
000080 7c 3a 10 3f 7e 63 d4 bb d5 1c 05 bf c7 13 02 3f
       0.5633924 -0.006481587 -0.5199712 0.5081143
000090 50 2c c3 be ea 9b 94 3e 85 2a 04 be a0 50 88 be
       -0.38119745 0.29025203 -0.12906845 -0.26624012
0000a0 7d 34 13 3f 10 d6 da be c5 7b 4e bf 2a 09 89 3b
       0.57501966 -0.42741442 -0.8065761 0.0041820006
0000b0 48 ce a4 bd 86 b5 a7 be 03 96 d7 bb 21 af ed be
       -0.080471575 -0.3275568 -0.006579162 -0.46422675
0000c0 e6 a3 0a bf f9 1a aa 3e
       -0.5415634 0.33223704

net.8.weight f4 [50, 50]
000000 bd 78 d6 3d 48 ad 96 bd ae 99 23 bd 2b cc 29 be
       0.10472248 -0.073572695 -0.039941482 -0.1658179
000010 0f ed 2c 3b 45 ec 76 bd 04 fd fc 3d 51 76 d1 bd
       0.0026386415 -0.060283918 0.123529464 -0.10227645
000020 41 f7 31 3d 7f fa 68 3c 38 5a f2 bd 5e e4 f1 bb
       0.04344869 0.014219879 -0.11833614 -0.00738196
000030 95 b4 05 be a6 bc c2 3d 7f f6 1a be 59 5a a5 3d
       -0.13057168 0.09508638 -0.15133093 0.08073873
000040 b1 26 dc bd d2 5d ed be 46 78 7d bd 70 a9 a9 3d
       -0.10749567 -0.46360642 -0.06188228 0.08284271
000050 54 ed f3 3e d5 ac d2 bd 74 17 07 3e 87 94 54 be
       0.47642004 -0.10286871 0.1319254 -0.20759784
000060 bb 09 45 3d f6 8c 6b 3e 07 8a 16 3d 45 bd da bc
       0.048104983 0.23002991 0.036752727 -0.026701579
000070 ba 14 fb bd 0f 11 b1 3c ba 64 f9 bb 1b aa 4d bc
       -0.12259813 0.02161458 -0.0076108845 -0.012552763
000080 48 f9 49 3e 36 44 90 bd de 01 69 3d d9 e7 8b be
       0.19724 -0.0704426 0.056886546 -0.27325323
000090 da 06 2f 3d 77 02 a1 3e 17 5b b6 bc 38 9a 05 3e
       0.042731144 0.31447193 -0.022260232 0.13047111
0000a0 43 04 30 3e 8f ce 34 bd 96 ee 98 bd eb a3 0a be
       0.17189126 -0.044142302 -0.07467382 -0.13539092
0000b0 9f 54 cd bd ff 9a 11 bc 5e c6 15 3e a0 84 08 be
       -0.10025906 -0.008887052 0.14626452 -0.13331842
0000c0 e9 40 85 3e e9 f2 45 3c 7e aa dc be 6e d3 4d be
       0.26026085 0.01208184 -0.43098825 -0.20100185
0000d0 c7 19 9c bd 3d 46 43 bd 3a ae d8 3d e0 24 15 3c
       -0.07622104 -0.047674406 0.10580106 0.00910303
0000e0 35 10 dd 3d 39 c1 89 be 68 fc 49 3e 2c f6 b3 bd
       0.10794107 -0.2690523 0.19725192 -0.08787188
0000f0 ba 5b ac be d1 47 a0 3d e3 71 d4 be ae d2 38 3e
       -0.33663732 0.07826198 -0.4149314 0.18049118
000100 44 38 92 3d 2d e4 a5 3d 18 18 b0 3d 1b 1c 79 be
       0.07139638 0.08100162 0.085983455 -0.24327128
000110 ad 9b 46 bd 30 89 b1 3d 47 11 95 3e f1 57 b7 be
       -0.048488308 0.086687446 0.29114744 -0.3580928
000120 96 21 51 be cc f1 af 3e 26 b8 8b bd 60 a1 0f 3e
       -0.20422968 0.34364164 -0.06822233 0.14026403
000130 b7 77 b9 3a 42 89 a5 bd 84 ae 15 be 10 10 a9 bc
       0.0014150058 -0.080828205 -0.14617354 -0.020637542
000140 55 80 d6 3d 01 76 00 3d 56 b2 4a 3d 30 37 bc 3d
       0.10473696 0.031362537 0.04948648 0.09190214
000150 75 4a 88 3d b1 d9 1d 3d 3c b8 17 3e 8e 98 79 3b
       0.066548266 0.038537685 0.14816374 0.0038085314
000160 1a 63 61 3e 9a 3e d5 be 00 23 af 3d 0b 74 4e be
       0.2201046 -0.41649324 0.085515976 -0.20161454
000170 3a 08 75 3c 2e 7f 1e be 2e de e7 bd 1c ad f4 3d
       0.014955575 -0.15478203 -0.11321674 0.119470805
000180 21 37 4f bf f8 2e 41 be 6e 43 c3 3b e4 d9 6d be
       -0.80943495 -0.18865573 0.005958966 -0.2322765
000190 25 b2 db bc 6f 46 b8 3d e0 e8 13 be fd 15 34 3e
       -0.026818344 0.08997809 -0.14444304 0.17586513
0001a0 ee 4e a0 bd 5f 8d 42 3e ca 4d 23 3d 44 88 d1 bc
       -0.07827555 0.18999241 0.039869107 -0.025577672
0001b0 95 48 97 3c 15 1e 3e 3e 08 ed 56 3e f4 ac 2a bd
       0.018467227 0.18566163 0.20988858 -0.041668847
0001c0 2f ff 5a 3d ac 65 24 3e d8 9f 24 3e e4 b7 8e 3d
       0.05346602 0.1605441 0.160766 0.06968668
0001d0 26 0b 18 3e 22 be 71 3e da 55 10 be 81 c0 05 3c
       0.14848003 0.23607686 -0.1409525 0.008163572
0001e0 a4 29 0e 3e f2 64 16 bd 27 c5 f1 bd b1 0e 97 bd
       0.13883072 -0.036717363 -0.11805182 -0.07375849
0001f0 ba 18 91 3b 2a dc f2 3d 53 4e b4 3d 01 48 21 bd
       0.0044279965 0.11858399 0.08804002 -0.03937531
000200 58 8c 4f 3e ed c4 88 3d c1 1f 4c bd e0 ca 89 3d
       0.2026838 0.066781856 -0.04983497 0.067281485
000210 d3 35 40 bd 3a 9a b0 bd 74 db 01 3e 1c d5 b7 bd
       -0.04692633 -0.086231664 0.12681371 -0.08976194
000220 d5 bb a2 bc d9 94 73 be 21 3d 4a 3e ae 2b 37 3e
       -0.019864956 -0.2378725 0.19749881 0.17887756
000230 d7 7a f9 bd 1a b0 42 3d ba 15 45 3e 67 38 1c bd
       -0.12181633 0.047531225 0.1924657 -0.038139727
000240 65 93 4c 3e 21 05 07 3e 0c 8b 9d bb d9 1b 9d bc
       0.19978102 0.1318555 -0.0048078354 -0.019178318
000250 5c 44 93 3d 7b 46 be b9 05 f1 d6 bd ad fa 10 3e
       0.07190773 -0.00036292136 -0.104951896 0.14158125
000260 14 81 19 3d 3d 7f 49 3d 69 59 61 3d 73 62 b8 be
       0.037476614 0.04919361 0.05501691 -0.3601261
000270 81 a4 bc bd 8f e0 30 3e 6d c5 e6 bd c7 33 0a 3d
       -0.09211064 0.17273162 -0.11268125 0.033740785
000280 cd 12 97 be dd 74 f5 3d 93 a7 8e be 0d 1a f8 3d
       -0.2950653 0.119851805 -0.27862224 0.12114344
000290 c0 e9 83 3e b6 c4 ca bd 90 9a 27 3d 18 c4 c2 bd
       0.25764275 -0.09900801 0.040918887 -0.09510058
0002a0 75 c2 c2 bd c3 dd d6 3c 05 80 a1 be 2f 16 40 be
       -0.09509746 0.026228791 -0.31542984 -0.18758462
0002b0 06 42 66 bd 27 f6 6c 3d a3 be b2 3a f8 78 54 3e
       -0.05621531 0.057851937 0.0013637136 0.20749271
0002c0 04 4f e7 3d 14 3d c5 bd 0f 72 fe bd ac 14 0b 3b
       0.11294368 -0.0963079 -0.12424099 0.0021222038
0002d0 7f b3 a1 3d 39 a8 93 bd cf 79 78 3d 50 8c ff bd
       0.07895564 -0.0720982 0.06066304 -0.12477934
0002e0 37 d8 0d be f2 88 88 be 46 68 a9 3d aa 79 c8 bd
       -0.1385201 -0.2666698 0.08271842 -0.097888306
0002f0 7d 32 bf bc b2 1b 7a be 53 76 b4 be 4f a1 e3 bd
       -0.023339504 -0.24424627 -0.35246524 -0.111147515
000300 f7 fa b7 3e ba 79 31 bd 82 10 16 3e eb 8a 1c 3e
       0.35933658 -0.043328978 0.14654735 0.15287368
000310 81 7a 34 be cf a5 f5 bc bd 30 12 3e e1 6d 07 3e
       -0.17624857 -0.02998629 0.14276405 0.13225509
000320 21 8f c8 3c d4 47 17 bd f2 04 92 bc 34 75 0f 3e
       0.024482312 -0.036933735 -0.017824624 0.14009553
000330 ac 1e 99 3d 77 03 20 be 1d 56 bc 3d 92 69 b5 3e
       0.07476553 -0.15626322 0.09196112 0.35432106
000340 7d f1 82 3e 5a 6c 7d 3d ac 08 35 be d6 b8 28 be
       0.25574866 0.06187091 -0.1767909 -0.1647676
000350 89 08 db bb 10 e2 ae 3e 9d ac 5f 3e 9e 03 c6 bc
       -0.006684367 0.34156847 0.2184319 -0.024171647
000360 99 f0 57 3e fc 76 f9 bc 2a 06 13 3d a6 c9 10 bd
       0.21087874 -0.030452244 0.03589455 -0.035348557
000370 40 0d 6d be a4 c8 86 be e0 e5 e2 3d 57 4f 04 3d
       -0.23149586 -0.26324952 0.110790014 0.032302227
000380 f0 7e 84 3a c2 1b 34 bd ff e7 03 be 73 5e bf 3d
       0.0010108631 -0.043971784 -0.12881468 0.09344187
000390 df 18 1a be d2 ed 2a be 55 24 cf 3c e0 85 b8 3d
       -0.1504855 -0.16692284 0.02528588 0.0900991
0003a0 e6 82 1d 3e 77 eb 10 be 5f c5 ab bd 71 97 8b 3e
       0.15381965 -0.14152323 -0.08387255 0.27263978
0003b0 cc ae 0d 3e 86 1c d0 bd 62 1b c2 bd e0 fa 88 bc
       0.13836211 -0.101616904 -0.09477879 -0.016721189
0003c0 d9 c5 a8 3d 59 58 95 bb d8 38 5b be c2 e2 b8 3c
       0.082408614 -0.004557651 -0.21408403 0.022569064
0003d0 66 c1 1c 3e 5f ea 27 bd 91 a5 a3 be 8b 56 68 be
       0.1530815 -0.040994998 -0.31962255 -0.22689264
0003e0 4c cd b6 3d 5a c2 64 3e 8c 63 f2 3d f8 18 00 3e
       0.08925876 0.22339764 0.11835393 0.12509525
0003f0 c9 cc 86 be c8 46 7f be f5 17 5b bc 5c a3 00 be
       -0.26328114 -0.24929345 -0.013372411 -0.12562317

net.8.bias f4 [50]
000000 7f e9 10 3f 61 67 29 3e 44 01 81 bd bb 49 80 be
       0.56606287 0.16543342 -0.062990695 -0.25056252
000010 42 50 2a 3f 93 7e e1 be 9b 70 a5 3d 58 2d d4 be
       0.66528714 -0.4404188 0.080781184 -0.41440845
000020 96 77 50 bf b3 e4 0e 3f 96 60 59 bf c9 fa 15 3f
       -0.81432474 0.5581772 -0.84913003 0.5858579
000030 1b f0 94 bf d5 c9 80 be 14 5b 18 bf 12 85 2b 3e
       -1.1635774 -0.25153986 -0.59513974 0.16749981
000040 93 b2 9f be de 25 22 bf 68 58 38 bf fe b2 01 be
       -0.3119093 -0.6333903 -0.720099 -0.12665936
000050 ef 06 9d be 3e 0a 78 be a2 0b 2b 3f ae a9 16 bf
       -0.30669352 -0.24222657 0.66814625 -0.5885266
000060 1d 55 d8 bb 7a 24 59 bf 0b a3 1e 3f 6d ef 85 be
       -0.006601943 -0.84821284 0.61967534 -0.2615923
000070 1d e0 f0 bd cd 1f 31 bf 90 b0 1f bc fc 92 db 3d
       -0.11761496 -0.6918915 -0.009746686 0.107213944
000080 e1 2e f2 3e 4c 8d 51 3f 6c c9 4c be 40 8c 93 3e
       0.4730139 0.81856227 -0.19998711 0.2881794
000090 d0 84 ad 3d b1 8c 46 3e 6c a7 9c bd a3 ab d4 be
       0.084725976 0.19389607 -0.07649121 -0.41537198
0000a0 21 aa 0c be c8 92 8d 3e 2f 84 fd 3e 5b b9 fb be
       -0.13736774 0.27651048 0.4951491 -0.49164852
0000b0 55 75 87 3e 70 83 3b bf f9 07 a7 be 77 1f 8a 3e
       0.26456705 -0.7324743 -0.3262327 0.2697713
0000c0 4d 7e 9f 3c db 84 19 be
       0.019469405 -0.14992087

net.10.weight f4 [50, 50]
000000 db a6 10 3e bc 03 44 3e 26 09 ce bb 9f ad 94 3d
       0.1412615 0.1914205 -0.0062877117 0.07259678
000010 10 ac 4f 3e 5c dc 9a bd e5 5a 1e 3e b1 49 53 3d
       0.2028048 -0.075615615 0.15464361 0.05158395
000020 d6 f7 44 bd 55 a8 7b 3d 85 90 bf bd 52 c5 b5 3d
       -0.048087917 0.06143983 -0.09353737 0.088755265
000030 f3 45 43 bd d6 2f 96 bd 63 a5 28 be e4 bf 93 3b
       -0.04767413 -0.07333343 -0.1646934 0.004508959
000040 f7 4c ac 3d 0c 2e a6 bd 54 89 8c 3b 03 2f 29 3e
       0.084131174 -0.081142515 0.0042888317 0.1652184
000050 f3 25 3d bd 1a 5c 2b 3e aa 97 07 3d 9c 1e e8 3d
       -0.04617877 0.16734353 0.033103622 0.11333963
000060 25 9b dc 3e 54 f6 09 be 44 cd 0a 3e 7d 4f 40 3d
       0.43087116 -0.13472873 0.13554865 0.046950806
000070 05 30 1a 3d 88 ab 43 bd 7c 07 84 3d 0e 47 a8 3d
       0.03764345 -0.047771007 0.0644674 0.082166776
000080 ee e8 d5 3d c9 ef 71 3d 1a 3b 3d 3b 43 8c b9 3d
       0.104448184 0.059066568 0.0028874339 0.09059956
000090 2a fe 01 be 0c 13 5e 3e 7a bb c3 bc a3 03 90 bd
       -0.12694612 0.21686953 -0.023893107 -0.07031944
0000a0 87 10 a9 3c 34 72 6b bd 78 85 d1 3d f3 87 ca 3c
       0.020637764 -0.05748196 0.10230535 0.024723029
0000b0 eb d9 22 bd b4 a7 ee bd 78 82 72 3c 20 74 8a bd
       -0.039758604 -0.116530806 0.014801614 -0.0676043
0000c0 02 06 1d 3d 08 5b 0c 3e c0 70 86 3b ab 41 73 3d
       0.038335808 0.137066 0.0041027963 0.059388798
0000d0 69 c9 cc bd 00 08 1b be 69 b1 ba 3c a2 b8 c1 bd
       -0.099993534 -0.1513977 0.022789674 -0.09459044
0000e0 c7 3d ca 3d 04 fa d7 3a 1f 00 59 3d 90 06 fa bd
       0.09875064 0.0016477709 0.05297863 -0.12208283
0000f0 93 e6 36 be bd 4e 09 bd 10 c1 65 bb d4 81 27 be
       -0.17861395 -0.033522356 -0.0035057701 -0.16358119
000100 2b f6 8c bd d8 e9 91 bc c5 b0 24 be e7 77 a7 bd
       -0.0688289 -0.0178117 -0.16083057 -0.081771664
000110 94 86 11 be fd 14 dc 3c 78 73 3a bc 77 53 1d be
       -0.14211494 0.026865477 -0.011380069 -0.1536387
000120 9b 84 f2 bd 92 cb a9 bc a0 ea 3c bd b8 70 10 be
       -0.11841699 -0.020726953 -0.046122193 -0.14105499
000130 62 dc 18 be 8b 81 bd 3a db 1a cb 3d 1e af a4 3d
       -0.1492782 0.0014458162 0.09917232 0.080412135
000140 56 e0 c1 bd 57 6a 07 bc 55 83 7e b9 1c af 0c be
       -0.09466617 -0.0082650995 -0.00024272253 -0.13738674
000150 45 28 83 3b 52 ac ff 3b 77 63 3e bd 13 38 88 bd
       0.0040026032 0.0078025246 -0.046481576 -0.0665132
000160 61 b5 73 ba 2d 80 b7 bb cc 5b c7 3d 31 40 2d bd
       -0.0009296742 -0.0055999965 0.09734306 -0.042297546
000170 53 c3 62 3d b2 81 17 be 68 0d 87 bd 84 bb 9c bc
       0.055362057 -0.14795569 -0.06594354 -0.019132383
000180 f4 d8 eb 3c ad b3 d9 bc 21 c6 0a 3e 76 63 91 bd
       0.028789975 -0.026574934 0.13552143 -0.07099049
000190 cd 33 c3 be 3d 55 3a be 26 21 63 bb 6e 02 23 3e
       -0.38125458 -0.18196578 -0.003465721 0.15918896
0001a0 38 ab 41 3d 2f 65 7c be 29 d6 0b 3d 54 aa 35 3d
       0.047282428 -0.24647973 0.034139786 0.04435189
0001b0 1d 47 81 3e d3 88 0d bc eb bd 35 be bf c0 ca bd
       0.25249568 -0.0086385785 -0.17748229 -0.09900045
0001c0 6d 6d 3e bc 38 d8 62 bf e8 42 74 3e d2 36 82 bc
       -0.011622769 -0.88611174 0.23853648 -0.015895281
0001d0 af a8 8d 3d ad 86 0d be 51 c6 d9 3e 0d 8c 08 bd
       0.069169395 -0.13820906 0.42534116 -0.033336688
0001e0 eb 0f de bb 98 6c 7e 3d ae b8 24 3e 16 d2 5b 3d
       -0.0067768 0.06211528 0.16086075 0.05366715
0001f0 aa a7 97 bd 8c 08 13 3e b4 7f f1 bd 93 12 a2 bd
       -0.07405026 0.14358729 -0.117919356 -0.07913699
000200 97 44 c1 3e 8a c6 00 be 61 5e 46 3d 14 d1 4a bd
       0.37747642 -0.12575737 0.04842985 -0.0495158
000210 3c ec ce bd 7a 64 02 bf 26 47 8d 3e 2a c1 78 be
       -0.10103652 -0.50934565 0.27593344 -0.24292436
000220 ae 69 a4 be 16 0b 04 3e 1a 53 d8 bc 98 83 55 3e
       -0.32111877 0.12894854 -0.026406813 0.2085098
000230 8b 42 e8 3c c7 d2 47 3e 7b 72 5b 3e 0a 73 20 bc
       0.028352043 0.19513999 0.2143039 -0.009793052
000240 21 e1 09 3e 26 47 9a be 53 37 01 3e 85 38 b0 3e
       0.13464786 -0.30132407 0.12618761 0.3441812
000250 5c 42 24 bd 1b a0 ff 3d 3e df 15 bd 93 1a 58 bd
       -0.040102348 0.124817096 -0.036589853 -0.05275972
000260 30 ab d1 bd 0e 4c 8a 3d 92 e6 6b be 0a d0 a9 3d
       -0.102377295 0.067527875 -0.23037174 0.082916334
000270 7e 31 3d bd ae ef af 3d 98 95 85 bd 26 61 07 3e
       -0.046189778 0.08590637 -0.06522673 0.13220653
000280 f6 14 27 3d 41 17 ec 3d 7b 5f 0f 3e 58 5b d0 bd
       0.040791474 0.11527873 0.14001267 -0.101736724
000290 9f 3d 06 be 4a 15 ef bd 17 ee b5 be 68 27 bd 3d
       -0.13109444 -0.116739824 -0.3553321 0.09236032
0002a0 5e d7 53 3e 79 c4 3e bd c2 36 42 3e a2 34 da 3d
       0.20687625 -0.04657409 0.18966201 0.1065457
0002b0 0f eb e9 bc 85 61 3f bd 9a 6e 1a be 52 6b 59 bd
       -0.028554467 -0.04672386 -0.15081254 -0.053080864
0002c0 34 0f 03 3b 8d 84 02 3e 24 55 13 3e f1 f7 d7 3c
       0.0019998075 0.12745877 0.14387947 0.026363345
0002d0 9a c0 ec 3c 0e a4 a6 bd eb e1 bd bd 98 f4 0f 3d
       0.028900433 -0.0813676 -0.09271606 0.035145372
0002e0 2b 83 2a 3e 38 39 c2 3c e4 8c 27 3c 4c ff 52 3d
       0.16651599 0.023708925 0.010226462 0.051513
0002f0 a6 5f 84 bd f5 5f 36 be cc 1c dc 3d 46 ce c9 3d
       -0.06463556 -0.17810042 0.1074768 0.09853797
000300 ef 8d 87 3e 44 87 a8 3d 7e 84 18 3e 9b b6 f5 39
       0.26475474 0.08228925 0.14894292 0.00046866093
000310 85 85 ab bd e3 81 ef bb 86 19 e5 3b e2 97 58 3e
       -0.08375076 -0.007309185 0.006991568 0.21151689
000320 39 12 0c be 94 19 36 3d 70 b2 dd 3c f3 db 64 bd
       -0.13678826 0.044457987 0.027062625 -0.055873822
000330 db 8a d1 bc f2 66 2d bc a7 d3 99 3d 07 17 ea 3b
       -0.025578907 -0.010583626 0.075110726 0.0071438584
000340 16 0b d4 3d 73 70 16 bc 31 25 99 bc 21 ed 3f bd
       0.10353677 -0.009182083 -0.018694492 -0.046857003
000350 1e 3c 39 be f9 2e 6e bd 39 5b bb bd 7a 70 68 be
       -0.18089339 -0.058150265 -0.09148259 -0.22699156
000360 6b 10 d1 bd 30 4a 5a bd eb 5d 0c 3e 8a 9b 49 3c
       -0.102082096 -0.053293407 0.13707702 0.01230515
000370 07 4b 01 be dd 45 17 be 63 da 65 be ee 00 21 be
       -0.12626277 -0.14772744 -0.22446589 -0.15723011
000380 f3 cd b1 3d 43 3a 0c bd 5c 10 4b bd 6c c0 b5 3d
       0.0868186 -0.03423525 -0.04957615 0.08874592
000390 73 b8 01 be fe e0 6d bd dd 4e 0f bd fc 37 c1 bd
       -0.12668018 -0.058075897 -0.03498732 -0.09434506
0003a0 05 21 22 be 2e b9 ec bd 17 e1 74 bd 22 7c 75 bd
       -0.15832908 -0.11558758 -0.059784975 -0.059932835
0003b0 b4 e3 cd bc 39 93 f9 bd 55 f3 ae bb cf 85 91 bc
       -0.025132991 -0.121862836 -0.005339066 -0.017764
0003c0 df 09 bc bd fb 75 cb bd 11 b1 74 bd a3 40 1f 3c
       -0.0918157 -0.09934612 -0.059739176 0.00972
0003d0 0e 63 52 bd dd d7 12 bd 78 db 3e 3c ea ff 48 bd
       -0.051363997 -0.035850395 0.011649005 -0.049072184
0003e0 ce f4 10 3d ed 8e bb 3c a7 b8 ad 3d 74 90 36 bd
       0.035389714 0.0228953 0.08482485 -0.044571355
0003f0 c4 d2 b3 bd 72 cb 94 3d b6 a3 11 be 69 94 19 3e
       -0.08780435 0.072653666 -0.14222607 0.1499802
