data/models/cifar/cifar_50x12.pth (torch, 737493 bytes, 26 tensors)

net.0.weight f4 [50, 3072]
000000 4b 92 08 3d 2d 4d 74 bc 90 87 73 bc 1b ae 8f bd
       0.03334264 -0.014910978 -0.014863864 -0.0701563
000010 52 c7 f5 bc a9 58 a9 bd a6 99 fd bc 28 09 02 3d
       -0.03000227 -0.08268864 -0.030957054 0.031747013
000020 33 07 c8 3b 07 78 39 bc 03 c8 a1 bc 47 dd 06 bd
       0.006104374 -0.011320121 -0.019748693 -0.03292587
000030 95 6c 14 3d dd f5 77 3c 54 2c 10 3d 72 27 c1 3c
       0.036236364 0.015134302 0.035198525 0.02357838
000040 8e 55 f4 bc ab 69 91 bc 1a 37 0c bd 0e cd a1 bc
       -0.029825952 -0.017750582 -0.034232236 -0.019751098
000050 d2 09 44 bc 9a 1e a3 3b 9d b1 62 bc 2c 7d 95 bb
       -0.011965232 0.004978013 -0.013836292 -0.004562041
000060 17 f6 d5 bc c3 54 ca bc 2f c4 00 bd e1 58 85 bb
       -0.026118321 -0.02469862 -0.031437095 -0.004069433
000070 31 ef 89 3b 60 52 90 bd dc 07 8f bc 82 0d 48 3d
       0.004209422 -0.07046962 -0.017459802 0.048841007
000080 e4 02 3a bc c5 c7 9a 3b 4d ef f4 bc 27 4a f8 ba
       -0.011353228 0.0047235214 -0.029899264 -0.0018942998
000090 06 69 ef bb fb 81 b8 bc 53 00 4c 3b 59 c5 48 3c
       -0.007306221 -0.022522917 0.0031128123 0.012254083
0000a0 5c 2c 00 3d f3 55 12 3d d4 41 78 bb a2 ac 8a 3c
       0.031292304 0.0357265 -0.0037881033 0.01692802
0000b0 79 5b c8 3c 8d 77 22 3d 09 3a 7c 3d c0 97 81 3d
       0.02445768 0.039664794 0.061578784 0.06327772
0000c0 7b fa a5 bc b2 67 e1 bc 00 66 d1 bc d9 52 6e bd
       -0.02026104 -0.027515266 -0.025561333 -0.05818448
0000d0 62 8a db bc 6f b6 ac 3c c7 cb 04 bd bd 53 ba 3c
       -0.026799385 0.021083085 -0.0324209 0.022745008
0000e0 b8 d0 c6 3c 9c 35 11 bc 35 32 e1 bb fe df 87 3c
       0.024269447 -0.008862879 -0.00687244 0.0165863
0000f0 0a 58 62 bc 54 30 c9 bc 39 9d f3 bc 4a 18 11 bb
       -0.013814935 -0.024559177 -0.029738056 -0.0022139722
000100 4b 75 6d bc a1 29 fe bc f2 5e 70 bd e7 c3 93 bc
       -0.014493297 -0.03102571 -0.058684297 -0.01803775
000110 10 86 1d 3d 0b 91 90 3c 68 76 98 bc 8a 24 83 bc
       0.03845793 0.017647287 -0.018611148 -0.016008634
000120 07 5c 38 bc 90 22 96 3c 5f 9f 59 bc a4 cc 34 3c
       -0.01125241 0.018327028 -0.013282626 0.011035118
000130 81 04 d3 3c 83 b2 fa 3c dd 0f a8 3c fd 25 47 3c
       0.025758984 0.0306027 0.020515377 0.012155053
000140 8a af 08 bd 29 09 00 bd 0d a5 11 bd ae 0f 81 bd
       -0.033370532 -0.031258736 -0.035557795 -0.06301819
000150 d4 6b 72 bd d2 69 99 3c 83 d2 e2 3c db 38 0b 3d
       -0.059184864 0.018727217 0.02768827 0.03398977
000160 2d 2d d6 3c 55 07 04 3d fd 47 5b 3d dd 15 05 3d
       0.026144588 0.032233555 0.05353545 0.032491554
000170 ad b9 07 3d 20 09 07 3d 94 db 7c bb f1 cd 08 bc
       0.03313606 0.032967687 -0.0038583027 -0.0083498815
000180 63 19 64 3c c3 88 08 3d 10 d3 02 3d 5b 1a 34 bb
       0.013922068 0.03333355 0.031939566 -0.002748153
000190 6e 4c c6 3c 5d 7f ac 3c 0b d8 80 bc b4 ae 4d 3c
       0.024206366 0.021056825 -0.015728017 0.0125538595
0001a0 53 c1 ad 3c 63 8e 1a 3c 43 f2 df 3b b4 c0 ca 3a
       0.021210348 0.009433362 0.0068343 0.0015468807
0001b0 c7 5f 83 3c 56 90 f0 bb 0f cb 6b bc f0 d3 93 3c
       0.016036881 -0.007341425 -0.014391675 0.018045396
0001c0 86 c7 07 3d 9f d8 ad bc 3d e6 16 bd 2a 5f 3b bd
       0.033149265 -0.021221457 -0.036840666 -0.045745052
0001d0 46 0e 03 bd ec a5 96 3c 0d bf 99 3d ee 9e 07 3d
       -0.031996034 0.018389665 0.07507143 0.03311055
0001e0 7b f9 d3 3c ae f9 8b 3c e0 92 53 3c 0a 1d ef 3c
       0.025875797 0.01708683 0.012913436 0.029188652
0001f0 32 b0 11 3d 3d 8b f0 3c dd 57 b0 3c ac 58 a8 3b
       0.035568424 0.029363269 0.021526271 0.0051375236
000200 03 55 36 bc 94 d0 d4 3c 35 3a 93 3c 44 c8 9e 3b
       -0.011128667 0.025978364 0.017972091 0.004845651
000210 14 35 02 3c fe 42 26 bb 6e 2f 04 3d 7e 4d 8f 3d
       0.007947225 -0.002536952 0.032271795 0.06997202
000220 a1 94 a5 bc 23 8e 96 3b f8 05 07 3d d9 81 9f 3a
       -0.020212473 0.0045945807 0.032964677 0.0012169435
000230 ed d4 94 3b 47 4c e7 3b cf 07 15 bd 62 e6 fb 3c
       0.0045419843 0.0070586535 -0.0363844 0.030749504
000240 b8 31 1f 3c 70 ac 02 bc dc 27 49 bd e3 0d de bc
       0.009716444 -0.007975683 -0.04911028 -0.027106231
000250 50 0b e5 3a 15 4a ae 3c 33 29 61 3d e0 b5 94 3c
       0.0017474685 0.02127556 0.05497093 0.018153131
000260 54 f1 6f ba 88 73 82 bc 03 e4 0c bd eb c6 b2 3c
       -0.0009153087 -0.01592423 -0.034397136 0.021823367
000270 d9 7d fa 3c 65 9e c9 3b 52 bb bb bb 83 a3 a4 bc
       0.030577587 0.0061529153 -0.0057291174 -0.0200975
000280 ed 68 58 3d f0 6f 30 3c 28 a7 0a bd 9b 29 8f b9
       0.05283444 0.0107688755 -0.03385082 -0.00027306084
000290 6b 41 b5 3c d2 45 ea 3c da e6 46 3b 04 12 c2 3c
       0.02212592 0.028597746 0.003035 0.023690231
0002a0 f2 9b d2 bc 2f d7 1e bc 92 04 a3 3c 23 84 a8 3c
       -0.025709126 -0.009694858 0.01989964 0.02057082
0002b0 a4 4a 1f bc 10 47 97 bc 17 96 83 bd 40 83 4b 3c
       -0.009722386 -0.018466502 -0.06425112 0.012421429
0002c0 2c 27 15 3c 68 f8 29 bc 10 72 92 3b 6d 4e 14 3c
       0.009103578 -0.010374166 0.0044691637 0.009051901
0002d0 28 2b e0 3b a6 f1 59 3d f4 ff 3b 3d e4 f6 36 3d
       0.006841082 0.05320897 0.045898393 0.044669047
0002e0 64 06 64 bc fd c4 9f bd fe 0b ec bc a6 fa 7e 3c
       -0.013917539 -0.078012444 -0.028814312 0.015562689
0002f0 bf 99 17 3c d0 ea 8a bc 96 9d c7 bb fe 96 93 bc
       0.0092529645 -0.01695767 -0.0060917838 -0.018016335
000300 08 89 0f 3d b1 07 51 bb cc 17 3c 3a b8 13 0b 3d
       0.035042793 -0.0031895454 0.0007175177 0.033954352
000310 cf 2b 8a 3c 5b c7 b5 3b 6c 5b 02 3b af 6e 2e 3d
       0.016866593 0.0055474467 0.0019890917 0.042586025
000320 57 10 0f bb 31 97 aa bc a1 a1 31 3d 84 c7 01 3d
       -0.0021829808 -0.020824047 0.043367032 0.031684414
000330 55 6e 89 3c 07 83 56 bd fe 1a 38 bd 78 55 f7 3b
       0.016776243 -0.05237105 -0.044947617 0.0075480305
000340 30 0e fd bc 16 9f 8e 3a be fc d0 3c 51 1c 05 bc
       -0.030890554 0.0010881152 0.025511142 -0.008124427
000350 ea a8 29 3c 9f 6d d7 3c e6 65 dc 3c 68 7e 83 3d
       0.010355214 0.026297389 0.026904058 0.064205945
000360 59 ed ea 3c 00 56 41 bc 72 e3 d4 3b d9 4d 82 3d
       0.02867763 -0.011800289 0.00649684 0.063625045
000370 e3 f9 01 bb 6b 1f ca 3b d8 55 25 3d ed cb 17 bc
       -0.0019832782 0.006168296 0.04036507 -0.009264928
000380 c6 59 1e 3d 52 c9 4f 3d f3 8e de 3d 0f 1e dc 3c
       0.038659833 0.050729103 0.10867109 0.026869802
000390 05 66 9b 3b bb 75 e9 3c f0 91 c1 bb b9 b8 ae 3c
       0.0047423863 0.028498521 -0.0059072897 0.021328317
0003a0 dd 27 9a bc be e7 89 bc 8b 5d 57 bc ba dc 46 3b
       -0.018817836 -0.016834136 -0.013144861 0.0030343966
0003b0 ec 72 4c 3b e9 b7 ae bb 00 1b 30 bc 6f e4 d6 bb
       0.0031196428 -0.0053319824 -0.010748625 -0.006557993
0003c0 e9 53 b4 bc 41 b1 71 bb c5 7d 7c bb c3 00 1a bd
       -0.022012668 -0.0036879333 -0.0038527113 -0.037598383
0003d0 d1 c2 c7 3c 8d 77 39 3d 31 c3 24 3b ec 31 02 3d
       0.024384888 0.045280028 0.0025140757 0.03178589
0003e0 23 7a 46 3d 20 e4 fe 3c 90 e9 38 3d 08 fb 69 3d
       0.048456322 0.031114638 0.045144618 0.057124168
0003f0 b3 ae 83 bb 90 8f e7 3c 03 da 6c 3d 47 b6 62 3d
       -0.0040186285 0.028266698 0.0578251 0.055349614

net.0.bias f4 [50]
000000 08 39 f7 3c a6 d4 e5 bd db 9d ae bc 53 67 9a bc
       0.030178562 -0.112222 -0.021315506 -0.018848097
000010 41 7c 3c 3d a6 ac 8e 3b fa 10 4b bc 29 9d ec bb
       0.046016935 0.0043540774 -0.012394184 -0.0072208834
000020 28 ac 26 3c 6d 60 aa b9 11 00 ea ba 43 99 76 3a
       0.010172881 -0.0003249677 -0.0017852803 0.0009406993
000030 07 fe 2d be 63 5d 3f 3c 39 8d 8b bc 5b 3b e9 ba
       -0.16991435 0.01167998 -0.017035114 -0.0017794179
000040 f6 ae 76 3b 1c a4 b1 3d 99 cb c6 3b ba dc 03 bc
       0.0037640906 0.086738795 0.006066751 -0.008048231
000050 2e 47 12 3d 9c f3 c0 3b 64 f6 be ba 4a 8c 53 bc
       0.035712413 0.0058884155 -0.001456928 -0.0129118655
000060 c3 ea 7c 3c 74 db 42 bb 40 af 18 3e 4a 70 64 bc
       0.015436831 -0.0029732855 0.14910603 -0.013942787
000070 58 bb 3b bb 50 3b e0 bb 86 87 84 bd bb f3 35 3c
       -0.00286456 -0.006843008 -0.064711615 0.011105473
000080 c4 d6 93 be 73 a4 86 3e a5 ce cd bb 99 3c 68 bc
       -0.2887479 0.2629734 -0.0062807375 -0.014174604
000090 6b 18 0c 3e 7d f2 ca 3d ab ec 04 be 73 3b 8a bb
       0.1368119 0.09909532 -0.12980907 -0.0042185127
0000a0 f2 8e 2f 3c fd 75 93 bc 52 ab d7 3c 05 c5 44 be
       0.010715233 -0.018000597 0.02632681 -0.19215782
0000b0 8f 12 8f 39 7b 3e 9e bc 44 f0 c7 bc d9 1c 28 3e
       0.00027288913 -0.019316902 -0.02440656 0.16417255
0000c0 7f ef c6 bd 53 46 f1 3d
       -0.09713649 0.117809914

net.2.weight f4 [50, 50]
000000 56 a2 22 3d d3 4c 80 bd d1 69 0f 3e 1a b7 21 bd
       0.039705597 -0.06264653 0.1400521 -0.03948126
000010 a2 00 41 3d 55 ea a4 3c 9b 1b 62 3d 20 b5 7e bd
       0.047119744 0.02013127 0.055202108 -0.062184453
000020 f8 a4 8b bd b8 ec 49 bd fa 56 33 3d 86 5e 0b 3e
       -0.06818575 -0.04929802 0.04378412 0.13610277
000030 85 eb ba be 48 26 fd bd ed f8 b3 3d 76 0b ea bc
       -0.36507812 -0.12360817 0.08787713 -0.028569918
000040 94 45 cd 3d 8b d2 5f bc 0e 96 29 3d b1 e6 d3 3c
       0.100230366 -0.013661037 0.04140287 0.025866838
000050 4b 11 de bd a9 5c 0b 3e 06 ab 09 3e 1d 7c c8 bd
       -0.10843142 0.13609566 0.13444147 -0.09789298
000060 0b f9 0d be 5a 6c 6b 3d b7 02 ca 3c b8 f4 01 be
       -0.13864534 0.05747638 0.024659498 -0.12691009
000070 6d 24 f0 3c 23 e3 d8 bd 57 1d 55 bd 99 ae bc bd
       0.029314244 -0.10590198 -0.052029934 -0.09212989
000080 f3 25 47 be 0e 9b f0 bd e4 f4 1b bd e3 b4 84 3d
       -0.1944807 -0.11748324 -0.038075343 0.06479814
000090 d5 59 c7 3d 43 d5 e0 3d c5 61 66 bd 15 ba 8f bb
       0.09733931 0.109781764 -0.056245584 -0.0043861964
0000a0 6e fc 34 3d ee 93 ef 3d ae 3a 1a 3e 1b c2 aa bd
       0.04418605 0.11698137 0.15061447 -0.08337804
0000b0 3e 11 09 3d 24 dc b8 bd b4 54 03 3e ad 2a b3 bb
       0.03346371 -0.090263635 0.1282528 -0.005467734
0000c0 43 c1 90 bd bc b7 0a 3e ae 46 1c 3d d9 8e 27 be
       -0.07068112 0.13546652 0.038153343 -0.16363086
0000d0 4c 3e d0 bd 7f a3 72 3d ca d8 0b be 13 61 48 bd
       -0.10168132 0.059237953 -0.13656917 -0.048920702
0000e0 ac ef b1 bd 2a e5 0c bd ac 71 02 3e 7d 8e 30 3c
       -0.08688292 -0.034398235 0.12738675 0.010776159
0000f0 e4 d5 e3 bd 52 83 9d 3d c1 ce 23 3d bb ca 7b 3d
       -0.11124781 0.07691063 0.039992098 0.061472636
000100 3d fb 2d bd de 5f 5d bd 36 02 4e bd bf f4 38 be
       -0.042475928 -0.054046504 -0.050295077 -0.18062113
000110 c3 8a 0a bd c9 c9 f0 3d 15 b2 e7 3c 44 f7 9b 3d
       -0.03382374 0.117572375 0.028283158 0.076155216
000120 2c 61 16 3c 9e c1 a1 3d 50 e0 55 3d 9e 9c 0e be
       0.009178441 0.07898258 0.052215874 -0.13926932
000130 d4 98 03 be eb 7d f1 3d 67 e4 36 3d 36 ef b3 bd
       -0.12851268 0.11791595 0.044651415 -0.0878586
000140 70 31 1a be 55 6d 16 3d 16 85 d4 bd e8 b7 3f 3d
       -0.15057921 0.03672536 -0.10376947 0.046806246
000150 13 37 8d 3d fd 92 a0 bd 5c 18 8e 3c 47 19 10 be
       0.0689527 -0.07840536 0.0173456 -0.14072143
000160 11 e2 6e 3b 30 6a 94 bc 7d e3 91 3d 9b 35 3f bd
       0.0036450664 -0.01811704 0.07123468 -0.04668198
000170 f2 15 b4 3d e2 37 0c 3e 80 b4 28 bc af ed 90 bd
       0.08793248 0.13693193 -0.010296941 -0.070765845
000180 c6 9d 8c 3e 7f 14 c5 3d 1e 32 aa 3d cb b4 28 bd
       0.27464122 0.0962305 0.0831034 -0.041188043
000190 18 c1 86 3d 99 92 17 3e 7f c2 c0 bd c3 61 81 bd
       0.065797985 0.14802016 -0.09412097 -0.06317475
0001a0 8f 1a 07 3d 1c 0f bb bd 74 e4 d2 3d 34 37 cd 3d
       0.032984313 -0.09133741 0.1029748 0.10020295
0001b0 25 c2 72 3d 5d 08 d1 3c 6e c9 37 bc 75 7a f7 bd
       0.059267182 0.025516683 -0.011217458 -0.12083904
0001c0 3b 89 2b 3e 9f 5d 9c 3b dd f2 01 be 51 a7 42 bd
       0.16751568 0.0047719027 -0.12690301 -0.047522847
0001d0 a5 38 07 bd a1 0f f4 3d fc 45 28 3d 9a 60 3f bd
       -0.033013005 0.119170435 0.041082367 -0.046722986
0001e0 5b cd 9d be 60 06 9d 3c f5 36 2e bd e8 97 b6 bd
       -0.30820736 0.019168079 -0.04253288 -0.089156926
0001f0 b5 bc 8e 3c 9d 9e b7 bc f3 a9 09 be 7e 70 e1 3d
       0.017423967 -0.0224145 -0.13443737 0.11007784
000200 90 d1 ad 3d 23 f1 65 3c f7 76 0a 3e fd d9 bb 3b
       0.084872365 0.014034542 0.13521944 0.0057327733
000210 ee 59 be 3b 26 13 02 be f7 9b 02 3d 6a 68 6b 3d
       0.0058090603 -0.12702617 0.03188702 0.057472624
000220 d9 a1 9a bd 9a d9 8e 3d ee 47 b3 3d d8 b5 75 bd
       -0.07550401 0.06975098 0.08753954 -0.059987873
000230 16 19 93 bd 95 01 e4 bd 84 49 c0 3d 25 5d 27 bc
       -0.07182519 -0.11133114 0.09389022 -0.0102150785
000240 d3 48 09 3e a7 8a bd 3c 47 95 00 3d 0f b7 6e 3d
       0.13406686 0.023137404 0.031392362 0.058280047
000250 e8 60 e1 3d d9 00 06 3d 05 96 1d 3e 16 9b 76 3d
       0.110048115 0.032715652 0.15389259 0.060206495
000260 4a ca 6f 3d b1 a5 d5 3d 7d 52 fe bc 97 44 82 3c
       0.058542527 0.10431994 -0.031045193 0.015901847
000270 5f 02 d5 bc 6c ba 9f bc b4 2c ba 3d f3 1d a5 bd
       -0.026002107 -0.019498073 0.09090558 -0.08062353
000280 6a 92 e6 bd 2c a6 9f bd 4e f1 d2 bd 52 d3 f4 3d
       -0.11258395 -0.07795367 -0.102999315 0.11954369
000290 bd 5d 07 be 9d 42 27 3d a9 df 7c bc e3 d6 8f 3d
       -0.13219352 0.04083501 -0.015434184 0.07023408
0002a0 d1 70 fe bc 18 d2 e2 bd 19 d8 f0 3d d4 72 e0 bd
       -0.031059654 -0.110752285 0.11759967 -0.10959402
0002b0 d5 1f 3e 3d 41 e4 79 3c 05 3a 81 3d 50 bb a5 3c
       0.046417076 0.015252174 0.063098945 0.02023092
0002c0 6c 93 2d 3e e3 c5 e5 bd 9f 7b fc 3d a8 5d 90 bd
       0.16950768 -0.112193845 0.12328266 -0.070491135
0002d0 cc 76 b2 bd bd 4d 24 bd c7 ad e0 bd 1c 72 9d bc
       -0.08714065 -0.0401132 -0.109706454 -0.01921945
0002e0 2c 34 c6 bd d0 b5 24 bd 3b 37 bc 3d 0b ad 30 be
       -0.0967792 -0.040212452 0.09190222 -0.1725351
0002f0 91 84 16 3d 37 83 69 bd 0a af 18 3d 67 85 c3 bc
       0.03674752 -0.0570099 0.037276305 -0.023867322
000300 ca 81 64 3d 2b 35 38 bc 56 a3 be 3d 43 d7 bc 3c
       0.05578784 -0.011243145 0.093084976 0.023051864
000310 05 b9 1b 3d 60 03 37 bd db bb 82 3c 62 aa 6d be
       0.038018245 -0.044680953 0.015958717 -0.23209527
000320 a1 1e 64 3e ae 45 d2 3d 59 a7 3f 3c b9 e3 2e bd
       0.22277309 0.102671966 0.011697614 -0.042697642
000330 71 33 67 3a 0f 49 04 3e 5b dc 08 be 61 e3 31 3b
       0.0008819616 0.12918495 -0.13365309 0.0027143585
000340 02 33 95 3d 27 9e 7e 3d 1f be 0c bd 8d 2a f0 3c
       0.072851196 0.062162545 -0.034361 0.029317165
000350 e3 0e 61 bd 27 36 a5 bb 43 28 d1 bd 0b e8 eb bd
       -0.054945838 -0.005041856 -0.102127574 -0.11518868
000360 02 89 03 3e 7a 28 0f 3e 89 1b bb bd ba fe 37 bc
       0.12845233 0.13980284 -0.09136111 -0.011230165
000370 66 c0 94 3d 0d 15 05 3e 3e 1d b6 3c 40 38 02 3e
       0.072632596 0.12996311 0.02223074 0.1271677
000380 c9 3e 1c 3c f7 39 3c 3d 71 7b 95 bd 9c f0 53 bc
       0.0095364535 0.045953717 -0.07298935 -0.012935784
000390 57 60 9d 3d 90 24 c6 3d 3a 8f 56 3d 3b eb b3 3d
       0.07684391 0.096749425 0.052382685 0.08785101
0003a0 4b 78 0b 3e d6 69 50 3c a2 65 8e bd ed 6e c7 bc
       0.13620107 0.012720546 -0.06952979 -0.024344886
0003b0 59 b3 5c bd 99 69 06 be 91 7c 0d bd e7 26 bc bd
       -0.053881977 -0.1312622 -0.034542624 -0.091871075
0003c0 2a 28 22 3b f1 ae 13 3d 5c 47 e8 bd a3 7b f3 3d
       0.0024743178 0.03605551 -0.11341736 0.11888816
0003d0 20 c9 9a 3d f6 1b 90 bc 81 54 4a 3d 70 37 cb bd
       0.07557893 -0.017591458 0.049396995 -0.09922683
0003e0 de 23 e8 3c cb 2e 27 bd b0 54 3c be ed 51 5e 3e
       0.028337415 -0.04081611 -0.1839168 0.2171094
0003f0 44 57 2f 3d b3 4b 91 3d 8c 6f 3a 3e a1 8a b9 3d
       0.042807832 0.070945166 0.18206614 0.090596445

net.2.bias f4 [50]
000000 cd fb d0 3d e6 75 51 3c 2b c0 a1 be bd 96 b0 3d
       0.10204277 0.012784457 -0.31591925 0.08622501
000010 25 87 ef bd eb 12 2b bd 92 d7 39 bd 07 83 87 be
       -0.11695699 -0.04176609 -0.0453716 -0.26467153
000020 90 44 34 bd f1 86 28 3c 0f f9 02 3e e8 47 be bd
       -0.0440107 0.010286079 0.12790321 -0.09291059
000030 58 7e 9b 3d a0 31 43 bd f6 ab 80 3d 97 06 04 3e
       0.075924575 -0.047654748 0.06282799 0.12893139
000040 07 d9 03 3d 7e b4 55 be 72 5d 25 3e 77 fd 07 bd
       0.032189395 -0.20869634 0.16148928 -0.033200707
000050 16 b6 8b be a0 52 97 3d 47 3c 96 3d 08 c9 1a bd
       -0.27287358 0.07388806 0.07335716 -0.037789375
000060 d3 04 7c bd fa 50 36 be b8 18 78 be 67 84 55 3b
       -0.06152804 -0.17804328 -0.2422818 0.0032580139
000070 33 46 fc bd 26 7d 74 be 30 e4 e3 bd 9f c3 7d bd
       -0.12318077 -0.23875865 -0.11127508 -0.061954137
000080 92 ce 2c 3e ee 8e c0 3d b4 4b 62 3d c2 42 4b 3c
       0.16875675 0.09402262 0.055247977 0.012406053
000090 1e 4d d4 3d bb b6 59 3e b9 34 91 3e 1e 25 92 3d
       0.103662714 0.21261112 0.28360537 0.07135986
0000a0 a6 d1 4c be ae 43 a7 3d e6 c7 4a 3d 7c fc aa bd
       -0.2000185 0.08167206 0.049507044 -0.08348939
0000b0 ee 15 2e 3e 5e 2d 4d 3e 06 b2 b7 3d 4c 53 23 3d
       0.17000553 0.20036837 0.08969502 0.03987436
0000c0 fa 29 1f 3d 72 5c d3 bd
       0.03885839 -0.10320367

net.4.weight f4 [50, 50]
000000 a2 43 fc bd 47 e7 e2 3d 55 df 5d be 23 e5 99 3c
       -0.123175874 0.11079269 -0.21667226 0.018786019
000010 a9 ca e7 bd b7 4d cc bc 9f 6b 87 bd cb 46 a1 3e
       -0.11317951 -0.024939401 -0.06612324 0.31499323
000020 8f 88 f7 3b 19 c1 0f bc bd 74 1a be 59 bc 31 be
       0.007554121 -0.008774065 -0.15083595 -0.17357005
000030 d6 b9 80 be 6d 48 2e bd b6 2a 90 3c 36 d1 15 3d
       -0.25141782 -0.04254954 0.017598491 0.036576472
000040 08 07 21 3d 91 2a 1a be 00 e2 5e 3b c6 4f 86 3d
       0.039313346 -0.150553 0.0034009218 0.06558184
000050 46 74 8b bd 62 b5 1d 3e fd 7a ee bd 4e 58 34 bc
       -0.06809287 0.15401223 -0.11644552 -0.011007382
000060 8a b7 4d bd 30 32 a9 bd e6 b1 c9 3b 8c af 3a be
       -0.050223865 -0.08261526 0.0061552403 -0.18231028
000070 d3 cc f5 3b 03 f2 04 bd 74 13 0b be be d3 c9 3c
       0.0075012236 -0.032457363 -0.1358164 0.0246371
000080 32 e6 8d bd 84 c2 c0 bb 76 58 39 bd 0b f2 c8 3d
       -0.06928672 -0.005882563 -0.04525038 0.09811791
000090 c9 b7 fa 3d 6d 8d fd bc e8 a5 c6 3d b8 4f 82 3c
       0.122420855 -0.030951226 0.09699613 0.015907153
0000a0 cd 1b 98 3c 7a 85 0e 3e c4 5a bd bd 24 2c 53 be
       0.018567944 0.13918105 -0.09245828 -0.20622307
0000b0 8b 6e 89 bc 19 56 46 3e b3 e2 44 bd 52 cc e9 3d
       -0.016776344 0.19368781 -0.04806776 0.11415924
0000c0 c7 78 64 bd d1 d5 f8 3d 80 dc 7a 3c a8 c1 cf bd
       -0.055779245 0.12150157 0.01531136 -0.10144359
0000d0 f0 e8 51 3c 6b a3 ee bd 2f 6a 79 bd 22 75 44 bc
       0.012811884 -0.11652263 -0.06089228 -0.011990817
0000e0 f1 ec 39 bd ce 0a e1 bd 80 84 1a 3d 1f 58 5c bd
       -0.04539198 -0.10988389 0.037724018 -0.053794976
0000f0 44 8e 11 be 73 b9 f9 bd be 49 da 3c a7 cc e3 3d
       -0.14214426 -0.12193575 0.026646491 0.11123019
000100 3a 2c 3c 3d 12 33 2b 3d 94 4b 33 be 94 06 96 3d
       0.045940615 0.04179675 -0.175093 0.073254734
000110 4a e6 dd bd d3 2b 8b 3c 30 1e 62 bd a6 47 f4 3d
       -0.1083494 0.01698867 -0.05520457 0.11927728
000120 e1 77 20 3c a3 b8 9e 3c fe cd 6e bd dd 22 f3 bd
       0.009794206 0.019375151 -0.05830192 -0.11871884
000130 a9 a8 a4 3d 25 b2 0e bd cb e7 aa bc af 60 d4 bd
       0.08039982 -0.03483786 -0.02086248 -0.103700034
000140 78 33 b7 bd fd 34 ba bd 1d 58 9c bb 09 ec b7 bd
       -0.08945364 -0.09092138 -0.004771246 -0.08980567
000150 47 e8 11 bd 94 90 0b 3d 1d aa a0 bd af 16 44 bd
       -0.035621908 0.034073427 -0.078449465 -0.047873195
000160 f6 f9 45 3d f6 92 92 bd 45 d8 03 bd c5 6a 7b 3d
       0.048334084 -0.07156937 -0.032188673 0.06138112
000170 14 d1 77 bd 62 a0 f8 3c ba 02 b5 3c 6b 84 48 bc
       -0.060502127 0.030349914 0.022096027 -0.012238602
000180 66 07 c9 bd 44 95 0c 3c 5b 46 1d be 13 4a ca 3d
       -0.09815864 0.00858051 -0.1535887 0.0987741
000190 86 bf 32 3e 30 6a 55 3e b6 3f 09 3e 17 56 0f be
       0.17455873 0.20841289 0.1340321 -0.13997684
0001a0 d1 06 4c 3d 12 06 0e 3e 4d 06 1c be 45 74 93 3c
       0.049811188 0.13869503 -0.15236779 0.017999778
0001b0 9a 5b 20 be 03 f5 96 be bc 34 a5 be e6 3c b8 bd
       -0.15659943 -0.29483804 -0.32266796 -0.089959905
0001c0 e5 25 a1 3e 16 a3 d1 3d 72 68 df bc 67 2e 80 bd
       0.31474224 0.10236184 -0.027271483 -0.062588505
0001d0 c3 48 30 be 66 a9 a2 3d 2a 40 95 3d db b2 f2 bd
       -0.17215256 0.079424664 0.07287629 -0.1185052
0001e0 52 5d 38 3e bc 0c fc bc e5 57 36 bd 40 88 26 be
       0.18004349 -0.030767791 -0.044517417 -0.16262913
0001f0 80 bb 34 3c dd 4a d2 bb 90 7f 2c be 71 c1 b1 3d
       0.011031032 -0.006417616 -0.16845536 0.08679474
000200 57 8b b0 bd e5 b2 f9 3d f7 25 3a be 75 1a c1 3d
       -0.08620327 0.121923245 -0.18178545 0.094288744
000210 65 8e 9d bd 8c 2a 98 3d a3 84 30 3e d2 f5 04 3c
       -0.07693175 0.0742999 0.17238097 0.008115249
000220 f3 41 f7 bd f1 2a 54 bd 74 04 b1 3d 7c 2b b2 3e
       -0.12073126 -0.051798765 0.086434275 0.347988
000230 aa 8b 87 bc 0d 3d e0 bd 6f a9 18 3e 3e 74 7a 3d
       -0.01654609 -0.109491445 0.14908384 0.061146013
000240 10 6a 88 3d d7 b5 bb bd 2d 22 5a 3c 5c da a7 bc
       0.06660855 -0.091655426 0.013313812 -0.020489864
000250 bc 02 bf 3d de 6b 49 be 10 89 0f 3d 07 0a f8 3d
       0.093266934 -0.19670054 0.035042822 0.121112876
000260 e3 7e da 3b d4 ce 58 3d e1 88 01 3e d8 f3 52 bd
       0.006667958 0.05293162 0.12649871 -0.05150208
000270 07 bc d1 bc 35 a0 8d bd c5 5d 03 be f7 09 61 be
       -0.025602354 -0.06915323 -0.12828739 -0.21976458
000280 ec d3 68 bd 9d 38 e9 3d 55 bd e3 3d 6c cd 9b bd
       -0.05684273 0.11387751 0.111200966 -0.076075405
000290 12 11 d3 3d 9a d2 97 3d 55 86 06 3e 53 27 9e 3d
       0.1030599 0.07413216 0.13137181 0.07722344
0002a0 9c 97 c4 bd e9 7b 27 3e b2 89 cb bb 98 e2 90 be
       -0.0959923 0.16355862 -0.006211483 -0.28297877
0002b0 af 0a 12 bd be 41 75 be 0a d7 4e 3d a0 4f 1e be
       -0.03565472 -0.2395086 0.050498046 -0.15460062
0002c0 c8 01 11 3e 03 54 15 3d 40 85 81 bd 50 66 0c be
       0.14160836 0.036457073 -0.063242435 -0.13710904
0002d0 c3 e8 12 be 29 04 9e 3d 9d f1 5d 3e bc 27 3c 3e
       -0.14346604 0.07715637 0.216742 0.18374532
0002e0 86 f3 4c 3d 4b cf d2 3d eb b4 65 3e f0 9c c5 bd
       0.05003693 0.10293444 0.22432296 -0.09649074
0002f0 a0 93 e1 3d 9c 2e 4e be 46 cb 1b 3e e9 9f 8b bc
       0.11014485 -0.20134968 0.15214261 -0.017044025
000300 c2 f1 aa bd f8 f5 00 bd 5e e0 45 bb 24 33 27 3e
       -0.08346893 -0.031484574 -0.0030193548 0.16328102
000310 df e9 5b be 32 8f 3a be 1c 02 65 be eb 52 c8 3c
       -0.21475933 -0.18218687 -0.22364086 0.0244536
000320 e1 2c 25 3e c9 d1 d0 3c 90 a1 b7 bb eb 47 42 3d
       0.16130401 0.025490658 -0.0056039765 0.047431868
000330 7c 2e 10 be 57 fc 28 3c e0 ec 91 3d 83 31 8f 3e
       -0.14080232 0.010314069 0.071252584 0.27967462
000340 a1 6d 6d be 57 ec 61 be a1 85 5a 3d 36 d9 7f be
       -0.23186351 -0.22062813 0.053350095 -0.24985203
000350 69 cc 64 3e 38 c9 88 3c 47 ad 35 bd cf b4 bd bd
       0.22343601 0.016697511 -0.044354703 -0.09263002
000360 83 6d ff bd 75 c0 08 bd f9 b6 16 be 0c e9 3f 3d
       -0.124720596 -0.033386666 -0.14718236 0.04685311
000370 aa 92 5e bd 5d 7a 79 bc 82 06 0a 3e 08 2f 58 3d
       -0.05433909 -0.015226928 0.13479045 0.052779227
000380 0c 60 10 3d 65 bf 9c 3d 1e 3f a3 be 3c e5 ee bb
       0.035247847 0.07653693 -0.31884092 -0.0072905105
000390 b0 f8 97 be 73 53 f1 bd a9 f2 d3 3e 8d 99 ae 3c
       -0.2968192 -0.11783495 0.41396073 0.021313453
0003a0 76 9e 8f 3c c0 17 20 3e 9b 2f 01 3e f0 00 d0 bd
       0.017531615 0.1563406 0.12615816 -0.10156429
0003b0 d6 72 9e 3b d0 a8 51 3e 73 59 db 3d 1f be e3 bb
       0.004835467 0.20474553 0.107104205 -0.0069501544
0003c0 c0 c7 6c 3e b9 d4 76 bd c9 e0 84 3d d1 9f 14 3e
       0.23123074 -0.060261462 0.06488187 0.1451409
0003d0 c6 cc 89 bb 29 db 56 be 89 cb f6 bd 9b 35 a3 bc
       -0.004205319 -0.2098204 -0.1205054 -0.019923022
0003e0 1e 5a e0 bd 40 57 8d 3d c7 a9 00 be 6e 16 a4 3d
       -0.109546885 0.06901407 -0.12564765 0.080120906
0003f0 72 a4 70 bd c8 b7 49 3d ed c4 30 3d 71 8b 19 be
       -0.058750577 0.049247533 0.043156553 -0.14994599

net.4.bias f4 [50]
000000 d7 3b a0 3e 3a 52 40 be 12 a0 40 3e 05 9e 9a 3d
       0.31295654 -0.18781367 0.18811062 0.07549671
000010 46 bc 01 3d be 9e 31 3c 5c fa 33 be 3d 20 29 3e
       0.031673692 0.01084107 -0.17575973 0.16516204
000020 b1 56 b6 bc 84 a7 15 3e 8f fe b9 bc 21 a2 5c be
       -0.022258135 0.14614683 -0.02270439 -0.21546222
000030 c6 56 b1 3e 0a 39 25 bd b6 b8 07 bc f2 15 2e 3e
       0.34636515 -0.0403376 -0.008283785 0.17000559
000040 99 67 63 3c cc a5 16 be c1 82 bf 3d 36 38 12 be
       0.01387968 -0.14711684 0.09351111 -0.14279255
000050 f5 93 1d 3e 6e b5 29 bd 6a 68 f5 bd 6e fb 9f bc
       0.15388472 -0.04143279 -0.11982806 -0.01952907
000060 9d f7 23 be 68 e9 30 3e 0b 2d eb bd 87 e9 1a 3d
       -0.16012426 0.17276537 -0.11483201 0.037820365
000070 b7 35 ab 3c 85 77 e2 3d 77 57 19 be 41 37 38 3e
       0.020899637 0.11057953 -0.14974771 0.17989828
000080 5c 42 86 bd 6b 8a 44 3d b0 94 e5 3c 6d 6e 3f 3e
       -0.06555626 0.04798357 0.028025001 0.18694468
000090 2f 71 29 bb 36 22 95 bd 23 52 6f 3d f5 82 31 bd
       -0.0025854816 -0.07281916 0.05842794 -0.04333778
0000a0 a7 84 2b 3e 56 65 55 bb bd 71 42 be 97 d0 6e 3e
       0.16749822 -0.0032561622 -0.189887 0.23321758
0000b0 88 90 76 3e 5b 56 23 3e c0 f2 60 be 7f ac 09 bd
       0.24078572 0.15950911 -0.21967602 -0.03361177
0000c0 44 25 0f 3e 4a ba d5 bc
       0.1397906 -0.026089806

net.6.weight f4 [50, 50]
000000 18 6e 7e 3e 49 6e 15 b9 53 e1 7c 3d f6 48 17 3e
       0.24846685 -0.00014250832 0.061738323 0.14773926
000010 ef 7c 7a 3e 99 10 6c 3e dc 23 84 3d 80 cf 91 3d
       0.24461721 0.23053207 0.06452152 0.071196556
000020 65 6e 7c bc 17 f4 89 bc c0 40 47 be 9d 2e 1d 3d
       -0.0154071795 -0.016840024 -0.19458294 0.038374532
000030 ab 25 a2 3b 4a 04 01 be 31 46 77 bd 3a 69 dd bb
       0.004948338 -0.12599292 -0.060369674 -0.0067569287
000040 c8 3b 08 be 29 35 1f 3e 4b 1b 4b be c8 e2 c8 3d
       -0.13304055 0.15547623 -0.1983463 0.0980888
000050 4d ef e6 3d 06 65 6c bb 9a 1a 2b be d4 43 46 be
       0.11276112 -0.0036070957 -0.16709366 -0.19361812
000060 7b 7c 53 3c a8 15 14 be 26 fd 29 3c c9 27 dc 3b
       0.012908096 -0.14461386 0.010375297 0.00671861
000070 1c 40 ee bd 38 b9 de bd fe e4 f5 3d f3 c8 92 be
       -0.11633322 -0.108751714 0.120065674 -0.28668937
000080 8b 4f 99 bd e7 3d 16 3e f7 84 5d 3c 2a 0b 7b be
       -0.07485875 0.14672051 0.013520471 -0.24515978
000090 e2 9b 9d 3e 33 08 22 be 07 15 81 3d 5a 88 c6 bd
       0.30782992 -0.1582344 0.06302839 -0.09693976
0000a0 7a 41 54 3d 98 dc 24 be 7c c9 e9 3d 70 92 e4 bd
       0.051820256 -0.16099775 0.11415383 -0.11160743
0000b0 ac 9e 20 3e 6c ab da bc a8 4c 1c 3d 81 b1 6d bd
       0.15685529 -0.026693068 0.038159043 -0.05803061
0000c0 87 de d3 bd 37 62 e4 bc 0f 6f 6b 3e d6 2c 9a bd
       -0.10345178 -0.027878864 0.22991584 -0.07528083
0000d0 ee 39 dd bd 1b d3 b9 3d 74 83 05 3d cf 4d 3b 3d
       -0.10802065 0.09073468 0.032596067 0.0457285
0000e0 01 1a e6 bd a5 36 60 be 34 af 95 3d e5 1e 0e 3e
       -0.112354286 -0.21895845 0.07308808 0.13878973
0000f0 af 26 22 3e 13 ba 15 be 46 3d 20 be d1 e8 3f 3d
       0.15835069 -0.14621763 -0.15648374 0.04685289
000100 cb 7d ee ba 4f 78 82 bd d8 25 00 bd 37 01 db bd
       -0.0018195448 -0.06370603 -0.03128609 -0.10693591
000110 9b 2d 28 3e 20 af 1e be 48 e8 1a bd e6 ce 2e be
       0.16423647 -0.15496492 -0.037819177 -0.17071113
000120 83 d3 21 3d 13 c2 26 bd 27 9c d6 3d 9d f1 c2 3d
       0.039508354 -0.040712427 0.104790024 0.0951874
000130 c5 87 0b 3e c8 8e b3 3d 90 1c 4c bd eb 46 34 3d
       0.1362601 0.08767468 -0.049831927 0.044012945
000140 31 b4 90 3d 01 59 f2 bd ac cc e5 3c 87 d1 d6 bd
       0.07065619 -0.118333824 0.028051697 -0.10489183
000150 fc e3 e7 bd 4c e1 d5 3d 5c 78 83 be 8e 54 b4 bd
       -0.113227814 0.104433626 -0.25677764 -0.0880519
000160 e3 92 cb bd 1b 08 36 bd da a0 55 bb 6d 8e 6f 3e
       -0.09940126 -0.044441324 -0.0032597096 0.23394175
000170 8b b0 a5 bd 57 de ad 3e bc e8 73 be 31 d0 12 3e
       -0.080903135 0.33958694 -0.2381925 0.14337231
000180 7c 27 78 3d 15 f2 a1 3d 9d ff c7 3d e9 7b 22 be
       0.06058453 0.079075016 0.09765551 -0.1586758
000190 f8 35 63 be a3 23 03 3e e4 93 3a 3c 18 8e 67 bc
       -0.22188556 0.12806563 0.011387799 -0.014132999
0001a0 45 e5 9e 3c f0 4f 80 be 06 84 fd 3c 24 ff cb bb
       0.019396434 -0.25060987 0.030946743 -0.0062254835
0001b0 02 65 f0 3d e5 10 64 3d 40 50 8b bd b1 82 ea 3d
       0.11738016 0.055680174 -0.06802416 0.11450709
0001c0 18 7e 85 bd c7 63 ab 3c 62 8f f9 bd f2 ba eb 3c
       -0.06518191 0.020921601 -0.12185551 0.028775666
0001d0 05 af 4c 3c 1c d7 10 be 0d e9 7c 3d 33 f2 a7 3c
       0.0124929 -0.14144558 0.061745692 0.020501232
0001e0 f3 ab 04 3e bb 6a 41 be cd 71 bb 3d c6 cf 06 3d
       0.12956218 -0.1888837 0.09152565 0.032912992
0001f0 69 79 49 3e 0f 22 43 3c c2 f8 0c be 33 07 32 3d
       0.1967522 0.011909976 -0.13766769 0.043463897
000200 8d 5b d2 bd 4e a8 c3 bd c2 ed 61 bd 6d 49 27 be
       -0.10271368 -0.09553586 -0.055158384 -0.16336603
000210 1a f2 4e 3e e9 63 10 bc 76 43 f0 bd 30 86 05 3e
       0.20209542 -0.008812883 -0.11731617 0.1303947
000220 6e eb 40 be dd 0e 4e bc 4d c1 6b be 25 e7 0b 3e
       -0.1883981 -0.012576786 -0.23022957 0.13662393
000230 14 2c b5 bc c5 6a 98 3e a2 91 33 3d 1b 94 de 3d
       -0.022115745 0.2976896 0.04384006 0.108680926
000240 5f e3 28 be 48 39 db 3d b5 2b 18 3e b7 9d c6 3d
       -0.16492985 0.10704285 0.14860423 0.096980505
000250 05 30 b8 3c 84 0a 4a be 84 a2 1a be 63 bf 06 be
       0.022483835 -0.19730574 -0.15101057 -0.13158946
000260 f2 01 87 3c c8 7f 91 bd c5 f7 9e bd 71 21 94 bc
       0.01648042 -0.071044505 -0.07762102 -0.018082352
000270 b2 f9 ca bd 2b da f9 bd 55 dc 83 3e f0 82 51 bc
       -0.09910907 -0.12199815 0.25754037 -0.012787566
000280 5c 30 c2 bc 81 c8 be bd 13 08 3d bd 43 f8 0e bd
       -0.0237047 -0.09315587 -0.04615028 -0.03490473
000290 af 6b 08 be 39 fa c7 3d 6c 7d 7b bd 17 aa b2 bd
       -0.13322328 0.09764523 -0.06139891 -0.08723848
0002a0 2f 04 13 3d bd 64 ab 3d 8f 35 4d 3d 45 ef 0d 3d
       0.03589266 0.08368824 0.050099906 0.034652013
0002b0 71 ee 00 3c 86 18 24 bb 0b 05 a8 be 0f 90 2b bd
       0.007869349 -0.0025039031 -0.32816347 -0.04188543
0002c0 4f 3d 06 be 0d 3e 2a 3e 88 34 55 3c 4c 77 25 3d
       -0.13109325 0.16625233 0.013013013 0.040396973
0002d0 5a 91 37 be de 23 e7 3e 13 0c 08 3d 8a 1d 78 be
       -0.17926541 0.45144552 0.03321464 -0.24230018
0002e0 e7 ad 22 be 34 82 91 bd 52 ae 41 3e a5 dc 80 be
       -0.15886651 -0.071049124 0.18914154 -0.25168338
0002f0 69 64 88 3d 56 8d 94 3e 06 de fe bc ff fe 48 3e
       0.06659777 0.2901408 -0.031111728 0.19628523
000300 a4 c7 1a 3c d9 91 46 3e 5f c0 8b be ce a9 cc 3c
       0.009447012 0.19391574 -0.27295205 0.024983313
000310 0d 8f 0a be 00 05 24 3e ea ee 0f bf 38 9e f9 3d
       -0.13531132 0.16017532 -0.5622393 0.12188381
000320 d5 c2 26 3e b1 df bf bd 14 2f d1 3d 3e cc c8 3c
       0.1628526 -0.093688376 0.102140576 0.024511453
000330 db 6b 49 be 47 68 45 be 53 66 84 bd 65 48 0a bc
       -0.1967005 -0.1927806 -0.06464829 -0.008440112
000340 e9 24 b4 3d 15 8a c7 3d a7 ee ec bc 99 1c 85 bc
       0.087961026 0.09743134 -0.028922392 -0.016248988
000350 d1 91 fc 3d 50 90 90 3d e3 62 0c be de 7a 02 3e
       0.123325 0.070587754 -0.13709597 0.12742183
000360 0f 53 0d bd 20 6f d7 3d 27 7b 47 3d ba ba 87 bd
       -0.03450304 0.10519242 0.04870143 -0.06627412
000370 21 bf 9c 3b 79 4b 7c 3d fe 4a fe 3d 09 52 ec 3d
       0.0047835265 0.061595414 0.124166474 0.115390845
000380 99 33 3f 3e 39 c5 2d 3d fc c3 86 bd 6c 59 f8 3d
       0.18672027 0.042424414 -0.0658035 0.12126431
000390 f5 a4 30 3c d2 32 c8 bc 80 82 92 3c ba d5 63 3e
       0.010781516 -0.024438296 0.017884493 0.22249499
0003a0 fc 7d 24 3e 32 f6 c7 3d 6a 26 4e be 38 b4 29 3e
       0.16063684 0.09763755 -0.20131841 0.16572654
0003b0 34 5c 3e be 3d 31 24 be ba 22 aa be aa 15 06 3e
       -0.1858986 -0.16034408 -0.3322962 0.13094202
0003c0 2a a8 da bc 09 ea 7e 3e 6f 5b d9 bd 6f e1 6d 3e
       -0.026691515 0.24893965 -0.10613143 0.23230527
0003d0 e2 58 22 be c2 57 72 bc 97 5e 01 be 39 9b a8 bd
       -0.15854219 -0.014791431 -0.1263374 -0.08232731
0003e0 bd 50 f8 bd 25 e7 1e be 80 00 d1 bd 57 5d b4 3d
       -0.121247746 -0.15517862 -0.102051735 0.08806866
0003f0 af db 27 3d 81 26 78 bd 4a 10 0e 3e a7 b3 6f 3d
       0.04098099 -0.060583595 0.13873401 0.05852094

net.6.bias f4 [50]
000000 20 6f b7 bd 65 b1 44 3d 52 e9 2f be d6 e4 05 bd
       -0.08956742 0.04802074 -0.17178848 -0.032688938
000010 26 79 91 3d b6 99 85 bd 2a cd de 3d 36 41 35 3e
       0.07103185 -0.06523459 0.10878976 0.17700657
000020 5e b5 df 3d 60 76 1b 3d dc 24 17 bd 61 66 78 be
       0.10923265 0.037954688 -0.036900386 -0.24257804
000030 1c db 12 be 6b d3 fd bd da 80 53 3e c0 7b 0c 3e
       -0.14341396 -0.123938404 0.20654622 0.13719082
000040 30 56 84 bd 62 da c3 3d e6 43 77 bd 8b e4 c9 bd
       -0.064617515 0.095631376 -0.060367487 -0.09858044
000050 a2 d4 ca 3d 7e ee 9c 3d 95 cf e9 3c 16 78 52 bd
       0.09903838 0.07662676 0.028541366 -0.051384054
000060 a2 b9 16 bd cf a4 09 be 20 2c 67 3c c3 cc 30 be
       -0.036798127 -0.13441776 0.014109641 -0.1726561
000070 2e c5 9f 3c 89 8d 08 3e dc b4 95 bb 50 62 c2 3b
       0.019503202 0.13335241 -0.0045686793 0.00593213
000080 26 da dd ba 8a 89 d8 3c 60 d7 12 be 89 ff ab bd
       -0.0016925975 0.026432771 -0.14339972 -0.08398349
000090 3a f8 15 3d ee ec 4c 3e c6 96 06 3e c0 0d 8c bd
       0.03661368 0.20012257 0.13143453 -0.0683856
0000a0 13 9d 91 3e c0 53 28 be 7b 25 06 bd 4a 93 99 bd
       0.2844015 -0.16438198 -0.032750588 -0.07498796
0000b0 83 8a 68 3d 5f bd 97 bd a0 58 d5 bd 31 be e1 bc
       0.05677272 -0.074091665 -0.104172945 -0.02755651
0000c0 54 99 c4 3d 2d c0 89 3b
       0.095995575 0.0042038173

net.8.weight f4 [50, 50]
000000 ef 17 8a 3d 57 04 cb 3d 3b 7e a2 3d 74 cb be 3c
       0.06742846 0.09912937 0.07934233 0.023290373
000010 ad 85 bc 39 1e a5 89 be 41 76 51 3d c7 76 f3 bc
       0.0003595775 -0.26883787 0.051138166 -0.029719723
000020 99 5a eb bd b2 7f 22 3b c3 3e 45 bd cb 58 a4 3d
       -0.114918895 0.002479535 -0.048155557 0.080247484
000030 2e f9 db 3d 2c e7 73 3e 32 dc 36 3e 51 45 24 bd
       0.10740887 0.23818654 0.17857435 -0.040105168
000040 8c f4 f0 3d b5 3f 06 3d 4b c4 49 be 4a 11 01 3d
       0.117653936 0.0327756 -0.19703786 0.03151063
000050 74 87 9e bd ba d4 c3 bd 84 58 e9 bd 85 4f 56 3b
       -0.077406794 -0.09562059 -0.11393836 0.0032701206
000060 f1 63 c3 bd 17 59 59 bd 46 e7 57 3e c3 a8 13 be
       -0.09540547 -0.05306348 0.21084318 -0.14419846
000070 c9 8a a9 3d 80 08 a3 bd 56 d5 78 3d 33 3c 30 bd
       0.08278424 -0.079606056 0.060750328 -0.04302616
000080 b2 c2 02 be 17 46 db 3c 94 17 79 bd 06 c8 1e 3e
       -0.12769583 0.02676682 -0.0608135 0.1550599
000090 bf cb 09 3d 5e da 4f bc ed 29 19 bd 09 d9 4f bd
       0.033641573 -0.01268634 -0.0373935 -0.05074409
0000a0 ac 1b 06 3e 95 ed b8 3d 9b f8 da 3c 00 67 40 3d
       0.13096493 0.0902969 0.026729872 0.04697323
0000b0 bc cd 89 3c 5f 2f fd bd 22 15 db 3c d1 10 3e be
       0.016821735 -0.12362551 0.026743475 -0.18561102
0000c0 69 ea 04 bc 61 fa 77 3d 83 c1 4a be 39 9e e2 3d
       -0.008112528 0.060541514 -0.19800381 0.11065335
0000d0 1d 7f 18 3e 2d c2 c0 bd e7 77 01 bd 4e e3 78 3d
       0.1489224 -0.09412036 -0.03160849 0.06076365
0000e0 15 a1 cb 3d 65 fd 5f 3c ff 41 f1 3d 9c f3 23 3e
       0.09942833 0.013671254 0.11780166 0.16010898
0000f0 5b ca 3d be 5b b1 49 be 43 c8 96 be 2f e9 eb 3d
       -0.18534224 -0.19696562 -0.29449663 0.115190856
000100 3d 18 70 bc f8 0a ac ba 1d 68 dc 3d 54 26 8d 3d
       -0.014654216 -0.0013125828 0.107620455 0.06892076
000110 61 50 a9 be 9c a5 07 3e 45 02 0e 3e 0a fb 5e 3e
       -0.33069137 0.13246769 0.13868053 0.21775451
000120 d4 94 1d be 50 c7 0b 3e b6 82 44 be 7e 62 83 bd
       -0.15388805 0.1365025 -0.19190487 -0.0641527
000130 e7 fe 84 3d d3 1b 7a 3d 1a 54 5e 3e 7d b2 b9 3d
       0.06493931 0.06106169 0.2171177 0.09067247
000140 e6 0a 4a 3d 31 d6 0d 3e b4 47 a7 3e fc 5a f8 bd
       0.0493268 0.13851239 0.32671893 -0.12126729
000150 7a bb 25 3e ad c7 35 3e d6 b2 23 bd ed 63 8a b9
       0.16184798 0.17751952 -0.039965473 -0.00026395862
000160 af 31 13 3e 8c 4b 57 3e e0 30 b0 be d5 da 2c 3d
       0.14374422 0.21024913 -0.3441229 0.042200882
000170 ab 2e a8 3c 39 5c 30 bc 27 3e 47 3d b7 1b 30 be
       0.020530066 -0.010764175 0.048643257 -0.17198072
000180 f2 f8 6d 3e 41 82 13 be 67 f3 cc bd d7 c4 d0 bc
       0.23239496 -0.14405157 -0.10007363 -0.025484486
000190 17 8e 82 3e f7 4d 72 3e 1d e5 96 bd fd 28 cc 3d
       0.2549903 0.23662554 -0.07367919 0.099687554
0001a0 58 f9 d8 bd f4 64 50 be 90 24 33 be 8b da 23 bc
       -0.105944335 -0.2035101 -0.17494416 -0.010000835
0001b0 b7 ea 25 bb e8 5a 99 3d 99 fd 18 bc cc ba 12 3e
       -0.0025316903 0.07488042 -0.009337806 0.1432907
0001c0 c8 cf 9a be ec 3a 32 3d c2 23 8d 3e 1f 75 3b 3e
       -0.3023665 0.043513224 0.27566344 0.18306397
0001d0 80 63 a0 be 6b e4 18 3e fb d6 79 be 9e 07 5f 3a
       -0.31325912 0.14930885 -0.24398415 0.000850791
0001e0 65 98 06 bc dd 21 75 3e 2a da 3a 39 8e 48 f9 3c
       -0.008215045 0.23938699 0.00017819615 0.030430105
0001f0 2f 78 83 3e 48 55 d4 3d f1 2d 9d 3e ff 28 cc 3d
       0.2567763 0.103678286 0.30699113 0.09968757
000200 5b 16 5d 3d c6 e3 65 bd 89 58 12 3e 21 9e 19 3e
       0.053976398 -0.056125425 0.14291586 0.15001728
000210 09 53 8b bd 71 6f af 3d 05 10 16 bc e0 be 2e be
       -0.06802947 0.08566178 -0.009159093 -0.17065
000220 1d 37 1b 3d c1 61 aa 3d 23 75 8f bc c5 56 b0 be
       0.037894357 0.08319426 -0.01751191 -0.344412
000230 f0 80 8b 3e b7 c5 9e bd e7 6a 86 3e 74 c9 5c bd
       0.2724681 -0.07752555 0.26253435 -0.05390306
000240 c6 b5 5d 3e 33 74 d2 3d db 1a 3c 3e ba 78 a0 bd
       0.21651372 0.102760695 0.1836962 -0.07835527
000250 bf 11 4c be 91 e6 ef 3c 31 b3 97 3c d6 70 c7 3d
       -0.19928645 0.029284747 0.018518062 0.097383186
000260 44 a0 8e bd 9e 9d 5c bd 0c 60 f3 bb 2f 99 a0 bc
       -0.06964162 -0.053861253 -0.007427221 -0.019604294
000270 e7 c1 d2 3d 71 5e 02 be b6 82 74 bd c0 ef d1 bc
       0.1029089 -0.12731339 -0.05969497 -0.025627017
000280 9c 40 4b be ba 65 87 be 28 13 09 be 9a af 64 bd
       -0.19848865 -0.264448 -0.13386214 -0.05583153
000290 33 a5 c1 bd bf f0 e0 bd 8b 60 1e be 11 33 39 3e
       -0.094553374 -0.10983419 -0.15466516 0.18085887
0002a0 60 6a 9a 3c ee 73 02 bd 3e 43 00 3e e9 ba 25 3e
       0.018849552 -0.03184884 0.12525651 0.16184582
0002b0 08 c7 83 3b aa 21 0d 3e ac 2d 2f 3d ee 11 09 bd
       0.004021529 0.13782373 0.042768165 -0.033464365
0002c0 2a 05 39 3d fe 1b 0b bd 0a 28 6d 3e 3b 01 f9 3d
       0.04517094 -0.033962242 0.23159805 0.12158438
0002d0 2e c1 99 3b 9a da bf bd 57 9e 61 3e db ff 4d 3d
       0.0046922183 -0.09367867 0.22033058 0.05029283
0002e0 1b e8 a7 bc c9 95 76 3d 6f 0d 79 3b 5e 17 a7 3d
       -0.020496419 0.06020144 0.0038002392 0.08158754
0002f0 b5 24 5b bd 5a 0e 26 3e 4c 5b 72 be 0e 57 0b 3e
       -0.053501803 0.16216412 -0.2366764 0.13607427
000300 91 7e cb bd 57 3b d1 3d 66 d2 e9 3c 70 e3 84 bc
       -0.0993625 0.10216396 0.028542709 -0.016221732
000310 fc 47 7c 3e 26 80 0e be 29 7a 98 3d c3 4b 31 3e
       0.24636835 -0.13916072 0.07445175 0.17314057
000320 1b 4b 81 be 2b 68 10 3d dd b2 0d 3e ec e1 2a bc
       -0.25252613 0.035255592 0.13837762 -0.010429841
000330 27 60 d6 3d 19 9b 42 be 61 0e 2b be 9e 09 a0 3c
       0.10467558 -0.19004478 -0.16704704 0.019535836
000340 01 09 df bd e1 8f cd 3d a6 c8 f6 bd 2a ab 77 3e
       -0.10890389 0.10037208 -0.120499894 0.24186388
000350 79 73 66 bd 51 c7 a1 3e e4 de ae 3d 20 3a a6 3d
       -0.056262467 0.3159738 0.08538607 0.08116555
000360 4f b5 46 be 2e 78 27 be bc 4d 14 bd 33 f6 80 bd
       -0.19405101 -0.16354439 -0.036206946 -0.06296959
000370 4a e9 8e 3d 68 1d f2 bc 2f 4c 6a 3d 5a db 0c 3e
       0.0697809 -0.029555038 0.05720156 0.13755551
000380 5e 0f 48 3e 4a 22 3b 3d e5 7a 8f bc 00 59 69 bc
       0.19537112 0.045686997 -0.017514655 -0.014242411
000390 5f 71 a8 bd ab f4 1f be c8 43 46 bd 54 ad 59 3e
       -0.08224749 -0.15620677 -0.048404485 0.21257526
0003a0 97 14 9a 3c 09 07 ab 3d 85 70 28 be 04 dc 83 bd
       0.018808646 0.08350951 -0.16449173 -0.06438449
0003b0 30 cd 5b bd 6e 47 c7 bb 79 05 2a be fa e9 cd bd
       -0.05366248 -0.006081513 -0.1660365 -0.10054393
0003c0 ae 2f 51 3e 60 08 32 3d c4 7a 89 3d 25 fe 9a 3d
       0.20428345 0.04346502 0.06712869 0.075680055
0003d0 61 9f f8 3d 6a 3e 44 bc 26 4e 16 bd 49 44 4b bd
       0.12139774 -0.011977771 -0.036695622 -0.04962567
0003e0 ff b6 f8 bd 65 bf 04 be c7 db c9 3e 54 1a bb bb
       -0.12144279 -0.12963636 0.3942549 -0.0057099257
0003f0 6b 9e 44 be ab 1d 66 3e 05 b8 39 3c 1d da 90 3e
       -0.19201057 0.22472255 0.011335378 0.28291407

net.8.bias f4 [50]
000000 00 7f 26 3e ae d0 a9 bd 06 03 e3 bd 0c ad 02 3e
       0.16259384 -0.082917556 -0.11084561 0.12761325
000010 09 1d 79 3d 75 b9 8d bd 61 20 f7 bb 09 1c 08 be
       0.060818706 -0.06920139 -0.0075417017 -0.13291945
000020 d1 3c eb 3b b1 43 29 bd b5 b8 c8 bd 8a 50 f7 bd
       0.0071788807 -0.04132432 -0.09800855 -0.120759085
000030 9a 39 a1 bc d2 da 23 3e bc 80 06 bd 4a 72 c3 bc
       -0.019680787 0.16001442 -0.032837614 -0.023858208
000040 dc 88 c3 bd 4b a9 e1 bc 25 3f 7e 3d 95 cb 13 3e
       -0.09547588 -0.027546545 0.062071938 0.14433129
000050 b9 e2 c2 3c d3 3b 0b bd 45 de 72 bd d6 17 69 3d
       0.02378975 -0.0339926 -0.059294004 0.056907497
000060 9a ae f3 3d ca d0 5b bd 43 f3 31 3e 0f 3b d3 3d
       0.11898537 -0.053665914 0.17377953 0.10313999
000070 e8 91 fb bd 0b 8e e2 3b 4d b1 85 bd e2 2d 4e 3c
       -0.12283689 0.0069139055 -0.06527958 0.0125841815
000080 09 5c 4a be c5 88 f5 bd 38 e4 18 3d 59 9f a3 3c
       -0.19761671 -0.11988977 0.03732702 0.019973444
000090 7c 54 92 bc 26 4f ea 3c 08 b0 2d 3c 9d ce f8 3c
       -0.01786255 0.028602194 0.010601051 0.030371958
0000a0 aa d1 69 bd 4d 8c 47 3e 4c b9 5e 3d d8 11 16 bd
       -0.057084717 0.19487114 0.05437593 -0.03663811
0000b0 5a a0 71 3b 30 7a 49 bd 2b 04 a4 3d fb 76 9b 3d
       0.0036869259 -0.049188793 0.080086075 0.07591053
0000c0 ef e0 f1 bc d5 3c f5 bb
       -0.029526202 -0.0074840584

net.10.weight f4 [50, 50]
000000 5c 05 eb bc c9 72 44 3d 44 f5 95 3d 26 ea a6 3c
       -0.028689079 0.04796103 0.07322171 0.020375323
000010 48 42 ba 3d b3 39 8e 3e a8 57 8f 3e c1 e5 ba bd
       0.090946734 0.27778396 0.27996564 -0.09125853
000020 ba dd bd 3e a1 6c 93 bd 59 6b cb 3d 68 1f 09 bd
       0.37083226 -0.07198454 0.09932584 -0.033477217
000030 85 2b 43 3e 98 b5 a1 bd 48 e1 1a bc c2 71 fe 3d
       0.1905957 -0.078959644 -0.009453125 0.12424041
000040 66 2b be bd 1b 7a bf 3c ee 8d 0c 3e ec 9b d0 bd
       -0.09285621 0.023373654 0.13726017 -0.1018599
000050 03 d6 2d 3e f1 fb 65 3d e8 f9 58 3c 13 27 ab 3d
       0.1697617 0.056148473 0.013243176 0.08357062
000060 43 d5 b2 bb 48 0c 6a 3d 7a 83 4a 3d eb 56 81 bc
       -0.0054575517 0.05714062 0.049441792 -0.015788516
000070 40 bf 5f bd 69 19 1f 3e 98 24 2d 3e 82 0a 8f bd
       -0.05462575 0.15537037 0.1690849 -0.06984426
000080 61 69 d3 3d e2 d4 a8 3d 0f f3 56 be bf 23 f3 3d
       0.10322834 0.08243729 -0.20991157 0.118720524
000090 5b 7c f1 3d 8e 6b 7b 3d 3c 4e fd 3d d4 89 bc 3d
       0.11791297 0.06138187 0.12368438 0.09205976
0000a0 35 0e f5 3d 20 ea f5 bd af ee ba 3d 27 68 1d 3d
       0.119656004 -0.120075464 0.091275565 0.038429406
0000b0 28 96 09 3e e2 e0 c9 bd 47 2f 9c 3d 45 63 e6 bd
       0.13436186 -0.09857346 0.07626205 -0.11249403
0000c0 35 62 22 3e d7 26 15 3e a2 61 b8 bd f8 d3 8d bd
       0.15857776 0.14565597 -0.09002997 -0.069251955
0000d0 46 6e 14 3c 84 fc 40 bd 11 15 94 bd c3 f9 0e bc
       0.009059494 -0.047115818 -0.072305806 -0.00872654
0000e0 a1 86 42 3d c1 1b 15 be 6b 50 9b 3b 7f f1 83 3c
       0.047491673 -0.14561369 0.004739811 0.016106365
0000f0 bc 65 0a 3e 59 18 99 3d d0 e1 c8 bd fe 1c be ba
       0.13515371 0.07475347 -0.09808695 -0.001450449
000100 fb 91 33 3d 57 44 72 3c f1 a1 4a bd 4b c3 e2 bc
       0.04384039 0.014786801 -0.049470846 -0.027681014
000110 5e 34 03 bd f9 7f e7 bd 53 2e af 3c 86 4f 17 be
       -0.032032363 -0.11303706 0.021384394 -0.1477643
000120 37 08 51 3d 75 2a f7 3c e4 77 0d be ad c6 a3 3a
       0.051033225 0.030171612 -0.13815266 0.0012495123
000130 d3 8e b0 3c a6 43 e6 3c 1a 8c 7e 3d a0 68 8f bc
       0.021552479 0.02810843 0.06214533 -0.017505944
000140 84 2e ce 3d 5e 5a 28 3d 40 b4 a9 bd 26 f6 10 3e
       0.10067466 0.041101806 -0.08286333 0.14156398
000150 1c c2 f6 3d 06 81 de 3d a6 70 02 be c7 ba 82 bd
       0.12048742 0.10864453 -0.12738284 -0.06383281
000160 1b 21 f3 3c 0a b0 87 bd f7 d6 78 bd 2b d3 01 3e
       0.029678872 -0.06625374 -0.06075188 0.1267821
000170 ae 63 87 bd 5b 5c 78 3c 27 66 fd bd 62 32 ab 3d
       -0.06610809 0.015158738 -0.12373 0.08359219
000180 61 02 24 3d de 54 da 3d 8f 03 44 3d ad 89 a9 3d
       0.04004133 0.106607184 0.047854956 0.08278213
000190 c5 80 1b 3e 2d 54 d1 3d 25 56 a1 3b 2f aa 1e 3e
       0.1518584 0.102211334 0.0049235993 0.15494607
0001a0 e8 02 fc 3b 2b 98 ae 3d f9 4c f9 3d 64 32 4b be
       0.007690776 0.085251175 0.121728845 -0.19843441
0001b0 b4 88 b1 3e fd aa 30 3e 1a f9 4f 3d a4 7b 24 3e
       0.3467461 0.17252727 0.05077467 0.1606279
0001c0 be 06 75 3d 48 fc 9a bc 08 b5 af bd 84 0c e8 3d
       0.059820883 -0.018919125 -0.08579451 0.11330512
0001d0 a3 c2 11 be d7 46 ec 3d 9a f0 bc 3c 14 68 86 3c
       -0.14234404 0.11536949 0.023063947 0.01640705
0001e0 f5 6c 43 bd fd b0 97 bc 51 24 da 3d fb 6f 1a 3d
       -0.04771133 -0.018517012 0.10651458 0.03770445
0001f0 c9 2c 82 be 1e 36 fb 3d b5 d7 02 be e5 2c 99 bd
       -0.25424793 0.122661814 -0.12777598 -0.07479266
000200 58 74 2a bd 3d e8 dc 3d 07 6e 34 3e bc cf 12 be
       -0.04161486 0.107864834 0.17620097 -0.14337057
000210 dd 91 d8 3d 28 bb 99 bb df a6 1e 3e 6b 01 23 3e
       0.10574696 -0.0046915 0.15493344 0.1591851
000220 4b 9f e9 3d 2e 31 83 3c 03 66 41 3e b3 38 70 bd
       0.11407336 0.016014662 0.1888657 -0.058647823
000230 21 9d b9 3c e5 9d ac be c9 1f 9a bd e8 19 c8 3b
       0.022657933 -0.33714214 -0.07525594 0.006106604
000240 ef 4d f2 bc 15 6f e1 3d 3b af f1 bc d4 7b 63 be
       -0.029578177 0.11007515 -0.029502502 -0.22215205
000250 0c f2 ba bc 74 ca fc 3d 09 3f ad bd 61 7b e8 3c
       -0.022820495 0.12343302 -0.084592886 0.028379144
000260 26 7f 4b 3e 10 97 4d 3c ad bc c3 bd cd 2d d6 bd
       0.19872722 0.012548223 -0.095574714 -0.104579546
000270 93 6e be bb 7c 41 93 3d 32 73 bc 3b 3f 70 3d 3e
       -0.0058115213 0.071902245 0.005751037 0.1849985
000280 7a 4f 2a bd fd ed 00 bd cd 2c 04 3d f6 98 0b 3e
       -0.0415797 -0.031476963 0.032269288 0.13632569
000290 e4 88 2a 3e 43 f5 93 3d f2 9b 88 3c 29 64 9e 3d
       0.16653782 0.07224514 0.016675923 0.07733948
0002a0 57 02 30 3e 1d 19 07 3d cf 39 a9 3d 11 8a c7 3d
       0.17188393 0.032982934 0.08262979 0.09743131
0002b0 44 e7 83 3e 8a dd d2 bd 4a f4 92 3e b0 45 06 bc
       0.2576238 -0.102961615 0.28702003 -0.008195326
0002c0 31 30 87 3b d7 45 53 3e 9c ab e1 bd 27 6d 05 3c
       0.004125618 0.2063211 -0.1101906 0.0081437
0002d0 9a c0 6d bb a2 a7 ed 3b 55 e4 cc bc 3e cf 94 3d
       -0.003627813 0.0072526494 -0.025011221 0.07266091
0002e0 bb e1 18 3d 83 b5 ba 3e 95 7a 89 3c 71 3e 21 3d
       0.03732465 0.36466607 0.016782084 0.03936619
0002f0 91 30 0f 3e c9 4a d1 3b 36 5b a9 3d 2a 4f 30 3e
       0.1398337 0.006387089 0.0826935 0.17217699
000300 2e 9b 59 3d 18 7d 1e bd 89 05 9c 3d 7f 0a 9b bd
       0.053126507 -0.038693517 0.07618243 -0.07570361
000310 fa 93 98 bd a5 42 a2 bd fc d0 6f bd 22 23 55 be
       -0.07450099 -0.07922868 -0.058548912 -0.20814183
000320 14 c0 00 3c 99 f5 a6 3d d8 7f e6 3d b0 30 e7 3c
       0.007858295 0.08152313 0.11254853 0.028221458
000330 5a 4e a9 bd 26 7f c4 bb f8 8d c9 bd 65 65 b0 3b
       -0.082668975 -0.0059966026 -0.098415315 0.005383181
000340 5f 0a a9 3d 64 5e 4b 3d 93 c1 75 3d 74 c0 a6 bd
       0.08253931 0.049650565 0.05999906 -0.08142176
000350 70 e1 df 3d 5a 18 45 bd fe 88 28 3e 19 7e 06 3e
       0.10931671 -0.048118927 0.16458508 0.1313404
000360 51 7d cd 3d 0d 7d a1 bd da d3 8c 3d d0 fa cc 3d
       0.10033668 -0.0788518 0.06876345 0.10008776
000370 1a 0b 31 bd 7d 0d 38 3e 85 36 01 3e da c6 ff 3d
       -0.043223478 0.17973895 0.12618454 0.124891
000380 79 4d 5b 3e 77 88 e3 3d 94 72 81 3d 90 16 1e bd
       0.21416272 0.11110013 0.06320682 -0.038595736
000390 e4 13 c2 bd b2 ec e5 3c 91 e8 d3 bd 80 2c c2 3d
       -0.0947645 0.028066967 -0.10347093 0.09481144
0003a0 2d e3 3a 3d c0 1c bf bc e1 79 4c bd b9 0b d7 3e
       0.045626808 -0.023329139 -0.04992092 0.4200113
0003b0 73 09 ba bd 0c 6e 18 3d 87 f3 b6 bd f5 24 2d 3e
       -0.090838335 0.037214324 -0.08933168 0.16908629
0003c0 3c 18 da bd 17 cc f2 3d 86 c6 93 3d c5 6b 18 bd
       -0.106491536 0.11855333 0.072156 -0.037212152
0003d0 61 4d f6 3b 21 d2 6b bc 40 99 ba 3d 7f 01 01 3d
       0.0075165485 -0.01439336 0.09111261 0.031495567
0003e0 62 03 f2 3d af 7f 33 3d 73 23 f8 3d ca 71 52 be
       0.118170515 0.04382294 0.121161364 -0.2055122
0003f0 5a 01 39 3e b7 cb 85 bc 58 25 8b bc 4a 50 aa 3c
       0.18066922 -0.01633249 -0.01698558 0.020790238
