data/models/cifar/cifar_50x2.pth (torch, 629945 bytes, 6 tensors)

net.0.weight f4 [50, 3072]
-0.013196629 0.006109775 -0.012705519 0.007991046 -0.0037588712 0.01116688 -0.021024683 -0.001568272
-0.008974907 -0.020947589 -0.021040019 -0.012801392 -0.0032509875 0.011081531 -0.020663846 0.011749863
-0.017489538 0.0013243094 -0.018718116 0.0070094205 0.0051660542 0.013383437 -0.014014732 0.007066066
-0.013693842 0.0076647755 -0.0004963856 -0.01398034 -0.006345329 0.0035918779 -0.019107645 -0.0065276967
0.009679757 0.0038521045 -0.014837704 -0.011286382 -0.016739422 0.0036642132 -0.010787096 0.006398846
-0.005923044 0.004599287 0.002717602 0.005216809 0.0052717417 0.010937655 0.0055406136 0.000264248
-0.010973966 -0.017313609 0.004262762 -0.0074868784 0.0037287327 -0.00025665702 0.009919705 -0.00719098
-0.006446729 -0.0076011205 0.013451143 0.0035074106 -0.0046845763 -0.0141061265 -0.0006809522 -0.015156883
0.00694512 -0.0006275572 -0.016922388 -0.016680848 -0.0015676337 0.0025773805 -0.007924288 -0.009445124
0.006853393 -0.020573014 -0.010177354 0.0076353448 0.00983941 0.0062610433 0.0011313583 -0.010774743
0.007283528 -0.009622193 -0.016860113 0.0117592225 -0.017178826 -0.012709864 -0.005061033 -0.0043478194
-0.0022893788 0.0091900565 0.013877485 -0.020230522 0.0064522424 0.0047070426 -0.01895056 -0.0077824704
-0.020607816 0.009720466 0.008848926 0.0033632056 -0.01362272 -0.0125099 -0.019156741 0.008933599
0.012623599 0.014081078 0.010458664 0.0046186834 -0.006101909 -0.014809707 0.0061261477 -0.0069815638
0.010089731 0.0101011 -0.016800825 0.0018216979 0.012755429 -0.017075542 0.0097862845 0.00034145222
-0.006283973 0.006334796 0.0036331257 0.0051497677 -0.010785911 -0.007867506 0.009329199 -0.020459652
0.010100782 0.0028449364 0.011770223 -0.0019581513 0.007322894 -0.0075455373 -0.019190107 -0.019934094
0.015172579 -0.01324118 -0.0085123535 -0.011474852 0.013181702 -0.01773125 -0.009761727 0.014330281
-0.0061276476 0.0059147244 0.010197869 0.0016056268 -0.0081433365 -0.018245835 -0.016042989 0.0027275328
-0.0037624487 -0.019971717 -0.0061006877 0.0017336129 0.008764099 -0.016669042 -0.020657402 -0.00723109
-0.016925314 -0.017993748 -0.0057378276 0.0072870273 -0.019698331 -0.007768377 -0.016248673 0.0038776181
-0.0004705311 -0.012023875 0.014763314 -0.016816508 -0.019679004 -0.015645158 -0.018574836 -0.0006687382
0.014806372 0.0154424645 -0.019211607 -0.015110655 0.012080593 0.0058226143 0.0038468887 -0.0125871105
0.0067662094 -0.014791384 0.004241618 0.0045391866 0.00039125825 0.01440793 0.0043342677 0.0055858814
-0.004521875 -0.0030556736 -0.0072303484 0.003402054 -0.007915308 -0.0055726836 -0.010145038 0.012574239
-0.007300808 0.011978688 -0.008341652 0.0017088121 0.008624042 -0.013024018 -0.002491519 0.011197514
-0.00595368 0.014293168 0.0018507185 0.0014033854 0.01111193 0.012741902 -0.009176203 0.015578334
-0.016465725 -0.0091317 0.00086617284 0.0102770785 0.005272033 -0.011773933 0.00400042 -0.011798015
0.01079954 -0.0059195394 -0.010683195 0.00237852 0.005061072 -0.0029246334 -0.0050613564 0.0052844817
0.012445132 0.0115897795 0.013857424 -0.009183264 0.0012907294 -0.012048697 -0.0052710976 -0.010339826
0.010826557 -0.010269518 -0.010372735 0.013225024 0.0033373318 0.00536144 -0.012821937 -0.015264209
0.010192352 0.013041253 0.0028677087 0.013586364 -0.009296339 0.014901436 0.013790972 0.010669822
00000000: ac36 58bc 8234 c83b cf2a 50bc e0ec 023c
00000010: 6557 76bb 4af5 363c f53b acbc 7a8e cdba
00000020: 7d0b 13bc 479a abbc 1e5c acbc eebc 51bc
00000030: 850e 55bb 4f8f 353c 3a47 a9bc 7f82 403c
00000040: 3846 8fbc 7394 ad3a bc56 99bc 48af e53b
00000050: 0148 a93b 3446 5b3c 0c9e 65bc 758a e73b
00000060: 235c 60bc cc28 fb3b e01f 02ba cc0d 65bc
00000070: 7aec cfbb b665 6b3b a387 9cbc 4ae6 d5bb
00000080: d897 1e3c 9773 7c3b d719 73bc 84ea 38bc
00000090: 1d21 89bc 4c23 703b 5cbc 30bc 69ad d13b
000000a0: 1816 c2bb 9eb5 963b cc19 323b c4f1 aa3b
000000b0: 93be ac3b da33 333c 098e b53b c48a 8a39
000000c0: 26cc 33bc 45d5 8dbc a4ae 8b3b 7d54 f5bb
000000d0: c15d 743b ec8f 86b9 4286 223c 50a2 ebbb
000000e0: 153f d3bb d212 f9bb 2f62 5c3c 96dc 653b
000000f0: 1381 99bb 621d 67bc ee81 32ba 9354 78bc
00000100: e493 e33b a782 24ba d2a0 8abc 46a6 88bc
00000110: 0f79 cdba 45e9 283b dfd4 01bc b9bf 1abc
00000120: 6d92 e03b bd88 a8bc ebbe 26bc ea31 fa3b
00000130: 7a35 213c 7029 cd3b 164a 943a 8c88 30bc
00000140: a9aa ee3b 67a6 1dbc 381e 8abc c1a9 403c
00000150: 9cba 8cbc 093d 50bc 06d7 a5bb 2778 8ebb
00000160: 6709 16bb e491 163c 645e 633c 7bba a5bc
00000170: 556d d33b 893d 9a3b 343e 9bbc 1804 ffbb
00000180: b9d1 a8bc 9742 1f3c 16fb 103c 3a69 5c3b
00000190: d431 5fbc 53f6 4cbc 99ee 9cbc 3b5e 123c
000001a0: 36d3 4e3c 52b4 663c d15a 2b3c 5358 973b
000001b0: 86f2 c7bb 6aa4 72bc dabd c83b 9ac5 e4bb
000001c0: 664f 253c 167f 253c e2a1 89bc 0ac6 ee3a
000001d0: 26fc 503c 02e2 8bbc a756 203c f104 b339
000001e0: c9e9 cdbb 1f94 cf3b bc19 6e3b 62bf a83b
000001f0: 64b7 30bc b6e6 00bc 7fd9 183c 009b a7bc
00000200: c07d 253c 1d72 3a3b e5d7 403c 5454 00bb
00000210: e3f4 ef3b 8e40 f7bb 9234 9dbc d34c a3bc
00000220: 6996 783c 89f1 58bc 6677 0bbc 0501 3cbc
00000230: 11f8 573c 2041 91bc a7ef 1fbc 8ec9 6a3c
00000240: 6fca c8bb 4ed0 c13b f614 273c e573 d23a
00000250: a16b 05bc 4a78 95bc 966c 83bc 68c0 323b
00000260: 6a93 76bb ba9b a3bc 47e8 c7bb 653a e33a
00000270: 4c97 0f3c 848d 88bc b639 a9bc c8f2 ecbb
00000280: f5a6 8abc a067 93bc 6304 bcbb 04c8 ee3b
00000290: 655e a1bc df8d febb f01b 85bc a31f 7e3b
000002a0: 9db1 f6b9 c9ff 44bc d4e1 713c c6c2 89bc
000002b0: dd35 a1bc 462a 80bc 412a 98bc 434e 2fba
000002c0: 6d96 723c 6402 7d3c a961 9dbc ae92 77bc
000002d0: aeed 453c a1cb be3b 151c 7c3b 2b3a 4ebc
000002e0: 14b7 dd3b 9057 72bc 45fd 8a3b 75bd 943b
000002f0: cb21 cd39 3d0f 6c3c 7906 8e3b c509 b73b
00000300: 3d2c 94bb b241 48bb 8fec ecbb fff4 5e3b
00000310: 35af 01bc 0f9b b6bb 6037 26bc 2e04 4e3c
00000320: 9e3b efbb 4242 443c 6dab 08bc 38fa df3a
00000330: db4b 0d3c b162 55bc c148 23bb c775 373c
00000340: 1617 c3bb e42d 6a3c cf93 f23a cdf1 b73a
00000350: d00e 363c 69c3 503c c957 16bc 453c 7f3c
00000360: 21e3 86bc 209d 15bc e00f 633a 3161 283c
00000370: 05c1 ac3b 74e7 40bc f515 833b 764c 41bc
00000380: 8ef0 303c b2f8 c1bb 9108 2fbc f2e0 1b3b
00000390: 59d7 a53b 35ab 3fbb bcd9 a5bb 7229 ad3b
000003a0: abe6 4b3c 0fe3 3d3c 400a 633c 6775 16bc
000003b0: b12d a93a e667 45bc 2cb9 acbb 6068 29bc
000003c0: df61 313c 7b41 28bc 67f2 29bc c5ad 583c
000003d0: 23b7 5a3b 05af af3b 1a13 52bc bc16 7abc
000003e0: d3fd 263c fbaa 553c 2bf0 3b3b 5799 5e3c
000003f0: ac4f 18bc 2725 743c 87f3 613c 7ad0 2e3c

net.0.bias f4 [50]
0.008496071 -0.016107697 -0.018425243 0.13338065 -0.6558502 -0.17778237 0.22590557 0.4783367
0.008033798 -0.034394305 -0.01480349 -0.0025361993 -0.14063677 -0.0023421505 0.14289248 -0.010359839
0.007192511 0.4357808 -0.008026356 0.007352761 0.03806478 -0.3292548 -0.104039446 -0.20519805
-0.01838018 -0.005917033 0.16734038 -0.20084444 -0.011983688 -0.0018460517 0.011574188 0.007243574
0.37677905 -0.011658419 -0.40296158 0.1825767 -0.0005545606 -0.3897723 -0.008517089 -0.011276658
-0.1858456 0.22200602 -0.012047196 0.25259507 0.010212605 0.0009865736 -0.0037719798 -0.5159157
-0.010352887 -0.012741066
00000000: 1b33 0b3c 4af4 83bc 89f0 96bc f094 083e
00000010: cce5 27bf 950c 36be ca53 673e 8ce8 f43e
00000020: 31a0 033c 0be1 0cbd 568a 72bc 5d36 26bb
00000030: 1603 10be c47e 19bb 6852 123e 50bc 29bc
00000040: 28af eb3b a91e df3e fa80 03bc 6eef f03b
00000050: d1e9 1b3d 1694 a8be a212 d5bd 701f 52be
00000060: 0892 96bc ace3 c1bb 475b 2b3e 2aaa 4dbe
00000070: 3b57 44bc 37f7 f1ba aaa1 3d3c 815b ed3b
00000080: 2fe9 c03e f402 3fbc fb50 cebe 63f5 3a3e
00000090: ef5f 11ba 3c90 c7be 438b 0bbc bbc1 38bc
000000a0: 4f4e 3ebe 8c55 633e 9a61 45bc 2454 813e
000000b0: c552 273c eb4f 813a 5233 77bb 0d13 04bf
000000c0: 289f 29bc e7bf 50bc

net.2.weight f4 [50, 50]
-0.07884733 0.023359986 -0.12972316 0.063490346 -0.14927907 -0.077986546 0.15965024 -0.19217749
0.13812666 0.080158494 0.03702399 0.050777003 0.020001857 0.060571197 0.1419955 0.12710664
0.024787564 -0.12032439 0.11337038 0.000556702 0.039911255 0.14187603 0.3492 -0.049902163
0.12289854 -0.06762964 -0.17796469 0.34208313 0.149584 0.061240066 -0.12819128 0.12169865
0.17853288 -0.03989458 0.060750987 -0.06645027 0.026823336 -0.068834715 -0.11794714 -0.11141575
-0.1487955 -0.1815605 0.11583118 -0.008910036 0.09727308 -0.07233156 -0.09078769 -0.01667105
-0.08085541 -0.07643273 -0.118316494 -0.088587984 0.18934992 0.075711526 0.0988296 0.0436706
0.10811702 -0.10504956 -0.040608376 -0.28732884 0.083088525 -0.14028075 0.09772124 -0.066294216
0.055719685 0.057080947 -0.06341189 -0.15635933 0.10606307 -0.047236234 -0.039222464 0.034872375
-0.1897419 0.051240914 0.13794823 0.09333025 -0.10250391 -0.08186879 -0.31049502 0.065141834
0.058815468 0.1005079 0.16463226 -0.12661831 -0.08647825 -0.0893639 0.13722017 -0.10703964
0.12138591 -0.04819103 0.06469474 0.07586369 0.0464871 -0.11164268 -0.060063064 -0.008945579
0.04241386 -0.22650975 -0.040966906 0.10184745 0.099233545 0.03516907 -0.16591677 0.20793182
0.09636235 -0.16747351 -0.09731384 -0.015313934 -0.012879235 0.02528103 -0.13574699 -0.051627584
-0.39381623 -0.10307756 -0.040402383 -0.14215977 0.115364864 -0.013528232 0.062704094 0.08036373
0.170745 0.0043695536 0.020677712 0.33234465 0.07856508 0.024521846 0.099381454 -0.046864647
-0.03950576 -0.027703092 0.012304537 0.048623037 -0.24513948 -0.13129209 -0.15132026 0.23857485
0.08480499 -0.34315306 0.09960183 -0.014510351 0.29295635 -0.025822435 -0.08113095 0.18880473
-0.027596159 -0.13474213 -0.07302075 -0.06476929 0.06567288 0.12052118 0.07815043 0.07992188
-0.12264713 -0.1633145 0.08520385 0.19893567 0.20117049 -0.022341894 -0.13468032 -0.17243977
-0.021414908 -0.030323446 -0.06911156 -0.13362929 -0.20954981 -0.14390285 0.01761703 -0.047992732
-0.06929244 -0.05696472 -0.19645078 0.08083389 0.1825901 0.29678518 -0.036024515 -0.07831793
-0.029171927 0.13992353 0.10553534 0.0023228477 0.008817627 0.0638526 0.21922803 0.013477517
-0.0139345955 -0.22375801 -0.07604597 -0.15113658 -0.06083731 -0.009369852 0.0930094 0.07352962
-0.07306524 -0.09565722 -0.0019056614 -0.005511156 -0.12377488 0.010589595 0.095790684 -0.07228374
0.11165412 -0.020050155 0.02693715 -0.057218198 0.111074276 -0.22827737 0.13816507 -0.0011281319
-0.0028818676 -0.1418584 0.03240365 0.041491464 0.027136868 0.13713326 0.046631426 0.005926132
-0.006501692 -0.23767464 0.070457995 -0.046220176 -0.11939984 -0.02801877 -0.117062554 0.1807268
-0.1212539 0.054542538 -0.06471112 0.042241696 -0.085425206 0.08323019 0.00045600685 0.004860031
0.10834041 -0.051088892 -0.06007267 0.18041803 0.018521735 0.038087726 0.12484843 0.02950714
0.14382142 0.06987353 -0.020894637 -0.1066544 -0.07653568 -0.04934974 -0.029932221 0.15132143
0.012362529 0.06185922 -0.04969772 0.07247666 -0.15014651 0.21464287 0.16742322 -0.17454256
00000000: b57a a1bd 715d bf3c 26d6 04be 3a07 823d
00000010: 9ddc 18be 69b7 9fbd 5a7b 233e 2dca 44be
00000020: 1371 0d3e 232a a43d 78a6 173d 8cfb 4f3d
00000030: efda a33c 8119 783d 4567 113e 3e28 023e
00000040: 4a0f cb3c a26c f6bd bb2e e83d a4ef 113a
00000050: fc79 233d f347 113e 58ca b23e 3666 4cbd
00000060: 3bb2 fb3d 6981 8abd 603c 36be 8525 af3e
00000070: 8c2c 193e ddd6 7a3d 9344 03be 243d f93d
00000080: 53d1 363e 8068 23bd 07d6 783d 1417 88bd
00000090: 9dbc db3c 37f9 8cbd 458e f1bd f12d e4bd
000000a0: d95d 18be ffea 39be e638 ed3d 66fb 11bc
000000b0: 1c37 c73d 9222 94bd e5ee b9bd ba91 88bc
000000c0: 8597 a5bd c388 9cbd eb4f f2bd 9e6d b5bd
000000d0: f2e4 413e a50e 9b3d 2c67 ca3d f1df 323d
000000e0: 756c dd3d 3924 d7bd f854 26bd c41c 93be
000000f0: 512a aa3d c2a5 0fbe 1322 c83d 43c5 87bd
00000100: 533a 643d b6cd 693d 18de 81bd a91c 20be
00000110: 9837 d93d c87a 41bd bca7 20bd 56d6 0e3d
00000120: b34b 42be fee1 513d 4d42 0d3e ee23 bf3d
00000130: 92ed d1bd d3aa a7bd 34f9 9ebe 1569 853d
00000140: 7de8 703d 16d7 cd3d 5c95 283e 3ba8 01be
00000150: 821b b1bd 6c04 b7bd 7283 0c3e 9937 dbbd
00000160: 2d99 f83d f563 45bd ad7e 843d 6c5e 9b3d
00000170: 4269 3e3d eba4 e4bd b004 76bd 7a90 12bc
00000180: 28ba 2d3d 2cf2 67be eacc 27bd 6595 d03d
00000190: f53a cb3d 710d 103d 16e6 29be 14ec 543e
000001a0: a059 c53d 2d7e 2bbe 7b4c c7bd 4be7 7abc
000001b0: 6d03 53bc 2a1a cf3c 4201 0bbe 7277 53bd
000001c0: 48a2 c9be 541a d3bd f87c 25bd 5592 11be
000001d0: 6a44 ec3d 85a5 5dbc 016b 803d bd95 a43d
000001e0: c7d7 2e3e 792e 8f3b 4e64 a93c 1429 aa3e
000001f0: bbe6 a03d 0ae2 c83c 8188 cb3d 25f5 3fbd
00000200: cbd0 21bd 98f1 e2bc f898 493c f328 473d
00000210: d805 7bbe 6f71 06be b3f3 1abe f74c 743e
00000220: 3dae ad3d c2b1 afbe 0bfc cb3d d3bc 6dbc
00000230: 60fe 953e 9289 d3bc fc27 a6bd 0756 413e
00000240: 5711 e2bc d7f9 09be e78b 95bd c3a5 84bd
00000250: 817f 863d cfd3 f63d 550d a03d 15ae a33d
00000260: 6b2e fbbd eb3b 27be 5b7f ae3d cbb5 4b3e
00000270: a3ff 4d3e 5906 b7bc a3e9 09be 0d94 30be
00000280: 516e afbc e068 f8bc 5d8a 8dbd 1ed6 08be
00000290: 3a94 56be 455b 13be 9751 903c 0794 44bd
000002a0: 32e9 8dbd d753 69bd 652a 49be 3d8c a53d
000002b0: e6f8 3a3e 3af4 973e 718e 13bd 2765 a0bd
000002c0: f7f9 eebc 1d48 0f3e ea22 d83d eb3a 183b
000002d0: cf77 103c 27c5 823d 507d 603e ced0 5c3c
000002e0: ee4d 64bc d220 65be fdbd 9bbd 8cc3 1abe
000002f0: 8b30 79bd 0284 19bc b67b be3d b396 963d
00000300: 3ba3 95bd efe7 c3bd 63c7 f9ba ed96 b4bb
00000310: af7d fdbd fb7f 2d3c e82d c43d 7f09 94bd
00000320: eaaa e43d 3940 a4bc 4cab dc3c a15d 6abd
00000330: e97a e33d 8bc1 69be 257b 0d3e d3dd 93ba
00000340: b7dd 3cbb 5443 11be b1b9 043d f4f2 293d
00000350: 234e de3c a96c 0c3e 9800 3f3d 0030 c23b
00000360: 250c d5bb fb60 73be 484c 903d 5e51 3dbd
00000370: e787 f4bd 9f87 e5bc 7ebe efbd 7210 393e
00000380: f753 f8bd ff67 5f3d 4487 84bd a105 2d3d
00000390: 69f3 aebd 9774 aa3d 3414 ef39 e540 9f3b
000003a0: 94e1 dd3d 9642 51bd c30e 76bd 81bf 383e
000003b0: e5ba 973c e001 1c3d 89b0 ff3d f5b8 f13c
000003c0: ec45 133e da19 8f3d 3b2b abbc 9f6d dabd
000003d0: bdbe 9cbd f422 4abd 6b34 f5bc 01f4 1a3e
000003e0: 348c 4a3c 1860 7d3d d68f 4bbd a56e 943d
000003f0: 02c0 19be 57cb 5b3e fe70 2b3e 49bb 32be

net.2.bias f4 [50]
-0.0628785 -0.48026296 0.12963343 -0.12659751 -0.40737885 -0.42014495 -0.21202055 0.69999284
0.14235367 0.21483786 -0.16850023 0.116402484 -0.034567226 -0.34209362 0.5255721 -0.3629723
-0.17209448 0.11527728 -0.4832514 0.6513882 0.41811267 -0.0016323846 0.19293283 0.3710458
0.27797255 0.33127183 0.2569646 0.16056725 -0.032795414 0.69459254 0.06352476 0.29695046
-0.32527712 -0.126893 0.87294805 0.124303535 0.35153893 0.21960756 0.2205993 0.30860543
-0.18708931 -0.35691473 -0.58740854 0.038861994 0.45557493 0.12141051 0.020242436 -0.6835824
-0.3529478 0.18774706
00000000: 71c6 80bd 07e5 f5be a0be 043e c7a2 01be
00000010: f693 d0be 3d1d d7be ea1b 59be bb32 333f
00000020: 29c5 113e 75fe 5b3e 538b 2cbe 6d64 ee3d
00000030: 5d96 0dbd e526 afbe e58b 063f 81d7 b9be
00000040: 8939 30be 7f16 ec3d ba6c f7be 61c1 263f
00000050: dd12 d63e bdf5 d5ba 2f90 453e b7f9 bd3e
00000060: 6b52 8e3e 769c a93e dd90 833e be6b 243e
00000070: 7c54 06bd d1d0 313f 4519 823d e409 983e
00000080: b98a a6be 3df0 01be 8679 5f3f da92 fe3d
00000090: e9fc b33e cee0 603e c8e4 613e 8801 9e3e
000000a0: 5794 3fbe 87bd b6be 6860 16bf c12d 1f3d
000000b0: 1e41 e93e 13a6 f83d 77d3 a53c 42ff 2ebf
000000c0: 93b5 b4be c440 403e

net.4.weight f4 [10, 50]
-0.026022766 0.09999354 -0.40479678 -0.20518218 0.223394 0.0012683959 0.0680299 -0.5819025
-0.10333516 -0.02092735 0.24470076 -0.085074514 -0.50573814 0.0404989 0.41708505 0.28562167
0.026973605 0.135 0.13717853 0.14542934 0.12959078 -0.45137593 -0.11971363 -0.19700254
-0.107399546 -0.4885404 -0.046423838 -0.26905867 -0.012499687 -0.020542683 0.13413534 -0.15411042
0.20924959 0.24702977 0.023674719 -0.4222385 0.13319102 -0.053898543 -0.14998586 0.07112787
-0.367423 -0.05913707 0.3061348 -0.058939703 0.19101126 0.06747539 0.03631408 -0.44633648
0.2061816 0.05376344 0.4339281 -0.20517598 -0.39519715 0.5193702 -0.25207555 0.03482436
-0.16197136 -0.06897877 -0.40940088 -0.12935433 -0.016398875 0.14182721 -0.6257826 0.07748782
-0.27272126 0.2584278 -0.053221583 -0.12658472 -0.14742291 0.035446353 -0.29622382 0.28517973
-0.13043411 -0.058740973 -0.3662956 -0.34703326 -0.32106858 0.0076418584 0.2393354 -0.63185817
0.16763139 -0.40280086 0.0037004587 0.30048528 -0.18418294 0.049991433 0.13988148 0.17403592
0.23107079 0.18883966 -0.13844644 0.28564498 -0.21643128 -0.003657718 -0.34039712 -0.11704043
-0.1296304 -0.20705093 0.1752325 0.34763417 -0.14277692 0.058931597 -0.046012174 -0.34376952
0.011587262 -0.31136802 0.10454079 0.0052614957 0.20272133 0.2639615 0.03218906 -0.25322467
0.0472788 -0.31978378 0.32310444 -0.19178538 -0.35794747 -0.16649891 -0.19660252 0.23649001
0.2509908 -0.09888798 0.4609626 0.08868122 0.1407723 0.38541475 0.1784652 -0.2972216
-0.38669828 0.07075955 0.2147709 -0.20981203 -0.1543822 -0.24555169 0.1534389 -0.03443001
-0.046938423 -0.22010814 0.028721977 0.30483606 0.31917354 -0.07335116 -0.19467632 -0.022376375
-0.10703891 0.17249916 -0.07062349 -0.07060912 -0.14348088 0.06141799 -0.08367195 0.038645625
0.15277322 -0.28710756 -0.0917119 -0.09844886 -0.07240012 -0.12409883 0.0034541267 -0.18435022
-0.06902379 0.06594438 0.22123434 0.110991485 0.018916193 -0.12525234 -0.1820651 0.068268135
0.03773415 0.10595967 0.075547025 0.16968991 0.10867517 0.09324613 -0.18466184 0.14898653
0.20814028 0.08464649 0.15316004 0.13645275 -0.049386304 -0.014405578 -0.15770504 -0.26804984
-0.07373033 0.23758394 -0.19806491 -0.056671046 -0.11099516 0.07581612 0.37323254 -0.13977876
0.058774654 -0.032009684 0.23412432 -0.14222346 -0.13362338 0.3163231 -0.36675006 -0.24352339
-0.01881801 0.07424034 -0.07584587 -0.45966542 -0.24764925 -0.17360525 0.099748805 0.30339494
0.23751241 0.06511943 0.045541804 0.02198401 -0.28188568 -0.2412784 0.07715179 0.057645228
-0.19085513 0.22353487 -0.045555066 0.25349137 0.19056807 -0.42093742 -0.41336352 -0.17547847
0.12430818 0.012240067 0.3111816 -0.22144729 -0.29069653 0.0789836 -0.1193901 0.2911685
-0.52325064 -0.2324853 0.11739982 -0.18222882 0.21408544 0.066918194 -0.24904831 0.1096878
-0.25191805 -0.5624119 -0.29348707 0.1280041 0.026467688 -0.13508862 -0.03687523 -0.23301782
0.22298571 0.081724696 0.08663263 0.3954848 0.2558565 -0.12295771 0.070252515 -0.11595689
00000000: b22d d5bc 6ac9 cc3d 8641 cfbe 471b 52be
00000010: 66c1 643e 4e40 a63a 4353 8b3d 90f7 14bf
00000020: 62a1 d3bd d56f abbc d692 7a3e 8c3b aebd
00000030: 0e78 01bf 2de2 253d 2c8c d53e 013d 923e
00000040: c0f7 dc3c 713d 0a3e 8778 0c3e 6eeb 143e
00000050: 72b3 043e bf1a e7be 6b2c f5bd 09bb 49be
00000060: 4bf4 dbbd f821 fabe ec26 3ebd 0fc2 89be
00000070: 7dcb 4cbc 2149 a8bc c65a 093e 1fcf 1dbe
00000080: 8645 563e 5ff5 7c3e 7cf1 c13c a52f d8be
00000090: 3a63 083e b8c4 5cbd e595 19be 7dab 913d
000000a0: de1e bcbe b639 72bd b3bd 9c3e c26a 71bd
000000b0: 7598 433e 8a30 8a3d 13be 143d 3786 e4be
000000c0: 4521 533e 0e37 5c3d d32b de3e a719 52be
000000d0: 4857 cabe 72f5 043f 0c10 81be fda3 0e3d
000000e0: d2db 25be be44 8dbd fe9c d1be 7675 04be
000000f0: ef56 86bc 273b 113e 4a33 20bf efb1 9e3d
00000100: 1fa2 8bbe a650 843e e0fe 59bd 6d9f 01be
00000110: 08f6 16be 3230 113d a6aa 97be 1403 923e
00000120: 8590 05be 609a 70bd 198b bbbe 58ae b1be
00000130: 1a63 a4be 8e68 fa3b 5714 753e 75c1 21bf
00000140: 90a7 2b3e ea3b cebe 6583 723b 35d9 993e
00000150: 749a 3cbe d1c3 4c3d 173d 0f3e 7936 323e
00000160: d29d 6c3e 2f5f 413e e7c4 0dbe 0f40 923e
00000170: 29a0 5dbe 53b6 6fbb 8848 aebe e5b2 efbd
00000180: d5bd 04be 2905 54be 2670 333e 1bfd b13e
00000190: 1d34 12be 4262 713d 4377 3cbd 8f02 b0be
000001a0: 80d8 3d3c a16b 9fbe 7b19 d63d a068 ac3b
000001b0: 2e96 4f3e f625 873e add8 033d aaa6 81be
000001c0: 6aa7 413d b3ba a3be f26d a53e 6363 44be
000001d0: e444 b7be b17e 2abe 2c52 49be 702a 723e
000001e0: de81 803e c885 cabd 4a03 ec3e 809e b53d
000001f0: 9d26 103e 1555 c53e 95bf 363e 6e2d 98be
00000200: 51fd c5be 62ea 903d e7ec 5b3e f7d8 56be
00000210: 5e16 1ebe e771 7bbe 161f 1d3e 7b06 0dbd
00000220: 8142 40bd 0764 61be 5a4a eb3c 7913 9c3e
00000230: b76a a33e 2239 96bd 3b59 47be a94e b7bc
00000240: 3737 dbbd 9fa3 303e 0ca3 90bd 849b 90bd
00000250: a7ec 12be 6e91 7b3d 335c abbd e04a 1e3d
00000260: 9570 1c3e c3ff 92be 73d3 bbbd 8e9f c9bd
00000270: 8446 94bd 8727 febd a15e 623b 4ec6 3cbe
00000280: 585c 8dbd d90d 873d 418b 623e 814f e33d
00000290: 22f6 9a3c 2642 00be 466f 3abe 2ad0 8b3d
000002a0: 208f 1a3d 6201 d93d 66b8 9a3d 31c3 2d3e
000002b0: 1691 de3d d4f7 be3d fe17 3dbe ed8f 183e
000002c0: ba22 553e 245b ad3d fcd5 1c3e 45ba 0b3e
000002d0: 4b49 4abd 6005 6cbc 6e7d 21be d43d 89be
000002e0: edff 96bd 3449 733e 87d1 4abe e61f 68bd
000002f0: 6e51 e3bd 7b45 9b3d 5618 bf3e 2a22 0fbe
00000300: b1bd 703d 961c 03bd 49be 6f3e 07a3 11be
00000310: 91d4 08be 1af5 a13e aac6 bbbe 325e 79be
00000320: 3a28 9abc 520b 983d 1455 9bbd 4459 ebbe
00000330: c497 7dbe 93c5 31be 1a49 cc3d 9556 9b3e
00000340: 7436 733e 565d 853d 0b8a 3a3d cf17 b43c
00000350: 5253 90be af11 77be c201 9e3d 671d 6c3d
00000360: 876f 43be 53e6 643e f397 3abd 9fc9 813e
00000370: 4724 433e 1c85 d7be 62a4 d3be a1b0 33be
00000380: 4995 fe3d 908a 483c 3253 9f3e 14c3 62be
00000390: 2dd6 94be 27c2 a13d cc82 f4bd 0a14 953e
000003a0: c1f3 05bf a010 6ebe 516f f03d 319a 3abe
000003b0: 3739 5b3e 680c 893d 8506 7fbe ffa3 e03d
000003c0: 67fb 80be 3afa 0fbf f043 96be 8213 033e
000003d0: c4d2 d83c ac54 0abe 7b0a 17bd 399c 6ebe
000003e0: 5e56 643e 475f a73d 736c b13d fc7c ca3e
000003f0: a0ff 823e 40d1 fbbd 8de0 8f3d ce7a edbd

net.4.bias f4 [10]
-0.3733507 0.003490465 0.10593856 0.10601715 0.31939152 -0.31358662 0.50439554 -0.10872297
0.032692667 -0.17887822
00000000: d327 bfbe 49c0 643b 51f6 d83d 851f d93d
00000010: 4987 a33e 6d8e a0be 1120 013f 26aa debd
00000020: bfe8 053d da2b 37be
