data/models/cifar/cifar_50x4.pth (torch, 651445 bytes, 10 tensors)

net.0.weight f4 [50, 3072]
0	0x3d2ff5a8	0.042958885
1	0x3dbc0c8e	0.09182082
2	0x3d06e943	0.0329373
3	0x3c451db4	0.012031008
4	0xbcebedcf	-0.02879992
5	0x3c30fc02	0.010802271
6	0xbad294c4	-0.0016066064
7	0x391326ac	0.00014033419
8	0x3ae7b8da	0.0017678991
9	0xbc04e900	-0.008112192
10	0x3b9c16fb	0.0047634817
11	0xbd08fedf	-0.03344619
12	0xbd7ca838	-0.061683863
13	0x3b949ef4	0.0045355503
14	0xbc2d852d	-0.010590834
15	0xbcb7bddb	-0.022429397
16	0xbcfbdf49	-0.03074612
17	0xbd6fb470	-0.058521688
18	0xbc283bba	-0.010268146
19	0xbcccf85d	-0.025020773
20	0xbd353946	-0.044244073
21	0xbd395dd4	-0.045255497
22	0xbcf41ffb	-0.029800406
23	0xbca0d2df	-0.019631801
24	0xbb48eae6	-0.0030657589
25	0xbcb99335	-0.022653202
26	0xbc1487a7	-0.009065545
27	0x3a1b241b	0.0005918161
28	0xbd1c24c5	-0.038121004
29	0xbd843420	-0.064552546
30	0x3c803254	0.015648998
31	0xbc85a569	-0.016314225
32	0x3d3c42f1	0.045962278
33	0x3d74702b	0.059677284
34	0x3ab24792	0.0013601652
35	0x3ce6af8d	0.028159881
36	0xbcf62b36	-0.030049901
37	0xbca1a7f7	-0.019733412
38	0xbc925b48	-0.017865792
39	0x3cad18e4	0.021130033
40	0x3bb74c6e	0.005593828
41	0xbc9ed079	-0.019386517
42	0xbc8f2a3d	-0.017476195
43	0xbd225ae0	-0.039637446
44	0xbdaf20c6	-0.08551173
45	0xbb6f0d83	-0.003647656
46	0xbc543431	-0.0129518965
47	0xbd203643	-0.039114248
48	0xbce7cf80	-0.028297186
49	0x3b8157c4	0.00394723
50	0x3c5da2e5	0.013527607
51	0xbc8ddcf3	-0.01731727
52	0x3c545797	0.012960336
53	0x3b881557	0.0041529345
54	0xbc2f23f4	-0.010689724
55	0x3bbba8a0	0.005726889
56	0xbc8019da	-0.015637327
57	0x3c8524ad	0.01625284
58	0xbbaa52ba	-0.00519785
59	0x3c936634	0.01799307
60	0xbb4eb515	-0.0031541039
61	0xbcc4cc57	-0.024023218
62	0x3da99a2e	0.082813606
63	0x3daface3	0.085778974
64	0x3d4e0882	0.050301082
65	0x3d098a18	0.033578962
66	0xbc5d726b	-0.013516049
67	0xbbd5f927	-0.0065299454
68	0xbd2e6777	-0.04257914
69	0x3b702439	0.0036642684
70	0x3d09ca76	0.033640347
71	0x3d24c2c6	0.040224813
72	0x3bae9174	0.005327398
73	0xbc0b094c	-0.008486103
74	0xbbe69265	-0.0070364946
75	0xbd72ee40	-0.059309244
76	0xbd63076e	-0.055427007
77	0xbbaa727f	-0.0052016373
78	0xbcacab5b	-0.021077802
79	0xbd082544	-0.033238664
80	0xbce7538e	-0.028238084
81	0xbc90433a	-0.017610181
82	0x3d0e947e	0.034809582
83	0x3ad1d95c	0.0016010213
84	0x3d8a930e	0.0676633
85	0x3cf5ffad	0.030029142
86	0x3c940da0	0.018072903
87	0x3d14b189	0.036302123
88	0x3d40ef24	0.047103062
89	0x3c89c894	0.016819276
90	0x3ca80493	0.020509994
91	0x3d6f949f	0.058491345
92	0x3c988177	0.018616421
93	0x3cb1085c	0.021610431
94	0x3cb4d253	0.022072947
95	0x3d8aa683	0.06770041
96	0x3dbafeed	0.091306545
97	0x3d064b7d	0.032786835
98	0xbd12bb53	-0.035823178
99	0xbca00a1b	-0.019536069
100	0xbd0d9ffa	-0.034576394
101	0x3cd77b69	0.026303964
102	0x3a8279d1	0.0009954517
103	0xb9e971e0	-0.00044526067
104	0x3cc3f6f6	0.023921471
105	0x3c158431	0.009125755
106	0xbd0bffa5	-0.03417935
107	0xbd88ce5c	-0.06679985
108	0xbd13ea8a	-0.036112346
109	0x3c999e69	0.018752294
110	0xbd151214	-0.036394194
111	0xbd300c1d	-0.042980302
112	0xbd4db74c	-0.050223634
113	0xbda231bc	-0.07919642
114	0xbcebc3b4	-0.028779842
115	0x3cfbdf6e	0.030746188
116	0x3d21e4f5	0.03952499
117	0x3b297a6d	0.0025860325
118	0xbc90ac54	-0.017660297
119	0x3c783c86	0.015151149
120	0x3d1b13a1	0.037860516
121	0x3c82d1f6	0.015969258
122	0x3c019482	0.007908942
123	0x3c5c8e7c	0.013461705
124	0xbc83c924	-0.016087122
125	0x3d1240d7	0.035706367
126	0x3cd7efeb	0.026359519
127	0x3d152c3d	0.036419142
128	0x3dc0104a	0.09378107
129	0x3cce723b	0.025200954
130	0x3b55ce54	0.0032624202
131	0x3be04273	0.006843859
132	0x3c84f82f	0.016231624
133	0x3cfc5c18	0.030805632
134	0x3cf384b2	0.02972636
135	0x3c842ce9	0.016134696
136	0x3ca8c37b	0.020601025
137	0xbacc3688	-0.0015580216
138	0xbd053206	-0.03251841
139	0xbd90b04f	-0.07064878
140	0xbdbaf49b	-0.09128686
141	0xbce62bc8	-0.028097048
142	0xbd203d1a	-0.03912077
143	0xbd7023e7	-0.05862799
144	0xbd80fcb0	-0.06298196
145	0xbdc0dfca	-0.094176844
146	0xbd68c90d	-0.056832362
147	0x3d111fa0	0.03543055
148	0x3ccc5d00	0.02494669
149	0x3cffae7c	0.03121113
150	0x3b66ca1a	0.0035215677
151	0x3d28297c	0.041055188
152	0x3cf3b394	0.029748715
153	0x3ce8bc17	0.02841
154	0x3d854b2b	0.06508478
155	0x3d0cf969	0.034417544
156	0xbc115ec2	-0.00887269
157	0xbbdaee0e	-0.0066812104
158	0x3d70f2f0	0.058825433
159	0x3d177f68	0.03698674
160	0x3c1e526b	0.009663205
161	0x3cc0a65d	0.023516828
162	0x3d60bb9b	0.054866415
163	0x3d918ab6	0.07106535
164	0xbb5e6655	-0.0033935506
165	0x3cab463f	0.02090752
166	0x3d8fbe0b	0.0701867
167	0x3c89de71	0.016829701
168	0xba94bd74	-0.0011347965
169	0xbb4889df	-0.0030599756
170	0xb9f89648	-0.00047414214
171	0xbbb0397f	-0.005377948
172	0xbcf755ac	-0.030192219
173	0x3c77ca7f	0.015123962
174	0x3d10fa18	0.035394758
175	0xbbd2957a	-0.0064265104
176	0xbd27ade9	-0.040937338
177	0xbccc93b5	-0.024972776
178	0x3d749efe	0.05972194
179	0x3d3ef5cc	0.04662113
180	0x3cca95cb	0.02472963
181	0x3c95d546	0.018290173
182	0x3d333469	0.043751154
183	0x3d00af95	0.031417448
184	0x3d021752	0.03176052
185	0x3d1e17bf	0.038596865
186	0x3cf07a0c	0.029355071
187	0x3d041b5b	0.03225265
188	0x3d6b70be	0.057480566
189	0x3ceec8eb	0.02914854
190	0x3bc8bf1f	0.006126299
191	0x3d8db149	0.0691858
192	0xbc9abf3c	-0.018890016
193	0x3d81c78e	0.0633689
194	0x3d0ff019	0.035141084
195	0x3cde0338	0.027101144
196	0xbc91face	-0.017819788
197	0xbc093cf2	-0.008376347
198	0x3c661274	0.0140424855
199	0x3c68630a	0.014183769
200	0xbc8f9337	-0.017526252
201	0xbc080e39	-0.008304172
202	0x3be2975c	0.006915016
203	0x3d0c3261	0.034227733
204	0x3d351a60	0.044214606
205	0x3d4c946b	0.04994623
206	0x3d0b5803	0.03401948
207	0x3d2dd0f4	0.0424356
208	0x3d05e7da	0.032691814
209	0x3b06bf3d	0.0020560764
210	0x3cea80e2	0.02862591
211	0x3d4fff65	0.050780673
212	0x3da6b00e	0.081390485
213	0x3d7951b4	0.060868934
214	0x3c71d9df	0.014761417
215	0x3d1ec06d	0.03875773
216	0x3c81a37d	0.015825028
217	0x3d20b69c	0.03923665
218	0xbc52ffb1	-0.012878344
219	0xbcf4a11d	-0.029861981
220	0x3db5db3e	0.08879708
221	0x3d122c43	0.035686743
222	0x3c521a11	0.0128235975
223	0x3d5e8e05	0.05433466
224	0xbb21a5e9	-0.002466554
225	0x3d83348e	0.064065084
226	0xbce8eaa0	-0.02843219
227	0x3d04df34	0.032439426
228	0xbc8f8856	-0.017521065
229	0xbd3225c9	-0.043493066
230	0xbbfbe092	-0.007686683
231	0xbc16dd80	-0.009208083
232	0xbce3186b	-0.027721604
233	0xbc313ee8	-0.010818221
234	0xbd685b2f	-0.056727584
235	0x3cffcb38	0.031224832
236	0x3d8545e6	0.06507473
237	0x3cc17afd	0.023618216
238	0x3d60f21c	0.054918393
239	0x3cdf1610	0.0272322
240	0x3c2bfa04	0.01049662
241	0x3c818e6b	0.01581498
242	0x3da98889	0.08277995
243	0x3d78d481	0.060749535
244	0x3d6dea3a	0.058084704
245	0x3d60b5e5	0.05486097
246	0xbc630c32	-0.013857888
247	0x3d32a2a9	0.043612156
248	0x3d8c1505	0.06839947
249	0x3debcabe	0.115132794
250	0x3da1d8b2	0.079026595
251	0x3cbabba5	0.022794554
252	0x3d939c07	0.07207494
253	0x3d4465ab	0.04794852
254	0xb9e6d079	-0.00044024343
255	0x3d08ccdb	0.03339849

net.0.bias f4 [50]
0	0x3e3c5adb	0.18394034
1	0xbd4fd41e	-0.0507394
2	0xbd217368	-0.0394167
3	0x3c33739e	0.010952858
4	0x3ddf03ae	0.10889374
5	0x3d9180b9	0.0710463
6	0xbe9e4f29	-0.3091977
7	0xbc8c70fb	-0.017143717
8	0xbc3b9211	-0.011448399
9	0xbc856998	-0.016285703
10	0xbcec460c	-0.028841995
11	0x3c1423e9	0.009041765
12	0xbc9f78b8	-0.019466743
13	0xbc39419b	-0.0113071455
14	0xba09b50d	-0.0005253114
15	0xbc5a2b78	-0.013316028
16	0xbefa5259	-0.4889095
17	0xbed208c4	-0.41022313
18	0x3a0a2ab0	0.0005270643
19	0xbd1e3957	-0.038628902
20	0xbd274a54	-0.04084237
21	0xbc73dc59	-0.014884078
22	0x3e0ebc4c	0.13939017
23	0x3b8a4026	0.004219073
24	0xbd117370	-0.03551048
25	0xbbd9d235	-0.006647373
26	0x3c1c5a0d	0.009542954
27	0xbc874659	-0.016513037
28	0x3b464e32	0.003025901
29	0xbe38dcd9	-0.18052997
30	0x3abe372a	0.001451229
31	0x3dc4fb0a	0.096181944
32	0xbb20ebc9	-0.0024554601
33	0xbc9cda98	-0.019147202
34	0x3dbe0f63	0.092802785
35	0x3c0fc510	0.008775011
36	0xbc95c5fa	-0.01828288
37	0x3c44304b	0.011974405
38	0x3b3a52e4	0.0028430754
39	0x3e08dffd	0.13366695
40	0x3c171699	0.009221696
41	0x3bd65d51	0.006541886
42	0x3c764a1f	0.01503232
43	0xbd946dd1	-0.07247508
44	0x3c12b3f1	0.008954034
45	0x3a9e69e7	0.0012086005
46	0xbb1ab5bb	-0.0023606855
47	0x3d7749df	0.060373183
48	0x3ed56318	0.41677165
49	0x3c48d0df	0.01225683

net.2.weight f4 [50, 50]
0	0xbc71306c	-0.014721017
1	0x3ce6815b	0.028137853
2	0x3e1d62a2	0.15369657
3	0x3d27deaf	0.040983852
4	0x3b99bc72	0.004691654
5	0xbde798cc	-0.113084406
6	0x3df623a8	0.1201852
7	0x3d8b9e71	0.0681733
8	0x3d985a53	0.07439103
9	0xbdc040bb	-0.09387346
10	0x3ba4fea1	0.005035237
11	0x3d4fdea6	0.050749443
12	0xbd82fa7a	-0.06395431
13	0x3ddb9ea1	0.107236154
14	0x3ccc8f97	0.024970813
15	0xbe08c3e4	-0.13355976
16	0xbd9ce407	-0.0766068
17	0x3e44a5ec	0.19203919
18	0xbdc98294	-0.09839359
19	0xbe2b57f3	-0.16732769
20	0xbe1e8129	-0.15478958
21	0xbdfc5a9c	-0.1232197
22	0xbd939915	-0.072069325
23	0xbceaf939	-0.028683292
24	0x3deb0804	0.11476138
25	0x3daf9d47	0.0857492
26	0xbe0fceef	-0.14043783
27	0xbe05fc5c	-0.13084549
28	0xbdc98b35	-0.09841005
29	0xbd6c0208	-0.057619125
30	0xbd0752e0	-0.03303802
31	0x3dfb79ac	0.122790664
32	0xbddd170b	-0.10795411
33	0xbd9ffef8	-0.07812303
34	0x3db73402	0.089454666
35	0x3bf77f81	0.0075530414
36	0x3c068724	0.008210931
37	0xbdd9f17c	-0.106417626
38	0x3d228995	0.03968199
39	0xbc1ade38	-0.009452395
40	0x3d850d41	0.064966686
41	0xbc826de2	-0.015921537
42	0x3c426bfa	0.011866564
43	0x3e340434	0.17579728
44	0xbdd85076	-0.10562222
45	0x3ddd7547	0.108133845
46	0x3c922944	0.017841943
47	0xbd8af832	-0.06785621
48	0xbe37d4dd	-0.17952295
49	0x3da805fc	0.082042664
50	0xbc59ce45	-0.013293807
51	0x3c99c7ec	0.018772088
52	0x3dada920	0.08479524
53	0x3e06d83f	0.13168429
54	0xbe6e15ec	-0.2325055
55	0xbde50c61	-0.11184002
56	0xbe4e5e7b	-0.20153229
57	0x3dabdf84	0.083922416
58	0x3cb80c66	0.02246685
59	0xbccd9456	-0.025095146
60	0xbdab5c31	-0.083671935
61	0xbe019804	-0.12655646
62	0xbc8e7537	-0.017389877
63	0xbc833c4e	-0.016019966
64	0xbcdffeb2	-0.027343128
65	0xbdca44e9	-0.09876425
66	0x3e28d0b9	0.16485871
67	0x3e51bf9d	0.20483251
68	0x3e0d05db	0.13771765
69	0x3dd7ebec	0.105430454
70	0x3e21407e	0.15747258
71	0x3d4d8e39	0.050184462
72	0x3ddc9223	0.10770061
73	0xbe108117	-0.14111744
74	0xbe1eb9c0	-0.15500546
75	0x3dc958a0	0.09831357
76	0x3e0c6353	0.13709764
77	0x3d857dbd	0.06518123
78	0xbdd268c8	-0.10273892
79	0xbe057402	-0.13032535
80	0x3d85b71f	0.06529068
81	0xbc52e3f8	-0.012871735
82	0xbdb3c1b9	-0.08777184
83	0xbce0084d	-0.027347708
84	0xbceb6cb1	-0.028738352
85	0xbd06d78f	-0.032920416
86	0x3c21ecc8	0.009883113
87	0xbce69eab	-0.02815183
88	0x3c5289db	0.01285025
89	0xbd206e57	-0.03916773
90	0x3da0af5b	0.078459464
91	0xbc4a418b	-0.012344728
92	0x3e0494b4	0.1294735
93	0xbcee1935	-0.029064754
94	0xbdf88419	-0.12134571
95	0xbbc5ef71	-0.0060405065
96	0xbd55b9c1	-0.0521791
97	0x3cee8191	0.029114516
98	0xbdbf438e	-0.09339057
99	0x3ca4c04b	0.020111224
100	0x3dd495b6	0.103801176
101	0x3e386844	0.18008524
102	0x3e1d3490	0.15352082
103	0xbd2291fe	-0.03969001
104	0x3d06d975	0.032922227
105	0xbabb2737	-0.0014278655
106	0xbc325414	-0.010884304
107	0x3dfee302	0.12445642
108	0xbdf10f3e	-0.11770485
109	0xbc6be0bc	-0.014396843
110	0xbdd8af44	-0.10580304
111	0x3e0b1b58	0.1358465
112	0x3d6f698e	0.058450274
113	0x3dd4955d	0.10380051
114	0x3d9b261b	0.075756274
115	0xbd16c0f4	-0.03680511
116	0x3e23edaf	0.16008638
117	0xbba78de9	-0.0051133526
118	0xbce152e9	-0.027505355
119	0xbdb303a9	-0.087409325
120	0x3e16c7e1	0.14724685
121	0xbd0f99d6	-0.03505882
122	0xbe23682c	-0.15957707
123	0xbdb85853	-0.090012215
124	0x3e34fbf2	0.17674235
125	0xbdde1e4b	-0.10845622
126	0xbb9dfc7c	-0.0048213582
127	0xbcba1021	-0.022712769
128	0xbde4c00c	-0.111694425
129	0x3ce98022	0.028503481
130	0xbc8acabc	-0.016942374
131	0x3df3db25	0.11907033
132	0x3dad8bb2	0.084739104
133	0xbdd7eeaa	-0.105435684
134	0x3e0a0569	0.13478626
135	0x3deae645	0.11469702
136	0xbd2cef9f	-0.042220708
137	0xbcdbdaaf	-0.026837675
138	0xbc95a905	-0.018269071
139	0xbdcbe6f1	-0.09956158
140	0x3dad5cad	0.08464942
141	0x3d26e79e	0.04074823
142	0xbe035d0d	-0.12828465
143	0xbc9bc71c	-0.019015841
144	0x3c5cdb8e	0.01348008
145	0x3dbf626f	0.093449466
146	0xbcc30bad	-0.023809278
147	0x3db34941	0.087542064
148	0xbe086e6c	-0.13323373
149	0x3e03b34e	0.12861368
150	0x3e2d2229	0.16907562
151	0x3dfe28e6	0.124101445
152	0xbdc66f77	-0.09689229
153	0x3db23fb4	0.08703557
154	0x3df5cf10	0.12002385
155	0xbd8e38ad	-0.06944404
156	0x3dbb8d74	0.091578394
157	0xbd735056	-0.059402786
158	0xbe0888d9	-0.13333453
159	0xbde18c8d	-0.11013136
160	0xbe4f83ee	-0.20265171
161	0xbe0298e5	-0.12753637
162	0xbd74d630	-0.059774578
163	0x3deb5956	0.11491649
164	0x3e113ca7	0.14183293
165	0xbd916798	-0.07099837
166	0x3c8a1f83	0.01686073
167	0xbd9090e2	-0.07058884
168	0x3dab0222	0.08350016
169	0xbd42b98e	-0.04754024
170	0x3e4c50a8	0.19952643
171	0xbd0de8af	-0.034645732
172	0xbe28f485	-0.16499527
173	0x3dbde029	0.09271271
174	0xbe240b7d	-0.16020007
175	0xbc439766	-0.011937952
176	0x3df0041d	0.117195345
177	0x3bc850a9	0.006113131
178	0xbcf4ace8	-0.029867604
179	0xbda7ec0f	-0.081993215
180	0xb8264e17	-3.965021e-05
181	0xbe18d30a	-0.14924255
182	0xbe069752	-0.13143662
183	0x3de59c03	0.112113975
184	0x3e0ce842	0.13760474
185	0x3dd3494b	0.10316714
186	0x3d1a04d3	0.037602257
187	0xbd7c084a	-0.061531343
188	0xbdb7cd92	-0.08974756
189	0xbe818029	-0.2529309
190	0x3d41e6d2	0.047339268
191	0x3d717993	0.058953833
192	0xbe070f90	-0.1318953
193	0x3d8f59c0	0.0699954
194	0x3e08a487	0.13344012
195	0x3de25836	0.11051981
196	0x3c4ac1c7	0.012375302
197	0xbe125825	-0.14291437
198	0x3e0e111e	0.13873717
199	0xbe082fe1	-0.13299514
200	0x3ac8b9d5	0.0015314171
201	0x3d973cf7	0.07384675
202	0x3e0f9d9e	0.1402497
203	0xbdcaeb2b	-0.09908136
204	0xbd7436e8	-0.059622675
205	0x3dfd396f	0.1236447
206	0xbdbabecf	-0.09118425
207	0x3d33d7b9	0.0439069
208	0xbc98b442	-0.018640641
209	0xbc80b4b4	-0.015711166
210	0x3e2fb7f9	0.17160024
211	0x3e039d78	0.12853038
212	0xbdf8236b	-0.121161304
213	0xbdac8125	-0.0842307
214	0x3caa10f7	0.020760043
215	0x3d3bd978	0.04586169
216	0x3db87a8d	0.0900775
217	0x3e4ada89	0.19809927
218	0x3dc324ba	0.095284894
219	0x3e1ecd15	0.1550792
220	0xbe0630a2	-0.1310449
221	0xbdb3a307	-0.087713294
222	0x3e23b621	0.15987445
223	0xbdca769e	-0.09885906
224	0x3e6ef6f0	0.23336387
225	0xbca55f64	-0.020187087
226	0xbdb050c0	-0.08609152
227	0xbb239d69	-0.002496565
228	0x3d21aed1	0.03947336
229	0xbcbd6344	-0.023118623
230	0x3b6292eb	0.0034572433
231	0xbe3ca1ae	-0.18421051
232	0x3d99b8da	0.07505961
233	0x3dc8142c	0.097694725
234	0x3dc2c2f9	0.09509844
235	0x3d277502	0.04088307
236	0xbdaf616c	-0.085635036
237	0xbd4d604f	-0.050140675
238	0x3dc0de75	0.0941743
239	0x3c8e8ca7	0.017401053
240	0xbdc9b949	-0.098497935
241	0xbd4fa76c	-0.050696775
242	0x3d4842bb	0.048891764
243	0x3e5cc698	0.21560133
244	0xbc3acd97	-0.0114015555
245	0x3d912ff7	0.07089227
246	0xbcbd688b	-0.023121139
247	0xbc9e903a	-0.019355882
248	0x3d08826d	0.03332751
249	0xbe099d44	-0.13438898
250	0x3d4f5ab0	0.050623596
251	0xbc16e7bc	-0.009210523
252	0x3d3e901e	0.04652416
253	0x3c545bb7	0.01296132
254	0xbdd3c716	-0.10340707
255	0xbd551a91	-0.05202729

net.2.bias f4 [50]
0	0x3de35566	0.11100273
1	0xbdde6821	-0.10859705
2	0xbeb9088a	-0.36139327
3	0x3d66fc12	0.056392737
4	0xbebc4eec	-0.36778963
5	0xbc7e1cde	-0.015509812
6	0xbe34d0d6	-0.1765779
7	0xbd788000	-0.060668945
8	0x3eaa89a5	0.3330814
9	0x3f2531cc	0.6452911
10	0x3cb673d9	0.022272037
11	0x3ce73ac9	0.028226273
12	0x3d98346e	0.07431875
13	0x3c235d6e	0.009971006
14	0x3e59d683	0.21273236
15	0x3e243790	0.1603682
16	0x3d8d6257	0.069035225
17	0x3e046d57	0.12932335
18	0xbda950e8	-0.08267385
19	0x3edf84bd	0.4365596
20	0x3ac5f0e1	0.0015101695
21	0xbe6e806b	-0.23291175
22	0xbe8faa76	-0.2805974
23	0xbc7a3770	-0.015272006
24	0xbdb39990	-0.08769524
25	0x3e05274d	0.13003273
26	0xbe88ac24	-0.26693833
27	0x3ec4b4bd	0.38419142
28	0x3ed1700b	0.40905795
29	0xbe5b1b1b	-0.21397059
30	0x3e25e739	0.16201486
31	0xbdfb78fe	-0.12278937
32	0x3e0e9a93	0.13926153
33	0x3d270e63	0.040785205
34	0xbe884ffa	-0.26623517
35	0x3e0d2aba	0.1378583
36	0x3e46ea49	0.1942531
37	0x3d12f6c8	0.03587988
38	0xbe617596	-0.22017512
39	0x3e92459e	0.2856874
40	0x3d76a1e8	0.060213
41	0x3de9e290	0.114201665
42	0x3caff26a	0.021477897
43	0x3e8574cd	0.26065674
44	0x3da92f85	0.08261017
45	0xbe32708f	-0.1742575
46	0x3ecd82dc	0.401389
47	0x3d96e55a	0.07367964
48	0x3eb782c3	0.3584195
49	0x3e347c0e	0.17625448

net.4.weight f4 [50, 50]
0	0xbea197bb	-0.31561074
1	0xbce0bad3	-0.027432835
2	0xbe1e82cf	-0.15479587
3	0xbe685031	-0.2268684
4	0xbd0f4a50	-0.03498298
5	0xbe4b2138	-0.1983689
6	0xbd038bd5	-0.032115776
7	0xbdb46f46	-0.08810286
8	0x3dc96b50	0.09834921
9	0x3ea28d38	0.31748366
10	0xbe4e56ee	-0.20150349
11	0xbe5cdd97	-0.21568905
12	0x3b91f39c	0.0044540893
13	0xba37244b	-0.0006986304
14	0x3e692901	0.22769548
15	0x3d86ff8d	0.06591711
16	0x3df1d636	0.118084356
17	0x3dd175da	0.102275565
18	0xbe3c0c5c	-0.1836409
19	0x3e29b05a	0.16571179
20	0x3e90012e	0.281259
21	0xbe17b9e1	-0.14817001
22	0xbd7291ee	-0.0592212
23	0xbe00554a	-0.12532535
24	0x3dfce499	0.12348289
25	0x3ed808ea	0.421943
26	0xbe213fbb	-0.15746967
27	0x3e4d3620	0.20040178
28	0xbd64d5f9	-0.055868123
29	0xbd86ad49	-0.0657602
30	0x3d190040	0.037353754
31	0x3e865cce	0.2624268
32	0x3e6e48f9	0.23270024
33	0x3cec1810	0.028820068
34	0x3e2a2b64	0.16618115
35	0x3e4e7739	0.20162667
36	0x3c283057	0.010265431
37	0x3d098c31	0.033580963
38	0xbd578adb	-0.052622657
39	0xbd971028	-0.073761284
40	0x3dbf2deb	0.0933493
41	0x3da9c69c	0.08289835
42	0x3e09eacd	0.13468476
43	0x3e4f6bd3	0.20255975
44	0x3cfa8a68	0.030583575
45	0x3da989e0	0.08278251
46	0x3d813ee3	0.06310823
47	0xbdf983ce	-0.12183343
48	0xbdbb1595	-0.09134976
49	0x3d1d5fa6	0.038421296
50	0x3e5daf28	0.21648848
51	0x3d326b96	0.043559633
52	0x3e2835df	0.164268
53	0xbddc4edb	-0.10757228
54	0x3e2513bb	0.16120808
55	0xbd81e9be	-0.06343411
56	0x3e123b44	0.1428042
57	0x3c850af7	0.01624058
58	0xbdb7755b	-0.08957931
59	0xbd60c10c	-0.054871604
60	0xbcb880a9	-0.022522287
61	0x3d0af104	0.033921257
62	0x3d159201	0.036516193
63	0x3e040fec	0.12896699
64	0xbd95e734	-0.07319489
65	0x3d6df13c	0.058091387
66	0x3d47055a	0.048589088
67	0x3b671d55	0.0035265286
68	0x3dc291b7	0.09500449
69	0x3e005db6	0.12535748
70	0x3d8426ae	0.0645269
71	0x3e7a44b7	0.24440275
72	0x3d326384	0.043551937
73	0x3ec5304b	0.38513407
74	0x3cfccf11	0.030860456
75	0x3ded8e53	0.11599412
76	0x3d9b3a80	0.07579517
77	0x3bf702d7	0.0075381803
78	0x3d28708b	0.041122954
79	0x3e67d9f9	0.22641744
80	0x3edcd679	0.4313238
81	0xbe41da68	-0.18930972
82	0x3d69e265	0.057100672
83	0xbdae73af	-0.08518159
84	0x3e66f181	0.22553064
85	0xbd8d5b75	-0.0690221
86	0x3ed267d9	0.41094854
87	0x3cee1f95	0.029067794
88	0x3cfada8c	0.03062179
89	0xbcfb9362	-0.030709926
90	0x3e1b2688	0.15151417
91	0x3d40376c	0.046927854
92	0xbe8654ef	-0.26236674
93	0x3e07a839	0.13247766
94	0xbdb70199	-0.089358516
95	0xbd55dfb1	-0.052215282
96	0xbe747e46	-0.23876294
97	0xbe1f0d4c	-0.15532416
98	0x3e1ac1f6	0.15113053
99	0xbe0fef3f	-0.14056109
100	0xbda7fe0f	-0.08202755
101	0x3de22517	0.110422306
102	0xbda51d26	-0.080622
103	0xbd16779c	-0.036735162
104	0x3bd0b863	0.006369637
105	0x3d4f4f71	0.05061287
106	0x3d9238f2	0.07139768
107	0xbd803ba1	-0.06261373
108	0xbc4057aa	-0.011739651
109	0xbd6c0cbb	-0.05762933
110	0xbd9d63aa	-0.07685025
111	0x3de65e1d	0.112484194
112	0x3ad4e7cb	0.0016243396
113	0xbe0d929c	-0.13825458
114	0xbddb61bd	-0.107120015
115	0xbdbfad87	-0.093592696
116	0xbd389715	-0.045065958
117	0xbd6a74a4	-0.057240143
118	0xbde6829a	-0.11255379
119	0xbdce7e0d	-0.10082636
120	0x3d207c76	0.039181195
121	0x3db97279	0.09055037
122	0xbdf0ecb8	-0.117639005
123	0x3d04c657	0.032415714
124	0xbd1d6ad5	-0.03843196
125	0xbccf9834	-0.02534113
126	0xbd44b165	-0.04802074
127	0x3de0ae90	0.10970795
128	0x3d06cd06	0.03291037
129	0x3d4bc87c	0.049751744
130	0x3de66db9	0.11251397
131	0xbd32406e	-0.043518476
132	0xbdca3dde	-0.098750815
133	0xbde11567	-0.1099041
134	0xbcb58b0e	-0.022161033
135	0xbddd9185	-0.10818771
136	0x3e078361	0.13233711
137	0x3e075efb	0.13219826
138	0xbdd7cdd5	-0.10537306
139	0xbdc8818e	-0.097903356
140	0xbcb51d59	-0.02210872
141	0xbcb4edcb	-0.022086045
142	0x3d89e247	0.06732612
143	0xbda4c011	-0.08044446
144	0x3dad5ea3	0.08465316
145	0x3dd823d5	0.105537094
146	0x3d543e4d	0.051817227
147	0xbe02d3f3	-0.12776165
148	0x3dccafc3	0.099944614
149	0xbde75fbd	-0.112975575
150	0xbe9f1879	-0.3107336
151	0x3d1e2556	0.038609825
152	0xbd6c727d	-0.057726372
153	0x3dd31bb1	0.10308016
154	0xbe7ceb29	-0.24699081
155	0x3dcc6eca	0.09982069
156	0xbdddb4a9	-0.10825474
157	0xbd48732d	-0.048937965
158	0x3df5416f	0.11975371
159	0xbe173479	-0.1476611
160	0x3e0ed6f8	0.13949192
161	0xbdf276fb	-0.118391
162	0x3ea75c27	0.32687494
163	0x3e521904	0.20517355
164	0x3da0f0ea	0.07858451
165	0x3e86655b	0.26249203
166	0xbd25d477	-0.040485825
167	0x3e76dacb	0.241069
168	0xbd263f1b	-0.040587526
169	0xbd46e0f9	-0.048554394
170	0xbea6b317	-0.3255851
171	0xbc7492ad	-0.014927548
172	0xbd7b4682	-0.06134654
173	0xbd0b7976	-0.03405138
174	0xbb839d32	-0.004016542
175	0xbd5e4f44	-0.054274812
176	0xbe49db5b	-0.19712584
177	0x3d4050a5	0.04695191
178	0x3e497c16	0.19676241
179	0x3e7b586b	0.24545448
180	0x3e4c8c20	0.19975328
181	0xbe636a78	-0.22208583
182	0x3db31fbe	0.08746289
183	0xbdc31253	-0.095249794
184	0x3e19755a	0.14986172
185	0xbddef113	-0.10885825
186	0x3d350d66	0.04420223
187	0x3d61fa3d	0.055170286
188	0xbe3ed189	-0.18634619
189	0xbd8d639d	-0.06903765
190	0xbd7bb97b	-0.061456185
191	0xbdd48331	-0.10376585
192	0x3e16b915	0.1471904
193	0xbcca1715	-0.02466921
194	0xbdda9a54	-0.10673967
195	0x3c7fe802	0.01561928
196	0x3c385f0b	0.011253129
197	0x3cfd5122	0.030922476
198	0x3d8d4850	0.06898558
199	0x3cd5294a	0.026020665
200	0x3dc98886	0.09840493
201	0xbd638a76	-0.05555197
202	0xbcdee3e7	-0.027208282
203	0x3c596109	0.013267764
204	0x3e2e2a0f	0.17008232
205	0x3d9ff386	0.0781012
206	0xbe7bd8a6	-0.24594364
207	0xbdadb5c7	-0.08481937
208	0x3da6ff8d	0.08154211
209	0x3e71cad6	0.23612532
210	0x3c7cccfd	0.015429732
211	0x3db472e6	0.08810978
212	0x3e0ac5fe	0.1355209
213	0x3e16dc57	0.1473249
214	0x3dcac1b0	0.09900224
215	0xbe2c2df1	-0.168144
216	0xbe105eea	-0.14098707
217	0xbd1155b2	-0.035482116
218	0x3b8b7e8d	0.0042570294
219	0x3dc4023f	0.09570741
220	0xbd57694d	-0.052590657
221	0x3dd7727f	0.10519885
222	0x3d3464c5	0.044041414
223	0x3e624001	0.22094728
224	0x3e7ad90d	0.24496861
225	0x3e9a50a7	0.30139658
226	0xbdee0832	-0.11622657
227	0xbe619248	-0.22028458
228	0xbe8a7fcb	-0.27050623
229	0xbeb2b80e	-0.34906048
230	0x3d839b00	0.06426048
231	0x3dfe5d95	0.12420193
232	0x3da1fdf6	0.07909767
233	0xbc8f4b4e	-0.017491963
234	0x3e7b387c	0.24533266
235	0xbc012708	-0.007882841
236	0x3e196abf	0.14982127
237	0xbcc9af1d	-0.024619633
238	0x3cd898d1	0.026440056
239	0x3e00ccc4	0.12578112
240	0x3cf403e7	0.029787017
241	0x3e11e418	0.14247167
242	0x3d0cfbbb	0.034419756
243	0xbb1c6799	-0.002386546
244	0xbd8c413b	-0.06848379
245	0xbe1463af	-0.14491151
246	0xbe740128	-0.23828566
247	0x3dd33350	0.103125215
248	0x3cae579f	0.021282015
249	0xbd536478	-0.051609486
250	0xbb732d1c	-0.0037105745
251	0xbdabf9fd	-0.08397291
252	0x3e32b729	0.17452683
253	0xbd6f893d	-0.05848049
254	0x3d89265d	0.0669677
255	0x3dfebbec	0.12438187

net.4.bias f4 [50]
0	0x3eec7cc7	0.46188948
1	0xbdfa31c1	-0.12216521
2	0xbdd8fe6f	-0.10595404
3	0x3e2d5c66	0.16929778
4	0x3e8b86ca	0.27251273
5	0xbea63095	-0.3245894
6	0x3e99b9da	0.30024606
7	0xba3a8c58	-0.000711625
8	0x3e7c52cf	0.24640964
9	0x3c5775c8	0.01315064
10	0xbe051297	-0.12995373
11	0xbe90a01a	-0.28247148
12	0xbdee9502	-0.11649515
13	0xbdb87d9b	-0.09008332
14	0x3d5afbfd	0.05346297
15	0x3e26039e	0.16212317
16	0x3e319daf	0.17345308
17	0xbcfb5e1c	-0.030684523
18	0xbd0fdc22	-0.035122044
19	0xbe74e0d9	-0.23913898
20	0x3e46adab	0.19402187
21	0xbe6ba81a	-0.23013344
22	0x3ea0b105	0.31385055
23	0x3bbd489f	0.0057764794
24	0x3c870ec0	0.016486526
25	0x3de0bf7d	0.109740235
26	0x3d97220c	0.07379541
27	0xbe1d9e0f	-0.15392326
28	0x3bd97119	0.0066357967
29	0x3e742fbf	0.23846339
30	0x3eb019fb	0.34394822
31	0xbc8f64e1	-0.017504157
32	0xbdb4e6e9	-0.08833105
33	0xbe854089	-0.260258
34	0xbe0fc034	-0.14038163
35	0x3edda38f	0.43288848
36	0xbc81b29b	-0.015832236
37	0xbe1c9428	-0.15290892
38	0x3dc9e442	0.0985799
39	0x3eacd5d5	0.3375689
40	0x3cc9e5ea	0.024645764
41	0x3ded221a	0.1157877
42	0x3bc6b0eb	0.0060635707
43	0xbd2ea1a3	-0.042634618
44	0xbe99f8e4	-0.300727
45	0xbe524469	-0.20533909
46	0x3e4184e9	0.18898357
47	0x3de4d7a5	0.111739434
48	0x3d3c99c7	0.04604509
49	0xbce23562	-0.027613346

net.6.weight f4 [50, 50]
0	0xbca82356	-0.020524662
1	0x3d9d0f53	0.076689385
2	0x3ccc884e	0.024967339
3	0x3e019649	0.12654985
4	0xbe7a51b7	-0.24445234
5	0xbc230931	-0.009950922
6	0x3db46714	0.08808723
7	0xbc7d9347	-0.015477008
8	0xbe96dd09	-0.2946551
9	0xbe20e17b	-0.15711014
10	0x3e8f1f5b	0.2795361
11	0x3dd9ddca	0.10638006
12	0x3d23a654	0.039953545
13	0x3beb08e5	0.007172691
14	0xbe04a997	-0.12955318
15	0xbda65a85	-0.08122734
16	0x3bb8cf8a	0.005639975
17	0x3e0516ee	0.12997028
18	0xbed1d6dd	-0.4098424
19	0x3d039b11	0.032130305
20	0x3e9513db	0.2911671
21	0x3d0589d9	0.032602165
22	0x3edf6c12	0.4363714
23	0xbe9c2ff5	-0.30505338
24	0x3dd0ba99	0.10191841
25	0x3d21bbca	0.03948573
26	0x3e0e7071	0.1391008
27	0x3e4fef26	0.20306072
28	0x3b199b0f	0.002343837
29	0xbe002315	-0.12513383
30	0xbd008984	-0.031381145
31	0xbdcb761a	-0.099346355
32	0x3d05f912	0.032708235
33	0x3e3b9b4a	0.18320957
34	0x3dd7ecf0	0.10543239
35	0xbe3ec8fa	-0.18631354
36	0x3e29a564	0.16566998
37	0xbdf11457	-0.11771458
38	0xbc9ba5a8	-0.01899989
39	0x3da305a5	0.07960061
40	0xbda22813	-0.079178
41	0xbc182e28	-0.009288348
42	0x3d4dc79f	0.0502392
43	0xbbcb79a5	-0.0062095695
44	0x3e0509b2	0.1299198
45	0xbbcb0fc4	-0.006196948
46	0x3dec14a1	0.11527372
47	0x3e20627f	0.15662573
48	0xbbcde3f8	-0.0062832795
49	0x3c80acbe	0.01570737
50	0xbcdab9da	-0.026699949
51	0xbd26a6bd	-0.040686358
52	0xbdd420ae	-0.10357796
53	0xbd8448c6	-0.06459193
54	0xbe2e2c3d	-0.17009063
55	0xbda0b0a6	-0.07846193
56	0xbcd5bec6	-0.026091944
57	0x3e76a478	0.24086177
58	0xbc14b3c6	-0.009076064
59	0xbd70d9b8	-0.058801383
60	0x3e073e22	0.13207296
61	0x3e53c933	0.2068222
62	0x3d830665	0.06397704
63	0xbca656f6	-0.020305138
64	0xbd8431b9	-0.06454796
65	0x3dc25454	0.094887406
66	0x3d6c819e	0.0577408
67	0xbcd2ca84	-0.025731333
68	0x3e5fc17e	0.21851155
69	0x3d657b4a	0.05602578
70	0x3dcb0c29	0.09914429
71	0x3d9e83a6	0.07739954
72	0xbd7c31d1	-0.061570946
73	0xbe5b2b72	-0.21403292
74	0xbd1aec84	-0.037823215
75	0x3d420f28	0.047377735
76	0x3e13ec00	0.14445496
77	0x3d0c29cc	0.034219548
78	0xbdc096fe	-0.094037995
79	0xbeaaf2e6	-0.33388442
80	0xbd432d17	-0.047650423
81	0x3e72ab9a	0.23698273
82	0x3e6c1464	0.23054653
83	0xbeda171e	-0.42595762
84	0x3d132734	0.03592606
85	0x3e9c4912	0.30524498
86	0xbcad4146	-0.021149289
87	0x3d3db368	0.046313673
88	0x3e36c44e	0.17848322
89	0x3eabbca8	0.3354237
90	0xbe8bd300	-0.27309418
91	0x3e122856	0.142732
92	0x3d8db569	0.06919367
93	0x3d9bf705	0.076154746
94	0x3e79f65d	0.24410386
95	0x3d9dc85a	0.0770423
96	0xbcb8f7ea	-0.022579152
97	0xbd73bbcd	-0.059505273
98	0xbd8f115f	-0.06985735
99	0x3ddd979f	0.10819935
100	0xbdea017a	-0.11426063
101	0x3e030f4f	0.12798809
102	0x3dd7d42d	0.10538516
103	0x3ed02aa6	0.40657538
104	0xbc68373e	-0.014173327
105	0x3df28ca3	0.118432306
106	0xbd5ebd04	-0.054379478
107	0x3d9a7609	0.07542045
108	0xbdd23d36	-0.10265581
109	0xbc4d837a	-0.0125435535
110	0x3ea1ee80	0.31627274
111	0x3e560f0d	0.20904179
112	0xbe6b145b	-0.22956984
113	0x3e2c2483	0.16810803
114	0xbcef523b	-0.029214015
115	0x3bff0af1	0.0077832867
116	0xbe1db096	-0.15399393
117	0x3de43d92	0.11144556
118	0xbe3b41ca	-0.18286815
119	0x3de98eea	0.11404212
120	0xbe17ecda	-0.14836445
121	0xbc665aa6	-0.014059698
122	0x3b95fed2	0.004577496
123	0x3e305aaf	0.17222093
124	0x3d570d26	0.052502774
125	0xbc8048dd	-0.015659744
126	0xbd3b3bce	-0.04571133
127	0x3e510a83	0.20414166
128	0x3d03d63a	0.032186724
129	0x3e1735ec	0.14766663
130	0x3c9e6178	0.019333586
131	0x3e1d626e	0.15369579
132	0x3dbe7ca1	0.09301115
133	0xbec0dfdc	-0.3767079
134	0xbe20c6b0	-0.15700793
135	0xbdcf70b8	-0.10128921
136	0xbc58999c	-0.013220217
137	0xbcc2ae11	-0.023764642
138	0x3df03633	0.11729088
139	0xbe0ef6a5	-0.13961275
140	0x3d473850	0.04863769
141	0x3d614196	0.05499419
142	0xbd22f4da	-0.03978429
143	0xbe5025d7	-0.20326935
144	0xbdf45ebb	-0.11932131
145	0xbd758077	-0.059936967
146	0x3d7a591b	0.061120134
147	0x3ca4d7b8	0.020122394
148	0x3ddaff62	0.10693242
149	0x3e06be6d	0.13158579
150	0xbeb18b72	-0.346767
151	0x3e1868c0	0.14883709
152	0xbd7fda3a	-0.062463976
153	0x3e873ce7	0.26413652
154	0xbe228a53	-0.15873079
155	0x3c6a31ea	0.014294127
156	0xbe96318d	-0.2933468
157	0xbe3029c0	-0.17203426
158	0xbc643405	-0.013928418
159	0xba025c2f	-0.0004972843
160	0x3e28a49d	0.16469045
161	0x3e9ec472	0.3100925
162	0xbe563300	-0.20917892
163	0xbd9d4cfd	-0.076807
164	0x3e0339c9	0.12815012
165	0x3d81afa7	0.06332331
166	0xbec84e25	-0.3912212
167	0x3e7bfdfb	0.24608605
168	0x3dc9206a	0.098206356
169	0x3cfc18c3	0.030773526
170	0xbbb5c433	-0.0055470704
171	0xbed5d8a2	-0.4176684
172	0xbe0c509a	-0.13702622
173	0x3db86194	0.090029866
174	0xbe2fb3a6	-0.17158374
175	0x3e94233d	0.28933135
176	0xb99de1a0	-0.00030113477
177	0x3e13fc9d	0.14451833
178	0x3def5b7b	0.116873704
179	0x3d0b6ae3	0.034037482
180	0xbd39f413	-0.045398783
181	0x3de9a0ca	0.11407621
182	0x3debbf29	0.1151107
183	0xbdb2d945	-0.08732847
184	0x3d518322	0.05115045
185	0xbd49e83c	-0.04929374
186	0xbd82c606	-0.06385426
187	0x3c14f943	0.009092632
188	0x3c074a61	0.008257479
189	0xbe8a2661	-0.26982406
190	0xbb992fd7	-0.0046748924
191	0x3e9db3b5	0.30801168
192	0xbe0118de	-0.12607142
193	0x3d9f8c52	0.07790436
194	0x3dfa4ab6	0.12221281
195	0x3d350568	0.04419461
196	0x3d84647e	0.0646448
197	0x3df152f5	0.11783401
198	0x3e39588a	0.18100181
199	0xbdf841c0	-0.12121916
200	0xbe1514be	-0.14558694
201	0xbde38cc3	-0.111108325
202	0x3d0a6ddc	0.033796176
203	0xbdddc7ac	-0.108291
204	0x3ad5d7cd	0.0016314924
205	0xbe139d45	-0.14415462
206	0xbddf57cf	-0.1090542
207	0x3dd5be03	0.104366325
208	0xbdfbff79	-0.12304587
209	0xbd9fd144	-0.07803586
210	0xbe143473	-0.14473133
211	0xbe1e3392	-0.1544936
212	0x3dd9426c	0.10608372
213	0xbca64110	-0.020294696
214	0xbd27750c	-0.04088311
215	0x3c50587e	0.012716411
216	0x3c1fb139	0.009746843
217	0x3d923e1e	0.07140754
218	0x3c65ea58	0.014032923
219	0x3cd7e80b	0.026355764
220	0xbe2c5d81	-0.16832544
221	0xbdf8a485	-0.121407546
222	0x3dfea5ee	0.12433992
223	0xbd70ab5f	-0.058757182
224	0x3d96b795	0.07359234
225	0xbd42be23	-0.04754461
226	0xbc7d715f	-0.015468924
227	0x3dcf231f	0.10114121
228	0x3e062ce0	0.13103056
229	0x3d89c424	0.06726864
230	0xbd521267	-0.05128708
231	0x3d0b5421	0.03401578
232	0x3dac7273	0.08420267
233	0xbcaef9d9	-0.021359371
234	0xbdc94818	-0.09828204
235	0x3d806610	0.06269467
236	0x3ddb699e	0.10713504
237	0xbe073441	-0.13203527
238	0xbd195a75	-0.037439782
239	0x3c5390e2	0.012912961
240	0x3cbca506	0.023027908
241	0xbce92f2a	-0.028464872
242	0x3d9eeb5f	0.07759737
243	0xbd7ffcde	-0.062497012
244	0xbde1fcbe	-0.11034535
245	0x3d72494a	0.059151925
246	0x3ce6f814	0.028194465
247	0x3ce41a30	0.027844518
248	0x3dcdc681	0.10047627
249	0xbd2ffcbf	-0.042965647
250	0x3e091551	0.13387038
251	0xbd7adbbc	-0.06124471
252	0x3d35d215	0.044389803
253	0xbea0d839	-0.31414965
254	0xbd0bd88f	-0.034142073
255	0x3d987b97	0.07445448

net.6.bias f4 [50]
0	0xbe6e69b1	-0.23282506
1	0xbd8fcb7a	-0.07021232
2	0xbd8cf4ff	-0.06882667
3	0xbe15ff39	-0.14648141
4	0x3b4bb29d	0.0031081804
5	0x3db8bc26	0.090202615
6	0x3cdb036f	0.026735036
7	0xbd91aa12	-0.071125165
8	0xbec2a0fb	-0.38013443
9	0x3e4a28d4	0.19742137
10	0xbdda1f4c	-0.10650501
11	0x3ee99814	0.4562384
12	0x3e848839	0.2588518
13	0x3e8fa16c	0.28052843
14	0xbe3dcdad	-0.1853549
15	0xbe9338d9	-0.2875431
16	0x3e00010d	0.12500401
17	0x3ead3db3	0.33836135
18	0xbe1e903e	-0.15484712
19	0x3eb1ae46	0.34703273
20	0x3e1ac493	0.1511405
21	0xbd5aca12	-0.053415366
22	0x3cf41bbf	0.029798387
23	0xbe3cb457	-0.18428169
24	0x3d2c192f	0.042016204
25	0xbc3bdf17	-0.011466763
26	0xbd88dd63	-0.06682851
27	0xbc26a54a	-0.010171244
28	0x3e493d0f	0.19652198
29	0x3dd23c3d	0.10265396
30	0x3f0c547e	0.54816425
31	0x3e77e578	0.24208629
32	0xbe116565	-0.14198835
33	0x3e9245fb	0.28569016
34	0x3d54fb3e	0.051997416
35	0x3de6929b	0.112584315
36	0x3e210213	0.15723448
37	0xbde76d4d	-0.11300144
38	0xbe1a19dd	-0.15048929
39	0x3e7ef2a6	0.2489725
40	0xbd909990	-0.0706054
41	0x3e4e6ade	0.20157954
42	0x3edd0475	0.43167463
43	0xbda63a36	-0.081165716
44	0x3df1d9ac	0.11809096
45	0x3dc22e85	0.09481529
46	0xbe0e7cb1	-0.13914753
47	0x3eb01434	0.34390414
48	0xbd4b03b7	-0.04956409
49	0x3e08d76c	0.13363427

net.8.weight f4 [10, 50]
0	0xbe5ec89b	-0.21756212
1	0x3e7cb11c	0.24676937
2	0x3e53cdb5	0.2068394
3	0x3e943a99	0.28950956
4	0x3d81418e	0.06311332
5	0xbe635a0c	-0.22202319
6	0x3c40cf35	0.011768152
7	0x3eadac0a	0.33920318
8	0x3e79258b	0.24330728
9	0x3dbc14c5	0.09183649
10	0x3d8520a4	0.06500366
11	0xbdf2e50d	-0.11860094
12	0xbd838846	-0.064224765
13	0xbe1ea572	-0.154928
14	0xbd98c3d8	-0.07459229
15	0xbe972281	-0.29518512
16	0xbeafd505	-0.34342209
17	0xbe4050ec	-0.18780869
18	0x3d2683ac	0.040652916
19	0x3de46169	0.11151392
20	0xbd0fc357	-0.0350984
21	0x3ca340c5	0.019928345
22	0xbd8f0281	-0.069828995
23	0x3d175e1d	0.036954988
24	0x3e28a81a	0.16470376
25	0x3e3bd24d	0.18341942
26	0x3d8d1234	0.068882376
27	0x3e012684	0.12612349
28	0x3cf8573a	0.03031503
29	0xbc02b9ff	-0.007978915
30	0x3edd1a5c	0.43184173
31	0x3e177129	0.14789261
32	0xbe6425bf	-0.22280024
33	0xbdbc383e	-0.09190415
34	0x3c301980	0.010748267
35	0xbc02a521	-0.00797394
36	0xbc4e2288	-0.012581475
37	0x3d9fad48	0.07796723
38	0x3e3310aa	0.17486826
39	0xbf18eb2a	-0.5973383
40	0x3e1d4249	0.15357317
41	0xbe9c287e	-0.30499643
42	0xbed2351c	-0.41056144
43	0xbf13ebe5	-0.5778182
44	0x3ead0a6b	0.3379701
45	0xbbc7d9cd	-0.006098962
46	0xbe88b2ce	-0.26698917
47	0xbe8227a5	-0.2542087
48	0xbe3a23f4	-0.18177778
49	0xbe495eb1	-0.19665028
50	0x3d46d142	0.048539408
51	0xbcedcbff	-0.029027937
52	0xbe7426e7	-0.23842965
53	0xbe18366c	-0.1486451
54	0xba85126a	-0.0010152583
55	0x3e11f339	0.14252938
56	0xbddc6e11	-0.10763181
57	0xbdb0fdb8	-0.08642143
58	0x3b3f5b4e	0.002919871
59	0xbe94cacd	-0.29060975
60	0x3d90cf05	0.07070736
61	0xbeae2705	-0.34014145
62	0x3e948369	0.29006508
63	0xbeb7c989	-0.35895947
64	0x3e446042	0.19177344
65	0xbcd6537d	-0.026162857
66	0xbe2deea0	-0.1698556
67	0xbef07e77	-0.46971485
68	0x3e9fcb3a	0.31209737
69	0xbe223c1d	-0.15843244
70	0xbdf9e6f3	-0.12202253
71	0x3d235376	0.039874516
72	0x3e6d5d36	0.23180088
73	0x3e1f64fd	0.15565868
74	0xbdc909bb	-0.09816309
75	0xbdbbbee8	-0.09167272
76	0x3d836f58	0.064177215
77	0x3e0ace5f	0.13555287
78	0xbd9b3340	-0.075781345
79	0x3e714b0b	0.23563783
80	0x3ddcc963	0.10780599
81	0x3e406d44	0.18791682
82	0x3e7f4d86	0.24931917
83	0xbebe9016	-0.37219304
84	0xbe079336	-0.1323975
85	0xbd289267	-0.041155245
86	0xbd355658	-0.044271797
87	0xbd5132ab	-0.05107371
88	0x3e4a74a5	0.19771059
89	0x3d49deb3	0.04928465
90	0x3dc8ac81	0.097985275
91	0xbea0fe3e	-0.3144397
92	0x3d891702	0.066938415
93	0xbea0e6e5	-0.3142616
94	0x3d8dccf9	0.06923861
95	0x3d327b6b	0.04357473
96	0x3e050b99	0.12992705
97	0x3e184cd3	0.14873056
98	0x3d945db8	0.07244438
99	0x3e372092	0.17883518
100	0x3ecfb64a	0.40568763
101	0xbe23404e	-0.15942499
102	0x3dd129ce	0.10213052
103	0x3db72734	0.08943024
104	0xbcdf1b6c	-0.027234755
105	0xbd0d8c1e	-0.034557454
106	0xbdeab4fa	-0.114603
107	0xbef422ba	-0.47682744
108	0xbde2fd60	-0.11083484
109	0x3e555174	0.20831853
110	0xbe2b2b16	-0.16715655
111	0x3e6b36cb	0.2297012
112	0x3d2ce9f9	0.04221532
113	0x3d983746	0.074324176
114	0xbda88d85	-0.08230118
115	0xbc7b2759	-0.015329205
116	0x3e3f490a	0.18680206
117	0x3d9065f4	0.07050696
118	0xbeca1328	-0.3946774
119	0x3e6c9a10	0.23105645
120	0xbec03b47	-0.37545225
121	0xbd1b8c2d	-0.03797548
122	0x3d34e98d	0.044168044
123	0xbe824236	-0.2544114
124	0x3e49dbee	0.19712803
125	0x3e1dc618	0.15407598
126	0x3e3138a8	0.17306769
127	0xbe9dfa9c	-0.30855262
128	0x3c29e681	0.010369898
129	0x3e21e046	0.1580821
130	0x3e161822	0.14657643
131	0x3df6409a	0.120240405
132	0x3c771b5d	0.0150822075
133	0x3e40ab01	0.18815233
134	0xbdf7eeb8	-0.12106079
135	0xbe5f4be2	-0.21806291
136	0xbdd44165	-0.103640355
137	0xbc5c4f34	-0.013446618
138	0x3d2f4dc9	0.04279879
139	0x3e3b2ffb	0.18280022
140	0x3d978d1d	0.07399962
141	0xbdd15e30	-0.10223043
142	0x3e8ba6c9	0.27275684
143	0x3d7f6489	0.062351737
144	0x3da637d3	0.081161164
145	0x3ddea317	0.10870951
146	0x3dd98ffa	0.106231645
147	0xbe67c85a	-0.22635022
148	0xbe2acfa6	-0.16680774
149	0x3f29cf5e	0.6633204
150	0x3dbcc7e1	0.092178114
151	0x3d00f4e1	0.031483535
152	0xbdd2f267	-0.10300141
153	0xbcad2bbc	-0.021139018
154	0xba9a4a25	-0.0011771364
155	0x3e593ea4	0.21215302
156	0xbe542699	-0.20717849
157	0x3e465d60	0.19371557
158	0xbd4aad06	-0.049481414
159	0x3e5e3247	0.21698867
160	0x3c91ea5e	0.01781195
161	0x3ddb2f62	0.10702397
162	0xbca55de6	-0.020186376
163	0x3c862c03	0.016378408
164	0x3d00d515	0.03145321
165	0x3dc0b2b6	0.094090864
166	0x3e374061	0.17895652
167	0x3e1554ce	0.14583132
168	0xbe988317	-0.29787514
169	0x3d908cc1	0.07058097
170	0x3ce80c8a	0.028326292
171	0x3cc50677	0.024050934
172	0xbf1810ad	-0.59400445
173	0x3e2279b9	0.15866746
174	0xbed01082	-0.40637594
175	0x3d40497a	0.046945073
176	0xbe04e847	-0.12979232
177	0x3d0be940	0.03415799
178	0x3de62e0b	0.11239251
179	0xbe3331af	-0.17499422
180	0xbe856c02	-0.26058966
181	0xbe9ada25	-0.30244556
182	0xbdafcaa6	-0.08583574
183	0x3f08abe4	0.53387284
184	0xbcb7e291	-0.022446902
185	0xbe18c722	-0.14919713
186	0x3e3bf319	0.18354453
187	0x3d9dda9f	0.07707714
188	0xbe57fb0b	-0.21091859
189	0x3de0d587	0.10978227
190	0xbdc08569	-0.09400446
191	0xbd984e1c	-0.07436773
192	0x3dcc51f3	0.09976568
193	0xbe8a82dc	-0.27052963
194	0xbea20fe7	-0.31652758
195	0xbe0180e7	-0.12646829
196	0xbe008d93	-0.12554006
197	0xbdefe222	-0.11713053
198	0x3d89a58d	0.067210294
199	0xbd8bc9c3	-0.06825592
200	0xbe43d131	-0.19122769
201	0x3c0723fa	0.008248324
202	0xbd9f05ff	-0.077648155
203	0x3aeef25b	0.0018230187
204	0xba25bd12	-0.0006322424
205	0xbe55c3b5	-0.20875438
206	0x3e51d521	0.20491458
207	0xbe23c5b6	-0.1599339
208	0x3c24cd82	0.0100587625
209	0xbd1c405b	-0.03814731
210	0xbdbb9967	-0.091601186
211	0x3e07f9cb	0.13278882
212	0xbe559305	-0.20856865
213	0x3e806a71	0.25081208
214	0xbe700fc1	-0.2344351
215	0xbf1e359b	-0.61800545
216	0xbda00496	-0.07813375
217	0x3dcee162	0.10101582
218	0xbb9b48be	-0.004738896
219	0x3d49d244	0.04927279
220	0x3ad9c877	0.0016615529
221	0x3db42d5b	0.08797713
222	0xbdac9030	-0.08425939
223	0xbe0eb5cf	-0.13936542
224	0xbe12f87e	-0.14352605
225	0x3dc5e942	0.09663631
226	0x3d8d6df9	0.06905741
227	0xbe2bf552	-0.16792801
228	0xbda5a981	-0.08088971
229	0xbec43923	-0.38324842
230	0x3df21424	0.11820248
231	0x3e84c1dc	0.25929153
232	0xbee04bc0	-0.43807793
233	0x3ea8bf12	0.32958275
234	0xbdda6988	-0.1066466
235	0xbe08fa56	-0.13376746
236	0xbd19ed8b	-0.037580054
237	0x3da88dd9	0.0823018
238	0xbeca2b71	-0.39486268
239	0x3b13a9f0	0.002253171
240	0xbd8352c5	-0.064122714
241	0xbd4aee31	-0.049543563
242	0x3e241bd5	0.16026242
243	0x3e88b75b	0.2670239
244	0xbdc06003	-0.09393313
245	0x3e212cff	0.15739821
246	0xbd016e74	-0.031599477
247	0x3ea2445b	0.31692776
248	0xbe44e515	-0.19228013
249	0xbe7f0bbf	-0.24906825
250	0xbcc0fe8c	-0.023558877
251	0x3e999c1e	0.3000192
252	0x3e518935	0.20462497
253	0xbe98c1c6	-0.29835337
254	0x3c0c08af	0.008546992
255	0x3e29c99b	0.16580813

net.8.bias f4 [10]
0	0xbe143194	-0.14472038
1	0x3cf7de2a	0.030257303
2	0x3e428f78	0.19000041
3	0x3e19aa12	0.15006283
4	0x3e71add5	0.23601468
5	0xbe968c8d	-0.29404107
6	0x3e30ce2c	0.17266148
7	0x3c2597a0	0.010106951
8	0xbd529da5	-0.051419873
9	0x3c73448c	0.014847886
