data/models/cifar/cifar_50x9.pth (torch, 705141 bytes, 20 tensors)

net.0.weight f4 [50, 3072]
0	0x3bb525af	0.005528174
1	0x3bdf93d8	0.0068230443
2	0x3c393084	0.011303071
3	0x3b9bf810	0.004759796
4	0x3c86eec7	0.01647128
5	0xbc5ea107	-0.013588197
6	0xbb7e425f	-0.0038796884
7	0x3c963cdb	0.018339565
8	0x3c9b1028	0.018928602
9	0x3b2151e7	0.0024615468
10	0xbbef4a8a	-0.007302587
11	0x3bad7d2a	0.0052944617
12	0x3b174099	0.0023079275
13	0xbc85c8be	-0.016331073
14	0xbba7d72c	-0.005122086
15	0x3c2bd1cd	0.010487032
16	0xba6fd569	-0.0009148927
17	0x3ba0e3cb	0.0049099675
18	0xbbb8cfa2	-0.005639986
19	0x3b911ec4	0.0044287164
20	0x3c88cee8	0.016700223
21	0xbc909100	-0.017647266
22	0x3c7bec96	0.015376231
23	0x3c094c45	0.0083800005
24	0x3c9570a0	0.01824218
25	0xbc53443c	-0.012894686
26	0xbc444545	-0.011979406
27	0xbbacdf3a	-0.005275634
28	0xbc662ecd	-0.014049244
29	0xbc1226c3	-0.008920374
30	0x3abc2d30	0.0014356729
31	0xbc89f9cd	-0.016842747
32	0x3a5f72c4	0.00085238763
33	0x3c772c17	0.015086195
34	0xbbcb4fc0	-0.0062045753
35	0x3c4c303a	0.01246267
36	0xbc709d26	-0.014685905
37	0x3b8687be	0.004105537
38	0x3c0131aa	0.007885376
39	0x3bb5411a	0.0055314424
40	0x3babec45	0.0052466714
41	0xbc166ad2	-0.009180741
42	0x3c98f207	0.018670095
43	0xbc02cdd8	-0.007983647
44	0x3c54e1a5	0.012993251
45	0x3c843c1b	0.016141942
46	0x3c80ffad	0.015746916
47	0x3bc6a87d	0.006062566
48	0x3c5b1785	0.013372307
49	0x3ad25b62	0.0016048963
50	0x3c373cf0	0.011183962
51	0x3a244705	0.0006266686
52	0x3c3e0f0f	0.01160027
53	0xbc206538	-0.009789757
54	0x3c3cb15d	0.011516896
55	0x3ba5f5f9	0.0050647226
56	0xbc126bd0	-0.008936837
57	0x3c69bd14	0.014266271
58	0x3c1ccfde	0.009571044
59	0x3bd9499b	0.006631089
60	0xbc867800	-0.016414642
61	0x3c804bd5	0.01566116
62	0x3c133e9d	0.008987096
63	0xbc6ebe54	-0.014571745
64	0x3c5c0335	0.013428499
65	0x3c893ee4	0.016753621
66	0xbb964cfe	-0.004586815
67	0x3c3e9361	0.011631818
68	0xbc6898ac	-0.014196556
69	0xbc22b82a	-0.009931603
70	0x3a602f1f	0.00085519435
71	0x3c7ffabe	0.015623746
72	0x3a662e11	0.0008780668
73	0x3c8be98a	0.017079134
74	0x3ca0125d	0.019540006
75	0x3c3224ed	0.010873062
76	0x3b887839	0.0041647223
77	0xbb95d9d5	-0.0045730867
78	0xbbb81550	-0.005617775
79	0x3a99e2a9	0.0011740524
80	0x3a6a3f35	0.000893581
81	0xbc63bd8f	-0.013900175
82	0xbc55dd28	-0.013053216
83	0x3bb23833	0.0054388284
84	0xbaa48427	-0.0012551591
85	0xbc5dc1f5	-0.0135350125
86	0xbc548f53	-0.012973624
87	0xbb8c3e3e	-0.004279881
88	0xbc62d72e	-0.013845248
89	0x3c98bad5	0.018643776
90	0x3be9eb46	0.0071386425
91	0x3c6e843c	0.014557894
92	0x3c7da0b7	0.015480212
93	0xbc866726	-0.016406607
94	0x3c0eadd1	0.008708433
95	0xbb0a75a2	-0.0021127244
96	0x3c806e30	0.015677541
97	0x3c908506	0.017641556
98	0x3b290f41	0.0025796446
99	0xbc8a5baa	-0.016889412
100	0xba787c7a	-0.00094789977
101	0xbb5a3e32	-0.0033301231
102	0xbc39366e	-0.011304481
103	0xbb3c058c	-0.002868983
104	0xbc917ec9	-0.017760651
105	0xbc8e92fb	-0.01740407
106	0xbbaa7a92	-0.0052026
107	0xbc4f282a	-0.012643853
108	0x3c7b542e	0.015339894
109	0xb91f8b4a	-0.00015215311
110	0x3c5e709c	0.013576653
111	0xbc572d06	-0.013133293
112	0x3c850c32	0.016241167
113	0xbb6ab2d1	-0.003581215
114	0xbbebba16	-0.007193814
115	0x3c9b18c8	0.018932715
116	0x3c4e5572	0.012593614
117	0xbc85a224	-0.016312666
118	0xbc68f314	-0.014218111
119	0xbbe27632	-0.0069110626
120	0xbbed1f61	-0.0072364067
121	0x3b226cc9	0.002478408
122	0x3ac876ac	0.0015294156
123	0xbb8d9f54	-0.004321972
124	0x3b948c57	0.0045333314
125	0xbbac7ff5	-0.005264277
126	0x3b2f8f01	0.0026788118
127	0xbb2e9d99	-0.0026644228
128	0x3c519225	0.012791191
129	0x3c7da62a	0.015481511
130	0xbc3aa94c	-0.011392903
131	0x3c24f7ed	0.010068876
132	0xbc676709	-0.014123687
133	0x3c24c3ab	0.0100564165
134	0x3ba108da	0.0049143853
135	0x3c74fec6	0.014953321
136	0xbbbf00c1	-0.0058289473
137	0xbbb05125	-0.005380767
138	0xbc95d064	-0.018287845
139	0xbc801616	-0.015635531
140	0x3c565726	0.013082301
141	0xbc8188eb	-0.015812358
142	0x3bed6040	0.00724414
143	0xbc3511cf	-0.011051609
144	0xbb486289	-0.003057631
145	0x3c00dd04	0.007865194
146	0x398cbda5	0.00026844177
147	0x3c949c94	0.018141069
148	0xbbb74f84	-0.005594196
149	0x3c83f1fa	0.016106594
150	0xbc21c386	-0.009873277
151	0x3b60b7ee	0.0034289318
152	0xbbc4d552	-0.006006875
153	0x3b154ad1	0.002278019
154	0xbb5abf81	-0.0033378305
155	0xbc362fbb	-0.011119778
156	0xbbf8f574	-0.0075976197
157	0xb9e1890c	-0.00043017452
158	0x3c60cda8	0.013720907
159	0x3b96f4fa	0.00460684
160	0xbb810ae9	-0.003938068
161	0x3bad54c9	0.005289648
162	0xbc6302fa	-0.01385569
163	0xbc82afeb	-0.015953025
164	0xbc05da8c	-0.008169781
165	0x3c62fdd0	0.013854459
166	0x3c5bc40b	0.0134134395
167	0xbc203dab	-0.009780328
168	0x3b965de1	0.004588828
169	0x3c138afa	0.009005303
170	0xbc154c43	-0.0091124205
171	0x3be0256a	0.0068403976
172	0x3b70b7f3	0.0036730736
173	0x3c813479	0.015772091
174	0x3b94ca85	0.004540744
175	0x3c1902f4	0.009339083
176	0xbc58008e	-0.013183726
177	0xbb2559b0	-0.002523046
178	0xbb95d732	-0.0045727724
179	0xba23d6ae	-0.00062499463
180	0xbc61df80	-0.013786197
181	0x3b9d7c78	0.0048060976
182	0x3c4f3b24	0.012648378
183	0xbc4713a8	-0.0121506825
184	0xba3607c4	-0.0006943906
185	0x3c93697e	0.017994639
186	0xbc7387d7	-0.01486393
187	0xbc4ed04f	-0.012622907
188	0xbbf8b510	-0.0075899437
189	0x3b896d49	0.004193936
190	0x3a861687	0.0010230102
191	0x3c142a4d	0.009043288
192	0x3c593cf2	0.013259159
193	0xb99b697f	-0.00029642505
194	0x3c67b942	0.01414329
195	0xbc95e68c	-0.01829841
196	0xbc9f2c01	-0.019430162
197	0x3ba2c85f	0.0049677338
198	0x3c8282c9	0.015931504
199	0xbc447e70	-0.011993036
200	0xbc020c6d	-0.007937533
201	0x3c38bca7	0.011275447
202	0x3bac2227	0.0052530947
203	0x3be49ebf	0.006976932
204	0xbc272a2e	-0.0102029275
205	0xbc8ea44f	-0.017412333
206	0xbc45ab11	-0.012064711
207	0xbc98986f	-0.018627374
208	0x3c045702	0.008077385
209	0xbb2a5258	-0.0025989022
210	0xbb8806b9	-0.004151192
211	0x3a8ef7b0	0.0010907557
212	0xbb15c708	-0.0022854228
213	0xbc98cc5b	-0.018652132
214	0x39cd0681	0.00039105493
215	0x38808d37	6.129819e-05
216	0xbc772a03	-0.0150857
217	0xbaf8c956	-0.0018980901
218	0x3c81e768	0.015857413
219	0xba051cdd	-0.00050778483
220	0xbbfe0dff	-0.0077531333
221	0x3b382874	0.0028100284
222	0x3c8b1753	0.016978895
223	0xbb0f3758	-0.0021853056
224	0xbc9d7e20	-0.01922518
225	0x3c38daf7	0.011282674
226	0x3a8a63c3	0.0010558296
227	0xbc1d6f53	-0.009609061
228	0xbc78bec5	-0.015182202
229	0x3b861fd1	0.0040931483
230	0xbc9c859b	-0.019106677
231	0xbc175614	-0.009236831
232	0x3c3a8f70	0.011386737
233	0xbabc7be5	-0.0014380185
234	0xbc2230eb	-0.009899358
235	0xbb2ea1b0	-0.0026646666
236	0xbc878b8a	-0.01654603
237	0xb9874878	-0.000258032
238	0xbb513510	-0.0031922497
239	0x3c463dc6	0.012099689
240	0x3c6ab066	0.014324283
241	0xbc44db4d	-0.012015176
242	0x3c47e127	0.012199677
243	0xbc792b7b	-0.01520812
244	0x3c867c74	0.016416766
245	0x3b8446ef	0.0040367763
246	0xbc976a5e	-0.018483337
247	0x3c649619	0.013951802
248	0x39b30dfc	0.0003415196
249	0xbbafdb39	-0.0053667095
250	0xb96a2001	-0.00022327901
251	0x3c0de83b	0.008661325
252	0xbc1ab65a	-0.00944289
253	0x3c346332	0.011009978
254	0xbb498f2d	-0.0030755505
255	0x3c6317b2	0.01386063

net.0.bias f4 [50]
0	0xbc31f871	-0.010862456
1	0xbb1d425c	-0.0023995852
2	0xbbf6ffd0	-0.0075378194
3	0x3c47ad35	0.012187292
4	0x3bce9a8f	0.006305046
5	0xbb20b79a	-0.0024523498
6	0x3c76d4c6	0.015065378
7	0xbbc1f757	-0.005919378
8	0xbb8e7554	-0.0043474827
9	0x3b879417	0.0041375267
10	0x3c4c2525	0.012460028
11	0xbc24d179	-0.010059708
12	0x3e692eab	0.22771709
13	0x3bbde6b0	0.0057953224
14	0x3c37aacb	0.011210154
15	0x3c6ad4d8	0.0143329725
16	0xbc43aa52	-0.011942463
17	0xbc8b51e4	-0.017006822
18	0x3c2a2bf9	0.01038646
19	0xbb0abf07	-0.002117099
20	0x39c4b8e7	0.00037521796
21	0xbbf2dbb0	-0.0074114427
22	0xbe3619c1	-0.17783262
23	0x3c3f9058	0.011692129
24	0xbbd8445b	-0.0065999455
25	0xbd36a575	-0.044591386
26	0x3b891d74	0.0041844193
27	0xbc8581fb	-0.016297331
28	0xbc600661	-0.013673396
29	0xbaeef21f	-0.0018230117
30	0x3c790706	0.015199428
31	0xbc4d9919	-0.012548708
32	0xb9d5f70e	-0.00040810596
33	0x3be3a5f1	0.006947272
34	0xbe327a77	-0.17429529
35	0x3d850676	0.06495373
36	0x3c0ee0de	0.008720605
37	0xb9fd45ce	-0.0004830793
38	0x3b9002a9	0.0043948484
39	0x3acc7569	0.0015598956
40	0xbc85d937	-0.016338928
41	0xbc342cbc	-0.010996994
42	0x3e208035	0.15673907
43	0xbbc9baef	-0.0061563174
44	0x3e058aa1	0.13041164
45	0x3cccfa09	0.02502157
46	0x3cf3846c	0.02972623
47	0xbbea45db	-0.0071494407
48	0xbe1a0ada	-0.15043202
49	0xbdfa6938	-0.122271

net.2.weight f4 [50, 50]
0	0xbd8a4de2	-0.06753136
1	0x3d12a616	0.035802923
2	0x3cace6fd	0.021106238
3	0x3dc54720	0.09632707
4	0x3dea5664	0.11442259
5	0xbdd67a96	-0.104726
6	0x3dd5d272	0.1044053
7	0x3cd4fd10	0.025999576
8	0xbdb14c5b	-0.08657142
9	0xbdbf02b3	-0.09326687
10	0x3bfcd9b5	0.0077163824
11	0xbcf06aa2	-0.029347721
12	0xbdaeab81	-0.085288055
13	0xbdabfa7f	-0.08397388
14	0xbca65aed	-0.020307029
15	0xbdfbd97f	-0.122973435
16	0xbdfe8fa0	-0.12429738
17	0x3c83e662	0.016101066
18	0x3ceaee54	0.028678097
19	0x3dee693b	0.11641165
20	0xbbb0b1e8	-0.005392302
21	0xbd50dec8	-0.05099371
22	0xbd78603b	-0.060638648
23	0xbde1501f	-0.1100161
24	0xbd9ed4ac	-0.07755408
25	0xbe158445	-0.14601238
26	0x3dc3fa2b	0.095692
27	0xbcf24529	-0.029573994
28	0x3d8e5ba4	0.06951073
29	0x3e0b976c	0.13631982
30	0x3dc69d98	0.09698027
31	0x3d349072	0.044083066
32	0x3db68f4e	0.08914052
33	0x3ddfda29	0.109302826
34	0x3d122041	0.03567529
35	0xbc28ba18	-0.010298274
36	0xbc24ccd6	-0.010058602
37	0x3d7b6179	0.061372254
38	0x3d13ab05	0.03605177
39	0x3e005a6e	0.12534496
40	0x3c9b92fd	0.018990988
41	0xbddfb88a	-0.1092387
42	0x3e0f646a	0.14003149
43	0xbe0b13be	-0.1358175
44	0xbd768155	-0.060181934
45	0x3e630fd8	0.22174013
46	0x3e8187bf	0.2529888
47	0xbdb8b0ca	-0.09018095
48	0xbd7afa9c	-0.061274156
49	0xbe100752	-0.14065292
50	0x3df641b6	0.12024252
51	0xbc3e8bbf	-0.011629998
52	0xbe3f592b	-0.18686359
53	0x3d5847c2	0.05280281
54	0xbccca742	-0.024982098
55	0x3ddc60c5	0.10760645
56	0xbda28304	-0.079351455
57	0xbd34e988	-0.044168025
58	0x3d3f382c	0.04668443
59	0x3db1f524	0.08689335
60	0x3e0bbd0b	0.13646333
61	0x3dcbb894	0.09947315
62	0xbd64aae0	-0.05582702
63	0xbdf1b26d	-0.1180161
64	0x3c4f1353	0.012638885
65	0x3c9d82fc	0.019227497
66	0xbdcee92d	-0.101030685
67	0xbbaf80fb	-0.005355952
68	0x3d343262	0.04399336
69	0xbe04eb0c	-0.12980288
70	0xbdfe19d2	-0.124072686
71	0x3df77974	0.12083712
72	0x3d3c2b00	0.045939445
73	0x3de8b9b6	0.113635466
74	0x3d6762f4	0.056490853
75	0xbe6df4e7	-0.23237954
76	0x3d1e2aab	0.03861491
77	0xbcaa1d6e	-0.020765986
78	0xbd9af7b9	-0.075667806
79	0xbdd70ad1	-0.1050011
80	0xbcd88c26	-0.026434015
81	0x3c5e5c4d	0.013571811
82	0x3dbbd08e	0.09170638
83	0x3d74bd7f	0.05975103
84	0xbdea44ea	-0.114389256
85	0x3dd7aab1	0.10530604
86	0x3d9aeea8	0.07565051
87	0x3b1dfeb4	0.0024108114
88	0x3e06fec1	0.13183118
89	0x3c9ed5b9	0.01938902
90	0xbd1eefaf	-0.0388028
91	0xbe0021f1	-0.12512948
92	0xbde2cc06	-0.11074071
93	0x3d4a94c7	0.04945829
94	0x3d58a3ae	0.052890472
95	0xbd43062c	-0.047613308
96	0x3c9e1225	0.019295761
97	0x3d834308	0.064092696
98	0x3e2b6fbc	0.16741842
99	0xbc627f9b	-0.013824369
100	0xbb07fda8	-0.0020750556
101	0x3df2de5b	0.11858817
102	0xbe482828	-0.19546568
103	0xbdc6fe37	-0.097164564
104	0xbdeebc1a	-0.11656971
105	0x3e09c7ab	0.13455074
106	0xbc5030f9	-0.0127069885
107	0x3cd4475c	0.025912933
108	0xbd4db740	-0.05022359
109	0xbe08d8e0	-0.13363981
110	0xbcc4c779	-0.024020897
111	0x3dc61631	0.096722014
112	0x3e056d47	0.13029967
113	0x3e0a1dbb	0.13487904
114	0xbd041376	-0.032245122
115	0x3da0a6b3	0.07844295
116	0xbd36e167	-0.044648554
117	0x3dfda84d	0.123856165
118	0xbe082bc6	-0.13297948
119	0xbd4d66e0	-0.050146937
120	0x3dc9b24b	0.0984846
121	0x3d07bf5a	0.03314147
122	0xbc4e49e2	-0.012590857
123	0xbdafb441	-0.085793026
124	0x3d81a3fa	0.06330104
125	0xbbd3f29d	-0.0064681307
126	0x3dd1ffe2	0.10253884
127	0x3d95d578	0.073161066
128	0xbdd5b0e8	-0.10434133
129	0x3d02500b	0.031814616
130	0x3cdec12f	0.027191726
131	0x3dba6745	0.09101728
132	0xbd85372d	-0.065046646
133	0x3e04215a	0.12903348
134	0x3d1aec62	0.03782309
135	0xbd972aec	-0.073812336
136	0xbd5cef22	-0.053938992
137	0x3d500556	0.05078634
138	0xbd9e2e3e	-0.07723664
139	0xbdd09525	-0.10184697
140	0xbcbdb13b	-0.0231558
141	0x3da8f1a1	0.08249212
142	0x3d263ecc	0.04058723
143	0xbd62f948	-0.055413514
144	0x3ca07bb6	0.01959024
145	0xbe3a5ec3	-0.18200211
146	0x3dfcc9b0	0.12343156
147	0x3d28d721	0.041220788
148	0x3d9d017b	0.07666298
149	0x3e926958	0.28595996
150	0x3dfa3ce9	0.12218649
151	0xbd71098a	-0.058846988
152	0x3e253fee	0.16137668
153	0x3d6cd916	0.057824217
154	0xbdc649b0	-0.096820235
155	0x3ca66a7d	0.02031445
156	0xbd5fb73c	-0.054618105
157	0x3db2901a	0.087188914
158	0xbd8572a0	-0.065160036
159	0x3db46fdf	0.088104
160	0xbdd50b99	-0.10402603
161	0x3d17a9a5	0.03702702
162	0xbd09ec45	-0.03367259
163	0x3dfb1b6e	0.12261091
164	0x3ddbb183	0.10727217
165	0xbd8f31fd	-0.069919564
166	0x3d9bedd1	0.07613719
167	0xbddb867c	-0.1071901
168	0x3e001f78	0.12512004
169	0xbc9aa122	-0.018875662
170	0x3dc6f690	0.09714997
171	0xbd9214b8	-0.07132858
172	0xbe0a65b4	-0.13515359
173	0xbc0da287	-0.008644707
174	0x3c228a35	0.009920646
175	0x3dbdafa5	0.09262017
176	0x3e0aac5c	0.13542312
177	0xbc970ff5	-0.018440226
178	0xbe0eb46c	-0.13936013
179	0xbd73807c	-0.059448704
180	0xbd83bad2	-0.064321175
181	0xbde3ae72	-0.11117257
182	0x3e06a9ec	0.13150758
183	0x3d562e3b	0.052290183
184	0xbc6e590b	-0.014547597
185	0xbdc30784	-0.09522918
186	0x3de5fd52	0.11229958
187	0x3d8c4f82	0.068511024
188	0x3cb56f2d	0.02214774
189	0x3dffa238	0.12482113
190	0x3d36bd24	0.044613972
191	0xbb5cd900	-0.0033698678
192	0xbd9b0fa3	-0.07571342
193	0x3e09cdfb	0.13457482
194	0x3de81791	0.1133262
195	0x3df2049f	0.11817288
196	0x3d962e55	0.07333056
197	0xbd3057e8	-0.043052584
198	0x3d3b7fa4	0.045776024
199	0x3d4198c9	0.047264848
200	0xbdcd4859	-0.10023565
201	0x3defe7aa	0.11714108
202	0x3d08d4bf	0.033406015
203	0xbcf09a61	-0.029370489
204	0xbd67c853	-0.05658753
205	0x3ce0a4f6	0.02742241
206	0xbdf04a1f	-0.117328875
207	0xbd7efd14	-0.062253073
208	0x3e01dbb3	0.12681465
209	0x3b5cbb3d	0.0033680939
210	0xbd1f9fcb	-0.03897075
211	0x3d8d8b09	0.069112845
212	0xbca8f5fb	-0.020625105
213	0x3db4d44b	0.08829554
214	0xbdd0f187	-0.10202318
215	0x3be4364c	0.0069644805
216	0x3dde6603	0.10859301
217	0xbd1170d4	-0.035507992
218	0x3dd5c460	0.10437846
219	0x3debe89d	0.11518977
220	0x3c09f76b	0.008420805
221	0xbdaaf4ff	-0.083475105
222	0x3e381e83	0.1798039
223	0x3cb9a93a	0.022663701
224	0xbe6f40eb	-0.23364608
225	0x3cea41a7	0.028595759
226	0xbdc280c6	-0.09497218
227	0x3d6095aa	0.05483023
228	0x3de8c0ed	0.11364923
229	0x3d6c6598	0.057714075
230	0xbc722a9d	-0.014780668
231	0x3d3a03fc	0.045413956
232	0xbd4a59e9	-0.04940215
233	0x3ccd6597	0.025072856
234	0x3d9fb62c	0.077984184
235	0xbe3b5626	-0.18294582
236	0x3daf1225	0.08548383
237	0xbdf11cd6	-0.11773078
238	0xbd188765	-0.037238497
239	0xbde048c4	-0.10951379
240	0x3cb52672	0.022113059
241	0xbdca4748	-0.09876877
242	0x3d98930c	0.07449922
243	0x3c7e514b	0.015522311
244	0x3b12fc9b	0.0022428397
245	0x3e09c821	0.1345525
246	0xbe040dae	-0.12895843
247	0xbce99796	-0.028514665
248	0x3d83821e	0.06421302
249	0x3d36dd3f	0.04464459
250	0x3da57122	0.08078219
251	0x3df7b5a0	0.12095189
252	0x3dc844dc	0.09778759
253	0xbc3cd096	-0.01152434
254	0x3e03f9b9	0.1288823
255	0xbc99721a	-0.018731166

net.2.bias f4 [50]
0	0x3ba13ae3	0.00492035
1	0x3e6906a0	0.22756433
2	0x3e9427e7	0.28936693
3	0xbe1b3933	-0.15158539
4	0xbe568484	-0.20948988
5	0x3eb4a645	0.35283104
6	0xbdae267f	-0.08503436
7	0x3e0a4d5b	0.13506071
8	0x3e499f5d	0.19689699
9	0xbd459f92	-0.04824788
10	0x3e311696	0.17293772
11	0x3eb88730	0.3604064
12	0x3e80e05d	0.25171176
13	0xbe54f28f	-0.20795654
14	0x3dd59039	0.10427899
15	0xbe2a526b	-0.16633002
16	0x3af365b7	0.0018569742
17	0xbe9f445b	-0.3110684
18	0x3db732a3	0.08945205
19	0x3c1bf46c	0.009518724
20	0xbe382411	-0.17982508
21	0xbe2d5182	-0.16925624
22	0x3e239f1d	0.15978666
23	0xbddcdce1	-0.10784317
24	0x3d896667	0.06708985
25	0x3e6fce13	0.23418455
26	0xbdcd76f2	-0.10032453
27	0x3e110352	0.14161423
28	0xbd89d7a3	-0.067305826
29	0xbe3a40c7	-0.18188773
30	0xbd93a08c	-0.07208356
31	0xbe12719d	-0.14301153
32	0xbcec9c81	-0.02888322
33	0xbe5522c8	-0.20814049
34	0xbe1636d1	-0.14669348
35	0x3d4f79f5	0.050653417
36	0x3e339729	0.17538132
37	0xbdb7f412	-0.089820996
38	0x3e99f4ec	0.30069673
39	0xbded8184	-0.11596969
40	0x3d5a9d8b	0.0533729
41	0x3c9db9f4	0.019253708
42	0xbdfdb1dc	-0.123874396
43	0xbd3b0d24	-0.04566683
44	0x3d9b71b3	0.07590046
45	0x3c8db2ae	0.017297115
46	0xbd78d66f	-0.060751375
47	0x3d8fc936	0.070208
48	0x3e070d87	0.13188754
49	0xbe9262bc	-0.28590953

net.4.weight f4 [50, 50]
0	0xbe1ed270	-0.15509963
1	0xbdae78e3	-0.08519151
2	0x3d920a7a	0.071309045
3	0xbd2a4f08	-0.041579276
4	0x3d7c01f4	0.0615253
5	0x3d4840c3	0.048889887
6	0x3d5585a7	0.052129414
7	0xbe2f4405	-0.17115791
8	0x3c0161f5	0.00789689
9	0xbdb80c0e	-0.08986674
10	0xbcfac47f	-0.030611275
11	0xbd2554a4	-0.040363923
12	0xbd2c8610	-0.04212004
13	0x3e2a0553	0.16603594
14	0xbecf8ba6	-0.4053623
15	0x3dc27784	0.09495452
16	0x3d5216ae	0.05129116
17	0xbdedc13c	-0.11609122
18	0xbd450738	-0.048102587
19	0xbb92b73b	-0.004477409
20	0xbd8afceb	-0.067865215
21	0xbd81c1ca	-0.063357905
22	0x3d7a015a	0.061036445
23	0x3c98dbc5	0.018659482
24	0xbd186fc6	-0.03721597
25	0x3d477f31	0.048705284
26	0x3d3f5689	0.046713386
27	0xbea8ba46	-0.32954615
28	0xbead078b	-0.33794817
29	0x3e19c29c	0.15015644
30	0xbd70661c	-0.05869113
31	0x3e3150c8	0.17315972
32	0x3db67201	0.08908463
33	0x3d3f41b6	0.046693526
34	0x3dc533d2	0.096290246
35	0xbd696317	-0.056979265
36	0x3e5807c1	0.21096708
37	0xbc9832e0	-0.018578947
38	0xbe006afe	-0.12540814
39	0xbd9318ee	-0.07182489
40	0xbe857ee9	-0.26073387
41	0xbd83796f	-0.06419646
42	0x3e6a8638	0.22902763
43	0xbe6ff1be	-0.23432061
44	0xbddc31c5	-0.1075168
45	0xbe449636	-0.19197926
46	0xbe2489e5	-0.16068228
47	0x3d9c23b8	0.07624
48	0xbe333655	-0.17501195
49	0x3e6c7383	0.23090939
50	0x3c410f33	0.011783409
51	0x3d842e5b	0.06454154
52	0x3ce7c784	0.028293379
53	0xbc009610	-0.007848278
54	0xbcd21af0	-0.02564761
55	0x3e5bb2d7	0.2145494
56	0x3e359b00	0.17734909
57	0x3deb4624	0.11487988
58	0xbb125859	-0.0022330491
59	0x3e4ca73d	0.19985671
60	0x3d9f7904	0.07786754
61	0x3a62ebff	0.0008656382
62	0x3dea3b2c	0.114370674
63	0x3de2e7db	0.11079379
64	0xbeb4dbf2	-0.35324055
65	0x3dbdf8a0	0.09275937
66	0x3df6a6fc	0.120435685
67	0x3d42520b	0.047441524
68	0x3d55f5ae	0.05223625
69	0xbd3cdad1	-0.046107117
70	0xbc4e25b8	-0.012582235
71	0xbb274565	-0.002552354
72	0xbe193167	-0.14960252
73	0x3e906a98	0.28206325
74	0x3deecf48	0.116606295
75	0x3dc99080	0.09842014
76	0x3d62421a	0.05523882
77	0xbe2ab340	-0.16669941
78	0xbd40ccfd	-0.047070492
79	0x3d44bc7c	0.048031315
80	0x3d878570	0.06617248
81	0xbe44bfeb	-0.19213836
82	0xbe643718	-0.22286642
83	0xbd018931	-0.031624977
84	0x3de20640	0.11036348
85	0xbe46db92	-0.19419697
86	0xbd0035c4	-0.031301275
87	0xbd7799a9	-0.060449276
88	0xbe2c33b9	-0.16816606
89	0xbdc60d51	-0.09670509
90	0xbe44f492	-0.19233921
91	0x3e27ad4d	0.16374703
92	0x3cada1da	0.02119534
93	0xbdcd48c3	-0.10023644
94	0xbd76623c	-0.060152277
95	0x3dcc96d4	0.09989706
96	0xbc301996	-0.010748288
97	0x3c399afd	0.011328456
98	0xbe91845b	-0.28421292
99	0x3d23213f	0.039826628
100	0x3b21fcf8	0.0024717432
101	0xbdc90449	-0.098152705
102	0xbdd33f05	-0.103147544
103	0xba31419f	-0.00067617925
104	0x3daf4153	0.085573815
105	0x3ded4056	0.11584537
106	0xbe10eb91	-0.14152361
107	0x3b5e6a8b	0.0033938016
108	0xbdcabfa1	-0.098998316
109	0x3c93d61b	0.01804643
110	0xbde6c9f1	-0.11268986
111	0x3dd315a4	0.10306862
112	0x3da63810	0.08116162
113	0xbb1a4914	-0.0023542093
114	0x3d8f25f9	0.069896646
115	0xbcffaac7	-0.031209363
116	0x3d90bea7	0.07067614
117	0xbde3fa8a	-0.11131771
118	0xbd976f30	-0.07394254
119	0xbe3686c9	-0.17824854
120	0x3dec7d54	0.11547342
121	0x3c3b5984	0.011434916
122	0x3b3c02e2	0.0028688242
123	0x3d0977ad	0.033561397
124	0x3d6790e3	0.05653466
125	0xbde0a93e	-0.109697804
126	0xbe1b56e4	-0.15169865
127	0xbd9c6505	-0.076364554
128	0x3db2252f	0.086984985
129	0x3ce01f31	0.027358623
130	0xbe0b708b	-0.1361715
131	0xbd5a2bea	-0.053264536
132	0x3c712ac0	0.014719665
133	0xbdcd2de9	-0.10018522
134	0xbd62b3cd	-0.055347253
135	0x3dfd30bf	0.12362813
136	0xbd76c5cd	-0.06024723
137	0xbdb9fd07	-0.09081464
138	0xbcc3e5f7	-0.023913367
139	0x3e0f45c3	0.13991456
140	0x3d9fbe4b	0.077999674
141	0xbde09cdc	-0.109674186
142	0x3d78e708	0.060767204
143	0x3ddad3e0	0.10684943
144	0x3cc95a5c	0.02457922
145	0xbced3070	-0.02895376
146	0xbd08341c	-0.03325282
147	0xbd150f64	-0.03639163
148	0xbcf5bf9c	-0.029998593
149	0xbe198340	-0.14991474
150	0xbdb74bf0	-0.08950031
151	0xbd8e3814	-0.0694429
152	0xbdb9827a	-0.090580896
153	0x3dca5364	0.09879187
154	0xbe1d9f99	-0.15392913
155	0xbdfd4428	-0.123665154
156	0xbe092d8f	-0.13396285
157	0xbd32909a	-0.043594934
158	0x3a23dfc0	0.0006251298
159	0x3dfa650c	0.122263044
160	0x3bd4bb8b	0.0064920834
161	0xbe0e68b7	-0.13907133
162	0xbdf3eec1	-0.11910773
163	0xbb6f3445	-0.003649966
164	0x3c9facac	0.019491516
165	0xbd8285da	-0.063731864
166	0xbaeb1e7e	-0.0017938165
167	0xbda15774	-0.078780085
168	0xbe08f211	-0.13373591
169	0xbd00a785	-0.03140976
170	0x3e0d1bc1	0.13780119
171	0x3d2a213f	0.041535612
172	0x3da9794c	0.08275089
173	0x3c99b9ff	0.018765448
174	0xbdd26319	-0.10272808
175	0x3c4a17ce	0.012334777
176	0xbd325032	-0.04353351
177	0x3d81e8dc	0.063432425
178	0x3b4775ef	0.0030435284
179	0x3dca7314	0.09885231
180	0xbe0a6fee	-0.1351926
181	0x3c83313d	0.01601469
182	0x3d591b28	0.053004414
183	0xbd11d42d	-0.035602737
184	0xbdf28970	-0.118426204
185	0xbd4ecb14	-0.05048664
186	0x3b9ebb5d	0.004844113
187	0xbd08faac	-0.033442184
188	0xbc9a386f	-0.018825738
189	0xbc953616	-0.018214267
190	0xbd0f2183	-0.03494407
191	0xbdd403e4	-0.103523046
192	0x3cd96a10	0.026539832
193	0x3de15b52	0.11003746
194	0xbd74430f	-0.059634265
195	0xbd835730	-0.06413114
196	0xbde3b0fa	-0.1111774
197	0xbd9fd67a	-0.0780458
198	0xbda1bb74	-0.07897082
199	0x3dd8c6b9	0.10584778
200	0x3e59d34e	0.21272013
201	0x3e2481cd	0.1606514
202	0x3e860b3d	0.2618045
203	0x3de2a0b0	0.11065805
204	0x3dc3e4b2	0.095651045
205	0xbcbdd510	-0.023172885
206	0xbdc65d10	-0.09685719
207	0x3d0c73ed	0.034290243
208	0x3d6be5bd	0.057592142
209	0xbe46a0e7	-0.19397317
210	0x3ca1157d	0.019663567
211	0xbb7193a8	-0.0036861692
212	0x3e182a80	0.14859962
213	0x3da25156	0.0792567
214	0xbe54b8ec	-0.20773667
215	0xbcbb32e4	-0.022851415
216	0x3d9ddf3c	0.07708594
217	0xbde00a96	-0.10939519
218	0xbcd7d61d	-0.026347214
219	0xbe0b6427	-0.13612424
220	0xbdba88c6	-0.09108119
221	0x3d9b3b07	0.07579618
222	0xbc1ca085	-0.009559755
223	0xbd8cebbf	-0.068809025
224	0xbd3b9f57	-0.045806255
225	0xbd8c82ca	-0.068608835
226	0x3db909f0	0.090350986
227	0xbdb30147	-0.08740478
228	0xbd7284f9	-0.059208844
229	0xbdd06940	-0.10176325
230	0x3da5bae8	0.0809229
231	0xbe84050c	-0.257851
232	0x3d4e77c4	0.050407186
233	0x3e23162a	0.15926424
234	0xbdde94f4	-0.10868254
235	0x3e26dfa6	0.16296253
236	0xbe6566cc	-0.22402495
237	0xbd8ab14d	-0.06772099
238	0xbdf446af	-0.11927544
239	0xbd186fb5	-0.037215907
240	0x3cb2e6ec	0.021838628
241	0xbddd3954	-0.1080195
242	0x3cb02fbd	0.021507138
243	0x3dc32fe6	0.0953062
244	0xbd6b0e5e	-0.05738675
245	0x3db9cff1	0.09072865
246	0x3e04d184	0.12970549
247	0xbd3a9019	-0.04554758
248	0x3dced0b3	0.100984
249	0xbdbe6228	-0.092960656
250	0x3c42091d	0.011842993
251	0x3dd7f33b	0.105444394
252	0x3da7a6af	0.08186089
253	0x3dc8e794	0.09809795
254	0x3d446583	0.04794837
255	0x3e4ef351	0.20210005

net.4.bias f4 [50]
0	0xbe776c40	-0.24162388
1	0x3b65dd80	0.0035074651
2	0xbdd63ec9	-0.10461194
3	0x3c67a2a5	0.014137899
4	0x3e3a41ca	0.18189159
5	0xbba25414	-0.0049538705
6	0x3e4252be	0.18976876
7	0xbe075b32	-0.13218382
8	0xbe477920	-0.194798
9	0xbd238372	-0.039920278
10	0x3e6cd92d	0.23129721
11	0xbe8a31d5	-0.26991144
12	0x3d95941f	0.073036425
13	0x3defd78c	0.11711034
14	0x3e14f57f	0.14546774
15	0x3d6950f7	0.05696198
16	0xbd66e36e	-0.056369238
17	0x3e22f9e0	0.15915632
18	0x3db164d3	0.08661809
19	0x3e15972f	0.14608453
20	0x3e811f12	0.25219017
21	0xbd45bcc1	-0.048275713
22	0xbe7f9584	-0.2495938
23	0xbd7bc640	-0.061468363
24	0x3b8ebe15	0.0043561556
25	0x3e375447	0.17903243
26	0xbdae4f51	-0.08511222
27	0xbe3b9f5e	-0.18322513
28	0x3b6d6d8f	0.0036228632
29	0xbe2d33fd	-0.16914363
30	0xbd89a64a	-0.0672117
31	0x3eead6a6	0.4586689
32	0x3db2dd82	0.087336555
33	0x3e0e412d	0.1389205
34	0x3e05cca1	0.13066341
35	0xbdc56748	-0.0963884
36	0x3d80754e	0.06272374
37	0xbdcd1b86	-0.10015015
38	0xbc62e48a	-0.013848433
39	0x3e631863	0.22177272
40	0xbca42a5d	-0.020039732
41	0x3c809fd7	0.015701218
42	0xbe8b6f22	-0.27233225
43	0x3dcfb317	0.101415806
44	0xbd4decda	-0.050274707
45	0x3e0ccd0d	0.13750096
46	0x3e66597e	0.22495076
47	0xbe69b20e	-0.22821829
48	0xbca604cc	-0.02026596
49	0xbdb52fff	-0.08847045

net.6.weight f4 [50, 50]
0	0x3d09c8f5	0.033638913
1	0xbc6d425d	-0.014481154
2	0x3d80df30	0.0629257
3	0xbd8e44f2	-0.06946744
4	0x3e85d3ff	0.26138303
5	0xbd9ec092	-0.077515736
6	0x3d8addf6	0.06780617
7	0xbd3ce4e4	-0.046116725
8	0x3a7aa5cf	0.00095614506
9	0xbd1e2c21	-0.038616303
10	0xbec28964	-0.37995446
11	0xbd3b4c54	-0.04572709
12	0x3e124ca4	0.14287049
13	0x3dfc7164	0.12326315
14	0xbde6c33b	-0.11267706
15	0xbd100a85	-0.035166282
16	0xbe93487b	-0.28766236
17	0x3d03ac9d	0.03214704
18	0x3de49ed3	0.11163106
19	0xbbf9414d	-0.0076066614
20	0x3ded6e80	0.11593342
21	0xbdc91985	-0.098193206
22	0xbc34f252	-0.011044102
23	0xbd940e1d	-0.072292544
24	0x3dd4a29a	0.10382576
25	0x3d9af317	0.07565897
26	0xbe8b18da	-0.27167398
27	0x3e074b62	0.1321235
28	0x3e4968b7	0.19668852
29	0x3da4cba1	0.08046652
30	0xbe0b53ee	-0.13606235
31	0x3e037793	0.12838583
32	0xbe026ba6	-0.12736377
33	0xbc57dba4	-0.013174925
34	0xbe0577be	-0.1303396
35	0x3dacbcef	0.08434474
36	0x3dbcf7a7	0.092269234
37	0x3b14ec47	0.002272384
38	0xbeb0c0bc	-0.34522045
39	0x3e05468f	0.13015197
40	0xbe1327ce	-0.14370653
41	0xbe2cdc6f	-0.16880964
42	0x3d60bf0b	0.054869693
43	0xbd6dbfe8	-0.058044344
44	0xbde992fe	-0.1140499
45	0x3d998b88	0.074973166
46	0xbe81fa19	-0.25386122
47	0xbd949456	-0.07254855
48	0x3e9519f3	0.2912136
49	0xbcfcbe0f	-0.030852346
50	0x3e0df485	0.13862808
51	0xbc90181a	-0.017589618
52	0x3d815c29	0.06316406
53	0x3d574f3f	0.05256581
54	0xbdc935e3	-0.09824731
55	0x3dd5ded6	0.10442893
56	0xbd7a67aa	-0.061134018
57	0x3b307723	0.002692648
58	0x3cfb5337	0.030679328
59	0xbc036a50	-0.008020952
60	0x3d5ff46f	0.05467647
61	0xbc3e4e7b	-0.011615391
62	0x3e405ff6	0.18786606
63	0x3da8d265	0.082432546
64	0xbdac1c9d	-0.08403895
65	0xbc70c6f3	-0.014695871
66	0xbb48e88d	-0.003065619
67	0x3b2dfaf3	0.0026547282
68	0x3e40944a	0.18806568
69	0x3e38e677	0.18056665
70	0x3d22a1e6	0.03970518
71	0x3e50b512	0.20381573
72	0xbc2aa351	-0.010414914
73	0x3de75727	0.1129592
74	0xbcd3940b	-0.025827428
75	0x3d7f00f7	0.06225678
76	0xbd57eea9	-0.05271784
77	0x3e2a80a3	0.16650634
78	0x3ecb43c8	0.3970015
79	0x3e612389	0.21986212
80	0xbd98602d	-0.07440219
81	0x3e20697b	0.15665238
82	0xbd2f465d	-0.042791713
83	0x3e3a5640	0.18196964
84	0xbd4c8047	-0.049927022
85	0x3cce1584	0.025156744
86	0xbdabef04	-0.08395198
87	0x3df3fea9	0.11913807
88	0xbde1efaf	-0.11032044
89	0xbd7249d4	-0.05915244
90	0x3e9cf104	0.3065263
91	0xbdad40d0	-0.08459628
92	0xbd8ceef1	-0.06881512
93	0x3e18feb0	0.14940906
94	0x3e61533a	0.22004405
95	0xbdbc24f1	-0.091867335
96	0xbeb59a2f	-0.35469195
97	0xbd15987d	-0.036522377
98	0x3efc39f2	0.4926296
99	0xbea623d9	-0.32449225
100	0xbd7c6abb	-0.061625224
101	0x3dd95810	0.106125
102	0x3ddb00e4	0.10693529
103	0x3d9d5beb	0.076835476
104	0xbd1a850c	-0.03772454
105	0xbe018906	-0.12649927
106	0xbd6baa92	-0.057535715
107	0xbd6c1dd2	-0.057645626
108	0xbe109791	-0.14120318
109	0x3d3d1680	0.046164036
110	0xbd8062e6	-0.062688634
111	0xbceb557f	-0.028727291
112	0x3dcb5dd1	0.099300034
113	0xbda5d418	-0.08097094
114	0xbdf41224	-0.119175225
115	0xbe0d5484	-0.13801771
116	0xbce55328	-0.027993754
117	0xbde06f68	-0.10958749
118	0x3dc0fcd5	0.09423224
119	0x3d689f5f	0.056792613
120	0xbd4eb67f	-0.05046701
121	0x3dd5252e	0.10407482
122	0xbddc4785	-0.10755829
123	0x3db495df	0.08817648
124	0xbe04cf27	-0.12969647
125	0x3dd18136	0.10229723
126	0xbdf62f65	-0.120207585
127	0xbe0fec0c	-0.14054888
128	0xbdb0c409	-0.08631141
129	0xbe08f98f	-0.13376449
130	0x3dfd83b7	0.12378638
131	0xbdd56e79	-0.104214616
132	0x3d21bceb	0.039486807
133	0x3de87408	0.11350256
134	0x3d2c7b22	0.042109616
135	0xbda01a45	-0.078175105
136	0xbc783ba7	-0.015150941
137	0x3c3b3c03	0.011427882
138	0xbcee1f14	-0.029067554
139	0xbbd9e6cf	-0.006649829
140	0x3c80d312	0.015725646
141	0xbd98897e	-0.074480996
142	0x39a20e7b	0.00030909837
143	0xbd3b2b97	-0.045695867
144	0xbdc3d957	-0.09562939
145	0xbb9b6019	-0.0047416803
146	0x3c9e5a15	0.019330064
147	0x3d2e9adf	0.042628165
148	0x3e039b64	0.12852246
149	0x3d54bf22	0.05194009
150	0x3980085b	0.00024420288
151	0xbd2ca91f	-0.042153474
152	0x3d2566f8	0.0403814
153	0x3e0147f9	0.12625112
154	0xbdc415f4	-0.095745
155	0xbd02ded3	-0.031950783
156	0x3da64404	0.08118442
157	0x3d712bb9	0.058879588
158	0xbddd435e	-0.10803865
159	0x3be1f351	0.0068954607
160	0xbdfc9ed9	-0.12334985
161	0xbd06c3f0	-0.032901704
162	0xbe0dd6e6	-0.13851508
163	0xbe0bf97a	-0.13669387
164	0xbe0c467a	-0.1369876
165	0x3dce4df5	0.10073463
166	0xbc432d4d	-0.011912656
167	0xbd2bd1bd	-0.04194807
168	0x3c7a3110	0.0152704865
169	0xbdd5c86d	-0.10438619
170	0x3d61ee7d	0.05515908
171	0xbca25918	-0.019817874
172	0xbd2aedeb	-0.041730803
173	0x3d1617d1	0.036643807
174	0xbd4362a9	-0.04770151
175	0x3dc706c6	0.09718089
176	0x3dd48a3f	0.10377931
177	0x3da84a3b	0.08217283
178	0xbc76f3bc	-0.015072759
179	0xbdab12a4	-0.08353165
180	0xbe07aaea	-0.13248792
181	0x3cd34aa7	0.025792433
182	0xbe116611	-0.14199091
183	0x3d90f86f	0.07078635
184	0xbe065f8b	-0.13122384
185	0xbddb3a16	-0.107044384
186	0xbdf82e95	-0.1211826
187	0x3e01d89e	0.12680289
188	0xbd8797c4	-0.06620744
189	0xbc94d4ee	-0.018167939
190	0x3db42394	0.087958485
191	0xbd954daa	-0.07290204
192	0x3d6a8891	0.057259146
193	0xbe09384e	-0.13400385
194	0xbd5a6330	-0.05331725
195	0xbd707f6e	-0.058715276
196	0xbc552cbb	-0.013011153
197	0xbd2aab7e	-0.041667454
198	0x3df65bf2	0.12029256
199	0xbc4c42c3	-0.012467089
200	0x3dd9376f	0.10606276
201	0xbd51345f	-0.051075336
202	0x3b75019b	0.003738499
203	0xba86028c	-0.0010224148
204	0x3dec8cb1	0.11550272
205	0xbc2e706e	-0.0106469225
206	0x3d580b5d	0.052745212
207	0x3c873263	0.016503518
208	0xbdb25c6f	-0.087090366
209	0xbd318f0c	-0.04334931
210	0x3de0f40f	0.109840505
211	0x3e08164a	0.13289753
212	0x3cd5d2cf	0.026101498
213	0xbda60153	-0.08105721
214	0x3e34fd16	0.1767467
215	0x3d0b6ffe	0.03404235
216	0xbe03c665	-0.1286865
217	0xbde07f92	-0.10961832
218	0xbdce56df	-0.10075163
219	0x3d22d1af	0.03975075
220	0xbd7d0c43	-0.06177927
221	0x3d5ad45f	0.05342519
222	0x3dc1e8c0	0.09468222
223	0xbda9e98f	-0.08296501
224	0x3d31c4b5	0.043400485
225	0x3e2c4c4e	0.16825983
226	0xbd6575cb	-0.05602054
227	0xbbc2cd22	-0.005944864
228	0x3e10f0a2	0.14154294
229	0x3d7d00a1	0.061768178
230	0x3db24aaa	0.08705647
231	0xbdec03af	-0.1152414
232	0x3d9d36f9	0.07676501
233	0xbc702356	-0.014656862
234	0xbdf4ac57	-0.11946934
235	0xbde0dd11	-0.10979665
236	0xbd8f7b14	-0.07005897
237	0x3ba59764	0.0050534476
238	0xbdf81bea	-0.12114699
239	0x3e342862	0.1759353
240	0xba80658e	-0.0009795891
241	0xbc86c856	-0.01645295
242	0x3d4b5b52	0.049647637
243	0x3bf0d8ca	0.007350062
244	0x3d6ae8a9	0.05735079
245	0x3d49438d	0.049136687
246	0xbe241564	-0.16023785
247	0xbd91132a	-0.070837334
248	0x3c622a0d	0.013803971
249	0xbe1126a9	-0.14174904
250	0x3d4f8c32	0.05067081
251	0xbd9077df	-0.070541136
252	0xbd8e713a	-0.0695519
253	0xbd91094c	-0.07081851
254	0x3e02dec6	0.12780294
255	0xbda0b24b	-0.07846507

net.6.bias f4 [50]
0	0x3da6ca1a	0.081440166
1	0xbdb5ca9b	-0.088765346
2	0xbdcca3f7	-0.09992211
3	0xbe126a01	-0.1429825
4	0x3e008604	0.12551123
5	0x3e57de03	0.21080784
6	0x3d405394	0.046954706
7	0xbe8e112c	-0.27747476
8	0xbdbc1b98	-0.091849506
9	0xbd63be71	-0.05560154
10	0xbdb0ba4a	-0.08629282
11	0xbd1239f5	-0.035699803
12	0xbd1d9651	-0.03847343
13	0xbc17f84d	-0.009275508
14	0xbdca9304	-0.09891322
15	0xbe650119	-0.223637
16	0x3db5a3a8	0.088691056
17	0x3d918eab	0.0710729
18	0xbdf28dce	-0.11843453
19	0xbe3a3be9	-0.18186916
20	0x3e8f6ea7	0.2801411
21	0x3e6f9864	0.23397976
22	0xbcb43511	-0.02199796
23	0x3e26257d	0.16225238
24	0x3bcd1950	0.006259121
25	0xbd42e88a	-0.047585048
26	0x3e3462c9	0.17615809
27	0xbd81d75a	-0.06339903
28	0xbda7f01b	-0.08200093
29	0x3e59c651	0.21267058
30	0x3d6d3663	0.057913195
31	0xbdb29e53	-0.08721604
32	0x3dacf876	0.08445828
33	0x3d7f4d86	0.06232979
34	0xbc76e0db	-0.015068258
35	0x3e37558d	0.17903729
36	0x3d1020ef	0.035187658
37	0x3d21c84b	0.039497655
38	0xbb30b646	-0.0026964112
39	0xbe2a1679	-0.16610135
40	0x3d97b217	0.07407015
41	0x3df23abb	0.11827608
42	0xbca91df1	-0.02064416
43	0x3bdb74d7	0.006697278
44	0x3e030cc6	0.12797841
45	0xbc9298b1	-0.017895075
46	0x3d3863f3	0.045017194
47	0xbb01e11f	-0.001981802
48	0xbd70db16	-0.058802687
49	0xbe13108a	-0.14361778

net.8.weight f4 [50, 50]
0	0x3d9e1f68	0.07720834
1	0x3dce261f	0.10065865
2	0x3df1b876	0.11802761
3	0xbe081eff	-0.13293074
4	0x3dd89247	0.10574775
5	0xbdc82e02	-0.097744
6	0xbdee412e	-0.11633526
7	0xbebe3552	-0.37150055
8	0x3df07a82	0.117421165
9	0x3e6b190d	0.22958775
10	0xbd5d19cb	-0.053979676
11	0x3d627de9	0.05529586
12	0xbdde9552	-0.10868324
13	0xbd7aa09e	-0.061188333
14	0xbe28591a	-0.1644024
15	0x3d923d2f	0.07140576
16	0x3e9d51d3	0.3072649
17	0xbdbcf2bd	-0.09225986
18	0x3e12c62f	0.14333414
19	0x3e1ae491	0.15126254
20	0x3e5f904d	0.2183239
21	0x3e90e634	0.2830063
22	0x3b82f811	0.003996857
23	0xbeb52383	-0.35378656
24	0xbd3bc602	-0.04584313
25	0x3e2edc96	0.17076334
26	0xbce1f712	-0.027583633
27	0xbcf3ca83	-0.029759651
28	0xbe2e1898	-0.1700157
29	0x3d20b40a	0.0392342
30	0x3defe828	0.11714202
31	0x3d2610ac	0.040543243
32	0xbdae1b79	-0.08501334
33	0xbdc9561a	-0.09830876
34	0x3d67f1c2	0.056627043
35	0x3d40b00d	0.047042895
36	0xbc2f0c3f	-0.010684072
37	0xbd648f35	-0.055800635
38	0xbabbd3da	-0.0014330104
39	0x3e560865	0.2090164
40	0x3d7274c9	0.059193406
41	0x3e6da132	0.23206022
42	0xbe5aaa54	-0.21354038
43	0x3e332b15	0.17496903
44	0x3e51e119	0.20496024
45	0x3c4d7287	0.0125395125
46	0x3d360a80	0.044443607
47	0x3dee549b	0.11637231
48	0x3abe8ef1	0.001453845
49	0xbed5eef0	-0.41783857
50	0x3d90edf7	0.07076638
51	0x3d089450	0.033344567
52	0x3dc90096	0.09814565
53	0x3dc4d843	0.09611561
54	0x3d338b76	0.043834172
55	0xbdae9238	-0.08523983
56	0x3e30be4e	0.17260095
57	0xbe38b634	-0.18038255
58	0xbe3a13b9	-0.18171586
59	0xbcd6d687	-0.026225341
60	0x3acda8fe	0.0015690622
61	0x3cb9ad99	0.022665786
62	0x3d918d84	0.0710707
63	0xbe0e3ce0	-0.1389041
64	0x3d2940df	0.04132163
65	0x3e317b90	0.17332292
66	0x3ec27869	0.3798249
67	0x3d0c0b40	0.034190416
68	0x3d759c24	0.05996336
69	0x3e69a893	0.22818212
70	0xbc250d2d	-0.010073942
71	0x3e14d907	0.14535914
72	0xbd3b45ed	-0.045720983
73	0xbde7d23f	-0.11319398
74	0x3c6ee492	0.014580863
75	0x3e3bb06c	0.18329018
76	0x3e236e21	0.1595998
77	0x3e55b722	0.20870641
78	0xbe1ff45e	-0.15620562
79	0x3e4e7709	0.20162596
80	0x3d9a7cd5	0.07543341
81	0x3d379c6a	0.044826902
82	0x3dc8f535	0.098123945
83	0xbe34dc32	-0.17662123
84	0xbe05336e	-0.130079
85	0x3deeefee	0.11666857
86	0x3d4eadd1	0.050458733
87	0x3eab646a	0.33475047
88	0x3ca3826f	0.019959657
89	0xbde1083a	-0.10987897
90	0x3e33b1f7	0.17548357
91	0x3e052226	0.13001308
92	0x3c544166	0.012955045
93	0x3eb9bd34	0.36277163
94	0x3ed09992	0.40742165
95	0x3ea1dc01	0.31613162
96	0x3dad6368	0.08466226
97	0xbdb9caaa	-0.09071858
98	0xbdb31fed	-0.08746324
99	0x3da44ae8	0.080221
100	0x3d61fc0d	0.055172015
101	0xbdf5307f	-0.119721405
102	0xbd2ef8a8	-0.042717606
103	0x3e08e30e	0.13367864
104	0xbdeca19d	-0.11554263
105	0x3ded39a6	0.11583261
106	0xbe38b09d	-0.18036123
107	0x3deb289e	0.114823565
108	0x3c604c42	0.013690056
109	0x3d1f1c1d	0.03884517
110	0x3c8ae540	0.016955018
111	0x3d3f2b1c	0.04667197
112	0x3c0e0742	0.008668723
113	0xbcbae6f4	-0.022815205
114	0x3d348cec	0.044079706
115	0x3d974c6b	0.073876224
116	0x3e691bac	0.22764462
117	0xbb9724f0	-0.0046125576
118	0x3e2ad7b8	0.16683853
119	0x3e193615	0.14962037
120	0x3d87720e	0.06613551
121	0x3dd8ee90	0.10592377
122	0x3dee3bf7	0.11632531
123	0xbe2421bd	-0.16028495
124	0xbd9b5368	-0.07584268
125	0x3df65680	0.12028217
126	0xbdc23787	-0.09483247
127	0xbd9b57f7	-0.07585137
128	0xbce1d248	-0.02756609
129	0x3e4bad1b	0.19890253
130	0x3cc5c947	0.024143828
131	0x3b4bfaf8	0.003112493
132	0xbdafaeae	-0.085782394
133	0x3d51f1b3	0.051255893
134	0x3db40b14	0.087911755
135	0x3d812fe6	0.06307964
136	0xbd758dca	-0.059949674
137	0x3e173e91	0.14769961
138	0xbe9e7cc6	-0.3095457
139	0xbd740d20	-0.05958283
140	0xbd8cce62	-0.06875302
141	0x3e44ca3b	0.1921777
142	0xbe10f16b	-0.14154594
143	0x3dba9019	0.09109516
144	0xbe3a47f1	-0.18191506
145	0xbdc95404	-0.09830478
146	0xb9b14954	-0.00033814705
147	0xbd2c48f4	-0.04206176
148	0xbd873f8a	-0.06603916
149	0xbe8b70ac	-0.272344
150	0xbc91ada0	-0.017782986
151	0xbd84a29c	-0.06476328
152	0xbdbbff89	-0.09179599
153	0x3e0b99bf	0.13632868
154	0x3de2d264	0.11075285
155	0x3dc683b4	0.09693089
156	0xbea59675	-0.32341352
157	0x3e29de1c	0.16588634
158	0x3cc72f02	0.024314407
159	0xbe9841c1	-0.29737666
160	0x3d06110f	0.032731112
161	0x3d92113f	0.07132196
162	0xbc404435	-0.011735012
163	0xbc7a77f8	-0.015287392
164	0xbd755622	-0.059896596
165	0xbd7c5542	-0.061604746
166	0x3e7c59c7	0.24643622
167	0xbd684fca	-0.056716718
168	0x3c1cb9e2	0.009565802
169	0xbaf5d902	-0.001875669
170	0xbbc79a2f	-0.006091378
171	0x3e21a9cc	0.15787429
172	0x3c30e780	0.010797381
173	0xbe265902	-0.16244891
174	0xbc4a82f1	-0.01236032
175	0x3dfb12fb	0.122594796
176	0x3d556f39	0.052108023
177	0x3e20cadb	0.15702383
178	0xbd94e2f0	-0.072698474
179	0x3d86981e	0.06571983
180	0xbd9b2bb3	-0.07576694
181	0xbdc04eaa	-0.09390004
182	0x3e1f84c9	0.15577997
183	0x3e15738c	0.14594859
184	0x3d798e04	0.060926452
185	0x3cf65edd	0.030074531
186	0x3d8aa6de	0.06770109
187	0x3de66a50	0.11250746
188	0x3e5471fa	0.20746604
189	0xbe8c0774	-0.27349436
190	0x3e8b08c2	0.2715512
191	0xbe17969f	-0.14803551
192	0x3d736a58	0.05942759
193	0x3e224182	0.15845302
194	0xbd91f27a	-0.07126327
195	0x3dde5f20	0.108579874
196	0x3dd1c85a	0.10243292
197	0xbe06fe4b	-0.13182943
198	0xbd8e638d	-0.069525816
199	0x3cfec53b	0.031099906
200	0x3e17acbe	0.1481199
201	0x3e03ee2f	0.12883829
202	0x3ccdc259	0.025117086
203	0xbdeffbcf	-0.117179506
204	0xbdc2d3dd	-0.09513066
205	0x3d2426d8	0.040076107
206	0xbe7d0701	-0.24709703
207	0x3edd9716	0.43279332
208	0x3e182558	0.14857996
209	0xbc9a35ef	-0.018824546
210	0x3e150403	0.14552312
211	0xbe0d0102	-0.13769916
212	0xbe57733e	-0.21040055
213	0x3d537556	0.051625572
214	0xbd5a34f1	-0.053273145
215	0x3d8c5190	0.06851494
216	0x3e4376cc	0.19088286
217	0x3d8bbb4d	0.06822834
218	0x3e6dfc37	0.23240744
219	0x3d394aa6	0.045237206
220	0x3d4368ea	0.047707476
221	0x3d891b20	0.06694627
222	0x3e1da7cb	0.15396039
223	0x3ea141a1	0.31495383
224	0xbc93f5c5	-0.018061528
225	0x3c258e7b	0.010104771
226	0xbd402179	-0.046906922
227	0xbd10091d	-0.03516494
228	0x3e10452d	0.14088888
229	0xbcd22ce4	-0.025656171
230	0x3e0c0397	0.13673244
231	0x3d9f459e	0.0777695
232	0xbe036eed	-0.12835284
233	0x3e509bed	0.20371981
234	0x3e45e89e	0.19327018
235	0xbd4ce0e4	-0.05001916
236	0x3e3dd65a	0.185388
237	0xbe0030df	-0.12518643
238	0x3db2c98d	0.08729849
239	0x3d576a2c	0.052591488
240	0xbd62fc2e	-0.05541628
241	0x3ddaa164	0.10675314
242	0x3e02dae5	0.12778814
243	0xbe12af3a	-0.14324656
244	0xbdf780c1	-0.12085105
245	0x3d9d36c7	0.076764636
246	0x3e0c7fcb	0.13720624
247	0xbe2cce10	-0.16875482
248	0xbe25c455	-0.16188176
249	0xbe4fedc5	-0.20305546
250	0x3d87ada0	0.06624913
251	0xbddcaf76	-0.10775654
252	0x3d48b5ab	0.049001377
253	0xbd06cde8	-0.03291121
254	0xbe130829	-0.14358582
255	0xbe119920	-0.14218569

net.8.bias f4 [50]
0	0x3dc3f0f3	0.09567442
1	0x3e857620	0.26066685
2	0x3e462b39	0.19352426
3	0x3dd8b76d	0.10581861
4	0x3e548e4a	0.20757404
5	0xbcf4caa8	-0.02988179
6	0x3e9dade4	0.3079673
7	0x3cceab27	0.025228096
8	0x3da61c3c	0.08110854
9	0xbdca0298	-0.09863776
10	0x3dac5b90	0.08415902
11	0x3d887296	0.066624805
12	0xbc063def	-0.008193477
13	0xbe2c0415	-0.16798432
14	0x3db7ad4f	0.08968603
15	0x3a8c57e3	0.0010707345
16	0x3d8a54a6	0.06754427
17	0x3d588ad5	0.052866776
18	0xbea93b4d	-0.33053055
19	0xbdb9730a	-0.09055145
20	0x3dbe57cc	0.0929409
21	0x3d8ee92f	0.0697807
22	0x3d82f73e	0.06394814
23	0xbe00cd5e	-0.12578341
24	0xbd28bb63	-0.04119433
25	0x3c27a7ba	0.01023286
26	0x3e7b7d7d	0.24559589
27	0x3dc23193	0.09482112
28	0x3c9cc8ee	0.01913878
29	0x3d88d326	0.06680898
30	0xbd09427b	-0.033510666
31	0xbc3f6c2d	-0.011683506
32	0xbc9436ec	-0.018092595
33	0xbc908669	-0.017642217
34	0x3d2d404f	0.042297658
35	0xbdce44e8	-0.100717366
36	0xbe0fa5ec	-0.14028138
37	0xbceae511	-0.02867368
38	0xbd700c9a	-0.058605768
39	0xbd286abf	-0.041117426
40	0x3d575c60	0.05257833
41	0x3d0b3c70	0.033993185
42	0xbc2f03c6	-0.010682052
43	0x3d0926be	0.033484213
44	0x3d14809a	0.036255457
45	0xbd9b63c6	-0.0758739
46	0x3e7d4d0c	0.24736422
47	0x3dc820ec	0.09771904
48	0xbd78e4b4	-0.060764983
49	0xbc0f77b5	-0.008756568

net.10.weight f4 [50, 50]
0	0x3e292e4a	0.16521564
1	0x3db50bf9	0.08840174
2	0x3b529aed	0.00321358
3	0xbd9a6391	-0.07538522
4	0x3deb0692	0.114758626
5	0x3c643eda	0.013931001
6	0x3d015442	0.031574495
7	0xbe0b1681	-0.13582803
8	0xbd842b3f	-0.06453561
9	0x3b8c9731	0.0042904844
10	0xbc135862	-0.00899324
11	0xbd81bc87	-0.06334787
12	0x3e0e2af3	0.13883571
13	0x3de9ea48	0.11421639
14	0xbe024b25	-0.12723978
15	0x3e1184af	0.14210771
16	0x3d13bb87	0.036067512
17	0x3da80d1c	0.082056254
18	0x3c2555d8	0.0100912675
19	0x3e0c9d05	0.13731773
20	0xbc9fa183	-0.019486194
21	0xbce98160	-0.028504074
22	0xbd5fed8b	-0.054669898
23	0xbdd686b2	-0.1047491
24	0x3d2dede8	0.042463213
25	0xbdd5995c	-0.104296416
26	0xbd8dc419	-0.06922168
27	0x3d81a1a8	0.063296616
28	0x3d24ee5a	0.040266372
29	0xbe0b9bd0	-0.13633657
30	0xbdf0297f	-0.11726665
31	0x3ea4e80d	0.3220829
32	0xbd84f574	-0.06492129
33	0xbcb7c9b1	-0.022435041
34	0xbd5021cc	-0.05081348
35	0xbedd59c2	-0.43232542
36	0xbbbfd037	-0.0058536786
37	0xbd17e87c	-0.03708695
38	0x3d8b91aa	0.068148926
39	0xbd4c28ab	-0.04984347
40	0x3e16d129	0.14728226
41	0xbe3beef2	-0.18352869
42	0x3d1618c2	0.036644705
43	0x3e13cf06	0.14434442
44	0x3d00ad7b	0.031415444
45	0xbe16c498	-0.14723432
46	0x3e1bc9e7	0.15213738
47	0xbddb2773	-0.10700884
48	0x3e1b8ce8	0.1519047
49	0x3e000a67	0.12503968
50	0x3de6e73b	0.112745725
51	0x3e2133ad	0.15742369
52	0x3d9a832d	0.07544551
53	0x3c9f8ab0	0.019475311
54	0xbdf46b0c	-0.1193448
55	0xbd6a4491	-0.057194296
56	0xbe2b6e75	-0.16741355
57	0xbdebf137	-0.115206175
58	0x3e60eb1a	0.21964684
59	0x3d6756c6	0.056479238
60	0x3de73c61	0.11290813
61	0xbdff1335	-0.12454835
62	0x3db5eeed	0.08883462
63	0x3be7a8da	0.007069689
64	0x3e3774ea	0.17915693
65	0x3ea44ade	0.3208837
66	0xbca8d2d6	-0.020608347
67	0xbcebabf3	-0.028768515
68	0x3e420db2	0.18950537
69	0xbdede4c6	-0.11615901
70	0x3d50986a	0.050926603
71	0xbccfcbf7	-0.025365813
72	0xbd6e0587	-0.05811074
73	0xbc124702	-0.008928062
74	0x3b811441	0.003939182
75	0xbc69ce7b	-0.01427042
76	0xbcb45e63	-0.022017663
77	0xbcceff50	-0.025268227
78	0xbdfbaa93	-0.12288394
79	0x3c9c79de	0.01910108
80	0xbe256851	-0.16153075
81	0x3e87a99f	0.26496598
82	0xbd89f5f1	-0.06736363
83	0xbdc6f651	-0.0971495
84	0x3d9be4d9	0.076120086
85	0xbe79879a	-0.24368134
86	0x3d87e180	0.066348076
87	0xbe291412	-0.16511562
88	0x3d1f9354	0.038958862
89	0x3df9ffc8	0.122069895
90	0xbdd52af1	-0.10408581
91	0x3da617f3	0.08110037
92	0x3e0977ef	0.13424657
93	0x3e9826e1	0.29717162
94	0x3d1606f5	0.03662773
95	0xbde191de	-0.1101415
96	0xbddfc901	-0.1092701
97	0xbe019464	-0.12654263
98	0x3e53ec2c	0.20695561
99	0x3d767b76	0.060176335
100	0x3dc5b299	0.096532054
101	0x3daffe2c	0.08593401
102	0x3dafe0dc	0.085878104
103	0xbb10ae8a	-0.002207669
104	0xbc135775	-0.008993019
105	0xbe10aeb6	-0.14129147
106	0xbdd60a14	-0.10451141
107	0xbbaf23f2	-0.005344861
108	0xbd9d4705	-0.076795615
109	0xbdd2e223	-0.102970384
110	0xbd73b56a	-0.05949918
111	0xbd9f0298	-0.077641666
112	0xbdf16e98	-0.11788672
113	0x3bb091a3	0.005388455
114	0xbc8de149	-0.017319338
115	0xbde08369	-0.109625645
116	0x3dbd6378	0.09247488
117	0xbdb4cdec	-0.08828339
118	0xbd594740	-0.053046465
119	0x3d7b7a9c	0.061396226
120	0xbd17ad03	-0.03703023
121	0xbda57387	-0.08078676
122	0xbe10d690	-0.14144349
123	0xbd2a3df2	-0.041562982
124	0x3d263fcd	0.04058819
125	0xbdf40ce2	-0.1191652
126	0x3c431bb1	0.011908458
127	0xbd7512f6	-0.059832536
128	0x3daf1b3d	0.08550117
129	0x3d980173	0.074221514
130	0x3cb60f23	0.022224015
131	0xbd78a55b	-0.06070457
132	0xbd81499f	-0.0631287
133	0xbda53537	-0.080667906
134	0xbd2bcaf3	-0.041941594
135	0xbc87cb5f	-0.016576467
136	0xbdc7dfdf	-0.09759497
137	0xbd3ebba4	-0.046565667
138	0x3dffcc9c	0.12490198
139	0x39a637dc	0.00031703606
140	0x3dfa850e	0.122324094
141	0xbdb6b176	-0.08920567
142	0xbe120531	-0.14259793
143	0x3da79a2d	0.081837036
144	0xbd6ff814	-0.058586195
145	0xbdece055	-0.115662254
146	0x3dccc349	0.09998185
147	0x3e0417ac	0.12899655
148	0xbd90f0ab	-0.07077154
149	0xbd1a8e67	-0.03773346
150	0x3b349d03	0.0027559407
151	0xbcaee110	-0.021347553
152	0x3d82e03a	0.06390424
153	0xbe2c0fa1	-0.16802837
154	0x3dc032a9	0.09384663
155	0xbd9a26f6	-0.075269625
156	0x3e4535e0	0.19258833
157	0x3ca99266	0.020699691
158	0x3e11a28f	0.14222167
159	0x3e209888	0.15683186
160	0x3e112fc3	0.14178376
161	0x3db3df45	0.0878282
162	0x3e019ef7	0.12658297
163	0x3e4598e8	0.1929661
164	0x3e484d5b	0.19560759
165	0x3d35b139	0.044358466
166	0xbd84bd08	-0.06481367
167	0x3e5cd778	0.2156657
168	0x3cbef9ce	0.023312476
169	0xbd365f32	-0.04452438
170	0x3d793aa6	0.060846947
171	0xbda6cedd	-0.08144925
172	0x3e37630e	0.1790888
173	0x3c4dce87	0.012561447
174	0x3e11dc72	0.1424425
175	0xbdf8dc7e	-0.121514305
176	0x3e4b7ab9	0.19871034
177	0x3dd48379	0.10376639
178	0x3de99066	0.11404495
179	0x3e68870c	0.22707766
180	0xbdcd8709	-0.100355215
181	0x3e25e189	0.16199316
182	0xbdc5ee02	-0.09664537
183	0xbd01cad8	-0.031687587
184	0xbd2eba86	-0.04265835
185	0x3e17659a	0.14784852
186	0xbd2f1a28	-0.042749554
187	0xbce88678	-0.028384432
188	0xbd9287e4	-0.07154825
189	0xbdc778de	-0.097398505
190	0xbde535a6	-0.11191873
191	0xbbecfd8b	-0.007232373
192	0xbd881b0f	-0.06645786
193	0x3d795250	0.060869515
194	0x3e2ff78b	0.17184274
195	0xbe48379f	-0.19552468
196	0xbe6197c3	-0.22030549
197	0xbd97c65f	-0.07410883
198	0xbdab2567	-0.08356743
199	0xbd564ef4	-0.05232139
200	0x3e2d7b66	0.16941604
201	0xbd8d66bf	-0.06904363
202	0x3e43c651	0.1911862
203	0x3e09ac42	0.13444617
204	0x3e173404	0.14765936
205	0xbd2916cd	-0.04128151
206	0x3e2386cd	0.15969391
207	0xbd8ab0ee	-0.06772028
208	0x3da754b3	0.08170452
209	0xbd4a5742	-0.04939962
210	0x3d85476c	0.06507763
211	0xbc2003f8	-0.009766571
212	0x3cfb7deb	0.03069969
213	0xbe80c43b	-0.25149712
214	0xbe0536e9	-0.13009228
215	0xbd6e43f5	-0.058170278
216	0x3cea5ca8	0.028608635
217	0x3e95b5e5	0.29240337
218	0x3e21eff0	0.15814185
219	0x3ca764db	0.020433834
220	0x3e11ed27	0.14250623
221	0x3e0bbfd0	0.1364739
222	0x3d397e7b	0.045286637
223	0x3d7ccd9e	0.06171953
224	0x3e2ba2df	0.16761349
225	0xbcb32ef3	-0.021872973
226	0xbe40ba05	-0.18820961
227	0x3e19d970	0.15024352
228	0xbe91ac12	-0.28451592
229	0xbe280c97	-0.16411053
230	0xbd7d6f84	-0.061873928
231	0xbe11ce7c	-0.14238924
232	0x3e1a972e	0.15096733
233	0x39528629	0.00020077139
234	0xbe0a57de	-0.13510081
235	0xbd09b8c6	-0.03362348
236	0xbbb9e0a1	-0.00567253
237	0x3e762a8a	0.24039665
238	0x3e2a84df	0.16652249
239	0x3e15e254	0.14637119
240	0xbc426f2a	-0.011867324
241	0x3d4e75c6	0.050405286
242	0xbdbd533f	-0.092443936
243	0xbdf61b69	-0.12016947
244	0x3c694248	0.014236994
245	0xbcd83e2d	-0.026396835
246	0x3df4167a	0.119183496
247	0x3c9bdd17	0.019026322
248	0x3baca664	0.0052688587
249	0x3c0087b2	0.007844852
250	0xbd6160b8	-0.05502388
251	0xbc90004c	-0.017578267
252	0xbdfebe2d	-0.12438617
253	0xbd2c960e	-0.04213529
254	0x3e00fa33	0.12595443
255	0x3de42992	0.111407414

net.10.bias f4 [50]
0	0x3e1912de	0.14948604
1	0x3d5248b3	0.051338863
2	0xbdbf2ba6	-0.09334497
3	0x3e20d57a	0.15706435
4	0x3e2fd4eb	0.17171066
5	0x3d2ef919	0.042718027
6	0x3dcc97d6	0.09989898
7	0xbde4e540	-0.111765385
8	0x3cdc2971	0.02687523
9	0xbc8102a9	-0.015748339
10	0x3dca0061	0.098633535
11	0x3df3504a	0.11880548
12	0x3e2de17b	0.16980545
13	0xbdd5002a	-0.10400422
14	0xbded51c8	-0.11587864
15	0x3d85034e	0.06494771
16	0xbd9c7b9b	-0.07640763
17	0xbce44738	-0.027865991
18	0x3e975ac6	0.29561442
19	0xbca2737f	-0.019830463
20	0x3de266a2	0.11054732
21	0xbdd3f6c4	-0.10349801
22	0x3e843680	0.2582283
23	0xbe2e3ae3	-0.17014651
24	0xbe02a6b5	-0.12758906
25	0x3e3eb158	0.18622339
26	0xbe5d4252	-0.2160733
27	0x3e067155	0.1312917
28	0xbe2128ef	-0.15738271
29	0xbda9a2ea	-0.082830265
30	0x3d79f589	0.061025176
31	0x3c246ef9	0.010036224
32	0xbe039c40	-0.12852573
33	0x3ce97d16	0.028502028
34	0xbdfa1025	-0.122101106
35	0xbdb7a091	-0.089661725
36	0xbcdd8988	-0.02704312
37	0x3e067abd	0.13132758
38	0x3d5bd18f	0.053666648
39	0x3b620ceb	0.0034492563
40	0x3c9de48e	0.019274022
41	0xbe6b333c	-0.22968763
42	0xbd09e05f	-0.033661243
43	0x3dcfcd1e	0.10146545
44	0xbe0e5ce1	-0.13902618
45	0x3d2be9bd	0.041970957
46	0xbe1b57f4	-0.1517027
47	0xbc879506	-0.016550552
48	0x3d9b26bd	0.07575748
49	0xbcbcbfe0	-0.023040712
