data/models/cifar/cifar_50x7.pth (torch, 683701 bytes, 16 tensors)

net.0.weight f4 [50, 3072]
00000000: 4034 9fbc 9279 313c 8589 53bb 10be 44bb
00000010: 0eee 1abc d7b9 2ebc 800c a1bb 0977 a7ba
00000020: 5526 7e3c 3100 493c 6778 d5bb a637 99bc
00000030: 9003 83bc e8fb 4c3a f8bb 88bb cd31 ddba
00000040: f0bb d53b e5de 93bc c478 4e3c 5340 313c
00000050: c50b e6bb 9f48 94bc f8ca 333c b4fc a0bc
00000060: 350e dcbb 745f 9bbb a885 0bbb 6be4 123c
00000070: 3115 29b9 4c6d 4c3b ae73 10bc 85b2 db3b
00000080: 03de 8bbc c069 97bc 2efa 49bb 1ff1 9abc
00000090: 380c cbbb e196 173c 1ce5 7bb9 ec39 0dbb
000000a0: b8c1 e9bb 5b99 433c ffcc 42bc 1913 8ebc
000000b0: 7912 3c3c 6279 02bc b45e 4ebc b523 433c
000000c0: 4d79 7c3c 2389 93bc 24f2 de3b 876a 51bc
000000d0: d68b cfbb 57c1 753a 0e52 693c 24ed 2e3c
000000e0: 1146 62bc 07a4 6fbb caca 8ebc 5896 f4bb
000000f0: 432f 8a3b c785 c4bb 2b43 09bc 5dd0 80bc
00000100: 9e64 eb3b f679 3ebc 5ac1 213c 770a 713c
00000110: 0ebc 7fbc 0987 83bc 877e 903b 48eb 503c
00000120: 9388 303c 1aa1 5a3c c067 6c3c 7d45 9dba
00000130: 4e25 df39 93e5 09bc 7909 20bc d87c 52bb
00000140: 1586 6abc 5c5c 3e3b 8f06 c6bb d054 ea3b
00000150: 6a1e a0ba 903a d5bb 1096 ee3a b7ad dbbb
00000160: bb90 573b 5851 0c3c 3df0 3f3c c44d e6bb
00000170: e102 2d3c 1737 3ebc 6c1e 243c 1c4d 6f3c
00000180: 51f8 3f3c a7fd 6e3a 2257 00bc 7bd4 bbbb
00000190: 8725 90bb 2709 81bc b904 8dbb cabe 88bc
000001a0: 7140 b9bb 1a86 2eba 6aff 45bc fcb1 9dbc
000001b0: e040 54bc a7be 3cbc b8eb 7fbc 9e36 9cbc
000001c0: 2724 70bc 346f a1bc 580e 9dbc ed99 54bc
000001d0: eeae bc3a f0a8 adbb 042b 39bc ce31 3dbc
000001e0: 37d4 7cbc 68e5 2f39 e2ca e9bb 8836 a8bb
000001f0: e044 01bc 6c9f 0f3c 872a 89bc 2317 a0bc
00000200: bc1b 60bc ed6f 3e3b 78ce c7bb 91e0 38bc
00000210: d036 c13a c742 70bc cd2b 203c a837 15ba
00000220: d137 24bc e970 063a 9c57 8ebc f13b 393b
00000230: 5c4d 74bc f11b 0abc ba33 343c 1c82 3d3b
00000240: 27ef 5f3b 8e4f 29bc 9cbc b7bb b6af 543c
00000250: 2b66 e23a fd3a 1c3c d02f 8cbc d9d5 363c
00000260: 2859 99bc 09f1 74bc 780c a4bb 2767 a93b
00000270: d146 203c 0012 05bc 5367 9dba 3dde ce39
00000280: f664 14bc 96b3 25bc 91c8 1abc a771 37bc
00000290: 490b 18bc 1050 603c 6cdd c4bb d53f 7bbc
000002a0: 67e7 9ebb 7682 7f3a ecf4 333b 5f43 3a3c
000002b0: 9041 233c 2ca6 603c f486 223c 91b1 ef3b
000002c0: 19b0 1d3c 9643 4a3b df64 3dbb b46a a03b
000002d0: 93c5 f4ba c0d8 313b b119 8ebc aa40 99bc
000002e0: e5f3 413c 7dc8 81bb d26f e43a b986 3ebc
000002f0: 12c4 0dbc 9f1c 0c3c da31 8c3b 7a4e 283c
00000300: 2144 98bc c2c0 153a 59c6 5d3c 0555 fa3b
00000310: 4566 c7bb d022 223c 298e 45bc e72e b2bb
00000320: 33d5 443b 6b22 d7bb 5baf 9fbc f406 45bc
00000330: ad3d 96bc 6347 343c bebc 073c 5978 073b
00000340: 25b7 98bb 4736 753c b27c 3d3c 9a70 923b
00000350: f124 613c f39e 8639 a548 c7bb e83d 97bc
00000360: 2a33 843c b765 c4bb 0bcb e53a 85b5 a9bb
00000370: 793e abba 633b a0bc 188f 7abc 3ce2 9cbc
00000380: 4f11 04bc f7ed 43bc 82ac 70bc bec9 4bbb
00000390: 9b76 e3bb 3bef 4e3a f281 48bc ba0d 1d3c
000003a0: 6ab4 4bbc 1e52 9cbc 78bb 263c 356c b93a
000003b0: 0603 93b8 d595 393c 1862 bc3a 77d4 7dbc
000003c0: 14b0 99bc ff52 d9bb 1c50 133c 5ddd c33b
000003d0: 1ad9 c53a 875d 1d3c a55b 7fbc 36b5 02bc
000003e0: d053 46bc 8da9 3b3c b328 8fbc f354 1c3c
000003f0: 4e0a c03b 2954 b6bb b280 793b ef95 caba
-0.019434094 0.010832207 -0.0032278013 -0.0030020513 -0.009456171 -0.010664425 -0.00491482 -0.0012776564
0.015512069 0.012268112 -0.006514597 -0.018703293 -0.01599291 0.00078195194 -0.0041727982 -0.0016875804
0.006522648 -0.01805062 0.012602035 0.010818559 -0.007020446 -0.018101035 0.0109736845 -0.019651748
-0.006715561 -0.0047416035 -0.0021289382 0.008965592 -0.0001612499 0.0031193076 -0.008816643 0.006704631
-0.017073637 -0.018483043 -0.0030819285 -0.018913804 -0.006196525 0.009252281 -0.00024022575 -0.0021549417
-0.007133689 0.011938418 -0.011889695 -0.01734309 0.011479014 -0.00796351 -0.012595821 0.011910369
0.01540978 -0.018009728 0.0068037678 -0.012781746 -0.0063338084 0.0009374818 0.014240755 0.010676656
-0.01381065 -0.0036566274 -0.017430682 -0.0074642114 0.00421706 -0.005997393 -0.0083778305 -0.015724355
0.0071836254 -0.011625757 0.009872759 0.014711968 -0.015608801 -0.0160556 0.0044096145 0.012751408
0.010774749 0.013344074 0.014429033 -0.0011998859 0.0004256167 -0.008416551 -0.009767883 -0.003211787
-0.014314194 0.002904675 -0.0060432623 0.0071512237 -0.0012216095 -0.0065072253 0.0018202681 -0.006704058
0.0032892663 0.008564316 0.011714992 -0.0070283134 0.010559768 -0.011609814 0.010017019 0.014605787
0.011716918 0.00091167766 -0.007833274 -0.0057321168 -0.004399005 -0.015751434 -0.0043035415 -0.016692538
-0.005653434 -0.0006657556 -0.012084821 -0.019249909 -0.0129549205 -0.011520064 -0.015620165 -0.019069012
-0.014657057 -0.019706346 -0.019171879 -0.012976152 0.0014395395 -0.00529968 -0.01130176 -0.011547519
-0.015431455 0.00016774761 -0.007134781 -0.0051334538 -0.007889956 0.0087660365 -0.016743911 -0.019542282
-0.013678487 0.0029058412 -0.006097611 -0.01128401 0.0014741067 -0.014664358 0.009776068 -0.00056921924
-0.010023073 0.0005128519 -0.01737576 0.0028264488 -0.014911022 -0.008429513 0.010998661 0.0028916663
0.0034169646 -0.010333909 -0.005607201 0.012981346 0.001727288 0.009535548 -0.017112643 0.011159384
-0.01871927 -0.014950045 -0.005006369 0.0051697674 0.009782509 -0.008121967 -0.0012008942 0.00039456962
-0.009057274 -0.010113617 -0.009447233 -0.01119653 -0.009280034 0.013690963 -0.006007841 -0.015335043
-0.0048493627 0.0009746918 0.0027459217 0.011368602 0.009964362 0.013711493 0.009919871 0.0073148687
0.0096245045 0.0030863038 -0.0028899235 0.0048955325 -0.0018674604 0.002713725 -0.017346235 -0.018707592
0.011837934 -0.0039606676 0.0017428345 -0.0116288 -0.008652704 0.008551746 0.0042784037 0.0102726165
-0.018587174 0.0005712622 0.013536059 0.0076395296 -0.0060851895 0.009895995 -0.012057819 -0.00543772
0.0030034303 -0.0065653822 -0.019492796 -0.012025584 -0.018339956 0.011003348 0.008284746 0.0020671098
-0.0046605044 0.014966554 0.011565374 0.0044689896 0.013741718 0.00025676898 -0.006081658 -0.018462136
0.016137678 -0.0059935707 0.0017531825 -0.0051791095 -0.0013064883 -0.019559568 -0.015292905 -0.019150846
-0.008060767 -0.011958591 -0.014689567 -0.003109559 -0.006941629 0.00078939245 -0.012238013 0.009585792
-0.012433151 -0.019082125 0.010176532 0.0014146628 -7.0100694e-05 0.011327227 0.0014372496 -0.01549255
-0.018760718 -0.0066322084 0.0089912675 0.0059773163 0.0015094609 0.009604818 -0.015585815 -0.007977774
-0.012104943 0.011453998 -0.017475462 0.009541738 0.0058606034 -0.005564232 0.0038071093 -0.0015456061

net.0.bias f4 [50]
00000000: 648e 2d3c 9480 ae3b 58f6 7cbc e6ba 82bc
00000010: 8cd6 8abd 5ead 093d b703 cb3b e90a 06be
00000020: 565e 08bc 3e95 94bd c330 ebbb 7242 903d
00000030: 6254 18bb bd8d 0a3c 5b53 813c 4ed8 8b3b
00000040: 5376 b43b d34e 0d3d b269 6abc cb8a 573e
00000050: c7a9 c6bb 1869 3abe f4f9 82bc 45df 6ebc
00000060: a6d0 23bc c4fd 4d3c c6c4 423c 9fae a9bd
00000070: 7f90 623c 0166 ea3b 0512 f43d 25c1 67bd
00000080: 9861 3a3d 3d28 083d f780 fa3c dfc7 9fbc
00000090: f9db dcbb 53b7 7fbb 73ab be3d 85a6 3d3c
000000a0: bc6d 8fbc fe88 7c3e a1b3 df3c 6cf0 a33a
000000b0: 5d20 12bc d088 a4bc 8a93 94bc 6472 35bb
000000c0: 7bcf 393c 399b 53bc
0.010593031 0.0053253863 -0.015439592 -0.01595826 -0.06779203 0.0336126 0.006195511 -0.130901
-0.008323273 -0.07255028 -0.0071774437 0.070439234 -0.0023243655 0.008456645 0.015786817 0.004267729
0.0055072694 0.034499 -0.014307426 0.21049039 -0.0060627195 -0.18204153 -0.015988328 -0.014579599
-0.009998476 0.0125727095 0.011887735 -0.082852595 0.013828396 0.007153273 0.119174995 -0.05658068
0.04550323 0.0332415 0.030579073 -0.019504486 -0.00674009 -0.0039019182 0.09310045 0.011575346
-0.01750838 0.24661633 0.027307333 0.0012507564 -0.008918849 -0.020084769 -0.018136758 -0.002768659
0.011340971 -0.012915426

net.2.weight f4 [50, 50]
00000000: 71ec 36bd a214 9f3d fbda 353d 98f5 ad3c
00000010: 10d8 583d 2005 a6bd dae2 56bc 91e2 babd
00000020: d784 c23d c9a2 8abc 733b 803c a760 2e3d
00000030: 90cb a93d b984 9b3d b026 22bd dd38 923d
00000040: 71ef 6b3c 46cf dfbd b6d7 8f3d 642e ffbd
00000050: ed9f c8bd 9dae 823d 9040 383d b490 cb3d
00000060: 611b 24bd fb61 a8bd 059b 0ebe f409 aebd
00000070: 149a 0fbe 4379 11bd 6931 a5bc 6bb2 e6bd
00000080: 4bae 42bd 55c7 43bd 502e f0bd ac28 95bd
00000090: 3302 b73c 45b8 993d 2bf6 d33b 2d7f dabd
000000a0: 5224 853d d574 e7bc 66c7 bdbc af99 e3bd
000000b0: 49a4 cdbd fa2c bd3d 7fbb e33d b780 04be
000000c0: 133b 78bd 562d f23c cf94 81bd e9be 40bd
000000d0: e882 603d 0400 71bd ade8 3c3e 9009 873e
000000e0: 2ab8 36bb 0edf 0ebe 133e d3bd 9031 183d
000000f0: 75b7 323c 6c67 043e 021a 3e3d 7e2d 1ebd
00000100: 3399 cc3d 559e bdbd d11f 05be 4f1c 723d
00000110: 0d12 ec3c f783 3b3d 7e2b 81bd a8cc cb3d
00000120: e252 0b3e dda5 0b3d b5a2 ad3b f8a7 bdbd
00000130: b0e5 86bc 9211 13bd 1abf a9bc 8723 0b3d
00000140: 565d 973d 66f4 6e3d 1643 0d3d 3ef6 2c3d
00000150: 77c5 993d e2f2 7a3d 0450 08be fb0d 093e
00000160: b02f a3bd dd75 103d 1c0a 153e c490 5bbc
00000170: 40e2 183e 827f b6bd cba2 e63d a607 06be
00000180: 3bbb 2e3d e11a ff3d 0678 993d 21ff b23d
00000190: b2f7 3bbd d977 ed3c 57ff 60bd eff0 8ebc
000001a0: 1d28 f93c 718d debc 47a7 d03c 4da5 163d
000001b0: f510 d0bc e33f bebc 8254 70bd f821 403d
000001c0: dcf2 b5bc d490 d63d 0855 59bd cad8 d1bd
000001d0: 27fb 05be 8ccc 99bd aeec 8c3d bd0a 07be
000001e0: 7ce7 6cbd 2396 2ebe c8bb 8fbc 5442 ba3d
000001f0: e587 943c 57fc 2c3d 4243 e83d b580 3b3e
00000200: bfe0 323d bc56 d03c 63f2 b23d cd16 333e
00000210: 6cbc 32be 214c 853c d41b 7d3d cd0b a33d
00000220: 6e0a 02bb 8fe3 b5bd 630e 93bc 4ee5 f13d
00000230: 8a3c f6bd 46ec 953c 749c 7c3d 98e8 da3d
00000240: d658 06be c9ff f93c 4875 f8bd e7b0 393d
00000250: 76b0 f8bd 55f6 f6bd a0c4 32bd e603 d63d
00000260: 6d8b 72bd 3a2a de3d 5a41 14be 96d0 f4bc
00000270: c088 c7bd 8ebc 19be 3599 103e 1b14 3b3d
00000280: f9bf d43d f3e1 05bd 92b0 9cbd 042f 8dbd
00000290: 2c77 9bbd d07f 413d 749e ce3c d909 daba
000002a0: 907c 3ebd d547 e9bd 0716 0dbd 5888 6a3d
000002b0: 9f17 1b3d 6eac 24bd 3993 953d 42aa 18bd
000002c0: 9f72 a2bd 6743 95bc a7df 063e 321e 353c
000002d0: b00a 34bc c201 02be e904 17be 42e1 05be
000002e0: a2e8 a93d ca3f 81bc 920b c83a e444 e03d
000002f0: 07a3 943d ea2d c53c cf5c ac3b cbdc ebbd
00000300: 85cc 95bd dd84 10bd 89c1 4dbd 2aa5 b63d
00000310: a026 d7bd 440e b03d d081 073e 9b3b dfbd
00000320: 071b 88bd 00c4 253c 9268 f4bd 7681 c0bc
00000330: 3568 c23d 078b 493e 8144 19bd cb84 6f3d
00000340: 6c17 1b3d b5a4 403d e762 003d b34f 84bb
00000350: 3ddc bd3d 421b e53d ec33 013e 7367 95bc
00000360: 7e23 a1bd ca63 9bbc 7899 b1bd 4860 d2bd
00000370: 21b3 fb3d 403b 16be 4c05 a43d f24f a83d
00000380: d0db fa3c 93dc d63d 6370 253d 903d 6b3d
00000390: c353 36bd ba0d aabd 2d5e 463d eafc e4bb
000003a0: c6b9 40bd d680 71be 08d1 2b3e 6c14 923c
000003b0: 53f9 a9bb 2aa9 43bd 93dc ccbd 8a91 ad3b
000003c0: 806b f3bd 30c6 dabc be81 35bd 9949 9fbd
000003d0: a0ed f63d 382a 9f3c 1e3f 033e 072f 9e3d
000003e0: bd4a ee3d f6e1 e5bd 0863 e53d d43f 2f3d
000003f0: 6d1a 973d 5544 003e 3348 973d 7e91 0d3e
-0.04465908 0.07767607 0.04439829 0.021235272 0.05294043 -0.08106446 -0.013115609 -0.09125245
0.094979934 -0.016923325 0.015653348 0.042572644 0.082907796 0.07593674 -0.039587677 0.07139752
0.014400349 -0.10928206 0.070235655 -0.1246002 -0.097961284 0.06380961 0.044983447 0.09939709
-0.040065173 -0.08221813 -0.13926323 -0.08497992 -0.1402362 -0.035516035 -0.020165162 -0.11264499
-0.0475295 -0.04779752 -0.117275834 -0.07283148 0.022339916 0.0750585 0.0064685545 -0.10668788
0.06501068 -0.028253952 -0.02316637 -0.11113297 -0.100411005 0.09237094 0.111197464 -0.12939726
-0.060603213 0.029562633 -0.06327211 -0.047057066 0.054812342 -0.058837906 0.18448134 0.26374483
-0.0027880766 -0.13952276 -0.10314574 0.03715664 0.010907997 0.12930077 0.04641152 -0.038617603
0.09990158 -0.09258715 -0.13000418 0.05910903 0.028817201 0.04578015 -0.063071236 0.099511445
0.13605836 0.034093726 0.005298937 -0.09260553 -0.016466945 -0.03590543 -0.020721007 0.03396943
0.07390849 0.058338545 0.034487806 0.042227022 0.075083666 0.061266787 -0.13311774 0.1338424
-0.0796808 0.035268653 0.14554638 -0.013401214 0.14930058 -0.08911039 0.11261519 -0.13088855
0.042659026 0.124562986 0.07493596 0.08740068 -0.045890518 0.028987812 -0.05493101 -0.01744887
0.030414635 -0.027167054 0.025470389 0.036778737 -0.02539871 -0.023223823 -0.058674343 0.046907395
-0.022210531 0.104768425 -0.053059608 -0.10246427 -0.13084088 -0.07509717 0.068810806 -0.1318769
-0.05783795 -0.1704946 -0.017545596 0.09094682 0.018131206 0.042232838 0.113409534 0.18310817
0.043671366 0.025431983 0.08737638 0.17489167 -0.1745469 0.016271653 0.061794117 0.07961235
-0.0019842642 -0.08881294 -0.017951196 0.118113145 -0.12023266 0.01830114 0.061672643 0.10688895
-0.13119826 0.030517476 -0.121317446 0.045334723 -0.12143032 -0.12058703 -0.043644547 0.10449962
-0.059214998 0.10847898 -0.14478055 -0.029884618 -0.0974288 -0.15013334 0.14120944 0.04567347
0.103881784 -0.032686185 -0.076508656 -0.06893733 -0.075910896 0.047241032 0.02522204 -0.0016635015
-0.04650551 -0.11390654 -0.034444835 0.057258934 0.037864324 -0.040203504 0.07303471 -0.037271746
-0.079320185 -0.018220617 0.13171254 0.011054562 -0.010988876 -0.12695983 -0.14747967 -0.1307421
0.08296324 -0.015777487 0.0015262237 0.1095064 0.072576575 0.024069745 0.005260087 -0.11516722
-0.073144 -0.03528296 -0.050233398 0.08918221 -0.10505414 0.08596471 0.13233113 -0.10900041
-0.0664578 0.010117531 -0.11934008 -0.023499232 0.09492532 0.19681941 -0.037418846 0.05847625
0.037864134 0.047032077 0.03134432 -0.004037821 0.09270523 0.1118684 0.12617463 -0.018237805
-0.07868098 -0.018968482 -0.0867185 -0.102722704 0.122900255 -0.1467104 0.08008823 0.08218373
0.030622393 0.1049129 0.040390383 0.057431757 -0.044513475 -0.083033994 0.048429657 -0.0069881575
-0.047052167 -0.23584303 0.16778958 0.017832004 -0.0051871925 -0.04776875 -0.10003009 0.0052968906
-0.118857384 -0.026705831 -0.044313185 -0.077777095 0.12057042 0.019429311 0.12817046 0.077238135
0.11635349 -0.11224739 0.11200529 0.04278548 0.07378087 0.12526067 0.07386818 0.13825032

net.2.bias f4 [50]
00000000: bcd3 de3d 6212 e7bd 4caf 6cbe 3810 02be
00000010: 6737 a03e 963e 8a3e 5c38 aebd 979c b53d
00000020: 7a1e e83d 290c 50be dea8 fd3a e62d 10be
00000030: ba4a 813c a7f3 0abe 7730 cb3d 00b1 973e
00000040: e3a5 ab3d ef4b 0b3c e0d9 773e fbd1 913e
00000050: 5007 713e fa62 693d 347d 693e bfc3 413d
00000060: 9030 a93d 7299 213e 854a fabd 8995 b6bd
00000070: e9a8 e03c ad9c 893d 3918 c5bd db33 f63d
00000080: 95f4 29bd cb7f b8bd 3946 a83d 3b29 e43e
00000090: 1d62 223d b045 7a3e 9a50 b43d 3a52 333e
000000a0: c615 afbd ff71 34bd 0b99 e7bd a749 38bc
000000b0: a990 923c eff2 2dbe 55b8 ae3d d5dc 143d
000000c0: a062 98be 054b b73d
0.10880229 -0.11282803 -0.23113745 -0.127015 0.3129227 0.27000874 -0.085068434 0.08867758
0.11333938 -0.20317139 0.0019352695 -0.14080009 0.015782703 -0.13569508 0.09921353 0.29627228
0.0838125 0.008501991 0.24204206 0.28480515 0.23537946 0.056979157 0.22801667 0.04730582
0.08261216 0.15781191 -0.12221245 -0.0891524 0.027424293 0.06719337 -0.09623761 0.120216094
-0.041493017 -0.090087496 0.08216519 0.44562706 0.03964435 0.24440646 0.08804436 0.17511836
-0.08549075 -0.044054028 -0.113084875 -0.011248029 0.017891245 -0.16987203 0.08531252 0.036343414
-0.29762745 0.08949856

net.4.weight f4 [50, 50]
00000000: 3b73 b1bb f76a 143c f321 4abe 1b5f 0e3e
00000010: 6b53 eabd ce37 b43d 5683 b43d 840d 55bd
00000020: 55e4 033e a563 12be 766e c4bd 18d0 7ebc
00000030: 0226 353c 0826 af3d e05b f43d 20e3 08be
00000040: f879 a7bd 830d babd da50 443d 24e8 453d
00000050: f302 7b3c fe52 cb3d 16ae 35be 16ee c6bc
00000060: 7e8b 103e 8394 ba3d 8d59 6c3d 6b4e 42be
00000070: d02a 1dbe 66e3 4fbe 5b1f e13d 9342 693d
00000080: 0935 b5ba af60 a03d 4cc4 17be 89b0 25bd
00000090: c11c 013e 085f 123d 6e00 2ebc bdbd f2bd
000000a0: cc89 ebbd 412d 8dbc 8405 cfbe f64f 26be
000000b0: 0808 d83d 396a 313e ec17 33be 418e 90bd
000000c0: 3f49 ea3d 9a48 4bbd ca1b 063e 4697 93bd
000000d0: 5ea3 36bd c70c a3bd 4a65 34be b47b 93bd
000000e0: f3b6 8f3c 3d2b 21be e3fc d83d 1773 7abd
000000f0: 9409 3ebc fa34 12be 0b19 e5bc f52b 423e
00000100: 4059 4cbc faed bd3e 354b bcbd d288 e5bd
00000110: 39b8 933d 6066 3bbe 0869 803d b1cc 373d
00000120: ba4e 48be b647 743d f49d 3e3c dc8e 133e
00000130: 869b 03bb 4c03 b2bd 3502 bcbc ad67 083e
00000140: 669a 283d f0e0 42bd 88e2 4f3d 5a95 103b
00000150: 3a03 14bc 6737 ecbd c8c0 b9bb 3cb8 963e
00000160: ab50 78be e305 ed3d 4105 2bbe 7609 5a3d
00000170: b27c bfbd 14bf fd3c 05f8 0ebe ef30 bcbd
00000180: 008b 583b 9bef d53b 0140 26be 9841 ed3d
00000190: 6e56 6cbc 0efd db3b 5639 73be 70bc de3d
000001a0: 0d1f 8bbc b4e9 ae3c ca92 4d3e 2863 e7bd
000001b0: 34bb 213e 4cee a63d 27fa 70bc f7f2 e43d
000001c0: 51e9 b5bd 7dbd 90bd 73dc 13be 6708 ca3e
000001d0: 11e0 f83d 1564 e13d 21fb 86bd a4ba 1a3d
000001e0: f984 2fbd 306d a2bd da7a 90bd cced 66bc
000001f0: 3eb4 dc3d 56d6 363e 14eb 143e 9b4a c9bd
00000200: 6add 653d 783a 22be 5b61 67be d59e 9c3d
00000210: 2c6a daba 6561 063d 8f53 1abd 87d5 18be
00000220: df25 de3d 72c5 07be ff88 3ebd 8b69 123e
00000230: b053 7ebd 4ccf ec3d c052 83be 3b06 4d3e
00000240: 2283 d3bd 417b 98bd 4078 b73d 7713 03be
00000250: 60fd 06be 8067 f23c b3b0 ca3d e9cf 51be
00000260: a9d6 03bd e1c7 303d d679 943a 1298 163e
00000270: ed4a 133e 4c17 a03d 4841 2cbe c754 023c
00000280: 6bad 40bd e999 80bd f4c0 61bd a8ac 75bd
00000290: 9247 ba3c a8ea 87bd 6630 083d ab56 45be
000002a0: 754b 97be 85f7 a33d 3197 503d 06a1 043d
000002b0: e32d 4a3e dd80 26be 59db 35bd 2c08 903d
000002c0: 9198 3fbe e2d8 b9bc 6cdc 6b3d f69e a13d
000002d0: 1035 2dbe 0e1d 973c e686 0cbe 70f6 d8bd
000002e0: 54d1 323d b747 d0bd fb63 443c f9bf 1f3e
000002f0: 4df3 b73c 7bf8 613d d8ae e7bd 4c1b 1d3d
00000300: ca82 71be aad0 42be a24d 113e 3b43 ecbe
00000310: 7fdc 6fbd b00a 603e 9c00 a9bd 1652 29bc
00000320: 7372 a4bd a54e 053e a8d7 aebc f30c 933d
00000330: 70eb 20be 4dd8 9f3d 8a87 6bbe 5643 17be
00000340: 1c5e 183e ed95 ed3d fff3 30bd da90 80bd
00000350: ec03 0d3e 3eb1 0b3e cb83 c0bd 992c 21be
00000360: 34ef 90bc 4794 c3be 0139 7e3e ba87 f2bd
00000370: fdbd a43d 331a ee3d 68a0 d0bd 6d7a 66bd
00000380: 102f 843d 3b43 b1be 8f8a 92bd 17d9 ea3d
00000390: 2bc8 8cbb c6b4 58be 3c54 92bd 14bd 8e3d
000003a0: e95c 2dbc 935a 773d f21f 613d 1d06 83be
000003b0: 1a03 c83d 200b 693e 04d9 12be 5114 5c3d
000003c0: efdb fa3d 4046 f03d 561f 8cbe 4c08 2dbd
000003d0: 321d dcbd 9fd6 083e 4dda 443e f1ec 20be
000003e0: 72d0 293d 6d4d a53c 0ddf 34bd bbb4 afbd
000003f0: d06a a43e 4bc3 50bd ee67 963d 29aa db3d
-0.005415348 0.0090587055 -0.19739513 0.13903467 -0.11441692 0.087997064 0.08814113 -0.052014843
0.1288007 -0.14295824 -0.09591381 -0.015552543 0.011056425 0.08552176 0.11931586 -0.13367891
-0.081775606 -0.090846084 0.04792867 0.04831709 0.015320527 0.09927939 -0.1774219 -0.02428345
0.14115712 0.091103576 0.05770259 -0.18975227 -0.15348363 -0.2030159 0.10992309 0.056948256
-0.001382501 0.07830941 -0.14820975 -0.04045156 0.12608625 0.03573516 -0.01062022 -0.11852596
-0.11500892 -0.017233493 -0.40433896 -0.1624144 0.10548407 0.17325677 -0.17489594 -0.07058383
0.11439752 -0.049629785 0.13096538 -0.072065875 -0.044589393 -0.079614215 -0.17616764 -0.07201329
0.017543292 -0.1573915 0.10595109 -0.061144914 -0.011598963 -0.14278021 -0.027966043 0.18962081
-0.012472451 0.37095624 -0.09194032 -0.11207737 0.07212872 -0.18300772 0.06270033 0.044872943
-0.19561282 0.0596387 0.011634339 0.14409965 -0.0020081713 -0.08692035 -0.022950271 0.13320799
0.04116287 -0.0475778 0.050753146 0.0022061677 -0.009033972 -0.11534005 -0.0056687333 0.29437435
-0.24249522 0.115733884 -0.16701223 0.05323168 -0.093499556 0.030974902 -0.139618 -0.09189021
0.0033041835 0.0065288073 -0.16235353 0.11584777 -0.014424903 0.006713516 -0.2375234 0.10875785
-0.01698258 0.021351673 0.20075527 -0.112982094 0.15794069 0.0815092 -0.0147080785 0.11179154
-0.08882392 -0.07067392 -0.14439563 0.39459535 0.12152112 0.11005417 -0.06590868 0.03777565
-0.042851422 -0.07930982 -0.07054682 -0.014094781 0.10776566 0.178552 0.145428 -0.09828683
0.05611936 -0.15842617 -0.22595732 0.07647482 -0.0016663722 0.032807726 -0.037677344 -0.14925204
0.10847067 -0.13258913 -0.04651737 0.14298074 -0.06209153 0.11562976 -0.2564907 0.20021908
-0.10327746 -0.07445384 0.08958483 -0.12800394 -0.13182592 0.029590368 0.09896984 -0.20489468
-0.032187138 0.04315937 0.0011327814 0.14706448 0.1438405 0.078169435 -0.16821778 0.007954783
-0.047040384 -0.06279356 -0.055115655 -0.05997911 0.022739206 -0.06636554 0.03324928 -0.19271342
-0.29549757 0.08006195 0.050925437 0.032380126 0.19744067 -0.16260095 -0.04439864 0.07032809
-0.18710543 -0.022686426 0.057583258 0.078916475 -0.16914773 0.018446472 -0.13723335 -0.10593879
0.043656662 -0.101699285 0.011986728 0.15600576 0.022454882 0.05516861 -0.11312646 0.03835611
-0.23585048 -0.19024912 0.14189771 -0.46145043 -0.05855989 0.21879077 -0.08252069 -0.010334512
-0.08029642 0.13018282 -0.021343067 0.07180204 -0.15714812 0.07804928 -0.23000923 -0.1477178
0.1487965 0.11600862 -0.043201443 -0.06277628 0.13771027 0.13641831 -0.094001375 -0.15739669
-0.017692186 -0.38199064 0.24826433 -0.11842294 0.0804405 0.11626091 -0.10186845 -0.056269098
0.06454289 -0.34621605 -0.07155334 0.11467188 -0.004296323 -0.2116271 -0.07144973 0.069696575
-0.010581234 0.060389113 0.054962106 -0.25590602 0.097662166 0.2275815 -0.14340597 0.053730313
0.1224898 0.11732149 -0.27367657 -0.04224424 -0.10747756 0.13363121 0.192239 -0.15715386
0.041458555 0.020178521 -0.04415803 -0.085793935 0.3211274 -0.050967496 0.07344042 0.10725815

net.4.bias f4 [50]
00000000: cd5b 16be 1685 833e 082b fe3d 52af 0b3e
00000010: 3102 2c3d f5a1 03be a5e7 9fbe 71ea 293e
00000020: 7ac4 343e f704 1c3e a01b c33d 5d0c 83be
00000030: a88d 3cbe 57f6 d8bd a225 26be b781 543d
00000040: 036b 863e 1904 243e b8b0 80be 24ad 2c3e
00000050: eb7a 5abe f897 8e3c b794 1e3e a48b af3c
00000060: b171 193e f4a4 523e 1551 783e 0904 af3b
00000070: e860 353e eaab 563e 3429 b33e a54b 3a3e
00000080: 1887 61bd 3eb9 8dbd e127 4f3e 4c1c 4cbe
00000090: 5dbd 673d 1d42 523d 7a66 063e 37d6 43be
000000a0: 4813 983e cd9b ae3e 9849 25bd 350c 3a3e
000000b0: 3bbe cd3e 4d9e 9bbe 4fc8 903e 8526 42be
000000c0: 2cc0 34bd 69c8 033e
-0.14683457 0.25687474 0.12410551 0.13641098 0.041994277 -0.1285475 -0.31231418 0.16593339
0.17653075 0.15236269 0.095267534 -0.2559537 -0.18413413 -0.105938606 -0.16225293 0.05188152
0.26253518 0.16017188 -0.25134826 0.16862923 -0.21335952 0.017406449 0.15486418 0.02142889
0.14984776 0.20570737 0.2424968 0.005341057 0.17712748 0.20964018 0.34992373 0.18192919
-0.055060476 -0.06920098 0.20230056 -0.1993267 0.056577075 0.05133258 0.13125029 -0.19124685
0.2970221 0.34103242 -0.040353388 0.18168719 0.40184197 -0.3039421 0.28277823 -0.18960007
-0.044128582 0.12869419

net.6.weight f4 [50, 50]
00000000: 93f6 933d ef1f 89be 7b45 29bd d1e0 073e
00000010: 295f 823d 4a40 dcbc 4de7 0dbe 3169 6cbd
00000020: 1773 2cbe d7d8 d3bd c141 233e 6569 83bd
00000030: 1040 6ebc 3b7a 413e 6355 173e b62d 553e
00000040: 35c2 873b 3d85 bebd 26ed 383e e050 063d
00000050: d62c 213d 329d 073d f0d2 073e 9f61 39be
00000060: 7704 a0bd 2530 3bbe d51e 883d 12fc 353b
00000070: ca9e 203d ac1a 223e 3655 8dbe 1436 463d
00000080: 5310 b9bd 800a 9ebe 5c6e 413e 7633 b03d
00000090: d8f1 e03d e47e 043e fd61 a33c 6061 e63d
000000a0: fe39 ac3d a848 f0bd 4625 4b3e 53b9 c73c
000000b0: 4eed fcbd 81ff d53c 551b 27be 2da7 833d
000000c0: fe29 8d3d 2575 1b3e 084e cb3d 8ac7 733c
000000d0: f577 363e beee 89be 451b 3abd cf97 ee3d
000000e0: 3ed3 ce3e b085 d8be 8fd9 60be 2f58 ee3e
000000f0: 1ce8 2d3c 2135 38be 363e 54be c5e1 78bd
00000100: 32a3 3a3d 9318 8ebd 8930 0d3e f2f5 cf3c
00000110: 7ab0 183e 8f59 ce3d e3a8 303d c677 25bd
00000120: e066 97be 55f8 33bd 766d d03d 1f2e e4be
00000130: ec37 273e 3f30 7a3e 89e8 983c 23bc 083e
00000140: 43e6 433e 7775 26be 7ab1 72bc 09da 8abe
00000150: fc29 b63d dbab bc3d 9f03 c2bc 516e fdbd
00000160: 45ca 34be d735 bdbd 9de2 323d 9234 e4bd
00000170: 8574 893d 01b8 b5bb 0ed0 023e 0139 043e
00000180: 0391 72bd e878 20be ad3e 353d 57ad 50be
00000190: 651e 9abd edc3 013e 23aa 9cbd 3c2b cd3e
000001a0: 2fbb fabd 3dee ab3d c729 21be 50bd 583e
000001b0: dafc 22be f233 fe3c dfcf 483e 97d5 103e
000001c0: a15b 66bd e41c 49bd a9b4 c7bc 4854 63bd
000001d0: 46fb 2a3e 1e01 223e 0087 183e 15ee 23be
000001e0: ecee 943b eb41 08bd b7a6 e13d cef3 953e
000001f0: 932d 38be 30a5 953d 76c3 1ebe cdf7 45bd
00000200: 79ae a93c c66c f33b ee7f b0bd 741c febd
00000210: abf7 013e 4b29 513e 3c28 443e 564b e4bc
00000220: b20e 11be bdb6 27bd 3e74 493e 217c cb3d
00000230: 2ab5 1ebd b8d3 0f3f 714e dbbd d4b8 ec3c
00000240: 663d c73e 6bde 713d 9d27 883d ca9d f23d
00000250: 20bb 013d c809 40bd 8f41 96bd a4c2 6d3e
00000260: f149 4b3d 3faf 1abe 8f7d 083e dd4a 3bbe
00000270: a67a 1f3e 6c03 853e ebea df3d 6247 5ebc
00000280: d25d 533e fcc6 b53d 350f 83bd 664c e3be
00000290: 5dab 7c3d e14f 5b3d 0038 ef3d b7b2 09be
000002a0: 71f2 4ebe e6a1 363d d077 26be c12d c2bd
000002b0: 0314 debb 98da 973e c3fd 9dbd 21a7 1c3e
000002c0: 17b8 4f3e afa8 173d 50fc c63d bc98 c53d
000002d0: 9a80 773e 2dd6 22bd 25fd 31be 2c3f 42bb
000002e0: aa2b 513e 7d91 3fbc 8c66 2bbe 6c12 febd
000002f0: 803d a3bb 13e3 babd 877b 0a3e 9184 7dbd
00000300: 268a e53c 14f6 4d3e 0ea9 553e 682f a1be
00000310: 79b7 5cbd aacd 63be f666 ad3d 0399 c3bd
00000320: 18a2 1abe eb1f 27be f5e4 8e3d 6406 c0bd
00000330: c7af a13c 65f2 8d3c da07 80be e658 35bd
00000340: 5544 54bd 6598 183e bd9e e13c 769f daba
00000350: 33de 2b3d a2c0 d93b 24d2 1a3d d191 fe3c
00000360: d811 1c3e f0e9 b43d 880e 67be 494a f7bc
00000370: 7457 fd3d 8d3a c3bd 324d ec3d 1576 da3d
00000380: 7417 86be c6f4 f93d 45a2 0cbd 9541 e7bd
00000390: 7403 da3d b786 5f3e 37ca 993d 7ee2 55bd
000003a0: 6723 ecbc 5a79 c5bc 3839 523e bcf8 7cbc
000003b0: 1a02 273d a255 abba 348a 263e 0c6c 0839
000003c0: be65 893c a96b 9fbe dd10 3bbd 75ed ad3d
000003d0: 41b5 243e 8893 023e e4e5 863c 8257 e9bd
000003e0: 2529 92bd a7b0 043d c47e 8cbd 8ac8 903d
000003f0: 95da a23d 8557 143b 3b13 063e 05aa 4cbb
0.07224765 -0.26782176 -0.041326027 0.13269354 0.063658066 -0.026886124 -0.13857765 -0.057717506
-0.16840778 -0.10344093 0.15943052 -0.06416587 -0.014541641 0.18894283 0.14778666 0.20818219
0.0041430243 -0.09302757 0.18059215 0.032791972 0.0393494 0.033108898 0.1326406 -0.18103646
-0.078133516 -0.18280084 0.06646506 0.0027768654 0.039213933 0.15830487 -0.27604073 0.048391417
-0.09036317 -0.30867386 0.18889755 0.086035654 0.10983628 0.1293903 0.019944185 0.112490416
0.08409499 -0.11732608 0.19838437 0.024380362 -0.1234995 0.02612281 -0.1631902 0.064283706
0.06892775 0.15181406 0.09926993 0.014879117 0.17819197 -0.26939958 -0.045436163 0.11650049
0.4039554 -0.42289495 -0.21957992 0.46551654 0.010614421 -0.17989017 -0.20726857 -0.060762186
0.04556579 -0.06938281 0.13788046 0.02538583 0.1491107 0.10075676 0.043129813 -0.040397428
-0.29570675 -0.043938 0.10177128 -0.44566438 0.16329926 0.24432467 0.018665569 0.13353018
0.19130807 -0.16255747 -0.0148128215 -0.27119473 0.08894727 0.09212466 -0.023683367 -0.12374557
-0.17655285 -0.09238785 0.043673147 -0.111428395 0.067116775 -0.0055456166 0.12774679 0.1291237
-0.059220325 -0.15671122 0.044249225 -0.20378624 -0.075253285 0.12672396 -0.076496385 0.40072048
-0.12242734 0.0839505 -0.15738593 0.21165967 -0.15916768 0.031030629 0.19610547 0.14143978
-0.056239728 -0.049099818 -0.024378138 -0.0555003 0.16697416 0.15820739 0.14895248 -0.1600879
0.0045450833 -0.03326599 0.110181265 0.2928757 -0.17986135 0.07306898 -0.1550425 -0.048332024
0.020713078 0.0074287383 -0.08618151 -0.12407771 0.12692134 0.20425908 0.19155973 -0.027867954
-0.14165762 -0.040945757 0.19673249 0.09935785 -0.03874699 0.5618243 -0.10708321 0.028896727
0.3891403 0.059050005 0.06648181 0.11846502 0.031672597 -0.046884328 -0.07336723 0.23218781
0.049631063 -0.15105914 0.13329147 -0.18290277 0.1557413 0.25979173 0.10933479 -0.013566824
0.20641258 0.08875844 -0.06399385 -0.44394225 0.061686862 0.053542975 0.11680603 -0.1344708
-0.20209672 0.044587992 -0.16256642 -0.09481383 -0.006777288 0.2965896 -0.07714417 0.1529813
0.20285068 0.037026104 0.097160935 0.096482724 0.24170151 -0.039755035 -0.17381723 -0.0029639704
0.20426813 -0.011692402 -0.16738337 -0.124058574 -0.0049816966 -0.09125342 0.13523684 -0.061894003
0.028019976 0.20113403 0.2086527 -0.3148148 -0.05388591 -0.22246423 0.08466904 -0.09550669
-0.15100896 -0.1632077 0.06977264 -0.09376219 0.019737137 0.017327497 -0.2500599 -0.044274233
-0.05182298 0.14901884 0.027541513 -0.0016679603 0.041959953 0.006645278 0.037798062 0.03107539
0.15241182 0.088336825 -0.22564137 -0.03018679 0.12370196 -0.09532652 0.11538161 0.106670536
-0.26189768 0.1220489 -0.03433444 -0.11291806 0.1064519 0.21828733 0.075092725 -0.052217953
-0.028825475 -0.024105716 0.2052964 -0.015440162 0.04077349 -0.0013071785 0.16263658 0.00013010221
0.016772147 -0.31136826 -0.04567038 0.08492557 0.16084768 0.12751591 0.016467042 -0.11393644
-0.07136754 0.03239503 -0.06860116 0.070695 0.079518475 0.0022635174 0.13093273 -0.003122927

net.6.bias f4 [50]
00000000: a407 49be e6d6 9b3d 0c47 0f3e 09db ab3e
00000010: 19e7 943e a19d f33d 7a48 ad3d 6425 193e
00000020: 78bf 3e3e 571e 373e 07f1 d53d 83f9 683d
00000030: ec84 41be c6e8 803e 5056 d1bd 2715 c93d
00000040: ac94 9f3d 2e5f d73d e8ea 38be 2814 a43c
00000050: 0525 483d dbb9 b0bd 5319 afbd 9aa4 783d
00000060: 0199 093e 90da 9a3d fa15 893d 39e9 3c3d
00000070: f3f2 f13d 0e85 373d 0da6 97bc 034e 653e
00000080: 0d46 703e 7244 72bd 3531 b6be 9812 7a3d
00000090: 4a9c f63d 86ba dc3d f6cf 4dbc 88ea 2a3e
000000a0: 4b33 363e 5951 47be fc54 e0bc 5f40 8c3c
000000b0: 1928 a6bd 4e03 523a e2de c53d 6bd9 e93d
000000c0: 742b 0a3e b0e1 553e
-0.19631821 0.07609348 0.13991946 0.33565548 0.29082564 0.118953 0.084610894 0.1495567
0.18627727 0.17882667 0.10446363 0.056878578 -0.18898362 0.25177592 -0.10221541 0.098184876
0.07792029 0.10516201 -0.1805836 0.020029142 0.04886343 -0.08629199 -0.08549752 0.06070385
0.13437273 0.07561219 0.06693645 0.046120856 0.11813917 0.044804625 -0.018511796 0.2239304
0.23464222 -0.059147306 -0.35584417 0.06105289 0.120415285 0.10777764 -0.012561789 0.16691029
0.17793004 -0.19464625 -0.027384274 0.017120538 -0.08113117 0.00080113567 0.09661652 0.11418422
0.13493139 0.20886874

net.8.weight f4 [50, 50]
00000000: c1f7 9d3d 1c8f 3bbe 6836 953e 5102 053d
00000010: 3e6e 913d 0615 113e d0ae 7f3e 66fb 4cbe
00000020: 1e29 16bb 921f 133e f7ce ef3c 8c1b 663e
00000030: 5551 513d 3d29 2c3e 000a 053e a73d ad3d
00000040: c006 613d 84a2 1f3e a62a c6bd 1212 5e3e
00000050: e33d 323e 5104 0abd 9c0e 993c 8995 a03e
00000060: 761d ab3d dc38 203e 6544 e3bc 2e3f 12be
00000070: 907a 433e 944e 84be a621 173e d04d a5bd
00000080: df96 9abd 0a34 0fbd 9084 ee3d fac2 acbd
00000090: 20e0 873e e100 ad3b 98ee 84be e819 b1bd
000000a0: d54f 0f3d 9f74 0d3e 9514 433e f6b4 113e
000000b0: 6175 b5bd c449 60be 92f1 c9bd 7c4d a1bd
000000c0: 5550 813c e68c 4f3d cd05 493e 0ec6 1cbe
000000d0: 71ee 963e 43fc 553e 3a81 8f3e 3f99 f6bd
000000e0: 8a97 1ebd 297f 77be ae99 af3e 9e2b 9d3d
000000f0: c9df 763e b056 d1b8 cb59 1d3e 20bc 1e3e
00000100: b725 0f3e 856d 38bc 6a67 3ebe 0c2f 54bd
00000110: 4071 ce3c 2b23 983c 756b 3bbe 0f83 2a3d
00000120: b270 0d3e a478 0ebd bf23 5a3e 6095 513d
00000130: 4058 abbe e9cb 68bc 80aa c13e b482 913e
00000140: b5e3 b73d fc1f ffbd 5dbd ecbd aa0f cb3e
00000150: 464a ac3e 9ece d13d 8c07 eb3e e72e b03d
00000160: 9752 9f3c b014 233e 234f f93d d064 04be
00000170: cf9e c9bd 830e 3f3e 0ff1 203d e36a f0bd
00000180: 8220 7cbd a053 0a3e 0802 343e cc6b f53d
00000190: afbf 133c 4dcd fbbd 652b 203c d89e adbe
000001a0: 8fbf 24be 9edd 1ebc 2c77 6abd 3dbb 89be
000001b0: 491b cf3d 08bc c73d 3bd4 00bd 26bc ccbd
000001c0: 588d 18bf db1d cfbe c741 2cbd d304 0f3e
000001d0: 6fb3 523d 630c 053d 2a91 87bd 5b5c a4bd
000001e0: 6b70 c9bd c014 0f3e 30be a73d 6447 273e
000001f0: 670f 85be 845e 403c d224 6f3c e5a3 fabd
00000200: b6a9 f3bd 2520 cdbe 9ab4 5a3e c217 7ebe
00000210: 8442 88be 548b 423e a70f ea3d a856 263c
00000220: f21d 3a3b 675e 3e3c b7b3 0cbe 4bcd b03c
00000230: 80f4 e8bd 3ed2 123d 1107 b8bd fa90 a33d
00000240: e299 683e ea82 583e f4b9 4abd a3dd 3fbc
00000250: ccaf 0bbe 0873 223e 1954 493e e725 f53e
00000260: 3589 9f3d 1935 833d b8a9 3bbd 7a74 dfbd
00000270: d2d9 123e 6899 4ebc e6a8 aabd 9aea c33d
00000280: f03e 8bbe 61a4 0ebd d59b b63d 0bdd 913d
00000290: 1cf1 733d 15b9 b93c 1891 40be af03 c93d
000002a0: 3e1b ce3d 176a 28be fa49 363e bc96 b53d
000002b0: 57f8 af3d c94d 883e 8033 103e a7ae 1dbe
000002c0: 9125 413e b725 1bbe d7d4 89be cc52 26be
000002d0: 4164 2a3e 64f8 f23d ad72 25bd 2f6f 363e
000002e0: fbc2 593e 8aa3 403e ce20 09be a922 30bd
000002f0: 829c cabd 7c19 963d 9854 103e bf43 623e
00000300: db83 bbbd 8ea3 8e3d d6d4 79be b220 cabd
00000310: 0a1a 023e aa9f ccb9 26d7 3f3b 4931 76be
00000320: a51d 033e 889a fb3c d57f d43d 64d1 9f3c
00000330: aa5b c2bd 3f1c d63d b173 923d 9f75 553e
00000340: 3c94 0c3d 82f2 5dbd b28e f13d e2a4 993c
00000350: 66a3 f4bc c2e0 073c a296 c9bd 2841 dabd
00000360: bc84 b4bd 4667 fb3d c005 243e 028c 3abc
00000370: 9400 413e 2001 7a3c 929f a8bc db59 8c3d
00000380: d00b 5c3d acb8 ddbd c860 f63d 0361 30be
00000390: 9b33 10be 6681 093e 72b8 d33d defa 3abd
000003a0: 3197 293d 414e 9c3e 665c d33c 5115 403d
000003b0: 64da 15bd cf73 253e d494 b33d 487e b7bd
000003c0: bfae 343e 6705 0e3e 2b79 93bd 05bd eebc
000003d0: fe76 973e 19f3 34be 8ce8 ad3d 3e90 f1bc
000003e0: 469b 893d c763 dcbc 93fe 68bd 86a8 b73d
000003f0: 14d4 2d3d bb5c dabd 1ef1 013e 6332 e53d
0.07713271 -0.1831631 0.2914307 0.032472912 0.07101105 0.14168176 0.2496903 -0.20017776
-0.0022912691 0.14367512 0.029273493 0.22471446 0.051102955 0.16812606 0.12992096 0.08459025
0.054938078 0.15589339 -0.09676103 0.21686581 0.1740642 -0.033695523 0.018683724 0.31364086
0.083552286 0.1564669 -0.027742574 -0.14281914 0.19089723 -0.258412 0.1475893 -0.08071482
-0.075483076 -0.034961738 0.11646378 -0.08435626 0.2653818 0.005279646 -0.25963283 -0.08647519
0.034988243 0.13814019 0.1905082 0.14229187 -0.08860279 -0.2190314 -0.09860529 -0.07876107
0.015785376 0.05067148 0.19631119 -0.15309927 0.2947879 0.20897011 0.2802828 -0.12040948
-0.038718738 -0.24169602 0.34296936 0.07674335 0.24108805 -9.9820434e-05 0.15366285 0.15501451
0.13979231 -0.01125658 -0.18594137 -0.05180268 0.025200486 0.018571457 -0.1830271 0.041628893
0.13812521 -0.03478302 0.21302699 0.051167846 -0.33465767 -0.014208772 0.37825394 0.2842003
0.089789785 -0.124572724 -0.11559556 0.39660388 0.33650416 0.10244487 0.45904195 0.08602696
0.019448562 0.1592586 0.12173297 -0.12929082 -0.098447435 0.1865788 0.03929239 -0.11739137
-0.06155444 0.13508463 0.175789 0.11983451 0.009017869 -0.122950174 0.009775971 -0.3391025
-0.16088699 -0.009696392 -0.057242557 -0.26900664 0.10112626 0.09752661 -0.0314524 -0.09996824
-0.59590673 -0.40452465 -0.042054918 0.13966684 0.051440652 0.032482516 -0.06619485 -0.08025428
-0.09835895 0.13972759 0.08190572 0.16335827 -0.25988314 0.011741284 0.014596181 -0.12238292
-0.11897604 -0.40063587 0.21357957 -0.2481375 -0.26613247 0.18998462 0.11428767 0.010152496
0.0028399196 0.011619187 -0.13740431 0.021582266 -0.1137476 0.035845034 -0.08985723 0.079866365
0.22714952 0.2114369 -0.049493745 -0.011710557 -0.1364128 0.15864193 0.19660987 0.4788048
0.07789842 0.06406612 -0.045816153 -0.10910888 0.14340904 -0.012609817 -0.08332996 0.09566231
-0.27196455 -0.034824733 0.08916441 0.07122239 0.05955611 0.022671262 -0.18805349 0.09815156
0.1006379 -0.1644672 0.17801657 0.08866641 0.08592289 0.26621845 0.14082146 -0.15398656
0.18861987 -0.15151106 -0.26920196 -0.16242522 0.16639806 0.11863783 -0.040392566 0.1781585
0.21265785 0.18812385 -0.1339142 -0.043001805 -0.09893133 0.073290795 0.1409477 0.22096156
-0.09156009 0.06964789 -0.24397597 -0.098695174 0.12705246 -0.0003902887 0.0029272526 -0.24042238
0.12804277 0.030713335 0.103759445 0.019509025 -0.0949014 0.10454606 0.07150973 0.2084565
0.034321055 -0.05418635 0.11794795 0.01875538 -0.02986307 0.0082933325 -0.09843184 -0.10656959
-0.088143796 0.12275557 0.16017818 -0.0113859195 0.18847877 0.015259057 -0.020583902 0.06853076
0.053722203 -0.10826239 0.12030178 -0.17224507 -0.14082186 0.13428268 0.103379145 -0.0456494
0.041403953 0.30528453 0.025800895 0.04689533 -0.036585227 0.16157459 0.08768621 -0.08959633
0.17644785 0.13869248 -0.07200845 -0.029142866 0.2958297 -0.1767086 0.084916204 -0.029487725
0.06719069 -0.026903046 -0.056883406 0.0896769 0.04243858 -0.10662218 0.12689635 0.11191251

net.8.bias f4 [50]
00000000: 1cec 953d 89a1 273e 9f9c 6f3e dddf 4fbe
00000010: faff 10bd 14d5 02be 4a64 063d 5175 0b3e
00000020: 6209 db3d 674e 0dbe 7f82 f03d 8c21 57bc
00000030: 90e4 b23d fc69 983b 1f87 77bd 9e2e 01be
00000040: 6627 a4bd 6ccc 51bc 5ce1 d1bd 77c8 733e
00000050: 5ef2 4e3d a139 1d3e 5d4b a4bc f86a bcbd
00000060: 38d1 f83c ff1d 583e c09a 8dbe 4d85 703e
00000070: 5e46 3ebe c006 14bd 8782 3f3e 5652 3d3e
00000080: a61c b1bd 6e70 85bc c5dc ee3d f270 7c3d
00000090: 212c 353e 72b0 103e 7424 e2bb 40cf 443d
000000a0: c75b bf3d 7a62 583e 0e36 53be 40b6 65be
000000b0: 0662 933e fea6 65bd a14b aabd c90a 2e3e
000000c0: a0ee 743e 23f0 213d
0.07320425 0.16370215 0.2339959 -0.20300241 -0.03540037 -0.12776595 0.032810487 0.13618971
0.10695149 -0.1379944 0.1174364 -0.013130557 0.08735001 0.004651306 -0.060431596 -0.1261544
-0.08015327 -0.012805086 -0.10248062 0.2380694 0.050524108 0.15354015 -0.020055467 -0.0920009
0.0303732 0.21105193 -0.27657127 0.2348835 -0.1858153 -0.03613925 0.18702136 0.1848844
-0.086480424 -0.016288962 0.11663202 0.06163115 0.17692615 0.14129809 -0.006901318 0.04804921
0.09343677 0.21131316 -0.20626089 -0.22432804 0.28785723 -0.05606746 -0.08315206 0.16996302
0.23919153 0.039535653

net.10.weight f4 [50, 50]
00000000: 6980 0fbe 9c25 f2bd 5ad1 05be 0bdd 2cbd
00000010: 67b2 ce3c 35ca eb3c 3228 943c 8e4e cdbd
00000020: 71e0 f8bd c6a3 2f3d 5170 8bbd 7527 5a3d
00000030: c045 53bb 0551 d1bc 7f2f dcbd 6b9a 11be
00000040: c7b4 09be 5a00 ae3d da35 7cbc 1ef3 e93d
00000050: 4af3 aebd 70b1 96bd 5904 e63d 9837 a5bd
00000060: ab95 e53d 0422 d4bc 9286 e6bc 58d1 543d
00000070: 4ef3 dd3d 7590 e93d 63e5 4bbd 9d92 2b3d
00000080: 5e2c debd e53f f63d 44b9 9ebd 9a2f bbbc
00000090: 28b9 5fbd 7cce e33d 79ff e2ba a1db 01be
000000a0: d782 223d ab45 c4bd e382 7ebc 9eb8 ab3c
000000b0: 06e5 bbbd 5eaa ab3d a4c0 32bc 1a05 01be
000000c0: fb4b bcbd c33b 483d 3120 2a3c 960a 943c
000000d0: 08ff c8bc 6444 323b a826 c7bd c522 aebc
000000e0: c1cf 4abd 5076 3f3c 71ea 1f3d a8b0 b5bd
000000f0: 5459 eabd 33db 923d bccd 3b3d fc55 9f3c
00000100: eaf5 e13c fa8b 19be 8070 d33d beb2 df3b
00000110: ad06 fdbc 241f dcbd 7400 f8bd 6390 ccbc
00000120: 931b b33d 3908 04be 4c59 2dbc b9c7 39bb
00000130: c1ae 973d d102 a1bd 20ff cbbd fc08 9f3c
00000140: e02e 3a3c 53a6 a7bc bbac 9fbd 145a 90bd
00000150: 2583 f9bd 0b98 0abe 9095 12be 4cdf ffbd
00000160: d634 04bc ecaa 36bd 0100 ea3c e89d a93d
00000170: 5cbb 0bbe b554 9bbd 1f23 eb3d 3452 00be
00000180: 8020 b9bd a130 dabd 95a6 d53c cef5 ce3d
00000190: b611 fd3d d8c4 ee3d 65ca 07be 6606 433e
000001a0: a646 083e 3f65 f4bd 402c c93d 00b8 673d
000001b0: d24c ddbd 1c47 18be 801e 533e 2c64 4e3e
000001c0: 4d03 09be 182b f33d 61a4 333e 0b58 bc3c
000001d0: 59ca 3bbe 7a01 91be 8e1f 0dbe da0e ec3c
000001e0: c35a 0c3d 8f3c de3c 2805 143e 6701 5abd
000001f0: 59e6 e3bd c067 a43d c097 053e 76d3 2cbe
00000200: 47cf 3fbe 01be 1cbe ce1c 5e3d f086 1d3e
00000210: 933d c33e 7049 d63d c3b8 f8bd 11bb a5bc
00000220: 4e18 80be b919 653c 0024 73bd b7ef c33d
00000230: ac8e 093e 8859 1bbe 8b47 0d3e 1470 803d
00000240: aa47 4f3d dc7d 633d 1567 023e 6ce2 38bd
00000250: dce7 e53d 640d 573e a88f c3bc f9d9 a4bb
00000260: 3dc0 5e3d 2afc 82bd 50c8 66bd 6004 04be
00000270: fa57 fdbc ff47 b5bd 28a4 b53d 38ce e4bd
00000280: 0ed0 7cbd fa4d 023c a3fa 06be 0cc0 a6bd
00000290: 3466 0dbe 73e9 9c3d e21d e7bd 3cc3 583d
000002a0: 3f47 003e 30fa 763d b197 8fbc bebf f83c
000002b0: 8d2d 693d 44a9 aa3c f389 76bc 98ac 013e
000002c0: a27c 9bbc 3da6 07be 79da 743b db9b e2bc
000002d0: 43b8 9b3d ac47 fabd 4d21 c6bc fbe9 f83d
000002e0: efa8 de3d d1a5 dabd 7ffd fdbd 9494 9cbd
000002f0: ba35 a6bc e06d db3d 875f 02be 88bb 83bd
00000300: 8f11 09be 0dd0 0b3b 5083 143d 886b c73d
00000310: 9770 563c ca92 15bd 208e f2bd e603 7abd
00000320: 7629 e7bd c7fa ef3d 5a84 243e 0d8b 5a3e
00000330: 6c3e 123e 3f98 073e ca87 35be 6cc7 c7bd
00000340: f101 653e 3b42 af3e 4328 8b3e 3b47 4ebe
00000350: b30f ba3d 5f06 813d 953c c33d cbed a1bc
00000360: 01ba e73d da9f 1e3e 14f4 f2bc 1bda 03be
00000370: 215d 883d 4a2d 013e 6049 f03d 3922 f0bc
00000380: eba0 073e bc4d 863d 321f f03e aff7 debd
00000390: 45dc cc3d b5de c3be ef30 0abe 66e8 013d
000003a0: 3e38 1d3e 1b90 47bd 14dc 443d 5654 d53e
000003b0: c55d 6b3e 8fd2 29be fd5b 2fbe 0c6d 193e
000003c0: 67ae dd3c 7c59 afbd 7615 ac3d d760 e03d
000003d0: 3ec6 afbd fea6 a33d be20 d43e 20b1 4d3e
000003e0: ac2e c1bd 1f7c 283e bf11 c0bb 4abf 88bd
000003f0: d1ae 043f 889d 0f3e 7c27 8bbd 98ff d9bc
-0.14013828 -0.1182358 -0.13068143 -0.04220299 0.025231553 0.028782943 0.018085573 -0.10024749
-0.12152184 0.042880796 -0.06808532 0.053260285 -0.003223762 -0.025551328 -0.10751247 -0.14219062
-0.13447867 0.08496161 -0.015393699 0.11423324 -0.085424975 -0.07358062 0.11231298 -0.08067244
0.112101875 -0.025895126 -0.02814034 0.05195746 0.10837422 0.11404506 -0.049779307 0.04188787
-0.10848306 0.12023906 -0.0775018 -0.022849847 -0.054619938 0.11123368 -0.0017318568 -0.12681438
0.03967556 -0.095836006 -0.0155341355 0.020962056 -0.09174542 0.08382104 -0.010910187 -0.12599602
-0.091941796 0.04888512 0.010383652 0.018071454 -0.02453567 0.0027201409 -0.0972417 -0.021256814
-0.049514536 0.011685923 0.03904194 -0.08871585 -0.11442819 0.07170715 0.0458505 0.01945018
0.027583081 -0.14994803 0.10324192 0.0068267277 -0.030886972 -0.10748127 -0.121094614 -0.024971193
0.08745494 -0.12893762 -0.010580372 -0.0028347804 0.074063785 -0.07861865 -0.099607706 0.019413464
0.011363715 -0.020465052 -0.077966176 -0.07048431 -0.12183217 -0.13534562 -0.14314866 -0.124937624
-0.008069238 -0.044596598 0.028564455 0.08282071 -0.1364569 -0.07584516 0.11481308 -0.12531358
-0.09039402 -0.106538065 0.026080409 0.10105477 0.12356894 0.11658639 -0.13260801 0.1904541
0.133082 -0.11933374 0.09822893 0.05657196 -0.10805668 -0.14870876 0.20617104 0.201554
-0.13380165 0.11873454 0.17543174 0.0229912 -0.18338908 -0.2832144 -0.13781568 0.028815676
0.034266245 0.027128486 0.14455092 -0.053223994 -0.1112792 0.08027601 0.1304617 -0.16877541
-0.18731414 -0.15306856 0.05422669 0.15383506 0.38132915 0.10463226 -0.121446155 -0.020230802
-0.25018543 0.013983184 -0.059360504 0.09567206 0.13433331 -0.15170872 0.13796823 0.06271377
0.050605454 0.05553995 0.12734635 -0.045137808 0.11225864 0.21001202 -0.023872212 -0.005030867
0.05438255 -0.06395753 -0.056343377 -0.12892294 -0.03092574 -0.08851623 0.08869201 -0.111721456
-0.061721854 0.007953161 -0.13181548 -0.08142099 -0.13808519 0.076617144 -0.112849966 0.052920565
0.12527178 0.06029719 -0.017528387 0.030364867 0.056928206 0.020832665 -0.015047538 0.12663496
-0.018980328 -0.13247009 0.0037361665 -0.027662208 0.076035045 -0.122207016 -0.0241858 0.12154003
0.10872065 -0.10676158 -0.12401866 -0.076455265 -0.02028929 0.10714316 -0.12731753 -0.06432253
-0.13385604 0.0021333725 0.03625804 0.09737307 0.013088367 -0.036516942 -0.118435144 -0.061038874
-0.11287205 0.11717754 0.16066113 0.21342106 0.14281625 0.13241671 -0.1772758 -0.097548336
0.22364022 0.34230217 0.27179155 -0.2014436 0.09085026 0.06300043 0.095330395 -0.019766709
0.11314774 0.15490666 -0.029657401 -0.1287617 0.06658388 0.12614933 0.11732745 -0.029313194
0.13244979 0.065577954 0.468988 -0.10887086 0.100029506 -0.3825585 -0.13495229 0.031715773
0.15353486 -0.048721414 0.048061445 0.41665906 0.22984989 -0.16584228 -0.17124934 0.14983004
0.0270607 -0.0856199 0.08402531 0.10955971 -0.085827336 0.079908356 0.4143123 0.20087099
-0.0943273 0.16453598 -0.0058614905 -0.066771105 0.5182925 0.14024937 -0.067946404 -0.026611134

net.10.bias f4 [50]
00000000: b32a 0dbe 5b0f 44bd 9183 6dbe a606 96bc
00000010: 14e5 9b3c adc2 18be 658d 1fbe 88dd 3e3c
00000020: 61c5 14be 1a94 6bbd 065a 343e 3d8e 82bd
00000030: bb84 a3bd fce2 4cbe 168c f1bd 9f66 e6bd
00000040: 7693 b13d 1944 5d3d a086 043e ea5a dcbd
00000050: 9d07 623c 9327 253d 23ef 413c 080c f9bd
00000060: 1aa5 3fbe bb2c d33d 5c32 2b3e 57c1 d03d
00000070: a8db 0abd 9c38 fdbd 0c5d f33d 8644 883e
00000080: bc4f 7c3c 37dd a43c 75c3 b239 53fa f23c
00000090: 365c 113d 35b1 92be 7844 1fbc a83f 173d
000000a0: 16cb db3d c4ae 0f3e 4551 b63d 9eb5 0f3e
000000b0: 4797 303e c109 193e 5e53 d0bd 5ba0 173e
000000c0: edc2 cb3d fe50 043f
-0.1378582 -0.047866207 -0.2319472 -0.018313717 0.019030131 -0.14918013 -0.15581281 0.011649497
-0.14528419 -0.057514288 0.17612466 -0.06374786 -0.07984301 -0.20008463 -0.117942974 -0.11250042
0.08670704 0.05402002 0.1294198 -0.10759528 0.01379576 0.040320944 0.0118368 -0.12160498
-0.18715325 0.10311266 0.1671843 0.10193127 -0.033900887 -0.12364313 0.11882982 0.2661478
0.0153998695 0.020125015 0.00034096433 0.02966038 0.03548833 -0.28650823 -0.009720914 0.03692594
0.10732095 0.14031512 0.0890222 0.14034125 0.17245208 0.14945127 -0.10172151 0.14807265
0.099492885 0.51686084
