data/models/cifar/cifar_50x1.pth (torch, 619259 bytes, 4 tensors)

net.0.weight f4 [50, 3072]
0	0x3d7c5456	0.061603867
1	0x3ddd3a18	0.10802096
2	0x3dc61efe	0.0967388
3	0x3d9853c0	0.07437849
4	0x3d425ea5	0.04745354
5	0x3d7a48f5	0.061104733
6	0x3d2ede80	0.04269266
7	0x3db8f791	0.090315945
8	0x3da597bc	0.08085582
9	0x3d52e0bf	0.051483866
10	0x3d96a988	0.07356554
11	0x3c924d2f	0.01785907
12	0x3cff40ce	0.031158831
13	0x3d8d95e7	0.06913357
14	0x3d0894fe	0.033345215
15	0x3d7e5466	0.062092207
16	0x3d1898f4	0.037255242
17	0xbcb5abd1	-0.022176655
18	0x3d3fe5f8	0.046850175
19	0x3d845c3a	0.06462903
20	0x3d4ec2a1	0.05047858
21	0x3c7cc4d1	0.015427784
22	0x3caa9f14	0.020827807
23	0x3da7733f	0.08176278
24	0x3dc897b4	0.0979456
25	0x3da670e9	0.08127005
26	0x3de43e85	0.11144737
27	0x3dfba2f1	0.12286938
28	0x3d8e6f46	0.069548175
29	0x3d31b7bc	0.043388113
30	0x3d4a0780	0.04932356
31	0x3c299945	0.010351484
32	0x3d8980cc	0.06714019
33	0x3d8673a2	0.06565024
34	0x3d9d7043	0.07687428
35	0x3d22a7cf	0.039710816
36	0x3c4d744c	0.012539934
37	0x3b6618ce	0.003511
38	0x3d3e379c	0.046439752
39	0x3dd6a695	0.10480992
40	0x3d06ecf5	0.032940824
41	0x3c860cac	0.016363464
42	0x3d25cd84	0.040479198
43	0xbc93aa8f	-0.018025665
44	0xbc2e51d6	-0.010639628
45	0x3d1cbdd3	0.038266968
46	0x3d0892c2	0.033343084
47	0x3b2a5a6d	0.002599384
48	0x3c048a6a	0.008089641
49	0x3c1a544e	0.009419514
50	0x3d1c3ce9	0.038144026
51	0x3bd87289	0.0066054505
52	0x3d70e017	0.05880746
53	0x3cc55403	0.024087911
54	0x3c999acb	0.018750569
55	0x3d719bb3	0.058986377
56	0x3da17ec6	0.07885508
57	0x3defdffe	0.11712645
58	0x3e041559	0.12898768
59	0x3dddf184	0.10837081
60	0x3d967072	0.07345666
61	0x3d575d0b	0.052578967
62	0x3da2f2e0	0.07956481
63	0x3cfa9a27	0.030591084
64	0x3d04d6c8	0.032431394
65	0x3d07c940	0.03315091
66	0xba60b7ec	-0.00085723284
67	0xbb3182b9	-0.0027085973
68	0xbb3a0e0a	-0.0028389716
69	0x3c56b41a	0.013104463
70	0x3d7859aa	0.060632385
71	0x3de9f30d	0.114233114
72	0x3d2f18bc	0.042748198
73	0x3d3b562a	0.04573647
74	0x3d6ced9c	0.05784379
75	0xbc7a9fe0	-0.015296906
76	0x3c0f7072	0.008754836
77	0xba172da1	-0.0005766992
78	0xbd1541b8	-0.036439627
79	0xbd8e9030	-0.06961095
80	0x3c3f7ab0	0.011686966
81	0x3815b15c	3.5689547e-05
82	0x3c551bb2	0.013007091
83	0xbce3d43c	-0.027811162
84	0x3d2c8c0d	0.04212575
85	0x3d595623	0.053060662
86	0x3d7091f6	0.05873295
87	0x3dd7a559	0.105295844
88	0x3d0df10c	0.03465371
89	0x3d86d601	0.06583787
90	0x3d2a454d	0.041569997
91	0x3d1060bb	0.0352485
92	0x3d75bad0	0.05999261
93	0x3de840ba	0.113404706
94	0x3dceffc4	0.10107377
95	0x3d4a531a	0.049395658
96	0xbc0f8773	-0.008760321
97	0xbc3ebd4e	-0.011641813
98	0xbcaf9421	-0.021432938
99	0xbc897f34	-0.016784288
100	0xbd1719cb	-0.036889832
101	0x3a3fa8b9	0.00073112134
102	0xbcc6ffbf	-0.024291871
103	0x3c93633c	0.017991655
104	0x3ca92f72	0.020652507
105	0x3c193536	0.009351065
106	0x3b94f493	0.004545757
107	0xbb18d1f8	-0.002331851
108	0xbd239f4f	-0.03994685
109	0xbd007af8	-0.031367272
110	0xbd46068e	-0.048346095
111	0xbd834052	-0.064087525
112	0xbd2a7a8a	-0.04162077
113	0xbd6c5dfc	-0.057706818
114	0xbcf5bf0f	-0.02999833
115	0xbc03455e	-0.008012144
116	0xbcb18faa	-0.02167495
117	0xbb35850d	-0.0027697713
118	0xbc176420	-0.00924018
119	0x3d3db577	0.046315636
120	0x3c1669c7	0.009180493
121	0x3bbe1e44	0.005801948
122	0x3b47b709	0.0030474088
123	0x3c8781d1	0.016541393
124	0x3cd45b49	0.025922434
125	0x3dda2c33	0.106529616
126	0x3dcfccaf	0.10146462
127	0x3ca4d271	0.020119878
128	0x3c5c9040	0.013462126
129	0x3c70d7b0	0.014699861
130	0xbc900123	-0.017578667
131	0xbd1673a4	-0.036731377
132	0xbd6be682	-0.057592876
133	0xbd6200ce	-0.05517655
134	0xbcf5c6fe	-0.030002113
135	0xbba28ba7	-0.0049604955
136	0xbc871c13	-0.016492879
137	0xbcea9efa	-0.028640259
138	0xbc5fe78c	-0.013666045
139	0xbd504b95	-0.05085333
140	0xbd24597c	-0.0401244
141	0xbbec59d0	-0.007212855
142	0xbd7ae22d	-0.061250854
143	0xbd2246f4	-0.039618447
144	0xbd7de6b6	-0.0619876
145	0xbd1aa745	-0.037757177
146	0x3cfd13f4	0.030893303
147	0x3d0b3434	0.03398533
148	0x3c8b3b1b	0.016995957
149	0x3d013dda	0.031553127
150	0x3c8b0cca	0.016973872
151	0x3cdc97f4	0.026927926
152	0xbc41b062	-0.011821838
153	0xbce86d9e	-0.028372582
154	0xbba40f86	-0.0050067334
155	0x3c4e5a85	0.012594824
156	0x3ce0a7e1	0.0274238
157	0x3ca7c1ca	0.020478148
158	0x3cb80087	0.022461189
159	0xbcf248c8	-0.02957572
160	0x3ae843fc	0.0017720456
161	0x3d5f8dd4	0.054578617
162	0x3d4c9d7e	0.049954884
163	0xbc80b68a	-0.015712041
164	0xbd17138f	-0.036883887
165	0xbcb71ae7	-0.022351695
166	0xbc3f2d03	-0.0116684465
167	0x3c576eda	0.013148988
168	0x3b5cc06c	0.0033684028
169	0xbc5282e6	-0.012848591
170	0x3b773855	0.0037722785
171	0xbd81f524	-0.06345585
172	0xbc0fb760	-0.008771747
173	0xba586b52	-0.0008255738
174	0xbd90fac4	-0.0707908
175	0xbc37132f	-0.011174007
176	0xbbd5c276	-0.0065234257
177	0xbb5eae92	-0.0033978564
178	0x3d50e06c	0.050995275
179	0x3db0992f	0.086229675
180	0x3d3fa950	0.04679233
181	0x3d933daf	0.071894996
182	0x3d222f55	0.03959592
183	0x3cd4f9bf	0.025997994
184	0xbcb91380	-0.022592306
185	0xbd0a07c1	-0.0336988
186	0xbcdaa265	-0.026688764
187	0xbbb94990	-0.0056545213
188	0x3d0f533b	0.034991484
189	0x3bde38a1	0.006781653
190	0xbbe78cc0	-0.0070663393
191	0xbce62041	-0.028091552
192	0x3af83439	0.0018936462
193	0x3d07483d	0.033027876
194	0x3d2a70bd	0.04161142
195	0x3ca6fd75	0.02038453
196	0xbd813881	-0.063096054
197	0xbd2438e7	-0.04009333
198	0xbd105192	-0.03523404
199	0x3c78395c	0.015150394
200	0x3cfa5a16	0.030560534
201	0xbbb059ee	-0.005381814
202	0xbc3053fb	-0.01076221
203	0x3bfb173c	0.007662682
204	0x3d11cb2f	0.03559416
205	0xbc4274f9	-0.011868709
206	0xbc5882c5	-0.013214772
207	0x3d703168	0.058640867
208	0x3c127709	0.008939513
209	0xbd127cba	-0.03576348
210	0xbce0a824	-0.027423926
211	0x3cd7a7c4	0.026325114
212	0x3d144385	0.036197204
213	0x3cdcbdde	0.026946004
214	0x3cbc8463	0.023012346
215	0x3cc6c9e9	0.0242662
216	0xbced7ef5	-0.028991202
217	0xbdc29992	-0.095019475
218	0xbda21937	-0.079149656
219	0xbc8d237d	-0.017228836
220	0x3c5edd11	0.013602511
221	0x3a38a94e	0.00070442713
222	0xbc333e9a	-0.010940218
223	0x3d494047	0.049133565
224	0xbca461b9	-0.020066129
225	0xbbb26070	-0.005443625
226	0x3c15fac6	0.009154027
227	0x3d3a78c3	0.045525324
228	0xbd173c9c	-0.036923036
229	0xbdcc1182	-0.09964277
230	0xbd3a7a57	-0.04552683
231	0xbca7290a	-0.020405311
232	0xbd743149	-0.059617314
233	0xb811b500	-3.4739263e-05
234	0xbb1e2c49	-0.0024135283
235	0xbbb0500d	-0.0053806365
236	0xbbacc095	-0.005271981
237	0xbbbaa669	-0.005696107
238	0x3ab2ecef	0.0013650934
239	0x3a41e016	0.0007395757
240	0xbada193e	-0.0016639603
241	0xbb385263	-0.0028125278
242	0x3cb15117	0.021645112
243	0x3d14702d	0.03623979
244	0x3acfbe6f	0.00158496
245	0x3cb7b1d9	0.022423672
246	0xbc1c3c5f	-0.009535878
247	0xba6ac604	-0.0008955898
248	0xbd00a3a7	-0.03140607
249	0xbd3a6822	-0.045509465
250	0xbce0d98d	-0.027447486
251	0xbd3b7970	-0.04577011
252	0xbca1d40b	-0.01975443
253	0x3c48762b	0.012235205
254	0x3cdcf318	0.026971385
255	0x3c60b990	0.013716117

net.0.bias f4 [50]
0	0x3ef80faa	0.4844945
1	0xbf3e42f9	-0.7432094
2	0x3db020da	0.08600016
3	0x3c2014b9	0.009770566
4	0x3c2af05e	0.010433285
5	0x3c1b2e9f	0.009471565
6	0x3b39add4	0.002833237
7	0x3b19eb12	0.002348606
8	0xbebe7e61	-0.37205794
9	0xba2b81fb	-0.0006542501
10	0x3c48dac4	0.012259189
11	0xbb4d27ac	-0.0031304164
12	0xbc3a4a11	-0.011370198
13	0xbe8d4b58	-0.27596545
14	0x3b163755	0.0022921164
15	0xbbb2b318	-0.0054534785
16	0xbc258988	-0.010103591
17	0x3c2012c8	0.009770103
18	0x3f3e194b	0.74257344
19	0x3c50508c	0.012714516
20	0xbba2e396	-0.004970978
21	0xbc99e3c3	-0.018785363
22	0xbbe40646	-0.0069587557
23	0xbbf979ae	-0.0076133823
24	0x3f2fdbbc	0.68694663
25	0xbeb43216	-0.35194463
26	0xbeb7f13b	-0.35926232
27	0xbe5cca5b	-0.21561567
28	0xbc53a3e9	-0.012917497
29	0x3b8bfe90	0.0042722896
30	0xbc66459f	-0.014054685
31	0x3f5fe6b4	0.874614
32	0x3f5b76ad	0.8572796
33	0xbe3a5c3a	-0.18199244
34	0xbbee9cf6	-0.007281895
35	0x3e514169	0.20435108
36	0xbf0915a2	-0.53548634
37	0xbba85b8d	-0.005137867
38	0xbc838189	-0.016052978
39	0xbc8d27fd	-0.017230982
40	0x3c598cd0	0.013278201
41	0xbf0d4a08	-0.5519109
42	0xbe6e647c	-0.23280519
43	0xbc636a7f	-0.013880371
44	0x3c602d38	0.013682656
45	0x3b7e7a24	0.0038830126
46	0x3e759936	0.23984227
47	0xbc6ca9f7	-0.01444482
48	0xbeb51c88	-0.3537333
49	0x3c33dfbd	0.010978636

net.2.weight f4 [10, 50]
0	0xbe80809d	-0.25098124
1	0xbcabd76d	-0.020976746
2	0xbecc3a89	-0.3988841
3	0xbc9772c5	-0.018487344
4	0xbc9a1ff9	-0.018814074
5	0x3def5271	0.11685646
6	0xbde13ff6	-0.10998528
7	0x3d64a3ca	0.055820264
8	0x3e204127	0.15649854
9	0x3db315ec	0.08744416
10	0xbca036a2	-0.019557301
11	0xbdb8c540	-0.090219975
12	0xbd730c03	-0.059337627
13	0xbdf248ec	-0.11830315
14	0xbda668f2	-0.081254855
15	0x3df45cab	0.119317375
16	0xbd35ab7e	-0.044353
17	0xbd0db222	-0.03459371
18	0x3d9bf46a	0.07614978
19	0xbd700425	-0.058597703
20	0xbdf7f6e4	-0.121076375
21	0xbe045959	-0.12924708
22	0x3d50f542	0.051015146
23	0xbd443208	-0.047899276
24	0xbe4ac7f1	-0.19802834
25	0x3e8f33e3	0.27969274
26	0x3cc9afb6	0.024619918
27	0x3cff3b80	0.031156301
28	0x3bc37f88	0.0059661306
29	0x3de9b0e5	0.11410693
30	0x3b836597	0.004009913
31	0x3eb50f59	0.35363272
32	0xbe3d7d5c	-0.18504852
33	0xbe21c3df	-0.15797375
34	0xbe02260f	-0.1270983
35	0xbf1eb119	-0.6198898
36	0x3e938837	0.2881486
37	0x3dfbb706	0.12290768
38	0x3df6c500	0.120492935
39	0xbcd151ad	-0.025551641
40	0xbd764982	-0.060128696
41	0x3e5eafcc	0.21746749
42	0xbdf77c48	-0.12084252
43	0x3d937738	0.072004735
44	0x3d8190c9	0.06326444
45	0xbe0c077c	-0.1367473
46	0xbdd4613e	-0.1037011
47	0x3d5a8b48	0.053355485
48	0xbcc8919b	-0.024483493
49	0x3db7c0bd	0.08972309
50	0x3d9a5893	0.075364254
51	0x3e93b137	0.28846142
52	0x3d54f8a5	0.05199494
53	0x3de4a494	0.11164203
54	0x3c88e39b	0.016710093
55	0x3dff4216	0.12463777
56	0x3ca5e659	0.02025144
57	0xbd0bea9b	-0.034159284
58	0x3eb47238	0.35243392
59	0xbdc9a42d	-0.09845767
60	0xbc5d20ed	-0.01349662
61	0x3cf4cf2e	0.029883947
62	0xbd8f548d	-0.06998549
63	0x3e6ce464	0.23133999
64	0xbdc78365	-0.097418584
65	0xbd583e24	-0.052793637
66	0x3ddb623e	0.107120976
67	0x3d9a473d	0.07533119
68	0xbe6512a2	-0.22370389
69	0x3dea283b	0.114334546
70	0x3c9ff546	0.019526135
71	0x3cb52b97	0.022115512
72	0xbdcbd9b3	-0.09953632
73	0xbd8fc5ff	-0.07020187
74	0x3ddaa1a6	0.10675363
75	0x3ef99ab7	0.4875085
76	0xbe5f5fca	-0.21813884
77	0xbe76bb2a	-0.24094835
78	0xbd621307	-0.055193927
79	0x3d774bfb	0.060375195
80	0x3db9ca5a	0.090717986
81	0xbe2acab0	-0.16678882
82	0xbe0391c3	-0.12848572
83	0xbedc3621	-0.43010047
84	0xbcd98216	-0.026551288
85	0x3e28db9b	0.16490023
86	0x3edf4e3a	0.4361437
87	0x3dde7279	0.10861678
88	0x3d55b5fc	0.052175507
89	0xbd7ababe	-0.061213247
90	0x3dae213d	0.085024334
91	0xbe094e94	-0.13408881
92	0xbd84740e	-0.06467448
93	0xbc40ca5e	-0.011766998
94	0x3df17c2b	0.11791261
95	0x3c298a9a	0.010347987
96	0x3d873596	0.066020176
97	0xbda2be5a	-0.07946463
98	0x3f09ed84	0.53878045
99	0xbb0f41f5	-0.0021859382
100	0x3d515b97	0.051112738
101	0xbea78305	-0.32717147
102	0xbd89614d	-0.06708012
103	0x3d489f8b	0.048980277
104	0xbe00db00	-0.12583542
105	0xbc011c89	-0.0078803385
106	0xbd8112b1	-0.06302393
107	0x3d2a31e9	0.041551504
108	0xbeaa8f5d	-0.33312503
109	0xbda71bcc	-0.08159599
110	0xbdd19398	-0.102332294
111	0xbd198e54	-0.03748925
112	0x3e06b05e	0.13153216
113	0xbeba1209	-0.36341885
114	0x3d060df3	0.032728147
115	0xbdde0d06	-0.10842328
116	0x3d904dee	0.07046114
117	0x3e06f6fe	0.13180158
118	0x3e6206e1	0.22072937
119	0xbce6a94c	-0.028156899
120	0x3d94f57b	0.07273384
121	0x3de42346	0.111395404
122	0x3dc35a4c	0.09538707
123	0xbd310ab0	-0.043223083
124	0xbe418599	-0.1889862
125	0xbe6a8cbb	-0.22905247
126	0x3dda8fd2	0.10671963
127	0xbb7eec4e	-0.0038898173
128	0x3cbc3fad	0.022979582
129	0xbdd8d587	-0.10587602
130	0x3d293ad2	0.04131586
131	0x3e4dcb2a	0.20097032
132	0x3e930606	0.28715533
133	0x3e76201b	0.24035685
134	0xbde540cb	-0.11193999
135	0x3d75a8fa	0.0599756
136	0xbe8c0f0f	-0.2735524
137	0xbd5926f4	-0.053015664
138	0xbd72f5b5	-0.059316356
139	0xbe08cd98	-0.13359678
140	0xbcd180e3	-0.025574153
141	0xbe81cba5	-0.2535068
142	0xbe3dbb73	-0.18528537
143	0x3dd21ca0	0.10259366
144	0x3caa9f8b	0.02082803
145	0xbe00f40e	-0.125931
146	0xbe201e4b	-0.15636556
147	0xbb0c6b0c	-0.002142611
148	0xbeccd911	-0.4000936
149	0x3e028bed	0.1274869
150	0x3e7fc7b2	0.24978521
151	0xbd41bd9e	-0.047299974
152	0x3d83b24f	0.06430494
153	0xbca0e26b	-0.019639215
154	0xbdb8ce68	-0.09023744
155	0xbdb5b60c	-0.08872613
156	0x3de399c0	0.1111331
157	0xbd74419d	-0.059632886
158	0xbed7d4ff	-0.4215469
159	0x3db0516b	0.08609279
160	0x3e05d759	0.1307043
161	0xbdaea7c1	-0.0852809
162	0x3c7a0f98	0.015262507
163	0xbb4dbd60	-0.0031393394
164	0xbe07b1ac	-0.1325137
165	0xbdc4278a	-0.09577854
166	0x3c2c1088	0.010501988
167	0xbbcbe6f2	-0.006222599
168	0x3d17b1fc	0.037034974
169	0x3d23a9f8	0.039957017
170	0x3dd2bb06	0.10289578
171	0x3dd2d989	0.10295398
172	0xbe07658f	-0.13222335
173	0xbcb78bbd	-0.0224055
174	0xbd9a272c	-0.07527003
175	0xbe9ece42	-0.31016737
176	0x3c909dbc	0.017653339
177	0xbe1fbf2f	-0.15600275
178	0xbe02bdb5	-0.1276768
179	0xbdd0bb1f	-0.101919405
180	0xbc67a6c3	-0.01413888
181	0x3cc889d2	0.02447978
182	0x3e18b914	0.14914352
183	0x3d3e0e83	0.04640056
184	0x3e060d31	0.1309097
185	0x3e3c64ab	0.18397777
186	0xbeccb952	-0.39985138
187	0xbdc4f687	-0.09617334
188	0x3db9aeba	0.090665296
189	0x3d5e6b17	0.054301348
190	0x3df2af5c	0.118498534
191	0x3e4e1a42	0.20127204
192	0x3e33e00e	0.17565939
193	0x3d22708d	0.039658118
194	0x3de81542	0.113321796
195	0xbdd0ebb0	-0.10201204
196	0x3e1df8ae	0.15426895
197	0x3dbb80a1	0.091553934
198	0xbe187a5b	-0.14890425
199	0xbd92bd26	-0.071649835
200	0xbe1565ba	-0.14589587
201	0xbd438ea1	-0.047743443
202	0xbe7316ad	-0.23739119
203	0xbe08f13c	-0.13373274
204	0xbdce68e5	-0.10078601
205	0x3d9c487c	0.07631013
206	0x3d9b5f74	0.075865656
207	0x3d618581	0.05505896
208	0xbe89b839	-0.26898363
209	0xbdcada6b	-0.09904941
210	0x3b830153	0.0039979606
211	0xbcee7b43	-0.02911151
212	0xbdc11574	-0.0942792
213	0x3d44adc1	0.048017267
214	0x3c44b77c	0.012006637
215	0x3d2129ea	0.039346613
216	0xbe0bc07f	-0.1364765
217	0xbda3f555	-0.08005778
218	0x3e98e247	0.29860136
219	0xbcd352c0	-0.025796294
220	0xbdcb08d7	-0.099137954
221	0x3dae7ac5	0.0851951
222	0x3d990203	0.07471087
223	0xbb7a287f	-0.003817111
224	0x3e2a2a6f	0.1661775
225	0xbe99917c	-0.29993808
226	0xbe0e951b	-0.13924067
227	0x3a61adc0	0.00086089596
228	0x3d2f9db0	0.042874992
229	0xbd5d1079	-0.053970788
230	0x3dc4bdfc	0.09606549
231	0x3da44f6c	0.08022961
232	0x3e4fccb5	0.20292933
233	0xbcfc5790	-0.030803472
234	0x3d3810bb	0.04493783
235	0xbecb609c	-0.39722145
236	0xbdd239de	-0.102649435
237	0xbcc1ab83	-0.023641353
238	0x3cf69ff4	0.030105568
239	0xbc30f1e8	-0.010799862
240	0xbdab4d12	-0.08364309
241	0xbeb393bf	-0.3507366
242	0xbe0eb5d6	-0.13936552
243	0xbc28436c	-0.010269981
244	0x3df07378	0.11740774
245	0x3d878ad0	0.06618273
246	0xbee744d6	-0.45169705
247	0x3d2eba92	0.042658396
248	0xbe88c477	-0.2671239
249	0xbde6b2af	-0.1126455
250	0x3dbd0367	0.092291646
251	0x3e634ed6	0.22198042
252	0x3e64756e	0.22310421
253	0xbbcf4c09	-0.006326203
254	0xbe07ee4b	-0.13274495
255	0xbdf11ae2	-0.117727056

net.2.bias f4 [10]
0	0xbf356829	-0.7086206
1	0x3d90786f	0.07054221
2	0x3e8d30ce	0.27576298
3	0x3c8ea458	0.01741235
4	0x3f1882fb	0.5957486
5	0xbf1d6688	-0.61484575
6	0x3f214742	0.62999356
7	0xbd0247f0	-0.031806886
8	0xbec118bd	-0.37714186
9	0xbdd56472	-0.10419549
