data/models/obesity/obesity_50x9.pth (torch, 92690 bytes, 20 tensors)

net.0.weight f4 [50, 15]
0	0x3d119c59	0.035549495
1	0xbe6ef11b	-0.23334162
2	0xbcd9e1dc	-0.026596956
3	0xbeb6db9f	-0.35714433
4	0xbe658c1c	-0.22416729
5	0xbe4968e9	-0.19668926
6	0xbdf7f95e	-0.1210811
7	0x3e3728cb	0.17886655
8	0xbcc5f4da	-0.024164606
9	0x3de78681	0.113049515
10	0xbdc6b091	-0.09701646
11	0x3e7bb83e	0.24582002
12	0x3e3509d1	0.17679526
13	0x3e1f35b2	0.15547827
14	0x3d856d9d	0.06515048
15	0x3e44a3ae	0.19203064
16	0xbeb8862a	-0.3603986
17	0xbe35e659	-0.17763652
18	0x3e2b1d4b	0.16710393
19	0xbd7c190f	-0.061547335
20	0xbdbdb2d7	-0.092626266
21	0x3e847297	0.25868675
22	0x3e5ed59b	0.21761172
23	0xbd734c3f	-0.059398886
24	0x3dd69d6a	0.10479243
25	0xbdef66c1	-0.116895206
26	0x3c1964fe	0.009362457
27	0xbd1cf4ef	-0.038319524
28	0xbe31e45f	-0.17372273
29	0xbe0f70f0	-0.14007926
30	0xbc773af3	-0.015089738
31	0x3e6a65bb	0.2289037
32	0x3e2fecfd	0.17180248
33	0x3dfa308e	0.12216292
34	0x3ca46a8c	0.020070337
35	0xbd7678a6	-0.060173653
36	0xbdc03035	-0.09384195
37	0x3e138364	0.1440559
38	0x3d054d88	0.032544643
39	0x3e09c880	0.13455391
40	0x3e430689	0.19045462
41	0xbd18e8f7	-0.037331548
42	0x3dfe8826	0.12428312
43	0x3a95295a	0.0011380122
44	0x3e63b089	0.22235312
45	0x3dbfaae3	0.09358766
46	0xbe8519f3	-0.2599636
47	0xbe15faec	-0.146465
48	0xbe3b3117	-0.18280445
49	0x3c51f994	0.012815852
50	0x3db5c750	0.088759065
51	0x3e11b390	0.14228654
52	0x3dab2b7e	0.08357905
53	0xbdd79b03	-0.10527613
54	0x3e2c052a	0.16798845
55	0xbc046fa0	-0.008083254
56	0x3e3ef8f3	0.18649654
57	0x3e73d77a	0.23812667
58	0x3e133b59	0.14378108
59	0xbdce28bc	-0.10066363
60	0xbdc4e057	-0.09613102
61	0xbd5e8c06	-0.054332756
62	0x3c1cbfce	0.009567214
63	0xbe1dfbf5	-0.15428145
64	0x3d2acd21	0.041699532
65	0x3ce0f52c	0.027460657
66	0x3e2361de	0.15955302
67	0x39642632	0.00021758003
68	0x3da234f2	0.07920255
69	0x3ea8843b	0.32913384
70	0xbe18c800	-0.14920044
71	0xbe443944	-0.1916247
72	0xbd3ff9e5	-0.046869177
73	0xbe65f787	-0.22457705
74	0x3d5e6723	0.054297578
75	0xbe477b4a	-0.19480625
76	0xbe27b5c3	-0.1637793
77	0x3e0fc31b	0.1403927
78	0x3d3c5cc7	0.045986917
79	0x3dace9f4	0.084430605
80	0xbdb19d8b	-0.08672627
81	0x3d84a980	0.06477642
82	0x3e46b457	0.19404732
83	0xbdc4aaa1	-0.096028574
84	0x3e339198	0.17536008
85	0xbe135a9b	-0.14390032
86	0xbc3cdf51	-0.011527852
87	0xbd609935	-0.05483361
88	0xbd9faefb	-0.07797047
89	0x3e3bc935	0.18338473
90	0xbd53716f	-0.05162185
91	0x3ddd7a8d	0.1081439
92	0xba06394d	-0.0005120233
93	0xbe64abd1	-0.22331168
94	0xbc9b99ee	-0.018994298
95	0x3dae2d5f	0.085047476
96	0x3d7e202f	0.06204241
97	0x3d0e38f9	0.034722302
98	0x3dc42ec6	0.09579234
99	0x3d330444	0.04370524
100	0xbe682806	-0.22671518
101	0xbdd25d74	-0.10271731
102	0x3e9ee89d	0.31036845
103	0x3dda32a6	0.10654192
104	0x3e7ceb1e	0.24699065
105	0x3e12e4e9	0.14345135
106	0x3e3f253d	0.18666549
107	0x3e070913	0.13187055
108	0xbd208101	-0.039185528
109	0x3d4f5bf2	0.050624795
110	0x3cf4d8cc	0.029888533
111	0xbe8355d6	-0.25651425
112	0xbdfe3ddc	-0.124141425
113	0x3d4c440c	0.049869582
114	0x3e1d42ee	0.15357563
115	0xbcd68db7	-0.026190622
116	0x3eaa2442	0.33230788
117	0x3dbf5781	0.09342862
118	0xbe71f18e	-0.23627302
119	0xbc683cfe	-0.014174698
120	0xbe47f877	-0.19528376
121	0xbe842fc3	-0.2581769
122	0xbd36f9fb	-0.044671994
123	0x3e23cce5	0.1599613
124	0xbde8f208	-0.11374289
125	0x3a97c884	0.0011580144
126	0xbd7bf0e0	-0.061509013
127	0x3b76a362	0.0037634005
128	0xbd7b1a74	-0.061304525
129	0x3df4bb36	0.1194977
130	0x3dd2d81e	0.10295127
131	0xbe2181fb	-0.1577224
132	0xbd65925b	-0.05604778
133	0xbe70855b	-0.23488371
134	0xbdb7fc15	-0.08983628
135	0x3d3817e1	0.044944648
136	0x3e0ec16d	0.13940974
137	0x3b68feac	0.0035552187
138	0x3e44b7d3	0.19210748
139	0x3ce05432	0.027383897
140	0x3e1deac9	0.15421595
141	0x3e2adfd7	0.1668695
142	0x3d25d0bb	0.040482264
143	0x3d0cbea0	0.03436148
144	0xbe365f5b	-0.17809813
145	0xbd2542f0	-0.04034704
146	0x3e18ed80	0.14934349
147	0xbdfba782	-0.12287809
148	0xbe8bd842	-0.2731343
149	0xbd686812	-0.056739874
150	0x3d06cfd7	0.032913055
151	0xbda87f21	-0.08227373
152	0x3dab336d	0.08359418
153	0x3e2476c6	0.16060933
154	0x3d8fb61e	0.07017158
155	0x3d4ba288	0.04971555
156	0x3e8e5ba7	0.278043
157	0xbddded7c	-0.10836312
158	0xbda248c3	-0.079240344
159	0xbc961764	-0.0183217
160	0xbd4ea917	-0.050454225
161	0x3c94130a	0.018075485
162	0x3e1ebab1	0.15500905
163	0xbcca1f05	-0.024672994
164	0xbe1aae7c	-0.15105623
165	0xbdd18432	-0.102302924
166	0x3da7a385	0.08185486
167	0x3e1b2985	0.15152557
168	0x3dd1c893	0.102433346
169	0xbdec3a29	-0.11534531
170	0x3e43a09d	0.19104238
171	0x3d3fb4d6	0.046803318
172	0x3e401b68	0.18760455
173	0xbd65fdde	-0.05615031
174	0xbe4aeb1d	-0.19816251
175	0xbcaa4a21	-0.0207873
176	0x3a8b3ee6	0.0010623604
177	0xbe116d95	-0.14201958
178	0xbe9355df	-0.28776452
179	0xbc0a0521	-0.008424074
180	0x3e5e9d75	0.21739753
181	0xbcb6e874	-0.02232764
182	0x3d33f718	0.04393682
183	0x3df7cc1d	0.120994784
184	0x3d8d88c4	0.069108516
185	0x3e0c0ba0	0.1367631
186	0x3e83d81c	0.25750816
187	0xbe1a06f4	-0.15041715
188	0xbd8c65b1	-0.068553336
189	0x3c93cd86	0.018042337
190	0x3e4c9124	0.19977242
191	0x3d807ed7	0.06274193
192	0xbb82752d	-0.0039812536
193	0x3deadeb0	0.114682555
194	0x3cc2db36	0.023786169
195	0xbe252251	-0.16126372
196	0xbe5d960f	-0.21639274
197	0xbd63dedb	-0.055632453
198	0xbd9b1108	-0.07571608
199	0x3b06e337	0.0020582208
200	0x3d922958	0.07136792
201	0x3c71b241	0.014751972
202	0x3cb59038	0.022163495
203	0xbca529d9	-0.020161556
204	0xbc3c1fb7	-0.011482171
205	0xbe11f10d	-0.1425211
206	0xbcfac987	-0.030613674
207	0x3e324153	0.17407732
208	0xbddbfd69	-0.107416935
209	0x3df50db7	0.119655065
210	0xbe3e5516	-0.18587145
211	0x3ca3234b	0.01991429
212	0xbe369a6c	-0.17832345
213	0xbd5a7715	-0.05333622
214	0x3b8b4676	0.004250343
215	0x3d615781	0.05501509
216	0xbe00d5b0	-0.12581515
217	0x3e459888	0.19296467
218	0xbd1afbf3	-0.037837934
219	0x3b01621c	0.0019742316
220	0xbe6ae473	-0.22938709
221	0x3dd971fa	0.106174424
222	0x3dfa3073	0.12216272
223	0xbcd46ada	-0.025929857
224	0x3dbe55f1	0.09293736
225	0x3d4f5991	0.050622527
226	0xbe2bf82d	-0.1679389
227	0xbe03a20d	-0.12854786
228	0xbe31eab3	-0.17374687
229	0x3d8497e7	0.064742856
230	0xbdd4f5f0	-0.10398471
231	0x3db869b0	0.09004533
232	0xbe2ad35c	-0.1668219
233	0x3de37a8f	0.111073606
234	0x3e14023a	0.14453974
235	0xbc37c6d1	-0.011216835
236	0x3e440fdc	0.19146675
237	0xbe65882b	-0.22415225
238	0x3d8b700d	0.06808481
239	0xbdcd9ece	-0.10040055
240	0x3ccfdeca	0.025374789
241	0xbd9369c7	-0.0719791
242	0x3dd51c4a	0.10405786
243	0x3dbf5923	0.09343173
244	0xbe383a27	-0.17990933
245	0x3e9bfb0d	0.30464974
246	0xbdd52e30	-0.104092
247	0x3bb92b9b	0.00565095
248	0xbdf0cd66	-0.11757927
249	0x3d7db9b6	0.061944686
250	0xbe8a10a1	-0.26965812
251	0xbe1cc510	-0.15309548
252	0x3afd8498	0.0019341884
253	0x3e351043	0.17681985
254	0x3e63e626	0.22255763
255	0x3db18e4b	0.08669718

net.0.bias f4 [50]
0	0x3d60c1d5	0.054872353
1	0xbde0c409	-0.10974891
2	0x3e1edc45	0.15513714
3	0xbe0ce31c	-0.1375851
4	0x3d9226c4	0.071363
5	0x3bfe143b	0.0077538765
6	0xbc808cc4	-0.015692122
7	0x3c67304f	0.014110639
8	0xbe17bd0e	-0.14818212
9	0x3c4ecd8b	0.012622247
10	0x3bdb9f41	0.006702334
11	0x3dd3b70a	0.10337646
12	0xbd7b0955	-0.061288197
13	0xbde4c7e9	-0.11170942
14	0xbd46b93d	-0.0485165
15	0xbd9ee930	-0.07759321
16	0x3d1509a0	0.036386132
17	0xbe27519d	-0.16339727
18	0xbe622f40	-0.22088337
19	0xbd58c4eb	-0.05292217
20	0xbc80f154	-0.015740074
21	0xbbd6953c	-0.006548552
22	0xbda42a25	-0.08015851
23	0x3dc383d9	0.09546632
24	0xbd979e01	-0.07403184
25	0xbdf559ea	-0.1198004
26	0xbe94e6e4	-0.29082406
27	0xbe5e554a	-0.21712223
28	0xbdae38fa	-0.08506961
29	0x3db5df19	0.08880443
30	0xbe20dc6e	-0.15709087
31	0x3de82209	0.11334617
32	0x3e0d91db	0.1382517
33	0x3e04eceb	0.12981002
34	0x3dc0d6de	0.09415983
35	0xbdc6ee15	-0.09713379
36	0xbc8e19c6	-0.017346274
37	0x3d585aa9	0.052820835
38	0xbe2a7f83	-0.16650204
39	0x3db3a3c6	0.08771472
40	0xbe02d29d	-0.12775655
41	0x3e084bbf	0.13310145
42	0xbd2caca1	-0.04215682
43	0x3d0848c0	0.033272505
44	0x3ccc57d3	0.024944222
45	0xbdceaa93	-0.10091128
46	0xbe80d13e	-0.2515964
47	0x3de3bbc7	0.111198
48	0xbdacebec	-0.08443436
49	0x3df8ad14	0.12142387

net.2.weight f4 [50, 50]
0	0xbcd2d442	-0.025735978
1	0x3e15df21	0.14635898
2	0x3c9bf155	0.019035975
3	0xbca56210	-0.020188361
4	0x3e2a7ac3	0.16648392
5	0x3db92a15	0.0904123
6	0x3e089a62	0.13340142
7	0xbdf15ef0	-0.11785686
8	0xbdccd3e4	-0.100013524
9	0xbd30465b	-0.043035846
10	0x3e0b5736	0.13607487
11	0x3e0c76a6	0.13717136
12	0xbcac3101	-0.02101946
13	0x3d87c4ed	0.066293575
14	0x3e0f8d9f	0.14018868
15	0xbdce8c60	-0.10085368
16	0x3d81b68f	0.063336484
17	0xbe5015cf	-0.2032082
18	0xbdf61fbc	-0.120177716
19	0xbde98c30	-0.11403692
20	0xbd2046bb	-0.039129954
21	0x3c4c0946	0.012453383
22	0x3cfb52a1	0.030679049
23	0xbdb934b8	-0.090432584
24	0xbd21ee0b	-0.039533656
25	0x3e36e7cf	0.17861865
26	0x3dd31972	0.10307588
27	0x3dc1c243	0.094608806
28	0x3d112c8d	0.035442878
29	0xbc923993	-0.01784972
30	0x3c16f425	0.009213482
31	0xbcee2cd5	-0.029074112
32	0xbcd3a930	-0.02583751
33	0x3cd4221b	0.025895169
34	0x3de74659	0.112927146
35	0x3db5935d	0.08865998
36	0x3d90a753	0.070631646
37	0xbe14fdde	-0.14549968
38	0x3e2644f0	0.16237235
39	0xbc4893ac	-0.012242239
40	0xbd907374	-0.07053271
41	0x3db48ab0	0.08815515
42	0xbd73d022	-0.059524663
43	0xbd86e781	-0.065871246
44	0xbdcf6f59	-0.1012866
45	0x3c7f4131	0.015579508
46	0xbc974c97	-0.018469138
47	0x3af5a034	0.0018739761
48	0xbdcf6032	-0.1012577
49	0xbdec208b	-0.115296446
50	0x3d3c0fd6	0.04591354
51	0x3de1f536	0.110330984
52	0xbd878d95	-0.066188015
53	0x3d8676fe	0.06565665
54	0x3e290201	0.1650467
55	0x3dc16af3	0.09444227
56	0x3e0fc526	0.1404005
57	0xbdd4957b	-0.10380074
58	0xbdebd6f3	-0.11515608
59	0xbe0708b8	-0.1318692
60	0x3d64c6a1	0.05585349
61	0xbd080b78	-0.033214062
62	0x3caa1225	0.020760605
63	0xbd87063a	-0.065929845
64	0xbcd4d5c0	-0.02598083
65	0x3cdfb912	0.027309928
66	0x3c69e7a4	0.014276419
67	0x3e153993	0.14572744
68	0x3cb1394a	0.021633763
69	0x3d0914fb	0.033467274
70	0x3e1f0d37	0.15532385
71	0xbe126788	-0.14297307
72	0x3d6868b1	0.056740467
73	0xbe125507	-0.14290248
74	0x3e02f9a0	0.12790537
75	0x3d8c4833	0.068497084
76	0x3dba3b0a	0.09093292
77	0xbd9522c8	-0.072820246
78	0xbe811315	-0.2520987
79	0x3db6ec83	0.0893183
80	0xbc0d7fce	-0.008636428
81	0x3d5077a7	0.05089536
82	0xbcab3475	-0.020899037
83	0x3d311c29	0.043239746
84	0xbc28014c	-0.010254215
85	0xbe4b0d5f	-0.1982932
86	0x3daf31a0	0.08554387
87	0x3df93b80	0.12169552
88	0x3db00ad2	0.08595814
89	0x3dc0f3cf	0.09421503
90	0xbdf5f95d	-0.12010453
91	0x3d9953f4	0.07486716
92	0xbc23bc3c	-0.009993609
93	0xbdfa4c84	-0.122216254
94	0x3d9e4e48	0.07729775
95	0xbe347ab5	-0.17624934
96	0x3e43025a	0.19043866
97	0x3e0f982e	0.14022896
98	0x3df9077d	0.121596314
99	0xbbb70f57	-0.0055865454
100	0x3e647153	0.22308855
101	0x3e070388	0.13184941
102	0x3d2477b8	0.040153235
103	0x3d3f6122	0.046723492
104	0x3df8f3ea	0.12155898
105	0x3e5f97ac	0.21835202
106	0x3e0dc5cc	0.13844985
107	0xbc22f487	-0.009945995
108	0x3dbbf808	0.091781676
109	0x3e13f595	0.14449151
110	0x3cf811fb	0.030282011
111	0x3e21a4af	0.15785478
112	0xbdab118d	-0.08352957
113	0x3d8127cd	0.063064195
114	0x3d015f8c	0.03158526
115	0x3dfd2859	0.12361211
116	0x3d15fe8c	0.036619708
117	0xbd291506	-0.041279815
118	0xbe6d4027	-0.23169003
119	0xbd67ad43	-0.05656172
120	0xbd91e41d	-0.07123587
121	0x3dfabe8b	0.122433744
122	0x3d77cdb6	0.060498916
123	0xbda7de5f	-0.08196711
124	0x3d1cb86e	0.038261823
125	0x3e273fd1	0.16332938
126	0xbd0f2b57	-0.03495344
127	0xbcafff07	-0.021483911
128	0x3d7da375	0.061923463
129	0xbca00dd7	-0.01953785
130	0xbd87be6d	-0.06628118
131	0x3d0af82b	0.033928078
132	0xbd852d05	-0.065027274
133	0xbe1d85a8	-0.15383017
134	0x3d9501dc	0.07275745
135	0x3c307770	0.010770664
136	0x3db26758	0.087111175
137	0x3a84c6b1	0.0010130015
138	0x3e226e78	0.15862453
139	0x3d120b5e	0.03565537
140	0x3d9e739e	0.07736896
141	0x3d1808e6	0.03711786
142	0xbd1fab92	-0.03898198
143	0xbd25e0cb	-0.040497582
144	0xbdb604d3	-0.08887639
145	0xbdba8a9d	-0.0910847
146	0xbeb0b8e9	-0.34516075
147	0xbdc3ad09	-0.09554488
148	0xbd6090b4	-0.0548255
149	0x3d67f098	0.056625932
150	0xbc54279c	-0.012948897
151	0x3d3b5589	0.04573587
152	0xbcd51c19	-0.026014375
153	0xbe536823	-0.20645194
154	0x3cffdb8e	0.031232622
155	0x3c1c5440	0.009541571
156	0xbbe9e475	-0.00713783
157	0x3c211a9b	0.009833003
158	0x3d04c11f	0.032410737
159	0x3e21800b	0.15771501
160	0xbd38be47	-0.045103338
161	0x3e2d576e	0.16927883
162	0xbde6b54b	-0.11265048
163	0xbcd59f31	-0.026076885
164	0xbc06123b	-0.008183057
165	0xbc5afacf	-0.0133654615
166	0xbd2289c6	-0.039682172
167	0xbb9218d2	-0.004458525
168	0xbe8249a9	-0.25446823
169	0xbd8705b4	-0.06592885
170	0xbd99740b	-0.074928366
171	0x3e09ba75	0.13450034
172	0xbde9f2bc	-0.11423251
173	0x3c807a44	0.0156833
174	0xbd439b68	-0.04775563
175	0xbb920d1e	-0.00445713
176	0xbe080891	-0.13284518
177	0xbde201e7	-0.11035519
178	0x3d6f32d5	0.058398087
179	0xbdbf26ac	-0.09333548
180	0x3d9d0ba4	0.07668236
181	0xbd145246	-0.036211275
182	0x3c8925b4	0.016741611
183	0xbdb668d1	-0.08906711
184	0x3de820a6	0.11334352
185	0x3d66f806	0.056388877
186	0xbccf1e12	-0.025282893
187	0xbcf4f981	-0.029904129
188	0x3deb6393	0.11493602
189	0x3e02ba6c	0.12766427
190	0x3ce2b508	0.027674213
191	0x3d0cc7e2	0.03437031
192	0xbb1c9959	-0.0023895113
193	0x3d14df6e	0.03634589
194	0xbdc8ed8f	-0.09810936
195	0x3ce34319	0.027741956
196	0xbe67383b	-0.22580044
197	0x3dde8cbb	0.10866686
198	0xbd7c5d6e	-0.06161254
199	0x3bd87f16	0.0066069467
200	0xbe03e992	-0.12882069
201	0xbdb7c047	-0.08972221
202	0xbba1c2fd	-0.0049365745
203	0xbe46b85c	-0.19406265
204	0x3ccec6be	0.025241252
205	0xbc08f38f	-0.00835885
206	0xbd262fc8	-0.04057291
207	0x3dfa841e	0.122322306
208	0x3d9d3ec9	0.07677991
209	0x3e0945c4	0.1340552
210	0x3de1910e	0.11013995
211	0x3cb8d324	0.022561617
212	0x3ca76dc9	0.020438092
213	0x3d252535	0.040318687
214	0xbd90ae3d	-0.07064483
215	0xbdc7972b	-0.0974563
216	0x3cbe4920	0.023228228
217	0x3e2cb992	0.16867664
218	0xbdc6bae9	-0.09703619
219	0xbe0ab900	-0.13547134
220	0x3e0e15c4	0.1387549
221	0x3d84dd27	0.06487494
222	0xbe88a663	-0.26689443
223	0xbd41fc08	-0.047359496
224	0xbd60d281	-0.054888252
225	0x3d8f0b57	0.06984585
226	0xbd24fe24	-0.04028143
227	0xbe2b1ca3	-0.16710143
228	0xb9a910c0	-0.00032246672
229	0x3dc1fcb6	0.09472029
230	0x3da7aaf1	0.08186901
231	0x3cd5146c	0.026010714
232	0x3d889872	0.06669702
233	0x3d367e5f	0.04455411
234	0x3e160748	0.14651215
235	0x3dd7dbc7	0.10539966
236	0xbd82b5ef	-0.06382357
237	0x3d05c9b6	0.03266307
238	0x3d082bf2	0.033245035
239	0x3d08d49d	0.03340589
240	0x3d9abbd9	0.0755536
241	0xbd39fa1c	-0.04540454
242	0x3bbe3f78	0.005805906
243	0xbae079ae	-0.0017126107
244	0x3b7b2398	0.0038320776
245	0x3dc80b99	0.09767837
246	0xbe559408	-0.2085725
247	0x3dbb1362	0.09134556
248	0xbe004cab	-0.12529247
249	0xbdd27409	-0.10276038
250	0x3d0b0e49	0.03394917
251	0x3cfe8646	0.031069886
252	0xbbe6d39f	-0.00704427
253	0x3dd494d2	0.10379948
254	0x3d943ef5	0.072385706
255	0x3d61dc9f	0.05514204

net.2.bias f4 [50]
0	0x3bc3b05e	0.0059719523
1	0xbe0024b3	-0.12514
2	0x3e11a464	0.14222866
3	0x3dfbca3c	0.122944325
4	0xbdce389f	-0.10069393
5	0x3d5ce7d1	0.053932015
6	0x3d67a65f	0.05655515
7	0xbdd539ff	-0.104114525
8	0xbd1b910e	-0.03798013
9	0x3d166676	0.036718808
10	0x3d86301a	0.065521434
11	0xbc625c28	-0.013815917
12	0x3d903fd9	0.07043428
13	0xbdc66d5b	-0.09688827
14	0x3d5b4c7a	0.05353973
15	0xbc725180	-0.014789939
16	0xbcaa0aac	-0.020757042
17	0x3dd0cc51	0.1019522
18	0x3d8f44a0	0.06995511
19	0xbcdbc97c	-0.026829474
20	0xbceb765d	-0.028742963
21	0x3d28d7f5	0.041221578
22	0x3e049c2e	0.12950203
23	0xbc6c2cbc	-0.014414962
24	0xbbae99a3	-0.0053283735
25	0x3bc6704a	0.0060558664
26	0x3d38ef66	0.045150183
27	0x3dc0ab2c	0.094076484
28	0x3b836a56	0.004010479
29	0x3da596a6	0.080853745
30	0x3d8a58e5	0.067552365
31	0x3d886c02	0.06661226
32	0x3d8d2abe	0.06892918
33	0x3d58ae47	0.05290058
34	0x3d9676bc	0.073468655
35	0xbbab113b	-0.00522056
36	0xbdc925c7	-0.098216586
37	0x3c4109bf	0.011782109
38	0x3b3c2a19	0.0028711616
39	0x3dcc4543	0.09974148
40	0x3d0d9fef	0.034576353
41	0x3dca3036	0.09872477
42	0xbc1e0917	-0.009645722
43	0x3d6746cc	0.056464
44	0xbca20ddd	-0.019782001
45	0x3db25a35	0.08708612
46	0xbabaee09	-0.0014261614
47	0xbd7eab7b	-0.062175255
48	0xbd6af4c0	-0.057362318
49	0xbd5cbc59	-0.05389056

net.4.weight f4 [50, 50]
0	0xbc663a42	-0.014051976
1	0x3c1fd3b5	0.009755065
2	0xbcf87942	-0.030331258
3	0xbe316714	-0.17324477
4	0x3e4232c7	0.18964683
5	0x3ddf5518	0.10904902
6	0x3e9b6feb	0.30358824
7	0x3e5092ec	0.20368546
8	0x3e9c929b	0.305806
9	0x3a22ac87	0.0006205518
10	0xbd11e613	-0.035619806
11	0x002045cc	2.963774e-39
12	0xbd9b2e18	-0.07577151
13	0xbd8852a6	-0.06656389
14	0x3da8075b	0.08204528
15	0xbcaf6b72	-0.021413539
16	0xbe8b8c91	-0.2725568
17	0x3e11673d	0.14199539
18	0x3e534231	0.20630719
19	0x3de1cd37	0.1102547
20	0x3def5076	0.116852686
21	0x3d237d35	0.03991433
22	0xbe079d04	-0.1324349
23	0xbd308784	-0.043097988
24	0x3e454333	0.19263916
25	0x3a127bfb	0.00055879325
26	0xbc9026a3	-0.017596548
27	0xbe011433	-0.12605362
28	0x3dfd7293	0.12375369
29	0xbd8b6a34	-0.06807366
30	0xbd4fdd9d	-0.050748456
31	0x3d01cd5e	0.031689994
32	0xbdb1a7d5	-0.086745895
33	0x3d536bbc	0.051616415
34	0x3ea04f96	0.3131072
35	0xbdeec887	-0.11659341
36	0xbde748de	-0.11293195
37	0xbd58d324	-0.052935734
38	0xbdd3abd5	-0.10335509
39	0x3dd997e9	0.10624678
40	0x3e9bdd32	0.30442196
41	0xbe84ea42	-0.25959975
42	0xbe1ebd0d	-0.15501805
43	0xbcc8bd4e	-0.02450433
44	0xbb163851	-0.002292175
45	0x3edd5b17	0.4323356
46	0xbe579e94	-0.21056587
47	0x3e609ba7	0.21934377
48	0x3e5989e3	0.21244006
49	0xbe11ab8b	-0.14225595
50	0xbb6e4ed5	-0.0036362906
51	0xbd2a3fa3	-0.041564595
52	0x3e101dc2	0.14073852
53	0x3d1c901e	0.03822338
54	0x3c66fe37	0.0140986955
55	0xbc3d65f7	-0.011559955
56	0xbe398d62	-0.1812034
57	0x3cdd2a98	0.02699785
58	0xbdcb9642	-0.09940769
59	0x3a8abc5b	0.0010584699
60	0x3c2b1ca1	0.010443837
61	0xbb01fa57	-0.0019833052
62	0x3de55f61	0.11199833
63	0x3da46833	0.08027687
64	0xbe02762b	-0.1274039
65	0xbd09384b	-0.03350095
66	0x3e0a8296	0.13526377
67	0xbe1fd52e	-0.15608665
68	0xbe09504d	-0.13409539
69	0x3cad8477	0.021181328
70	0xbde3a5bc	-0.11115596
71	0x3d8e7415	0.06955735
72	0x3e022d33	0.12712555
73	0xbd028a25	-0.031870026
74	0xbe1b4f7b	-0.15167038
75	0xbd0879c3	-0.033319246
76	0x3e0b9816	0.13632235
77	0x3d8886f6	0.06666367
78	0xbe10a2bc	-0.14124578
79	0x3d9a06fe	0.07520865
80	0x3dc76ea4	0.097379
81	0xbe098742	-0.13430503
82	0xbd255a8b	-0.04036955
83	0x3dc6b6a1	0.097028024
84	0xbe21ff9c	-0.15820163
85	0x3d3aba8d	0.045588065
86	0xbe4d006d	-0.20019694
87	0x3e21755d	0.15767427
88	0x3dbab5bc	0.09116694
89	0xbe726805	-0.23672493
90	0xbde22550	-0.11042273
91	0x3d711f83	0.058867943
92	0x3d0269e5	0.03183927
93	0x3d67deba	0.056608893
94	0xbe2ca95e	-0.16861483
95	0xbd76d98a	-0.060266055
96	0x3de644d7	0.11243599
97	0x3c9c8827	0.019107891
98	0xbea38102	-0.31934363
99	0x3bdac148	0.006675873
100	0x3da0f2e6	0.07858829
101	0x3e38cd92	0.18047169
102	0x3c57a352	0.013161497
103	0xbd827953	-0.06370797
104	0xbe5ab44f	-0.21357845
105	0x3e069d98	0.13146055
106	0x3da5880b	0.08082589
107	0x3d9d1a40	0.076710224
108	0x3e560f77	0.20904337
109	0x3d92b1cd	0.07162819
110	0xbe4de06d	-0.20105143
111	0x3b54ba85	0.0032459807
112	0xbd0c6ab5	-0.03428145
113	0xbe0babf8	-0.1363982
114	0x3df2e632	0.118603125
115	0x3d3aa7ec	0.0455703
116	0x3d89e908	0.067339
117	0x3e81a5dc	0.25321853
118	0x3dca5dfe	0.09881209
119	0xbe45e194	-0.19324332
120	0xbd60fa48	-0.054926187
121	0xbe33f959	-0.17575587
122	0xbe19da3b	-0.15024655
123	0xbcecc9ee	-0.028904881
124	0x3d38c244	0.04510714
125	0x3d9e567d	0.0773134
126	0x3dee9a7b	0.116505586
127	0xbdd3655e	-0.10322069
128	0x3dbe8c9b	0.09304162
129	0x3dd23b2c	0.102651924
130	0x3d09dedf	0.033659812
131	0x3e0b9964	0.13632733
132	0x3d9b01ea	0.075687245
133	0xbdc2ac55	-0.09505526
134	0x3e2ec878	0.1706866
135	0x3c2815ac	0.010259073
136	0x3e8a815a	0.27051812
137	0xbdbe7807	-0.09300237
138	0xbd8b8afe	-0.0681362
139	0x3df60f9d	0.12014697
140	0x3e1c0fde	0.15240428
141	0xbc51a98e	-0.012796773
142	0xbc8f8164	-0.017517753
143	0x3e0e108b	0.13873498
144	0x3c72d846	0.014822071
145	0x3d5afd1b	0.053464036
146	0xbd83e065	-0.06439284
147	0x3d0a1705	0.03371336
148	0x3e5ae4a0	0.21376276
149	0xbbace3a5	-0.005276161
150	0x3e054255	0.13013585
151	0x3e45cdd5	0.193168
152	0x3d992e59	0.07479543
153	0x3d405d1f	0.046963807
154	0xbe71421f	-0.2356038
155	0x3dd10866	0.1020668
156	0xbd144dab	-0.036206882
157	0x3d4cc254	0.049990013
158	0x3e1af54c	0.15132636
159	0xbc96560a	-0.018351573
160	0xbd176407	-0.036960628
161	0x3a36ab8f	0.0006968313
162	0xbd75ff80	-0.060058117
163	0xbe52e4f5	-0.20595153
164	0x3e57d3d9	0.21076907
165	0x3cb55848	0.022136822
166	0x3d9acc51	0.075585015
167	0x3e863506	0.2621233
168	0x3dd8f443	0.10593464
169	0xbe077d58	-0.13231409
170	0xbd5e5878	-0.05428359
171	0xbcbeda40	-0.02329743
172	0x3d76b1d8	0.0602282
173	0xbde1d125	-0.11026219
174	0x3cdb86e2	0.026797716
175	0xbd73ea48	-0.0595496
176	0x3d50d2ae	0.05098217
177	0xbd975dbb	-0.073909245
178	0x3de661a6	0.11249094
179	0xbc1840ea	-0.0092928205
180	0x3d708ea8	0.058729798
181	0x3e072327	0.13197003
182	0x3d0e7a84	0.03478481
183	0xbddf6dea	-0.10909636
184	0x3d0ed9ec	0.034875795
185	0x3d018db8	0.031629294
186	0x3eabaa9f	0.3352861
187	0xbe3ecb39	-0.18632211
188	0x3bf00d9b	0.0073258406
189	0x3e3a1db9	0.18175401
190	0x3e0f2946	0.13980588
191	0x3e058bc9	0.13041605
192	0x3db9e8df	0.0907762
193	0xb98d78a8	-0.00026983512
194	0x3d91f751	0.0712725
195	0x3d3c457e	0.04596471
196	0xbd129bb4	-0.03579302
197	0x3dbccf71	0.09219254
198	0x3de120eb	0.10992607
199	0xbae147af	-0.0017187501
200	0xbdcaa857	-0.098953895
201	0x3e8a4e9d	0.27013102
202	0x3ce49ae0	0.027905881
203	0xbc3e8b16	-0.01162984
204	0xbcf41ae5	-0.02979798
205	0x3ddd1de9	0.107967205
206	0xbdef8e9c	-0.116971225
207	0x3df11b76	0.11772816
208	0x3dcd1dc0	0.1001544
209	0x3e0def59	0.13860835
210	0x3d8ec5f9	0.06971354
211	0x3bb03118	0.005376946
212	0x3c8f3a81	0.017483952
213	0xbe4dcbc0	-0.20097256
214	0x3c90e73d	0.017688388
215	0xbc9b5f3c	-0.01896631
216	0x3d92313d	0.07138298
217	0x3e6d11cf	0.23151325
218	0xbda3fb0c	-0.08006868
219	0xbd87492b	-0.066057526
220	0x3d5c8341	0.05383611
221	0xbe3540a3	-0.17700438
222	0x3d3bf390	0.045886576
223	0xbd11cc01	-0.035594944
224	0x3d8dc628	0.06922561
225	0x3d82975e	0.06376527
226	0x3d67e639	0.05661604
227	0xbcff49da	-0.031163145
228	0x3d27fe79	0.04101417
229	0xbdab8a97	-0.08376043
230	0xbb7c56be	-0.003850385
231	0x3d89348f	0.06699478
232	0x3d519aa3	0.051172864
233	0xbc75ccfd	-0.015002486
234	0x3d907f0a	0.07055481
235	0xbd743b96	-0.059627138
236	0x3e0ae300	0.13563156
237	0xbe31bdef	-0.1735761
238	0x3da3bcb7	0.07994979
239	0x3dab5138	0.083651006
240	0xbd16b8a4	-0.03679718
241	0x3e3bcc50	0.18339658
242	0x3dffba78	0.12486738
243	0x3ca4a17a	0.02009653
244	0x3da34a85	0.07973198
245	0xbd452a0b	-0.0481358
246	0xbba593ba	-0.005053011
247	0x3e039186	0.12848482
248	0x3cc1485b	0.023594072
249	0x3e2b4f19	0.16729392
250	0x3dd6cb14	0.10487953
251	0x3e513147	0.20428954
252	0x3d97ba6e	0.074086055
253	0xbe13505b	-0.14386122
254	0xbe392498	-0.18080366
255	0x3e0808c8	0.132846

net.4.bias f4 [50]
0	0xbd554863	-0.052070986
1	0x3e1af589	0.15132727
2	0x3d39a6ea	0.045325197
3	0xbd4c586c	-0.049889013
4	0x3d857930	0.06517255
5	0x3d9f0958	0.07765454
6	0x3dcf3aed	0.10118661
7	0x3e26b99e	0.16281745
8	0xa090b6d4	-2.4515534e-19
9	0x3e07540c	0.13215655
10	0x3dc79d89	0.09746844
11	0x3e1747ab	0.14773433
12	0x3d5b9a23	0.053613793
13	0x3db5bd1f	0.088739626
14	0x3e0956f3	0.13412075
15	0x3df4f05b	0.11959907
16	0x9f6edd7f	-5.0581678e-20
17	0x3de6ffb0	0.11279237
18	0x3e216626	0.15761623
19	0xbaa774d1	-0.0012775903
20	0x3cf44cca	0.029821772
21	0x3dcc34fc	0.099710435
22	0xbc68a1bf	-0.0141987195
23	0x3dda9a67	0.10673981
24	0xbd0552c5	-0.03254964
25	0x3dfa03ba	0.12207742
26	0xbd629591	-0.05531842
27	0xb7e508ae	-2.730297e-05
28	0x3c02ceac	0.007983845
29	0x3ce7de20	0.02830416
30	0x3d9263b2	0.071479216
31	0xbd37ac24	-0.0448419
32	0xbca0c87a	-0.019626845
33	0x3e0f7dca	0.14012828
34	0xbc3d7395	-0.011563201
35	0x3decd45f	0.11563944
36	0x3d914eeb	0.070951305
37	0xb6094da6	-2.0459788e-06
38	0x3e0eb798	0.13937223
39	0x3e124b1b	0.14286463
40	0xbc504917	-0.0127127385
41	0x3d825745	0.063643016
42	0xa88c85c5	-1.5601136e-14
43	0xb9c62ecb	-0.00037800366
44	0xbd85ae93	-0.06527438
45	0xbd1e8a81	-0.038706306
46	0xb5a3a4fb	-1.2192462e-06
47	0x3e08ee44	0.13372141
48	0xbc971caf	-0.018446295
49	0x3d888c2d	0.066673614

net.6.weight f4 [50, 50]
0	0xbea95e6f	-0.3307986
1	0x3be9c7ff	0.007134437
2	0x3e038b05	0.12846
3	0x3d53ec68	0.051739126
4	0x3dac39e6	0.08409481
5	0x3e2641ce	0.1623604
6	0x3ca8e017	0.020614667
7	0xbd4720d5	-0.048615295
8	0x003e0b78	5.697915e-39
9	0x3d222474	0.039585546
10	0x3de325aa	0.11091168
11	0x3d75cd31	0.06001014
12	0xbd44cefe	-0.048048966
13	0x3d9da1b9	0.07696862
14	0x3db1e282	0.08685781
15	0xbd8798c7	-0.06620937
16	0x85c1c135	-1.8220606e-35
17	0x3d5e8a93	0.054331373
18	0x3cc2a8c6	0.023762118
19	0x3d7f85c7	0.06238344
20	0x3def686d	0.116898395
21	0xbd0ec31f	-0.03485405
22	0x3d3557be	0.04427313
23	0xbbdfbf53	-0.0068282275
24	0xbc8b65cd	-0.017016316
25	0x3d968212	0.07349028
26	0x3d7b763a	0.061392047
27	0x04520927	2.4689584e-36
28	0x3e0035eb	0.12520568
29	0xbc95d750	-0.018291146
30	0x3ccdcd86	0.025122415
31	0x3d8ccffd	0.06875608
32	0x3c6f5e65	0.014609908
33	0x3d7e9460	0.06215322
34	0x3b26fef5	0.0025481556
35	0x3d73626a	0.059420027
36	0x3caad459	0.020853208
37	0x1791bf68	9.418723e-25
38	0x3cf47f6b	0.029845914
39	0x3d891bd4	0.06694761
40	0x3b052dfa	0.0020321594
41	0xbcc422f5	-0.02394245
42	0x910367fe	-1.0366123e-28
43	0xa18de7ef	-9.615924e-19
44	0x3d79a30c	0.06094651
45	0x3ea8cefb	0.32970414
46	0x0aa2f8de	1.5693646e-32
47	0x3ce24c7b	0.02762436
48	0x3d6a9888	0.05727437
49	0xbe013747	-0.12618743
50	0xbedf69e6	-0.43635482
51	0xbbd21041	-0.006410629
52	0x3e19f728	0.15035689
53	0x3db0750c	0.08616075
54	0x3e0b238b	0.13587777
55	0x3df317f5	0.11869804
56	0x3d7d7a8c	0.061884448
57	0x3dae655c	0.085154265
58	0x802b0f12	-3.954333e-39
59	0x3b8a3e56	0.004218857
60	0x3ddade75	0.106869616
61	0x3d96f8a2	0.07371642
62	0xbd070d51	-0.032971684
63	0x3e32bc52	0.17454651
64	0x3dd850b7	0.1056227
65	0xbce9c9d7	-0.028538628
66	0x91c93a3f	-3.1748105e-28
67	0x3d8f2396	0.06989209
68	0x3d01614f	0.03158694
69	0x3d298246	0.041384004
70	0x3e2a80ed	0.16650744
71	0xbd92f690	-0.07175934
72	0x3d15c8a1	0.036568288
73	0xbcf3bec2	-0.029754046
74	0xbc8db9b5	-0.017300466
75	0x3dc4f31c	0.09616682
76	0x3ddf0136	0.10888903
77	0x0432017b	2.092448e-36
78	0x3db84244	0.08997014
79	0xbbc1cd97	-0.005914401
80	0x392d770f	0.00016542918
81	0x3da14065	0.078736104
82	0x3c6ba4e8	0.014382578
83	0x3daa5c37	0.0831837
84	0x3b4c34b8	0.0031159353
85	0x3dd1e538	0.10248798
86	0x3ce2bc80	0.027677774
87	0x991d23bf	-8.123929e-24
88	0x3c92f2cf	0.017938046
89	0xbd286677	-0.041113343
90	0x3b39fc53	0.0028379157
91	0x3ca2ce78	0.019873843
92	0x10eb135a	9.272097e-29
93	0x22492bee	2.7263836e-18
94	0x3d97155d	0.073771216
95	0x3ea31b53	0.31856784
96	0x8ca973e6	-2.6108327e-31
97	0xbd1a5a21	-0.03768361
98	0x3dd0da7d	0.10197923
99	0xbe1c4f6c	-0.15264672
100	0x3d962fbe	0.07333325
101	0x3dca3493	0.09873309
102	0xbdb97fed	-0.09057603
103	0xbe4bb7b2	-0.19894293
104	0xbd303046	-0.043014787
105	0xbdf335b3	-0.11875477
106	0xbba74676	-0.005104835
107	0x3e407f7a	0.18798628
108	0x802782b4	-3.628472e-39
109	0x3e2e2321	0.17005588
110	0xbd7011b6	-0.05861064
111	0xbd9c3bc7	-0.07628589
112	0x3da19540	0.07889795
113	0x3ddb50a2	0.10708739
114	0xbceb2ecf	-0.028708844
115	0x3dfb96ad	0.122845985
116	0x80478ab5	-6.570079e-39
117	0x3d34f065	0.04417457
118	0x3dbd9c58	0.09258336
119	0xbdfc8d21	-0.12331606
120	0xbb8a2860	-0.004216239
121	0x3e0cf1e2	0.13764146
122	0xbdd3948a	-0.10331066
123	0x3df04a5f	0.11732935
124	0x3c8e7ffb	0.01739501
125	0xbdd985a0	-0.1062119
126	0xbdf0c82e	-0.11756931
127	0x019d3a84	5.775666e-38
128	0xbe0de2cf	-0.13856052
129	0x3dbf6f0c	0.093473524
130	0x3e456754	0.19277698
131	0xbdc15de9	-0.0944174
132	0x3a841fce	0.0010080279
133	0xbd4ab871	-0.049492303
134	0xba91fc56	-0.0011137824
135	0x3dee5be2	0.11638619
136	0x3e045254	0.1292203
137	0x1896c60a	3.897406e-24
138	0x3e2c0f85	0.16802795
139	0x3cd69070	0.02619192
140	0xbb855247	-0.004068646
141	0x3ca70f3e	0.02039301
142	0x900126d4	-2.5470676e-29
143	0xac0c8106	-1.996682e-12
144	0xbdbb9462	-0.09159161
145	0xbe01d4a4	-0.12678772
146	0x2cd9a707	6.1860547e-12
147	0x3d8b9acf	0.06816637
148	0xbc2de135	-0.010612776
149	0x3e5ad416	0.21369967
150	0x3df4e511	0.119577534
151	0x3e4209ef	0.18949102
152	0xbe488f0b	-0.19585817
153	0xbe944c96	-0.2896468
154	0xbdd79fd0	-0.10528529
155	0xbe20cf44	-0.15704066
156	0x3dc78965	0.09743003
157	0x3e5ba124	0.21448189
158	0x0000bb40	6.7173e-41
159	0x3e3ee1aa	0.18640772
160	0x3d2c69f8	0.042093247
161	0xbe0f9a36	-0.1402367
162	0x3e0d920a	0.1382524
163	0xbda9504e	-0.0826727
164	0x3c92d0f9	0.017921912
165	0x3dfd8df6	0.123805925
166	0x802c9754	-4.095048e-39
167	0x3dde11f2	0.108432665
168	0x3e456b6b	0.19279258
169	0xbe70d8ea	-0.23520246
170	0xbcb1af30	-0.021689981
171	0x3e1ca416	0.15296969
172	0xbe48a0c4	-0.19592577
173	0x3d950867	0.07276993
174	0x3c7cda80	0.015432954
175	0xbe3df2f4	-0.1854971
176	0xbe829da0	-0.25510883
177	0x822bd042	-1.2622863e-37
178	0xbe409d98	-0.18810117
179	0x3dbf72d6	0.09348075
180	0x3e5a4aad	0.21317549
181	0xbe1fe0b5	-0.15613063
182	0x3a25e59e	0.0006328466
183	0x3d8638f9	0.065538354
184	0xbaf6d314	-0.0018831217
185	0x3d7db0ce	0.061936192
186	0x3e2a3d22	0.16624883
187	0x18ad6886	4.4824994e-24
188	0x3dfb7f6d	0.12280164
189	0x3da1c71d	0.07899306
190	0xbbb74718	-0.005593192
191	0x3da4bf75	0.0804433
192	0x0fe4a2b8	2.2545213e-29
193	0xadb72054	-2.0819048e-11
194	0xbe5e60db	-0.21716635
195	0x3b33aa24	0.0027414644
196	0x2fc44978	3.5704395e-10
197	0x3db8e7bf	0.09028577
198	0xbe22b92c	-0.1589095
199	0x3e3d3ad0	0.18479466
200	0xbec8ee5f	-0.39244363
201	0x3d9818ac	0.07426581
202	0x3df85c14	0.121269375
203	0x3e24f5c9	0.16109385
204	0x3e17480b	0.14773576
205	0x3e8decf0	0.2771983
206	0x3cb566f9	0.022143828
207	0xbdbd3d6f	-0.09240233
208	0x80136b60	-1.783393e-39
209	0x3d4a7547	0.04942825
210	0x3e123008	0.14276135
211	0x3d9a3b98	0.07530898
212	0xbbfb0b28	-0.007661242
213	0x3e66c62a	0.22536531
214	0x3d5cf395	0.053943235
215	0xbde777fe	-0.113021836
216	0x9dfd7696	-6.7091157e-21
217	0x3e02b807	0.12765513
218	0xbcf5f99f	-0.030026255
219	0x3e18b14b	0.14911382
220	0x3dc378df	0.09544539
221	0x3ce8eab8	0.028432235
222	0x3e0e57b3	0.13900642
223	0xbd28ed18	-0.041241735
224	0xbc9f2a24	-0.019429274
225	0x3e5a558f	0.213217
226	0x3dade36c	0.08490643
227	0x8921f1e6	-1.949341e-33
228	0x3e11d90a	0.1424295
229	0xbc315b96	-0.010825058
230	0xbd050366	-0.032473944
231	0x3de59706	0.11210446
232	0x3c6dd7dc	0.014516797
233	0x3dcf86ff	0.1013317
234	0x3bc16c4c	0.0059028026
235	0x3dcb74ee	0.09934412
236	0xbd775fd4	-0.060394123
237	0x98ae2917	-4.5019436e-24
238	0xbda3421e	-0.07971595
239	0xbcea68d2	-0.028614435
240	0x3bbdb672	0.0057895714
241	0x3c9e243e	0.019304391
242	0x1177bc68	1.9542922e-28
243	0x2f477269	1.8139591e-10
244	0x3de13879	0.109970994
245	0x3eaaf0fe	0.33386987
246	0xa8913849	-1.6122644e-14
247	0x3a1aee92	0.00059101835
248	0x3e04b527	0.12959729
249	0xbe10bffd	-0.14135738
250	0x34c049a5	3.581637e-07
251	0xbc1297cd	-0.008947325
252	0x38dcf621	0.000105362626
253	0x39581acc	0.00020609348
254	0xbac084ca	-0.0014688012
255	0xba876487	-0.0010329642

net.6.bias f4 [50]
0	0xbd230519	-0.039799783
1	0xbb268e91	-0.0025414566
2	0x3d4716f9	0.048605893
3	0x3dbf5294	0.093419224
4	0x3e1aacd3	0.1510499
5	0xbc2d52fb	-0.010578866
6	0x3ddab226	0.1067851
7	0x3dee8fe9	0.116485424
8	0x3e461a8d	0.19346066
9	0x3dca2c2d	0.09871707
10	0x3e02111e	0.12701842
11	0xbc2624ae	-0.010140581
12	0x3e045f64	0.12927014
13	0xba73d7f8	-0.0009301896
14	0x3e3db97a	0.18527785
15	0xb5122332	-5.4440454e-07
16	0xbb1f34c9	-0.0024292937
17	0xbcb0cc3e	-0.021581765
18	0x3c1b90e0	0.00949499
19	0x3d6bf661	0.057608012
20	0xbc87c4c8	-0.016573325
21	0xbd09da40	-0.033655405
22	0x3d2965d5	0.04135688
23	0xbbc786e3	-0.006089078
24	0xbca85385	-0.020547638
25	0x3d867488	0.06565195
26	0x3d60832c	0.054812595
27	0x3e21ff27	0.15819989
28	0xbd060aee	-0.032725267
29	0x3db96f2b	0.09054407
30	0x3e443661	0.19161369
31	0x3db39590	0.08768761
32	0xb78b1da0	-1.6583886e-05
33	0xbd5583c4	-0.052127615
34	0xa5014504	-1.121235e-16
35	0x3d8b00ac	0.067872375
36	0xbd01934c	-0.031634614
37	0x3dd7ddd3	0.105403565
38	0x3e38eaa3	0.18058257
39	0x3e262f1f	0.16228913
40	0xbb4d97dd	-0.0031371035
41	0x3da16849	0.07881219
42	0x3e2e5323	0.17023902
43	0x3db767c2	0.08955337
44	0x3e31302e	0.17303535
45	0x3d49719b	0.04918061
46	0x3dd95e94	0.106137425
47	0x3c8f8576	0.017519694
48	0xbcbf02b5	-0.02331672
49	0x3c68e991	0.014215843

net.8.weight f4 [50, 50]
0	0x3dac0945	0.084002055
1	0x3dc9e84f	0.098587625
2	0xbcc8c72a	-0.024509031
3	0xbd8b2841	-0.06794787
4	0x3e0f0683	0.13967328
5	0x3c130875	0.008974184
6	0x3d85334d	0.065039255
7	0x3b6405d0	0.0034793504
8	0x3d3b2aab	0.04569499
9	0x3a25b68f	0.0006321454
10	0x3dda55e8	0.106609166
11	0x3cd6e436	0.026231866
12	0x3de6f685	0.112774886
13	0x396849e8	0.00022152776
14	0xbc53c0fd	-0.01292443
15	0x80032c5e	-2.91422e-40
16	0x358ead7e	1.0630317e-06
17	0x3b11726a	0.002219344
18	0xbcc073e1	-0.023492755
19	0xbc2367ee	-0.009973509
20	0xbd8c5472	-0.06852044
21	0x3dcc46cb	0.0997444
22	0x3b2c12e5	0.002625638
23	0x3ba3848d	0.0049901665
24	0xbc329304	-0.010899309
25	0x3de0f40a	0.10984047
26	0xbd037486	-0.032093547
27	0xbbf54be0	-0.0074858516
28	0x3d59a933	0.053139877
29	0x3e47a2bd	0.19495673
30	0x3ce7dcf0	0.028303593
31	0x3b0c22b9	0.0021383
32	0x95587037	-4.3709375e-26
33	0x3daffacf	0.0859276
34	0x00009de0	5.6635e-41
35	0xbc8be72b	-0.017078003
36	0xbc1efa8c	-0.00970329
37	0x3d1a899b	0.037728887
38	0x3df58c83	0.11989691
39	0xbc5b7d87	-0.013396627
40	0xb82ae29d	-4.074221e-05
41	0x3defe262	0.11713101
42	0x3c64bfe7	0.013961769
43	0xbc9dee02	-0.01927853
44	0x3b428ada	0.0029684813
45	0x3e4139e2	0.18869737
46	0xb9f524a0	-0.0004675733
47	0x3e0ef1c9	0.13959421
48	0x3ca69d50	0.020338684
49	0x3e26b308	0.16279233
50	0xa2a9e243	-4.6047106e-18
51	0xab21e41f	-5.751527e-13
52	0x9e5cbaf4	-1.1685364e-20
53	0xa24dde7e	-2.7900467e-18
54	0xb28234eb	-1.5158056e-08
55	0x80353d5c	-4.889293e-39
56	0xafcaeda8	-3.691245e-10
57	0xadb16e9f	-2.0171696e-11
58	0xb3dca741	-1.02749716e-07
59	0xab211ff2	-5.7243023e-13
60	0xb3463054	-4.614442e-08
61	0x8030135f	-4.415053e-39
62	0xb29b3cdc	-1.807205e-08
63	0x00345dc6	4.809085e-39
64	0xad35c9ab	-1.0333438e-11
65	0x00076bee	6.81566e-40
66	0x8023f487	-3.301962e-39
67	0x00306967	4.445915e-39
68	0x8034c68a	-4.846668e-39
69	0xad3003d1	-1.0005289e-11
70	0x002a2696	3.870933e-39
71	0xa622b302	-5.644764e-16
72	0x9ae94ecf	-9.6493864e-23
73	0x804bc6b4	-6.958943e-39
74	0x8021fb64	-3.120753e-39
75	0xa9acb18f	-7.669136e-14
76	0x04000613	1.5049117e-36
77	0xada9c965	-1.9302513e-11
78	0x9f51819a	-4.4364675e-20
79	0xb1e9ddfe	-6.80643e-09
80	0xaef02884	-1.09211334e-10
81	0xab7df4b1	-9.0223234e-13
82	0x0048bf60	6.680808e-39
83	0x1a31f006	3.679663e-23
84	0x00440170	6.24533e-39
85	0xac5549d9	-3.0310114e-12
86	0x802263fb	-3.158273e-39
87	0xb21fd374	-9.303097e-09
88	0xb3dee4eb	-1.03793205e-07
89	0xad1f653d	-9.060583e-12
90	0x8025725e	-3.43894e-39
91	0xa958670b	-4.805101e-14
92	0xa61c2295	-5.417024e-16
93	0xaa813fae	-2.295919e-13
94	0xaa8b7e84	-2.4779148e-13
95	0xafee163a	-4.330774e-10
96	0xa3c95d96	-2.1832099e-17
97	0xa72c2c72	-2.3893889e-15
98	0x8035456a	-4.892182e-39
99	0xade5b6bd	-2.6115438e-11
100	0x3d797483	0.06090213
101	0x3e1534d6	0.14570937
102	0xbdc7b54d	-0.09751377
103	0xbdd9328e	-0.10605346
104	0x3d159f15	0.036528666
105	0x3c321473	0.010869133
106	0xbc8d78df	-0.01726955
107	0xbd9f6426	-0.07782774
108	0x3ddff69e	0.1093571
109	0x3c3595e3	0.011083099
110	0x3d630709	0.05542663
111	0x3cbf3590	0.02334097
112	0x3e1cec4e	0.15324518
113	0x3a8cd9e3	0.0010746088
114	0xbc8e6f1d	-0.017386967
115	0x801d5ff6	-2.697654e-39
116	0x3692a518	4.3703585e-06
117	0x3b42c8e0	0.0029721782
118	0xbcc021c3	-0.023453599
119	0xbb8c9347	-0.0042900178
120	0xbda258b5	-0.07927076
121	0x3da9ec94	0.08297077
122	0xb964978a	-0.00021800227
123	0x3b8e9e70	0.0043523833
124	0xbc4ec31a	-0.012619758
125	0x3d8ff179	0.07028479
126	0xbdaae083	-0.083436035
127	0x3d11c695	0.035589773
128	0x3d928aab	0.07155355
129	0x3e446be0	0.19181776
130	0x3e12ef1b	0.14349024
131	0xb81dff80	-3.766967e-05
132	0x9402442a	-6.576766e-27
133	0x3d92f9db	0.071765624
134	0x800bbb73	-1.077435e-39
135	0xbdad2d50	-0.08455908
136	0xbc2a55b6	-0.010396412
137	0x3dcf81bc	0.10132167
138	0x3cf9c599	0.03048973
139	0x3d3760a9	0.044769917
140	0xbaf4f524	-0.001868878
141	0x3d99041a	0.074714854
142	0x3d0fdf92	0.035125323
143	0xbd27b40a	-0.040943183
144	0xbbe7f544	-0.0070787985
145	0x3e270b08	0.16312802
146	0x3d3d9ef2	0.04629416
147	0x3dddba41	0.10826541
148	0x3cac911b	0.021065285
149	0x3df39ce8	0.11895162
150	0xbb8d3b49	-0.004310046
151	0xbc58fa50	-0.013243273
152	0x3dc66fe6	0.09689312
153	0x3deb8b9f	0.1150124
154	0xbc82f34e	-0.015985157
155	0x3ac4c71a	0.001501295
156	0x3e14b5d4	0.14522487
157	0x3da399b1	0.07988299
158	0x3b89e59d	0.0042082802
159	0x3e44e5e0	0.19228315
160	0x3dad1bc4	0.084525615
161	0x3d14b889	0.0363088
162	0x3cf38dfb	0.029730788
163	0xba3adf00	-0.00071285665
164	0x3dea02fb	0.1142635
165	0x201a87f9	1.3089297e-19
166	0x3627aa48	2.4984056e-06
167	0x39d204d5	0.0004005792
168	0xbcb339e3	-0.021878188
169	0x3e7bd8da	0.24594441
170	0x3db538ea	0.08848746
171	0x3c5c1ad6	0.013434133
172	0x3dd1873f	0.10230874
173	0xbb121bd7	-0.0022294426
174	0x39461ef4	0.00018894282
175	0xbcffa67b	-0.031207314
176	0x3e089e47	0.13341628
177	0x3e32f078	0.17474544
178	0x3c7e1d2b	0.015509884
179	0xbda96cd8	-0.082727134
180	0x3d02cf9c	0.031936273
181	0x3e78fa78	0.24314296
182	0x97c42ce6	-1.2677537e-24
183	0xbb8985ec	-0.004196873
184	0x002bfd61	4.039822e-39
185	0x3e5e7549	0.21724428
186	0xbb8cc834	-0.004296327
187	0x3dd8a746	0.1057878
188	0xbe103551	-0.14082839
189	0x3d930e25	0.07180432
190	0x357691f0	9.185451e-07
191	0x3db95ebd	0.09051273
192	0x3dd93a23	0.10606792
193	0x3e87b642	0.2650624
194	0x3cd5a90f	0.02608159
195	0xbdd987c3	-0.106215976
196	0x3e328de4	0.1743694
197	0x3d6534b8	0.05595848
198	0xbba400db	-0.005004985
199	0xbd174bea	-0.03693763
200	0x3a32cc4d	0.00068206043
201	0xbba0e6cc	-0.0049103256
202	0xbce5fd1e	-0.028074797
203	0xbceb89d2	-0.028752241
204	0xbc3dd82c	-0.011587184
205	0x801b0a37	-2.483223e-39
206	0xbd004fc8	-0.031326085
207	0xbcff7b7f	-0.031186817
208	0xbd0a08e5	-0.03369989
209	0xbd02a34e	-0.03189402
210	0xbc2cb888	-0.010542043
211	0xb91980fb	-0.00014639266
212	0xbc1d2f6b	-0.009593825
213	0x80050806	-4.62056e-40
214	0xbd0c6b2f	-0.034281906
215	0x8002e5a5	-2.66052e-40
216	0x800fd391	-1.453428e-39
217	0x00185f40	2.238221e-39
218	0x38c1efda	9.247633e-05
219	0xbd02c4f4	-0.03192611
220	0xbcb06314	-0.02153162
221	0xbb1f27d7	-0.002428522
222	0xbcf652ab	-0.030068716
223	0x80410d4a	-5.974074e-39
224	0x00345739	4.806735e-39
225	0xbc258d94	-0.010104556
226	0xbcdbd936	-0.026836973
227	0xbd0086f2	-0.031378694
228	0xba33e30c	-0.0006862141
229	0xbc0483a1	-0.008088023
230	0xbd023146	-0.031785272
231	0xbd0510db	-0.032486778
232	0x0006c954	6.23236e-40
233	0x3b0d3edd	0.0021552362
234	0x8035d2b7	-4.942872e-39
235	0xbcf3b794	-0.029750623
236	0x801a74ec	-2.429667e-39
237	0xbd088a07	-0.033334758
238	0xbc58fa4f	-0.013243272
239	0xbd023587	-0.03178933
240	0x003ab07b	5.389768e-39
241	0xbc16e6b8	-0.009210281
242	0xbcfc97e8	-0.030834153
243	0xbd0510a1	-0.03248656
244	0xbd09cd01	-0.033642773
245	0xbbf6e476	-0.007534559
246	0xbd03929a	-0.032122232
247	0xbbf1c809	-0.0073785824
248	0x801fff99	-2.938592e-39
249	0xbb964aa5	-0.004586535
250	0x3d4f2db3	0.05058069
251	0x3ab28318	0.0013619391
252	0x3ccf8477	0.025331719
253	0x3df22ab1	0.11824549
254	0xbd141c4b	-0.036159795
255	0x39c73c96	0.00038001378

net.8.bias f4 [50]
0	0x3d0776e8	0.033072382
1	0xb5e4a04f	-1.703398e-06
2	0x3deec120	0.116579294
3	0x3e2260c0	0.1585722
4	0xbd46766e	-0.048452787
5	0x3d2395f0	0.039937913
6	0x3df743ed	0.12073503
7	0x3d92d512	0.07169546
8	0x3d09d0a3	0.033646237
9	0xbaf870b6	-0.0018954489
10	0x3d860fa0	0.06545949
11	0x3ce12455	0.027483145
12	0xbc0275dd	-0.007962671
13	0xbc9ed3b7	-0.019388063
14	0xbcae6b89	-0.021291511
15	0x3e40ebf6	0.18840012
16	0x3e51fd4c	0.20506781
17	0xbb98b36f	-0.004660062
18	0x3e23894a	0.1597034
19	0xbc63c1aa	-0.013901154
20	0xa58eedbd	-2.479417e-16
21	0x3e2271e0	0.15863752
22	0xbb2c43d1	-0.002628554
23	0x3e2befa2	0.16790631
24	0x3e2415fd	0.16024013
25	0xae3f01f5	-4.343011e-11
26	0x3d517ff6	0.051147424
27	0x3e2ad0f7	0.16681276
28	0xbc622234	-0.0138021
29	0x3d8900b6	0.06689589
30	0x3d951251	0.07278884
31	0x3d7fa074	0.06240888
32	0x3d8ea876	0.06965725
33	0x3d094f95	0.03352316
34	0x3d6104c8	0.0549362
35	0x3df104e9	0.11768515
36	0xbc851715	-0.016246358
37	0x3cf7700a	0.030204792
38	0x3e12c0d0	0.14331365
39	0x3e288e36	0.16460499
40	0x3d39d29f	0.04536688
41	0xbca0115c	-0.019539528
42	0xb026d3c7	-6.06914e-10
43	0x3dee7e52	0.116451874
44	0x3e255666	0.1614624
45	0x3d802b26	0.0625823
46	0xb74a4e7b	-1.2058411e-05
47	0x3e282f29	0.1642424
48	0x3da56fb1	0.08077944
49	0xaa55d825	-1.899319e-13

net.10.weight f4 [50, 50]
0	0x3d53b434	0.051685527
1	0x2d9c1bc2	1.7747474e-11
2	0x3e50d10f	0.2039225
3	0x3dc37e75	0.09545604
4	0x3d11f9fc	0.035638794
5	0x3cebbacc	0.028775595
6	0x3da42866	0.08015518
7	0x3d923e63	0.071408056
8	0x3d4f2be3	0.050578963
9	0x356659fd	8.5812627e-07
10	0x3e0772fd	0.13227458
11	0x3dc221a1	0.094790705
12	0x39956638	0.00028495654
13	0x3c82ddfc	0.015974991
14	0xbe0ce01c	-0.13757366
15	0x3b326396	0.0027220002
16	0xbd0899c0	-0.033349752
17	0x3c245061	0.010028929
18	0x3dd5bf49	0.104368754
19	0x3c1b9e86	0.009498244
20	0x160158cd	1.0448558e-25
21	0x3def9c10	0.116996884
22	0xb9a0cdc5	-0.00030670888
23	0x3d9be28d	0.076115705
24	0xbd2fe593	-0.04294355
25	0x812dc813	-3.1918628e-38
26	0x3e7458c2	0.23861983
27	0xbdc6877d	-0.09693811
28	0x39d54a21	0.00040681756
29	0xbc6fba65	-0.014631842
30	0xbcd5118b	-0.026009342
31	0x3b1dd597	0.0024083608
32	0x3e029c45	0.12754925
33	0x3cf6d540	0.030130982
34	0xbd8e0098	-0.06933707
35	0x3d09d066	0.03364601
36	0x3c1b824f	0.009491517
37	0x3ca97a6d	0.02068826
38	0xbdc947ff	-0.09828185
39	0x3dc2f758	0.09519833
40	0x3da1169d	0.07865641
41	0xbc6c5f3c	-0.0144270025
42	0xaf09cc0b	-1.2532568e-10
43	0xbda4aace	-0.08040391
44	0x3e48c78b	0.1960737
45	0xbe58464d	-0.21120568
46	0x0016ea04	2.10433e-39
47	0x3d8475f7	0.064678125
48	0x3ca0a4fd	0.019609923
49	0x801f9eab	-2.90382e-39
50	0x3e07863d	0.13234802
51	0x33adf3a3	8.1002575e-08
52	0x3e7ca237	0.24671255
53	0x3dc3ae51	0.095547326
54	0x3d22b83a	0.039726473
55	0x3c3249b2	0.010881828
56	0x3d486252	0.04892189
57	0xbd2260ff	-0.039643284
58	0x3d94a601	0.07258225
59	0x388d5312	6.738877e-05
60	0x3e3a5fec	0.18200654
61	0x3e820300	0.25392914
62	0x3b1d27d0	0.002398003
63	0x3c94635a	0.01811378
64	0xbe118194	-0.14209586
65	0xbd69c4d3	-0.05707247
66	0x3dd11748	0.10209519
67	0x3b73c29c	0.0037194854
68	0x3e5b1e7b	0.21398346
69	0x3c685ec7	0.014182753
70	0xa8cbe8c0	-2.2638467e-14
71	0x3e6e3f1f	0.23266266
72	0xbb0b5bac	-0.0021264357
73	0x3e15b2b6	0.14618954
74	0xbd418e4a	-0.047254838
75	0x8c53e281	-1.632301e-31
76	0x3e59532b	0.21223132
77	0x3c9e907b	0.019356003
78	0xba2216c1	-0.00061832
79	0x3e0ae048	0.13562119
80	0xbc855a1f	-0.016278325
81	0xbcfbf356	-0.03075568
82	0x3e898178	0.2685659
83	0x3e01e971	0.12686707
84	0x3dbfbae5	0.09361819
85	0x3ddd8c0c	0.108177274
86	0x3c522071	0.012825117
87	0x3e0cf728	0.13766158
88	0xbe30e99d	-0.17276616
89	0x3e5ff741	0.21871664
90	0x3e13dd5d	0.14439912
91	0xbc88121f	-0.016610203
92	0xb49e12aa	-2.9443373e-07
93	0xbe23aea0	-0.15984583
94	0x3e6e5fba	0.23278704
95	0xbd7e30d2	-0.062058277
96	0x8d86b935	-8.302975e-31
97	0xbda83d8f	-0.08214866
98	0xbcf850b2	-0.030311916
99	0x14920334	1.4743496e-26
100	0xbc67fb41	-0.014159025
101	0x0044baaa	6.311776e-39
102	0xbbea1778	-0.007143911
103	0x3d496471	0.049168054
104	0x33c27aaa	9.0561414e-08
105	0x3ced6f35	0.028983692
106	0x3b2b0521	0.0026095586
107	0x3d136b53	0.035991024
108	0xbd2abad6	-0.041682087
109	0x0004b044	4.30574e-40
110	0xbc1463b7	-0.009056977
111	0xbc771ed9	-0.015083038
112	0xb0ac4ac4	-1.2535897e-09
113	0xb9c4ee54	-0.00037561601
114	0xbdb54759	-0.08851499
115	0xbd32a065	-0.043609995
116	0xbb1e5999	-0.002416229
117	0x3a4433b0	0.00074845087
118	0xbb3c9476	-0.0028775013
119	0xb99dcab6	-0.00030096405
120	0x0011902c	1.612923e-39
121	0xbb66a86f	-0.003519561
122	0x335be091	5.1194153e-08
123	0x3c57f4dc	0.013180938
124	0x3c51ffa5	0.012817298
125	0x80469a82	-6.483912e-39
126	0xbb165257	-0.0022937262
127	0xbd93100c	-0.07180795
128	0x3156466c	3.1181129e-09
129	0x3b9e26dc	0.0048264097
130	0xbb81d30b	-0.003961926
131	0xbb5f4f3d	-0.003407433
132	0xbc7a2635	-0.015267898
133	0x3d0ef48b	0.034901183
134	0x3b5fedd4	0.0034168856
135	0xbc15448b	-0.00911058
136	0xb815ebb0	-3.574387e-05
137	0xbc107a27	-0.008818186
138	0xbd98c13d	-0.07458732
139	0xbd183688	-0.03716138
140	0xbcf7b00e	-0.030235317
141	0x3b3ff556	0.0029290519
142	0x003ef6c6	5.782326e-39
143	0x3a8b0f75	0.0010609465
144	0xbc582751	-0.0131929675
145	0xbe071a06	-0.13193521
146	0x80408ea8	-5.928647e-39
147	0x3bb53865	0.0055304044
148	0x3aaf734c	0.0013385802
149	0x802295cd	-3.176145e-39
150	0xbc7f1072	-0.015567886
151	0xb28c6ff1	-1.634905e-08
152	0xbdc887ec	-0.0979155
153	0x3e44c0f3	0.1921423
154	0xbd22c453	-0.03973801
155	0x3d9f62fc	0.07782552
156	0xbdce06e1	-0.10059906
157	0x3e3e851e	0.18605468
158	0x3e11368d	0.14180966
159	0xb876fefb	-5.888844e-05
160	0xbca0289c	-0.019550614
161	0xbe1a6902	-0.1507912
162	0xbb483f32	-0.0030555245
163	0xbc8246be	-0.015902873
164	0x3e47e855	0.19522221
165	0xbc1a6285	-0.009422903
166	0x3dddb944	0.10826352
167	0xbaeb3748	-0.0017945552
168	0xbdd35336	-0.103186056
169	0xbc4e936f	-0.012608393
170	0x2afad20a	4.4554665e-13
171	0x37d868d6	2.5798025e-05
172	0x39e8ae51	0.00044380364
173	0xbd5b2bb1	-0.053508464
174	0x3dcb33b1	0.09921969
175	0x0005b5b4	5.2436e-40
176	0xbe42720f	-0.18988822
177	0x3e6a9650	0.22908902
178	0x3b3184a8	0.0027087126
179	0x3e51d2ca	0.20490566
180	0x3c65adb2	0.014018463
181	0x3e32c3fb	0.17457573
182	0xbcc4ebe4	-0.024038263
183	0xbc947321	-0.018121304
184	0x3e218f19	0.15777244
185	0x3cf95139	0.030434238
186	0xbcae812c	-0.021301828
187	0x3d5a8d98	0.05335769
188	0x3e8531a3	0.26014432
189	0xbda04953	-0.078264855
190	0x3ceca1a4	0.02888567
191	0x3c840926	0.016117644
192	0x2f314686	1.6123111e-10
193	0x3e49454b	0.1965534
194	0x3cbe4d75	0.023230294
195	0xbdd2ed4c	-0.10299167
196	0x00251e63	3.408814e-39
197	0x3e24b6ae	0.16085312
198	0x3dea3750	0.11436331
199	0x888565d3	-8.028585e-34
200	0xbbb46a21	-0.0055058156
201	0x00435cae	6.186225e-39
202	0xbba89bb7	-0.005145516
203	0xba8ec97c	-0.0010893787
204	0x8001f919	-1.81195e-40
205	0xba0faa77	-0.00054804183
206	0xbb7a9a5f	-0.0038238985
207	0xbb31d576	-0.002713529
208	0x37bbb25b	2.237519e-05
209	0x0006c1f7	6.20594e-40
210	0xbb8b89a9	-0.0042583537
211	0xbbabcfd4	-0.005243281
212	0x004a347a	6.814652e-39
213	0x003f589d	5.817425e-39
214	0xb9981a67	-0.0002901137
215	0xba90a224	-0.001103465
216	0xbc0247f2	-0.007951723
217	0x802caca2	-4.102691e-39
218	0xbba90a6f	-0.0051587145
219	0x8033f5ac	-4.771741e-39
220	0x001546fe	1.954013e-39
221	0xbbad98d2	-0.0052977586
222	0x8007a4d8	-7.01983e-40
223	0xbba82ab2	-0.005132043
224	0xba20eec4	-0.00061390945
225	0x00090af0	8.30443e-40
226	0xbb98b773	-0.0046605407
227	0xbb366a29	-0.0027834272
228	0x002a79d3	3.900793e-39
229	0xbbd07556	-0.006361644
230	0x800c876a	-1.150603e-39
231	0xba1b91c5	-0.0005934502
232	0xbbd0d2e4	-0.0063727964
233	0xbb94e344	-0.0045436937
234	0xba293b31	-0.00064556586
235	0xba55cab8	-0.00081555126
236	0x0036dcfb	5.03839e-39
237	0xbb91ad93	-0.0044457405
238	0xbb1e7538	-0.0024178755
239	0xbb95ff4d	-0.0045775534
240	0xbb599d26	-0.003320524
241	0x80266861	-3.527193e-39
242	0x80291733	-3.773578e-39
243	0xbb193b37	-0.0023381242
244	0xbbbc58c9	-0.0057478887
245	0xb549bfd1	-7.5157465e-07
246	0x00017e51	1.37149e-40
247	0xba8568de	-0.0010178348
248	0xba814056	-0.0009861093
249	0x002f2c4a	4.332156e-39
250	0xbd85b74c	-0.06529102
251	0xadc9db1e	-2.2948362e-11
252	0xbdf5f521	-0.12009645
253	0x3e241e5b	0.16027205
254	0xbd11436a	-0.03546468
255	0x3db8d0be	0.090241894

net.10.bias f4 [50]
0	0x3e392f4d	0.1808445
1	0x3e044a78	0.12919033
2	0xbd1ccf72	-0.038283773
3	0x3de871f2	0.11349858
4	0xbbdec78a	-0.0067986893
5	0x3dc4a2af	0.09601342
6	0x3e5a8369	0.21339191
7	0xbc122ec8	-0.008922286
8	0x3d179447	0.037006643
9	0x3ceaa08c	0.028641008
10	0x3d4ca061	0.049957637
11	0x3e22f765	0.15914686
12	0xa588240a	-2.361666e-16
13	0x3e16e7a6	0.14736804
14	0x3d981f5d	0.07427857
15	0x3d6c26b0	0.057654083
16	0x3db2d885	0.08732704
17	0xbb089d9d	-0.0020845898
18	0xaa3bb41a	-1.6671422e-13
19	0xbd29c46a	-0.04144708
20	0x3dc8f50f	0.09812366
21	0x3d731a06	0.05935099
22	0xb45c4c9c	-2.0516967e-07
23	0x3d6abcd5	0.05730899
24	0x3e0df3f5	0.13862593
25	0x3cfc6a86	0.030812513
26	0x3e343000	0.17596436
27	0x3db5132d	0.08841548
28	0xa69d0ce9	-1.0897563e-15
29	0xbb437c91	-0.0029828886
30	0x3e560e64	0.20903927
31	0x3d2fefc4	0.042953268
32	0x3d8a7474	0.06760493
33	0x3e4b5fda	0.19860783
34	0x3e3150e5	0.17316015
35	0x3e4231a8	0.18964255
36	0xbcb7ee40	-0.022452474
37	0xa90d9ce2	-3.1444363e-14
38	0x3deeb0e0	0.1165483
39	0x3e0c9a0a	0.13730636
40	0x3ca67abb	0.020322194
41	0x3db6635f	0.08905672
42	0xb9cf5230	-0.0003954335
43	0x3e560a2a	0.20902315
44	0xbc0e7c52	-0.008696632
45	0xb406c17b	-1.255011e-07
46	0x3d5ed9a4	0.054406777
47	0x3e10b1b5	0.1413029
48	0x3e0dd252	0.13849762
49	0x3db358f2	0.08757199
