data/models/obesity/obesity_200x5.pth (torch, 665938 bytes, 12 tensors)

net.0.weight f4 [200, 15]
000000 16 38 1b 3c 19 aa 1e be 1d 7d d1 bd 70 a1 2e 3c
       0.009473821 -0.15494575 -0.102289416 0.010658607
000010 aa f7 47 be de 99 87 3d fd c3 91 3d 93 4e 33 3e
       -0.1952807 0.06621145 0.0711746 0.17510442
000020 53 cb 30 3e 19 84 76 be 48 f5 fe bd 9e 8c c9 3c
       0.17265062 -0.24073829 -0.124491274 0.024603184
000030 7f b8 6b 3e 14 eb 1c 3e fa dc 53 be fb 66 0a be
       0.23019598 0.1532405 -0.20689765 -0.13515846
000040 a9 0d 9a 3d f7 77 43 be 4a 57 bc 3d d5 b5 51 3d
       0.07522137 -0.19088732 0.091963366 0.0511988
000050 43 53 17 3e 7e 92 2a 3e c3 24 86 be 05 93 bb 3d
       0.14777856 0.16657445 -0.26199922 0.09158901
000060 d3 ca 79 3e 8f 27 6e be 47 20 4c be 54 8c a2 3e
       0.24393778 -0.23257278 -0.19934188 0.31747687
000070 10 90 0b 3e d5 cd 15 bd 5f 32 5c 3e 52 8a 8c 3b
       0.13629174 -0.03657325 0.2150359 0.00428895
000080 f2 9e 70 be a3 d5 90 be 5e 2c 63 bc 38 cb ec 3d
       -0.23498133 -0.28287992 -0.013865558 0.115621984
000090 7c d0 4f bd 7d d6 1e be 76 09 c0 bd ce 85 8c be
       -0.050735936 -0.15511508 -0.093768045 -0.27445835
0000a0 f8 50 f2 3b 1d 6a 05 be f1 99 27 3e 1b 58 45 3e
       0.007394906 -0.1302876 0.16367318 0.19271891
0000b0 9b b3 23 3e 54 59 62 3e fd 20 5b be 06 62 25 be
       0.15986483 0.22104388 -0.21399303 -0.16150674
0000c0 4b 75 0e 3e ba dc 32 3e e2 1e a7 3d 7c 87 87 be
       0.13911931 0.17467013 0.08160187 -0.26470554
0000d0 fd af 81 bd 10 78 b3 bd ca b3 21 be 6b 6b 45 bd
       -0.06332395 -0.087631345 -0.1579124 -0.048198145
0000e0 b8 1c 67 3c d8 5c bf 3d ee 7f 7c 3b 33 1c ba 3d
       0.014105968 0.093438804 0.00385284 0.0908741
0000f0 9d 07 57 be 5f f0 b5 3d 1d 1a dc bd b9 26 eb bd
       -0.20998998 0.08883738 -0.10747168 -0.11481995
000100 af 06 2e be 77 82 4f be ad 5f 4d 3e ef 29 83 be
       -0.16994737 -0.20264612 0.20056029 -0.2561793
000110 c1 ee b0 bd 08 f8 11 3b 47 c1 15 bc 00 ec 83 bd
       -0.08639289 0.0022273082 -0.009140319 -0.06441498
000120 de 74 0d be 12 b8 6f 3d 95 b9 73 be 45 c9 a0 be
       -0.13814113 0.058525153 -0.23801263 -0.31403556
000130 81 e5 85 bd 51 96 eb 3c d4 92 26 3d 1b 04 37 3e
       -0.06537915 0.0287582 0.04066737 0.1787266
000140 c8 98 9c 3d 28 8f 25 be b5 cf 16 3e 91 4f 28 be
       0.07646328 -0.16167891 0.14727671 -0.16436602
000150 6a 73 f7 3d 65 28 17 3e dd 4e 05 3e 6a 51 06 3e
       0.1208256 0.14761503 0.13018365 0.13116995
000160 bf 94 3f 3c 96 48 71 3d 48 d8 f6 3d 9d 17 ae 3d
       0.011693179 0.058907114 0.12052971 0.085005976
000170 fd 58 4c be 8c 6e f2 3d 45 a1 4e 3e 7e 04 a1 3e
       -0.19955821 0.118374914 0.20178707 0.3144874
000180 40 71 d9 bc 13 3a 1b be c0 03 ea 3d 6d aa 39 3e
       -0.02654326 -0.15158872 0.114264965 0.18131419
000190 cf 54 1c be 8d fc 02 bd 03 a4 e9 3d f1 fd a2 3d
       -0.15266727 -0.031979132 0.11408236 0.07958592
0001a0 ac 6a 78 3d b7 46 26 3e dc 71 61 3e 73 40 a2 3e
       0.060648605 0.16237913 0.2201609 0.31689796
0001b0 09 5e cb bc 7e 32 87 3d 9d 45 06 3d 1c a9 c5 bd
       -0.024825113 0.066014275 0.032781232 -0.09651396
0001c0 f3 43 58 bc 42 aa 01 be 7a ac 5a 3c 59 c3 88 be
       -0.013199794 -0.12662604 0.013346786 -0.26711538
0001d0 b5 04 a5 bd b1 6f a0 3c 4c ff 22 3e c4 28 24 bd
       -0.080575384 0.019584509 0.159177 -0.04007794
0001e0 32 4f bf ba f6 62 fc bd 7a f1 ce bd e9 b6 5b 3d
       -0.0014595746 -0.12323563 -0.10104652 0.053641234
0001f0 fe 75 7e be e1 99 69 be 95 eb 05 bd 43 10 35 be
       -0.24849698 -0.22812606 -0.03269537 -0.17681985
000200 2f 9f 4c 3d ec 5f f8 bc c8 71 89 be 2e 58 46 3e
       0.049956497 -0.030319177 -0.2684462 0.19369575
000210 38 b4 74 be 33 18 a2 be 81 81 9e 3d 6e c0 82 be
       -0.23896873 -0.31659088 0.07739545 -0.25537437
000220 ad 2e 21 3e 5d 27 80 be bb 06 e1 bd d6 d0 43 be
       0.15740462 -0.25030032 -0.10987612 -0.19122633
000230 5c 58 5c 3e e8 da 14 be 5e 6d a7 bd ee fa 0c 3e
       0.21518081 -0.14536631 -0.08175157 0.13767597
000240 9c 76 e0 bd 0b c9 1d 3e a9 ce ac bd 15 12 3f be
       -0.10960123 0.15408723 -0.08437855 -0.18659241
000250 5e bc 27 3d 27 74 ad bd 93 df 52 be 0f 90 9c be
       0.040951125 -0.0846942 -0.205931 -0.30578658
000260 50 60 d4 3d 59 de 51 3e e1 01 7d 3d e6 9a 3e be
       0.10369933 0.20494975 0.06176937 -0.18613777
000270 c8 4b 8d 3c c1 6b dc bd c6 f6 2e bd 53 c1 3c be
       0.01724805 -0.1076274 -0.04271581 -0.18433122
000280 85 a2 04 3e 17 50 bb bd 3c 15 d2 3d 7e 18 0f be
       0.12952621 -0.09146135 0.102579564 -0.13974187
000290 67 8c 00 3c 37 5b 46 3e 92 a2 7a 3d 8a 0b 47 3e
       0.0078459745 0.19370733 0.061190195 0.19437996
0002a0 6f c9 a3 bc 91 df 79 be c7 83 39 be a1 44 46 bc
       -0.019993512 -0.2440169 -0.18116675 -0.012101323
0002b0 cd 58 7e bd aa a8 41 3c f6 4e 13 3e 08 7c 3c be
       -0.062096406 0.011819998 0.1438559 -0.18406689
0002c0 b7 bd 22 3d 09 b2 5b be 70 0b 2e bc bc 04 90 3e
       0.039731707 -0.21454634 -0.010622844 0.28128612
0002d0 d0 bf 36 be ca 4d 44 3e 3f a6 9f bc eb 4f 46 3c
       -0.17846608 0.19170299 -0.019488452 0.012104015
0002e0 37 a9 3a 3e 0b 79 e8 bd 9e 12 91 bd 49 c9 4b 3e
       0.18228613 -0.11351212 -0.07083629 0.19901003
0002f0 bf 5b d3 3d b7 7b 81 3e b2 92 e0 3d 43 db 25 be
       0.103202336 0.252897 0.1096548 -0.16196923
000300 01 f3 1d 3d 4e bf ef 3d 77 46 10 be a7 5e ed 3d
       0.038561825 0.1170641 -0.1408938 0.11590319
000310 a7 74 ff 3d e0 c8 80 3e 9a 2c 2d be 38 15 00 3e
       0.124734215 0.25153255 -0.16911545 0.12508094
000320 0f 64 5a be b5 f6 47 be 11 bc 5b 3e f9 02 d3 bc
       -0.21327232 -0.19527705 0.2145846 -0.025758253
000330 6b 2d 87 bc c8 15 8b bd 6d f9 81 be df 1b 20 3e
       -0.01650115 -0.06791264 -0.2538561 0.15635632
000340 3c 09 45 be 0b 8d 77 3c 11 5d 2f 3d d1 a1 01 be
       -0.19241804 0.015109311 0.042813364 -0.12659384
000350 d5 50 6e bd 42 18 ba bc 9c 16 47 3d e8 34 02 be
       -0.058182556 -0.022716645 0.048605546 -0.12715495
000360 bd 0f ba bd 64 a2 a3 bd ff bf b0 bd 18 c4 46 be
       -0.09085033 -0.07989958 -0.0863037 -0.19410741
000370 3f d3 03 3b 98 50 25 3e 85 4d 0c 3c 1c d0 85 3e
       0.0020114926 0.16144025 0.008563404 0.26135337
000380 6e 22 71 bb f8 05 85 be 2a 8e ff bd 22 5b 5d be
       -0.0036794203 -0.25981116 -0.124782875 -0.21616796
000390 24 e0 40 be bf e8 2e be 9d b5 91 3c 06 90 3b be
       -0.18835503 -0.17080973 0.017786795 -0.1831666
0003a0 1f 8b 57 be 1a 8d 9f bd c2 bc 25 3e 3b 10 10 3e
       -0.21049164 -0.07790585 0.16185287 0.14068691
0003b0 9d 91 2b be e9 1b 55 3d 55 ac 63 3e c2 29 d8 bc
       -0.16754766 0.05202857 0.22233708 -0.0263871
0003c0 49 ce 83 be c1 1c 66 be c3 c8 c8 3c 18 59 83 3d
       -0.2574332 -0.22471906 0.024509793 0.06413478
0003d0 36 f6 5d 3d 17 5e dd bc 59 8e be bd f2 8d 3d 3d
       0.054189883 -0.027022405 -0.093044944 0.046277948
0003e0 23 22 1d be 11 f2 a6 3e 9f 43 e6 bd 0d 8a f2 bd
       -0.15345053 0.32606557 -0.112433665 -0.11842737
0003f0 b1 d1 97 bd ba 2c 38 bd 75 78 82 be 1c a6 64 3e
       -0.07413042 -0.04496453 -0.25482526 0.2232899

net.0.bias f4 [200]
000000 e9 54 f1 3c 97 02 a5 bd cb 47 65 3d d6 3c 43 be
       0.029459434 -0.080571346 0.05597667 -0.19066176
000010 40 3a 5a bd e9 db 21 bd 7f 38 d6 3d ce 97 15 be
       -0.053278208 -0.039516363 0.104599945 -0.1460869
000020 37 2c 31 3d de 35 a0 bd 9f 4a 2e 3d 9a 89 e2 3d
       0.043255057 -0.07822774 0.042551633 0.11061402
000030 c3 b2 46 be b3 42 38 3e a9 11 d5 3d 39 74 42 be
       -0.1940413 0.17994194 0.10403759 -0.18989648
000040 6b 16 fd bd 18 72 ba 3d 4d 78 1e be c0 77 4d be
       -0.123577915 0.09103793 -0.15475579 -0.20065212
000050 56 65 67 3d 62 8c 09 3e 4e a2 e5 bd 9f f0 3c bd
       0.056493126 0.13432458 -0.11212598 -0.04612791
000060 74 dc 59 bc 62 a2 f1 bc 4b ac c8 3d 58 1d 62 3d
       -0.013297189 -0.029496375 0.09798487 0.055203766
000070 cc c7 1c bc 55 50 06 3c 6b 18 9a 3d 53 08 5c ba
       -0.00956912 0.008197864 0.075241886 -0.00083935744
000080 5d 09 0a 3d 05 a8 30 bd 74 e7 43 be e9 cb ca 3d
       0.033700336 -0.043128986 -0.19131261 0.09902174
000090 b3 20 0e 3e 4c 36 08 bd b9 e5 28 bd e6 06 37 3e
       0.13879661 -0.033254907 -0.041234706 0.17873725
0000a0 19 72 2a be e9 8d 4e bd 26 3a 5f bd e1 45 49 bd
       -0.16645087 -0.050428305 -0.054498814 -0.049138907
0000b0 08 c9 b6 3d 06 9c 7d 3e 34 9a 30 be 76 46 ed bd
       0.089250624 0.2476655 -0.17246324 -0.11585705
0000c0 e8 f6 12 3e 37 a0 77 be a8 22 eb bb 12 8a 0e 3e
       0.14352 -0.24182211 -0.007175762 0.13919857
0000d0 db a7 1d be dd ae 46 3e 2d ee 84 bd a8 c4 37 3e
       -0.15396063 0.19402643 -0.06490741 0.17946112
0000e0 34 8a 33 be ec d2 2d be 73 6c a5 3d fa ae e9 bd
       -0.17533189 -0.16974992 0.08077326 -0.11410327
0000f0 96 80 54 bd 48 cf 73 be 3b a4 0a be 3f d6 5a 3e
       -0.05188044 -0.2380954 -0.13539211 0.21370791
000100 24 24 90 3e 9a 33 a0 3d 89 f0 85 3c 93 72 02 3e
       0.28152573 0.07822342 0.016350048 0.12739019
000110 3e 1a 16 3e cb e6 db 3d ad 22 5a 3e a0 1c 17 be
       0.14658448 0.1073738 0.2130229 -0.14757013
000120 1c 19 5f be a2 77 b6 bd d0 be 00 be 1a 70 f6 3d
       -0.21786922 -0.08909537 -0.12572789 0.120331004
000130 61 93 dc 3d cd 28 ef bc 59 83 07 3e 5e a8 3f be
       0.10770298 -0.02919426 0.13233699 -0.1871657
000140 c1 47 2e 3e 3c a8 56 be 75 cd 29 3e 0c 1f b1 bd
       0.1701956 -0.20962614 0.16582282 -0.086485
000150 f4 18 09 3e 12 85 62 be 2f 04 2d 3e 95 04 25 be
       0.13388425 -0.22121075 0.16896127 -0.16115029
000160 67 47 85 3d 19 51 b0 bd 85 7d 24 be d7 cd 3f bc
       0.065077595 -0.08609218 -0.16063507 -0.011706791
000170 94 74 23 be 93 11 67 be cf 58 f7 bd e9 c3 67 be
       -0.1596244 -0.22565298 -0.12077486 -0.22633328
000180 b7 4b b4 bd f7 9f e4 3d 68 04 2f 3d ee 3d 04 3e
       -0.08803504 0.111633234 0.04272881 0.1291425
000190 25 2c 14 bd d0 ab c4 bd 14 85 54 bc 51 cb 6d be
       -0.036174912 -0.09603083 -0.012971181 -0.2322209
0001a0 bf 4b cc 3d d8 ac 66 be d2 91 3d 3d 93 45 16 3e
       0.09975385 -0.22526872 0.046281643 0.14674978
0001b0 a2 85 ca 3c dd ed 5e be df 98 15 bd 1b 0f 28 be
       0.024721924 -0.21770425 -0.036522742 -0.16412012
0001c0 02 fc 0b 3e 83 73 ec 3d c5 42 03 be 8e 8b 38 3e
       0.13670352 0.115454696 -0.1281844 0.18021986
0001d0 c3 97 8e 3d c3 90 e8 bc 97 5d 04 be c3 6d d4 3d
       0.0696254 -0.02838934 -0.12926327 0.10372498
0001e0 14 d3 97 bd 7a fa 0f bd a1 a7 b9 3d da 9d ab 3d
       -0.07413307 -0.035150982 0.09065176 0.08379717
0001f0 75 fc 43 3d a4 36 cb bd a8 e8 3f be 9a e0 48 bd
       0.047848184 -0.09922531 -0.18741095 -0.04904232
000200 5f 38 05 be 30 ea 50 be 1b 09 23 3e 94 2c b8 3d
       -0.13009785 -0.20401835 0.15921442 0.089928776
000210 66 91 8c 3d e8 b2 61 be a8 a3 0f 3e 53 b5 f9 bd
       0.0686367 -0.22040904 0.14027274 -0.12192788
000220 87 f5 8b bd a0 b6 ca 3d 67 5f 02 3e ed b7 23 3e
       -0.0683394 0.09898114 0.12731706 0.15988131
000230 11 75 68 3e 8a ba c4 bd 39 a4 04 3d 64 d0 0a bd
       0.22700907 -0.09605892 0.032383177 -0.033890143
000240 39 bf 49 3e 21 eb 1a 3e a8 75 31 3e ec 46 67 bd
       0.19701852 0.15128757 0.17330039 -0.05646412
000250 38 1b 4b 3e ab c9 0c be f0 48 91 3d cf df 6f be
       0.19834602 -0.13748805 0.0709399 -0.2342522
000260 86 55 97 be 82 02 37 3d 13 fb 3f 3e 4e e6 3d 3e
       -0.29557437 0.044680126 0.18748121 0.18544886
000270 2a 12 d8 3d c6 d0 6b 3b 0c fc 1d be f6 37 c5 3d
       0.105503395 0.0035982593 -0.1542818 0.09629814
000280 a6 b5 f7 bd b7 af 20 3e 6a 45 c8 bd c1 c7 07 bd
       -0.120951936 0.1569203 -0.09778865 -0.033149485
000290 e8 45 0f be 84 b0 97 3d 29 06 d8 bc 52 69 a8 bd
       -0.13991511 0.074067146 -0.026370125 -0.08223213
0002a0 3b 23 06 3c d7 f2 ac 3d 8c bb 28 be 3d db 99 bc
       0.008187111 0.084447555 -0.16477793 -0.018781299
0002b0 94 44 97 3d d1 02 58 be 17 e3 6f 3d bb a4 5a be
       0.07386127 -0.21094824 0.05856618 -0.21351902
0002c0 35 03 f6 3d fc 80 8a 3e ba a7 d9 3d 8e 31 88 3e
       0.120123304 0.27051532 0.106276944 0.26600307
0002d0 3c 08 fb 3b a7 73 2d 3e df b6 15 3e f3 c4 36 be
       0.0076608937 0.16938649 0.14620541 -0.17848568
0002e0 ee 74 2a bd 1d 18 b5 3c fb 99 0b bc 95 db 63 3c
       -0.04161542 0.022106225 -0.0085205985 0.013907333
0002f0 96 a8 41 be ef 64 8f 3d cd 37 97 3d 91 d0 57 3c
       -0.18911967 0.070016734 0.0738369 0.013172285
000300 ff c5 91 3c 57 72 13 3e c9 78 79 3e d2 63 1f 3e
       0.017794607 0.14399086 0.24362482 0.15565422
000310 21 94 8a bd 36 2b ac 3d f4 2c 6e be 2d 74 54 bd
       -0.067665346 0.08406679 -0.23259336 -0.051868606

net.2.weight f4 [200, 200]
000000 e2 39 14 bd 8b ce c0 3c 66 de 0e bd 14 fc f0 3c
       -0.036188014 0.023535987 -0.034880064 0.029417075
000010 65 be 03 3d 22 85 2f 3c 3f a2 9d 3d d6 05 8e 3c
       0.032163996 0.010712894 0.076969616 0.017336767
000020 a6 29 a8 bd df 18 00 3c bc bd af 3d e2 62 d9 bd
       -0.08211069 0.00781843 0.08581111 -0.106145635
000030 3c d8 b1 3c eb de 13 bd 32 f3 5c bd 19 3d be bd
       0.021709554 -0.036101263 -0.053942867 -0.09288997
000040 80 26 9a bd 2f 9c 7b bc 5e b1 fe bc ba 97 f7 bc
       -0.075268745 -0.015357061 -0.031090435 -0.030223716
000050 48 9f 95 bd a5 e3 1e 3d 5e a8 e3 bc 44 84 99 bd
       -0.07305771 0.038791317 -0.027790245 -0.07495931
000060 a7 eb a4 bc 9c 87 11 3a c5 b2 c5 bc ed 92 35 bd
       -0.020131899 0.00055515184 -0.024133096 -0.044329572
000070 19 25 70 3b ea a6 4f 3c b3 15 9f 3d 55 1b e2 3c
       0.0036643206 0.012674073 0.07767811 0.027600924
000080 63 bc 61 3a 4d 25 38 3d 92 71 19 3e a4 d6 dd bc
       0.00086111407 0.044957448 0.1498473 -0.027079888
000090 9c 5a 9c 3d 13 2d 69 bd 62 44 ba bc 8a 12 67 3c
       0.0763447 -0.05692775 -0.022737686 0.014103541
0000a0 08 ee 13 3d 28 a6 85 3a 5d da 6f 3d 8f 24 d2 3c
       0.036115676 0.0010196613 0.058557857 0.025652198
0000b0 27 13 0b 3d ae 6c 92 39 44 81 f2 bc 4a 13 e7 3d
       0.033953812 0.00027928263 -0.029602654 0.11282976
0000c0 45 8f 43 bc 18 1d e3 bc d3 d2 be bc 9c 86 8a bd
       -0.011936014 -0.027723834 -0.023293888 -0.06763956
0000d0 cb 8c df 3b 3d d9 2f bc 4d 6d 7e 3c 31 e3 94 3d
       0.0068222038 -0.010732946 0.015528989 0.07269896
0000e0 ed 9f 72 bd c3 3c b1 bd 12 ea fd 3c 60 a7 a9 bd
       -0.05923455 -0.086541675 0.030995402 -0.082838774
0000f0 c9 99 05 bd 1a d0 87 3d ca 5f 7e 3b 7c e2 57 bd
       -0.032617364 0.06631489 0.003881442 -0.052706227
000100 98 f0 b1 bd 5a e3 b4 bc 02 d5 f9 3b b8 a1 b6 3d
       -0.08688468 -0.022081066 0.0076242695 0.08917564
000110 c2 cb 26 3d 05 c2 b1 3d 1f f2 dc bd 24 2b c2 bc
       0.040721662 0.086795844 -0.107883684 -0.023702212
000120 fd f8 98 3d c8 52 2c bd e4 ba 58 bd 03 16 9d 3c
       0.07469366 -0.042071134 -0.052912608 0.019175535
000130 2e 37 89 bd aa 71 1c 3d c1 7f 00 bc 9d dd b4 3a
       -0.06699978 0.038194336 -0.007842959 0.0013798956
000140 b5 de 96 bd 4d 8a ca bc 60 da a1 bd 17 77 78 bb
       -0.07366697 -0.02472415 -0.0790298 -0.003791278
000150 75 06 82 bd d5 8a 88 3c 2c 13 a7 3d 94 8a b6 3d
       -0.06348888 0.016667763 0.081579536 0.089131504
000160 5c 8c 11 3d f8 be a9 bc 6d 8e 20 bd b2 84 d4 3c
       0.035534248 -0.020720944 -0.039198328 0.02594218
000170 dc 1f b5 bc af 2b 94 bc 3d 9d 83 3d 25 ec 78 bd
       -0.022109918 -0.018087236 0.06426475 -0.06077208
000180 40 bf bb 3c 10 c9 6e bd ad 15 42 3d 3d 71 86 bd
       0.022918344 -0.058297217 0.047383953 -0.06564567
000190 96 2d 17 bd 99 6f 4e 3c 3e fd 99 3d 07 91 87 bd
       -0.03690871 0.012599849 0.07519005 -0.06619459
0001a0 c1 a8 93 bd ab d1 92 bd ac c8 0f bd fc 4d 92 3d
       -0.07209922 -0.07168897 -0.035103485 0.071437806
0001b0 61 2a dc bc 25 a4 65 bb bc 73 ff bc 04 f7 ae bd
       -0.026875677 -0.0035040465 -0.031183116 -0.08543208
0001c0 a6 11 86 bd 2c aa 67 3d 60 95 47 3d 47 fe 6d bd
       -0.06546335 0.056558773 0.04872644 -0.058103826
0001d0 9d 8d 95 bc a3 2a fc bc 46 47 11 bd bc b6 45 3d
       -0.018256003 -0.03078205 -0.035468362 0.048269972
0001e0 de c2 80 bc 96 a0 38 3d ad 9f 5d 3d d9 55 d9 3d
       -0.01571792 0.04507502 0.054107357 0.10612077
0001f0 66 34 89 3d e6 20 39 3c 9f dd 64 bd df 53 30 3c
       0.06699447 0.0112993475 -0.055875417 0.010762184
000200 28 2c dc 3c 3e 50 62 bd db 89 d2 3c ff cb 8f bd
       0.026876524 -0.055252306 0.0257005 -0.07021331
000210 66 86 a4 bd c1 9b 1a bd 43 20 c5 3d 8f 31 2e 3c
       -0.08033447 -0.037746195 0.09625294 0.010631933
000220 85 f9 30 bd 22 1c a5 3d ea fd 06 3d c0 03 d4 bc
       -0.04320671 0.080620065 0.032956995 -0.025880694
000230 43 21 5f bd 24 88 85 3d 64 c7 b6 3b 8b c3 11 bc
       -0.05447508 0.065201074 0.0055779684 -0.008896719
000240 42 47 76 bc db 0f f7 bc 92 07 47 3d ec 7c 7a bc
       -0.015031638 -0.030158928 0.048591204 -0.015288573
000250 da 81 1a 3d f4 34 7d bb 82 1f 18 bd 1f af df bc
       0.037721492 -0.00386363 -0.037139423 -0.027305184
000260 6f 6b bd 39 23 fb cc bc 84 4b 2e 3c 61 c2 da 3d
       0.00036128933 -0.025022095 0.0106381215 0.10681606
000270 0d 9d 8e 3d 81 ad a5 bd 23 c4 1f 3d 3e 26 86 3d
       0.06963549 -0.08089734 0.03900541 0.06550263
000280 17 a0 06 3d fe 28 d1 3b a1 f9 ac bc 4f b5 62 3d
       0.032867517 0.0063830605 -0.021115126 0.05534869
000290 84 bb 0c bd 47 75 65 3c 02 48 fc 3c 8c 3b c9 3b
       -0.034358516 0.014005012 0.030796055 0.0061411317
0002a0 e8 0f 1f 3c a2 f0 65 3d f8 02 1a 3d 1f 14 b7 3b
       0.009708382 0.05613769 0.037600487 0.0055871154
0002b0 4a e1 62 3d f8 a4 9f 3c e4 85 75 3d b5 36 7a bd
       0.055390634 0.019487843 0.05994214 -0.06108733
0002c0 a0 f9 6e 3d fc 14 58 3d dc 92 07 3d 15 5e d5 3c
       0.05834353 0.052754387 0.03309904 0.026045838
0002d0 9f 92 1a bd c3 3e 03 3b e6 ff 5b bd bb a6 c1 bc
       -0.037737485 0.0020026423 -0.05371084 -0.023639074
0002e0 3a 6f f5 3c d1 41 36 bd c3 57 7b 3d 61 f3 34 bd
       0.029960264 -0.04449636 0.061362993 -0.044177417
0002f0 78 71 3b 3d 71 c3 cb bb 43 db 03 bd 23 d3 2f bd
       0.04576251 -0.006218367 -0.032191526 -0.042925965
000300 99 14 bf bb 36 03 1d bd ec ec 89 3d 0d f6 78 3d
       -0.005831313 -0.03833314 0.067346424 0.060781527
000310 48 bc af 3b c6 95 a8 bd 85 41 90 3d 2e 68 a6 bd
       0.005363021 -0.08231692 0.07043747 -0.081253394
000320 f0 72 e3 bb ed c8 77 bd b8 7c 99 3d 41 b2 bf 3d
       -0.006941192 -0.060494352 0.07494491 0.09360171
000330 60 26 04 bc b4 24 8b bd 88 c4 3a 39 d3 bf a1 bd
       -0.00806579 -0.0679411 0.00017811556 -0.07897916
000340 84 ca 24 3c 1a 3e 2a ba 37 c5 80 bd 21 04 bd 3d
       0.010058049 -0.0006494239 -0.06287616 0.09229303
000350 67 fa ca 3c c5 2e a2 3b 27 05 82 bd 5c aa 70 3d
       0.024777604 0.004949423 -0.06348639 0.058756217
000360 f0 93 51 bc de ca 8f 3d ac 13 34 bb d6 79 9a bd
       -0.012791619 0.07021116 -0.0027477546 -0.075427696
000370 21 a9 c6 3c 88 89 96 3d 63 55 e7 3c 96 90 0a be
       0.024250569 0.07350451 0.028238958 -0.13531718
000380 4c 09 86 bd 31 47 cc 3d bd a0 f7 3c 29 8a 5c 3d
       -0.06544742 0.09974516 0.030228013 0.053842697
000390 d9 ab 91 bc a7 ba 7f 3b 4f a2 41 3d 96 8f 14 bd
       -0.017782139 0.0039021166 0.04727393 -0.036269747
0003a0 98 97 24 bd 47 2f 52 3d d4 1f 99 3d 07 1a 00 bc
       -0.040183634 0.05131462 0.07476774 -0.007818705
0003b0 ae 7c 5d 3d 19 ff ab 3d a6 6f 18 bd 90 87 60 3d
       0.054073982 0.083982654 -0.03721585 0.054816782
0003c0 c7 0d 1a bd 1d 00 20 3d 32 2f 93 3d 89 92 a4 3d
       -0.037610795 0.039062608 0.07186736 0.08035762
0003d0 e5 ec 3b 3d e5 10 ff ba 4d 8b a6 3b 8a d5 06 3d
       0.045880217 -0.0019459991 0.005082524 0.03291849
0003e0 ca 4d b3 3d 94 f8 8b 3c af 5d 6e bd d1 81 29 3d
       0.087550715 0.017086305 -0.058194812 0.04138357
0003f0 da f2 68 bd 49 95 91 3d 39 10 de 3c ee b6 25 bb
       -0.056872226 0.07108552 0.027107345 -0.0025286037

net.2.bias f4 [200]
000000 29 91 ad 3b a8 85 a0 bc e6 3c 82 bc 3c ea 2d 3d
       0.0052968455 -0.019594982 -0.01589818 0.04245971
000010 0b 7b c1 3c 16 04 23 3d 82 29 52 3d d9 b4 6c 3a
       0.023618242 0.03979882 0.051309116 0.0009029634
000020 ac 7a 06 3d 4f 5c 1f bd 9a 0b ad bd 0e 98 20 3d
       0.032831833 -0.03890639 -0.084494784 0.03920751
000030 e5 ca 7f 3d 14 9e 1b bd 7c 82 1d bd 32 8c d6 3c
       0.062449355 -0.037992552 -0.038454518 0.026189897
000040 73 e0 8d bd 02 08 62 3d 53 d6 33 3d a0 b3 46 3d
       -0.06927576 0.055183418 0.043905567 0.048511147
000050 b6 f7 6c 3d 4d 4b 02 3c dc 85 3e bb 99 e6 28 3d
       0.057853423 0.007952523 -0.0029071486 0.04123554
000060 c6 f8 ad 3b 15 a9 67 3d b8 03 cd 3c dd a5 76 bc
       0.005309197 0.056557734 0.025026187 -0.015054193
000070 86 0c da bc d5 f3 8f bc cb 6b 6d bc 5b 9f f1 bc
       -0.0266173 -0.017572323 -0.014491032 -0.029494932
000080 f1 20 7e bc a2 c3 ca bc b0 71 91 3d f4 d5 90 3d
       -0.0155107835 -0.024751488 0.07101762 0.07072058
000090 32 6b 06 bd f3 7d f6 3c 7b 95 e6 3b 46 27 8b 3d
       -0.032817073 0.030089354 0.0070368624 0.067946
0000a0 ff 59 12 b4 7c e8 4b 3d 7c 5d 23 3d 5f 47 b0 3b
       -1.363005e-07 0.04978226 0.039884076 0.005379602
0000b0 7c a6 84 3d 20 d5 50 3c 2b ad f2 ba 60 4c 29 3d
       0.06477067 0.012746125 -0.0018514743 0.041332603
0000c0 f8 c5 8c bc 6b 0e 77 3d 2e 61 ab 3d d9 b6 09 3d
       -0.017184243 0.060316484 0.08368145 0.033621643
0000d0 36 53 a2 3d 6e 3f 0a 3d e0 25 94 3c 50 ec ed 3c
       0.079260275 0.033751898 0.018084466 0.029043347
0000e0 c6 79 2c bd 3d 58 f0 bc a4 aa 8a bc 53 d3 34 bd
       -0.04210832 -0.02933895 -0.01692707 -0.044146847
0000f0 ce 79 58 3c c6 1f 85 3c e6 ea 26 bd cc e7 06 bd
       0.013212634 0.016250502 -0.04075136 -0.032935902
000100 1c 05 84 bb 6e 79 28 ba 52 11 94 bd b6 ca 49 bd
       -0.0040289294 -0.0006426786 -0.07229866 -0.049265586
000110 36 cf b5 bb f1 71 26 bd 63 3d 8c bc 0c a3 0e bc
       -0.005548383 -0.040636007 -0.017119115 -0.008705866
000120 16 f2 52 bd dd 79 ec bb dc 76 93 3c ca af 36 bd
       -0.051500402 -0.0072166757 0.018001013 -0.04460124
000130 69 38 d3 3c 2f 10 71 3d bd a3 1f 3a 69 0a 99 bc
       0.025783734 0.058853325 0.00060897676 -0.018681722
000140 5e 23 f4 bc 6b 96 ec 3c 01 22 6d bd d9 96 9d 3c
       -0.02980202 0.028880319 -0.057893757 0.019236969
000150 b4 10 d0 3b aa 82 5d 3d 7c ff 76 3c 70 ce f7 3b
       0.0063496474 0.05407969 0.015075561 0.007562451
000160 69 4b a6 3b a1 7c c9 bc 05 d1 12 bd 12 c3 2a bc
       0.0050749076 -0.02459556 -0.035843868 -0.010422485
000170 22 7c 53 bd 37 c8 85 bb 27 c0 a0 bd 67 e6 7f 3c
       -0.051632054 -0.0040827054 -0.0784915 0.015618897
000180 0a 99 5e bd 9b 6f 8e bc d6 28 99 bc 9a 08 37 3d
       -0.05434517 -0.017387202 -0.01869623 0.044685937
000190 83 12 14 bc e2 f8 89 bd 58 04 a6 bc cc e7 30 bd
       -0.009037617 -0.06736924 -0.020265743 -0.04318981
0001a0 fc d2 9d bc 02 16 14 ad c9 9f 84 3c 06 b4 80 3d
       -0.019265644 -8.417713e-12 0.016189473 0.06284337
0001b0 0d 62 6d 3d a7 e7 dd 3c 1f 2d 42 bd 36 4a fa bc
       0.057954837 0.027088 -0.047406312 -0.030552965
0001c0 0e d5 89 3d 60 31 9b bd 07 13 15 3d 3f 59 b1 bc
       0.0673009 -0.07577777 0.0363951 -0.021649001
0001d0 fe 3b 18 3d fc 5d 8d 3d 15 bf 5b bd b9 df 0e 3d
       0.037166588 0.06902692 -0.053649027 0.034881327
0001e0 0e f8 23 bd b4 f3 ae 3d 46 83 81 3d 24 4a 11 3d
       -0.040031485 0.085425764 0.063238665 0.035471097
0001f0 4a cd af 3c df a5 4e bd ba 75 ed bb 61 f4 6a bd
       0.021460194 -0.050451156 -0.0072467 -0.057361964
000200 01 59 d8 3c 9b 00 2b bd c0 ed b3 3c 2a 2e 88 bc
       0.026409628 -0.041748624 0.021963954 -0.016623575
000210 89 ce 51 3c 83 e4 56 bd 12 b9 2e bd 81 cd 9a 3d
       0.0128055895 -0.05246402 -0.042656966 0.07558728
000220 7a e5 83 3d 72 aa 89 bc 73 9d a7 3c 35 c4 a8 3d
       0.064402536 -0.016804907 0.02046082 0.082405485
000230 89 ef 5e 3d 84 8d 87 b4 12 15 98 3b 06 64 0c bd
       0.054427657 -2.5248676e-07 0.0046411837 -0.034275077
000240 9d ad e9 3c 81 2c 6e bd 57 e2 2d bd a4 9b 60 3d
       0.028525168 -0.05814791 -0.042452183 0.05483593
000250 08 1a 66 3d 7c f8 43 3d 45 91 58 bd 0d 57 71 3d
       0.05617717 0.047844395 -0.052872915 0.05892091
000260 99 3c d1 3c 50 a5 b9 3b 73 17 00 3c 9c 84 70 3d
       0.02554159 0.0056654587 0.007818091 0.058720216
000270 b5 46 81 3d 01 0c d1 bc 72 66 63 bd 9e 13 15 ac
       0.063123144 -0.02551842 -0.05551762 -2.1185063e-12
000280 a3 b0 37 3d aa 8d a0 3c fe 0d 24 bd 22 e7 81 3d
       0.04484619 0.0195988 -0.040052406 0.06342913
000290 95 ee 23 3d 9d 21 98 3b 98 f2 2e 3d 3d b1 9e ba
       0.04002245 0.004642679 0.042711824 -0.0012107264
0002a0 88 c1 01 bd d2 24 6a 3d c0 7a fd bc 07 89 8e 3c
       -0.031678706 0.05716402 -0.03094232 0.017399324
0002b0 86 c4 06 3c 24 13 93 bd ca 87 7c 3d 47 99 72 3d
       0.008225566 -0.07181385 0.061652936 0.059228208
0002c0 08 d7 29 bb ca 52 80 3d 18 73 94 3d f0 22 87 3d
       -0.0025915522 0.06265791 0.07248515 0.06598461
0002d0 4a fd b4 b6 f1 a3 89 bd c3 3e 90 bd 04 29 a6 3c
       -5.3939048e-06 -0.067207225 -0.07043221 0.02028323
0002e0 97 80 28 3d d7 49 b0 3c 7d 79 c0 3c 8d b2 df bc
       0.041138258 0.021519585 0.02349543 -0.02730682
0002f0 16 b7 9f 3c 71 f9 26 3d 4d dc a7 bd 00 25 60 bd
       0.019496482 0.04076523 -0.08196316 -0.054722786
000300 48 4c a6 bc 13 3b 6c bd 3f c2 35 bd 80 ef 28 bc
       -0.020300046 -0.057673525 -0.0443747 -0.0103110075
000310 17 e7 97 bb 18 60 16 3b 5a d5 2d bd 9a 1e 8b a3
       -0.0046357024 0.002294546 -0.042439796 -1.508337e-17

net.4.weight f4 [200, 200]
000000 d1 0d 76 3d 61 2d 10 3d 97 f2 81 3d ac 7e f2 3c
       0.06007177 0.035199527 0.063450985 0.029601417
000010 ea f8 74 bb bf b8 91 bd 66 a6 00 ba 73 23 5f bd
       -0.003737981 -0.07115316 -0.0004907608 -0.054477166
000020 e9 13 b7 bc 86 08 9a 3c 89 60 5f 3b 8e 19 f5 bc
       -0.022348361 0.018802892 0.003408464 -0.029919412
000030 e3 a6 75 3d 91 be 44 bd b5 20 87 bc d8 3a b6 bc
       0.05997361 -0.0480333 -0.016495088 -0.022244856
000040 ee ac 56 3c 32 a2 be bc 29 67 3f 3c 52 c1 7c 3b
       0.013102753 -0.0232707 0.01168231 0.0038567376
000050 59 95 a6 bc ff fd 22 3d 8a 31 16 bd e6 d9 40 bd
       -0.020334886 0.03979301 -0.036668338 -0.047082804
000060 80 22 4b bc c6 75 6a 3d 91 5d 0b 3d 27 bc ba 3d
       -0.012398362 0.057241224 0.03402478 0.091179185
000070 d7 59 59 3d 6a 01 e3 3c 54 d2 1c bd f7 a7 a5 bc
       0.053064194 0.027710635 -0.038286522 -0.020221693
000080 02 03 c8 bc e4 d5 5e 3b 7a 6a e3 bc ea 9b 86 3c
       -0.024415497 0.0034002 -0.027760733 0.016431767
000090 fb 6d 9f 3d f1 d0 9b 3c 94 02 f6 bc 88 0e 4c bd
       0.07784649 0.01902053 -0.030030526 -0.049818546
0000a0 55 84 19 a6 be 5f 88 bd c2 a0 85 bd 6a b1 94 3d
       -5.326188e-16 -0.066588864 -0.06524803 0.072604015
0000b0 f5 de a9 3a 0c f7 00 bd 6e 17 65 bd 19 bf 4c bd
       0.0012960123 -0.031485602 -0.055930547 -0.049986932
0000c0 a3 93 a0 bc ef 82 4c bd ef 30 17 3c 79 50 b9 bc
       -0.019601649 -0.049929556 0.009227975 -0.02262138
0000d0 7d 59 f8 bb 92 4c 8c 3d 98 c5 a3 bd f1 d6 21 3d
       -0.007579027 0.06850542 -0.079966724 0.039511625
0000e0 f9 d4 d2 bc 01 e0 7b 3d 60 ea 88 3d e5 35 c9 bc
       -0.025736319 0.061492924 0.066853285 -0.024561832
0000f0 0e 03 8b 3d 19 11 8f bc 83 87 fe bb 17 8d 63 3d
       0.06787692 -0.017464207 -0.007767619 0.055554476
000100 b1 6d 82 3d e2 35 8a 3d 74 f3 16 3d 24 87 d7 bd
       0.06368578 0.067485586 0.03685327 -0.10523823
000110 ac 5d 05 3d a1 52 8a 3d 2b d5 ac 3d d0 6e bc bc
       0.032560036 0.067540415 0.08439096 -0.023002058
000120 d5 ed a9 3d 8e 93 e5 bc f4 e1 f5 bc be 04 20 3c
       0.08297316 -0.028024461 -0.03001497 0.009766756
000130 66 51 34 3d 25 ef 47 bd 8a 94 bc 3d cb 8a d3 bb
       0.04402294 -0.04881205 0.09208019 -0.0064557544
000140 02 f5 af bd fd f2 a4 3c 0f e4 73 bc 57 2b 12 3d
       -0.085916534 0.020135397 -0.014885916 0.035685863
000150 c3 0b 92 bd ac cc b9 bc a9 d6 ec bc b7 42 6b b8
       -0.071311496 -0.022680603 -0.028910952 -5.60905e-05
000160 8e e4 e5 3c af c0 ba 3d 16 c3 d2 bc 99 40 1c 3d
       0.028063085 0.09118783 -0.02572779 0.038147543
000170 66 bf 5a bd 59 8d ae 3d bd 1e 1e 3d d4 72 bd bc
       -0.053405188 0.08523054 0.038603533 -0.023126043
000180 44 c5 5b bb 9a fb 39 3d 96 68 78 bb bd f2 8f bc
       -0.0033534328 0.04540596 -0.0037904135 -0.017571801
000190 62 72 85 bd 2b 1d 40 bd 77 3e 76 3d b9 8b f9 37
       -0.065159574 -0.046902817 0.060118165 2.9748177e-05
0001a0 99 9d bb 3d ec 95 ca a9 44 38 33 bd 45 27 71 3d
       0.09160919 -8.996609e-14 -0.04375483 0.05887534
0001b0 f3 ef 21 bd 3b b6 c1 3c fb 12 58 3b 9a 8e 06 bc
       -0.039535474 0.023646465 0.0032970298 -0.00821271
0001c0 5a 46 55 3d 9a b3 48 3d ce bc 37 3d 05 96 66 3d
       0.052069046 0.048999406 0.044857793 0.056295414
0001d0 f5 b7 df 3c 63 28 87 bd 61 b3 8c bc cb ca 1b 3d
       0.027309397 -0.065995 -0.017175378 0.038035195
0001e0 c7 25 cb bc 7e 64 cd bd 4c 28 92 3c c3 24 6a 3d
       -0.024798287 -0.10028933 0.01784148 0.057163965
0001f0 e6 55 4f 3d b7 ed ad 3b 69 bf 8a bd 05 69 3e 3c
       0.05061903 0.005307879 -0.0677479 0.011621718
000200 5d 7c a0 3d 3c 4f 52 bc c7 3c 4f 3d f7 36 8b 3d
       0.078362204 -0.012836274 0.05059507 0.06797593
000210 fe 72 97 3d 55 a4 e2 3c 23 6a 5c 3d 18 44 91 bc
       0.0739498 0.02766625 0.053812157 -0.017732665
000220 21 71 e2 3c e6 71 fd 3c c7 b8 13 bd 57 28 4a ba
       0.027641835 0.0309381 -0.03606489 -0.00077116996
000230 f0 96 92 3d 24 ab 22 af 0e 2c 91 bb ef 24 34 3c
       0.07157695 -1.4794616e-10 -0.0044303006 0.010995134
000240 6d 1e 0d 3d f5 0e c3 3d 07 83 a1 3d 3d ef 47 bd
       0.034452844 0.09524337 0.078863196 -0.04881214
000250 d2 6e a0 bd 05 9e 36 bd 9d 02 41 3d 93 6c 42 3d
       -0.07833637 -0.044584293 0.047121633 0.047466826
000260 1d 9a f5 3d 13 40 72 bc 05 fc 25 bc 6d ec 08 bd
       0.119922854 -0.014785784 -0.010130887 -0.0334286
000270 6d 5f 20 bd 9b 39 34 3c c6 65 b2 bc 27 3e 98 29
       -0.039153505 0.011000062 -0.021777045 6.760938e-14
000280 0e ba e4 3b 09 8d 3d bd ea d0 8b 3c a2 48 89 bc
       0.0069801873 -0.04627708 0.017067391 -0.016758267
000290 05 b4 bf bb 0e b2 e4 3b 97 77 86 3c dd 75 7d b4
       -0.0058503174 0.0069792336 0.016414447 -2.360534e-07
0002a0 3f 74 09 3d 82 80 5a bd 38 40 a0 3c b7 6c 8f 3d
       0.033558127 -0.05334521 0.019561872 0.070031576
0002b0 b5 9a 93 bc 37 9e 1e 3d 4f 27 3d bc 91 d0 11 3d
       -0.018018106 0.038725104 -0.011545016 0.035599295
0002c0 0a 87 30 3c 17 c3 06 3d 04 12 bb 3a 13 33 50 bd
       0.010774383 0.032900896 0.0014272337 -0.05082996
0002d0 f9 36 e7 92 36 4f 21 3d c4 c6 74 3d 29 29 44 3c
       -1.4591701e-27 0.039382182 0.05975987 0.011972704
0002e0 0a 61 8c bd 57 17 ef bc 3a af 22 3d d5 ff 9a 3d
       -0.06854446 -0.029185934 0.03971789 0.07568327
0002f0 b5 f2 24 bd f2 39 09 3d a6 b7 ad 3d 77 cc 4d 3d
       -0.040270526 0.033502527 0.08482294 0.05024382
000300 0d 7f 8b 3d ee b8 80 bd 2d ab 75 3d 2d 8c 98 bd
       0.068113424 -0.062852725 0.0599777 -0.074486114
000310 7f a1 0b bd 6e 23 af 3b 00 1c d2 3d ef a9 b0 21
       -0.03408956 0.0053447997 0.10259247 1.1971205e-18
000320 a1 68 82 3d 1f 34 89 bd 3b 4a a1 bd cf 40 92 3d
       0.06367613 -0.066993944 -0.078754865 0.071412675
000330 23 09 aa 3d b4 b8 b0 3c 00 a5 c2 bc 0f fc f9 3d
       0.08302524 0.021572448 -0.023760319 0.122062795
000340 04 71 cd 3c 6e 60 6b 3d 29 86 d1 bc 35 c2 7e 3c
       0.025078304 0.05746501 -0.025576668 0.015549232
000350 78 80 50 bd 7c 89 b8 3c 69 72 88 3d f1 f0 2f bb
       -0.050903767 0.022526495 0.06662447 -0.0026846493
000360 f9 b3 2b 3d a8 44 ae bb 1c 4b 78 3c b4 79 16 3d
       0.041919682 -0.005318243 0.015154626 0.03673716
000370 94 a9 74 bb 25 ec 7e 3c 70 50 e6 3d 5c 33 06 bd
       -0.0037332522 0.015559231 0.11245811 -0.032763824
000380 f9 61 44 bd e2 15 d0 bc 8c a9 b6 3c 1f 1a f9 3c
       -0.047944997 -0.02540106 0.022297643 0.030407963
000390 27 9b 05 bb 68 9f 54 bb d8 5d 0a 3e 7d 60 24 3d
       -0.0020386667 -0.0032443646 0.13512361 0.04013108
0003a0 d2 23 53 3b f0 2c 81 3d 1f 8a 54 bd a2 2d 23 bc
       0.0032217395 0.06307399 -0.051889535 -0.00995961
0003b0 ae 4b ae bd 63 2e f2 bb 0f d3 d8 3a c4 8d 9b 3d
       -0.085105285 -0.0073907836 0.0016542393 0.07595399
0003c0 eb cc 8e 05 62 9b 94 3c 1a a9 4b bd 68 d0 01 3d
       1.3428891e-35 0.018140499 -0.049721815 0.031692892
0003d0 4c dd 01 bc ce 06 c9 3d 1c a4 32 3d f2 9b ed 3c
       -0.007926296 0.09815751 0.04361354 0.029005025
0003e0 c7 0c 84 bd 81 ef 8d 3d eb 09 db 3d 2c c1 c7 3d
       -0.064477496 0.06930447 0.10695251 0.097536415
0003f0 09 d5 1a bc 64 44 90 bc a3 ec eb 3c d2 37 f0 bc
       -0.009450206 -0.017610736 0.02879936 -0.029323492

net.4.bias f4 [200]
000000 b7 ac 92 bd 14 08 2e 3d bb 56 f6 3c c9 a7 97 3d
       -0.07161849 0.042488173 0.030070653 0.07405049
000010 26 12 2b bd cd 6b c7 bc 9c aa aa bb 2f ba 29 bd
       -0.041765355 -0.024343396 -0.0052083265 -0.041437324
000020 f6 34 fa 3c f1 c8 dd 3c 16 64 85 3d 19 da 67 3d
       0.030542832 0.027073355 0.065132305 0.05660448
000030 47 12 3e 3d e0 46 07 3c 64 1d da 3c 22 0c a6 b9
       0.04640415 0.008256644 0.026625343 -0.00031671027
000040 81 44 83 3d ec bc 09 bd c6 c7 9d bb d2 f1 b4 bc
       0.064095505 -0.033627436 -0.0048150746 -0.022087965
000050 c2 a1 ec bb 1c a2 76 3c c5 c1 d0 3d c4 02 25 3b
       -0.0072214315 0.015053298 0.101932086 0.002517865
000060 90 fa e8 bc e3 a7 9e 3d 3f 06 0f bd a9 1e 14 3d
       -0.02843979 0.077468656 -0.034918066 0.036162052
000070 78 47 de 3c 22 af 7e bd af e4 19 3c 3c 29 cb bc
       0.027133688 -0.06217874 0.009392901 -0.024799936
000080 b5 3c 27 ac 5d 60 44 8b f3 7b 6f 38 93 f8 26 3c
       -2.3765827e-12 -3.7820723e-32 5.7097477e-05 0.010191101
000090 92 07 13 bc 91 bd 73 3c 74 b3 e3 bc d4 1d 2c 3c
       -0.008973973 0.014876739 -0.02779553 0.010505158
0000a0 c6 e2 01 bd 6e c9 48 b3 ae c0 da b8 f0 86 b0 3d
       -0.03171041 -4.6749328e-08 -0.000104309394 0.08619487
0000b0 3a 22 62 bc e4 8c dc bb 21 55 ce 3d 30 7b 76 bc
       -0.013802106 -0.0067306627 0.10074831 -0.015044019
0000c0 e5 aa 9d b3 44 28 e3 b5 95 fe d9 3c d4 de 04 bd
       -7.341968e-08 -1.6924537e-06 0.026610652 -0.032439068
0000d0 34 00 8c 3d 53 c1 d1 bb 09 24 57 3d 3b c2 37 3c
       0.06835976 -0.00640122 0.0525246 0.011215742
0000e0 02 6a 29 3d c2 14 6c bb e2 66 11 3c d1 1b 8a 3c
       0.041360863 -0.0036023115 0.008874627 0.016858967
0000f0 52 68 1c bc b0 9c 74 3d 7d 41 df bc 3f ec d5 3d
       -0.009546356 0.05971974 -0.027252907 0.10445451
000100 60 05 da 3d e2 20 2e 3d b6 81 42 bc 80 0e 8a bd
       0.106455564 0.04251183 -0.011871746 -0.06741047
000110 2a 97 2d bc cb fa 5f 3d 3e 9b d1 3c 6c 0a 9c 3b
       -0.010595122 0.054682534 0.02558672 0.0047619846
000120 40 6a 87 3d ec 46 57 3d 54 00 a7 3d 72 2c 61 3d
       0.066120625 0.05255787 0.081543595 0.054974027
000130 00 ed e9 bc 78 87 b2 3b a9 05 93 3c c2 d1 24 3d
       -0.028555393 0.005448278 0.017947035 0.040239103
000140 bd ac 1f 3d 3b 11 35 b2 65 0a 65 bd 98 3b b5 b5
       0.038983095 -1.0539504e-08 -0.055918116 -1.3502895e-06
000150 0c 00 5b b9 54 65 d6 3c 2e d3 2b 3d 47 6f 75 3d
       -0.00020885485 0.026171364 0.041949444 0.059920575
000160 70 01 0d 3c 79 bc 55 bd 73 9b 11 3d b2 29 32 3d
       0.0086063 -0.052181695 0.03554864 0.043496795
000170 63 d7 9f 3d 37 86 0b bd 58 75 ea 3c 85 1c 9e 39
       0.07804754 -0.034063544 0.028620407 0.00030157357
000180 19 5f 17 b4 06 04 3a 3d db f9 2b 38 c4 70 8b 3b
       -1.4097567e-07 0.045413993 4.1002273e-05 0.004255386
000190 a4 71 00 3d b4 d2 19 bd 0e 51 e2 bc e1 02 9b 3d
       0.031358376 -0.037554458 -0.02762654 0.075689085
0001a0 dd 69 e6 bc 5f e2 f1 3c a9 23 1d 3d 0e b7 22 3d
       -0.028126651 0.029526887 0.038364086 0.039725356
0001b0 05 97 bf bc 9c 05 24 3d 63 05 6e 3d 19 1a 6b 3c
       -0.023387441 0.040044412 0.058110606 0.014349484
0001c0 07 5f 80 bc d5 4d a0 3c c5 2c 17 bd 36 b2 49 3d
       -0.015670313 0.019568363 -0.03690793 0.04924222
0001d0 34 99 88 3d 91 28 c9 3d 03 90 a1 3d dd 66 b3 3b
       0.06669846 0.098221906 0.07888796 0.0054749087
0001e0 d2 02 18 ba 83 b5 6c 3d e4 20 c9 3d 61 da 91 b9
       -0.000579876 0.05779029 0.098207265 -0.0002781926
0001f0 0c 35 47 3c 74 60 32 bc 80 2a 4e bd 43 de f1 3c
       0.012158643 -0.010887254 -0.0503335 0.029524928
000200 b4 df 2f ae 79 e1 62 3d 73 36 8c 3d 92 8a 48 ab
       -3.998908e-11 0.05539081 0.06846323 -7.124658e-13
000210 9c c9 65 3c 95 08 b1 ba 4d b9 58 b3 9b 04 71 b9
       0.014025118 -0.0013506586 -5.045995e-08 -0.00022985267
000220 04 86 32 bb c9 81 c0 3d 69 10 fc b1 b9 a9 a3 bc
       -0.0027240524 0.093997546 -7.336031e-09 -0.019978391
000230 fc fe da bc 8f 0a 06 3d 47 73 89 3b d0 8c 89 3d
       -0.026732914 0.032724913 0.0041946503 0.06716311
000240 3e 2b 9a 3d cc b1 44 3c 2e b2 9e 3d f1 e2 b9 bc
       0.07527779 0.012005281 0.07748829 -0.022691222
000250 6b 2b 90 bb 70 b4 ad 3d 04 bf a6 94 d9 35 6c bd
       -0.004399707 0.08481681 -1.6837059e-26 -0.05766854
000260 c8 cf 1c 3d fa 5e be bc d4 2d 25 3d 49 6b 4e bd
       0.038284093 -0.023238648 0.04032691 -0.050395284
000270 6c 4f 43 bd 4e 2a 0e bd 06 3c 16 b9 46 33 3f ad
       -0.047683164 -0.034708314 -0.00014327475 -1.0868478e-11
000280 03 29 40 bd e3 8d 0b 3c 44 50 b3 3c ff 40 29 8d
       -0.04691411 0.008517715 0.02188886 -5.215538e-31
000290 b0 37 81 3d f5 9d 45 3c 94 97 57 3d 53 75 3c 3d
       0.0630945 0.012061586 0.05263479 0.046010327
0002a0 b6 cc 2b ba 92 1f a6 3b b4 28 00 3e 47 45 03 bd
       -0.00065536366 0.0050696814 0.12515527 -0.03204849
0002b0 aa 27 17 bd 9b 4a 33 ae d5 58 1c bc 32 c4 74 3d
       -0.03690306 -4.076615e-11 -0.009542664 0.05975742
0002c0 6a 6c 62 3d ee 24 4e 3d ea 82 5f 3d bd c7 2c 3d
       0.055279173 0.050328188 0.05456821 0.042182673
0002d0 9b f3 84 3d c6 d7 99 3d 24 3c 83 bc 5e 83 7d 3c
       0.064917766 0.07511859 -0.016019888 0.015473215
0002e0 2e 34 6f 3d 7e a4 d5 3d 51 6a 36 3c 10 ff e0 bc
       0.05839937 0.10431765 0.011133746 -0.027465373
0002f0 6c da ed 34 5b cb 53 3d 41 f7 24 bd fc f5 10 3c
       4.4303613e-07 0.051707607 -0.040274862 0.00884771
000300 c3 34 43 3d 27 a5 0b 3d 88 b7 ad 3c 91 d1 eb bc
       0.04765774 0.03409305 0.021205679 -0.028786452
000310 a8 d1 32 3d ab 8e 67 3c ed 6c d8 3c 9c b2 bf 3d
       0.043656975 0.014133136 0.026419127 0.09360239

net.6.weight f4 [200, 200]
000000 e4 75 4b 12 70 25 bb 21 10 2d 49 00 d8 86 0f 00
       6.4200817e-28 1.2681523e-18 6.720157e-39 1.425905e-39
000010 b7 38 40 15 41 3d 9d ac 0b c9 0e 00 40 e0 1e 2d
       3.881883e-26 -4.469009e-12 1.357818e-39 9.031054e-12
000020 17 29 31 0f 62 68 d5 ae 8e 89 4e b3 a3 be 2c 00
       8.7346874e-30 -9.704661e-11 -4.8088218e-08 4.10915e-39
000030 98 77 42 00 46 9c a7 b3 38 54 80 88 e4 f1 47 00
       6.104045e-39 -7.8049695e-08 -7.7235195e-34 6.607094e-39
000040 ab a7 ee a0 7b f9 8c 9d 6f be 52 80 a5 25 04 80
       -4.0429722e-19 -3.731565e-21 -7.598825e-39 -3.80846e-40
000050 56 c4 cd 09 6f 93 cc 2e 8f fa d6 b0 24 92 3e 2e
       4.953659e-33 9.3030354e-11 -1.5641762e-09 4.3330797e-11
000060 3c f0 d9 90 92 71 15 00 e2 8c ad b0 43 43 00 00
       -8.596155e-29 1.969287e-39 -1.2627448e-09 2.4129e-41
000070 56 46 f6 0b 96 1f 7d 29 8c ff 47 00 9d 82 3c 80
       9.4861583e-32 5.620468e-14 6.611993e-39 -5.556985e-39
000080 e1 08 0c 00 90 ef 0e 80 7d 66 1f 80 b7 32 38 00
       1.105211e-39 -1.371636e-39 -2.883666e-39 5.160981e-39
000090 d8 fd 01 30 e1 ff b6 1d e4 19 18 00 43 3c 0e 07
       4.729066e-10 4.843957e-21 2.21334e-39 1.0700602e-34
0000a0 26 a9 16 80 dd 89 07 80 f5 03 2f 00 1a e1 9a 34
       -2.08106e-39 -6.92304e-40 4.317688e-39 2.8848518e-07
0000b0 a0 9f 00 2f 24 86 1e 00 82 38 a2 b4 a6 68 b4 31
       1.1698242e-10 2.803185e-39 -3.0215966e-07 5.2505866e-09
0000c0 a5 66 39 80 7b ba 42 80 82 f6 fe a8 84 34 0a 80
       -5.271445e-39 -6.12804e-39 -2.830657e-14 -9.37194e-40
0000d0 f3 bb 6b ab f1 b7 4f ac 80 18 5b ad 20 36 b0 ac
       -8.3749603e-13 -2.9518577e-12 -1.2454149e-11 -5.00823e-12
0000e0 0d c7 5d 2a 7c 7b da 2d 35 43 14 00 cf 4e 82 b1
       1.9697803e-13 2.4838569e-11 1.860819e-39 -3.7924575e-09
0000f0 6b 8b 25 00 72 ff 64 a8 4e 1f 2a 80 fd ab 34 00
       3.447927e-39 -1.2711933e-14 -3.868321e-39 4.837144e-39
000100 dd e0 04 99 8c 6e dc b3 e8 1c 3b 00 7c e1 48 b1
       -6.869651e-24 -1.0264657e-07 5.428664e-39 -2.9232003e-09
000110 aa c8 1e 00 63 ac 2a 08 f2 e9 47 00 87 03 7f a1
       2.82705e-39 5.1360154e-34 6.604244e-39 -8.640203e-19
000120 f1 6b ff b0 bb b5 88 1f 14 ae 33 00 e0 dd 38 2f
       -1.8584371e-09 5.789889e-20 4.746058e-39 1.6813528e-10
000130 c3 09 16 00 30 9b 97 b3 d6 31 a5 b1 3e ff 42 80
       2.023883e-39 -7.059714e-08 -4.8077977e-09 -6.152706e-39
000140 e6 c3 1c a6 4e 40 45 80 4d 10 64 25 a2 a8 0c 80
       -5.4388864e-16 -6.359717e-39 1.978137e-16 -1.16252e-39
000150 d6 0a 45 00 5c 2e 4b 14 a3 c1 a3 ac d8 69 ab 2f
       6.340536e-39 1.0258024e-26 -4.6542366e-12 3.1179925e-10
000160 7d 9e b1 23 8d 53 13 80 6d 42 34 b0 13 ee ce b0
       1.9257501e-17 -1.774847e-39 -6.5578015e-10 -1.5056137e-09
000170 51 23 23 22 3d b8 00 80 02 6c f5 ab dc 2c 3d 00
       2.2109316e-18 -6.6092e-41 -1.7438275e-12 5.618058e-39
000180 5b de 30 80 4b 47 90 2f 8e 6e 38 00 ad de 67 a7
       -4.48787e-39 2.6244104e-10 5.182447e-39 -3.2178403e-15
000190 8d d7 4b 9f 25 69 2a 00 f2 3e 99 ae da e9 cb b1
       -4.316522e-20 3.89481e-39 -6.968816e-11 -5.9346634e-09
0001a0 13 bf 43 ac f4 37 e1 06 30 22 72 1b 4c 7a 0f 00
       -2.7817234e-12 8.471781e-35 2.0028817e-22 1.421404e-39
0001b0 43 92 42 80 1c 90 63 aa 95 06 0a ae ad 86 03 00
       -6.113612e-39 -2.0211648e-13 -3.1383413e-11 3.23819e-40
0001c0 41 96 4d b0 a4 e7 05 b1 e5 05 bf 2d 14 8a 1b 00
       -7.479209e-10 -1.948572e-09 2.1716804e-11 2.529091e-39
0001d0 2a 2f 08 b4 fb 66 01 22 09 09 4a 80 31 ce 47 28
       -1.2683145e-07 1.7537277e-18 -6.799068e-39 1.109143e-14
0001e0 7f 2b 1c 80 20 c2 05 00 a5 f6 7f a1 6f b9 34 80
       -2.586997e-39 5.28816e-40 -8.672379e-19 -4.841967e-39
0001f0 27 67 b6 99 ba 8e 4a 80 05 2c 3c 80 7c 46 87 0e
       -1.8860022e-23 -6.847027e-39 -5.525921e-39 3.3347943e-30
000200 f6 21 31 80 4e 66 c0 81 8f 6f 7c 2f 60 98 43 00
       -4.512122e-39 -7.067646e-38 2.29589e-10 6.20764e-39
000210 5b 8a b6 b2 32 55 15 80 3b 29 34 80 2a 3b b9 b0
       -2.1250505e-08 -1.959108e-39 -4.790237e-39 -1.3477337e-09
000220 9f 7b 35 80 3a 98 c9 b4 86 64 3f 01 e6 10 0f 80
       -4.911628e-39 -3.7549927e-07 3.5153282e-38 -1.383594e-39
000230 3f db 29 22 65 09 71 b4 ff 80 26 00 04 bd 80 ae
       2.3019839e-18 -2.2448292e-07 3.536024e-39 -5.854342e-11
000240 df 35 49 8e 29 68 40 80 c2 e1 3e 34 38 d6 2b 2f
       -2.48011e-30 -5.914837e-39 1.7777259e-07 1.5628465e-10
000250 fd e5 20 00 0e 1e 7d 92 4f a4 44 00 64 74 3b b1
       3.02124e-39 -7.986977e-28 6.303757e-39 -2.7278242e-09
000260 59 d0 c7 15 71 26 6d aa a1 ab bb 2b 5d b4 31 00
       8.0704175e-26 -2.1063166e-13 1.3334786e-12 4.564641e-39
000270 2e 42 0b 80 4b 65 05 80 d3 1c 49 80 69 f2 23 80
       -1.033931e-39 -4.95515e-40 -6.714331e-39 -3.301203e-39
000280 e1 2c 09 00 22 dc 10 80 e8 a6 ab ab 1b c1 4a 80
       8.42619e-40 -1.548337e-39 -1.2196607e-12 -6.8651e-39
000290 de d0 63 2c a2 15 42 00 7f 0e 16 ae a2 de 94 b2
       3.2374585e-12 6.068903e-39 -3.4118926e-11 -1.733071e-08
0002a0 25 29 75 a3 25 3c 97 af 0c 00 10 00 8a 8e 32 00
       -1.3290189e-17 -2.7509475e-10 1.469385e-39 4.642908e-39
0002b0 12 96 8c 04 bd 6a 34 80 3d 6d 14 00 cb f4 c1 1a
       3.305166e-36 -4.813736e-39 1.875897e-39 8.0218413e-23
0002c0 19 31 04 80 d7 f4 3e a6 fc 07 b8 31 ca 79 de 27
       -3.84955e-40 -6.625131e-16 5.3560125e-09 6.174942e-15
0002d0 48 61 9f 34 b4 22 f4 33 66 d9 06 80 f2 09 59 b2
       2.968684e-07 1.1368448e-07 -6.29001e-40 -1.2633324e-08
0002e0 df 1e fd b0 4f b1 05 a9 bc 19 23 00 35 b6 ad a9
       -1.8416947e-09 -2.9685723e-14 3.223474e-39 -7.714351e-14
0002f0 2d be 10 00 1b e7 43 80 f2 bb 39 00 01 6c 22 00
       1.53759e-39 -6.235883e-39 5.302045e-39 3.161151e-39
000300 a1 75 ae 2b cc 9f 1f 00 a9 16 d0 ad c9 b4 a2 2f
       1.2396092e-12 2.904225e-39 -2.3656925e-11 2.9596084e-10
000310 eb 89 20 2f d0 78 a4 a9 8d d4 c5 90 bd c6 3f 00
       1.4600914e-10 -7.304021e-14 -7.8030285e-29 5.85693e-39
000320 fa 9a b2 37 8c 0d 16 b8 2b f9 ef 3a 2e 5f ff 35
       2.129142e-05 -3.5775403e-05 0.0018308511 1.9026681e-06
000330 e1 f6 6c 36 a9 52 d5 3b 27 75 4c bc a9 37 c9 3b
       3.5310443e-06 0.006510098 -0.012479103 0.0061406684
000340 4e 48 4d b8 5e 93 89 36 5d 89 ab 39 5e 7b 29 b9
       -4.8943148e-05 4.100074e-06 0.00032718005 -0.00016163054
000350 3e 8e 98 ba 5a 5e 7a bc c7 52 00 37 4c 5f 0c 81
       -0.0011639071 -0.015281284 7.648668e-06 -2.578231e-38
000360 06 cd 56 ba 00 6d e0 b9 eb b3 00 00 b4 fb bf b5
       -0.0008194003 -0.0004280582 6.4542e-41 -1.4303864e-06
000370 b2 c0 5d 3a 40 a7 09 39 6c bd 8f ba 0e fd b4 bb
       0.0008459195 0.00013127644 -0.0010966486 -0.0055233305
000380 ea b5 84 3b 18 fe 6d b9 a4 97 68 ba b4 1a 30 bb
       0.004050006 -0.00022696739 -0.0008872694 -0.0026871385
000390 b2 00 27 3b d2 06 ce b9 a0 fa 28 00 0d cf 38 80
       0.0025482592 -0.00039296463 3.763327e-39 -5.217064e-39
0003a0 42 20 03 80 f2 6a bb 05 29 57 35 80 92 c8 72 b7
       -2.87078e-40 1.7624681e-35 -4.898548e-39 -1.4471023e-05
0003b0 10 f9 e9 b6 a1 ca d2 36 67 49 3f 00 b3 b8 85 35
       -6.972936e-06 6.282077e-06 5.811968e-39 9.963027e-07
0003c0 e0 93 1d 34 50 5f 39 80 f1 2d 09 00 a9 92 c1 3a
       1.4675561e-07 -5.268815e-39 8.43e-40 0.001476844
0003d0 eb 8d bc 3a ab 17 1f 81 66 ed 0a bc af 39 5d bb
       0.0014385557 -2.922067e-38 -0.008479452 -0.0033756306
0003e0 54 1a 0d 80 bb 4c 2d 80 d0 9d 16 ba b2 fb b5 35
       -1.203306e-39 -4.160123e-39 -0.0005745562 1.3558804e-06
0003f0 36 8e 43 3a 40 5e ee 37 53 38 45 3b 3e 38 72 ba
       0.0007459851 2.84157e-05 0.0030093386 -0.0009239948
